Assets/Training/results/RUN5/SzitakotoBehavior/SzitakotoBehavior-10499884.onnx (onnx, 729012 bytes, 17 tensors)

85 f4 [14]
0	0x39a1ccb7	0.00030860837
1	0x3e43e16f	0.19128965
2	0x39a1ccb7	0.00030860837
3	0x3e442918	0.19156301
4	0x39a1ccb7	0.00030860837
5	0x3e40566b	0.18782966
6	0x39a1ccb7	0.00030860837
7	0x3e42fadc	0.19041008
8	0x39a1ccb7	0.00030860837
9	0x3e419573	0.18904667
10	0x39a1ccb7	0.00030860837
11	0x3e414a39	0.1887597
12	0x39a1ccb7	0.00030860837
13	0x3e414a38	0.18875968

88 f4 [42]
0	0x3ad9d42b	0.0016619017
1	0x3e8e93ce	0.2784714
2	0x3b15fdc5	0.0022886854
3	0x3e8c6676	0.27421921
4	0x3b0aa795	0.0021157016
5	0x3e91ec73	0.2850071
6	0x3b1ca925	0.002390453
7	0x3e8e7942	0.27826887
8	0x3b133d32	0.0022466895
9	0x3e93bafb	0.28853592
10	0x3b1b5987	0.0023704486
11	0x3e920d49	0.2852576
12	0x3b18b1b5	0.002329928
13	0x3e94541d	0.28970423
14	0x3ad9d42b	0.0016619017
15	0x3e8e15f5	0.27751127
16	0x3b15fdc5	0.0022886854
17	0x3e8bee1d	0.27330104
18	0x3b0aa795	0.0021157016
19	0x3e915f5f	0.28393075
20	0x3b1ca925	0.002390453
21	0x3e8df7eb	0.2772821
22	0x3b133d32	0.0022466895
23	0x3e931db1	0.2873359
24	0x3b1b5987	0.0023704486
25	0x3e917626	0.28410453
26	0x3b18b1b5	0.002329928
27	0x3e93a9cc	0.28840482
28	0x3ad9d42b	0.0016619017
29	0x3e8d968d	0.27653924
30	0x3b15fdc5	0.0022886854
31	0x3e8b7465	0.2723724
32	0x3b0aa795	0.0021157016
33	0x3e90d0c7	0.28284284
34	0x3b1ca925	0.002390453
35	0x3e8d7510	0.27628374
36	0x3b133d32	0.0022466895
37	0x3e927eea	0.28612453
38	0x3b1b5987	0.0023704486
39	0x3e90dd66	0.28293914
40	0x3b18b1b5	0.002329928
41	0x3e92fdcf	0.28709266

91 f4 [132]
0	0x3e61735d	0.22016664
1	0x3ef54ba9	0.47909287
2	0x3efc0ab6	0.49226922
3	0x3e8dd146	0.27698725
4	0x3e54d9c0	0.2078619
5	0x3ef6bc50	0.48190546
6	0x3efc64f9	0.49295786
7	0x3e8cb387	0.27480718
8	0x3e83a390	0.25710726
9	0x3eedf163	0.46473226
10	0x3ef9db59	0.4880016
11	0x3e8b3b36	0.27193612
12	0x3e6215f3	0.22078685
13	0x3ef41c9a	0.4767807
14	0x3efb5b4f	0.490931
15	0x3e8ae85e	0.27130407
16	0x3e8df2ef	0.27724406
17	0x3ee888c7	0.45416853
18	0x3ef86a6e	0.485187
19	0x3e8763ec	0.26443422
20	0x3e85276c	0.2600664
21	0x3eee407a	0.46533567
22	0x3efa3aa3	0.4887286
23	0x3e88b3ae	0.26699585
24	0x3e8fa34a	0.28054267
25	0x3ee3e64b	0.44511637
26	0x3ef62b76	0.48080033
27	0x3e85429c	0.2602738
28	0x3e8ef70f	0.27922866
29	0x3ee54fc5	0.44787422
30	0x3ef6d401	0.4820862
31	0x3e86987d	0.26288214
32	0x3e8e5999	0.27802733
33	0x3ede9bea	0.43478328
34	0x3ef2de68	0.47435308
35	0x3e82fcd6	0.25583524
36	0x3e8b4e5f	0.2720823
37	0x3ed7ef8b	0.42174944
38	0x3eee1b66	0.46505278
39	0x3e83ac83	0.25717553
40	0x3e8dd4bd	0.2770137
41	0x3ed81d3d	0.42209807
42	0x3eeedcee	0.4665293
43	0x3e7f4ab3	0.24930839
44	0x3e61da6c	0.22055978
45	0x3ef55971	0.479198
46	0x3efbe37c	0.49196994
47	0x3e8c9651	0.27458432
48	0x3e554f2f	0.20830987
49	0x3ef6c966	0.4820053
50	0x3efc3ff0	0.4926753
51	0x3e8b7426	0.27237052
52	0x3e83d436	0.25747842
53	0x3eee02fa	0.46486646
54	0x3ef9ab4f	0.4876351
55	0x3e89f55d	0.2694501
56	0x3e629782	0.22128108
57	0x3ef42c1a	0.47689897
58	0x3efb32c1	0.4906216
59	0x3e899f16	0.26879185
60	0x3e8e202d	0.27758923
61	0x3ee89d3c	0.4543246
62	0x3ef834fe	0.4847793
63	0x3e860e41	0.2618275
64	0x3e855f6f	0.26049373
65	0x3eee5394	0.4654814
66	0x3efa0e2d	0.4883894
67	0x3e875c4d	0.26437607
68	0x3e8fcd3a	0.28086263
69	0x3ee3fa0f	0.44526717
70	0x3ef5ec1a	0.48031694
71	0x3e83e077	0.2575719
72	0x3e8f272a	0.27959567
73	0x3ee56589	0.44804028
74	0x3ef6997b	0.4816397
75	0x3e853033	0.26013336
76	0x3e8e8290	0.27833986
77	0x3edea8fa	0.43488294
78	0x3ef28eeb	0.47374663
79	0x3e8188a7	0.2529957
80	0x3e8b7d2d	0.2724394
81	0x3ed7ff44	0.4218694
82	0x3eedbe81	0.46434405
83	0x3e8225be	0.2541942
84	0x3e8dfb7a	0.27730924
85	0x3ed826a2	0.42216974
86	0x3eee7cce	0.46579593
87	0x3e7c2d86	0.24626741
88	0x3e624143	0.22095208
89	0x3ef56708	0.4793017
90	0x3efbbbf5	0.49166837
91	0x3e8b56c6	0.2721464
92	0x3e55c3dd	0.20875497
93	0x3ef6d60f	0.4821019
94	0x3efc1a3f	0.49238774
95	0x3e8a3024	0.26989853
96	0x3e8404d1	0.25784925
97	0x3eee1577	0.4650075
98	0x3ef97a4a	0.48726112
99	0x3e88aabe	0.26692766
100	0x3e6317e1	0.22177078
101	0x3ef43b71	0.477016
102	0x3efb0970	0.49030638
103	0x3e885141	0.26624492
104	0x3e8e4d5e	0.277934
105	0x3ee8b177	0.45447895
106	0x3ef7fd88	0.48435616
107	0x3e84b323	0.2591792
108	0x3e859811	0.2609258
109	0x3eee671b	0.46563038
110	0x3ef9e063	0.48804006
111	0x3e85ffe2	0.26171786
112	0x3e8ff7ea	0.2811883
113	0x3ee40e25	0.4454204
114	0x3ef5aba8	0.47982526
115	0x3e82787a	0.2548254
116	0x3e8f5829	0.27996948
117	0x3ee57b69	0.44820717
118	0x3ef65ddd	0.48118487
119	0x3e83c28b	0.25734362
120	0x3e8eab80	0.2786522
121	0x3edeb5ef	0.4349818
122	0x3ef23d33	0.47312316
123	0x3e800d0f	0.25009963
124	0x3e8babce	0.27279514
125	0x3ed80eba	0.42198735
126	0x3eed6044	0.46362507
127	0x3e80984b	0.2511619
128	0x3e8e223f	0.27760503
129	0x3ed83006	0.4222414
130	0x3eee1b48	0.4650519
131	0x3e7901d4	0.24317104

94 f4 [2]
0	0x3e851810	0.2599492
1	0x3ed2908b	0.41125903

action_model._continuous_distribution.log_sigma f4 [1, 2]
0	0xbf785755	-0.9700826
1	0xbec824bd	-0.3909053

action_model._continuous_distribution.mu.bias f4 [2]
0	0x3c915098	0.017738625
1	0xbc45decd	-0.012077046

action_model._continuous_distribution.mu.weight f4 [2, 256]
0	0x3d0927c1	0.033485178
1	0xbc20af6e	-0.009807451
2	0x3d4c6efd	0.049910534
3	0xbcf6181e	-0.030040797
4	0xbae1391b	-0.0017183156
5	0x3bc59127	0.0060292664
6	0x3c4f26a6	0.012643492
7	0xbca0a1ec	-0.01960846
8	0xbcc57cd6	-0.024107378
9	0xbc4abe64	-0.012374494
10	0x3cf2ff9f	0.029662905
11	0xbc3e8941	-0.011629404
12	0xbc8e910b	-0.017403146
13	0x3b16d28c	0.002301368
14	0x3c4f6576	0.0126584675
15	0x3baa99cf	0.0052063237
16	0x3b1274bc	0.002234741
17	0xbd07bcbf	-0.033138987
18	0xbc2adab5	-0.01042812
19	0x3cf1b7cb	0.029506585
20	0xbd611aa0	-0.054957032
21	0x3b1e9cb0	0.002420228
22	0x3d589917	0.052880373
23	0x3d090f51	0.033461872
24	0xbd13ec3c	-0.036113963
25	0xbb1eb309	-0.00242156
26	0x3d143ed1	0.03619272
27	0xbbb23316	-0.005438219
28	0xbd7bd51d	-0.061482538
29	0x3c56b2c0	0.013104141
30	0xbcf8e288	-0.030381456
31	0xbb687c41	-0.0035474452
32	0xbd609ded	-0.05483811
33	0x3d54e54b	0.051976483
34	0x3d1f53d6	0.03889831
35	0xbb6184f2	-0.0034411517
36	0xbc4bad84	-0.012431506
37	0x3ca54090	0.020172387
38	0x3c7a668d	0.015283239
39	0x3c560caa	0.013064543
40	0x3c3a749d	0.011380342
41	0xbc6f0070	-0.014587507
42	0xbbfd5674	-0.0077312533
43	0xbc14ed7e	-0.009089826
44	0x3c162d67	0.009166098
45	0x3cb162a4	0.02165348
46	0xbc736f22	-0.014858039
47	0xbca429b7	-0.020039422
48	0x3b595079	0.0033159538
49	0xbd040626	-0.032232426
50	0xbb3c9fcf	-0.0028781777
51	0xbb81cdc9	-0.003961299
52	0xbd0dc22c	-0.034609005
53	0xbd90c25b	-0.0706832
54	0x3d201f5b	0.039092403
55	0x3cd4a883	0.025959259
56	0xbd2fdde8	-0.042936236
57	0xbb7534d6	-0.0037415526
58	0x3b6108fa	0.0034337626
59	0x3d608d6d	0.054822374
60	0xbc3ff4bd	-0.011716065
61	0x3c066840	0.008203566
62	0x3b906b59	0.004407328
63	0x3c2f2f4e	0.010692431
64	0xbc330ca9	-0.010928311
65	0xbc9f9fb7	-0.019485338
66	0xbc683f2a	-0.014175216
67	0x3d07ed3a	0.03318522
68	0xbbf94c7a	-0.0076079937
69	0x3bbd2de7	0.0057732943
70	0xbd8f7c2b	-0.07006105
71	0xbbe589bd	-0.007004945
72	0xbb1f5ece	-0.0024317983
73	0x3b58274a	0.0032982402
74	0xbd1b71ce	-0.03795033
75	0xbd0daff0	-0.034591615
76	0x3c0c064c	0.008546423
77	0x3b9b2ead	0.004735789
78	0xbc717ddd	-0.014739481
79	0xbc0f67f3	-0.008752811
80	0xbdb4caf4	-0.08827773
81	0xbb5bee98	-0.003355896
82	0xbb67d0bd	-0.003537222
83	0x3d14d873	0.036339235
84	0xb8ebda3d	-0.00011246323
85	0xbc285d03	-0.010276082
86	0xbd91e0ba	-0.07122941
87	0x3d805a1a	0.062671855
88	0xbb20ae83	-0.002451808
89	0x3a4a1312	0.000770853
90	0xbc025546	-0.007954901
91	0xba9a5ce2	-0.0011776949
92	0xbd8020ed	-0.0625628
93	0xbd992b90	-0.07479012
94	0xbd53b855	-0.051689465
95	0xbc5e4868	-0.013567068
96	0xbd71c3ba	-0.05902455
97	0x3c6cf311	0.014462248
98	0xbc735a61	-0.014853091
99	0xbbea31b6	-0.0071470393
100	0x3c110ea3	0.008853587
101	0xbc89af79	-0.016807305
102	0xbcd5b184	-0.026085623
103	0xb9866438	-0.0002563314
104	0x3c824a50	0.015904576
105	0x3c5f11f9	0.013615125
106	0xbccdaca4	-0.025106736
107	0x3bad9c98	0.0052982084
108	0xbc254376	-0.010086885
109	0xbbe8177f	-0.007082879
110	0x3c7551f5	0.014973153
111	0xbc8e5eec	-0.017379247
112	0x3a8eb4f9	0.0010887674
113	0xbcb93dff	-0.02261257
114	0xbd18ecef	-0.037335332
115	0x3bb9d07a	0.0056706043
116	0x3c329fc6	0.010902351
117	0xbca77e7e	-0.020446058
118	0xbc943093	-0.018089568
119	0x3bc7cf9d	0.0060977475
120	0x3b245d16	0.0025079898
121	0x3c91f31c	0.017816119
122	0xbd419ee2	-0.047270663
123	0xbacda153	-0.0015688337
124	0x39bf3214	0.0003646767
125	0x3ba20bc5	0.0049452507
126	0xbcc8529b	-0.024453452
127	0xba8679bd	-0.001025967
128	0xbc27331c	-0.0102050565
129	0xbb1620ba	-0.002290769
130	0xbd61d43d	-0.055134047
131	0x3bd35bd0	0.006450154
132	0x3db536c5	0.08848337
133	0xbb050d15	-0.0020301987
134	0xbbb33995	-0.005469511
135	0xbcd042b9	-0.02542244
136	0x3db24d71	0.08706177
137	0x3caff60e	0.021479633
138	0x3d0d0181	0.034425262
139	0x3bf73087	0.0075436267
140	0xbc989f3c	-0.018630616
141	0x3d5153e6	0.051105402
142	0x3d0ab0c5	0.033859987
143	0xbc32f96b	-0.010923724
144	0xb921cb59	-0.0001542991
145	0xbbc90f05	-0.0061358237
146	0xbb9809b9	-0.004639831
147	0x3cd88f64	0.026435561
148	0x3b16b66d	0.0022996918
149	0xbc2bc391	-0.010483638
150	0xbb981bf4	-0.004642004
151	0xbb3b9fa4	-0.0028629089
152	0xbd054612	-0.032537527
153	0xbd8f8320	-0.07007432
154	0x3d07f698	0.033194155
155	0x3d38067c	0.04492806
156	0x3cc2d43b	0.02378284
157	0xbcd64178	-0.026154265
158	0xbabe5ffa	-0.0014524453
159	0x3b4fa2f4	0.003168282
160	0xbc80661f	-0.015673695
161	0xbd0d522e	-0.0345022
162	0x3bbb924c	0.005724227
163	0x3c3ce7b2	0.01152985
164	0xbb8bb3b5	-0.004263366
165	0xba8b940f	-0.0010648983
166	0xbd2be608	-0.04196742
167	0xbbb03f12	-0.0053786123
168	0x3d6e5caa	0.05819384
169	0x3ae30886	0.0017321266
170	0xbba8dda5	-0.005153375
171	0x3c9c5bc6	0.01908673
172	0x3ae2ce71	0.0017303956
173	0xbd1275d0	-0.035756886
174	0x3dcce4b3	0.100045584
175	0x3bef0989	0.007294838
176	0xbc2f80e2	-0.01071188
177	0xbca2a9da	-0.019856382
178	0xbd9187de	-0.07105993
179	0xbd63d15f	-0.055619594
180	0x3a915291	0.0011087229
181	0x3ccc2f00	0.024924755
182	0xbcd39bdb	-0.025831154
183	0xb882ceb9	-6.237388e-05
184	0x3b35e449	0.0027754477
185	0xba0cd7a4	-0.0005372709
186	0x3cacfa6d	0.021115506
187	0xbc5178d1	-0.0127851525
188	0xbc0001e7	-0.007812954
189	0xbd2fd739	-0.04292986
190	0xbcd0c40f	-0.025484113
191	0xba5fb9b2	-0.00085344457
192	0x3ba6289e	0.00507076
193	0xbc20c729	-0.0098131085
194	0xbc48ae24	-0.01224855
195	0x3a2a6f39	0.0006501559
196	0xbc8c7c1f	-0.01714903
197	0xbb89db7a	-0.004207072
198	0x3b8f448d	0.0043721856
199	0xbbe2f7b7	-0.0069265026
200	0xbd3cc295	-0.046084005
201	0x3b57f999	0.0032955168
202	0xbcadcd21	-0.021215977
203	0x3d094975	0.03351732
204	0xbbed5c98	-0.007243704
205	0xbcd533bb	-0.026025644
206	0x3b0c6c9a	0.0021427036
207	0xbca005d2	-0.019534025
208	0xbbbb126b	-0.0057089827
209	0x3c12f249	0.008968898
210	0x3c739564	0.0148671605
211	0x3b841460	0.004030749
212	0xbb6033e9	-0.0034210628
213	0x3b0fade1	0.0021923708
214	0x3b6c6e87	0.0036076622
215	0xbc9225f9	-0.017840372
216	0x3cb09b35	0.021558383
217	0xbb5f2ebd	-0.0034054958
218	0xbced708c	-0.02898433
219	0x3ac17f93	0.0014762752
220	0xbada0b57	-0.001663546
221	0xbc6ca214	-0.014442939
222	0xba8c454a	-0.0010701802
223	0x3c6cc12b	0.014450352
224	0xbd334409	-0.043766055
225	0xbd828ca8	-0.06374484
226	0xbb98a384	-0.0046581645
227	0xbb143161	-0.002261244
228	0xbd3d8635	-0.046270568
229	0x3ca906d6	0.020633142
230	0x3d17e9bd	0.037088145
231	0x3c357d0c	0.011077177
232	0x3c8145b0	0.0157803
233	0x3a9ab75c	0.0011803913
234	0x3b65dbf3	0.0035073727
235	0xbc1eb5d4	-0.009686906
236	0x3cab6f5b	0.020927122
237	0x3c9c311a	0.019066382
238	0x3c8cbeb0	0.01718077
239	0xbb2ce1f8	-0.0026379805
240	0x3b4c7933	0.003120017
241	0xbc396a40	-0.011316836
242	0x3c5a6e9c	0.013332035
243	0x3ae8e355	0.0017767946
244	0xbd58f4ac	-0.052967712
245	0xbc0bc4d2	-0.008530812
246	0x3aef230b	0.0018244697
247	0xbdaa622e	-0.083195075
248	0x3d95d82d	0.07316623
249	0xbbe621f5	-0.007023091
250	0xbb2e7a39	-0.0026623143
251	0xbc67d372	-0.014149534
252	0x3b21ec37	0.0024707445
253	0x3c2e5f76	0.010642877
254	0xbaaa12be	-0.0012975556
255	0x3a058a5a	0.00050941634

network_body._body_endoder.seq_layers.0.bias f4 [256]
0	0xbbdfb17a	-0.006826577
1	0x3c2442e0	0.01002571
2	0x3bf17519	0.0073686955
3	0xbb8e4318	-0.0043414943
4	0x3bfa505b	0.0076389736
5	0x3d233eb6	0.039854728
6	0xbc7fe0a4	-0.015617523
7	0x3d265c2a	0.04061524
8	0xbbf1f41e	-0.0073838374
9	0x3b4c6afb	0.0031191695
10	0x3d3e7a22	0.046503194
11	0xbb827651	-0.0039813896
12	0xbd28247e	-0.041050427
13	0xbbc05089	-0.0058689755
14	0xbcb18d9a	-0.021673966
15	0xbd24c944	-0.040231004
16	0xbcb0d9a6	-0.021588158
17	0xbc904146	-0.01760925
18	0xbc841309	-0.016122358
19	0x3b117506	0.0022194996
20	0xbd159504	-0.036519065
21	0xbd2e62b3	-0.042574596
22	0xbce51140	-0.027962327
23	0xb903732e	-0.00012536041
24	0x3c9463a4	0.018113919
25	0x3c950659	0.018191503
26	0xbca7804b	-0.020446917
27	0xbd44113f	-0.04786801
28	0xbd35b387	-0.044360664
29	0xba2255c4	-0.00061925896
30	0xbd5df905	-0.05419256
31	0xbcd650a9	-0.026161509
32	0xbcf6121f	-0.030037938
33	0xbc8be439	-0.017076598
34	0xbcfcc6cf	-0.030856518
35	0xbd060f5d	-0.032729495
36	0x3ce8fd7f	0.028441189
37	0xbccf0736	-0.025271993
38	0xbd1a5df9	-0.037687276
39	0xbd0eb45d	-0.034839977
40	0xbc596271	-0.013268099
41	0xbccb2b71	-0.024800988
42	0x3b85ef2e	0.0040873503
43	0xbd0b886f	-0.03406566
44	0xbc4cc53c	-0.012498196
45	0xbd138f5b	-0.036025386
46	0xbd47c7de	-0.048774593
47	0xbd02e58a	-0.031957187
48	0x3c893cce	0.016752627
49	0xbc74d1d6	-0.014942607
50	0x3bc22949	0.0059253317
51	0x3cf63173	0.030052876
52	0xbd167e44	-0.03674151
53	0xbd058540	-0.03259778
54	0xb9fc0571	-0.0004806924
55	0xbb902831	-0.0043993224
56	0xbcadf9ef	-0.021237342
57	0xba414916	-0.00073732564
58	0xbbc1aa28	-0.005910177
59	0xbc01eaab	-0.007929484
60	0xbcf26f29	-0.02959402
61	0x3cf600eb	0.030029735
62	0x3c8484d9	0.016176628
63	0x3c904171	0.01760933
64	0xbb3cd2fd	-0.0028812282
65	0xbc868d43	-0.01642478
66	0xbd134242	-0.03595186
67	0xbbbbf4a2	-0.0057359496
68	0x3caf6192	0.02140883
69	0xbd265205	-0.040605564
70	0xbcccf016	-0.025016826
71	0xbd03a04e	-0.0321353
72	0xbd8d58b6	-0.06901686
73	0xbcbd9ace	-0.023145106
74	0xbcf52a6d	-0.029927457
75	0xbc3244e6	-0.0108806845
76	0xbd7c2196	-0.061555468
77	0x3c533911	0.012892024
78	0x3c5937c3	0.013257924
79	0xbd290ac5	-0.041270036
80	0xbd461bad	-0.048366237
81	0x3ce677e8	0.028133348
82	0xbcc1956d	-0.023630822
83	0xbadcb4e1	-0.0016838574
84	0xbd51fa0f	-0.051263865
85	0x3cf37fcf	0.02972403
86	0xbcf97ac8	-0.030454054
87	0xbc6c86da	-0.014436448
88	0x3ca04548	0.019564286
89	0xbd34a533	-0.04410286
90	0xbabdb7de	-0.0014474352
91	0xbcabfbe0	-0.020994127
92	0xbc233e64	-0.009963606
93	0x3c717578	0.014737479
94	0x3c06285d	0.008188334
95	0xbca01f50	-0.019546181
96	0xbcd457c2	-0.025920752
97	0x3b2bc51e	0.002621002
98	0x3c7c7fb2	0.015411304
99	0xbc91b3f1	-0.017785998
100	0xbbf6fd76	-0.007537539
101	0xbd88f08b	-0.06686505
102	0x3c470efd	0.01214957
103	0x3b6a8511	0.003578488
104	0x3c80622a	0.015671808
105	0x3d57aebd	0.052656878
106	0xbcf8ace3	-0.030355876
107	0xbaf0c1ab	-0.0018368264
108	0xbd3305e5	-0.043706793
109	0x3c491f81	0.0122755775
110	0xbc7ff79f	-0.015623002
111	0xbcf0fdc2	-0.029417876
112	0xbca6219f	-0.020279704
113	0xbc07f6e5	-0.00829861
114	0xbcb4d449	-0.022073882
115	0xbcbaca66	-0.02280159
116	0xbd2bf9ce	-0.04198628
117	0xbc3ee09d	-0.011650232
118	0xbd8668a9	-0.06562931
119	0xbd4e086c	-0.050301
120	0x3c312dbf	0.010814129
121	0xbd870835	-0.06593362
122	0xbbf9dde7	-0.00762533
123	0xbca7a4f5	-0.0204644
124	0xbb69e5a1	-0.0035689848
125	0xbcd6f906	-0.02624179
126	0xbcd8befc	-0.026458256
127	0xbc044d7a	-0.0080751125
128	0xbc78fc65	-0.015196894
129	0xbca85431	-0.020547958
130	0x3c9b9692	0.018992696
131	0xbc544fb8	-0.01295846
132	0x3910ece0	0.00013821153
133	0xbcdaff69	-0.026733117
134	0xbc87c0d3	-0.016571438
135	0x3ce219ec	0.027600251
136	0xbd3362aa	-0.043795265
137	0x3ca88059	0.020569013
138	0xbb6242ab	-0.00345246
139	0x3a5b852d	0.0008374032
140	0xbd46a069	-0.048492823
141	0xbda6e77c	-0.08149621
142	0xbd6d645e	-0.057957046
143	0x3b67f2ab	0.0035392444
144	0xbc1c3d04	-0.009536032
145	0x3c862e23	0.016379422
146	0x3b88c046	0.0041733114
147	0x3cf2cdb0	0.029639095
148	0x3c25cf12	0.01012017
149	0xbcff71f1	-0.031182261
150	0xbbce5c72	-0.0062976414
151	0xbc8ac51b	-0.01693969
152	0x3c56db19	0.01311376
153	0xbd1cc501	-0.038273815
154	0xbd38a3f1	-0.04507822
155	0xbd00888e	-0.03138023
156	0xbd10850d	-0.035283137
157	0xbcb1a140	-0.021683335
158	0xbc457342	-0.012051405
159	0xb9561ac9	-0.00020418609
160	0xbc4204ac	-0.011841934
161	0xbce73982	-0.028225664
162	0x3c5b6cd1	0.013392643
163	0xbd21d203	-0.039506923
164	0x3d3ea61c	0.046545133
165	0x3ac58633	0.0015069902
166	0xbcc46b67	-0.023976995
167	0xbc59a84f	-0.013284757
168	0x3cba51d0	0.02274409
169	0x3beb3f86	0.0071792034
170	0xbbde12a8	-0.0067771263
171	0xbbb4f44a	-0.0055222856
172	0xbce2f927	-0.027706696
173	0xbc8bea60	-0.017079532
174	0x3c640794	0.013917822
175	0xbafaef42	-0.0019144791
176	0xbc997b89	-0.018735664
177	0xbca4907d	-0.020088429
178	0xbc642e75	-0.013927092
179	0x3c716d1c	0.014735486
180	0xbbd6d599	-0.0065562245
181	0x3bd01c0c	0.0063509997
182	0xbc23d858	-0.010000311
183	0xbbf69b32	-0.007525825
184	0x3b321958	0.002717575
185	0xbd5f6555	-0.054539997
186	0x3b016bef	0.0019748171
187	0xbc96c943	-0.018406516
188	0xbc1b0f17	-0.009464047
189	0xbd1c2383	-0.038119804
190	0xbb2ec557	-0.0026667917
191	0xbccae5e0	-0.024767816
192	0xbc2062ef	-0.009789213
193	0xbd3c80b1	-0.046021167
194	0xbc879340	-0.016549706
195	0xbd27301c	-0.040817365
196	0xbb0e5aeb	-0.0021721672
197	0xbc2956a4	-0.010335598
198	0xbd140866	-0.036140822
199	0xbd4363a0	-0.04770243
200	0xbc5c559c	-0.013448145
201	0xbcbd398f	-0.023098735
202	0xbcab4712	-0.020907912
203	0xbca4d686	-0.020121824
204	0xbc87c90b	-0.016575357
205	0xbc4eed95	-0.012629886
206	0x3c635f81	0.01387775
207	0x3caba488	0.020952478
208	0x3b96c573	0.0046011745
209	0xb9926fb6	-0.0002793052
210	0xbc994256	-0.01870839
211	0xbcc28750	-0.023746163
212	0x3bd13fbb	0.006385771
213	0xbbe90679	-0.0071113673
214	0xbc2cbc45	-0.010542934
215	0xbcf9303c	-0.030418508
216	0x3ba4532d	0.005014798
217	0xbd002d20	-0.031293035
218	0xbb8873f4	-0.0041642133
219	0xbd4ebd7e	-0.050473683
220	0xbc70e096	-0.014701983
221	0x3c811642	0.015757684
222	0xbcba7853	-0.022762453
223	0xbd32a69e	-0.04361593
224	0xbd69e4ac	-0.057102844
225	0xbcaf6469	-0.021410184
226	0xbc9a9e1f	-0.018874226
227	0xbcedeb11	-0.029042752
228	0xbcd01e70	-0.025405139
229	0x3c651954	0.0139830895
230	0x3c0d0154	0.008606274
231	0xbcd93fbd	-0.02651965
232	0xbd11b108	-0.03556922
233	0xbc13f570	-0.009030685
234	0xbd2a8c47	-0.041637685
235	0xbcb200de	-0.02172893
236	0x3c9dc52b	0.019259056
237	0xbd540447	-0.05176189
238	0xbcb58cb9	-0.022161828
239	0xbd44b242	-0.048021562
240	0xbcc75958	-0.024334595
241	0xbcac1b1d	-0.021009022
242	0xbc94c034	-0.018158056
243	0xbd06eed6	-0.032942615
244	0xbd022fd6	-0.0317839
245	0xbcfe1b7e	-0.031018969
246	0x3c8d0624	0.017214842
247	0xbce14361	-0.02749795
248	0xbd3550c7	-0.04426649
249	0xbd2b4b27	-0.041819718
250	0x3c892627	0.016741825
251	0x3ce8673f	0.028369544
252	0xbc7b3b48	-0.015333958
253	0xbc49f9d2	-0.012327628
254	0xbcccdf3c	-0.02500879
255	0xbba78f2d	-0.0051135034

network_body._body_endoder.seq_layers.0.weight f4 [256, 190]
0	0x3da9895a	0.08278151
1	0x3e3d6f34	0.18499452
2	0x3e3c3528	0.18379653
3	0x3d9269eb	0.071491085
4	0xbd49c7b5	-0.04926272
5	0xbd802159	-0.062563606
6	0xbcd19ef3	-0.025588488
7	0xbd89d24e	-0.067295656
8	0x3daf5489	0.08561046
9	0xbbf1c8e4	-0.0073786844
10	0xbd92fb12	-0.07176794
11	0xbd334018	-0.043762296
12	0xbd7741eb	-0.0603656
13	0xbd826b83	-0.063681625
14	0x3dcdc5fd	0.10047529
15	0xbd9a918c	-0.07547292
16	0x3d877d75	0.06615726
17	0x3d032c5e	0.032024734
18	0xbc611d31	-0.01373987
19	0xbb00b2af	-0.0019637754
20	0x3d58a902	0.052895553
21	0x3cfe1a45	0.031018386
22	0xbda171be	-0.07883023
23	0xbd8fefd7	-0.07028168
24	0x3e3908f2	0.18069819
25	0x3c62fe97	0.013854644
26	0xbd1dc123	-0.038514268
27	0x3d6ad391	0.05733067
28	0x3d2a6869	0.04160348
29	0x3d459277	0.048235383
30	0x3ab3436f	0.0013676713
31	0x3be1b6b1	0.0068882336
32	0xbcc46570	-0.02397415
33	0x3d8b9f09	0.06817443
34	0xbbc20866	-0.0059214113
35	0xbb4c1ed7	-0.0031146312
36	0x3db488a2	0.08815123
37	0x3dc5f630	0.09666097
38	0xbdf26441	-0.11835528
39	0x3db3872f	0.087660186
40	0xbd3c9bd6	-0.046047054
41	0xbca3512d	-0.019936169
42	0x3ca32783	0.019916302
43	0x3dd1c526	0.10242681
44	0x3db95f05	0.09051327
45	0x3dce227e	0.100651726
46	0x3db97d58	0.090571105
47	0x3d457c89	0.04821447
48	0x3e6161e0	0.22009993
49	0xbdb83425	-0.08994321
50	0x3df1ea75	0.11812297
51	0xba795f65	-0.0009512811
52	0x3db18a4e	0.08668958
53	0xbe0e7b52	-0.1391423
54	0xbd5869c4	-0.05283524
55	0xbb8f83b8	-0.004379716
56	0xbda86c69	-0.082238026
57	0x3bf04781	0.0073327427
58	0x3dccd0f2	0.10000791
59	0x3dad67a4	0.084670335
60	0xbda6c101	-0.08142281
61	0x3e27430b	0.16334169
62	0xbd758b68	-0.0599474
63	0xbd3fb049	-0.046798978
64	0x3d6f49bb	0.058419924
65	0xbd992ac9	-0.07478864
66	0x3d92fc58	0.07177037
67	0x3d63c2ac	0.055605575
68	0x3dcf960c	0.10136041
69	0x3dcb9c9f	0.099419825
70	0xbd5e2c32	-0.054241367
71	0xbc2ee19b	-0.010673906
72	0x3dd28ee4	0.102811605
73	0xbd7e1011	-0.06202704
74	0xbe0b15f7	-0.13582598
75	0x3cdc0b7f	0.02686095
76	0xbd63e055	-0.05563386
77	0x3bbdce33	0.005792403
78	0x3c8201a4	0.015869923
79	0x3e08f978	0.13376415
80	0x3d4ce25b	0.050020557
81	0xbbae6285	-0.005321803
82	0x3ca6fb50	0.020383507
83	0x3d94b78a	0.0726157
84	0xbd9fb28e	-0.077977285
85	0xbc5823d0	-0.013192132
86	0x3db56d9a	0.088587955
87	0x3d602b86	0.054729007
88	0x3caedc2b	0.021345219
89	0xbe47c1ad	-0.19507475
90	0x3bd45e62	0.006480978
91	0x3b8ac068	0.0042343624
92	0x3e015a1e	0.12632033
93	0xbda92f45	-0.08260969
94	0x3e122e68	0.14275515
95	0x3d0ace5b	0.033888202
96	0x3da14792	0.07874979
97	0xbb90c238	-0.004417684
98	0xbe1c11c0	-0.15241146
99	0xbe2707ff	-0.16311644
100	0xbde9eb1f	-0.11421799
101	0xbdb0f8f0	-0.08641231
102	0xbd85b3cd	-0.06528435
103	0x3d149ddd	0.036283363
104	0xbd39b109	-0.04533485
105	0x3db9699a	0.09053345
106	0x3c575506	0.01314283
107	0xbd49448a	-0.04913763
108	0x3da1cf17	0.079008274
109	0x3d0fb015	0.035080034
110	0xbdc634dc	-0.09678051
111	0x3b9c96b2	0.0047787065
112	0xbdf936ae	-0.121686324
113	0xbd3d552a	-0.046223797
114	0x3e13db1a	0.1443905
115	0xbdc29152	-0.09500374
116	0xbda5a0c4	-0.08087304
117	0x3de59db1	0.11211718
118	0xbd0ff5c3	-0.035146486
119	0xbdc207c6	-0.09474139
120	0xbcc6ed40	-0.024283051
121	0xbcf6257c	-0.03004717
122	0xbdadcc21	-0.084862
123	0xbd911c72	-0.07085504
124	0x3daa9149	0.08328492
125	0xbda24d1f	-0.07924866
126	0x3dee7471	0.11643303
127	0xbd3f18cd	-0.04665451
128	0x3d87e8b4	0.066361815
129	0x3c28795e	0.010282842
130	0xbd5b8bfc	-0.053600296
131	0xbd8d798a	-0.06907947
132	0xbc5e1539	-0.013554865
133	0x3caf075f	0.02136582
134	0xbcc3768e	-0.023860242
135	0xbdce6ec3	-0.1007972
136	0x3d9e34bd	0.07724903
137	0xbd878412	-0.06616987
138	0xbc856da0	-0.016287625
139	0xbb49b200	-0.0030776262
140	0x3da08459	0.07837743
141	0x3dadbfd5	0.08483855
142	0x3cc30aa9	0.023808794
143	0x3d8468d8	0.0646531
144	0x3df51030	0.11965978
145	0xbd17de0a	-0.037076987
146	0x3d8e0c9a	0.06935997
147	0x3d48a008	0.048980743
148	0xbc83f14e	-0.016106274
149	0xbdd6bb18	-0.10484904
150	0xbdad920d	-0.084751226
151	0xbd6070a0	-0.054794908
152	0x3e860251	0.26173642
153	0xbde1382f	-0.10997044
154	0x3c16b9a8	0.009199537
155	0x3dc04001	0.09387208
156	0xbded5df1	-0.115901835
157	0x3e21a428	0.15785277
158	0x3ca1b6b1	0.019740434
159	0xbe34dfe3	-0.17663531
160	0xbc8b7f37	-0.017028434
161	0x3e1dd143	0.15411858
162	0x3e281a3c	0.16416258
163	0x3d9feacf	0.07808458
164	0xbd8992f3	-0.067174815
165	0xbd360f1a	-0.044447996
166	0xbc5894e4	-0.013219092
167	0x3d4ca25b	0.04995952
168	0xbd19c08b	-0.03753714
169	0x3d9d8b11	0.076925404
170	0x3cebd1a5	0.02878649
171	0xbdb72f34	-0.0894455
172	0x3e81a0a4	0.25317872
173	0x3dab7fe1	0.08374
174	0xbcafa8ee	-0.021442857
175	0xbcedd3bb	-0.029031625
176	0xbd91c2e1	-0.07117248
177	0x3d71deeb	0.05905048
178	0xbdccaa1d	-0.09993384
179	0x3d719101	0.058976177
180	0x3c966851	0.018360289
181	0xbcc4477f	-0.023959873
182	0x3c9ab57c	0.018885367
183	0x3d9dda42	0.07707645
184	0xbbc072bb	-0.005873052
185	0x3b4e9046	0.00315191
186	0x3d9681e7	0.07348996
187	0x3df8001f	0.12109398
188	0xbd9ae352	-0.07562889
189	0x3e8e4c3e	0.27792543
190	0x3d9a884d	0.075455286
191	0xbe9963f1	-0.29959062
192	0x3dd96f64	0.10616949
193	0x3b283691	0.002566729
194	0x3e5f0abe	0.21781442
195	0xbdd27a57	-0.10277241
196	0xbd0b3c76	-0.033993207
197	0x3e1ec35c	0.15504211
198	0x3ccb34c3	0.024805432
199	0x3e2aa9ce	0.16666338
200	0x3d2b3521	0.041798715
201	0x3e355bd8	0.17710817
202	0x3c729d2f	0.014807983
203	0x3c35d8f3	0.011099088
204	0xbbfd753f	-0.007734924
205	0xbd053b85	-0.032527465
206	0x3d50a24c	0.05093603
207	0x3bbd8ee6	0.005784857
208	0xbd9a7d13	-0.07543387
209	0xbd59d1fb	-0.05317877
210	0x3b9ffb70	0.0048822686
211	0xbe80755b	-0.25089535
212	0xbd4bace3	-0.049725424
213	0x3c3d7e5e	0.011565773
214	0xbde2ca37	-0.11073726
215	0xbd983cfa	-0.07433505
216	0xbdc47c4b	-0.095940195
217	0x3d685f32	0.05673141
218	0xbc5bf35d	-0.013424722
219	0x3dc306cf	0.09522783
220	0x3d71f225	0.059068818
221	0xbdb7aaee	-0.08968149
222	0xbb962eff	-0.004583239
223	0xbcda4f28	-0.026649073
224	0x3e255d73	0.1614893
225	0x3d819785	0.06327728
226	0x3e1d5806	0.1536561
227	0x3e1ac6c7	0.1511489
228	0x3e0df234	0.13861924
229	0xbb32f70e	-0.00273079
230	0xbe03077e	-0.12795827
231	0xbdb3458f	-0.087535016
232	0xbda8b45f	-0.08237528
233	0xbd933abc	-0.07188937
234	0x3d039e18	0.03213319
235	0xbcd0069a	-0.025393773
236	0x3e0b1da2	0.13585523
237	0xbdef4e16	-0.116848156
238	0x3d67d940	0.05660367
239	0x3d9fd10a	0.07803543
240	0x3d1f8ba7	0.038951542
241	0x3d84d198	0.06485289
242	0xbcaa942f	-0.020822613
243	0x3dfb2953	0.12263741
244	0xbcaada23	-0.020855969
245	0x3c1c8c33	0.0095549105
246	0xbdef382c	-0.11680636
247	0xbcaaa0a9	-0.020828562
248	0x3ddc0ea4	0.1074498
249	0xbc895202	-0.016762737
250	0xbc81a682	-0.015826467
251	0xbd3b82a2	-0.045778878
252	0x3dc9baf7	0.09850114
253	0xbd7179da	-0.058954097
254	0xbc06b824	-0.0082226135
255	0xbdbb2606	-0.09138112

network_body._body_endoder.seq_layers.2.bias f4 [256]
0	0xbd2c6974	-0.042092755
1	0xbc8500ae	-0.016235676
2	0xbcb5e4c1	-0.022203805
3	0xbc2a057f	-0.010377287
4	0xbcff9a22	-0.031201426
5	0xbc58f7bc	-0.013242658
6	0xbceba5fd	-0.028765673
7	0xbcc23838	-0.023708448
8	0xbcd4d665	-0.025981138
9	0xbd4704df	-0.04858863
10	0xbcc1321a	-0.02358346
11	0xbcd1eba4	-0.025625058
12	0x3c606560	0.013696045
13	0xbc578dc4	-0.013156358
14	0xbd2036e6	-0.039114855
15	0xbcc6b681	-0.024256947
16	0xbd476e1c	-0.048688993
17	0xbcbb52f6	-0.022866707
18	0xbd36d1f9	-0.04463384
19	0xbc910924	-0.017704554
20	0xbcda3d7a	-0.026640642
21	0xbcc06518	-0.023485705
22	0xbc821080	-0.015877008
23	0xbba28436	-0.0049596084
24	0xbcf9cdd9	-0.030493664
25	0xbcc450e7	-0.023964358
26	0xba8741db	-0.0010319309
27	0xbd207055	-0.03916963
28	0xbce65ba7	-0.028119875
29	0xbce419de	-0.027844366
30	0xbd20f141	-0.039292578
31	0xbd334ed5	-0.043776352
32	0xbcfe3127	-0.031029297
33	0xbcb28cc8	-0.021795645
34	0xbc94ed18	-0.018179461
35	0xbc22d5af	-0.009938641
36	0xbd103494	-0.035206392
37	0xbce3da14	-0.027813949
38	0xbcdefcfd	-0.027220244
39	0xbc9d6179	-0.019211518
40	0xbbe9b603	-0.007132293
41	0xbd0971f2	-0.033555932
42	0x3ac65fef	0.0015134792
43	0xbbcfcbd6	-0.006341438
44	0xbcbd04ad	-0.023073519
45	0xbc5f2c2c	-0.013621371
46	0xbc8eb7b4	-0.01742158
47	0xbc18b216	-0.009319803
48	0xbc8092ca	-0.015694994
49	0xbd6ba4bd	-0.057530154
50	0xbc75d60c	-0.015004646
51	0xbcd04fa0	-0.025428593
52	0xbc819eec	-0.01582285
53	0xbc668ec9	-0.014072129
54	0xbbebfb52	-0.0072015906
55	0xbd1d1812	-0.038353033
56	0xbccdb982	-0.025112871
57	0xbd2a44ea	-0.041569628
58	0xbc098491	-0.008393423
59	0xbb09e4a1	-0.0021040814
60	0xbceb9ef4	-0.028762318
61	0xbceaa97c	-0.02864527
62	0x3b7c7027	0.0038518996
63	0xbd0b7a03	-0.034051906
64	0xbd0fee0c	-0.03513913
65	0xbca9b1b5	-0.02071462
66	0xbd06bd48	-0.032895356
67	0xbc125184	-0.008930568
68	0xbbd2c5fd	-0.0064322934
69	0x3c80ece4	0.015737958
70	0xbd7aeda4	-0.061261788
71	0x3aa2c22c	0.0012417487
72	0xbd3c7251	-0.046007458
73	0xbce87607	-0.028376592
74	0xbc890dbd	-0.016730184
75	0xbbc6b8c4	-0.0060645062
76	0xbd0e4b82	-0.03473998
77	0xbd0a6701	-0.03378964
78	0xbd27b9b3	-0.04094858
79	0xbc110ed2	-0.008853631
80	0xbd03219a	-0.032014467
81	0xbc7435f4	-0.014905442
82	0xbc990197	-0.018677516
83	0xbc53310a	-0.01289011
84	0xbcf9478e	-0.030429628
85	0xbb954362	-0.004555152
86	0xbd0009fc	-0.03125952
87	0xbcc1f5c9	-0.02367677
88	0xbd08805f	-0.03332555
89	0xbbf1210f	-0.007358677
90	0xbc22d649	-0.009938785
91	0x3c022c52	0.007945137
92	0xbcede87a	-0.029041518
93	0xbc3a8f46	-0.011386698
94	0xbc8a8614	-0.016909637
95	0xbd057e13	-0.032590937
96	0xbcb3da0f	-0.021954564
97	0xbc97831b	-0.018495133
98	0x3d01e414	0.031711653
99	0x3cf097a7	0.029369188
100	0xbcc89359	-0.024484323
101	0xbd071f7c	-0.03298901
102	0xbcc40719	-0.023929166
103	0xbc79ae93	-0.015239376
104	0xbb4b1031	-0.0030984993
105	0xbcf537b0	-0.02993378
106	0xbd0868bf	-0.03330302
107	0xbcbb4136	-0.022858243
108	0xbcd4fd13	-0.025999581
109	0xbc8f3a86	-0.01748396
110	0x3a5419f1	0.0008091024
111	0xbcfbbf26	-0.030730795
112	0xbc9dc7fb	-0.019260397
113	0xbce5eb00	-0.028066158
114	0xbd13e7d8	-0.036109775
115	0xbd0b674f	-0.03403407
116	0xbc8301a6	-0.015991997
117	0xbcbe3ed3	-0.023223316
118	0xbd160533	-0.036626052
119	0xbd0b1a5c	-0.033960685
120	0xbce763ac	-0.02824577
121	0x3ba00fa3	0.0048846765
122	0xbca97593	-0.020685947
123	0xbccdc13e	-0.02511656
124	0xbcea9d92	-0.028639589
125	0xbc882c28	-0.016622618
126	0xbc6839bd	-0.014173922
127	0xbcde4ae7	-0.027135326
128	0xbc952148	-0.018204346
129	0xbc5af494	-0.013363976
130	0xbc45807d	-0.01205456
131	0xbcb9a30a	-0.02266075
132	0xbc09af3d	-0.0084035965
133	0xbc8071a1	-0.015679182
134	0xbd24417f	-0.040101524
135	0xbccbe755	-0.024890581
136	0xbc8e438e	-0.017366197
137	0xbc84406b	-0.016143998
138	0xbc903113	-0.017601525
139	0xbcece139	-0.028915988
140	0xbc99c7cf	-0.018772034
141	0xbba12c4a	-0.0049186097
142	0xbc97a78c	-0.01851251
143	0xbba3a96f	-0.0049945633
144	0xbc8221b6	-0.015885215
145	0xbc2e263e	-0.010629235
146	0xbbe03e88	-0.006843392
147	0xbd3e4bf5	-0.046459157
148	0xbd0f9038	-0.035049647
149	0xbc87100c	-0.016487144
150	0xbd18f786	-0.03734543
151	0xbd214d7b	-0.03938053
152	0xbca04326	-0.019563269
153	0x3c488504	0.012238745
154	0xbd38874b	-0.0450509
155	0xbcf341e9	-0.029694514
156	0xbd063480	-0.03276491
157	0xbaf35692	-0.0018565229
158	0xbd16f32c	-0.036853
159	0xbca5f457	-0.020258112
160	0xbd1280bf	-0.035767313
161	0xbd48d0d0	-0.049027264
162	0xbc9d12ce	-0.019174006
163	0xbc7a8ac1	-0.015291871
164	0xbbfca911	-0.007710584
165	0xbd3353db	-0.043781143
166	0xbc74e3e8	-0.014946915
167	0xbca69743	-0.0203358
168	0xbcf0565e	-0.029338058
169	0xbd0ebdb7	-0.034848895
170	0xbc15d526	-0.009145057
171	0xbc38774e	-0.011258913
172	0xbcd33176	-0.02578042
173	0xbb69c6fc	-0.0035671582
174	0xbc6fd178	-0.014637344
175	0x3c45c122	0.012069972
176	0xbd6f3e50	-0.058409035
177	0xbcc5dce4	-0.02415318
178	0xbce70f1b	-0.028205445
179	0xbcf93089	-0.030418651
180	0xbb2ccd3c	-0.0026367446
181	0xbcf5e247	-0.030015124
182	0xbc857160	-0.016289413
183	0xbc83a82c	-0.016071402
184	0xbd519c41	-0.051174406
185	0xbce1c87c	-0.027561419
186	0xbc84527a	-0.01615261
187	0xbcb77782	-0.022395853
188	0xbcb28d67	-0.021795942
189	0xbcb284c5	-0.021791825
190	0xbb5481a3	-0.0032425902
191	0xbd305a97	-0.043055143
192	0x3a8dc21e	0.0010815298
193	0xbd0a8a4d	-0.0338233
194	0xbb771fa7	-0.0037708075
195	0xbbc05d17	-0.005870472
196	0xbd261da0	-0.040555596
197	0xbca084ae	-0.019594517
198	0xba9e3db8	-0.0012072837
199	0xbce035d6	-0.027369421
200	0xbcbe4964	-0.023228355
201	0xbcc8302e	-0.024437036
202	0x3b2bcdf6	0.0026215292
203	0xbcd7e3a9	-0.026353674
204	0xbd4a7a92	-0.0494333
205	0x3bba1ee5	0.0056799524
206	0xbc9d371d	-0.01919132
207	0xbc2f929d	-0.010716108
208	0xbd2a206b	-0.041534822
209	0xbcb8f387	-0.02257706
210	0xbd16ef70	-0.03684944
211	0xbc3459c5	-0.011007731
212	0xbd071c19	-0.03298578
213	0xbd56b84a	-0.052421845
214	0xbbfa461d	-0.0076377527
215	0xbd24fe78	-0.040281743
216	0xbd20e61f	-0.03928196
217	0xbca206ad	-0.019778574
218	0xbcfbb2a4	-0.03072483
219	0xbd2507d3	-0.040290665
220	0x3ae170b7	0.0017199729
221	0xbcc340a5	-0.023834536
222	0xbc1dba66	-0.00962696
223	0xbcd37c3f	-0.025816081
224	0xbc247954	-0.0100386925
225	0xbccf7f64	-0.0253293
226	0xbb61cfd2	-0.0034456146
227	0xbd10c3db	-0.035343032
228	0x3bc0881e	0.0058756014
229	0xbcf6d816	-0.030132335
230	0xbc6ebc0a	-0.014571199
231	0xbc75ac85	-0.014994745
232	0xbce65aa2	-0.028119389
233	0xbd335b8e	-0.043788485
234	0xbcab9e2d	-0.020949448
235	0xbbea376e	-0.007147721
236	0xbcb7d369	-0.022439675
237	0xbce4a4c6	-0.027910601
238	0xbcbbab97	-0.022908969
239	0xbd587715	-0.05284794
240	0x3baa889b	0.005204273
241	0xbc980dcb	-0.018561265
242	0xbc9770a3	-0.018486327
243	0xbc233854	-0.00996216
244	0xbbc46474	-0.0059934203
245	0xbcb9e282	-0.022691015
246	0xbd135ad4	-0.035975292
247	0xbbd51208	-0.0065023936
248	0xbc1ec042	-0.0096893925
249	0xbcdd0c36	-0.026983362
250	0xbbae2f79	-0.005315718
251	0xbcaad19f	-0.020851908
252	0xbcb52793	-0.022113597
253	0x3a68ce4b	0.00088808377
254	0xbca861b6	-0.020554405
255	0xbce6d901	-0.028179647

network_body._body_endoder.seq_layers.2.weight f4 [256, 256]
0	0x3c17df96	0.009269616
1	0xbdd45fe1	-0.1036985
2	0x3d62db77	0.05538508
3	0xbdd43cfe	-0.10363196
4	0x3d8841b8	0.0665316
5	0x3d613af2	0.054987855
6	0x3d9b9d88	0.07598406
7	0xbe0e2ebe	-0.13885018
8	0x3d65f45d	0.056141246
9	0xbdc758d3	-0.09733739
10	0xbde06c63	-0.10958173
11	0xbd3736ac	-0.044729874
12	0x3e18af85	0.14910705
13	0x3d8ccc80	0.06874943
14	0xbb691e97	-0.0035571211
15	0xbcbb617c	-0.022873633
16	0xbdcb8bdb	-0.09938785
17	0xbd867694	-0.06565586
18	0xbdc1b7a6	-0.09458856
19	0xbdab6478	-0.08368772
20	0xbde0b0e2	-0.10971238
21	0xbccb46dd	-0.024814064
22	0xbd80dbe6	-0.06291942
23	0x3d670f3a	0.056411006
24	0xbdd05144	-0.1017175
25	0xbe2991ba	-0.16559497
26	0xbc07d8e8	-0.008291461
27	0xbc2ac5fa	-0.010423178
28	0xbe2da6e2	-0.16958192
29	0xbd43fc17	-0.047847833
30	0xbddfedbd	-0.10934017
31	0x3d3f08b3	0.046639156
32	0xbe14f680	-0.14547157
33	0xbbb9f285	-0.0056746625
34	0x3d6de0c4	0.05807568
35	0x3ca26137	0.019821746
36	0x3c376878	0.011194341
37	0xbd0ed09e	-0.03486692
38	0x3d3110a1	0.04322875
39	0x3d87059e	0.06592868
40	0xbd95a256	-0.07306354
41	0x3e10c227	0.14136563
42	0xbe075047	-0.13214217
43	0xbce3a98b	-0.027790805
44	0xbe123ec7	-0.1428176
45	0xbd211f89	-0.039336715
46	0x3d2aa63d	0.041662443
47	0xbd59c885	-0.053169746
48	0xbe0e795e	-0.13913485
49	0xbb7bc7d7	-0.0038418674
50	0xbd8945f9	-0.06702799
51	0x3d3c15f1	0.045919362
52	0xbe061188	-0.13092625
53	0xbde431f3	-0.111423396
54	0xbcd368c4	-0.025806792
55	0x3d04e6af	0.03244656
56	0x3d20156f	0.03908294
57	0xbde9df1d	-0.114195086
58	0x3d0d5bf7	0.034511533
59	0x3dc7e3e9	0.09760267
60	0x3d0ed087	0.034866836
61	0xbd78eedb	-0.060774665
62	0xbe568d80	-0.20952415
63	0xbd70e376	-0.058810674
64	0x3cbc2a8e	0.02296951
65	0x3b4aab02	0.0030924683
66	0xbd94e24b	-0.072697245
67	0x3d67bd40	0.056576967
68	0xbdeb79ca	-0.11497839
69	0x3d2d45b2	0.042302795
70	0x3c120c23	0.008914026
71	0x3d16cb01	0.036814693
72	0x3d91c3fe	0.07117461
73	0x3ce2a803	0.027668005
74	0xbe2bf055	-0.16790898
75	0x3ce776c6	0.028254878
76	0x3e2cdbe9	0.16880764
77	0x3d034e56	0.03205713
78	0xbe31e9ee	-0.17374393
79	0xbd8ab4f6	-0.06772797
80	0xbce773bf	-0.028253434
81	0xbe633b94	-0.22190696
82	0xbe4b5dd1	-0.19860007
83	0xbd2ce3d4	-0.04220946
84	0xbc37e2f3	-0.0112235425
85	0x3e0cbe82	0.13744548
86	0x3d113d29	0.035458717
87	0xbd1f3a84	-0.038874164
88	0xbe2f4cc4	-0.17119128
89	0x3d62c94d	0.055367757
90	0xbd537745	-0.051627416
91	0xbdfbb097	-0.12289541
92	0xbdd9f82b	-0.106430374
93	0xbd52ce1e	-0.0514661
94	0xbae8d367	-0.0017763198
95	0xbe2b3aa1	-0.16721584
96	0x3d1f2058	0.038849205
97	0xbd630e9a	-0.055433847
98	0xbce308a9	-0.02771409
99	0xbde1e696	-0.11030309
100	0xba7e85ee	-0.0009709288
101	0xbc1adff1	-0.009452806
102	0x3ba830e3	0.005132781
103	0xbd3432e8	-0.04399386
104	0x3ca53a2a	0.020169336
105	0x3dda2093	0.10650744
106	0x3e219db1	0.15782811
107	0xbdd9ee46	-0.1064115
108	0xbbcbebf5	-0.0062231966
109	0xbd16da63	-0.036829364
110	0xbc29a781	-0.010354877
111	0xbc3a99ea	-0.011389235
112	0xbd69e4be	-0.05710291
113	0xbbec8df4	-0.0072190706
114	0xbac55aab	-0.0015056928
115	0xbe33b1f9	-0.1754836
116	0xbe200808	-0.15628064
117	0x3b42d2b4	0.002972764
118	0x3dc4af41	0.096037395
119	0x3b6a6941	0.0035768303
120	0x3cf902ee	0.030396905
121	0xbcd73a26	-0.026272845
122	0xbb3de2e4	-0.0028974349
123	0xbbc9300c	-0.006139761
124	0xbe0ef220	-0.13959551
125	0xbd0c3bab	-0.03423659
126	0xbcb8d970	-0.02256462
127	0xbdc5be26	-0.096554086
128	0x3e0a23bf	0.13490199
129	0xbdffa95f	-0.12483477
130	0x3dcfcaa7	0.10146075
131	0xbda9853b	-0.08277365
132	0xbdd53430	-0.104103446
133	0x3ce815bb	0.028330674
134	0xbc279306	-0.010227924
135	0x3d4e3dac	0.050351784
136	0x3dcff39c	0.10153887
137	0xbca7e9a5	-0.020497153
138	0x3d5dca0c	0.054147765
139	0xbc9fd741	-0.01951182
140	0x3e2d8a30	0.16947246
141	0xbdd1bab8	-0.10240692
142	0xbce0d651	-0.027445944
143	0xbe0df89f	-0.13864373
144	0x3e0b8e0b	0.13628404
145	0x3d57973a	0.052634455
146	0xbd8566c5	-0.06513742
147	0x3c99ce50	0.018775135
148	0xbd18bc66	-0.037289046
149	0xbb70b30d	-0.0036727816
150	0xbd6f8b00	-0.05848217
151	0xbd3ffc24	-0.04687132
152	0x3d6d4786	0.05792954
153	0x3def1ab0	0.11675012
154	0x3d90f5db	0.07078143
155	0xbd8f311c	-0.06991789
156	0xbb0d2d5a	-0.0021541924
157	0xbcbf7cd6	-0.023374956
158	0x3e34807a	0.17627135
159	0x3dee3dba	0.11632867
160	0x3cf87c87	0.030332817
161	0x3da32d20	0.07967591
162	0x3cfc72d9	0.030816482
163	0x3c5427b6	0.012948921
164	0x3cbf7972	0.02337334
165	0xbd69039b	-0.056888204
166	0xbd04d9b3	-0.032434177
167	0x3bf47afd	0.0074609504
168	0xbc42f943	-0.011900249
169	0xbd4048d2	-0.046944447
170	0x3b91e108	0.0044518746
171	0x3d7e55c9	0.06209353
172	0x3d261218	0.0405446
173	0x3df394b6	0.11893599
174	0x3e0c86cf	0.137233
175	0xbb38ae3d	-0.0028180026
176	0x3c7bda5d	0.015371886
177	0xbbec5c0a	-0.0072131203
178	0x3d0b85c9	0.034063134
179	0x3d044603	0.03229333
180	0xbd941331	-0.07230223
181	0xbac03875	-0.0014665263
182	0x3cf98c9f	0.030462561
183	0x3d02968c	0.031881854
184	0x3c40f097	0.011776111
185	0x3d2547b8	0.0403516
186	0x3d99d3d9	0.0751111
187	0x3c7c71b7	0.015407971
188	0xbc3f7107	-0.011684663
189	0x3c606a5e	0.013697235
190	0xbcd6ecb2	-0.026235912
191	0x3d2773f6	0.040882073
192	0x3c99bcf7	0.018766863
193	0xbd1d9fd7	-0.038482513
194	0x3d55b57f	0.05217504
195	0x3d33df87	0.043914344
196	0x3d95904d	0.07302914
197	0xbcdbe017	-0.026840253
198	0xbd543740	-0.051810503
199	0xbd6b1ed6	-0.057402454
200	0xbd98ae2c	-0.07455096
201	0xbd2c2a20	-0.04203236
202	0x3c96585d	0.018352682
203	0xbd2f9dc9	-0.042875085
204	0xbda357a9	-0.07975704
205	0xbe38277e	-0.17983815
206	0xbd8244e7	-0.06360798
207	0xbcaf4505	-0.021395216
208	0xbdada4af	-0.084786765
209	0xbcf72d31	-0.030172916
210	0xbd39a1f7	-0.045320477
211	0xbc8e84b2	-0.017397258
212	0xbdc22e9b	-0.094815455
213	0x3e1600d9	0.14648761
214	0x3dcc8ad4	0.09987417
215	0x3ca2cabe	0.019872066
216	0x3dc54924	0.09633091
217	0xbd8f8994	-0.07008663
218	0x3db0ab67	0.086264424
219	0x3d0c1dbe	0.03420805
220	0xbdb6e144	-0.08929685
221	0x3c337c0e	0.01095487
222	0xbd913c0b	-0.070915304
223	0xbd22aa8c	-0.039713427
224	0x3d47b8f7	0.04876038
225	0x3d5ec123	0.05438341
226	0xbdbf7592	-0.09348597
227	0xbd6ae776	-0.057349645
228	0xbda20148	-0.07910401
229	0x3d345d09	0.044034038
230	0xbcc115b0	-0.023569912
231	0xbdda9784	-0.106734306
232	0xbc73c9f2	-0.0148796905
233	0x3ddc52fe	0.10758017
234	0xbdca099e	-0.098651156
235	0xbd088e0c	-0.03333859
236	0xbe028a58	-0.12748086
237	0x3bbafc8c	0.0057063755
238	0x3bc54785	0.0060204887
239	0x3b5eb822	0.0033984263
240	0x3d82b243	0.06381657
241	0x3c84215a	0.016129185
242	0xbcc10c8b	-0.023565551
243	0xbdb17d0f	-0.08666431
244	0xbc913971	-0.017727586
245	0x3dad1e31	0.08453024
246	0xbdbc048e	-0.09180556
247	0x3d3afffe	0.04565429
248	0xbd1f2174	-0.038850263
249	0xbe14f52d	-0.14546652
250	0x3d3eacb6	0.04655143
251	0xbd6d85ac	-0.057988808
252	0xbc920b72	-0.017827723
253	0x3d12c82c	0.03583543
254	0x3d5e67b1	0.054298107
255	0x3ae76a85	0.0017655647

network_body._body_endoder.seq_layers.4.bias f4 [256]
0	0x3c1635c2	0.00916809
1	0xbd0f118f	-0.034928855
2	0xbb8a167e	-0.004214107
3	0xbd273cf2	-0.040829606
4	0x3b74e50b	0.0037367966
5	0xbcd73a77	-0.026272995
6	0xbd5af528	-0.053456455
7	0xbcb33dad	-0.021879995
8	0xbd3c5b49	-0.045985494
9	0xbd0552f0	-0.0325498
10	0xbc15f2b4	-0.009152103
11	0xbd141ed8	-0.036162227
12	0x3a993ad6	0.0011690508
13	0xbc5bcde8	-0.013415791
14	0xbcae7e34	-0.021300413
15	0xbc891021	-0.016731324
16	0xbd0d4599	-0.0344902
17	0xbce8bd71	-0.028410645
18	0xbd1c4632	-0.03815288
19	0x3b03cf08	0.0020112414
20	0xbcb9a3dd	-0.022661144
21	0xba8292df	-0.0009961984
22	0x3c20ae5b	0.009807195
23	0xbaa4b7f2	-0.0012567027
24	0xbcffebfc	-0.031240456
25	0xbd378156	-0.04480108
26	0xbb9b9ef2	-0.0047491724
27	0xbcb57bbd	-0.02215373
28	0xbca2704b	-0.019828936
29	0xbca987c8	-0.020694628
30	0xbca42dae	-0.020041313
31	0xbd1945a3	-0.037419926
32	0xbcb4bb81	-0.022062065
33	0x3c537a47	0.012907571
34	0xbb8ceb95	-0.0043005445
35	0xbd3eccd1	-0.046582047
36	0xb86fc9d7	-5.717002e-05
37	0xbd12b993	-0.03582151
38	0xbc5f261e	-0.013619928
39	0xbc908bdd	-0.017644817
40	0xbc350ee5	-0.011050914
41	0xbcaf3204	-0.021386154
42	0xbca3e1da	-0.020005155
43	0xbd039779	-0.032126877
44	0xbcc44f44	-0.023963578
45	0xbd2413ea	-0.040058054
46	0xbd12f0eb	-0.03587429
47	0xbd2a6a79	-0.041605446
48	0xbd6e378c	-0.058158442
49	0xba946da7	-0.0011324183
50	0xbcd52343	-0.02601779
51	0xbd088588	-0.03333047
52	0xbcd56146	-0.02604736
53	0xbc12a06e	-0.008949382
54	0x3c3c4f42	0.011493506
55	0xbbdc4017	-0.0067215073
56	0xbc55510b	-0.01301981
57	0xbd151fd5	-0.03640731
58	0xbc20a50b	-0.009804974
59	0x3bd511d6	0.0065023704
60	0xbc1559de	-0.009115664
61	0xbcf746a7	-0.030185057
62	0xbca389a1	-0.019963088
63	0xbc82cac5	-0.015965829
64	0xbd4ffb35	-0.05077668
65	0xbcb01591	-0.021494659
66	0xbb0d7b9c	-0.002158857
67	0x3b480ac6	0.0030524
68	0xbd51eed2	-0.051253147
69	0xbc9f936f	-0.019479482
70	0xbcc70d13	-0.024298226
71	0xbd44d994	-0.04805906
72	0xbd0640f3	-0.032776784
73	0xbd29fd8c	-0.041501567
74	0xbd2554d9	-0.04036412
75	0xbbae9989	-0.0053283614
76	0xbc32925a	-0.010899151
77	0xbd319bc2	-0.043361433
78	0xbd13c0f3	-0.036072683
79	0xbb4d545c	-0.00313308
80	0xbc886157	-0.016647978
81	0xbd133613	-0.03594024
82	0xbcbde94d	-0.023182536
83	0xbc9161c0	-0.017746806
84	0xbce5819b	-0.028015902
85	0xbd2f22ac	-0.042757675
86	0xbc3fef90	-0.011714831
87	0x3cc40093	0.023926055
88	0xbc901d58	-0.017592117
89	0xbd574fd4	-0.052566364
90	0xbd277804	-0.04088594
91	0xbd67599f	-0.056481954
92	0xbcdfbbb9	-0.027311193
93	0xbcda7b73	-0.026670193
94	0xbca00526	-0.019533705
95	0xbd0e74a0	-0.03477919
96	0xbcda35e6	-0.026637029
97	0xbced9a16	-0.029004138
98	0xbcd4a347	-0.025956763
99	0xbceea196	-0.029129785
100	0xbcbb3e03	-0.022856718
101	0xbd6a2477	-0.05716368
102	0xbcf06288	-0.029343858
103	0xbcf079ca	-0.029354949
104	0xbb895192	-0.004190632
105	0xbd122b28	-0.03568569
106	0xbd20baff	-0.039240833
107	0xbc930fe5	-0.017951915
108	0xbc6df755	-0.014524301
109	0xbc97432e	-0.018464651
110	0xbbdeca43	-0.006799014
111	0xbd0af396	-0.033923708
112	0xbccb7dfb	-0.024840346
113	0xbc80d501	-0.015726568
114	0xbcf6899a	-0.03009491
115	0xbca09b33	-0.019605255
116	0xbc89e249	-0.016831534
117	0xbba82fe0	-0.0051326603
118	0xbd45442a	-0.04816071
119	0xbc553273	-0.013012516
120	0xbd04f70d	-0.03246217
121	0xbc8c9b60	-0.017163932
122	0xbd173dc6	-0.036924146
123	0xbcdad7dd	-0.02671426
124	0xbd42857c	-0.047490582
125	0xbad1e622	-0.001601402
126	0xbd0bf891	-0.0341726
127	0xbd15889c	-0.036507234
128	0xbc732c72	-0.01484214
129	0xbc52082c	-0.012819331
130	0xbc6d3ba1	-0.014479549
131	0xbd699461	-0.05702627
132	0x3cb5b819	0.022182511
133	0xbc673f08	-0.014114149
134	0xbcf52694	-0.029925622
135	0xbd25fad8	-0.040522426
136	0x3ca329a5	0.019917319
137	0xbc8cb40e	-0.0171757
138	0xbb731880	-0.003709346
139	0xbd5c7bf7	-0.05382916
140	0xbccf4168	-0.025299743
141	0x3b8f750f	0.004377968
142	0xbbaf7e9c	-0.005355669
143	0xbcf7971c	-0.030223422
144	0xbd330ec9	-0.043715272
145	0xbc015cb1	-0.0078956345
146	0xbce9d0f6	-0.028542023
147	0xba458d72	-0.00075360306
148	0xbca2ddbf	-0.019881127
149	0xbd079deb	-0.033109587
150	0xbcf44c9d	-0.029821688
151	0x3be4f8c8	0.006987665
152	0xbbfe4602	-0.0077598104
153	0xbcb8353c	-0.022486322
154	0x3b55fd7a	0.0032652305
155	0x3b197a20	0.002341874
156	0xbb7cdf66	-0.0038585304
157	0xbca8fbda	-0.020627905
158	0xbce8f563	-0.028437322
159	0xbc98e386	-0.01866318
160	0xbcd5f3a1	-0.026117148
161	0xbcbb6653	-0.02287594
162	0xbc64f8d3	-0.01397534
163	0xbd0c3739	-0.034232352
164	0xbd3f562f	-0.04671305
165	0x3a753a2a	0.00093546754
166	0xbada7e05	-0.0016669637
167	0xbd475067	-0.048660662
168	0x3ba57a64	0.0050499905
169	0xbcb193ec	-0.02167698
170	0xbcc4e0ba	-0.02403294
171	0x3b03c202	0.0020104651
172	0xbd045c9b	-0.032314878
173	0xbce06c1c	-0.0273953
174	0xbb0e6257	-0.0021726096
175	0xbc475adc	-0.012167659
176	0xbcf51e23	-0.029921597
177	0xbcc6b1ee	-0.024254765
178	0xbc8151fd	-0.015786165
179	0xbd1c11f9	-0.038103078
180	0xbb8b937a	-0.004259524
181	0xbc6eeede	-0.014583318
182	0xbd0cdb71	-0.034388963
183	0xbd2b3697	-0.041800108
184	0xbd444c85	-0.047924537
185	0xbd10ac06	-0.035320304
186	0xbb1d5da9	-0.0024012125
187	0xbca3f05f	-0.020012079
188	0xbd10d676	-0.035360776
189	0xbcf047bf	-0.029331086
190	0xbc8a7f39	-0.016906368
191	0xbd067777	-0.032828774
192	0xbd0bc98b	-0.034127753
193	0xbb1a48e7	-0.0023541988
194	0xbce70d57	-0.028204603
195	0xbc4b4cf9	-0.012408488
196	0xbcf71f7c	-0.03016638
197	0xbd03b069	-0.03215066
198	0xbc7472b0	-0.014919922
199	0xbce5fd2a	-0.02807482
200	0xbd1689db	-0.036752563
201	0x3b52c236	0.0032159216
202	0xbd297c63	-0.04137839
203	0x3ae44584	0.0017415737
204	0xbd2de053	-0.04245026
205	0xbbb06fdf	-0.00538443
206	0xbd233899	-0.039848898
207	0xbcfa5e1c	-0.030562453
208	0xbd3c2bc5	-0.04594018
209	0xbb5394f2	-0.0032284823
210	0xbcb4d0ad	-0.02207216
211	0xbc4d4d75	-0.012530674
212	0xbc0752ed	-0.008259517
213	0xbcd336e9	-0.02578302
214	0xbcf31362	-0.029672328
215	0x3ae583f4	0.0017510639
216	0xb98025ae	-0.00024442136
217	0xbcd0d0af	-0.025490133
218	0xbc91f788	-0.017818227
219	0xbc96516f	-0.018349377
220	0xbd152707	-0.036414173
221	0xbd33b321	-0.043872003
222	0xbd0ffce4	-0.035153285
223	0x3bf95047	0.0076084468
224	0xbc666d9d	-0.01406422
225	0xbc233c18	-0.009963058
226	0xbcbfbeed	-0.02340647
227	0xbce79692	-0.02827004
228	0xbc0d740d	-0.008633626
229	0xbb72f7aa	-0.0037073889
230	0xbc88609b	-0.016647628
231	0xbcb70422	-0.022340838
232	0xbc45034c	-0.012024712
233	0xbca6b28d	-0.020348812
234	0xbc59ea95	-0.013300558
235	0xbc978480	-0.018495798
236	0xbcaf760a	-0.02141859
237	0xbc0b20cc	-0.008491706
238	0xbc9c157c	-0.019053213
239	0xbd1d004c	-0.03833036
240	0xbcc8b1b6	-0.024498802
241	0xbca83a91	-0.02053574
242	0xbd4c689d	-0.049904454
243	0xbd2166c9	-0.039404664
244	0xbd179fa1	-0.03701747
245	0xbd2c9f9c	-0.042144403
246	0xbc00d66f	-0.007863625
247	0xbc9c2ab7	-0.019063337
248	0x3c00a6f4	0.007852305
249	0xbd0dde44	-0.034635797
250	0xbcac8895	-0.021061221
251	0xbbb2ddf0	-0.005458586
252	0xbc20afc9	-0.009807535
253	0xbc92d35f	-0.017923055
254	0xbd0f7b2f	-0.035029586
255	0xbca9b94c	-0.02071824
