Assets/Training/results/RUN5/SzitakotoBehavior/SzitakotoBehavior-10999822.onnx (onnx, 729012 bytes, 17 tensors)

85 f4 [14]
0	0x399e147e	0.00030151376
1	0x3e43eb9f	0.19132851
2	0x399e147e	0.00030151376
3	0x3e44348b	0.19160669
4	0x399e147e	0.00030151376
5	0x3e4085fb	0.1880111
6	0x399e147e	0.00030151376
7	0x3e432392	0.19056538
8	0x399e147e	0.00030151376
9	0x3e41ca76	0.18924889
10	0x399e147e	0.00030151376
11	0x3e4178d6	0.18893752
12	0x399e147e	0.00030151376
13	0x3e4178d6	0.18893752

88 f4 [42]
0	0x3adf8ee9	0.001705614
1	0x3e8e4647	0.27787992
2	0x3b167c99	0.002296245
3	0x3e8beb61	0.27328017
4	0x3b0bb940	0.0021320134
5	0x3e91bfff	0.28466794
6	0x3b1cd6cc	0.002393174
7	0x3e8e020a	0.2773593
8	0x3b13de95	0.002256309
9	0x3e93906e	0.2882113
10	0x3b1b96dd	0.0023741045
11	0x3e91c30c	0.2846912
12	0x3b1a5464	0.0023548836
13	0x3e94228f	0.28932616
14	0x3adf8ee9	0.001705614
15	0x3e8dc980	0.27692795
16	0x3b167c99	0.002296245
17	0x3e8b749a	0.27237397
18	0x3b0bb940	0.0021320134
19	0x3e91339f	0.28359696
20	0x3b1cd6cc	0.002393174
21	0x3e8d8272	0.27638584
22	0x3b13de95	0.002256309
23	0x3e92f38c	0.28701437
24	0x3b1b96dd	0.0023741045
25	0x3e912d46	0.28354853
26	0x3b1a5464	0.0023548836
27	0x3e937896	0.28802937
28	0x3adf8ee9	0.001705614
29	0x3e8d4b48	0.27596498
30	0x3b167c99	0.002296245
31	0x3e8afc6b	0.27145705
32	0x3b0bb940	0.0021320134
33	0x3e90a5b9	0.28251436
34	0x3b1cd6cc	0.002393174
35	0x3e8d0159	0.2754009
36	0x3b13de95	0.002256309
37	0x3e925549	0.28580692
38	0x3b1b96dd	0.0023741045
39	0x3e9095f4	0.28239405
40	0x3b1a5464	0.0023548836
41	0x3e92ccf7	0.28672

91 f4 [132]
0	0x3e5f8976	0.21829781
1	0x3ef5a832	0.47979885
2	0x3efc2c19	0.49252394
3	0x3e8d8703	0.27642068
4	0x3e52f55a	0.20601407
5	0x3ef70f68	0.48253942
6	0x3efc84c5	0.49320045
7	0x3e8c728c	0.27431142
8	0x3e82af0e	0.2552418
9	0x3eee2d0d	0.46518746
10	0x3ef9dbb4	0.48800433
11	0x3e8ae89a	0.27130586
12	0x3e60c6cf	0.2195084
13	0x3ef44f2b	0.4771665
14	0x3efb69a3	0.49104032
15	0x3e8ab7bf	0.27093312
16	0x3e8d03f3	0.27542076
17	0x3ee8c1a3	0.45460233
18	0x3ef8615f	0.48511788
19	0x3e8702a6	0.26369208
20	0x3e84ed36	0.25962228
21	0x3eee95f7	0.4659879
22	0x3efa6113	0.48902187
23	0x3e889049	0.2667258
24	0x3e8e9bc7	0.27853224
25	0x3ee4405d	0.44580355
26	0x3ef62a1d	0.48079005
27	0x3e84dc33	0.2594925
28	0x3e8ed288	0.27894998
29	0x3ee5b73f	0.44866368
30	0x3ef7055e	0.48246282
31	0x3e868a29	0.26277283
32	0x3e8d3f0c	0.27587163
33	0x3edf2802	0.4358521
34	0x3ef2f120	0.4744959
35	0x3e829583	0.25504693
36	0x3e8b4ed4	0.2720858
37	0x3ed7cf6b	0.42150435
38	0x3eee05d4	0.46488822
39	0x3e83959e	0.25700086
40	0x3e8ce101	0.27515414
41	0x3ed8aeaf	0.42320773
42	0x3eeef5d2	0.4667192
43	0x3e7e77f1	0.24850442
44	0x3e5feefe	0.21868512
45	0x3ef5b5d6	0.47990292
46	0x3efc05d3	0.49223194
47	0x3e8c4d82	0.27402884
48	0x3e536a77	0.20646082
49	0x3ef71c2f	0.4826369
50	0x3efc609c	0.49292457
51	0x3e8b34da	0.2718876
52	0x3e82df81	0.25561145
53	0x3eee3e9b	0.4653214
54	0x3ef9ac20	0.48764133
55	0x3e89a3ca	0.26882774
56	0x3e61487c	0.22000307
57	0x3ef45e94	0.47728407
58	0x3efb4189	0.49073437
59	0x3e89704a	0.26843482
60	0x3e8d314e	0.2757668
61	0x3ee8d600	0.4547577
62	0x3ef82c4d	0.484713
63	0x3e85adba	0.26109105
64	0x3e8524e3	0.26004705
65	0x3eeea8e3	0.46613225
66	0x3efa3595	0.48869005
67	0x3e873b39	0.2641237
68	0x3e8ec5df	0.2788534
69	0x3ee45433	0.4459549
70	0x3ef5eb6e	0.4803118
71	0x3e837ad3	0.25679645
72	0x3e8f0203	0.27931222
73	0x3ee5cd02	0.4488297
74	0x3ef6cc1c	0.48202598
75	0x3e8524a7	0.26004526
76	0x3e8d684d	0.27618638
77	0x3edf34da	0.4359501
78	0x3ef2a270	0.47389555
79	0x3e812254	0.25221503
80	0x3e8b7d24	0.27243912
81	0x3ed7df03	0.42162332
82	0x3eeda970	0.46418333
83	0x3e821100	0.25403595
84	0x3e8d07cf	0.2754502
85	0x3ed8b7e1	0.42327788
86	0x3eee969b	0.46599278
87	0x3e7b5c47	0.2454692
88	0x3e60550b	0.21907441
89	0x3ef5c335	0.48000494
90	0x3efbdf5d	0.4919385
91	0x3e8b0f75	0.2716023
92	0x3e53deaf	0.20690416
93	0x3ef728d2	0.4827333
94	0x3efc3bf0	0.4926448
95	0x3e89f27f	0.26942822
96	0x3e830ffa	0.25598127
97	0x3eee5118	0.46546245
98	0x3ef97b7c	0.48727024
99	0x3e885a28	0.26631284
100	0x3e61c8bb	0.22049229
101	0x3ef46ddd	0.4774007
102	0x3efb1906	0.4904253
103	0x3e882447	0.26590177
104	0x3e8d5e71	0.27611116
105	0x3ee8ea3d	0.4549121
106	0x3ef7f4ed	0.4842905
107	0x3e845375	0.25844923
108	0x3e855d07	0.26047537
109	0x3eeebc6a	0.46628124
110	0x3efa08f0	0.48834944
111	0x3e85e126	0.26148337
112	0x3e8ef0cc	0.27918088
113	0x3ee4682a	0.4461072
114	0x3ef5ab5b	0.47982296
115	0x3e8213a0	0.25405598
116	0x3e8f3278	0.27968192
117	0x3ee5e2b1	0.44899514
118	0x3ef691d7	0.48158142
119	0x3e83b9e3	0.25727758
120	0x3e8d91ab	0.27650198
121	0x3edf41ac	0.4360479
122	0x3ef251c7	0.47328016
123	0x3e7f4f2a	0.24932542
124	0x3e8bab35	0.27279058
125	0x3ed7ee63	0.42174062
126	0x3eed4b80	0.46346664
127	0x3e8085be	0.25102037
128	0x3e8d2e9e	0.2757463
129	0x3ed8c11d	0.42334834
130	0x3eee3631	0.4652572
131	0x3e783319	0.24238242

94 f4 [2]
0	0x3e84b1d4	0.25916922
1	0x3ed1fed0	0.4101472

action_model._continuous_distribution.log_sigma f4 [1, 2]
0	0xbf80bc03	-1.0057377
1	0xbecda107	-0.40161917

action_model._continuous_distribution.mu.bias f4 [2]
0	0x3c94b744	0.018153794
1	0xbc4ac337	-0.012375644

action_model._continuous_distribution.mu.weight f4 [2, 256]
0	0x3d0c6100	0.034272194
1	0xbc400acf	-0.011721327
2	0x3d452e11	0.048139635
3	0xbcef702d	-0.029228294
4	0xbae9e170	-0.0017843675
5	0x3bee4d87	0.0072724256
6	0x3c30393b	0.010755832
7	0xbc9a1daf	-0.018812982
8	0xbccb89bc	-0.02484595
9	0xbc6c4763	-0.014421317
10	0x3cf1d7b4	0.0295218
11	0xbc0a3728	-0.008436002
12	0xbc81d888	-0.01585032
13	0x3a1a3fbf	0.00058841327
14	0x3c3fd501	0.011708499
15	0x3c053728	0.008130826
16	0x3ac8e961	0.0015328341
17	0xbd11843e	-0.035526507
18	0xbb67a6d0	-0.003534723
19	0x3cf8c48d	0.03036716
20	0xbd608595	-0.054814894
21	0x3be28819	0.0069131968
22	0x3d5b8552	0.05359394
23	0x3d0b2b39	0.033976767
24	0xbd278623	-0.040899407
25	0xbb081470	-0.0020764135
26	0x3d1a2fa7	0.0376431
27	0xbbeb3d6a	-0.007178952
28	0xbd78950e	-0.060689025
29	0x3c6d900f	0.014499678
30	0xbce844f2	-0.028353188
31	0xbb5a0299	-0.0033265708
32	0xbd5e9e30	-0.054350078
33	0x3d566dc8	0.05235079
34	0x3d1cce77	0.038282838
35	0xbb21f558	-0.0024712887
36	0xbc5443de	-0.012955634
37	0x3c991a16	0.018689197
38	0x3c6836fc	0.014173266
39	0x3c6522dc	0.013985362
40	0x3c4f1335	0.012638857
41	0xbc58a70a	-0.013223419
42	0xbba2f805	-0.004973414
43	0xbc0e88a0	-0.008699566
44	0x3c1678a8	0.00918404
45	0x3c893edc	0.016753606
46	0xbc971524	-0.018442698
47	0xbc9d4872	-0.019199584
48	0x3b861b81	0.004092634
49	0xbd0a4d24	-0.033764973
50	0xbb953a9b	-0.0045541055
51	0xbbb59409	-0.005541329
52	0xbd13eff9	-0.036117528
53	0xbd92f270	-0.071751475
54	0x3d24a217	0.040193643
55	0x3cd179bb	0.02557074
56	0xbd207553	-0.03917439
57	0xbaf9843d	-0.0019036602
58	0x3b524500	0.0032084584
59	0x3d67a3ad	0.056552578
60	0xbc4473a6	-0.011990463
61	0x3c589c04	0.013220791
62	0x3b89f516	0.0042101247
63	0x3c552325	0.013008867
64	0xbbc6a5aa	-0.006062229
65	0xbca5977f	-0.02021384
66	0xbc61fd9e	-0.013793377
67	0x3d07ea83	0.033182632
68	0xbbf24719	-0.0073937294
69	0x3bd7b4aa	0.006582816
70	0xbd8d98df	-0.069139235
71	0xbbd3040b	-0.006439691
72	0x3aa7d4e9	0.0012804541
73	0x3b3f2188	0.0029164273
74	0xbd1375c8	-0.036000997
75	0xbd1aa4f8	-0.037754983
76	0x3be65c41	0.0070300405
77	0x3c199071	0.009372816
78	0xbc7d618c	-0.0154651515
79	0xbbc03151	-0.005865254
80	0xbdb5a4c4	-0.08869317
81	0xbb219073	-0.0024652749
82	0xbb8b9439	-0.004259613
83	0x3d0b4d71	0.0340094
84	0xbae29d50	-0.0017289314
85	0xbc1ae30a	-0.009453544
86	0xbd91bf1d	-0.0711653
87	0x3d81188e	0.063035116
88	0xb9c7c73e	-0.00038104685
89	0xbbc75d62	-0.00608413
90	0xbc4ff41f	-0.01269248
91	0x3be097c3	0.006854029
92	0xbd7bee9f	-0.061506864
93	0xbd988693	-0.07447543
94	0xbd5c71e9	-0.05381957
95	0xbc394dc8	-0.011310048
96	0xbd77a35a	-0.06045852
97	0x3c564ea0	0.013080269
98	0xbc598203	-0.013275626
99	0xbbd97899	-0.006636691
100	0x3c0cf2f3	0.0086028455
101	0xbca45908	-0.020061985
102	0xbcc50ea2	-0.024054829
103	0xba282c1c	-0.0006415264
104	0x3c65ceef	0.014026388
105	0x3c78d957	0.015188537
106	0xbce077ce	-0.027400877
107	0x3c1ca527	0.00956086
108	0xbc21b17f	-0.0098689785
109	0xbc1dd91a	-0.009634281
110	0x3c2d23d0	0.01056762
111	0xbcae1da1	-0.021254363
112	0xbb80a1fe	-0.003925561
113	0xbcb748e7	-0.02237363
114	0xbd22498c	-0.03962092
115	0x3bd1185e	0.0063810786
116	0x3c883544	0.016626962
117	0xbca29546	-0.01984657
118	0xbc8b6480	-0.017015696
119	0x3bffc42a	0.007805367
120	0x3b1e90df	0.0024195237
121	0x3c926e76	0.017874938
122	0xbd453b68	-0.048152357
123	0xbb089189	-0.00208387
124	0xbb3f3a43	-0.0029179014
125	0x3ba3ed4d	0.0050026537
126	0xbccad198	-0.024758145
127	0x3ac302fa	0.0014878206
128	0xbc023195	-0.007946392
129	0xbbc80563	-0.006104158
130	0xbd5b8935	-0.053597648
131	0x3b2158c4	0.0024619559
132	0x3db5c601	0.08875657
133	0xbb091fc4	-0.0020923475
134	0xbb1aa1e4	-0.002359503
135	0xbccca96a	-0.024983127
136	0x3db391d2	0.087680474
137	0x3cbdb90a	0.023159523
138	0x3d0a3f6e	0.033751898
139	0x3b04bf29	0.0020255542
140	0xbca11e01	-0.019667627
141	0x3d56df7b	0.05245922
142	0x3d0a1591	0.033711974
143	0xbc056dc3	-0.008143845
144	0xbab84c4c	-0.0014060824
145	0x3b446c0a	0.0029971623
146	0xbb387173	-0.0028143793
147	0x3cdd7a37	0.027035816
148	0x3bb42894	0.0054980014
149	0xbc6c2118	-0.014412187
150	0xbbd68136	-0.006546165
151	0xbb800ab8	-0.003907528
152	0xbd032b78	-0.032023877
153	0xbd97e11a	-0.074159816
154	0x3d0873b4	0.033313468
155	0x3d3773c6	0.044788145
156	0x3cc7cd5b	0.024389913
157	0xbcf3bf08	-0.029754177
158	0xbb94b158	-0.0045377426
159	0x3b00bbac	0.001964311
160	0xbc80b288	-0.01571013
161	0xbd08d94a	-0.033410348
162	0x3b5f597c	0.0034080436
163	0x3bf2a105	0.007404449
164	0xbb80303a	-0.003911999
165	0xba3fba87	-0.00073138665
166	0xbd385094	-0.04499872
167	0xbaab3eac	-0.0013064942
168	0x3d72b62a	0.059255756
169	0x3bd6500a	0.006540303
170	0xbbb65e49	-0.005565439
171	0x3c81b695	0.015834132
172	0x3ad6d4f8	0.0016390374
173	0xbd08f88d	-0.03344016
174	0x3dc60429	0.09668762
175	0x3c00d274	0.007862676
176	0xbc6258c4	-0.013815109
177	0xbcc518b2	-0.024059627
178	0xbd985420	-0.074379206
179	0xbd64862f	-0.05579203
180	0xb9d56fae	-0.00040709734
181	0x3cbad13d	0.02280485
182	0xbcf247e9	-0.029575305
183	0xbb8558b4	-0.004069412
184	0x3b90d187	0.004419509
185	0xbb73d2ca	-0.0037204497
186	0x3cc19924	0.023632593
187	0xbc85decc	-0.01634159
188	0xbbd019d3	-0.0063507347
189	0xbd282b11	-0.041056696
190	0xbcc71afd	-0.024304861
191	0x3a21abbb	0.00061672524
192	0x3a956e05	0.0011400586
193	0xbc1e8c44	-0.009676997
194	0xbc1e9ef8	-0.009681456
195	0x3a9625d9	0.0011455371
196	0xbc888139	-0.01666318
197	0xbc1c6281	-0.00954497
198	0x3ba6a451	0.005085506
199	0xbbf2b91d	-0.007407321
200	0xbd3ac3cb	-0.04559688
201	0x3b7e95c9	0.0038846603
202	0xbcb201af	-0.021729318
203	0x3cf811ca	0.03028192
204	0xbc157688	-0.009122498
205	0xbce251ea	-0.02762695
206	0x3b23b808	0.0024981517
207	0xbc88fe75	-0.016722897
208	0xbb864a36	-0.004098202
209	0x3c0092bd	0.007847485
210	0x3c38e8a8	0.011285938
211	0x3b02d05b	0.0019960615
212	0xbbec1e8a	-0.007205789
213	0x3bf7b517	0.0075594294
214	0x3b37a2fa	0.0028020726
215	0xbc8740bb	-0.016510358
216	0x3cb30250	0.021851689
217	0x39a52d07	0.000315048
218	0xbd18ab65	-0.03727283
219	0xba71afe8	-0.00092196325
220	0x3a14fe01	0.00056836015
221	0xbc3c2cf5	-0.011485328
222	0xba8b4bf0	-0.001062749
223	0x3c6a5c6c	0.014304262
224	0xbd3bad06	-0.045819305
225	0xbd8675d6	-0.06565444
226	0xbafa490f	-0.001909526
227	0xbb88cbea	-0.004174699
228	0xbd4e3f6a	-0.050353445
229	0x3c96ee82	0.018424276
230	0x3d147f81	0.03625441
231	0x3c0ced4d	0.008601499
232	0x3ca1af7b	0.019736996
233	0x3a8d5b24	0.0010784608
234	0x3bac382c	0.0052557196
235	0xbc1fa449	-0.0097437585
236	0x3ca80e94	0.020514764
237	0x3c994ad8	0.018712446
238	0x3c859261	0.01630515
239	0xbb483f99	-0.0030555485
240	0x3b51f9ac	0.0032039685
241	0xbc5e877e	-0.013582109
242	0x3c618ca7	0.013766444
243	0x3ad33663	0.0016114231
244	0xbd5ca60c	-0.053869292
245	0xbc1b0410	-0.009461418
246	0x39c6ff24	0.00037955598
247	0xbdaa9d6f	-0.08330809
248	0x3d97677e	0.073927864
249	0xbbf754a9	-0.007547934
250	0x3a5b97b1	0.0008376791
251	0xbc850e79	-0.016242253
252	0x3bb1e220	0.0054285675
253	0x3be59c14	0.0070071314
254	0xbb38f6d4	-0.0028223293
255	0xbab3dab7	-0.0013721798

network_body._body_endoder.seq_layers.0.bias f4 [256]
0	0xbc2ac4af	-0.01042287
1	0x3c2378f1	0.009977565
2	0x3bf0ff8b	0.007354682
3	0xbbe80ab8	-0.007081356
4	0x3bee051c	0.0072637927
5	0x3d2a3eff	0.041563984
6	0xbc7bb932	-0.015363978
7	0x3d0c1996	0.03420409
8	0xbbab11d7	-0.0052206325
9	0x3b8c3650	0.0042789355
10	0x3d47b5fd	0.048757542
11	0xbb89b706	-0.0042027263
12	0xbd39b1b2	-0.04533548
13	0xbbec036e	-0.0072025573
14	0xbca22e39	-0.019797431
15	0xbd1f879a	-0.03894768
16	0xbcc40255	-0.023926893
17	0xbca5d8ba	-0.020244945
18	0xbcb0f252	-0.021599922
19	0x3ba0ce7c	0.0049074274
20	0xbd11afec	-0.035568163
21	0xbd2889c6	-0.041147016
22	0xbce81bdc	-0.028333597
23	0x3a5d69f1	0.00084462675
24	0x3c9d6696	0.019213956
25	0x3c7e891a	0.015535617
26	0xbc8b8ebe	-0.017035838
27	0xbd332244	-0.04373385
28	0xbd3a1f4c	-0.045440003
29	0xbb3af98a	-0.0028530085
30	0xbd61adf0	-0.05509752
31	0xbcd5d418	-0.02610211
32	0xbcf3f0a1	-0.029777827
33	0xbc8955e8	-0.016764596
34	0xbcf2f891	-0.029659541
35	0xbd0787ae	-0.03308838
36	0x3ce3f656	0.027827423
37	0xbce60ce6	-0.028082322
38	0xbd137fdf	-0.03601062
39	0xbd14dfcf	-0.036346253
40	0xbc6eb281	-0.014568926
41	0xbcf42396	-0.029802125
42	0x3a9acc37	0.0011810128
43	0xbd131bcf	-0.035915192
44	0xbc2eb7e7	-0.010663963
45	0xbd192960	-0.037392974
46	0xbd47fbc9	-0.048824105
47	0xbd108252	-0.035280533
48	0x3c938817	0.018009229
49	0xbc62d666	-0.013845062
50	0x3bd8ae68	0.0066125877
51	0x3cff5fa5	0.031173537
52	0xbd0ed843	-0.034874212
53	0xbd0a6330	-0.033786
54	0x38b14ee7	8.4547144e-05
55	0xbba47bfa	-0.005019662
56	0xbcc4ccc3	-0.02402342
57	0x3aeeedc2	0.0018228816
58	0xbba66797	-0.005078267
59	0xbc2e109a	-0.010624075
60	0xbd097e70	-0.033567846
61	0x3cf44939	0.029820072
62	0x3c7ed231	0.015553043
63	0x3c97bfae	0.018524017
64	0xbb59a556	-0.003321012
65	0xbc94a16d	-0.01814338
66	0xbd183a3a	-0.037164904
67	0xbba78a21	-0.005112902
68	0x3caab8c3	0.020840054
69	0xbd21cbcd	-0.039501
70	0xbcc08f45	-0.023505816
71	0xbcf1b4a5	-0.029505083
72	0xbd90f1e8	-0.0707739
73	0xbcc47764	-0.023982711
74	0xbcde5408	-0.027139679
75	0xbc3bef4e	-0.011470629
76	0xbd6f98f6	-0.058495484
77	0x3c31fb85	0.01086319
78	0x3c6c8f52	0.014438467
79	0xbd28e01f	-0.041229364
80	0xbd2e8aeb	-0.04261295
81	0x3cf6e141	0.030136706
82	0xbcc16828	-0.023609236
83	0xbb5fcb0e	-0.003414813
84	0xbd547194	-0.05186613
85	0x3d048812	0.03235633
86	0xbce5a1da	-0.028031278
87	0xbc924c29	-0.017858582
88	0x3ca8f214	0.020623244
89	0xbd3a4e13	-0.045484614
90	0xbafd7179	-0.0019336186
91	0xbc932903	-0.017963892
92	0xbc53ab83	-0.01291931
93	0x3c74dceb	0.014945249
94	0x3bf58d37	0.0074936408
95	0xbcb02933	-0.02150402
96	0xbcd3d34f	-0.025857596
97	0x3b2a97fe	0.0026030536
98	0x3c28c808	0.010301597
99	0xbcb1cb1b	-0.021703294
100	0xbc20fc47	-0.009825773
101	0xbd85cc2f	-0.065330856
102	0x3c301680	0.010747552
103	0x3b13592a	0.0022483566
104	0x3c59fd28	0.013304986
105	0x3d54ce2d	0.051954437
106	0xbcf9c9a1	-0.030491652
107	0xbb117ce9	-0.0022199696
108	0xbd373297	-0.04472598
109	0x3c31d31e	0.010853557
110	0xbc9b182a	-0.01893242
111	0xbcef0e90	-0.029181749
112	0xbca84852	-0.020542298
113	0xbbdd97c9	-0.006762479
114	0xbcba413e	-0.022736188
115	0xbcb21ee2	-0.021743242
116	0xbd2bdcb6	-0.041958533
117	0xbc306f7c	-0.010768767
118	0xbd87b3e2	-0.06626107
119	0xbd46c6c4	-0.0485294
120	0x3c3755cc	0.011189889
121	0xbd87d25b	-0.06631919
122	0xbc340881	-0.010988356
123	0xbcbe6940	-0.023243546
124	0xbae3c22e	-0.0017376596
125	0xbccf9d4c	-0.02534356
126	0xbcd4d7e2	-0.025981847
127	0xbba32006	-0.0049781827
128	0xbc8ab6bc	-0.016932838
129	0xbcbf8603	-0.023379331
130	0x3c8c4ed1	0.017127426
131	0xbc42f390	-0.01189889
132	0xba61cbab	-0.0008613418
133	0xbcd3a294	-0.02583436
134	0xbc82641e	-0.01591688
135	0x3ce4e1c9	0.027939694
136	0xbd3715d7	-0.044698562
137	0x3c9fa73e	0.019488927
138	0xbb84b667	-0.0040500644
139	0xb91f733a	-0.00015206347
140	0xbd462e04	-0.048383728
141	0xbdab9cc3	-0.08379509
142	0xbd692275	-0.056917626
143	0x3b4edc5d	0.0031564452
144	0xbc216ffd	-0.00985336
145	0x3c7dde67	0.015494919
146	0x3b8f155e	0.004366561
147	0x3cf1e29d	0.029527003
148	0x3c2b7072	0.010463821
149	0xbcfdcaea	-0.030980546
150	0xbbbea042	-0.005817444
151	0xbc82f635	-0.015986541
152	0x3c6f5bab	0.014609258
153	0xbd1bf127	-0.038071778
154	0xbd26e362	-0.040744193
155	0xbd09ea15	-0.033670504
156	0xbd22ec5c	-0.03977619
157	0xbcb9d45e	-0.022684272
158	0xbc28d832	-0.010305451
159	0xb8d72c30	-0.000102602295
160	0xbc4a5cc2	-0.012351217
161	0xbce0777a	-0.02740072
162	0x3c7901b6	0.015198162
163	0xbd201841	-0.03908563
164	0x3d3f5fed	0.04672234
165	0x3b8dec91	0.0043311794
166	0xbcdd3a27	-0.027005268
167	0xbc79e1a2	-0.015251549
168	0x3ca7d964	0.020489402
169	0x3bbb5350	0.0057167187
170	0xbbc9a743	-0.0061539724
171	0xbb9c0b38	-0.0047620796
172	0xbcead252	-0.028664742
173	0xbc576eb2	-0.01314895
174	0x3c53143e	0.012883244
175	0xbb2ec2e7	-0.0026666464
176	0xbcba752c	-0.02276095
177	0xbca4d741	-0.020122172
178	0xbc431128	-0.011905946
179	0x3c630f82	0.013858678
180	0xbc16317e	-0.009167073
181	0x3bb06a45	0.005383762
182	0xbc4b54f6	-0.012410393
183	0xbbeeb9d6	-0.007285337
184	0x3ad46312	0.0016203842
185	0xbd72a5dd	-0.05924021
186	0x3b687d47	0.0035475062
187	0xbca2aa4b	-0.019856593
188	0xbc1a793c	-0.009428319
189	0xbd24c131	-0.040223304
190	0xbba3e53b	-0.0050016916
191	0xbcc2f64d	-0.023799086
192	0xbc224ef0	-0.0099065155
193	0xbd3a1289	-0.045427833
194	0xbca1c0bb	-0.019745221
195	0xbd377940	-0.044793367
196	0xbb568cbb	-0.003273769
197	0xbc376f5c	-0.011195984
198	0xbd13c64d	-0.036077786
199	0xbd4add74	-0.0495276
200	0xbc34e13b	-0.011040027
201	0xbcbf6a5c	-0.023366146
202	0xbcb2aeb5	-0.021811822
203	0xbcbc79f9	-0.02300738
204	0xbc60bb4e	-0.013716532
205	0xbc42cf70	-0.011890277
206	0x3c59a3e1	0.013283701
207	0x3ca21362	0.019784633
208	0x3ba34617	0.0049827206
209	0xba3eb238	-0.00072744815
210	0xbcaa03f0	-0.02075383
211	0xbcc0d1f4	-0.023537613
212	0x3ba3fbeb	0.005004396
213	0xbc15da4e	-0.009146286
214	0xbc6a1b94	-0.014288802
215	0xbd00b9a5	-0.031427044
216	0x3b3f7f36	0.002922011
217	0xbcfbda9c	-0.03074389
218	0xbad359b7	-0.001612476
219	0xbd543163	-0.05180491
220	0xbc5a6bae	-0.013331337
221	0x3c60138b	0.013676534
222	0xbcc7a98b	-0.024372837
223	0xbd2b0803	-0.041755687
224	0xbd6ff64f	-0.058584508
225	0xbccaffc0	-0.024780154
226	0xbc9317bf	-0.017955659
227	0xbce1d7a2	-0.027568642
228	0xbcca1dd9	-0.024672436
229	0x3c4f498c	0.012651812
230	0x3c2cd73c	0.010549363
231	0xbcdd1250	-0.026986271
232	0xbd1425f3	-0.036169004
233	0xbc184f37	-0.00929623
234	0xbd2e90cf	-0.04261857
235	0xbcbb800e	-0.02288821
236	0x3ca49498	0.020090386
237	0xbd59fae3	-0.05321778
238	0xbcc241f6	-0.023713093
239	0xbd41dda1	-0.047330502
240	0xbcda882e	-0.026676264
241	0xbca26683	-0.019824272
242	0xbc9f9138	-0.019478425
243	0xbcd4eb0c	-0.025990985
244	0xbcffe2f3	-0.031236148
245	0xbcde14ae	-0.02710947
246	0x3c70edff	0.01470518
247	0xbcd87222	-0.02642161
248	0xbd3e0246	-0.046388887
249	0xbd4b3928	-0.049615055
250	0x3c8cefe2	0.017204229
251	0x3cef4029	0.029205399
252	0xbc89eb28	-0.016835764
253	0xbc4b74a0	-0.012417942
254	0xbcd2591f	-0.025677262
255	0xbb98fba1	-0.0046686684

network_body._body_endoder.seq_layers.0.weight f4 [256, 190]
0	0x3da9895a	0.08278151
1	0x3e435290	0.19074464
2	0x3e3c3528	0.18379653
3	0x3d93663a	0.071972325
4	0xbd49c7b5	-0.04926272
5	0xbd669a1b	-0.05629931
6	0xbcd19ef3	-0.025588488
7	0xbd79a72e	-0.06095045
8	0x3daf5489	0.08561046
9	0xbb09a83c	-0.0021004817
10	0xbd92fb12	-0.07176794
11	0xbd18f252	-0.03734047
12	0xbd7741eb	-0.0603656
13	0xbd6a892f	-0.057259735
14	0x3dcda4d7	0.10041206
15	0xbda63572	-0.08115663
16	0x3d87784c	0.06614742
17	0x3cd84fe6	0.026405286
18	0xbc6181ce	-0.013763858
19	0xbb3771aa	-0.0027991333
20	0x3d58a781	0.05289412
21	0x3ce2106f	0.027595727
22	0xbda1786c	-0.07884297
23	0xbd911250	-0.07083571
24	0x3e390816	0.18069491
25	0x3c61096c	0.0137351565
26	0xbd1dc709	-0.038519893
27	0x3d6cbcdd	0.0577973
28	0x3d46b54e	0.04851275
29	0x3d37f7e4	0.04491414
30	0x3bcc29fb	0.0062305904
31	0x3be611ca	0.0070211636
32	0xbc8fe868	-0.017566875
33	0x3d8c2493	0.068429135
34	0xba8a69c8	-0.001056009
35	0xbb9d33a2	-0.004797415
36	0x3dc16eb5	0.09444944
37	0x3dcbd4b1	0.09952677
38	0xbde86bb3	-0.11348667
39	0x3db78b33	0.08962097
40	0xbd232838	-0.039833277
41	0xbca12b80	-0.019674063
42	0x3cca0211	0.024659188
43	0x3dca939b	0.09891435
44	0x3dc2e88b	0.0951701
45	0x3dc37cad	0.095452644
46	0x3dc348f3	0.09535398
47	0x3d534015	0.051574785
48	0x3e662720	0.22475863
49	0xbdbb6b6c	-0.091513485
50	0x3dfbbc16	0.12291734
51	0xbb5ba33d	-0.0033514046
52	0x3dbb148d	0.09134779
53	0xbe1557e3	-0.14584307
54	0xbd44befd	-0.048033703
55	0xbbb79bbb	-0.0056032813
56	0xbdb0ca76	-0.08632366
57	0x3c29d1f2	0.010364996
58	0x3dc891ad	0.097934105
59	0x3d9ef2d4	0.077611595
60	0xbd9e60d9	-0.07733316
61	0x3e251e1f	0.16124772
62	0xbd762b6c	-0.060100004
63	0xbd574ac0	-0.05256152
64	0x3d5c424c	0.053774163
65	0xbd98a218	-0.07452792
66	0x3d960f02	0.07327081
67	0x3d5bb674	0.053640798
68	0x3dc10905	0.094255485
69	0x3ddca975	0.10774509
70	0xbd745e4b	-0.059660237
71	0xbc8fae9a	-0.017539311
72	0x3dcf5d11	0.10125173
73	0xbd73e7b5	-0.059547145
74	0xbe0d2178	-0.13782299
75	0x3cc7b87a	0.024379957
76	0xbd68f729	-0.056876335
77	0x3b14dba9	0.0022713935
78	0x3c98afb7	0.018638475
79	0x3e0a15af	0.13484834
80	0x3d56eece	0.052473836
81	0xbbb6f297	-0.005583118
82	0x3c957628	0.018244818
83	0x3d940c69	0.072289295
84	0xbda827f4	-0.082107455
85	0xbc4057b0	-0.011739656
86	0x3db6b28d	0.089207746
87	0x3d50feaa	0.051024117
88	0x3cc11475	0.023569325
89	0xbe44db19	-0.19224204
90	0x3b01113d	0.0019694113
91	0x3a24b0b2	0.0006282433
92	0x3dfe4305	0.12415127
93	0xbda55552	-0.08072914
94	0x3e1173e3	0.14204364
95	0x3d0bec4e	0.034160905
96	0x3da1edba	0.07906671
97	0xbc025fa4	-0.007957373
98	0xbe1a6d18	-0.15080678
99	0xbe2998ab	-0.16562144
100	0xbde6caa1	-0.11269117
101	0xbdb2b80c	-0.087265104
102	0xbd86a3e4	-0.065742284
103	0x3d0899ce	0.033349805
104	0xbd5a3ac9	-0.05327872
105	0x3dad2596	0.084544346
106	0x3ca666f2	0.02031276
107	0xbd4e0ee9	-0.05030719
108	0x3d97cf57	0.07412594
109	0x3d196c98	0.03745708
110	0xbdc6890e	-0.0969411
111	0x3bf82d8f	0.0075737904
112	0xbe00cbf2	-0.12577799
113	0xbd39a7a7	-0.0453259
114	0x3e13c2cb	0.14429776
115	0xbdcc17e9	-0.09965498
116	0xbdb2e635	-0.08735315
117	0x3de3c55a	0.11121626
118	0xbd01dc0a	-0.031703986
119	0xbdb929b7	-0.090411596
120	0xbced8f29	-0.028998928
121	0xbcbfb6c5	-0.023402581
122	0xbdb5bbb1	-0.0887369
123	0xbd942f27	-0.07235556
124	0x3da914b5	0.08255903
125	0xbd9f67ee	-0.07783495
126	0x3deb5ae8	0.11491948
127	0xbd38ec0e	-0.045146994
128	0x3d8088a2	0.06276061
129	0x3c42667a	0.011865253
130	0xbd59e967	-0.053201105
131	0xbd8bc850	-0.06825316
132	0xbc9fd985	-0.019512901
133	0x3ca22372	0.019792292
134	0xbca40cdf	-0.020025669
135	0xbdcb407d	-0.099244095
136	0x3d95774e	0.07298146
137	0xbd817c69	-0.063225575
138	0xbc840498	-0.016115472
139	0xbb1bec7f	-0.0023792086
140	0x3d972691	0.07380403
141	0x3db18a9f	0.08669018
142	0x3cc69d4f	0.024244932
143	0x3d70d3ad	0.05879562
144	0x3defbb16	0.11705606
145	0xbd0b379f	-0.03398859
146	0x3d8abd3a	0.06774373
147	0x3d3d8c75	0.04627653
148	0xbc933270	-0.017968386
149	0xbdc9c954	-0.098528534
150	0xbdb83e37	-0.089962415
151	0xbd7e9b11	-0.0621596
152	0x3e8404b7	0.25784847
153	0xbdd67237	-0.104710035
154	0x3be0f545	0.006865176
155	0x3dc00c99	0.09377403
156	0xbdf85751	-0.12126029
157	0x3e253b7f	0.16135977
158	0x3c96c5bb	0.018404832
159	0xbe35b567	-0.17744981
160	0xbc98972e	-0.018626776
161	0x3e1ac1a3	0.15112929
162	0x3e2b823e	0.16748902
163	0x3da1c958	0.078997314
164	0xbd8625db	-0.06550189
165	0xbd383912	-0.0449763
166	0xbc5f71b6	-0.013637951
167	0x3d4fe954	0.05075963
168	0xbd26ee15	-0.040754396
169	0x3da8446a	0.08216174
170	0x3cd87b03	0.026425844
171	0xbdbb0bef	-0.091331355
172	0x3e7e8e46	0.2485896
173	0x3daa2b6e	0.08309065
174	0xbc9391b2	-0.018013809
175	0xbcf7ed8c	-0.030264638
176	0xbd8b4b77	-0.06801503
177	0x3d68e469	0.056858454
178	0xbdccdf21	-0.10003496
179	0x3d79c6ed	0.060980726
180	0x3c0a454e	0.008439375
181	0xbcbef533	-0.02331028
182	0x3ccf18b7	0.02528034
183	0x3da12f66	0.07870369
184	0xbaa024fc	-0.0012218053
185	0x3b89ce7f	0.0042055245
186	0x3d8ea2d2	0.06964649
187	0x3dfa1bfa	0.12212367
188	0xbda8470d	-0.08216677
189	0x3e8ddaaa	0.2770589
190	0x3d9a884d	0.075455286
191	0xbe98433a	-0.2973879
192	0x3dd96f64	0.10616949
193	0x3b9825da	0.004643184
194	0x3e5f0abe	0.21781442
195	0xbdce50f4	-0.10074034
196	0xbd0b3c76	-0.033993207
197	0x3e211d51	0.1573384
198	0x3ccb34c3	0.024805432
199	0x3e2dbb35	0.16965945
200	0x3d2b3521	0.041798715
201	0x3e3a5880	0.18197823
202	0x3c729d2f	0.014807983
203	0x3c82d184	0.015969045
204	0xbc059a89	-0.00815452
205	0xbd048064	-0.032349005
206	0x3d4d6e30	0.05015391
207	0x3bf2a379	0.0074047414
208	0xbd9ad43b	-0.07560011
209	0xbd5bc905	-0.053658504
210	0x3b873e59	0.0041273055
211	0xbe7b66c0	-0.24550915
212	0xbd4c590a	-0.0498896
213	0x3c178b69	0.009249547
214	0xbde45cb7	-0.111504965
215	0xbd96503e	-0.07339524
216	0xbdc4d1c2	-0.09610321
217	0x3d737354	0.059436157
218	0xbc72769a	-0.014798785
219	0x3dc88b9b	0.09792253
220	0x3d6c7dbd	0.0577371
221	0xbdadf81f	-0.08494591
222	0xbbc2e199	-0.0059473035
223	0xbcd16340	-0.025560021
224	0x3e24024e	0.16016504
225	0x3d85e582	0.06537916
226	0x3e1bf2dd	0.15229364
227	0x3e1bfe63	0.1523376
228	0x3e0c96fc	0.13729471
229	0xbbdbbb10	-0.006705649
230	0xbe046c80	-0.12932014
231	0xbdb9dc9f	-0.09075283
232	0xbda68eb7	-0.081326894
233	0xbd8ab655	-0.06773058
234	0x3d083b0b	0.033259433
235	0xbcce3079	-0.025169598
236	0x3e0c31b2	0.13690832
237	0xbdebeb53	-0.11519494
238	0x3d6c7a64	0.05773391
239	0x3d9a8a4d	0.0754591
240	0x3d23dd88	0.04000619
241	0x3d86af76	0.06576435
242	0xbca152f5	-0.019692877
243	0x3dff8805	0.124771155
244	0xbca23395	-0.019799987
245	0x3bed9478	0.007250365
246	0xbdff2e86	-0.124600455
247	0xbcbad38e	-0.022805955
248	0x3de4a9df	0.11165213
249	0xbc7ad695	-0.015309949
250	0xbcd118b7	-0.02552448
251	0xbd331ce4	-0.043728724
252	0x3dcd5eb5	0.100278296
253	0xbd711bde	-0.058864467
254	0xbc399785	-0.011327629
255	0xbdb677ee	-0.089095935

network_body._body_endoder.seq_layers.2.bias f4 [256]
0	0xbd39fd50	-0.045407593
1	0xbc749a02	-0.014929296
2	0xbcbdd16f	-0.023171155
3	0xbc2b393c	-0.010450657
4	0xbd04c571	-0.032414857
5	0xbc1bb0b3	-0.009502578
6	0xbd030859	-0.031990383
7	0xbcbc1f4e	-0.022964146
8	0xbccac57a	-0.024752367
9	0xbd3e4f32	-0.046462245
10	0xbcb52086	-0.022110235
11	0xbce498f2	-0.027904961
12	0x3c3998fd	0.011327979
13	0xbc25a7bd	-0.010110793
14	0xbd28b7c5	-0.04119088
15	0xbcdf5665	-0.027262876
16	0xbd420a29	-0.04737297
17	0xbcaaa76b	-0.020831784
18	0xbd2bd8e2	-0.041954882
19	0xbc502f31	-0.012706564
20	0xbcda456b	-0.02664443
21	0xbcc5db54	-0.024152435
22	0xbc373449	-0.011181899
23	0xba8035a0	-0.0009781606
24	0xbd0b9397	-0.0340763
25	0xbcc16ea6	-0.023612332
26	0xbaabf178	-0.0013118228
27	0xbd2efe93	-0.04272325
28	0xbd0033de	-0.031299464
29	0xbcd475ce	-0.02593508
30	0xbd2ac162	-0.04168833
31	0xbd2e6eab	-0.04258601
32	0xbd01bcc4	-0.03167416
33	0xbcc27f53	-0.023742354
34	0xbc8fa300	-0.01753378
35	0xbc11a03a	-0.008888299
36	0xbd133076	-0.035934888
37	0xbd03247f	-0.032017227
38	0xbce373ae	-0.027765121
39	0xbca8b578	-0.020594344
40	0xbbe57fa1	-0.00700374
41	0xbd01fe8f	-0.031736907
42	0x390ca765	0.000134138
43	0xbc14c731	-0.009080694
44	0xbc93c33f	-0.018037437
45	0xbc642b56	-0.013926348
46	0xbc8932c2	-0.016747836
47	0xbc3690ee	-0.011142952
48	0xbc813b79	-0.01577543
49	0xbd7ab594	-0.061208323
50	0xbc9f3452	-0.019434128
51	0xbce7fc85	-0.028318653
52	0xbc94ee5d	-0.018180067
53	0xbc5a56b8	-0.013326339
54	0xbb9ed88f	-0.004847593
55	0xbd1f181c	-0.038841352
56	0xbcd25fae	-0.02568039
57	0xbd23196b	-0.039819162
58	0xbc0644ea	-0.008195141
59	0xbb380545	-0.0028079313
60	0xbcdb21ac	-0.026749454
61	0xbd00a3af	-0.0314061
62	0x3bc0e9b1	0.005887233
63	0xbd12fae9	-0.035883818
64	0xbd0a264f	-0.03372794
65	0xbcba04d2	-0.022707377
66	0xbd070f41	-0.03297353
67	0xbbe200e4	-0.006897079
68	0xbb972b95	-0.0046133497
69	0x3c9192f8	0.017770275
70	0xbd6bc022	-0.05755628
71	0x3a68dd78	0.0008883099
72	0xbd2a513e	-0.041581385
73	0xbcd2eb09	-0.02574684
74	0xbc8e8c20	-0.017400801
75	0xbbad14f5	-0.0052820393
76	0xbd16d741	-0.036826376
77	0xbd01872f	-0.03162306
78	0xbd1a459b	-0.037664037
79	0xbc111e84	-0.008857373
80	0xbcfaed4d	-0.030630732
81	0xbc67a053	-0.014137345
82	0xbc95f6a5	-0.018306086
83	0xbc3335d5	-0.0109381275
84	0xbd02bdfc	-0.031919464
85	0xbc1c5b75	-0.009543289
86	0xbcfbcf2e	-0.03073844
87	0xbcef7162	-0.02922887
88	0xbcfa57f2	-0.030559514
89	0xbb922a91	-0.0044606407
90	0xbbf7650f	-0.007549889
91	0x3c1379c0	0.009001195
92	0xbcf76be4	-0.030202813
93	0xbc2a0932	-0.010378169
94	0xbc92ecc7	-0.01793517
95	0xbd0a3bd7	-0.033748474
96	0xbcbc609b	-0.022995284
97	0xbc9b6f33	-0.018973922
98	0x3cfcd079	0.030861126
99	0x3cfd4660	0.030917346
100	0xbccae4fa	-0.024767388
101	0xbd088a85	-0.033335228
102	0xbcc93515	-0.024561444
103	0xbc76ea3e	-0.015070496
104	0xba9eb6dc	-0.001210894
105	0xbcfeece4	-0.031118818
106	0xbd0199de	-0.03164088
107	0xbccec63e	-0.025241014
108	0xbcd2f83d	-0.025753135
109	0xbc8ac49c	-0.016939454
110	0xbac6b1ac	-0.0015159152
111	0xbcec016d	-0.028809274
112	0xbc7aa4a0	-0.015298039
113	0xbcd22b9d	-0.025655562
114	0xbd116279	-0.0354943
115	0xbce86e2b	-0.028372845
116	0xbca1a941	-0.019734027
117	0xbcdd56cc	-0.027018927
118	0xbd26be22	-0.04070867
119	0xbd15938b	-0.03651766
120	0xbcf37fc2	-0.029724006
121	0x3bed3324	0.0072387625
122	0xbc887714	-0.016658343
123	0xbcea3590	-0.028589994
124	0xbce0bf72	-0.027435038
125	0xbc739d76	-0.014869085
126	0xbca31933	-0.019909477
127	0xbcc7753d	-0.024347896
128	0xbca4b836	-0.02010737
129	0xbc90b108	-0.01766254
130	0xbc2fb459	-0.010724151
131	0xbcb6365f	-0.022242723
132	0xbc36411d	-0.011123923
133	0xbc6e45c5	-0.014543002
134	0xbd215959	-0.03939185
135	0xbcd3c272	-0.025849555
136	0xbc91e689	-0.017810123
137	0xbca27a3a	-0.019833673
138	0xbca5d503	-0.020243173
139	0xbcc76e68	-0.024344638
140	0xbc6105c1	-0.013734282
141	0xbb65bbcb	-0.003505456
142	0xbc7d145b	-0.015446748
143	0xbb96cc13	-0.0046019643
144	0xbc5bf459	-0.013424956
145	0xbc0839ee	-0.008314593
146	0xbbdb8cb1	-0.0067001213
147	0xbd4acb09	-0.049510036
148	0xbd10d375	-0.03535791
149	0xbc6cb196	-0.014446637
150	0xbd0ba1ef	-0.03408998
151	0xbd24757a	-0.040151097
152	0xbcb95a97	-0.022626204
153	0x3c24e439	0.010064178
154	0xbd2e5761	-0.0425638
155	0xbd0019f8	-0.031274766
156	0xbcf3fcb2	-0.02978358
157	0xbb307c7d	-0.002692967
158	0xbd0df00e	-0.034652762
159	0xbcb78234	-0.022400953
160	0xbd0e013a	-0.03466914
161	0xbd50c66b	-0.050970476
162	0xbc8c4ffc	-0.017127983
163	0xbc589b83	-0.013220671
164	0xbc019377	-0.0079086935
165	0xbd25acf4	-0.040448144
166	0xbc8384f5	-0.01605461
167	0xbcbbd456	-0.022928398
168	0xbcf654c9	-0.030069726
169	0xbcfd35b5	-0.030909399
170	0xbc0d94b0	-0.008641407
171	0xbc4a88ff	-0.012361764
172	0xbcda41ae	-0.026642647
173	0xbbd3f1e2	-0.0064680437
174	0xbc6cbdf3	-0.014449584
175	0x3c5a0bba	0.01330846
176	0xbd74bb69	-0.05974904
177	0xbccaa6eb	-0.024737796
178	0xbcedb377	-0.02901624
179	0xbcfdf4a7	-0.031000448
180	0xbb06566e	-0.0020498293
181	0xbcf23fdc	-0.029571466
182	0xbc87f913	-0.01659826
183	0xbc8b7022	-0.017021243
184	0xbd5fbcd0	-0.054623425
185	0xbcd9047a	-0.026491392
186	0xbc8a2275	-0.016862134
187	0xbccc609d	-0.024948413
188	0xbcbfbfea	-0.023406941
189	0xbcb1ea20	-0.021718085
190	0xbb430561	-0.0029757845
191	0xbd2892b6	-0.04115554
192	0xbaf46f54	-0.0018648901
193	0xbccfb806	-0.025356304
194	0x3a072c90	0.00051564816
195	0xbb5c11ce	-0.0033579948
196	0xbd1d2757	-0.038367596
197	0xbc96e9a2	-0.018421952
198	0xba2febd2	-0.000671086
199	0xbcde1bcd	-0.027112866
200	0xbcab0f9d	-0.020881468
201	0xbcda3465	-0.026636312
202	0xba0ac4da	-0.00052936154
203	0xbcdb5a3f	-0.026776431
204	0xbd4fd783	-0.050742637
205	0x3ba09152	0.004900136
206	0xbc987001	-0.018608095
207	0xbc4de6ee	-0.012567265
208	0xbd44d1a4	-0.04805149
209	0xbccdc141	-0.025116565
210	0xbd07b95d	-0.03313576
211	0xbc710981	-0.014711739
212	0xbcfad4e3	-0.03061909
213	0xbd59efe7	-0.053207304
214	0xbbda7b78	-0.0066675507
215	0xbd261a2a	-0.040552296
216	0xbd1a0ade	-0.03760802
217	0xbcac3885	-0.021023044
218	0xbd0d321f	-0.034471627
219	0xbd2dc9a3	-0.042428624
220	0xbb71b8c2	-0.0036883806
221	0xbcbd9dd3	-0.023146546
222	0xbc284701	-0.010270835
223	0xbcee90ad	-0.029121721
224	0xbc7d063d	-0.015443382
225	0xbccfbcbe	-0.025358554
226	0xbb6dd97f	-0.0036292968
227	0xbd03980d	-0.03212743
228	0x3bed1279	0.007234868
229	0xbcd87562	-0.02642316
230	0xbc8556e9	-0.016276794
231	0xbc86207b	-0.01637291
232	0xbce4bb90	-0.027921468
233	0xbd3c0417	-0.045902338
234	0xbc9da2cf	-0.019242672
235	0xbbd51f87	-0.0065040025
236	0xbcb83685	-0.022486934
237	0xbce3c2b0	-0.027802795
238	0xbcbb4acd	-0.022862816
239	0xbd550c9a	-0.05201397
240	0x3bb0e165	0.005397963
241	0xbc8b7290	-0.017022401
242	0xbc8c0314	-0.017091312
243	0xbc0e4cd4	-0.008685309
244	0xbb9be580	-0.004757583
245	0xbcc41e8d	-0.023940349
246	0xbd139e86	-0.03603985
247	0xbbcfe389	-0.006344263
248	0xbbef0e84	-0.0072954316
249	0xbce770d0	-0.028252035
250	0xbbaa3550	-0.0051943436
251	0xbc984f46	-0.018592488
252	0xbcbaa126	-0.02278192
253	0x3a9e7278	0.0012088558
254	0xbc953b6e	-0.018216815
255	0xbceb65e6	-0.028735112

network_body._body_endoder.seq_layers.2.weight f4 [256, 256]
0	0x3b4e2f67	0.003146136
1	0xbddc4ae8	-0.10756475
2	0x3d5c455d	0.053777087
3	0xbdd96486	-0.106148764
4	0x3d6733d7	0.056445923
5	0x3d574085	0.052551765
6	0x3d98edff	0.07467269
7	0xbe114fcb	-0.14190595
8	0x3d6486f2	0.055792756
9	0xbdbdb923	-0.09263828
10	0xbdc97521	-0.09836794
11	0xbd231352	-0.039813347
12	0x3e151c3c	0.14561552
13	0x3d99d612	0.07511534
14	0xbaf4d6fd	-0.0018679794
15	0xbcc6346d	-0.02419492
16	0xbdcf6b26	-0.10127859
17	0xbd8b5166	-0.06802635
18	0xbdc39251	-0.09549392
19	0xbda91e3f	-0.08257722
20	0xbde8a64f	-0.11359846
21	0xbcfd174b	-0.030894896
22	0xbd8622fe	-0.06549643
23	0x3d482a49	0.04886845
24	0xbdd78094	-0.10522571
25	0xbe2d02d3	-0.16895609
26	0xbbc2d313	-0.005945572
27	0xbc5246f1	-0.012834297
28	0xbe286a56	-0.16446814
29	0xbd5b1226	-0.053484105
30	0xbde83dfe	-0.11339949
31	0x3d5af599	0.053456876
32	0xbe0dccdf	-0.13847683
33	0xbc082054	-0.008308489
34	0x3d6ba3dd	0.05752932
35	0x3c67b5aa	0.014142433
36	0x3c28dcef	0.010306581
37	0xbd29fb9c	-0.04149972
38	0x3d2745e2	0.04083813
39	0x3d70dc4b	0.058803838
40	0xbd949c5c	-0.07256386
41	0x3e0f9b86	0.14024171
42	0xbe059eaf	-0.13048814
43	0xbccfa78a	-0.025348444
44	0xbe120a7c	-0.14261812
45	0xbd1d44f9	-0.038395856
46	0x3d25fcd2	0.04052431
47	0xbd7923f5	-0.060825307
48	0xbe0d6656	-0.1380857
49	0xbc33ee6e	-0.010982139
50	0xbd840151	-0.064455636
51	0x3d537c54	0.05163224
52	0xbe01be8a	-0.12670341
53	0xbdf03663	-0.117291234
54	0xbd1453d4	-0.036212757
55	0x3cfd6f1f	0.030936776
56	0x3d1b2fe5	0.037887473
57	0xbded4be2	-0.11586739
58	0x3ce7110f	0.028206376
59	0x3dbbe4c5	0.09174494
60	0x3d355491	0.044270102
61	0xbd80905c	-0.06277534
62	0xbe51f693	-0.20504217
63	0xbd76a8ab	-0.060219448
64	0x3cc762f8	0.024339184
65	0x3ae715fa	0.0017630451
66	0xbd86fefc	-0.06591603
67	0x3d60da57	0.054895725
68	0xbdf488d1	-0.11940158
69	0x3d195381	0.03743315
70	0x3b2b0c3b	0.002609982
71	0x3d3d3343	0.046191465
72	0x3d6cb585	0.057790298
73	0x3caf502d	0.021400535
74	0xbe2925c1	-0.16518308
75	0x3cfb07a8	0.0306433
76	0x3e314b11	0.17313792
77	0x3cf63ee9	0.030059295
78	0xbe31deb7	-0.17370115
79	0xbd9fd49d	-0.07804225
80	0xbd0eee1c	-0.034895048
81	0xbe5e0ac0	-0.21683788
82	0xbe5009ce	-0.2031624
83	0xbd21b56f	-0.03947967
84	0xbcb64354	-0.022248901
85	0x3e0bc872	0.13650683
86	0x3d20776c	0.03917639
87	0xbd389708	-0.04506591
88	0xbe356e9c	-0.17717975
89	0x3d4e210a	0.050324477
90	0xbd600c4f	-0.05469924
91	0xbdfd4c4c	-0.12368068
92	0xbde3e0b2	-0.111268416
93	0xbd77d415	-0.06050499
94	0xbb04be6f	-0.0020255109
95	0xbe30dc89	-0.17271627
96	0x3d27b55f	0.040944453
97	0xbd5c4e1a	-0.05378542
98	0xbccb1969	-0.02479239
99	0xbdd96b2c	-0.106161445
100	0xba6b615d	-0.0008979047
101	0xbbaf2244	-0.005344661
102	0x3b070ad0	0.002060581
103	0xbd3d5189	-0.046220336
104	0x3c2eb066	0.010662174
105	0x3deaa363	0.11456945
106	0x3e1e9c33	0.15489273
107	0xbdd452fa	-0.10367389
108	0x3a52ad53	0.00080366916
109	0xbcdae719	-0.026721524
110	0xbc592676	-0.013253799
111	0xbc9204b9	-0.017824518
112	0xbd7bb71e	-0.06145393
113	0xbae3820f	-0.0017357486
114	0xbc173bd7	-0.0092305755
115	0xbe3277e3	-0.17428546
116	0xbe14d8f8	-0.14535892
117	0xbbd8ee66	-0.006620216
118	0x3dbd23aa	0.09235318
119	0xbb58c50f	-0.003307644
120	0x3d1471ee	0.036241464
121	0xbcb623c1	-0.022233846
122	0xbbd476e7	-0.006483901
123	0xbc3255ff	-0.010884761
124	0xbe0532cc	-0.13007659
125	0xbd27aea4	-0.040938035
126	0xbcf13c19	-0.029447602
127	0xbdd3ff09	-0.103513785
128	0x3e020561	0.12697364
129	0xbe0de4b4	-0.13856775
130	0x3dd8a460	0.10578227
131	0xbdb11a00	-0.08647537
132	0xbddcce19	-0.107814975
133	0x3cff0e9f	0.031134902
134	0xbb136b9d	-0.0022494562
135	0x3d555d65	0.05209102
136	0x3ddc5fa4	0.107604295
137	0xbcbe6f36	-0.023246389
138	0x3d2ada08	0.041711837
139	0xbcd563a1	-0.026048483
140	0x3e287e83	0.1645451
141	0xbdd467d5	-0.10371367
142	0xbc92e6f1	-0.017932387
143	0xbe18d507	-0.14925013
144	0x3e10590f	0.14096473
145	0x3d3ec575	0.04657503
146	0xbd8cd10e	-0.068758115
147	0x3c5c63b1	0.013451503
148	0xbccf2394	-0.02528552
149	0x3a0da750	0.00054036546
150	0xbd722b21	-0.059123162
151	0xbd617d69	-0.05505124
152	0x3d584a94	0.0528055
153	0x3deb1c7a	0.11480041
154	0x3d853434	0.065040976
155	0xbda0d4a9	-0.07853062
156	0x3bc553aa	0.0060219364
157	0xbd03da42	-0.03219057
158	0x3e3966c9	0.18105616
159	0x3de3b072	0.11117639
160	0x3cd1819c	0.025574498
161	0x3d9f7dbe	0.07787655
162	0x3cb51161	0.022103013
163	0x3c1b1b17	0.009466908
164	0x3c9f69df	0.019459663
165	0xbd6626f8	-0.056189507
166	0xbd2125df	-0.039342757
167	0x3b8b2b43	0.0042471006
168	0xbc7020f8	-0.014656298
169	0xbd54947c	-0.05189942
170	0x3b2bbf44	0.0026206532
171	0x3d6ab52b	0.05730168
172	0x3d15c097	0.03656062
173	0x3def9a57	0.1169936
174	0x3e0abfc8	0.13549721
175	0xbbe9b7a5	-0.007132488
176	0x3c58d1d5	0.013233622
177	0xbbf401af	-0.0074464898
178	0x3cee27d2	0.029071722
179	0x3cf801d4	0.03027431
180	0xbd99fff4	-0.07519522
181	0xbbdc85a9	-0.0067298007
182	0x3cde2535	0.027117351
183	0x3cd3cbf6	0.025854092
184	0x3c3cbd83	0.0115197925
185	0x3d0c8538	0.034306735
186	0x3d8e2b4c	0.06941852
187	0x3c1b2f9f	0.009471803
188	0xbc628e37	-0.013827852
189	0x3c732646	0.014840668
190	0xbd14de8d	-0.036345053
191	0x3d3cd81a	0.046104528
192	0x3b75b56c	0.003749217
193	0xbd14f1d4	-0.036363438
194	0x3d5855cc	0.052816197
195	0x3d203b6b	0.039119165
196	0x3dab13f3	0.083534144
197	0xbce9f817	-0.028560681
198	0xbd5e9f28	-0.054351002
199	0xbd7183c9	-0.05896357
200	0xbd9a1ef9	-0.07525439
201	0xbd175d72	-0.03695435
202	0x3c9345e0	0.017977655
203	0xbd1047df	-0.03522479
204	0xbd9f1006	-0.07766728
205	0xbe3e656d	-0.18593378
206	0xbd8af93f	-0.06785821
207	0xbc7e6e47	-0.015529222
208	0xbda47253	-0.08029618
209	0xbd0099d8	-0.031396717
210	0xbd3f97da	-0.046775676
211	0xbca03158	-0.019554779
212	0xbdb9df18	-0.09075755
213	0x3e1509d9	0.14554538
214	0x3dc891b6	0.09793417
215	0x3c92fc1c	0.01794248
216	0x3dc66cba	0.09688707
217	0xbd8a3bfc	-0.06749722
218	0x3db70ca3	0.08937957
219	0x3d10b173	0.03532548
220	0xbdc1023c	-0.09424254
221	0x3c2e97d4	0.010656316
222	0xbd881c77	-0.06646054
223	0xbd356575	-0.04428621
224	0x3d42bef0	0.047545373
225	0x3d5db74d	0.054129887
226	0xbdc31810	-0.09526074
227	0xbd80cf66	-0.06289558
228	0xbdb62ba3	-0.08895042
229	0x3d3ebd21	0.046567086
230	0xbc99fa0c	-0.01879599
231	0xbddc5eba	-0.10760255
232	0xbc3c8a44	-0.0115075745
233	0x3dd44342	0.10364391
234	0xbdd491aa	-0.10379346
235	0xbd1dbcc7	-0.03851011
236	0xbe0377c6	-0.12838659
237	0x3c18a57b	0.009316797
238	0x3a8e03a2	0.0010834823
239	0xbb17f9e8	-0.0023189727
240	0x3d8f83f0	0.07007587
241	0x3c8fc498	0.017549798
242	0xbccb3aec	-0.02480837
243	0xbdc28d5f	-0.09499621
244	0xbca4f9a7	-0.020138575
245	0x3db227f6	0.08699028
246	0xbdbd715c	-0.09250137
247	0x3d2a06e8	0.041510493
248	0xbd2e9bfe	-0.042629234
249	0xbe1fc313	-0.15601759
250	0x3d4f515c	0.0506147
251	0xbd804d84	-0.06264785
252	0xbca5676a	-0.020190913
253	0x3cf3ca0b	0.029759428
254	0x3d68fca5	0.056881566
255	0xbb9e38fe	-0.0048285713

network_body._body_endoder.seq_layers.4.bias f4 [256]
0	0x3c19ea82	0.00939429
1	0xbd11fd25	-0.035641808
2	0xbb7a459a	-0.0038188458
3	0xbd229748	-0.039695054
4	0x3b334d90	0.0027359463
5	0xbcdd0c61	-0.026983442
6	0xbd627d53	-0.0552953
7	0xbcb08cec	-0.021551572
8	0xbd3cffd3	-0.04614241
9	0xbd102c2b	-0.03519837
10	0xbbed0b24	-0.007233994
11	0xbd1cfb82	-0.038325794
12	0x3a81506e	0.0009865889
13	0xbc6db765	-0.014509057
14	0xbcaf8ed4	-0.02143041
15	0xbc8c85ff	-0.017153738
16	0xbd10f195	-0.03538664
17	0xbce470a9	-0.027885752
18	0xbd251d1b	-0.04031096
19	0x3aa45c63	0.001253974
20	0xbcbbea11	-0.02293876
21	0xbb1b7b56	-0.0023724637
22	0x3c1d769f	0.009610801
23	0xb9a7c6b3	-0.00032000765
24	0xbcf352c0	-0.029702544
25	0xbd34f215	-0.04417618
26	0xbb86c744	-0.00411311
27	0xbcb26f86	-0.021781694
28	0xbcac8456	-0.021059196
29	0xbcb29ea3	-0.02180416
30	0xbcad34bf	-0.021143315
31	0xbd1c827d	-0.03821038
32	0xbcbba915	-0.022907773
33	0x3c4a5121	0.012348444
34	0xbbb0e0c0	-0.005397886
35	0xbd407dbb	-0.046994906
36	0xba5b0330	-0.0008354662
37	0xbd1293a9	-0.03578535
38	0xbc57fc30	-0.013182685
39	0xbc90d4d3	-0.017679607
40	0xbc4a63f0	-0.0123529285
41	0xbcb2d1d1	-0.021828564
42	0xbca306b4	-0.019900657
43	0xbd0e8b91	-0.03480107
44	0xbcbfc0af	-0.023407308
45	0xbd2c08af	-0.04200047
46	0xbd132f29	-0.035933647
47	0xbd2e2454	-0.042515114
48	0xbd7406eb	-0.05957691
49	0x3903c211	0.00012565429
50	0xbccea53b	-0.025225272
51	0xbd0562c2	-0.032564886
52	0xbccd2746	-0.025043141
53	0xbbf81026	-0.0075702844
54	0x3c3ab575	0.011395802
55	0xbbc9f2dc	-0.0061629843
56	0xbc6a55ac	-0.014302652
57	0xbd137794	-0.03600271
58	0xbc3ce8bc	-0.011530098
59	0x3c011eb9	0.00788086
60	0xbc05ad0b	-0.008158932
61	0xbce8881b	-0.028385213
62	0xbca852e4	-0.020547338
63	0xbc7e2572	-0.015511857
64	0xbd52e60a	-0.051488914
65	0xbcb8f355	-0.022576967
66	0xbb656423	-0.0035002313
67	0x3b6357bf	0.0034689752
68	0xbd5bffc8	-0.05371073
69	0xbcacdc8b	-0.021101257
70	0xbcdd99b0	-0.027050823
71	0xbd478d6d	-0.04871886
72	0xbd0ad08a	-0.033890285
73	0xbd25a12e	-0.040436916
74	0xbd2d3019	-0.042282198
75	0xbb5badc8	-0.003352033
76	0xbc367950	-0.011137322
77	0xbd2cb180	-0.042161465
78	0xbd125030	-0.035721004
79	0xbbd303c2	-0.006439657
80	0xbc8356af	-0.016032545
81	0xbd147bb2	-0.036250778
82	0xbcbd3d83	-0.02310062
83	0xbc89331f	-0.01674801
84	0xbcd4dca5	-0.025984118
85	0xbd36858b	-0.04456095
86	0xbc4d4b6d	-0.01253019
87	0x3cc9e63f	0.024645923
88	0xbc816bb6	-0.01579843
89	0xbd5239e5	-0.051324744
90	0xbd296519	-0.04135618
91	0xbd647e5d	-0.055784572
92	0xbcdd79a9	-0.027035551
93	0xbce8ce32	-0.028418634
94	0xbc96016e	-0.018311229
95	0xbd0a3170	-0.033738554
96	0xbcd7e4ce	-0.02635422
97	0xbcefa087	-0.02925135
98	0xbcd185dc	-0.025576524
99	0xbcee988b	-0.029125473
100	0xbcb7d8c8	-0.022442237
101	0xbd62a36d	-0.055331636
102	0xbcf21a0a	-0.029553432
103	0xbd012094	-0.03152521
104	0xbbb18d84	-0.0054184813
105	0xbd1535a5	-0.036428113
106	0xbd1994f6	-0.037495576
107	0xbc96172e	-0.0183216
108	0xbc79b51a	-0.015240932
109	0xbc985fc1	-0.018600347
110	0xbbe54d9a	-0.006997776
111	0xbd0525f4	-0.032506898
112	0xbccb2dd6	-0.02480213
113	0xbc689fd0	-0.0141982585
114	0xbcf7e91b	-0.03026252
115	0xbca44274	-0.020051219
116	0xbc8a66a6	-0.01689465
117	0xbbabde31	-0.005244993
118	0xbd445632	-0.047933765
119	0xbc491ca0	-0.012274891
120	0xbcee3619	-0.02907853
121	0xbc9097c1	-0.017650487
122	0xbd0e9d40	-0.034817934
123	0xbce544e7	-0.027986957
124	0xbd431611	-0.047628466
125	0xbacc32bb	-0.0015579084
126	0xbd08b66a	-0.03337709
127	0xbd160738	-0.036627978
128	0xbc752a1f	-0.014963656
129	0xbc62cd54	-0.013842899
130	0xbc61830e	-0.013764156
131	0xbd658ad0	-0.056040585
132	0x3cb546e6	0.022128534
133	0xbc6b4592	-0.014359849
134	0xbcfcb5d8	-0.030848429
135	0xbd2a29d7	-0.041543808
136	0x3cadd907	0.02122165
137	0xbc8220c6	-0.015884768
138	0xbb5e50b2	-0.003392261
139	0xbd5e788d	-0.054314185
140	0xbcc32b19	-0.023824262
141	0x3bcbf8d0	0.006224729
142	0xbbb2c87c	-0.0054560285
143	0xbd0bda2e	-0.03414362
144	0xbd2c54f7	-0.042073216
145	0xbc0576fd	-0.008146045
146	0xbcef8825	-0.029239723
147	0xbac4fa33	-0.0015028178
148	0xbc8b33ff	-0.016992567
149	0xbd048b81	-0.032359604
150	0xbcee28f5	-0.029072264
151	0x3bf77cbc	0.0075527113
152	0xbc2dc75c	-0.010606613
153	0xbca0d433	-0.019632434
154	0x3b91ec0a	0.004453187
155	0x3b79b750	0.0038103648
156	0xbb8e2614	-0.0043380354
157	0xbca6b68c	-0.020350717
158	0xbce14342	-0.027497891
159	0xbc9c4a4a	-0.019078393
160	0xbce8d874	-0.028423525
161	0xbcc614e4	-0.024179883
162	0xbc687668	-0.0141883865
163	0xbd0cb8e7	-0.034356024
164	0xbd419ca7	-0.047268536
165	0x397ea6bf	0.00024285445
166	0xb9df9b42	-0.0004264955
167	0xbd46fcd8	-0.048580974
168	0x3bd19eab	0.0063970885
169	0xbcab0a52	-0.020878945
170	0xbcc2ee16	-0.023795169
171	0x3b0c07b4	0.0021366896
172	0xbd07454f	-0.033025082
173	0xbcf2908a	-0.029609937
174	0xbb1a76ad	-0.0023569271
175	0xbc637172	-0.013882028
176	0xbcefa756	-0.029254597
177	0xbcc801ac	-0.02441486
178	0xbc8310be	-0.015999194
179	0xbd1daf81	-0.03849745
180	0xbbb4364f	-0.005499638
181	0xbc7ba9a0	-0.015360266
182	0xbd062a2d	-0.032755066
183	0xbd2c9f88	-0.04214433
184	0xbd447324	-0.04796137
185	0xbd0edb53	-0.034877133
186	0x39d94e6a	0.00041447888
187	0xbc9bf9eb	-0.019040069
188	0xbd13fed3	-0.03613169
189	0xbd01276e	-0.031531744
190	0xbc971c29	-0.018446045
191	0xbd03846e	-0.032108717
192	0xbd13b833	-0.036064338
193	0xba9775cc	-0.0011555492
194	0xbce74ed4	-0.02823583
195	0xbc505ed7	-0.012717924
196	0xbcf11b39	-0.029431926
197	0xbd0189f5	-0.031625707
198	0xbc69a352	-0.01426013
199	0xbceffff4	-0.029296853
200	0xbd164b41	-0.03669286
201	0x3b35eb46	0.0027758642
202	0xbd2ac05b	-0.04168735
203	0x3b264a97	0.002537405
204	0xbd325c8d	-0.043545295
205	0xbb98007e	-0.0046387305
206	0xbd29a085	-0.04141285
207	0xbd032347	-0.032016065
208	0xbd406bf3	-0.04697795
209	0xbb21a395	-0.0024664153
210	0xbcb5c8c3	-0.022190457
211	0xbc54dab6	-0.012991598
212	0xbc137595	-0.009000202
213	0xbce0ef4b	-0.027457854
214	0xbcea974b	-0.028636595
215	0x3ad3a6e3	0.0016147759
216	0x39ee4d9a	0.00045452715
217	0xbcd99867	-0.026561929
218	0xbc8b1417	-0.016977353
219	0xbcb2fec2	-0.021849994
220	0xbd18e78b	-0.03733019
221	0xbd3b544a	-0.04573468
222	0xbd136385	-0.03598358
223	0x3bd9233a	0.006626514
224	0xbc706cda	-0.01467439
225	0xbc28e76f	-0.010309084
226	0xbcc2f9a3	-0.023800677
227	0xbce2d5cd	-0.027689839
228	0xbbf77fec	-0.0075530913
229	0xbbb2b362	-0.005453513
230	0xbc815564	-0.015787788
231	0xbcc092aa	-0.023507435
232	0xbc2edad2	-0.010672288
233	0xbca5914b	-0.020210883
234	0xbc5be196	-0.013420483
235	0xbc98e737	-0.01866494
236	0xbcb96d39	-0.02263509
237	0xbc175330	-0.009236142
238	0xbc9f6ce5	-0.019461105
239	0xbd28fa79	-0.041254494
240	0xbcc63fe9	-0.024200397
241	0xbcae68ce	-0.02129021
242	0xbd4eb977	-0.05046984
243	0xbd2372c8	-0.039904386
244	0xbd1a4474	-0.03766294
245	0xbd322d36	-0.043500148
246	0xbbab55a0	-0.005228713
247	0xbc9bf528	-0.019037798
248	0x3c080d1d	0.008303908
249	0xbd12149d	-0.03566419
250	0xbcaf931f	-0.021432457
251	0xbbd19e53	-0.0063970475
252	0xbc3353cb	-0.010945271
253	0xbc9d5070	-0.019203395
254	0xbd0b7c86	-0.0340543
255	0xbcb5d363	-0.022195524
