Assets/Training/results/RUN5/SzitakotoBehavior/SzitakotoBehavior-9499952.onnx (onnx, 729012 bytes, 17 tensors)

85 f4 [14]
0.00032444365 0.19149266 0.00032444365 0.19171607 0.00032444365 0.18768403 0.00032444365 0.19033547
0.00032444365 0.18891749 0.00032444365 0.18869692 0.00032444365 0.18869692
00000000: 171a aa39 a716 443e 171a aa39 3851 443e
00000010: 171a aa39 3e30 403e 171a aa39 4de7 423e
00000020: 171a aa39 9673 413e 171a aa39 c439 413e
00000030: 171a aa39 c439 413e

88 f4 [42]
0.0016858532 0.28006446 0.0023395803 0.27647728 0.0021521044 0.28607306 0.0024278958 0.28036904
0.0022941492 0.28945798 0.0024061205 0.28661326 0.0023841497 0.29067665 0.0016858532 0.27908486
0.0023395803 0.27553302 0.0021521044 0.2849832 0.0024278958 0.27935228 0.0022941492 0.28825077
0.0024061205 0.28543335 0.0023841497 0.28937697 0.0016858532 0.27809328 0.0023395803 0.2745776
0.0021521044 0.28388324 0.0024278958 0.278324 0.0022941492 0.2870324 0.0024061205 0.28424034
0.0023841497 0.2880648
00000000: d9f7 dc3a 9c64 8f3e a553 193b 6e8e 8d3e
00000010: 520a 0d3b 2b78 923e 551d 1f3b 888c 8f3e
00000020: 7059 163b d633 943e 01b0 1d3b f9be 923e
00000030: 653f 1c3b 92d3 943e d9f7 dc3a 36e4 8e3e
00000040: a553 193b aa12 8d3e 520a 0d3b 51e9 913e
00000050: 551d 1f3b 4307 8f3e 7059 163b 9b95 933e
00000060: 01b0 1d3b 5224 923e 653f 1c3b 3829 943e
00000070: d9f7 dc3a 3e62 8e3e a553 193b 6f95 8c3e
00000080: 520a 0d3b 2559 913e 551d 1f3b 7c80 8e3e
00000090: 7059 163b e9f5 923e 01b0 1d3b f387 913e
000000a0: 653f 1c3b 3b7d 933e

91 f4 [132]
0.22438462 0.4775069 0.49171808 0.27831024 0.21243598 0.48026514 0.49233156 0.2759726
0.26098272 0.46345526 0.48783007 0.27340806 0.22410455 0.475511 0.49049205 0.272204
0.28093052 0.45297474 0.48518142 0.26599303 0.26124093 0.4634289 0.48785055 0.26757208
0.28437096 0.44344527 0.4806438 0.2618082 0.27976343 0.44505978 0.48064226 0.2629719
0.2818276 0.43256235 0.47394454 0.25735614 0.2719854 0.41955253 0.46369395 0.25706443
0.28024858 0.4204725 0.46641603 0.2509709 0.22478597 0.4776147 0.49140242 0.2758781
0.21289317 0.48036686 0.49203217 0.27350262 0.26136082 0.46359056 0.48745295 0.27089816
0.22460836 0.4756294 0.49016935 0.2696543 0.28128102 0.45313227 0.48476464 0.26336396
0.2616815 0.46357593 0.48748994 0.2649043 0.28469768 0.44359574 0.48014817 0.25908038
0.28014773 0.4452272 0.48016578 0.26016176 0.28214473 0.43266544 0.47332034 0.25448915
0.2723443 0.41967788 0.4629582 0.25402167 0.28055194 0.4205471 0.46566963 0.24790837
0.22518738 0.4777217 0.49108315 0.2734097 0.2133423 0.48046702 0.49172598 0.2709953
0.26173934 0.46373153 0.48706695 0.2683508 0.2251047 0.47574973 0.48983988 0.2670689
0.28163305 0.45328727 0.48433456 0.26069272 0.2621218 0.46372658 0.4871181 0.26219696
0.28503114 0.44374874 0.4796473 0.25630766 0.28053698 0.44539627 0.47968072 0.25730902
0.28246206 0.43276754 0.47268474 0.25156668 0.27271485 0.41980276 0.4622128 0.2509252
0.2808537 0.42062357 0.4649147 0.24479127
00000000: 15c5 653e c97b f43e 79c2 fb3e ae7e 8e3e
00000010: d188 593e 50e5 f53e e212 fc3e 484c 8d3e
00000020: 879f 853e 024a ed3e ddc4 f93e 24fc 8b3e
00000030: aa7b 653e 2e76 f33e c621 fb3e 535e 8b3e
00000040: 20d6 8f3e 4eec e73e b369 f83e 3d30 883e
00000050: 5fc1 853e 8e46 ed3e 8cc7 f93e 35ff 883e
00000060: 1299 913e 420b e33e f216 f63e b90b 863e
00000070: 273d 8f3e e0de e33e be16 f63e 41a4 863e
00000080: b54b 903e d078 dd3e dca8 f23e 2fc4 833e
00000090: ac41 8b3e 97cf d63e 4b69 ed3e f39d 833e
000000a0: be7c 8f3e 2c48 d73e 15ce ee3e 427f 803e
000000b0: 4b2e 663e ea89 f43e 1999 fb3e e53f 8d3e
000000c0: ab00 5a3e a5f2 f53e a4eb fb3e 8908 8c3e
000000d0: 16d1 853e be5b ed3e 6f93 f93e 2ab3 8a3e
000000e0: bcff 653e b285 f33e 7af7 fa3e 2110 8a3e
000000f0: 1104 903e f400 e83e 1233 f83e a4d7 863e
00000100: 1efb 853e d359 ed3e 4898 f93e 89a1 873e
00000110: e5c3 913e fb1e e33e fbd5 f53e 2fa6 843e
00000120: 866f 8f3e d2f4 e33e 4ad8 f53e ec33 853e
00000130: 4675 903e 5386 dd3e 0b57 f23e 674c 823e
00000140: b670 8b3e 05e0 d63e db08 ed3e 210f 823e
00000150: 81a4 8f3e f351 d73e 406c ee3e b1db 7d3e
00000160: 8597 663e f097 f43e 406f fb3e 5bfc 8b3e
00000170: 6776 5a3e c6ff f53e 82c3 fb3e e5bf 8a3e
00000180: b302 863e 386e ed3e d760 f93e 4765 893e
00000190: d981 663e 7895 f33e 4bcc fa3e 41bd 883e
000001a0: 3532 903e 4515 e83e b3fa f73e 8479 853e
000001b0: d434 863e 926d ed3e 8b67 f93e ae3e 863e
000001c0: 9aef 913e 0933 e33e 5594 f53e c23a 833e
000001d0: 8ba2 8f3e fb0a e43e b698 f53e 02be 833e
000001e0: de9e 903e b593 dd3e bc03 f23e 59cd 803e
000001f0: 48a1 8b3e 63f0 d63e 28a7 ec3e 4579 803e
00000200: 0ecc 8f3e f95b d73e 4d09 ee3e 90aa 7a3e

94 f4 [2]
0.26181477 0.41394958
00000000: 960c 863e 33f1 d33e

action_model._continuous_distribution.log_sigma f4 [1, 2]
-0.91398305 -0.3700767
00000000: cbfa 69bf b17a bdbe

action_model._continuous_distribution.mu.bias f4 [2]
0.017032111 -0.010948535
00000000: ed86 8b3c 7c61 33bc

action_model._continuous_distribution.mu.weight f4 [2, 256]
0.034786727 -0.013258754 0.050067358 -0.027058529 -0.0010877447 0.0025160229 0.0022894405 -0.01922955
-0.023876926 -0.011981301 0.026108589 -0.009771655 -0.019760743 0.0061563505 0.01224083 0.0003097367
0.0011549611 -0.02814631 -0.009754763 0.03062628 -0.057192232 0.0010381788 0.051774874 0.03451107
-0.037962735 0.0019277097 0.03418717 -0.0062370324 -0.06266936 0.013424536 -0.036412377 -0.011773334
-0.053950652 0.052293457 0.0326912 -0.008629181 -0.0104365805 0.022826111 0.01249924 0.014310464
0.010893626 -0.020408 -0.0023913682 0.002640742 0.0035145686 0.016796488 -0.019692522 -0.02585132
0.0037743608 -0.032911092 0.00029894954 -0.010436253 -0.03233306 -0.070425816 0.047255438 0.024268685
-0.04107334 -0.0035611165 0.0038635018 0.05757377 -0.016607312 0.006232607 -5.247569e-05 0.009609386
-0.0129558705 -0.01278313 -0.018701637 0.033305302 -0.0058000665 0.0038855455 -0.064982995 -0.008991488
-0.0016350523 0.0075082993 -0.03741583 -0.033902243 0.0060973135 0.0011724876 -0.009903069 -0.011189032
-0.08845683 -0.007079413 -0.0047370372 0.02733695 0.0016491537 -0.009466866 -0.07883716 0.06181648
-0.00010882796 0.0010764436 -0.007166084 -0.005212085 -0.06695949 -0.073755 -0.050754227 -0.021355513
-0.056797735 0.003043581 -0.017221583 -0.010020806 0.0073633064 -0.014623049 -0.026824195 0.0036431565
0.014755742 0.012597721 -0.031106276 0.0076146107 -0.005805784 -0.014052683 0.012540562 -0.015898855
9.923122e-05 -0.02215797 -0.03994476 0.006672021 0.007423161 -0.021598754 -0.022436004 0.009160193
0.006230662 0.024597948 -0.053106546 0.0024483388 0.00081335957 0.0031633326 -0.027600918 -0.004354544
-0.0105376 -0.004330166 -0.05762263 0.0024554932 0.08759823 -0.0045299027 -0.0056917625 -0.017994775
0.08553503 0.021300491 0.03474789 0.011075175 -0.021270428 0.052484993 0.03580358 -0.0037773105
-0.004310517 0.000818888 -0.0053535155 0.019218037 0.0047831824 -0.011805006 -0.007271124 -0.00471866
-0.036080938 -0.0704463 0.032406732 0.043969575 0.024411397 -0.026863135 -0.0014685292 0.0059019565
-0.009424778 -0.033284917 0.0024028623 0.0132675255 -0.0046339347 -0.00089072 -0.04233628 -0.0068967817
0.058398373 -0.0051298053 -0.0022425067 0.020105956 -0.0028228783 -0.039534375 0.099338606 0.010622567
-0.012189429 -0.016306536 -0.06642017 -0.052307457 0.0012262746 0.02165405 -0.02621181 -0.00045379426
0.0017363713 -0.0035522487 0.018254785 -0.014342219 -0.011885036 -0.040826775 -0.022165734 -0.0062827743
0.008928237 -0.007212166 -0.011052593 -0.0023371272 -0.01550618 -0.004650824 0.009011162 -0.0024644786
-0.044383638 -0.0055594975 -0.025373563 0.027007887 -0.012913073 -0.023476334 0.0033055611 -0.020988243
-0.0018622914 0.0076415306 0.014680375 0.009647464 -0.003454543 0.008598763 0.0030206547 -0.024044186
0.019186435 0.00086479983 -0.023864852 0.005074673 -0.0039611375 -0.00842083 0.0023617325 0.016399063
-0.047637466 -0.0698162 -0.0025259827 0.0034073887 -0.049349464 0.018515132 0.03470296 0.00904901
0.017850455 0.01025133 0.003523646 -0.011435357 0.022930423 0.018227184 0.010219116 0.0010691569
-0.0020042248 -0.013451164 0.015092008 0.0027427878 -0.06063328 -0.006341183 -0.0037454714 -0.08508512
0.07222546 -0.00955105 0.0027413538 -0.014016563 0.0054505975 0.0060952436 -0.0025599494 -0.0023758982
00000000: 877c 0e3d 3f3b 59bc 6e13 4d3d d9a9 ddbc
00000010: a892 8eba dce3 243b 700a 163b 4a87 9dbc
00000020: 8b99 c3bc 384d 44bc aee1 d53c 4b19 20bc
00000030: 48e1 a1bc 36bb c93b c38d 483c 2864 a239
00000040: 1062 973a 1793 e6bc 71d2 1fbc f7e3 fa3c
00000050: 6742 6abd 8013 883a e411 543d 7b5b 0d3d
00000060: d07e 1bbd 34ab fc3a d907 0c3d 0560 ccbb
00000070: cb58 80bd 96f2 5b3c 2525 15bd f1e4 40bc
00000080: 5cfb 5cbd aa31 563d 35e7 053d 6961 0dbc
00000090: 31fe 2abc d3fd ba3c 9dc9 4c3c 7076 6a3c
000000a0: 2e7b 323c ae2e a7bc 80b8 1cbb 4d10 2d3b
000000b0: ad54 663b ca98 893c 3652 a1bc 26c6 d3bc
000000c0: 445b 773b c8cd 06bd 54bc 9c39 d1fc 2abc
000000d0: ac6f 04bd 693b 90bd eb8e 413d 1fcf c63c
000000e0: 853c 28bd 9f61 69bb ce32 7d3b 79d2 6b3d
000000f0: 0f0c 88bc e63a cc3b 5819 5cb8 b070 1d3c
00000100: dc44 54bc 5570 51bc 2d34 99bc 246b 083d
00000110: 7c0e bebb a3a4 7e3b ce15 85bd 0951 13bc
00000120: 404f d6ba 2e08 f63b 5741 19bd 14dd 0abd
00000130: f9cb c73b 28ae 993a 7b40 22bc 3452 37bc
00000140: db28 b5bd 6cfa e7bb 2639 9bbb bdf1 df3c
00000150: 6a28 d83a ea1a 1bbc 6075 a1bd 4733 7d3d
00000160: 913a e4b8 7417 8d3a 78d1 eabb 23ca aabb
00000170: 0f22 89bd dd0c 97bd aae3 4fbd c2f1 aebc
00000180: bea4 68bd d176 473b 4714 8dbc 4f2e 24bc
00000190: e447 f13b 8395 6fbc 6abe dbbc 06c2 6e3b
000001a0: 11c2 713c ac66 4e3c 97d2 febc fc83 f93b
000001b0: 723e bebb 393d 66bc ee76 4d3c 513e 82bc
000001c0: 5b1a d038 a284 b5bc 1e9d 23bd f8a0 da3b
000001d0: fd3d f33b dfef b0bc b6cb b7bc a214 163c
000001e0: 952a cc3b a381 c93c 4086 59bd 4f74 203b
000001f0: a337 553a ea4f 4f3b 521b e2bc 90b0 8ebb
00000200: e6a5 2cbc 11e4 8dbb b505 6cbd 57ec 203b
00000210: b366 b33d 946f 94bb f781 babb c769 93bc
00000220: fd2c af3d 5e7e ae3c ce53 0e3d a774 353c
00000230: 523f aebc 81fa 563d c6a6 123d c18c 77bb
00000240: 3d3f 8dbb a5aa 563a 8b6c afbb 256f 9d3c
00000250: 3ebc 9c3b c969 41bc 9c42 eebb fd9e 9abb
00000260: 9bc9 13bd 2646 90bd ecbc 043d 7119 343d
00000270: 69fa c73c 1410 dcbc aa7b c0ba 3365 c13b
00000280: 626a 1abc c455 08bd 5779 1d3b 0960 593c
00000290: 43d8 97bb 357f 69ba cf68 2dbd 66fe e1bb
000002a0: 2233 6f3d ed17 a8bb 05f7 12bb 3fb5 a43c
000002b0: 0a00 39bb ccee 21bd 0a72 cb3d 460a 2e3c
000002c0: 2cb6 47bc 4995 85bc 4c07 88bd 5840 56bd
000002d0: f3ba a03a d663 b13c 26ba d6bc 3ceb edb9
000002e0: f496 e33a d8cc 68bb 0f8b 953c a0fb 6abc
000002f0: 74b9 42bc fa39 27bd ea94 b5bc bbdf cdbb
00000300: bd47 123c 0954 ecbb ef15 35bc 7d2a 19bb
00000310: a20d 7ebc f065 98bb 8ea3 133c 1783 21bb
00000320: 9ecb 35bd 722c b6bb 38dc cfbc a53f dd3c
00000330: 5b91 53bc 7151 c0bc 1da2 583b 89ef abbc
00000340: 2118 f4ba ce65 fa3b f585 703c 6610 1e3c
00000350: 9d65 62bb d3e1 0c3c 2df6 453b 50f8 c4bc
00000360: df2c 9d3c bcb3 623a 3980 c3bc 7149 a63b
00000370: 6ecc 81bb 85f7 09bc 4cc7 1a3b 5457 863c
00000380: 811f 43bd ccfb 8ebd f58a 25bb 7f4e 5f3b
00000390: aa22 4abd 0cad 973c b124 0e3d 4d42 143c
000003a0: 1e3b 923c 32f5 273c f8ec 663b 5d5b 3bbc
000003b0: 95d8 bb3c 2d51 953c 146e 273c f422 8c3a
000003c0: 5059 03bb 4562 5cbc 7844 773c 58c0 333b
000003d0: 9a5a 78bd b3c9 cfbb 9576 75bb 1b41 aebd
000003e0: f1ea 933d 027c 1cbc 49a8 333b baa5 65bc
000003f0: ed9a b23b 9cba c73b d3c4 27bb f5b4 1bbb

network_body._body_endoder.seq_layers.0.bias f4 [256]
-0.007942479 0.013534309 0.00469113 -0.003200555 0.001580835 0.03728611 -0.012475607 0.039673414
-0.00043263487 0.00043736133 0.053709056 -0.0039541423 -0.03435433 -0.0039295116 -0.0254398 -0.039736453
-0.022430938 -0.011977006 -0.019534009 0.003709895 -0.031919874 -0.04429671 -0.023500081 0.001110851
0.018523077 0.014768844 -0.019175177 -0.047983386 -0.04235198 -0.00052727456 -0.0517994 -0.024877679
-0.029478518 -0.019801 -0.030620597 -0.033748813 0.026522733 -0.024006264 -0.03741822 -0.033602655
-0.019347731 -0.029131165 0.0025637092 -0.03562974 -0.0145187555 -0.0318946 -0.046820447 -0.03197613
0.018621974 -0.014929891 0.005356596 0.029732887 -0.032431737 -0.03427251 -0.002240381 -0.0040772934
-0.01821811 0.002785015 -0.0037842223 -0.008756449 -0.025648627 0.029386168 0.018160228 0.014503228
-0.005746258 -0.022463009 -0.032053232 -0.003729903 0.022643555 -0.040210024 -0.020677634 -0.025919259
-0.06899118 -0.02055307 -0.032241855 -0.008357104 -0.06395593 0.017946547 0.014255552 -0.04218946
-0.048135605 0.030814933 -0.025931088 -0.0067604203 -0.049592983 0.027882466 -0.026610507 -0.010445843
0.015524275 -0.05043523 0.0018484164 -0.022054771 -0.011553632 0.017995857 0.0059092077 -0.019745518
-0.02412945 0.0062969616 0.015015627 -0.0116548715 -0.010717798 -0.0658175 0.011349053 0.0031586771
0.012025908 0.05104392 -0.028194027 -0.002898163 -0.044559717 0.01131785 -0.017128516 -0.028653082
-0.02113887 -0.0062937867 -0.023865651 -0.024091417 -0.040889528 -0.008246324 -0.061436318 -0.050458647
0.011709632 -0.06459682 -0.0069626505 -0.019444467 -0.0023774817 -0.027323881 -0.029440122 -0.011804064
-0.015677258 -0.017210148 0.017911112 -0.011502343 0.0023847248 -0.024737863 -0.015200029 0.028226351
-0.04085973 0.019255018 0.00097394775 0.0012527142 -0.045573283 -0.078622684 -0.055287857 0.004500497
-0.010196141 0.016221954 0.0029934656 0.028700994 0.012914616 -0.025850216 -0.0014324555 -0.016783644
0.013857597 -0.026401715 -0.037155785 -0.025011834 -0.027146805 -0.020213578 -0.007986711 -0.0018380709
-0.009542665 -0.029822534 0.016102081 -0.034111522 0.049265932 0.0033677747 -0.024307061 -0.016475212
0.022908367 0.0052979 0.0044161477 -0.008904102 -0.02847292 -0.014891085 0.016090643 -0.0020363957
-0.015938917 -0.021719823 -0.012436252 0.01922032 -0.0046600895 0.006030957 -0.0069201165 -0.0031503967
0.0025383958 -0.053836703 0.004682672 -0.018673236 -0.007519336 -0.032210447 9.897376e-05 -0.022644281
-0.009303828 -0.041219734 -0.0126327835 -0.036636997 -0.006156617 -0.0120716635 -0.0365145 -0.048145033
-0.013724567 -0.022396754 -0.022261186 -0.018068701 -0.018301608 -0.010325625 0.01110794 0.024820613
0.0024812531 -0.0075374185 -0.020919701 -0.023269804 0.0073612547 -0.004018847 -0.01939583 -0.028536944
0.006014523 -0.026868917 -0.0058404147 -0.04513493 -0.016125593 0.01762608 -0.020790149 -0.044894565
-0.05832188 -0.02559025 -0.019308705 -0.023710534 -0.026067138 0.014942797 0.01090702 -0.027839787
-0.034609515 -0.010969018 -0.04210812 -0.025236124 0.01785369 -0.052139584 -0.026843732 -0.046285115
-0.022316042 -0.022150509 -0.016806355 -0.036467437 -0.031187601 -0.025034303 0.016309272 -0.02676128
-0.04122884 -0.042574957 0.018032314 0.02753418 -0.0152010145 -0.007548244 -0.026417173 -0.0057035317
00000000: 2c21 02bc 02bf 5d3c 0db8 993b 67c0 51bb
00000010: 0534 cf3a 52b9 183d 7d66 4cbc 9780 223d
00000020: 45d3 e2b9 a54d e539 07fe 5b3d c091 81bb
00000030: 20b7 0cbd 22c3 80bb 2167 d0bc b1c2 22bd
00000040: 16c1 b7bc 343b 44bc c905 a0bc b621 733b
00000050: 6abe 02bd 7870 35bd 3e83 c0bc f999 913a
00000060: b5bd 973c 05f9 713c 4315 9dbc 3a8a 44bd
00000070: 4579 2dbd cc38 0aba 9c2b 54bd 46cc cbbc
00000080: ef7c f1bc b535 a2bc 0cd8 fabc 323c 0abd
00000090: 3446 d93c c9a8 c4bc d943 19bd f0a2 09bd
000000a0: 227f 9ebc 7ba4 eebc e703 283b 7ef0 11bd
000000b0: 13e0 6dbc e9a3 02bd ccc6 3fbd 67f9 02bd
000000c0: 1c8d 983c 809c 74bc 6286 af3b 6292 f33c
000000d0: 24d7 04bd 5561 0cbd 5bd3 12bb d19a 85bb
000000e0: 253e 95bc cc84 363b b700 78bb 3677 0fbc
000000f0: 121d d2bc 43bb f03c c2c4 943c f29e 6d3c
00000100: 1b4b bcbb 5804 b8bc 404a 03bd 6371 74bb
00000110: fa7e b93c 44b3 24bd 2464 a9bc a054 d4bc
00000120: 3f4b 8dbd e95e a8bc 0910 04bd 3cec 08bc
00000130: 54fb 82bd a304 933c 1e90 693c dbce 2cbd
00000140: d729 45bd 996f fc3c 6f6d d4bc 8486 ddbb
00000150: 0322 4bbd c569 e43c 47fe d9bc 0b25 2bbc
00000160: 8759 7e3c 2c95 4ebd 9046 f23a 35ac b4bc
00000170: 724b 3dbc 0c6c 933c 07a2 c13b 5ac1 a1bc
00000180: 20ab c5bc be56 ce3b 1b04 763c 13f4 3ebc
00000190: b499 2fbc 53cb 86bd 61f1 393c cf01 4f3b
000001a0: 5008 453c 6e13 513d 29f7 e6bc 1bef 3dbb
000001b0: 4084 36bd 816e 393c 1a51 8cbc deb9 eabc
000001c0: 6c2b adbc 1c3c cebb e681 c3bc 5d5b c5bc
000001d0: c77b 27bd 971b 07bc a6a4 7bbd baad 4ebd
000001e0: c2d9 3f3c 564b 84bd f226 e4bb 014a 9fbc
000001f0: 86cf 1bbb 55d6 dfbc 692c f1bc d565 41bc
00000200: 986d 80bc 4cfc 8cbc 53ba 923c 5374 3cbc
00000210: 0b49 1c3b 0fa7 cabc 8b09 79bc f33a e73c
00000220: 885c 27bd b3bc 9d3c 8750 7f3a 1d32 a43a
00000230: 0dab 3abd ee04 a1bd 8575 62bd e878 933b
00000240: b70d 27bc e7e3 843c 052e 443b 591e eb3c
00000250: d397 533c d5c3 d3bc 3bc1 bbba da7d 89bc
00000260: f90a 633c 6948 d8bc aa30 18bd 9ee5 ccbc
00000270: fa62 debc f296 a5bc b2da 02bc 6deb f0ba
00000280: d758 1cbc 634e f4bc 83e8 833c 86b8 0bbd
00000290: 13cb 493d e2b5 5c3b 9a1f c7bc 06f7 86bc
000002a0: 54aa bb3c 029a ad3b 55b5 903b 83e2 11bc
000002b0: 0b40 e9bc bdf9 73bc 86d0 833c 0d75 05bb
000002c0: 5592 82bc c5ed b1bc 6cc1 4bbc ef73 9d3c
000002d0: aab3 98bb 569f c53b 25c2 e2bb e376 4ebb
000002e0: 375b 263b e083 5cbd 1a71 993b 9df8 98bc
000002f0: c364 f6bb 1aef 03bd 2290 cf38 8080 b9bc
00000300: 156f 18bc 06d6 28bd bcf9 4ebc ad10 16bd
00000310: 72bd c9bb 3ac8 45bc 3a90 15bd ba33 45bd
00000320: 02dd 60bc 6679 b7bc 175d b6bc d004 94bc
00000330: 41ed 95bc cf2c 29bc 14fe 353c 9954 cb3c
00000340: 859c 223b 73fc f6bb cb5f abbc 51a0 bebc
00000350: ae36 f13b 88b0 83bb 01e4 9ebc 4fc6 e9bc
00000360: 7a15 c53b 341c dcbc f360 bfbb 68df 38bd
00000370: d219 84bc 9264 903c 1a50 aabc 5de3 37bd
00000380: ece2 6ebd a5a2 d1bc 4a2d 9ebc 983c c2bc
00000390: c08a d5bc a2d2 743c 5cb3 323c 4410 e4bc
000003a0: b5c2 0dbd 65b7 33bc 9079 2cbd fdbb cebc
000003b0: e741 923c 5190 55bd 63e7 dbbc 7695 3dbd
000003c0: 22d0 b6bc fc74 b5bc 7bad 89bc e15e 15bd
000003d0: 247d ffbc bd14 cdbc 069b 853c 793a dbbc
000003e0: 92df 28bd 1463 2ebd 81b8 933c 5c8f e13c
000003f0: ad0d 79bc 4357 f7bb d468 d8bc b1e4 babb

network_body._body_endoder.seq_layers.0.weight f4 [256, 190]
0.08278151 0.17843656 0.18379653 0.06303746 -0.04926272 -0.065398544 -0.025588488 -0.07333594
0.08561046 -0.016325997 -0.07176794 -0.049176704 -0.0603656 -0.069096036 0.099919416 -0.07661388
0.06608854 0.04202766 -0.014385508 -0.0041424865 0.054002523 0.038677678 -0.07947465 -0.070829004
0.18180497 0.01776675 -0.03915793 0.058126803 0.045747653 0.046000212 0.017215583 0.0053409785
-0.017635185 0.074271314 0.010321596 -0.009079036 0.09423891 0.09924627 -0.10203355 0.08370779
-0.040148664 -0.021734023 0.012403349 0.106510654 0.08199137 0.113177836 0.08352897 0.05169552
0.20929523 -0.09444977 0.111087605 0.0012160114 0.075866885 -0.14711013 -0.059866432 -0.001256359
-0.08096143 0.007730555 0.09823182 0.085102916 -0.09115878 0.16931647 -0.06400003 -0.05877839
0.055350512 -0.08103933 0.077623464 0.062493782 0.08465363 0.10625729 -0.05551789 -0.014456072
0.09704159 -0.054528326 -0.1397649 0.029895777 -0.059355773 0.0032638845 0.01866042 0.13408214
0.045366324 -0.00563481 0.021912467 0.077173665 -0.07354077 -0.021034785 0.09064237 0.06250113
0.014260308 -0.19087818 0.0060762316 0.014842626 0.12818238 -0.084327646 0.14143123 0.043422982
0.07272801 -0.00171445 -0.15155849 -0.15383713 -0.09995154 -0.08537478 -0.07071345 0.035856858
-0.031003898 0.09457303 0.0060051326 -0.05142539 0.07231138 0.02976634 -0.089042075 0.010177906
-0.094811596 -0.047090143 0.13808173 -0.10220717 -0.09169919 0.11841059 -0.03480932 -0.09432451
-0.027113497 -0.036095046 -0.077840045 -0.06821182 0.082064725 -0.079184994 0.11768635 -0.043403227
0.071741045 0.00503495 -0.052195635 -0.06576995 -0.007884051 0.019902207 -0.024991093 -0.09326679
0.07418264 -0.07891144 -0.004757294 0.010920822 0.071413524 0.08940098 0.024790224 0.0707268
0.118573554 -0.043859594 0.07587868 0.049981184 -0.016498886 -0.1048091 -0.08509898 -0.058742493
0.24754865 -0.10557867 0.012168751 0.0888397 -0.111367635 0.15874945 0.017059883 -0.18103546
-0.029258842 0.16151479 0.16440378 0.07173815 -0.066424854 -0.041513074 -0.016546749 0.041771937
-0.03983065 0.08379301 0.024865868 -0.09278815 0.25676256 0.08793879 -0.026934275 -0.031531528
-0.06790146 0.056932162 -0.09990214 0.06945241 0.021866694 -0.022638291 0.015359671 0.08533767
-0.00045809755 0.00444569 0.06904836 0.12510982 -0.06238105 0.27431726 0.075455286 -0.29281694
0.10616949 0.0098261265 0.21781442 -0.0980258 -0.033993207 0.16064073 0.024805432 0.16903979
0.041798715 0.17922838 0.014807983 0.0132194245 -0.0077032656 -0.029516622 0.050519787 0.0054749134
-0.06846444 -0.04738836 0.004756782 -0.25252455 -0.04282259 0.017521283 -0.11084405 -0.0807828
-0.08907373 0.060433246 -0.016586654 0.09211803 0.060968712 -0.08552011 -0.0047329254 -0.023256654
0.16427854 0.06702904 0.15347701 0.15618357 0.14141543 -0.0026705684 -0.128152 -0.08156534
-0.07724967 -0.0726918 0.033945672 -0.023913657 0.14022544 -0.108187154 0.05823277 0.07793679
0.04324408 0.07352226 -0.019184558 0.116294034 -0.01661638 0.021387478 -0.11975993 -0.026924511
0.11307362 -0.01514531 -0.018447638 -0.05230412 0.104619436 -0.052519176 -0.012532491 -0.08852703
00000000: 5a89 a93d 13b8 363e 2835 3c3e c919 813d
00000010: b5c7 49bd acef 85bd f39e d1bc 2731 96bd
00000020: 8954 af3d 19be 85bc 12fb 92bd 836d 49bd
00000030: eb41 77bd 3982 8dbd 8da2 cc3d bde7 9cbd
00000040: 6e59 873d 3225 2c3d 32b1 6bbc b2bd 87bb
00000050: c031 5d3d 7c6c 1e3d 9bc3 a2bd cc0e 91bd
00000060: 152b 3a3e 938b 913c 1164 20bd 5f16 6e3d
00000070: e461 3b3d b86a 3c3d b207 8d3c 6003 af3b
00000080: aa77 90bc 8f1b 983d e91b 293c 3dc0 14bc
00000090: 5400 c13d a141 cb3d f7f6 d0bd fd6e ab3d
000000a0: ed72 24bd 8d0b b2bc 6b37 4b3c 4222 da3d
000000b0: 17eb a73d c8c9 e73d 3d11 ab3d aebe 533d
000000c0: 7d51 563e e26e c1bd e681 e33d 9262 9f3a
000000d0: 1960 9b3d 0aa4 16be 8136 75bd 6aac a4ba
000000e0: 1bcf a5bd 9850 fd3b c42d c93d 704a ae3d
000000f0: 74b1 babd 4c61 2d3e 7312 83bd 9cc1 70bd
00000100: 38b7 623d f3f7 a5bd 0df9 9e3d 7bf9 7f3d
00000110: e25e ad3d 6c9d d93d ba66 63bd 29d9 6cbc
00000120: bebd c63d 1859 5fbd 881e 0fbe fde7 f43c
00000130: 0a1f 73bd e5e6 553b bddd 983c d44c 093e
00000140: 0ad2 393d 36a4 b8bb c681 b33c 3a0d 9e3d
00000150: 8b9c 96bd 2451 acbc b5a2 b93d 9800 803d
00000160: 11a4 693c 9275 43be 201b c73b 7c2e 733c
00000170: 3e42 033e f9b3 acbd 59d3 103e 4cdc 313d
00000180: 6cf2 943d 65b7 e0ba 2632 1bbe 7b87 1dbe
00000190: 65b3 ccbd f9d8 aebd 37d2 90bd a4de 123d
000001a0: e3fb fdbc 81af c13d b4c6 c43b 6ea3 52bd
000001b0: fd17 943d 8ad8 f33c b15b b6bd 3bc1 263c
000001c0: 952c c2bd 98e1 40bd 4c65 0d3e fe51 d1bd
000001d0: c9cc bbbd 4081 f23d 3894 0ebd 352d c1bd
000001e0: 201d debc 66d8 13bd 9a6a 9fbd a4b2 8bbd
000001f0: 8d11 a83d be2b a2bd 8b05 f13d 95c7 31bd
00000200: f8ec 923d 39fc a43b 17cb 55bd 65b2 86bd
00000210: 1b2c 01bc f409 a33c 1fba ccbc a902 bfbd
00000220: 11ed 973d 529c a1bd 13e3 9bbb 3fed 323c
00000230: 4141 923d dc17 b73d de14 cb3c 36d9 903d
00000240: b1d6 f23d 1ea6 33bd 4866 9b3d 12b9 4c3d
00000250: ac28 87bc 27a6 d6bd 6048 aebd f89b 70bd
00000260: 657d 7d3e a139 d8bd 715f 473c 97f1 b53d
00000270: b714 e4bd 378f 223e 2bc1 8b3c 5c61 39be
00000280: 3db0 efbc 2264 253e 7759 283e 74eb 923d
00000290: c109 88bd 9d09 2abd 0c8d 87bc 0d19 2b3d
000002a0: 7725 23bd ab9b ab3d 81b3 cb3c b707 bebd
000002b0: 6276 833e 4119 b43d 45a5 dcbc 3427 01bd
000002c0: ec0f 8bbd b331 693d 7e99 ccbd 113d 8e3d
000002d0: c821 b33c f073 b9bc 21a7 7b3c 84c5 ae3d
000002e0: d02c f0b9 27ad 913b 3a69 8d3d ca1c 003e
000002f0: 4683 7fbd 5073 8c3e 4d88 9a3d 1aec 95be
00000300: 646f d93d c3fd 203c be0a 5f3e c0c1 c8bd
00000310: 763c 0bbd 017f 243e c334 cb3c c418 2d3e
00000320: 2135 2b3d a587 373e 2f9d 723c 4996 583c
00000330: ad6b fcbb d8cc f1bc d6ed 4e3d e766 b33b
00000340: 1637 8cbd 4c1a 42bd c8de 9b3b e64a 81be
00000350: bd66 2fbd cb88 8f3c 3502 e3bd 7471 a5bd
00000360: 4a6c b6bd da88 773d bce0 87bc 61a8 bc3d
00000370: 54ba 793d 2b25 afbd a816 9bbb bd84 bebc
00000380: a238 283e 8546 893d 1429 1d3e 96ee 1f3e
00000390: 35cf 103e b404 2fbb 473a 03be bb0b a7bd
000003a0: 1335 9ebd 70df 94bd 9e0a 0b3d 93e6 c3bc
000003b0: 4297 0f3e 3a91 ddbd 7c85 6e3d 539d 9f3d
000003c0: b420 313d d792 963d ef28 9dbc 912b ee3d
000003d0: 131f 88bc cb34 af3c b244 f5bd cb90 dcbc
000003e0: 2493 e73d 0924 78bc 801f 97bc d83c 56bd
000003f0: b742 d63d 591e 57bd 1455 4dbc a94d b5bd

network_body._body_endoder.seq_layers.2.bias f4 [256]
-0.039495092 -0.014988123 -0.021695781 -0.009814678 -0.031330407 -0.018267812 -0.026951218 -0.02263759
-0.01895025 -0.049167424 -0.023402853 -0.02750726 0.010422939 -0.0118200965 -0.03656892 -0.020615561
-0.05406276 -0.02538747 -0.042799756 -0.01694657 -0.0287535 -0.024367463 -0.010407205 -0.0033917413
-0.03239266 -0.022494087 -0.013329374 -0.039979916 -0.027546661 -0.027192144 -0.034783583 -0.035797253
-0.032121874 -0.01791771 -0.018023714 -0.008929368 -0.028916514 -0.024234792 -0.028114606 -0.017844945
-0.0018583597 -0.033394225 0.0012044334 -0.0072066756 -0.024162145 -0.011794411 -0.015745265 -0.009271907
-0.017681258 -0.050869826 -0.023166714 -0.018866614 -0.024937734 -0.011819928 -0.012088384 -0.030317878
-0.02625771 -0.042534553 -0.008063078 -0.0014436116 -0.0313025 -0.028163536 0.004535129 -0.037025444
-0.036403276 -0.016689586 -0.02878763 -0.012843247 -0.008656704 0.006492915 -0.068854034 -0.0018429355
-0.03695157 -0.026397794 -0.016079387 -0.006961702 -0.034918305 -0.03205244 -0.040307503 -0.010019458
-0.03376632 -0.014431213 -0.017726269 -0.013091097 -0.027692467 -0.011593866 -0.02877484 -0.024946768
-0.031568546 -0.010452615 -0.008874934 0.005537487 -0.02839733 -0.00919841 -0.014574408 -0.03152949
-0.02484984 -0.02066551 0.030112777 0.024675345 -0.023132289 -0.031767204 -0.024882706 -0.015113379
-0.004704161 -0.028374823 -0.03361986 -0.030690059 -0.025889896 -0.019221162 0.002061664 -0.032600928
-0.019076623 -0.02516717 -0.031009952 -0.034026712 -0.017871447 -0.018764706 -0.038529143 -0.025932154
-0.024697213 0.0037841096 -0.02122651 -0.023725267 -0.026501246 -0.017202824 -0.016949622 -0.026052808
-0.019015782 -0.015201147 -0.009611612 -0.01617083 -0.007042249 -0.018299438 -0.03893992 -0.024404489
-0.016811369 -0.017411036 -0.019702675 -0.026929012 -0.01637867 -0.0035563635 -0.0129897315 -0.0020171113
-0.013004629 -0.008523922 -0.004349759 -0.054707326 -0.034011673 -0.016805604 -0.029100457 -0.034846973
-0.022547022 0.0156171685 -0.043642566 -0.025424268 -0.03557405 0.0011810914 -0.036409564 -0.01968999
-0.032383956 -0.04665051 -0.017405946 -0.017833306 -0.010478593 -0.038329512 -0.015533574 -0.019847866
-0.035207134 -0.030480824 -0.008204522 -0.0075785955 -0.025488878 -0.007519163 -0.0086716395 0.013550477
-0.052681226 -0.025758414 -0.029763877 -0.030083735 -0.0017446392 -0.030610122 -0.014163668 -0.015963212
-0.05189322 -0.025477232 -0.014760261 -0.02181633 -0.023948405 -0.020061739 -0.0045229294 -0.045173984
0.002546535 -0.027738128 -0.0065089813 -0.006995928 -0.037978746 -0.014713184 -9.9318044e-05 -0.019852808
-0.019952217 -0.02794626 0.0030703885 -0.023711432 -0.053881373 0.0023934802 -0.020476075 -0.012112557
-0.04623491 -0.021451512 -0.042075407 -0.007999402 -0.029204825 -0.054608364 -0.005152016 -0.032509126
-0.03590239 -0.021470854 -0.026572023 -0.040152587 -0.003933099 -0.024700765 -0.012938202 -0.026180873
-0.012074189 -0.022420509 0.0016850758 -0.039598 0.0047594844 -0.03338419 -0.012849637 -0.0126468325
-0.027283054 -0.037799533 -0.018395688 -0.0080480045 -0.020705895 -0.022115035 -0.022754649 -0.051519196
0.004325875 -0.021751676 -0.018517867 -0.0083036665 -0.008019848 -0.024507187 -0.03472513 -0.0073694773
-0.010659459 -0.026510485 -0.004048522 -0.020138232 -0.020546889 -0.0026046543 -0.017958054 -0.021500573
00000000: 9bc5 21bd bf90 75bc 5abb b1bc becd 20bc
00000010: 5054 00bd 61a6 95bc cdc8 dcbc 7872 b9bc
00000020: 8e3d 9bbc c863 49bd 57b7 bfbc e856 e1bc
00000030: fac4 2a3c 14a9 41bc 4bc9 15bd f7e1 a8bc
00000040: ea70 5dbd 62f9 cfbc cc4e 2fbd 88d3 8abc
00000050: 768c ebbc 469e c7bc fb82 2abc fa47 5ebb
00000060: 2aae 04bd 8545 b8bc 7263 5abc fbc1 23bd
00000070: 89a9 e1bc 0fc2 debc 3b79 0ebd 24a0 12bd
00000080: 3a92 03bd 29c8 92bc 78a6 93bc 7c4c 12bc
00000090: 53e2 ecbc 0b88 c6bc 9a50 e6bc 902f 92bc
000000a0: 3494 f3ba 62c8 08bd 14de 9d3a fa25 ecbb
000000b0: b1ef c5bc 583d 41bc 37fc 80bc 32e9 17bc
000000c0: 49d8 90bc e15c 50bd 1fc8 bdbc 288e 9abc
000000d0: 384a ccbc 5fa8 41bc 5b0e 46bc 335d f8bc
000000e0: 691a d7bc b638 2ebd 001b 04bc 9137 bdba
000000f0: 0d37 00bd 37b7 e6bc 6b9b 943b fea7 17bd
00000100: 9a1b 15bd 99b8 88bc 09d4 ebbc 7b6c 52bc
00000110: d9d4 0dbc 85c2 d43b 5803 8dbd a78e f1ba
00000120: 885a 17bd 3040 d8bc ebb8 83bc fd1e e4bb
00000130: 7f06 0fbd 6b49 03bd 7b19 25bd a728 24bc
00000140: 8e4e 0abd e570 6cbc ae36 91bc 0a7c 56bc
00000150: 50db e2bc 33f4 3dbc 37b9 ebbc 2a5d ccbc
00000160: 054e 01bd 7241 2bbc 2c68 11bc cf73 b53b
00000170: 84a1 e8bc eeb4 16bc 7fc9 6ebc 1125 01bd
00000180: e491 cbbc b74a a9bc 12af f63c f323 ca3c
00000190: ed7f bdbc 541e 02bd d1d6 cbbc 1b9e 77bc
000001a0: 5d25 9abb 5172 e8bc fab4 09bd b869 fbbc
000001b0: 0c17 d4bc b375 9dbc fb1c 073b 8d88 05bd
000001c0: 9446 9cbc 622b cebc 9508 febc 985f 0bbd
000001d0: 2467 92bc 71b8 99bc bcd0 1dbd ab6f d4bc
000001e0: cf51 cabc d3fe 773b 38e3 adbc 7e5b c2bc
000001f0: 2419 d9bc f0ec 8cbc efd9 8abc b36c d5bc
00000200: fcc6 9bbc 3b0e 79bc 067a 1dbc b078 84bc
00000210: abc2 e6bb b4e8 95bc 777f 1fbd eceb c7bc
00000220: ffb7 89bc 97a1 8ebc 8167 a1bc 3b9a dcbc
00000230: 902c 86bc e111 69bb e2d2 54bc 8331 04bb
00000240: 5e11 55bc eca7 0bbc 6c88 8ebb ca14 60bd
00000250: d34f 0bbd e8ab 89bc 1564 eebc b3bb 0ebd
00000260: 88b4 b8bc 27df 7f3c 8cc2 32bd 8e46 d0bc
00000270: 18b6 11bd dace 9a3a 3222 15bd e74c a1bc
00000280: 0aa5 04bd 9b14 3fbd ea96 8ebc 2717 92bc
00000290: 68ae 2bbc 68ff 1cbd 8880 7ebc fe97 a2bc
000002a0: 5b35 10bd ecb2 f9bc 426c 06bc de55 f8bb
000002b0: 0dce d0bc 5063 f6bb 7e13 0ebc d202 5e3c
000002c0: 45c8 57bd 4f03 d3bc 60d3 f3bc 2a72 f6bc
000002d0: 61ac e4ba 14c2 fabc bb0e 68bc 48c5 82bc
000002e0: fc8d 54bd a1b5 d0bc 06d5 71bc 29b8 b2bc
000002f0: 722f c4bc 8458 a4bc 1535 94bb 5b08 39bd
00000300: c5e3 263b 123b e3bc 4b49 d5bb 193e e5bb
00000310: 9a8f 1bbd 910f 71bc f848 d0b8 5ba2 a2bc
00000320: d572 a3bc 8eef e4bc 9238 493b 7a3e c2bc
00000330: b7b2 5cbd efdb 1c3b 71bd a7bc bf73 46bc
00000340: d160 3dbd 15bb afbc 4357 2cbd ec0f 03bc
00000350: f53e efbc 05ad 5fbd 3ed2 a8bb 4a28 05bd
00000360: 620e 13bd a5e3 afbc 92ad d9bc 0a77 24bd
00000370: 3ae1 80bb 4259 cabc c1fa 53bc 4579 d6bc
00000380: d2d2 45bc 37ab b7bc c3dd dc3a 8331 22bd
00000390: 73f5 9b3b dcbd 08bd 4987 52bc a934 4fbc
000003a0: b680 dfbc afd3 1abd 8eb2 96bc c7db 03bc
000003b0: 699f a9bc 972a b5bc f567 babc cb05 53bd
000003c0: 12c0 8d3b 9230 b2bc c8b2 97bc 1a0c 08bc
000003d0: ae65 03bc 4cc3 c8bc f03b 0ebd a87b f1bb
000003e0: 03a5 2ebc 842c d9bc 77a9 84bb eff8 a4bc
000003f0: f351 a8bc d9b2 2abb c51c 93bc f821 b0bc

network_body._body_endoder.seq_layers.2.weight f4 [256, 256]
0.007995455 -0.106462315 0.060443792 -0.10186612 0.07057735 0.056277372 0.07026844 -0.13568315
0.0639688 -0.09770266 -0.11538024 -0.04900079 0.15195405 0.07732062 0.00084855396 -0.019739686
-0.09621678 -0.06676415 -0.09032398 -0.074652985 -0.10852773 -0.011751106 -0.07105266 0.061174672
-0.10165763 -0.17486307 7.028464e-05 -0.013885347 -0.16602759 -0.04555413 -0.113371015 0.046787508
-0.14551875 -0.0023732323 0.06531177 0.026479391 0.013684614 -0.033428915 0.055609997 0.06382366
-0.077609725 0.14345731 -0.12440775 -0.018804658 -0.13162713 -0.0400449 0.03974176 -0.056898985
-0.13760258 -0.00026101424 -0.067728 0.044893313 -0.12783396 -0.10845811 -0.021366488 0.02638802
0.04503585 -0.11248476 0.030377038 0.09270486 0.027990907 -0.059840716 -0.21787643 -0.063378386
0.025990808 0.012896663 -0.07460925 0.0633037 -0.10965793 0.034430217 0.004695613 0.04861904
0.07993611 0.024942819 -0.16742004 0.025097834 0.1658526 0.025959447 -0.17465085 -0.06550348
-0.019548224 -0.21613024 -0.19159743 -0.04192092 -0.01885887 0.13562052 0.03774016 -0.035757076
-0.17796254 0.05459665 -0.049287505 -0.11815581 -0.11236074 -0.04641845 -0.0024810503 -0.15324652
0.038659096 -0.06056984 -0.024913833 -0.112100996 -0.00087573077 -0.004345455 0.006795697 -0.03894853
0.022261629 0.10934676 0.15914787 -0.115229845 -0.016491875 -0.03595144 0.002083765 -0.0058282926
-0.052937005 -0.009011328 -1.3570583e-05 -0.16797182 -0.16505171 0.011306315 0.097655326 0.0098170005
0.036995135 -0.022295719 0.0001402178 -0.010936076 -0.14975037 -0.03063896 -0.023279542 -0.09814479
0.13396041 -0.11632113 0.10347489 -0.080445714 -0.113221586 0.021721354 -0.0134427985 0.048294567
0.10455821 -0.014403632 0.05731688 -0.014597064 0.16873461 -0.09495855 -0.03661218 -0.14480293
0.13758695 0.05287723 -0.065959364 0.015954621 -0.044687644 0.008670856 -0.04366254 -0.038951747
0.056250975 0.1209555 0.06996331 -0.0671604 -0.01598983 -0.022273548 0.1776995 0.11819027
0.03447748 0.07885476 0.035504542 0.02692486 0.020657748 -0.05877271 -0.038490884 0.009543975
-0.008711164 -0.047375944 0.008046502 0.06735996 0.04850586 0.115933724 0.1357323 -0.0076798336
0.011486562 -0.009098127 0.037162475 0.032460846 -0.07208399 -0.004948804 0.029086305 0.030024322
0.012626932 0.04396307 0.07984856 0.011467712 -0.0046873377 0.008548875 -0.035345983 0.051767685
0.021825489 -0.036380097 0.04940494 0.04179712 0.06601901 -0.026099507 -0.046059657 -0.05014235
-0.060906995 -0.040311567 0.0174227 -0.04899684 -0.086315855 -0.18197322 -0.06661077 -0.021710984
-0.08853659 -0.02922549 -0.051461432 -0.0062444466 -0.10966435 0.14465457 0.09560217 0.022384645
0.09505245 -0.06646608 0.08478871 0.034753323 -0.08165131 0.012176582 -0.069993444 -0.028938819
0.0542074 0.05657373 -0.10248459 -0.058980323 -0.083915435 0.052585386 -0.0156398 -0.10160092
-0.010323474 0.10672947 -0.098260075 -0.03418808 -0.12545364 0.017532708 0.0020115653 -0.004041475
0.06519055 0.021824159 -0.017161269 -0.080620065 -0.021775862 0.09753536 -0.09446514 0.044735238
-0.051514097 -0.14129095 0.05348384 -0.05465445 -0.008919797 0.041884862 0.049979232 0.0064044255
00000000: 5eff 023c ea08 dabd e993 773d 2f9f d0bd
00000010: dc8a 903d 1a83 663d e6e8 8f3d 86f0 0abe
00000020: 1302 833d 5518 c8bd 7a4c ecbd 0db5 48bd
00000030: d899 1b3e 465a 9e3d 7e71 5e3a 1fb5 a1bc
00000040: 4e0d c5bd a5bb 88bd c7fb b8bd aae3 98bd
00000050: c943 debd b687 40bc 0f84 91bd 4b92 7a3d
00000060: e031 d0bd 4e0f 33be c765 9338 5e7f 63bc
00000070: 2303 2abe f896 3abd 102f e8bd 42a4 3f3d
00000080: de02 15be 3b88 1bbb 2dc2 853d 4feb d83c
00000090: 6e35 603c c2ec 08bd 4fc7 633d fbb5 823d
000000a0: d9f1 9ebd 79e6 123e 7ec9 febd 3a0c 9abc
000000b0: 43c9 06be 1f06 24bd 41c8 223d e90e 69bd
000000c0: b1e7 0cbe bdd8 88b9 fab4 8abd 0de2 373d
000000d0: e8e6 02be 491f debd c608 afbc b02b d83c
000000e0: 8377 383d 695e e6bd 44d9 f83c 0cdc bd3d
000000f0: 304d e53c 8a1b 75bd 001b 5fbe 87cc 81bd
00000100: adea d43c 864c 533c bccc 98bd 5fa5 813d
00000110: 5694 e0bd b306 0d3d a8dd 993b c224 473d
00000120: 8bb5 a33d e254 cc3c 2970 2bbe f999 cd3c
00000130: 44d5 293e e8a8 d43c acd7 32be b026 86bd
00000140: 9923 a0bc 3f51 5dbe 1e32 44be 45b5 2bbd
00000150: eb7d 9abc 1be0 0a3e 6d95 1a3d 0376 12bd
00000160: d03b 36be bda0 5f3d b2e1 49bd acfb f1bd
00000170: 631d e6bd 4621 3ebd 1e99 22bb a8ec 1cbe
00000180: 0059 1e3d 1518 78bd 1818 ccbc 3595 e5bd
00000190: 4c91 65ba 5264 8ebb 70ae de3b 7e88 1fbd
000001a0: 055e b63c 32f1 df3d a9f7 223e a0fd ebbd
000001b0: f819 87bc d141 13bd c78f 083b 43fb bebb
000001c0: 79d4 58bd 40a4 13bc 36ad 63b7 ce00 2cbe
000001d0: 5103 29be 1f3e 393c 84ff c73d 7cd7 203c
000001e0: 3688 173d 83a5 b6bc 6e07 1339 3a2d 33bc
000001f0: 2958 19be 8efe fabc bdb4 bebc 2300 c9bd
00000200: eb2c 093e c639 eebd a5ea d33d b9c0 a4bd
00000210: b8e0 e7bd fbf0 b13c 2f3f 5cbc 86d0 453d
00000220: 9d22 d63d 36fd 6bbc 1bc5 6a3d 8628 6fbc
00000230: c4c8 2c3e a179 c2bd a7f6 15bd 3847 14be
00000240: 98e3 0c3e cb95 583d b415 87bd 44b3 823c
00000250: 640a 37bd 3510 0e3c 7ed7 32bd de8b 1fbd
00000260: 6c67 663d 84b7 f73d ed48 8f3d 648b 89bd
00000270: 1bfd 82bc 0477 b6bc dcf6 353e be0d f23d
00000280: 4238 0d3d 9b7e a13d 366d 113d 8691 dc3c
00000290: 703a a93c a7bb 70bd 9ea8 1dbd 555e 1c3c
000002a0: 45b9 0ebc 470d 42bd 7ad5 033c 05f4 893d
000002b0: 15ae 463d a96e ed3d 68fd 0a3e 1da7 fbbb
000002c0: 2232 3c3c 4f10 15bc ae37 183d aaf5 043d
000002d0: c5a0 93bd 9429 a2bb 6746 ee3c 91f5 f53c
000002e0: 31e1 4e3c 9f12 343d a487 a33d 12e3 3b3c
000002f0: 3d98 99bb 9510 0c3c f3c6 10bd 5a0a 543d
00000300: 5ecb b23c 4c03 15bd d65c 4a3d 7533 2b3d
00000310: fa34 873d a2ce d5bc 0da9 3cbd 1162 4dbd
00000320: 9d79 79bd be1d 25bd 0dba 8e3c e9b0 48bd
00000330: 5ec6 b0bd 3057 3abe 3a6b 88bd 3cdb b1bc
00000340: ac52 b5bd 4b6a efbc 39c9 52bd 379e ccbb
00000350: b497 e0bd 5420 143e 12cb c33d 0160 b73c
00000360: dcaa c23d 5e1f 88bd b4a5 ad3d 8059 0e3d
00000370: cd38 a7bd 4980 473c b958 8fbd 1a11 edbc
00000380: 9408 5e3d dbb9 673d 71e3 d1bd 5a95 71bd
00000390: dbdb abbd c663 573d 0a1f 80bc 2514 d0bd
000003a0: ca23 29bc fb94 da3d 943c c9bd cd08 0cbd
000003b0: eb76 00be c1a0 8f3c 77d4 033b 596e 84bb
000003c0: a082 853d 94c8 b23c ca95 8cbc 221c a5bd
000003d0: 4b63 b2bc 9ec0 c73d f076 c1bd 4c3c 373d
000003e0: 7200 53bd 93ae 10be df11 5b3d 58dd 5fbd
000003f0: 5724 12bc 768f 2b3d 06b7 4c3d 37dc d13b

network_body._body_endoder.seq_layers.4.bias f4 [256]
0.009328228 -0.03442698 -0.007643704 -0.04121974 0.0002969919 -0.021223864 -0.05110945 -0.018658921
-0.0444979 -0.029393805 -0.009553377 -0.033592604 0.0011849984 -0.01186356 -0.021797378 -0.01922088
-0.03456835 -0.03192534 -0.035435572 0.0021719541 -0.021318948 0.00057064655 0.008755061 -0.00091968273
-0.032829627 -0.0406121 -0.005717831 -0.020855807 -0.018653896 -0.020427236 -0.017139547 -0.032428708
-0.021074083 0.011122723 -0.008077541 -0.046988875 -0.0018424971 -0.029530035 -0.009769823 -0.017365087
-0.01215177 -0.018403845 -0.019483957 -0.033821266 -0.022865538 -0.036642317 -0.037336294 -0.04191424
-0.05056547 -0.0020797022 -0.023966204 -0.02865623 -0.025988214 -0.008829664 0.014924743 -0.0063660434
-0.012733131 -0.035567626 -0.015345198 0.008297174 -0.008511413 -0.02743347 -0.014879048 -0.017987331
-0.046430778 -0.019113708 -0.0029686587 0.0067189927 -0.051468432 -0.0182813 -0.022638103 -0.047545165
-0.032179464 -0.037730385 -0.039660368 -0.0031253998 -0.014012886 -0.04431678 -0.036268212 -0.0015338021
-0.0152912 -0.032838225 -0.02281112 -0.01759302 -0.025644835 -0.03957789 -0.006852592 0.024098849
-0.017645754 -0.049306795 -0.037263207 -0.05363974 -0.026052987 -0.02603277 -0.018642386 -0.034007885
-0.02696288 -0.02991377 -0.022090621 -0.028121786 -0.026673462 -0.054979555 -0.026983958 -0.025048465
-0.0016998999 -0.035920486 -0.036034863 -0.017284138 -0.013475687 -0.016754758 -0.009836707 -0.032039326
-0.02515679 -0.015853602 -0.028157441 -0.017916195 -0.016145613 -0.003799734 -0.047752954 -0.012842227
-0.031951804 -0.015628854 -0.035193022 -0.024915949 -0.047846407 -0.0036708794 -0.032393243 -0.03408425
-0.014493559 -0.010133234 -0.011532394 -0.054902177 0.022764988 -0.014945703 -0.034826104 -0.04479456
0.020860996 -0.012590693 -0.005537018 -0.053152334 -0.023247056 0.0042100754 -0.0045345747 -0.029948117
-0.0381112 -0.0073522083 -0.026276644 -0.0033512746 -0.01756172 -0.03167604 -0.025771672 0.004182437
-0.0043896297 -0.02282142 0.0026920005 0.0032151414 -0.004565681 -0.02119882 -0.026330132 -0.018230315
-0.026338905 -0.023594473 -0.011459377 -0.033178926 -0.047886737 0.00065554766 0.0015533089 -0.04344704
0.005308075 -0.020322276 -0.023196198 0.00032203537 -0.030561201 -0.024804663 -0.0033068478 -0.01212292
-0.028881611 -0.025192467 -0.019476103 -0.03655368 -0.009933965 -0.014787686 -0.033247203 -0.038639408
-0.05054009 -0.034900986 -0.0016750979 -0.017349381 -0.033256162 -0.028935967 -0.017655447 -0.029940411
-0.03037475 -0.003168282 -0.02646934 -0.009430644 -0.031125762 -0.029974187 -0.014802048 -0.028107395
-0.034766264 0.002503068 -0.037346456 -0.0011726159 -0.03883197 -0.007217626 -0.036146775 -0.029376894
-0.039393086 -0.00041639365 -0.020507049 -0.011833308 -0.009389014 -0.025813473 -0.027370503 0.004786892
-0.00065050594 -0.022338599 -0.018910531 -0.017852431 -0.03360392 -0.040849753 -0.030502941 0.007412971
-0.013482354 -0.007076786 -0.023178501 -0.032340534 -0.008891031 -0.002302192 -0.016594438 -0.022160562
-0.013956113 -0.016861381 -0.010205997 -0.017335875 -0.01806368 -0.007936623 -0.021865718 -0.03860628
-0.021628164 -0.021001773 -0.04705615 -0.040439848 -0.033182185 -0.03997124 -0.0076637957 -0.01959331
0.008828575 -0.0356606 -0.023037007 -0.005836762 -0.0070356377 -0.015891192 -0.033856016 -0.018919954
00000000: 6dd5 183c 4e03 0dbd 0978 fabb 08d6 28bd
00000010: 94b5 9b39 abdd adbc 2558 51bd 98da 98bc
00000020: 6e43 36bd 47cb f0bc c485 1cbc 6698 09bd
00000030: f351 9b3a 615f 42bc 6a90 b2bc 1b75 9dbc
00000040: 8b97 0dbd 25c4 02bd e424 11bd 5857 0e3b
00000050: 13a5 aebc 7197 153a 6371 0f3c dd16 71ba
00000060: 5c78 06bd e058 26bd a55c bbbb ccd9 aabc
00000070: 0ed0 98bc 0557 a7bc 3c68 8cbc f7d3 04bd
00000080: 8ea3 acbc 153c 363c aa57 04bc 6877 40bd
00000090: f27f f1ba f9e8 f1bc 9c11 20bc 3a41 8ebc
000000a0: 3818 47bc a9c3 96bc d29c 9fbc 2b88 0abd
000000b0: 8250 bbbc 4116 16bd f1ed 18bd 44ae 2bbd
000000c0: bd1d 4fbd 9d4b 08bb c654 c4bc 78c0 eabc
000000d0: 3ce5 d4bc 4caa 10bc e986 743c 3e9a d0bb
000000e0: 9f9e 50bc 5caf 11bd 6d6a 7bbc dff0 073c
000000f0: 7473 0bbc 28bc e0bc 40c7 73bc 2b5a 93bc
00000100: 332e 3ebd 5a94 9cbc d48d 42bb ff2a dc3b
00000110: 90d0 52bd aac2 95bc 8b73 b9bc b8be 42bd
00000120: 9dce 03bd 2d8b 1abd e972 22bd 82d3 4cbb
00000130: 4e96 65bc 8385 35bd fa8d 14bd dc09 c9ba
00000140: f187 7abc 6081 06bd 63de babc 3d1f 90bc
00000150: 1e15 d2bc 6d1c 22bd b58b e0bb f36a c53c
00000160: d48d 90bc ecf5 49bd 4ea1 18bd 58b5 5bbd
00000170: 136d d5bc ad42 d5bc ebb7 98bc da4b 0bbd
00000180: 42e1 dcbc b90d f5bc 64f7 b4bc a95f e6bc
00000190: 4e82 dabc 3e32 61bd 760d ddbc 7032 cdbc
000001a0: 2dcf deba 5c21 13bd 4b99 13bd 7797 8dbc
000001b0: 21c9 5cbc 4641 89bc 242a 21bc ab3b 03bd
000001c0: 9d15 cebc 6adf 81bc 6faa e6bc fcc4 92bc
000001d0: ce43 84bc f504 79bb 9a98 43bd 3468 52bc
000001e0: e5df 02bd 1508 80bc 8f26 10bd 881c ccbc
000001f0: 98fa 43bd 2393 70bb c7ae 04bd ed9b 0bbd
00000200: 6476 6dbc dd05 26bc 5ef2 3cbc 1be1 60bd
00000210: a47d ba3c d2de 74bc d1a5 0ebd 807a 37bd
00000220: aee4 aa3c 3249 4ebc e06f b5bb 43b6 59bd
00000230: 9c70 bebc acf4 893b c596 94bb c155 f5bc
00000240: 7d1a 1cbd cbea f0bb 1e42 d7bc 0fa1 5bbb
00000250: 99dd 8fbc bcbe 01bd 1d1f d3bc d30c 893b
00000260: e2d6 8fbb fdf3 babc 466c 303b 1fb5 523b
00000270: b59b 95bb 26a9 adbc 4ab2 d7bc be57 95bc
00000280: b0c4 d7bc 3249 c1bc 1cc0 3bbc a0e6 07bd
00000290: e224 44bd 0fd9 2b3a 6698 cb3a 86f5 31bd
000002a0: 5cef ad3b e77a a6bc f405 bebc dbd6 a839
000002b0: 7c5b fabc 2633 cbbc b3b7 58bb 369f 46bc
000002c0: 2199 ecbc 6f60 cebc 598c 9fbc 50b9 15bd
000002d0: 12c2 22bc 0d48 72bc 382e 08bd 5b44 1ebd
000002e0: 2003 4fbd 56f4 0ebd f58e dbba 4a20 8ebc
000002f0: 9d37 08bd 1f0b edbc 28a2 90bc 9845 f5bc
00000300: 78d4 f8bc f4a2 4fbb 3bd6 d8bc fd82 1abc
00000310: 74fb febc 6d8c f5bc 4a84 72bc 7b41 e6bc
00000320: 1267 0ebd 830a 243b 99f8 18bd 76b2 99ba
00000330: 460e 1fbd d681 ecbb a40e 14bd d0a7 f0bc
00000340: a55a 21bd 694f dab9 66fe a7bc 7ee0 41bc
00000350: 61d4 19bc c776 d3bc 1b38 e0bc 5cdb 9c3b
00000360: b786 2aba 70ff b6bc 42ea 9abc 433f 92bc
00000370: 44a4 09bd 1252 27bd 4ee1 f9bc 82e8 f23b
00000380: 17e5 5cbc 62e4 e7bb d7e0 bdbc 8277 04bd
00000390: b0ab 11bc 5fe0 16bb 0ff1 87bc 118a b5bc
000003a0: 2ea8 64bc e120 8abc 0e37 27bc f703 8ebc
000003b0: 48fa 93bc 9c08 02bc bc1f b3bc 9e21 1ebd
000003c0: 8c2d b1bc e90b acbc f3bd 40bd 41a4 25bd
000003d0: 0bea 07bd e2b8 23bd 9420 fbbb 2682 a0bc
000003e0: baa5 103c d910 12bd 1bb8 bcbc 4f42 bfbb
000003f0: 358b e6bb 3f2e 82bc 9bac 0abd 05fe 9abc

network_body._body_endoder.seq_layers.4.weight f4 [256, 256]
-0.020073151 -0.01884063 -0.11096654 0.13496909 -0.054521013 0.001273804 0.012402946 -0.07615887
0.020942915 0.011923751 -0.043333586 -0.017189333 -0.07858274 0.012388604 -0.016238092 -0.061472528
0.05051547 -0.022221772 0.023111925 -0.065831795 -0.03354902 0.057149094 -0.011136694 0.011119105
-0.044934474 -0.09225457 -0.10840059 0.004294538 0.018377766 -0.10276461 -0.044964794 -0.07576494
-0.16388848 -0.039470434 -0.04964968 0.066018246 0.005568285 0.018098831 0.012185653 -0.12671636
-0.015384443 -0.014088092 0.05487778 0.03750285 -0.04424876 -0.059441697 -0.05547892 0.100689426
0.0187138 -0.042165294 0.0012481875 0.047852695 -0.06830708 -0.053671524 -0.13771766 0.026745804
-0.047240864 -0.10231451 -0.014946036 -0.09377605 0.016186312 -0.10101493 0.13299765 0.069360845
-0.057845082 0.13095567 0.02312416 0.03909502 -0.03611771 0.05324279 0.010574147 0.049394064
0.050676137 -0.08605919 -0.049386013 0.09959835 0.07933485 0.071294576 0.05074575 0.029474663
-0.15363884 -0.0076331636 -0.10077991 -0.08398279 0.05754099 -0.051651753 0.015498241 0.05816858
0.026930608 -0.1404264 0.106602825 0.02158125 0.04654382 -0.08366576 0.12349086 0.044939686
-0.049181245 -0.09907231 0.030520724 -0.117832005 0.04838372 0.059856523 0.03078724 -0.007769053
0.00051304273 -0.13659927 0.040374007 0.023749456 -0.058754962 0.08332123 -0.053124435 0.0598739
0.0016442803 -0.026615458 -0.0010387414 0.02181167 0.038075753 -0.116792016 0.13679336 0.055886164
-0.01627662 0.041416876 0.16314457 0.045736324 -0.019609382 -0.1477613 -0.15905407 0.04175707
0.037124317 -0.04502471 0.15022863 0.08360064 -0.03825758 0.11784906 0.0037059977 -0.019703517
0.04567892 0.05277901 -0.017377019 -0.003822097 -0.14934833 0.04884098 0.11775701 -0.0659635
-0.09578204 -0.019992584 -0.006479119 -0.029199274 -0.03737413 -0.21030158 -0.015852977 -0.018469531
-0.045135528 0.06224697 -0.059104715 -0.014161055 -0.13491222 0.02057559 -0.12968823 0.06332012
-0.037334036 0.11378847 0.051480055 0.030780287 -0.056568325 0.07387319 0.088726886 -0.0030347502
0.07148796 0.046554517 -0.06977633 0.059884027 -0.02100525 0.04157903 -0.111164555 0.08098875
0.03237534 0.003308088 0.08020428 0.14969094 -0.018623633 0.048206065 0.0377433 0.07653146
-0.09236225 0.018696608 0.0145961065 -0.033421043 -0.02852247 0.06575099 0.020436779 0.14345954
-0.10313044 0.086714536 0.016643714 -0.029998558 0.13512397 0.03705346 0.11745106 -0.07523597
-0.011890022 -0.028698692 -0.09339476 -0.006819267 -0.023626272 0.09254363 -0.09692312 -0.0083069755
-0.14018357 -0.0866932 -0.049277652 0.062770575 -0.040911756 0.03150371 0.06662941 0.1594438
-0.11131457 0.050468586 0.020986907 0.07318804 -0.0005438425 -0.12998249 -0.11873509 -0.029554745
-0.025879243 -0.1745902 -0.006780125 -0.043013256 0.052224603 0.10538519 0.010978635 0.060048353
-0.015511716 -0.062045068 0.029399212 0.012598436 0.13675548 0.04027994 0.066671275 -0.079049625
-0.08304409 0.07457231 0.05172813 0.08705969 -0.0765391 0.023314497 -0.06005934 0.031852286
-0.053791873 0.052806232 -0.11162024 -0.022393664 -0.16700742 -0.12379712 -0.053812064 0.022143235
00000000: 7370 a4bc aa57 9abc 6d42 e3bd 5635 0a3e
00000010: 6d51 5fbd c5f5 a63a ba35 4b3c 2ef9 9bbd
00000020: 7a90 ab3c d65b 433c 8f7e 31bd a5d0 8cbc
00000030: fdef a0bd 92f9 4a3c bf05 85bc 9eca 7bbd
00000040: 4fe9 4e3d 6f0a b6bc 3855 bd3c d2d2 86bd
00000050: b26a 09bd 2b15 6a3d ae76 36bc e82c 363c
00000060: 360d 38bd f7ef bcbd 2101 debd 32b9 8c3b
00000070: f88c 963c 4076 d2bd 012d 38bd a62a 9bbd
00000080: 62d2 27be c0ab 21bd 765d 4bbd 9334 873d
00000090: 2976 b63b 0044 943c 55a6 473c efc1 01be
000000a0: 080f 7cbc bed1 66bc 86c7 603d 979c 193d
000000b0: 303e 35bd 2379 73bd dd3d 63bd 4236 ce3d
000000c0: af4d 993c 84b5 2cbd 399a a33a 3001 443d
000000d0: 95e4 8bbd acd6 5bbd dc05 0dbe 041a db3c
000000e0: a37f 41bd 458a d1bd 38e0 74bc a80d c0bd
000000f0: 2899 843c eae0 cebd 8930 083e 0f0d 8e3d
00000100: f7ee 6cbd 3e19 063e e16e bd3c 1a22 203d
00000110: 2af0 13bd 1d15 5a3d 303f 2d3c 6e51 4a3d
00000120: c891 4f3d cd3f b0bd fd48 4abd 38fa cb3d
00000130: 4f7a a23d e402 923d c7da 4f3d d974 f13c
00000140: 8053 1dbe 9e1f fabb b365 cebd 2bff abbd
00000150: 1ab0 6b3d ca90 53bd 56ec 7d3c 2d42 6e3d
00000160: 949d dc3c f0cb 0fbe 9552 da3d 29cb b03c
00000170: bca4 3e3d f458 abbd c7e8 fc3d ad12 383d
00000180: 4672 49bd 6ce6 cabd 9906 fa3c e851 f1bd
00000190: 022e 463d 1d2c 753d 8635 fc3c 8a93 febb
000001a0: b77d 063a aee0 0bbe 375f 253d 388e c23c
000001b0: 0ba9 70bd 52a4 aa3d 0299 59bd 563e 753d
000001c0: e484 d73a a908 dabc 6126 88ba 63ae b23c
000001d0: 52f5 1b3d a730 efbd 8f13 0c3e e4e8 643d
000001e0: 8c56 85bc bea4 293d 5f0f 273e 0356 3b3d
000001f0: dba3 a0bc bd4e 17be 12df 22be 7609 2b3d
00000200: ab0f 183d d56b 38bd 89d5 193e d036 ab3d
00000210: fbb3 1cbd d95a f13d 53e0 723b 4569 a1bc
00000220: d219 3b3d ce2e 583d 405a 8ebc 267c 7abb
00000230: c5ee 18be 7b0d 483d 962a f13d df17 87bd
00000240: 6029 c4bd 7dc7 a3bc ca4e d4bb 5133 efbc
00000250: 9e15 19bd 4c59 57be 1ade 81bc 6a4d 97bc
00000260: 08e0 38bd aef6 7e3d c917 72bd c503 68bc
00000270: 6e26 0abe 248e a83c fecc 04be fbad 813d
00000280: 93eb 18bd ee09 e93d c0dc 523d f126 fc3c
00000290: 30b4 67bd d44a 973d 71b6 b53d a9e2 46bb
000002a0: 4868 923d f3af 3e3d e4e6 8ebd f448 753d
000002b0: 3413 acbc c64e 2a3d 3eaa e3bd 6edd a53d
000002c0: 019c 043d 82cc 583b 2442 a43d 9548 193e
000002d0: 9790 98bc b973 453d b898 1a3d 87bc 9c3d
000002e0: 6b28 bdbd a129 993c 8224 6f3c 81e4 08bd
000002f0: f4a7 e9bc 74a8 863d 086b a73c 0fe7 123e
00000300: 0d36 d3bd 6497 b13d 6658 883c 89bf f5bc
00000310: f05d 0a3e 5ec5 173d 2e8a f03d 5115 9abd
00000320: 5ece 42bc 8519 ebbc c045 bfbd 2874 dfbb
00000330: e28b c1bc 8487 bd3d a17f c6bd fb19 08bc
00000340: 488c 0fbe 348c b1bd 5dd7 49bd dc8d 803d
00000350: 1693 27bd 090a 013d 0075 883d 3c45 233e
00000360: e5f8 e3bd 26b8 4e3d bcec ab3c 9ce3 953d
00000370: a790 0eba 211a 05be 622b f3bd cb1c f2bc
00000380: b500 d4bc c6c7 32be d02b debb ab2e 30bd
00000390: 77e9 553d 31d4 d73d bcdf 333c 43f5 753d
000003a0: da24 7ebc f822 7ebd 9ed6 f03c ac69 4e3c
000003b0: a109 0c3e 94fc 243d f38a 883d c5e4 a1bd
000003c0: 0513 aabd 5eb9 983d e0e0 533d 5a4c b23d
000003d0: 88c0 9cbd 0bfe be3c c800 76bd 8b77 023d
000003e0: de54 5cbd 594b 583d 2799 e4bd eb72 b7bc
000003f0: fe03 2bbe 5889 fdbd 0a6a 5cbd bb65 b53c

network_body.observation_encoder.processors.0.normalizer.running_mean f4 [14]
0.0 0.40745357 0.0 0.40640292 0.0 0.40432435 0.0 0.40423384
0.0 0.4052347 0.0 0.40379342 0.0 0.40379342
00000000: 0000 0000 c19d d03e 0000 0000 0b14 d03e
00000010: 0000 0000 9a03 cf3e 0000 0000 bdf7 ce3e
00000020: 0000 0000 ec7a cf3e 0000 0000 03be ce3e
00000030: 0000 0000 03be ce3e
