Assets/Training/results/RUN5/SzitakotoBehavior/SzitakotoBehavior-9999915.onnx (onnx, 729012 bytes, 17 tensors)

85 f4 [14]
000000 8d cb a5 39 25 f5 43 3e 8d cb a5 39 5a 37 44 3e
       0.0003162291 0.19136484 0.0003162291 0.1916174
000010 8d cb a5 39 bf 3f 40 3e 8d cb a5 39 a5 eb 42 3e
       0.0003162291 0.18774317 0.0003162291 0.19035204
000020 8d cb a5 39 33 79 41 3e 8d cb a5 39 76 3e 41 3e
       0.0003162291 0.1889389 0.0003162291 0.18871483
000030 8d cb a5 39 75 3e 41 3e
       0.0003162291 0.18871482

88 f4 [42]
000000 9d 5f d7 3a 67 fa 8e 3e f3 df 16 3b df fc 8c 3e
       0.0016431693 0.27925417 0.0023021668 0.27536675
000010 26 78 09 3b d6 2f 92 3e c2 d4 1d 3b 06 07 8f 3e
       0.0020976155 0.2855212 0.0024083112 0.27935046
000020 ee 8a 12 3b 03 f7 93 3e ed 76 1c 3b 18 65 92 3e
       0.002236064 0.28899392 0.0023874596 0.28592753
000030 a7 4a 18 3b 2c 97 94 3e 9d 5f d7 3a 56 7b 8e 3e
       0.0023237856 0.29021585 0.0016431693 0.27828473
000040 f3 df 16 3b cf 82 8c 3e 26 78 09 3b e7 a1 91 3e
       0.0023021668 0.2744355 0.0020976155 0.28443834
000050 c2 d4 1d 3b a0 83 8e 3e ee 8a 12 3b 39 59 93 3e
       0.0024083112 0.27834797 0.002236064 0.2877901
000060 ed 76 1c 3b 39 cc 91 3e a7 4a 18 3b be ec 93 3e
       0.0023874596 0.28476122 0.0023237856 0.28891557
000070 9d 5f d7 3a aa fa 8d 3e f3 df 16 3b 52 07 8c 3e
       0.0016431693 0.27730304 0.0023021668 0.27349335
000080 26 78 09 3b 93 12 91 3e c2 d4 1d 3b c2 fe 8d 3e
       0.0020976155 0.28334484 0.0024083112 0.27733427
000090 ee 8a 12 3b ff b9 92 3e ed 76 1c 3b b5 31 91 3e
       0.002236064 0.2865753 0.0023874596 0.28358236
0000a0 a7 4a 18 3b b3 40 93 3e
       0.0023237856 0.287603

91 f4 [132]
000000 dd 40 63 3e 1f e7 f4 3e 0f e4 fb 3e c0 2b 8e 3e
       0.22192712 0.4783258 0.49197432 0.27767754
000010 76 d5 56 3e 01 50 f6 3e 63 37 fc 3e 8a 05 8d 3e
       0.20979866 0.48107913 0.49261007 0.27543288
000020 b3 93 84 3e ca 97 ed 3e 87 ca f9 3e f2 9a 8b 3e
       0.25893936 0.46404868 0.4878733 0.2726665
000030 36 5e 63 3e 57 c5 f3 3e 96 36 fb 3e a2 29 8b 3e
       0.22203907 0.47611496 0.49065083 0.271802
000040 9a f8 8e 3e 36 2c e8 3e 98 65 f8 3e 22 c9 87 3e
       0.27924043 0.4534623 0.4851501 0.2652064
000050 b1 48 85 3e 1a c3 ed 3e fd fa f9 3e b1 dd 88 3e
       0.26032022 0.46437913 0.488243 0.26731637
000060 75 c3 90 3e 1a 60 e3 3e 55 1a f6 3e 2e a6 85 3e
       0.28274122 0.44409257 0.48066965 0.26103348
000070 41 fc 8e 3e e3 9a e4 3e cc 71 f6 3e 62 a2 86 3e
       0.2792683 0.4464942 0.48133695 0.26295763
000080 d9 81 8f 3e ce ed dd 3e ee bc f2 3e fb 5f 83 3e
       0.28028753 0.43345493 0.47409767 0.25659165
000090 8f 2a 8b 3e 07 8c d7 3e 4c d6 ed 3e 02 af 83 3e
       0.27180907 0.4209902 0.46452558 0.25719458
0000a0 a6 e9 8e 3e d2 8f d7 3e b4 d0 ee 3e 26 0d 80 3e
       0.27912635 0.42101914 0.46643603 0.2501003
0000b0 db a8 63 3e 23 f5 f4 3e ac bb fb 3e e1 ee 8c 3e
       0.22232382 0.47843274 0.4916662 0.27526
0000c0 5e 4c 57 3e 52 5d f6 3e 17 11 fc 3e 07 c4 8b 3e
       0.21025226 0.48118073 0.4923179 0.27297994
0000d0 a9 c4 84 3e 76 a9 ed 3e 92 99 f9 3e 83 53 8a 3e
       0.2593129 0.4641835 0.48749977 0.2701684
0000e0 0f e1 63 3e ec d4 f3 3e 0c 0d fb 3e ff dd 89 3e
       0.22253822 0.47623384 0.4903339 0.26927182
0000f0 ce 25 8f 3e d8 40 e8 3e 41 2f f8 3e ff 71 86 3e
       0.2795853 0.45361972 0.48473552 0.26258847
000100 6e 81 85 3e 64 d6 ed 3e 18 cd f9 3e 36 83 87 3e
       0.2607531 0.4645263 0.48789287 0.26467294
000110 93 ed 90 3e e8 73 e3 3e e9 d9 f5 3e 5f 42 84 3e
       0.28306255 0.44424367 0.48017815 0.25831887
000120 86 2d 8f 3e c4 b0 e4 3e 69 35 f6 3e 2a 36 85 3e
       0.2796442 0.4466611 0.48087624 0.26017886
000130 2e ab 8f 3e 1d fb dd 3e 35 6c f2 3e 1f ea 81 3e
       0.28060287 0.43355647 0.4734818 0.25373933
000140 1f 59 8b 3e 34 9c d7 3e f3 77 ed 3e 99 24 82 3e
       0.27216431 0.4211136 0.46380576 0.25418547
000150 c5 10 8f 3e 62 99 d7 3e d7 6f ee 3e 44 fa 7c 3e
       0.27942482 0.4210921 0.46569702 0.24704844
000160 23 11 64 3e e4 02 f5 3e f5 92 fb 3e 61 ad 8b 3e
       0.22272162 0.47853768 0.49135557 0.27280715
000170 75 c1 57 3e 34 6a f6 3e 1a ea fb 3e c6 7d 8a 3e
       0.21069892 0.48127902 0.49202043 0.27049083
000180 4e f5 84 3e fc bb ed 3e a2 67 f9 3e 3c 07 89 3e
       0.25968403 0.46432483 0.48711878 0.26763332
000190 79 62 64 3e 65 e4 f3 3e ac e2 fa 3e c1 8d 88 3e
       0.2230319 0.4763519 0.49001062 0.2667065
0001a0 4d 53 8f 3e 15 55 e8 3e e1 f6 f7 3e 63 15 85 3e
       0.2799324 0.45377412 0.4843054 0.2599288
0001b0 f1 ba 85 3e f5 e9 ed 3e bc 9d f9 3e b9 23 86 3e
       0.26119187 0.46467558 0.48753154 0.2619913
0001c0 83 18 91 3e fa 87 e3 3e d8 98 f5 3e a0 d8 82 3e
       0.28339013 0.4443968 0.47968173 0.25555897
0001d0 a4 5f 8f 3e f2 c6 e4 3e d3 f7 f5 3e 85 c4 83 3e
       0.28002656 0.44683033 0.48040637 0.2573587
0001e0 48 d4 8f 3e 40 08 de 3e 93 19 f2 3e c8 6c 80 3e
       0.28091645 0.4336567 0.47285137 0.25082994
0001f0 bf 88 8b 3e 2b ac d7 3e 4d 18 ed 3e 71 93 80 3e
       0.27252766 0.4212354 0.46307603 0.2511249
000200 c3 37 8f 3e 0e a3 d7 3e 7c 0d ee 3e ba cb 79 3e
       0.2797223 0.42116588 0.46494663 0.24394122

94 f4 [2]
000000 62 8e 85 3e 89 3b d3 3e
       0.26085192 0.4125636

action_model._continuous_distribution.log_sigma f4 [1, 2]
000000 37 4e 75 bf 61 da be be
       -0.9582247 -0.37275985

action_model._continuous_distribution.mu.bias f4 [2]
000000 d8 f9 8d 3c 90 f9 45 bc
       0.017331049 -0.012083426

action_model._continuous_distribution.mu.weight f4 [2, 256]
000000 f3 f4 10 3d 40 66 42 bc cb 53 56 3d 0d c8 e4 bc
       0.03538985 -0.011865199 0.052326005 -0.027927423
000010 7f cf 83 b9 fc a6 4c 3b 29 93 18 3c 87 fd a5 bc
       -0.00025140864 0.003122746 0.009312429 -0.020262493
000020 1d 6d ba bc 8f bd 38 bc 89 78 f3 3c d4 b4 1e bc
       -0.022757107 -0.011275663 0.029720562 -0.0096866675
000030 0d 42 94 bc ce 33 92 3b 80 8e 32 3c c3 38 14 3b
       -0.018097902 0.004461742 0.010898232 0.002261684
000040 b6 78 9a ba e7 aa f8 bc bf 7a 26 bc 28 41 04 3d
       -0.0011785242 -0.03035493 -0.010161101 0.0322887
000050 a9 f8 68 bd a1 6b e9 ba 71 0c 5a 3d fa c5 09 3d
       -0.056877766 -0.0017808565 0.05323452 0.03363607
000060 1b 9b 1b bd 19 e3 69 ba 55 c8 0d 3d 3b dc db bb
       -0.037989717 -0.0008922085 0.03461488 -0.006709603
000070 dd 83 82 bd 7f fc 53 3c 94 21 09 bd dd 47 0d bc
       -0.06372807 0.012938618 -0.03347929 -0.008623091
000080 60 c6 5c bd cc ee 59 3d 86 db 12 3d 9a 3d ae bb
       -0.053900123 0.05320625 0.035853885 -0.005317402
000090 53 15 49 bc 0b 34 b1 3c 04 14 3c 3c 97 84 6f 3c
       -0.0122731505 0.021631261 0.0114793815 0.014619014
0000a0 e1 67 2e 3c 2a 53 b4 bc 57 35 8a bb 51 a0 6d bb
       0.010644884 -0.022012312 -0.0042177844 -0.0036258886
0000b0 12 11 f1 3b 4e ac c0 3c de 7d 82 bc 28 38 c1 bc
       0.0073567713 0.023519661 -0.015929159 -0.023586348
0000c0 e1 06 bc 3b f6 98 06 bd ad 25 b0 bb ad 60 b4 bb
       0.0057381247 -0.03286072 -0.005375585 -0.0055046887
0000d0 6e 06 03 bd fb 4d 91 bd cd 13 2a 3d e3 b9 ce 3c
       -0.031988554 -0.07094952 0.04152279 0.025235122
0000e0 61 50 2b bd 61 06 33 bb 54 d2 87 3b 1c 56 60 3d
       -0.041824702 -0.0027317035 0.004144946 0.05476962
0000f0 c8 11 84 bc 4d cf d0 3b 17 e8 59 3b d4 ef 41 3c
       -0.01612176 0.0063723684 0.0033249909 0.011836965
000100 a8 c8 4a bc 7a 83 70 bc a8 12 7e bc 51 6c 0d 3d
       -0.012376942 -0.014679784 -0.015507378 0.034527127
000110 44 0a 91 bb df 9e 66 3b 74 b3 8d bd b3 22 e7 bb
       -0.0044262726 0.003518991 -0.069189936 -0.007053697
000120 4a aa ea b9 3c 11 11 3c d4 19 10 bd b9 8a 0e bd
       -0.00044758833 0.008854207 -0.03518088 -0.034800265
000130 90 2c 04 3c b8 8d 9c 3b 69 24 2a bc 84 4a 35 bc
       0.008067265 0.0047776364 -0.010384657 -0.011065129
000140 b4 62 b9 bd ca f8 5d bb a4 f8 a8 bb 6e 4e f2 3c
       -0.09052029 -0.0033870214 -0.0051565934 0.029578414
000150 1d 7d 05 bb a0 aa 15 bc 96 d3 9b bd 13 4f 7e 3d
       -0.0020368763 -0.009134918 -0.07608716 0.06208713
000160 ee d2 eb ba e1 fd 62 39 af e8 e5 bb 0e 0a 79 b9
       -0.0017991939 0.00021647617 -0.0070162634 -0.00023750236
000170 43 51 88 bd b0 90 9a bd 51 68 55 bd 68 bf 70 bc
       -0.066561244 -0.07547128 -0.052101437 -0.014694072
000180 8d 2c 76 bd b6 c1 34 3c ee 8c 72 bc 1a 73 1c bc
       -0.06010108 0.011032512 -0.014804108 -0.009548927
000190 de 8a 24 3c f9 02 4b bc 9a 22 d2 bc 37 d0 96 3b
       0.010042874 -0.012390845 -0.025651265 0.004602458
0001a0 41 f6 8c 3c bd 70 81 3c 98 32 c8 bc 7d 26 c4 3b
       0.017207267 0.015800828 -0.024438187 0.0059860335
0001b0 e1 af 0c bc e5 05 0a bc 1c 80 54 3c 70 7f 8d bc
       -0.008586855 -0.008424257 0.012969997 -0.017272681
0001c0 54 42 68 bb 55 dc ac bc 70 6e 18 bd 1f c0 1f 3c
       -0.0035439925 -0.021101156 -0.037214696 0.009750395
0001d0 5b 9e 07 3c 31 eb 9a bc b1 5f 9d bc 74 96 01 3c
       0.008277501 -0.018910976 -0.019210668 0.007909406
0001e0 14 6b 08 3b ec 3e 94 3c 14 17 3f bd 4a 3a 17 3a
       0.0020815777 0.01809641 -0.04665287 0.00057688786
0001f0 b4 7f 09 3b 19 7c 8f 3b 96 0d e1 bc b2 e4 28 bb
       0.0020980658 0.0043788073 -0.027472299 -0.0025771079
000200 d0 f6 15 bc d8 0f 93 bb 1a d2 64 bd 1c 0c 60 3b
       -0.009153083 -0.0044879727 -0.05586443 0.0034186905
000210 76 59 b3 3d 30 2f 61 bb e4 e6 6f bb 08 0f b2 bc
       0.08757298 -0.0034360401 -0.0036606127 -0.021735683
000220 c5 22 b1 3d ce 46 a6 3c 66 27 0f 3d 3a 21 04 3c
       0.0864921 0.020297434 0.034949683 0.008064562
000230 7b 0c 95 bc 43 97 56 3d 3d 03 11 3d aa c7 f0 bb
       -0.018194428 0.05239035 0.03540348 -0.0073480206
000240 a8 0d 9d 3a ac 20 5e bb af a2 aa bb 6c 06 b6 3c
       0.0011982219 -0.0033893986 -0.0052073817 0.022219859
000250 a9 f0 60 3b 5f b9 38 bc 6d 86 a4 bb 0d 0e 30 bb
       0.0034323132 -0.011274665 -0.0050209076 -0.0026863844
000260 22 95 f9 bc a9 10 8c bd 6f 63 05 3d ce b3 35 3d
       -0.03046662 -0.06839115 0.03256553 0.04436093
000270 50 91 c7 3c 15 d9 dd bc 8b 22 5d bb 03 1b e8 3b
       0.024361283 -0.027081052 -0.0033742513 0.007083298
000280 0b 23 54 bc 1d 81 04 bd a2 2d 8d 3b ac 93 2a 3c
       -0.012947808 -0.032349695 0.0043084184 0.010411184
000290 31 68 15 bb c9 1c c0 39 5c 00 20 bd 45 1d 8e bb
       -0.0022797699 0.0003664254 -0.039062843 -0.0043369853
0002a0 1f 9e 6e 3d 2b 93 cb ba c3 db c5 bb 4d 76 b2 3c
       0.058256265 -0.001553153 -0.0060381605 0.021784926
0002b0 02 d5 35 3a 12 ef 1d bd b6 cf cb 3d 86 73 18 3c
       0.00069363427 -0.038558073 0.09951727 0.009304887
0002c0 e3 78 6e bc c5 56 9e bc c6 1f 8d bd 89 ba 56 bd
       -0.014555189 -0.019328484 -0.06890826 -0.052423988
0002d0 83 53 19 3b 7b c6 c5 3c d7 7f c0 bc e2 15 20 ba
       0.0023395724 0.024142494 -0.023498459 -0.00061067764
0002e0 41 0e 8b 3b 11 1b 91 bb b3 3c 69 3c a8 f3 84 bc
       0.0042436426 -0.0044282754 0.014235663 -0.016229466
0002f0 c8 8f 32 bc 8b b2 24 bd a9 fe d4 bc 41 38 c3 bb
       -0.010898538 -0.040209334 -0.026000338 -0.0059576337
000300 a5 37 a5 3b 7e 1f 0d bc dc 12 25 bc 52 07 37 bb
       0.0050420337 -0.008613465 -0.010075297 -0.0027927947
000310 9a 16 96 bc be 11 f6 bb 99 74 de 3b ed 29 a4 bb
       -0.018321324 -0.0075094393 0.006788802 -0.0050098808
000320 67 6e 3b bd 3c 2e 42 bb e7 e9 b6 bc f9 1b 0d 3d
       -0.045759585 -0.0029629609 -0.02232833 0.034450505
000330 f3 6a d8 bb 2f eb d4 bc 9f bd db 3b 62 83 7f bc
       -0.006604546 -0.02599105 0.006705954 -0.015595289
000340 a1 8c 47 bb 23 3d 26 3c e4 b6 62 3c 3c 3f e9 3b
       -0.0030448812 0.010146412 0.01383755 0.007118134
000350 1c 59 37 bb 4d 01 77 3b 3f f3 2a ba ab 8b b4 bc
       -0.0027976697 0.0037689984 -0.0006521232 -0.022039255
000360 50 df a4 3c 6a 5d 85 bb c1 31 e1 bc 51 2c 9f 3b
       0.020126015 -0.0040699737 -0.027489545 0.004857578
000370 5f 9f d4 ba 74 03 5d bc 35 64 b0 3b 4a 23 8b 3c
       -0.0016221813 -0.013489593 0.0053830394 0.0169846
000380 0f 79 44 bd 8b 01 87 bd 35 d2 86 bb 4e ae 86 ba
       -0.047967013 -0.06592091 -0.004114414 -0.0010275336
000390 69 1b 48 bd e6 70 a8 3c af 03 10 3d 5e e3 26 3c
       -0.048854265 0.020561647 0.035159763 0.0101860445
0003a0 71 04 84 3c b3 cd 38 3b d7 5b 88 3b 04 d2 94 bb
       0.0161154 0.0028198778 0.004161339 -0.0045416374
0003b0 13 71 c5 3c 69 40 97 3c fb 6f 89 3c d2 8c e0 b9
       0.02410177 0.01846333 0.01677703 -0.0004282953
0003c0 ec b8 19 3a fc 30 20 bc a4 27 58 3c af a3 59 3b
       0.00058640423 -0.009777304 0.013193045 0.0033209135
0003d0 f9 c2 6d bd 17 d3 07 bc c9 a6 fc ba e2 e2 ad bd
       -0.05804727 -0.008290074 -0.001927578 -0.0849054
0003e0 3f 53 94 3d a9 aa cd bb 97 17 c9 3b da 35 58 bc
       0.072424404 -0.006276448 0.0061368453 -0.013196433
0003f0 a0 e6 09 3c 47 9c 2b 3c e4 ec 87 bb 2e 5b 3d bb
       0.008416802 0.010474271 -0.0041481126 -0.0028893459

network_body._body_endoder.seq_layers.0.bias f4 [256]
000000 2e f9 d2 bb 21 88 3d 3c 6d 08 d1 3b a5 85 60 bb
       -0.006438396 0.0115681 0.0063791783 -0.0034259346
000010 6d b9 8c 3b 13 f4 1a 3d a1 ee 89 bc fc 74 34 3d
       0.0042945654 0.037830424 -0.01683742 0.044056877
000020 e9 60 c6 bb 33 5c 5d 3b 62 69 52 3d 32 07 37 bb
       -0.006054033 0.003377688 0.051370032 -0.0027927873
000030 6d f1 25 bd 74 90 aa bb 13 35 c1 bc 96 32 20 bd
       -0.040513445 -0.0052052084 -0.023584878 -0.039110743
000040 ba 70 ad bc 23 c0 53 bc 03 64 a7 bc 90 18 5b 3b
       -0.021171916 -0.012924227 -0.020433431 0.0033431388
000050 02 57 12 bd 6c 44 2d bd fd 6c d6 bc f9 82 fb 39
       -0.03572751 -0.04230158 -0.026175017 0.00047972033
000060 23 c8 a6 3c d1 7b 87 3c 00 af aa bc a9 b7 3f bd
       0.020359104 0.016538532 -0.0208354 -0.04680601
000070 17 50 35 bd e4 49 88 38 52 36 58 bd 1b 36 94 bc
       -0.044265833 6.4987486e-05 -0.05278618 -0.018092206
000080 9c f4 f0 bc 8d e9 88 bc 5c 1a fb bc 38 63 04 bd
       -0.029413514 -0.016712928 -0.030652218 -0.032321185
000090 34 8b e7 3c f6 5c c6 bc ac 9e 19 bd c2 ab 07 bd
       0.02826462 -0.02421425 -0.037504837 -0.033122785
0000a0 6d 7b 76 bc f1 ac dd bc 02 8f bb 3a a9 06 0f bd
       -0.015044075 -0.027060004 0.0014309587 -0.03491846
0000b0 70 64 84 bc 9f e0 10 bd 90 7c 4c bd 2e 31 02 bd
       -0.016161174 -0.035370465 -0.04992348 -0.031785183
0000c0 2e 7d 93 3c ac 3c 74 bc 63 fc c1 3b 47 09 09 3d
       0.018004026 -0.014907043 0.0059199794 0.033456113
0000d0 37 a6 14 bd 41 67 0c bd 44 e1 60 bb 16 12 6b bb
       -0.036291327 -0.034278158 -0.0034313956 -0.0035868934
0000e0 01 5b 96 bc 73 f7 0c 3b 48 26 a8 bb 21 e1 18 bc
       -0.01835394 0.0021509796 -0.0051315166 -0.009331019
0000f0 ac 14 e3 bc 36 8e ef 3c 8d 3a 91 3c 1a bb 8f 3c
       -0.027719818 0.029242616 0.017728115 0.017545272
000100 79 f4 fd bb 96 67 a3 bc e7 b3 10 bd 95 9a 51 bb
       -0.0077500907 -0.019946855 -0.03532782 -0.0031983007
000110 be 26 b4 3c 11 90 29 bd 43 43 b9 bc 90 8a 01 bd
       0.02199113 -0.041397158 -0.02261508 -0.031626284
000120 9d e1 8f bd 00 f9 b3 bc 3c a1 02 bd 4a dc 3c bc
       -0.07025454 -0.021969318 -0.031892046 -0.01152713
000130 11 94 85 bd 59 55 65 3c ca 5f 5d 3c ea c0 2a bd
       -0.06522382 0.013997399 0.013511607 -0.041687883
000140 d9 ce 48 bd 81 49 ed 3c 76 d2 b7 bc 6e 19 96 bb
       -0.04902539 0.028965713 -0.022439223 -0.004580668
000150 9b 57 4b bd 93 04 de 3c fa 8a d8 bc d2 13 26 bc
       -0.049644094 0.02710179 -0.026433457 -0.0101365615
000160 59 ce b3 3c 78 6f 40 bd fe b0 bc 3a c3 be 9e bc
       0.02194898 -0.046981305 0.001439601 -0.019378072
000170 c9 7f 2e bc fb 17 87 3c 4b a4 ae 3b 71 9d 95 bc
       -0.010650584 0.016490927 0.005329644 -0.01826355
000180 b7 85 d5 bc 61 f8 38 3b 28 1d 90 3c 40 66 60 bc
       -0.026064737 0.0028224217 0.017592028 -0.013696253
000190 e1 d2 2e bc 7f 6f 82 bd 67 73 33 3c ab 66 26 3b
       -0.010670395 -0.063689224 0.010952807 0.0025390785
0001a0 88 aa 88 3c 02 0f 55 3d 0f 88 f8 bc 01 a3 00 3a
       0.016682878 0.052016266 -0.030338315 0.0004907102
0001b0 fa ee 37 bd aa e5 58 3c 21 ef 8c bc 61 9d f1 bc
       -0.04490564 0.01323835 -0.01720387 -0.02949399
0001c0 64 89 ab bc 87 f5 14 bc 6c d1 af bc 07 be b6 bc
       -0.020939536 -0.009091741 -0.021462165 -0.022307409
0001d0 00 4f 2c bd 2d 2f 23 bc 60 37 84 bd 9d 87 4c bd
       -0.042067528 -0.009959978 -0.064558744 -0.04993402
0001e0 9b 5c 4d 3c 75 6d 89 bd 96 0e 25 bc 1e 65 b4 bc
       0.012534286 -0.067103304 -0.010074278 -0.022020873
0001f0 ba 68 94 bb cf 2e d9 bc d2 17 ea bc f7 c4 3a bc
       -0.004529086 -0.026511578 -0.028575812 -0.011399499
000200 a6 6c 81 bc d5 1c a1 bc 4b 17 9c 3c b3 c1 0d bc
       -0.015798878 -0.019667068 0.019054076 -0.0086521385
000210 d9 90 1d 3a 18 0c e4 bc 03 0a 5d bc dc 21 04 3d
       0.00060106587 -0.027837798 -0.0134911565 0.032258853
000220 49 af 32 bd dc b0 a7 3c c6 d8 1e bb ca b6 73 3a
       -0.043624196 0.020470075 -0.0024238094 0.0009296952
000230 8f d6 4a bd 18 bd a1 bd 3c 0e 6a bd fd fe 67 3b
       -0.049521025 -0.07897395 -0.05714248 0.0035399788
000240 d4 5c 36 bc 0f a9 8d 3c 37 0f 57 3b 49 0e 03 3d
       -0.01113053 0.017292527 0.0032815465 0.031996045
000250 81 8f 50 3c f2 98 e0 bc 80 39 7e bb 70 7b 77 bc
       0.0127295265 -0.02741668 -0.0038791597 -0.015105113
000260 15 14 5d 3c 42 a8 0d bd 31 dd 30 bd 82 6c f8 bc
       0.013493557 -0.03458429 -0.043179695 -0.030325178
000270 56 60 02 bd 49 75 a5 bc 05 c8 25 bc cb 7f 0d 3a
       -0.031830154 -0.020197527 -0.010118489 0.0005397766
000280 79 c3 31 bc bf cf f1 bc 09 66 68 3c dc c8 1c bd
       -0.010849827 -0.029518006 0.014184483 -0.038277492
000290 8a 81 3e 3d 6e cd b0 3a 0d 38 e0 bc ae b0 8c bc
       0.046510257 0.0013488957 -0.027370477 -0.017174091
0002a0 d1 ef bd 3c 07 6a c9 3b 6f fe 35 bb 7c 0f 3d bc
       0.023185642 0.0061466726 -0.0027770062 -0.011539336
0002b0 9b 0e ea bc 95 70 90 bc 53 54 4b 3c aa d5 e2 ba
       -0.028571418 -0.017631808 0.012410241 -0.0017306108
0002c0 d3 9f 9e bc 33 ad b0 bc 7f a2 2d bc 7d 08 85 3c
       -0.01936332 -0.021566963 -0.010597824 0.0162394
0002d0 b6 1f 88 bb 3b 51 d8 3b 70 ef 01 bc 75 d2 34 bb
       -0.004154171 0.0066014803 -0.0079306215 -0.0027591262
0002e0 32 74 61 3a af 35 67 bd 41 a9 76 3b 9b 80 90 bc
       0.00086003833 -0.05644768 0.0037637504 -0.017639449
0002f0 c0 52 07 bc c9 c8 0b bd ee 29 d3 bb 41 81 c1 bc
       -0.008259475 -0.03412703 -0.0064442074 -0.023621203
000300 c9 bb 1e bc 00 98 37 bd 95 54 75 bc 4e 93 17 bd
       -0.009688326 -0.044822693 -0.014973779 -0.037005715
000310 d6 d3 95 bb f9 7c 2a bc 9d ff 12 bd 44 14 42 bd
       -0.004572372 -0.010405772 -0.035888303 -0.047382608
000320 d5 aa 64 bc ba b0 c2 bc 08 7a b0 bc f2 af 92 bc
       -0.013956745 -0.02376591 -0.021542564 -0.017906163
000330 b9 60 8c bc 60 71 43 bc 46 ee 6a 3c 27 cd bf 3c
       -0.017135965 -0.011928886 0.014339035 0.023413254
000340 e0 55 7b 3b c4 73 b3 bb 6f ec ac bc 65 a1 cf bc
       0.0038350746 -0.005476447 -0.021108834 -0.025345514
000350 d5 4d f2 3b 97 1f b2 bb a9 9b 79 bc 05 ef fa bc
       0.007394532 -0.0054358947 -0.015234866 -0.030631552
000360 81 6d 81 3b 71 a9 f2 bc b6 60 b5 bb ba 1a 3d bd
       0.0039498215 -0.029621812 -0.0055352105 -0.046168067
000370 6a c2 7a bc 47 61 5b 3c a0 53 af bc 04 b4 33 bd
       -0.015305141 0.013389892 -0.02140218 -0.04387285
000380 25 dd 6a bd bb 53 bc bc 25 5d 8e bc eb 52 d8 bc
       -0.057339806 -0.022989145 -0.0173784 -0.026406726
000390 55 4d bb bc 24 7b 57 3c 8e e2 2b 3c 81 40 de bc
       -0.022864023 0.013151918 0.010491027 -0.027130367
0003a0 b0 8e 14 bd 7f 6c 4f bc 24 a2 23 bd f0 28 d5 bc
       -0.03626889 -0.012660145 -0.03994955 -0.026020497
0003b0 ff a7 9b 3c fa ea 4e bd cb ef c7 bc c4 9d 44 bd
       0.019001005 -0.05051706 -0.024406334 -0.04800202
0003c0 98 ff bb bc 40 a4 c1 bc 34 df 8c bc e2 85 14 bd
       -0.022949025 -0.02363789 -0.017196275 -0.036260493
0003d0 9e 57 04 bd 74 bc d4 bc bf 33 92 3c ea e2 ee bc
       -0.03231012 -0.025968768 0.01784694 -0.029160935
0003e0 72 9d 34 bd 71 4e 25 bd 0d 13 83 3c 28 1c f3 3c
       -0.044095464 -0.04035801 0.016000295 0.029676512
0003f0 cd b0 5e bc 38 15 10 bc 7d 10 db bc 6f 18 a2 bb
       -0.013591957 -0.008794121 -0.02674126 -0.0049467604

network_body._body_endoder.seq_layers.0.weight f4 [256, 190]
000000 5a 89 a9 3d 87 42 38 3e 28 35 3c 3e 38 e9 85 3d
       0.08278151 0.17994128 0.18379653 0.065386236
000010 b5 c7 49 bd 16 70 7a bd f3 9e d1 bc b7 2d 94 bd
       -0.04926272 -0.06114205 -0.025588488 -0.07235282
000020 89 54 af 3d de 5d 24 bc 12 fb 92 bd 00 1c 40 bd
       0.08561046 -0.010032145 -0.07176794 -0.046901703
000030 eb 41 77 bd 78 d9 88 bd 54 95 cc 3d 95 7d a2 bd
       -0.0603656 -0.06682104 0.099894196 -0.07934109
000040 6b 4f 86 3d b9 05 04 3d 00 3a 6c bc e4 10 cc bb
       0.065581165 0.03223202 -0.014418125 -0.0062275995
000050 31 4d 56 3d 8d f6 e2 3c de d5 a2 bd 09 f1 80 bd
       0.05231971 0.027705455 -0.07950948 -0.06295974
000060 07 72 38 3e fc 37 8d 3c 20 8a 20 bd 46 71 84 3d
       0.18012248 0.01723861 -0.039194226 0.06466918
000070 fc 6a 37 3d fb e8 40 3d 2e 9b 43 3b fa 7b e1 3b
       0.044779763 0.047097187 0.0029847133 0.0068812342
000080 6a 60 99 bc 3f 2d 8e 3d 83 43 8e bb 4e 44 19 bc
       -0.018722732 0.06942224 -0.004341544 -0.009354664
000090 04 b8 be 3d 61 f2 cb 3d 62 23 ef bd 44 0e a9 3d
       0.09312442 0.099583395 -0.116766706 0.08254674
0000a0 97 03 29 bd 9a 93 9d bc 3b 92 49 3c d3 87 d5 3d
       -0.04126319 -0.019235421 0.0123029305 0.10426297
0000b0 c5 e4 aa 3d 5d 38 de 3d 27 cd aa 3d 4c 76 56 3d
       0.083444156 0.10850594 0.08339911 0.05235891
0000c0 c9 2a 5a 3e 10 1e c5 bd 1c 39 e3 3d 31 27 2b 3a
       0.21305384 -0.096248746 0.11094877 0.00065289723
0000d0 e6 19 a3 3d 29 3c 19 be cd cd 75 bd 43 b8 11 ba
       0.07963924 -0.14964356 -0.06001072 -0.0005558768
0000e0 57 de 94 bd 7d cd f5 3b ed 36 c5 3d 41 b3 af 3d
       -0.072689705 0.0075013028 0.09629617 0.08579112
0000f0 ec eb 9d bd 12 e8 28 3e 2a 34 81 bd fa db 5d bd
       -0.07711014 0.16494778 -0.06308778 -0.054164864
000100 f4 33 54 3d 2c 64 9c bd 9b 67 9b 3d d3 05 6b 3d
       0.05180736 -0.07636294 0.075881205 0.0573786
000110 eb 1e bf 3d 95 45 ca 3d 05 08 51 bd 06 22 77 bc
       0.09332069 0.09876553 -0.05103304 -0.015083795
000120 14 c4 c5 3d ff ad 82 bd 63 cc 06 be ef 91 f6 3c
       0.096565396 -0.06380843 -0.13163905 0.030098883
000130 bd ca 5f bd a8 84 c0 3b c0 76 74 3c c0 55 04 3e
       -0.054636706 0.005875189 0.01492089 0.12923336
000140 7e 29 2c 3d 94 af 41 ba f1 4d a8 3c f9 f6 9c 3d
       0.042031758 -0.0007388529 0.020544978 0.07664294
000150 eb 1e 8b bd d8 68 2c bc 7f 9a a4 3d 4a d1 48 3d
       -0.067930065 -0.010523044 0.0803728 0.04902772
000160 85 63 97 3c c3 21 42 be c3 1b 6a 3b 04 e8 12 3c
       0.018480072 -0.18958192 0.0035722114 0.00896645
000170 50 ed 08 3e 6b bb a7 bd 2b 2c 0c 3e 37 ef fb 3c
       0.13371778 -0.08190044 0.13688724 0.030753715
000180 f6 14 9f 3d a2 fd 88 bb e9 d5 1b be 3f 52 21 be
       0.0776767 -0.004180626 -0.15218319 -0.1575403
000190 ca d4 c6 bd e6 33 b3 bd 7f 22 8f bd e8 11 0e 3d
       -0.09708555 -0.08750133 -0.069890015 0.034685045
0001a0 52 b7 ea bc 39 ce ba 3d 99 67 09 3c 6c 23 51 bd
       -0.028651867 0.09121365 0.008386516 -0.05105917
0001b0 c6 d4 a0 3d cd 0e 09 3d d4 77 c2 bd 21 6f ba 3b
       0.07853083 0.03346138 -0.09495512 0.005689517
0001c0 cd f5 dc bd e1 23 41 bd 14 bc 10 3e ce ee c9 bd
       -0.1078907 -0.047153357 0.14134246 -0.098600015
0001d0 eb 0a bb bd 36 18 e7 3d 53 ac f9 bc 1f 92 b7 bd
       -0.09132942 0.11283915 -0.030477678 -0.08963417
0001e0 94 9e d5 bc e0 b9 f7 bc 85 f2 aa bd 24 ac 93 bd
       -0.026076593 -0.03024 -0.08347038 -0.072105676
0001f0 d1 ed 9f 3d ed 5b 9b bd 32 ed ee 3d 49 a8 3a bd
       0.07809032 -0.07585893 0.11666335 -0.045570645
000200 98 92 9b 3d 53 77 50 3c 14 5b 78 bd 48 69 9a bd
       0.0759632 0.012723762 -0.060633734 -0.07539612
000210 11 8b 65 bc 4e 9c cd 3c 83 fc d6 bc 51 84 c9 bd
       -0.014010207 0.025098946 -0.026243454 -0.098396905
000220 1b 77 ad 3d 13 c4 92 bd bb d4 8a bc c7 bc 91 ba
       0.08469983 -0.071663044 -0.01694714 -0.0011118882
000230 eb d8 9a 3d 58 b8 b5 3d eb 56 b9 3c 66 3e 89 3d
       0.07560905 0.088730514 0.022624454 0.06701355
000240 fe 2e 04 3e 0c 2b 33 bd 01 73 92 3d 93 a9 3a 3d
       0.12908551 -0.043742225 0.071508415 0.045571875
000250 af b7 90 bb 14 38 d1 bd 04 17 bb bd 8d 2c 76 bd
       -0.004416428 -0.10215774 -0.09135249 -0.06010108
000260 c4 d6 83 3e 7a 9b e6 bd ed 33 5b 3c 2e 5d c0 3d
       0.2574979 -0.112601236 0.013379079 0.093927726
000270 65 d0 da bd 98 6a 1d 3e 27 88 a7 3c 00 b2 37 be
       -0.10684279 0.15372694 0.020450665 -0.17938995
000280 d2 fb f2 bc ed 65 21 3e 2a b6 2b 3e e4 35 a1 3d
       -0.029661093 0.15761538 0.16768709 0.07871607
000290 f1 ab 80 bd 44 5e 24 bd f8 4e 9d bc 20 d2 2b 3d
       -0.06282795 -0.04012896 -0.019202694 0.041948438
0002a0 25 ae 40 bd 0f 49 a5 3d 20 a1 fa 3c 7a ea b3 bd
       -0.047041077 0.080705754 0.030594409 -0.08784957
0002b0 61 bd 83 3e a2 0d b3 3d 4f d4 db bc fe f7 08 bd
       0.25730422 0.08742835 -0.026834635 -0.03343963
0002c0 71 0a 9a bd 05 de 73 3d 3e 2e c9 bd ab 7c 82 3d
       -0.07521523 0.059537906 -0.09823273 0.06371435
0002d0 a9 ab ec 3c b9 fb ce bc 9f 74 50 3c d8 ec 9b 3d
       0.028890448 -0.025266515 0.012723117 0.07613534
0002e0 70 8f bd bb ae 6b d8 3b 8b c2 90 3d 87 c4 f8 3d
       -0.0057849213 0.0066046333 0.07068356 0.121468596
0002f0 5a 5e 89 bd 18 ec 8e 3e 4d 88 9a 3d fa 93 98 be
       -0.06707449 0.279145 0.075455286 -0.29800397
000300 64 6f d9 3d 16 06 57 3b be 0a 5f 3e dd eb d0 bd
       0.10616949 0.0032810024 0.21781442 -0.10201237
000310 76 3c 0b bd fa bd 1e 3e c3 34 cb 3c e3 70 2a 3e
       -0.033993207 0.15502158 0.024805432 0.16644625
000320 21 35 2b 3d cd 26 35 3e 2f 9d 72 3c 5a 88 32 3c
       0.041798715 0.17690583 0.014807983 0.010896767
000330 d1 0d f0 bb 31 c4 07 bd 40 a5 52 3d 9f a6 0a 3b
       -0.007325866 -0.033146087 0.051427126 0.0021156443
000340 86 55 8b bd ac 3c 52 bd b6 91 ad 3b c6 32 81 be
       -0.06803422 -0.051327392 0.005296911 -0.2523405
000350 be 8b 2d bd f6 8d 39 3c 7a e6 e1 bd 79 70 a1 bd
       -0.042369597 0.01132535 -0.11030288 -0.078827806
000360 02 76 b5 bd cf 1e 5c 3d 1a a6 86 bc ae f8 bd 3d
       -0.08860399 0.05374032 -0.016436625 0.092759475
000370 11 b9 66 3d 90 73 b6 bd 29 cd 94 bb 8d b2 ce bc
       0.056328837 -0.089087605 -0.0045410586 -0.025231624
000380 f4 9a 22 3e 7d 75 86 3d 8e 5e 1d 3e c9 36 1e 3e
       0.15879422 0.06565378 0.15368101 0.15450586
000390 90 2f 0b 3e 87 0e 11 38 b6 02 03 be fa 1a aa bd
       0.13592362 3.4584224e-05 -0.12794003 -0.083059266
0003a0 69 6a 9d bd 77 32 8e bd 8b 6e 13 3d d6 64 c8 bc
       -0.07686312 -0.06943219 0.035994094 -0.024462145
0003b0 9d 17 10 3e 4a 2c e7 bd da 5d 77 3d 48 08 a7 3d
       0.14071508 -0.11287744 0.06039224 0.081558764
0003c0 30 41 33 3d f3 53 8e 3d 43 76 8b bc 9a a8 f6 3d
       0.04376334 0.06949606 -0.017024165 0.12043877
0003d0 84 ba 83 bc a8 08 8b 3c 21 8c ff bd 74 f2 a9 bc
       -0.016080149 0.016971901 -0.12477899 -0.020745493
0003e0 da 47 df 3d e7 79 a6 bc 7d 9f b2 bc fd 13 37 bd
       0.109023765 -0.0203218 -0.021804566 -0.044696797
0003f0 16 59 ca 3d 33 c0 7b bd dc 93 48 bc 04 c6 b1 bd
       0.09880273 -0.061462592 -0.012242284 -0.086803466

network_body._body_endoder.seq_layers.2.bias f4 [256]
000000 e5 21 36 bd 56 63 5b bc 0c 47 a6 bc 31 41 0a bc
       -0.044465918 -0.013390383 -0.02029755 -0.008438394
000010 ff 67 f9 bc 16 5c 8a bc df 86 e7 bc 2b 13 bb bc
       -0.030445097 -0.016889613 -0.028262554 -0.022836288
000020 65 35 c1 bc fe 11 51 bd e0 15 d7 bc ab 6d c0 bc
       -0.02358503 -0.05104255 -0.026255548 -0.023489794
000030 d9 86 3e 3c 9c b8 4f bc a6 42 05 bd 46 f6 95 bc
       0.01162883 -0.012678292 -0.032534264 -0.018305909
000040 9b f2 57 bd a7 5c cd bc b5 f4 32 bd 8d fb 86 bc
       -0.0527216 -0.025068594 -0.043690402 -0.01647737
000050 68 8e ea bc 21 28 c0 bc 2e 41 78 bc 1d 42 92 bb
       -0.028632358 -0.023456635 -0.015152259 -0.0044634477
000060 dd 01 0c bd 14 13 b9 bc 6a 8a f2 bb fd 2d 24 bd
       -0.034181464 -0.022592105 -0.007401754 -0.04008292
000070 89 c7 f1 bc fe 72 df bc 44 ee 16 bd 6c fd 1a bd
       -0.029514091 -0.027276512 -0.03684832 -0.03783934
000080 48 36 ee bc e7 7f a7 bc 04 22 98 bc f9 ef 26 bc
       -0.029078618 -0.02044673 -0.018570907 -0.01018905
000090 c2 3f 0d bd aa ac e3 bc 3e 75 d4 bc bb d7 86 bc
       -0.034484632 -0.027792294 -0.025934812 -0.01646029
0000a0 5e 7d aa bb 53 2c 0f bd ab 4d 7f 3a 76 bc e4 bb
       -0.005202933 -0.03495438 0.00097390515 -0.006980474
0000b0 bf 5b ba bc f6 ca 71 bc 0f cc 88 bc 9d c3 2b bc
       -0.022748826 -0.014757862 -0.016698865 -0.01048365
0000c0 5a 79 89 bc f8 c7 59 bd 89 ae 8b bc c4 12 d3 bc
       -0.016781498 -0.05316922 -0.017050998 -0.025765784
0000d0 a8 fe b3 bc b6 42 65 bc 55 f1 e1 bb 73 c3 11 bd
       -0.021972016 -0.013992956 -0.006895224 -0.035586786
0000e0 f1 78 c0 bc 61 3f 35 bd 23 ae 34 bc 97 bc 0d bb
       -0.02349517 -0.044249896 -0.011027846 -0.00216273
0000f0 ac 4b f5 bc 8f fa fe bc f7 6e c4 3b 01 b0 0b bd
       -0.02994331 -0.031125335 0.0059946734 -0.034103397
000100 ad 87 05 bd c7 5c 9b bc d4 f2 0d bd a1 8b 36 bc
       -0.032600094 -0.018965138 -0.034655407 -0.011141689
000110 95 e2 e7 bb eb 8e 30 3c 65 e9 8e bd 35 1a 08 bb
       -0.007076571 0.010776262 -0.0697811 -0.0020767574
000120 37 f8 1f bd a2 05 f1 bc da d7 79 bc 3a f8 c1 bb
       -0.039055075 -0.029421631 -0.015249217 -0.0059194835
000130 0f 4a 0c bd 4e b9 09 bd 25 f6 2a bd de aa fe bb
       -0.034250315 -0.033623986 -0.041738648 -0.007771834
000140 e7 2b f3 bc 2d b4 62 bc 41 85 8d bc 44 b1 82 bc
       -0.02968402 -0.013836903 -0.017275454 -0.015953667
000150 fd 3b df bc b6 a8 ed bb 84 ad 00 bd 2f 22 c3 bc
       -0.027250284 -0.007252778 -0.031415477 -0.023820011
000160 84 e2 03 bd 85 8a 06 bc 97 05 41 bc 4d 7c d1 3b
       -0.032198444 -0.008211737 -0.011781118 0.0063929916
000170 41 dd fa bc 47 3f 25 bc 2c b5 81 bc 67 86 0c bd
       -0.03062308 -0.010085887 -0.01583346 -0.034307864
000180 9f ed b1 bc 17 1d 99 bc a5 3b fa 3c 14 0c df 3c
       -0.021719752 -0.018690629 0.030546019 0.027227439
000190 18 bd b9 bc e2 ed 00 bd 78 fa c2 bc 52 c5 77 bc
       -0.022673175 -0.031476863 -0.023801073 -0.015122728
0001a0 70 ba 6a bb 62 d6 07 bd 74 81 fb bc 2e c1 ce bc
       -0.0035816692 -0.033163436 -0.030701376 -0.0252386
0001b0 26 4e d6 bc 64 3c 92 bc de 31 ad 3a 9f 51 0b bd
       -0.026160311 -0.017851062 0.0013213714 -0.034013387
0001c0 56 b7 98 bc 9b 68 e4 bc 90 cd 0a bd 80 a3 01 bd
       -0.018642109 -0.027881911 -0.033887446 -0.031650066
0001d0 bf d0 88 bc bb 2a b1 bc 21 38 21 bd 0f b6 05 bd
       -0.0167011 -0.02162682 -0.03936017 -0.032644328
0001e0 43 33 cf bc b2 8c da 3b 33 a1 a5 bc da ba dd bc
       -0.025292998 0.006669604 -0.020218467 -0.027066637
0001f0 f5 45 e0 bc b2 bf 88 bc 26 25 58 bc 1c ca d9 bc
       -0.027377108 -0.01669297 -0.013192451 -0.026585631
000200 b7 47 a0 bc f3 0e 55 bc 49 80 4e bc 66 59 9d bc
       -0.019565446 -0.013004052 -0.012603828 -0.019207668
000210 94 12 09 bc 4a 91 5d bc 49 5f 16 bd 1a 79 c5 bc
       -0.008366246 -0.013523409 -0.036711965 -0.024105597
000220 1e 9c 8e bc 54 b9 96 bc c3 08 87 bc f6 4a f8 bc
       -0.017408427 -0.018398918 -0.01648367 -0.030309182
000230 31 67 9d bc b2 d3 8f bb 93 a1 4b bc 52 58 bb bb
       -0.019214245 -0.0043892497 -0.012428659 -0.0057173157
000240 6a 2f 68 bc da e3 0b bc d5 1b 46 bb 01 7f 58 bd
       -0.014171461 -0.008538211 -0.0030228992 -0.052855495
000250 0b c1 08 bd 8a e4 82 bc 20 f3 09 bd b1 82 27 bd
       -0.033387225 -0.015978117 -0.033679128 -0.04089612
000260 6d da a2 bc 59 ba 47 3c a7 0b 38 bd 83 08 de bc
       -0.019879544 0.012190425 -0.044932988 -0.027103668
000270 f2 16 f9 bc 54 d1 3e ba 3f 95 2e bd c0 b4 99 bc
       -0.030406449 -0.0007279117 -0.0426228 -0.018762946
000280 a5 80 12 bd 78 07 3c bd 7e 00 9c bc e0 2e 99 bc
       -0.035767216 -0.04590556 -0.019043203 -0.01869911
000290 65 78 0b bc 1a 33 2d bd 3a e2 71 bc bf a9 b6 bc
       -0.008512591 -0.042285062 -0.014763409 -0.022297738
0002a0 d9 39 0d bd b6 cf 12 bd c4 bf f9 bb b6 14 22 bc
       -0.034478996 -0.03584262 -0.007621737 -0.009892633
0002b0 fb 47 d0 bc ee 2d 16 bb 81 e7 26 bc 9f 2b 60 3c
       -0.025424948 -0.002291556 -0.010187031 0.013682275
0002c0 3d 43 72 bd 9e 4a d2 bc 4f 57 f2 bc e7 dd e8 bc
       -0.059146155 -0.025670346 -0.029582648 -0.028426124
0002d0 4e 56 23 bb ef a3 f2 bc 4f 73 86 bc 20 39 6e bc
       -0.0024923268 -0.029619185 -0.016412405 -0.014539987
0002e0 a7 a8 4e bd 37 65 d9 bc 79 cb 92 bc ca 59 c4 bc
       -0.05045381 -0.02653752 -0.017919289 -0.023968596
0002f0 17 e2 bf bc 3f 17 bc bc 96 cb 72 bb 49 b1 30 bd
       -0.023423238 -0.022960303 -0.0037047616 -0.043137822
000300 de dc db 3a be 1e 04 bd 4e d7 b0 bb 1a 81 e6 bb
       0.0016774198 -0.03225588 -0.00539676 -0.007034433
000310 15 fd 27 bd 60 cf 92 bc 32 9c b2 ba dc 2f c4 bc
       -0.041012842 -0.01792115 -0.0013626872 -0.023948602
000320 d0 09 cd bc b9 3d dc bc ab d6 a7 39 13 0b d7 bc
       -0.025029093 -0.0268849 0.00032012662 -0.026250398
000330 af 65 52 bd cd 5d b9 3b 35 b4 91 bc d3 d2 45 bc
       -0.051366504 0.005656934 -0.017786125 -0.01207419
000340 9f 70 34 bd 26 b1 ae bc 93 9e 1b bd 2d c1 3c bc
       -0.044052716 -0.021324705 -0.037993025 -0.011520666
000350 1c 00 0a bd 71 a5 53 bd b6 43 13 bc 59 63 11 bd
       -0.03369151 -0.05167145 -0.0089883115 -0.035495136
000360 50 81 28 bd 33 d8 93 bc 04 e9 e5 bc f6 11 23 bd
       -0.041138947 -0.018047428 -0.028065212 -0.03981205
000370 7c fa c4 ba 11 63 c5 bc ab c2 c4 bb 14 e4 ef bc
       -0.0015028263 -0.02409509 -0.0060046515 -0.02928356
000380 87 ab 5b bc 0f 79 cd bc 01 66 cb 39 a9 1b 1e bd
       -0.0134075945 -0.02508214 0.00038795176 -0.038600598
000390 8e 54 b7 3b b9 98 fc bc 42 88 61 bc 1a 8f 52 bc
       0.0055947965 -0.030834543 -0.013765397 -0.012851501
0003a0 2b 9a e1 bc 8e e4 1e bd 91 43 96 bc cc 17 fd bb
       -0.027539333 -0.038792185 -0.018342765 -0.007723784
0003b0 ad e1 c0 bc d2 42 c6 bc 80 9b c6 bc 6a 2b 59 bd
       -0.02354511 -0.024201784 -0.02424407 -0.05301992
0003c0 a3 82 80 3b d4 55 9d bc 05 c8 a2 bc ae cc 14 bc
       0.003921823 -0.019205965 -0.019870767 -0.009082003
0003d0 97 75 fa bb 3a ba c7 bc 27 b8 14 bd d9 6a c9 bb
       -0.0076434123 -0.024380792 -0.036308434 -0.0061467704
0003e0 41 53 00 bc 02 4a e4 bc a3 39 31 bb f4 3f 9f bc
       -0.007832349 -0.02786732 -0.002704241 -0.019439675
0003f0 3f 30 a4 bc 7b 0d 83 bb a9 06 b8 bc 7c 0b e2 bc
       -0.020042537 -0.0039994097 -0.022464113 -0.027593367

network_body._body_endoder.seq_layers.2.weight f4 [256, 256]
000000 ba 22 ca 3a 3d ef dd bd 7d d9 60 3d 55 0f d4 bd
       0.0015421726 -0.10836647 0.054894913 -0.10354487
000010 78 ce 8d 3d 30 78 66 3d 51 e2 93 3d 38 6c 0d be
       0.069241464 0.056266963 0.07220901 -0.13810813
000020 57 5a 66 3d 01 98 d1 bd f9 47 e4 bd cd ff 3e bd
       0.0562385 -0.102340706 -0.1114654 -0.04663067
000030 97 8d 18 3e be c3 98 3d ea 51 6a bb 24 d4 c3 bc
       0.14897762 0.0745921 -0.003575439 -0.023904867
000040 f9 b3 d7 bd f0 3b 89 bd 86 94 bc bd f6 09 a9 bd
       -0.10532374 -0.06700885 -0.09208016 -0.08253853
000050 4b 63 ec bd 7c 3a ce bc a5 29 84 bd bf 7e 6e 3d
       -0.11542376 -0.025174372 -0.064532556 0.058226343
000060 35 1a d3 bd 57 ad 30 be 79 31 c7 bb 8c b5 77 bc
       -0.10307733 -0.17253624 -0.0060788956 -0.015118968
000070 b1 f9 2b be 82 30 48 bd 27 71 eb bd b0 96 49 3d
       -0.16794468 -0.048874386 -0.114961915 0.049215972
000080 7c 55 15 be b4 fc f6 bb 29 9f 67 3d 3f d4 bf 3c
       -0.14583391 -0.007537449 0.05654827 0.023416637
000090 b2 7a 0b 3c 81 a9 1e bd 87 5c 2d 3d 88 b1 84 3d
       0.00851314 -0.03873587 0.04232457 0.06479174
0000a0 e5 62 93 bd 3d 9d 0f 3e 82 2d 05 be 9d 77 de bc
       -0.07196597 0.14024825 -0.13005641 -0.027156645
0000b0 8c 48 0f be 45 34 2d bd 1c 9e 38 3d f8 da 6d bd
       -0.13992518 -0.042286176 0.04507266 -0.058070153
0000c0 72 7c 13 be 02 47 1b 39 d4 82 82 bd ee 81 26 3d
       -0.14402941 0.00014808404 -0.0637261 0.040651254
0000d0 43 89 00 be a0 9f df bd bb 53 d6 bc 2a 77 c9 3c
       -0.12552361 -0.10919118 -0.026162973 0.024592955
0000e0 2c c9 17 3d f8 4c f7 bd eb a1 09 3d 32 8d c6 3d
       0.037057087 -0.120752275 0.033601683 0.096948996
0000f0 1c 2c ed 3c aa 58 7c bd 7c 19 5d be b5 04 73 bd
       0.028951697 -0.061607994 -0.21591753 -0.05933066
000100 a0 30 fb 3c 31 ff e7 3b 5e 9b 92 bd 72 52 74 3d
       0.030662835 0.0070799817 -0.0715854 0.05964894
000110 76 40 ec bd ec 2b 2a 3d 0d f5 b9 3b 62 c8 3d 3d
       -0.115357324 0.041545793 0.0056749643 0.046333678
000120 8e fd 89 3d 2a 9d be 3c d7 94 2a be d6 0a dc 3c
       0.06737815 0.023268301 -0.1665834 0.026860636
000130 d1 f4 28 3e ae 01 dd 3c e5 16 32 be dc fe 87 bd
       0.1649964 0.02697834 -0.17391546 -0.066404074
000140 d2 a0 d4 bc e6 87 5e be 93 6e 4c be 3f e4 29 bd
       -0.025955591 -0.21731529 -0.19964056 -0.041477438
000150 5a 45 57 bc 57 20 0b 3e 62 6b 13 3d 14 7c 22 bd
       -0.013139093 0.13586555 0.03599108 -0.03966911
000160 04 05 3a be 14 e5 5e 3d 0e 13 5d bd b6 d2 f0 bd
       -0.18165976 0.054417685 -0.05397325 -0.1175894
000170 bf 95 e2 bd 8d ca 68 bd 96 57 da 3a 35 ba 2c be
       -0.11063718 -0.056833792 0.0016658183 -0.16867907
000180 ef 07 1a 3d 7f 4b 74 bd 55 81 bb bc 60 56 e3 bd
       0.037605222 -0.05964231 -0.022888819 -0.11100459
000190 8a 26 09 bb f4 40 83 39 57 a8 19 3b 4a 8a 4d bd
       -0.0020927512 0.0002503466 0.0023446286 -0.05018071
0001a0 20 4a a7 3c ef 32 db 3d 49 2e 22 3e 23 8f e1 bd
       0.020421088 0.10703074 0.15837969 -0.11013629
0001b0 75 6c 6b bc cf 33 18 bd 78 c0 00 bc 9b 88 d2 ba
       -0.01436912 -0.037158784 -0.007858388 -0.001606244
0001c0 07 c8 56 bd f3 71 04 bc 42 50 35 bb 94 79 30 be
       -0.052436855 -0.008083808 -0.0027666246 -0.17233878
0001d0 dd 10 23 be 18 cf 11 3c 17 c4 c7 3d 46 a8 fb 3b
       -0.15924402 0.008899473 0.09754198 0.007679972
0001e0 99 71 f9 3c 36 c8 cb bc e2 2f 7e bb 3f 07 2a bc
       0.030449675 -0.024875741 -0.0038785865 -0.010377704
0001f0 d2 04 16 be 8c c3 ce bc 1a dc b5 bc 06 10 cc bd
       -0.14650276 -0.025239728 -0.02219968 -0.09963994
000200 7d 08 0c 3e c1 e3 f2 bd 27 0e d2 3d 16 ea a3 bd
       0.13675113 -0.11859847 0.102566056 -0.08003633
000210 70 17 db bd ab cb 04 3d 40 ab 27 bc 95 08 4d 3d
       -0.1069783 0.032420795 -0.0102337 0.050057013
000220 43 7c ce 3d 51 39 8d bc 60 ce 59 3d a2 bd 9e bc
       0.10082295 -0.017239245 0.05317533 -0.019377533
000230 b1 09 2d 3e 09 49 c7 bd cc 81 d2 bc 26 78 07 be
       0.16898228 -0.09730727 -0.025696658 -0.13229427
000240 be 6b 0a 3e 23 96 5a 3d 58 fb 85 bd 05 ac b8 3b
       0.13517663 0.053365838 -0.06542081 0.0056357407
000250 ba 6f 29 bd 3f 00 bb bb 8b 74 6b bd 31 a4 3a bd
       -0.041366316 -0.0057068164 -0.05748419 -0.04556674
000260 e4 19 64 3d 42 be f3 3d fc 3e 8c 3d 69 18 94 bd
       0.055688754 0.11901523 0.06847951 -0.07231218
000270 95 a0 0d bc b7 fc bd bc 36 70 36 3e 80 f1 eb 3d
       -0.008644243 -0.023191793 0.17816243 0.11520672
000280 fe 18 fa 3c 21 ab 9b 3d 87 e1 f7 3c af f5 5c 3c
       0.030529495 0.076009996 0.030258907 0.01348631
000290 93 fe a3 3c 2a 94 74 bd af 8a 22 bd 52 8f 9a 3b
       0.020018851 -0.059711613 -0.03968304 0.004716792
0002a0 fc c4 41 bc f2 14 3f bd af d9 5b 3b ce ec 7c 3d
       -0.01182675 -0.046650834 0.0033546498 0.061749272
0002b0 a4 6b 23 3d 8f 17 ee 3d 05 4e 0a 3e 30 8a 25 bc
       0.039897576 0.11625587 0.13506325 -0.010103747
0002c0 4b d5 4a 3c 64 c1 bd bb 17 f4 0c 3d 5a a3 07 3d
       0.012379955 -0.005790876 0.03441247 0.03311477
0002d0 5f cd 99 bd a1 61 4d bb 15 ea e8 3c 89 d8 01 3d
       -0.075098746 -0.003133871 0.028431932 0.031700645
0002e0 cd bc 4c 3c 21 bd 29 3d ec 18 94 3d cd ed 6b 3c
       0.0124961855 0.041440133 0.07231316 0.014399958
0002f0 b3 27 10 bc 3e f0 24 3c 41 aa 10 bd 6a 43 20 3d
       -0.0087985275 0.010067044 -0.035318617 0.03912679
000300 38 6f a8 3c e2 3d 25 bd 2f 69 50 3d 93 ad 32 3d
       0.020560846 -0.04034222 0.05088156 0.043622565
000310 c3 a8 8b 3d 73 4e d5 bc 8b f2 4c bd ab 56 61 bd
       0.06819298 -0.026038384 -0.050035994 -0.055014294
000320 28 f9 97 bd 41 45 09 bd 05 c1 82 3c de 28 42 bd
       -0.0742057 -0.03351331 0.01596118 -0.047402255
000330 9b 5a b4 bd d7 54 3f be 08 8f 82 bd 34 14 b1 bc
       -0.08806344 -0.18684708 -0.06374937 -0.021616079
000340 7c 86 ac bd 7d ed fe bc 54 24 44 bd 67 1f 36 bc
       -0.08424088 -0.031119103 -0.047886208 -0.011115885
000350 20 91 d7 bd 68 9d 12 3e de 16 c5 3d 61 88 ae 3c
       -0.10525727 0.14317858 0.09623502 0.021305265
000360 cc 3f be 3d 3c 2e 91 bd 8f a1 ae 3d 85 f8 0a 3d
       0.09289512 -0.07088897 0.085269086 0.033928413
000370 77 b5 ae bd 77 00 34 3c 89 93 9b bd 46 fa 1e bd
       -0.085307054 0.010986439 -0.075964995 -0.038812898
000380 fb 33 46 3d f5 6c 55 3d af 16 c9 bd d1 1a 5f bd
       0.048389416 0.052105863 -0.0981878 -0.054468933
000390 f2 63 ae bd 3e d6 38 3d e4 7b 6b bc 65 a8 db bd
       -0.08515157 0.045126192 -0.0143728 -0.10725478
0003a0 a2 f5 4a bc 6a 02 df 3d 55 78 ca bd 0b 1c 1f bd
       -0.012387665 0.10889132 -0.09886233 -0.038845103
0003b0 5d 11 fe bd 6c b7 13 3c 7f ae ff 39 05 65 c1 3b
       -0.124056555 0.009015899 0.000487674 0.005901935
0003c0 5d d0 77 3d f1 88 47 3c 35 f5 ab bc 22 a0 ab bd
       0.060501445 0.0121786455 -0.020990947 -0.08380152
0003d0 eb 73 c6 bc 0b e7 bf 3d 5a 6a c1 bd 52 71 35 3d
       -0.024225196 0.0937024 -0.09444113 0.044297524
0003e0 d5 4e 46 bd e3 2d 19 be 4b 26 4b 3d fd f7 74 bd
       -0.048415024 -0.1495891 0.049597066 -0.059806813
0003f0 1f f1 9e bc 61 8a 17 3d 50 23 60 3d 92 e4 48 bb
       -0.019402085 0.036997203 0.054721177 -0.0030653817

network_body._body_endoder.seq_layers.4.bias f4 [256]
000000 b9 78 19 3c 03 c3 08 bd 34 43 9f bb 0d 99 2b bd
       0.009367161 -0.033389103 -0.004860306 -0.041894007
000010 7e e1 25 3b b1 25 c6 bc cd e7 57 bd 42 6e 9e bc
       0.0025311406 -0.024187895 -0.052711297 -0.019339684
000020 67 61 3f bd b7 20 04 bd 1b a9 2b bc d9 ae 0f bd
       -0.04672375 -0.03225776 -0.01047733 -0.035078857
000030 4a 21 23 39 e1 2f 48 bc e9 9a ae bc a6 37 95 bc
       0.00015557292 -0.0122184465 -0.021314101 -0.018215012
000040 f5 9c 11 bd 9e cf f5 bc 15 0a 1d bd 69 4f 4d 3b
       -0.035550077 -0.030006226 -0.038339693 0.003132785
000050 28 42 a5 bc 5b 93 2a ba c7 f5 23 3c 28 56 99 ba
       -0.020173147 -0.0006506943 0.010007328 -0.001169865
000060 72 90 00 bd 79 ff 31 bd 6e 21 b6 bb 0a 3f aa bc
       -0.031387754 -0.04345653 -0.0055581843 -0.020782012
000070 e0 3d 91 bc cc 8e ab bc e2 8b 9a bc d8 a6 0c bd
       -0.0177297 -0.020942114 -0.01886553 -0.034338802
000080 33 e8 b2 bc e3 ab 32 3c df b2 c7 bb bb 5e 46 bd
       -0.021839237 0.010905239 -0.006094321 -0.048430186
000090 60 ad 18 bb 4a 16 0a bd d8 8d 3a bc 11 73 8a bc
       -0.00232967 -0.033712663 -0.011386357 -0.016900571
0000a0 5c aa 39 bc be ab 9d bc dd e0 ac bc 36 2c 0d bd
       -0.011332121 -0.019246932 -0.021103317 -0.03446599
0000b0 6e f1 c1 bc aa 3d 19 bd f1 c1 12 bd 13 19 2b bd
       -0.023674693 -0.037412323 -0.03582949 -0.04177196
0000c0 a1 05 66 bd 5f eb 0f bb 45 1a d3 bc 86 f4 04 bd
       -0.056157712 -0.002196036 -0.025769362 -0.03245976
0000d0 59 01 d1 bc 86 1d 03 bc d6 68 5a 3c 6b 80 ed bb
       -0.025513338 -0.008002644 0.013330659 -0.0072479746
0000e0 9a 5d 47 bc d2 84 0f bd f5 60 60 bc de a4 ff 3b
       -0.012168312 -0.035038777 -0.013694991 0.007801636
0000f0 c6 05 08 bc 5f 75 e1 bc be b6 8f bc 60 2c 92 bc
       -0.008302158 -0.027521787 -0.017543193 -0.017843425
000100 8d c9 46 bd b6 12 a7 bc 7f af 1b bb 86 b0 c8 3b
       -0.048532058 -0.020394664 -0.0023755727 0.006124559
000110 74 53 52 bd 11 60 a0 bc 2a 71 b9 bc 03 d6 44 bd
       -0.05134912 -0.019577058 -0.022636969 -0.04805566
000120 21 b9 ff bc 20 2c 23 bd 03 48 26 bd 11 22 68 bb
       -0.031216206 -0.039837003 -0.04059602 -0.0035420696
000130 8c 04 43 bc c7 c5 28 bd 9c 51 13 bd 2a 89 19 bb
       -0.0119029395 -0.04120424 -0.0359665 -0.0023427703
000140 e1 5f 8b bc cf 69 11 bd db de c2 bc b0 b5 8f bc
       -0.017013492 -0.035501298 -0.023787906 -0.01754269
000150 d5 de d8 bc 63 c9 27 bd ae f9 f9 bb 99 87 c5 3c
       -0.026473442 -0.04096354 -0.007628641 0.02411251
000160 01 5e 90 bc 51 1f 51 bd 79 4a 25 bd 6f 4f 65 bd
       -0.01762295 -0.051055256 -0.040354226 -0.055983957
000170 61 aa d4 bc 6e 14 d7 bc 93 e8 92 bc a4 83 0f bd
       -0.02596015 -0.026254859 -0.017933166 -0.03503765
000180 7a e4 ce bc 6e e3 e6 bc 65 b1 bf bc c9 67 e4 bc
       -0.02525543 -0.028184619 -0.023400018 -0.02788152
000190 68 31 df bc 1b 3d 6b bd 69 fb e7 bc 7b b8 da bc
       -0.027245238 -0.05743132 -0.028318124 -0.026699295
0001a0 65 8b 7a bb 51 f6 0e bd a2 77 1c bd 0a 26 9a bc
       -0.0038230058 -0.034902874 -0.03820003 -0.018816967
0001b0 8d d3 5f bc 9c 31 a3 bc 1e 2f 30 bc f8 d3 05 bd
       -0.0136612775 -0.019921117 -0.010753421 -0.032672852
0001c0 9c 1e c1 bc 59 c8 81 bc 73 1f e6 bc 14 ca 95 bc
       -0.023574166 -0.015842604 -0.028091168 -0.018284835
0001d0 7b a6 94 bc 5f a0 a4 bb d1 2d 45 bd dd 9d 52 bc
       -0.01814579 -0.0050240005 -0.048139397 -0.01285502
0001e0 a7 13 04 bd 1d 1f 88 bc b5 0b 1e bd 45 ea d3 bc
       -0.032245304 -0.016616398 -0.038585383 -0.025868544
0001f0 f5 f5 43 bd 97 48 2f bb ae cf 09 bd 1c b9 11 bd
       -0.047841985 -0.0026746148 -0.033645324 -0.035576925
000200 21 2c 73 bc 52 39 39 bc d2 e7 5d bc 63 f1 68 bd
       -0.014842064 -0.01130517 -0.01354404 -0.05687083
000210 a4 37 b8 3c e2 ad 66 bc 24 aa 05 bd f0 c1 2e bd
       0.022487469 -0.014079543 -0.032632962 -0.042665422
000220 f7 77 a8 3c 51 49 75 bc eb 6a 94 bb 69 20 5b bd
       0.020565016 -0.014971093 -0.004529347 -0.053497706
000230 eb 6f c9 bc f2 4a 6d 3b f2 f4 b1 bb 61 b3 ec bc
       -0.0245895 0.0036208 -0.005430811 -0.028894128
000240 22 f0 2f bd 8a e1 d0 bb 51 e1 e0 bc d1 81 81 bb
       -0.042953618 -0.0063745426 -0.02745119 -0.003952243
000250 eb 00 99 bc bf 99 01 bd 7f 4e e5 bc c4 d7 eb 3b
       -0.018677196 -0.031640764 -0.027991531 0.007197352
000260 7f e2 e1 bb b8 87 ba bc 72 10 50 3b ea bf 0b 3b
       -0.0068934555 -0.022769794 0.0031748083 0.0021324106
000270 78 22 7d bb 1c f2 a5 bc ff 97 e0 bc 21 9c 8a bc
       -0.0038625281 -0.020257048 -0.027416227 -0.016920151
000280 6a 1a cb bc 39 7b cb bc 1a 99 32 bc 62 f1 0b bd
       -0.024792869 -0.02483903 -0.01090076 -0.034165747
000290 f2 55 41 bd b8 74 6e 36 46 65 83 3a 9c 4c 41 bd
       -0.047201104 3.5532703e-06 0.0010024689 -0.0471922
0002a0 fa f7 a6 3b 15 e8 a2 bc 8b 6b bf bc d2 32 84 3a
       0.005095479 -0.019886056 -0.02336671 0.0010085946
0002b0 47 70 02 bd 2c f4 db bc b5 25 1a bb 67 9b 43 bc
       -0.031845357 -0.026849829 -0.002352101 -0.011938906
0002c0 ec c4 eb bc 87 dd d0 bc 2e d5 84 bc 7a 19 1b bd
       -0.028780423 -0.025496257 -0.016214933 -0.037866093
0002d0 d7 11 b1 bb 55 5c 81 bc 3f 6c 0e bd 62 28 26 bd
       -0.005403738 -0.015791098 -0.0347712 -0.040565856
0002e0 72 4d 51 bd 58 68 10 bd 6a ca 36 bb d2 b5 99 bc
       -0.05109925 -0.03525576 -0.0027891644 -0.018763456
0002f0 eb 38 11 bd 1a c8 01 bd 63 81 80 bc c3 13 06 bd
       -0.03545467 -0.031684972 -0.015686696 -0.03273369
000300 b8 68 02 bd d1 71 61 bb 9e 3e dc bc f9 51 35 bc
       -0.03183815 -0.0034400115 -0.026885327 -0.011066907
000310 90 b9 f5 bc 5f 50 e7 bc 80 ab 72 bc d4 91 d7 bc
       -0.02999571 -0.028236566 -0.014811397 -0.026314653
000320 03 a7 10 bd ca 8d 76 3b 8d 92 21 bd 20 50 ae 3a
       -0.035315525 0.0037621134 -0.039446402 0.0013299026
000330 bd 26 2e bd d4 11 cd bb 23 2e 1b bd 0e 04 00 bd
       -0.042517412 -0.006258229 -0.037885796 -0.031253867
000340 5b a6 36 bd f1 47 52 bb 3a b3 ad bc 59 62 32 bc
       -0.044592243 -0.0032086337 -0.021203626 -0.010887706
000350 65 79 06 bc 46 a8 cd bc fc 10 e2 bc f0 a1 47 3b
       -0.008207654 -0.025104653 -0.02759599 0.0030461513
000360 19 18 06 3a 2e 5b c4 bc 24 0d 94 bc 55 5a a6 bc
       0.0005115285 -0.02396926 -0.018072672 -0.020306746
000370 82 0d 17 bd 7b ff 2e bd 61 04 02 bd 65 41 13 3c
       -0.036878116 -0.042724114 -0.031742457 0.008987759
000380 6b 16 45 bc 9c aa 24 bc 69 af b1 bc 65 aa ef bc
       -0.012029271 -0.010050442 -0.021690087 -0.029256055
000390 7a d4 01 bc e2 77 38 bb a4 b4 83 bc 37 b1 b8 bc
       -0.0079241935 -0.0028147628 -0.016077347 -0.02254544
0003a0 19 39 44 bc e3 18 a1 bc af 54 4d bc 2c 95 a4 bc
       -0.011976504 -0.019665187 -0.012532397 -0.020090662
0003b0 15 b1 9d bc 5d 6b 16 bc e9 49 a4 bc 70 b6 1e bd
       -0.019249478 -0.009180871 -0.020054774 -0.038748205
0003c0 24 1f c5 bc 70 d2 a1 bc 30 69 49 bd 45 8d 23 bd
       -0.0240627 -0.019753665 -0.04917258 -0.039929647
0003d0 b0 4e 1a bd 00 dc 2a bd 7f 37 e6 bb 2e fb 95 bc
       -0.0376727 -0.041713715 -0.0070256586 -0.018308248
0003e0 e7 4f 0b 3c 66 da 11 bd e6 96 af bc 6c 81 05 bc
       0.008502937 -0.03560867 -0.021434259 -0.008148532
0003f0 c4 1e f7 bb 4c bb 8d bc 36 35 0b bd 0b 58 ab bc
       -0.0075415093 -0.017301224 -0.033986293 -0.020916006
