Assets/Training/results/RUN1/SzitakotoBehavior/SzitakotoBehavior-2999969.onnx (onnx, 670607 bytes, 13 tensors)

65 f4 [132]
000000 c5 c8 9a 3e 84 8f 68 3e 06 9b c2 3e 1b 48 88 3e
       0.302313 0.22710997 0.38008898 0.26617512
000010 a3 c6 99 3e aa a6 66 3e 39 92 c1 3e 7e 1a 87 3e
       0.3003436 0.22524515 0.37806872 0.263874
000020 48 74 97 3e 71 6f 68 3e ae 70 c0 3e d0 1b 88 3e
       0.29580903 0.22698762 0.37585968 0.2658372
000030 c4 b5 94 3e 4e a2 60 3e 93 e4 bc 3e 46 dd 82 3e
       0.29044926 0.21936914 0.36893138 0.25559443
000040 98 66 96 3e 4e 83 67 3e b4 90 bf 3e 28 97 86 3e
       0.29375148 0.22608683 0.37415087 0.26287198
000050 03 a5 86 3e 48 34 54 3e bc d8 b0 3e c9 fe 74 3e
       0.2629777 0.20723069 0.34540355 0.23925318
000060 69 c6 98 3e e6 82 63 3e 5e 3d c0 3e 46 e5 82 3e
       0.29838875 0.22217903 0.3754682 0.25565547
000070 26 fd 58 3e fa f0 4b 3e 3a 58 9e 3e 3c 29 61 3e
       0.21190318 0.19916144 0.30926687 0.21988386
000080 d8 2d 97 3e bd e5 59 3e a0 17 bd 3e f3 6d 78 3e
       0.29527164 0.21279044 0.36932087 0.24260692
000090 04 d4 52 3e 6e 63 5e 3e 0d d0 a1 3e 0c 36 54 3e
       0.2058869 0.21717617 0.31604043 0.20723742
0000a0 18 9b 8a 3e 07 21 4f 3e 5f 5a b2 3e 00 bf 66 3e
       0.27071452 0.20227443 0.34834573 0.22533798
0000b0 fc 43 9b 3e 25 33 69 3e 1c 4b c0 3e c4 a7 83 3e
       0.30325305 0.22773416 0.37557304 0.25713933
0000c0 a0 41 9a 3e 32 51 67 3e 45 38 bf 3e 4f 6c 82 3e
       0.30128193 0.22589567 0.37347618 0.25473258
0000d0 7b e1 97 3e ec 12 69 3e f2 05 be 3e 24 74 83 3e
       0.29664215 0.22761124 0.3711391 0.25674546
0000e0 45 30 95 3e e6 4c 61 3e 29 63 ba 3e 2e d5 7b 3e
       0.2913839 0.2200199 0.36403778 0.2459304
0000f0 12 c5 96 3e 81 2d 68 3e 6b 12 bd 3e cc d9 81 3e
       0.29447228 0.22673608 0.36928114 0.25361478
000100 6f 17 87 3e dc d8 54 3e 28 df ad 3e f6 db 69 3e
       0.26385066 0.2078585 0.33959317 0.22837815
000110 6b 1f 99 3e e3 2d 64 3e 47 c4 bd 3e 90 ef 7b 3e
       0.29906783 0.2228313 0.3706381 0.24603105
000120 38 98 59 3e 77 a5 4c 3e 2c 98 9a 3e 33 67 54 3e
       0.21249473 0.19984995 0.30194223 0.20742492
000130 a5 86 97 3e d7 8f 5a 3e 70 85 ba 3e 66 aa 6d 3e
       0.29594913 0.21343933 0.3642993 0.23209533
000140 00 65 53 3e c3 49 5f 3e 13 40 9e 3e 15 69 46 3e
       0.20643997 0.21805482 0.3090826 0.19376023
000150 00 ed 8a 3e 6d c3 4f 3e 9a 5e af 3e 95 9c 5a 3e
       0.27133942 0.20289393 0.34251863 0.21348794
000160 eb bd 9b 3e 8d d5 69 3e 94 e8 bd 3e 78 90 7d 3e
       0.30418333 0.2283537 0.37091506 0.24762142
000170 0d c3 9a 3e ff f6 67 3e db ca bc 3e 18 f6 7a 3e
       0.30226937 0.22652815 0.36873516 0.2450794
000180 df 4a 98 3e bc b6 69 3e 93 84 bb 3e 96 18 7d 3e
       0.29744622 0.22823614 0.36624584 0.2471641
000190 b8 a6 95 3e f5 ef 61 3e 12 cd b7 3e d5 4f 71 3e
       0.2922876 0.22064193 0.35898644 0.2356561
0001a0 d9 24 97 3e 0b d2 68 3e 3e 83 ba 3e 6a b4 79 3e
       0.295203 0.22736375 0.36428255 0.24385229
0001b0 93 84 87 3e f1 7a 55 3e c4 d2 aa 3e 85 f3 5d 3e
       0.26468334 0.2084768 0.33363926 0.21674927
0001c0 d1 79 99 3e 3b d1 64 3e f4 36 bb 3e 2c 72 71 3e
       0.2997575 0.2234544 0.36565363 0.2357871
0001d0 6b 2a 5a 3e 81 53 4d 3e 05 a9 96 3e d6 93 46 3e
       0.21305244 0.20051385 0.29425827 0.19392332
0001e0 20 e1 97 3e 5e 33 5b 3e 41 d8 b7 3e 90 33 62 3e
       0.29663944 0.21406314 0.35907176 0.22089982
0001f0 24 f0 53 3e 60 34 60 3e d8 89 9a 3e 99 4f 37 3e
       0.20697075 0.2189498 0.3018329 0.17901458
000200 2b 41 8b 3e c5 61 50 3e a4 48 ac 3e 6d 91 4d 3e
       0.27198157 0.20349796 0.3364917 0.20075007

68 f4 [2]
000000 2e ac 3a 3e 31 64 9c 3e
       0.18229744 0.3054519

action_model._continuous_distribution.log_sigma f4 [1, 2]
000000 98 a9 86 bc fc 58 05 bb
       -0.01643829 -0.0020347228

action_model._continuous_distribution.mu.bias f4 [2]
000000 b7 68 f3 ba 5d 14 87 3b
       -0.0018570636 0.0041223005

action_model._continuous_distribution.mu.weight f4 [2, 256]
000000 d2 7c 6b 3c 51 ef e0 3b 09 8a 78 bc 27 0e 3d bd
       0.014373021 0.0068644662 -0.015169629 -0.046156075
000010 bf 64 cb bb 3a 0c a5 3b 9a c2 2a 3d f0 30 cb bc
       -0.006207078 0.005036858 0.041689493 -0.024803609
000020 d2 14 12 3c bc 5c ac 3b 76 13 af 3b bf 29 30 bc
       0.008916097 0.0052600782 0.005342896 -0.010752141
000030 64 8d cf bc d4 9f a6 3c 88 cc 15 3d 17 be b9 bc
       -0.025335975 0.020339884 0.03657201 -0.02267365
000040 98 76 c9 3c 55 93 36 bb e4 2e 0d bd a9 40 33 bd
       0.024592683 -0.0027858813 -0.034468547 -0.043762837
000050 9a cd 90 bb 66 1f 98 3c d4 20 e3 3c 0b 95 0a bc
       -0.004419041 0.01856966 0.027725615 -0.008458386
000060 58 05 86 bc 33 2d 9a bc a3 5f 35 3c a3 12 b4 bc
       -0.01635997 -0.01882038 0.011070165 -0.021981543
000070 b6 01 93 bc 65 94 b9 3b 17 ce 0d 3c 7e 54 ca 3c
       -0.017945152 0.005663442 0.008655093 0.024698492
000080 03 2e c8 3c 41 06 93 3b 4b 98 3f 3c cb d6 c6 bc
       0.024436003 0.0044868295 0.011694024 -0.024272343
000090 2f 66 28 bc a3 3d c1 3b 4c de d4 bc 6f 1c e0 3b
       -0.010278269 0.0058972402 -0.025984906 0.006839327
0000a0 d6 55 82 bb 8f 49 79 3c 02 fe c1 3c fa e5 cf ba
       -0.0039775176 0.015215292 0.02368069 -0.0015861385
0000b0 40 d8 5c bc 18 4b b7 3c 9f 92 eb 3b 9c fa ba bc
       -0.013479292 0.022374675 0.0071891095 -0.022824578
0000c0 6d 2c 8e bc c2 ec 7e bc 2a 5d 14 3c a9 3e b2 3b
       -0.017355168 -0.015559377 0.009055415 0.0054395986
0000d0 3e 64 82 bb ce fa 12 3c af d4 e4 bc 52 d0 82 3b
       -0.003979235 0.008970929 -0.027933447 0.003992119
0000e0 ec e9 5f 3b 29 89 9d 3c 68 0b 6b bc 67 b1 0e 3c
       0.0034166528 0.019230442 -0.014345981 0.008709288
0000f0 12 7d 80 bc eb c8 0d 3c ff ef 9e bc e1 48 d4 3c
       -0.015684638 0.00865386 -0.019401548 0.025913658
000100 d5 99 c3 bc a0 2e 82 bb af 56 1b bd 49 67 f7 3b
       -0.023877064 -0.0039728433 -0.037924465 0.0075501543
000110 bc eb 54 bc a8 3c 8a 3b 5f 0e 08 3d 97 4f 9d bb
       -0.012995657 0.0042186566 0.03321683 -0.0048007476
000120 6d 3d 47 3d 1e a4 3d 3c 93 e7 6a 3c 5a 9a 97 bc
       0.048642565 0.011574773 0.014337438 -0.018506218
000130 74 c4 d0 3c 0e 36 d6 3b e1 c9 ad 3c c7 2a a6 3c
       0.025484301 0.0065372055 0.021214427 0.02028407
000140 97 44 bb bc 8c 4d 16 bd c8 54 d1 ba 76 77 aa 3c
       -0.022859855 -0.03669505 -0.0015970701 0.020808917
000150 a4 0e 91 bc 92 bc ea bc 2c 23 9f bb 0d 82 92 3c
       -0.017707177 -0.02865437 -0.0048564877 0.017884279
000160 29 46 14 3c cb 9c 08 bc 9a 54 73 bc 88 4d 3f bb
       0.009049931 -0.008338164 -0.014851714 -0.00291905
000170 ad 4e 20 3c 6c 55 26 bc ef 52 07 bd 25 99 07 3b
       0.009784383 -0.010152202 -0.033038076 0.0020690646
000180 bf c9 e0 bc e6 8e 3e 3d 6b e8 c4 3b 32 a7 09 bd
       -0.02743995 0.046522997 0.0060091517 -0.033606716
000190 e4 d6 94 3c c8 f9 0e b9 a1 13 4f bc 7a 81 a4 3b
       0.018168874 -0.00013635226 -0.012638957 0.0050203176
0001a0 95 28 a3 bc 6b f2 65 3b a9 48 b7 bb 6b a7 ac 3c
       -0.019916812 0.003508712 -0.0055933786 0.021075925
0001b0 ce ff 0a 3d c8 2e 08 bc 68 44 86 bc 55 15 d1 3b
       0.03393536 -0.008311935 -0.01639004 0.006380717
0001c0 49 fd 3a 3d 4e ff 7d bc 94 e6 10 3b dd 08 31 3b
       0.045651708 -0.015502764 0.0022110092 0.002701334
0001d0 d3 86 62 3c a5 8e 83 3c bc 1d 33 bc 45 71 9f ba
       0.01382609 0.01605923 -0.010932382 -0.0012164494
0001e0 6b fb 9d 3c c8 70 8f 3c 66 99 19 bc b2 2f e1 bc
       0.019284924 0.017509833 -0.009374952 -0.027488563
0001f0 c2 d3 aa 3b 9a 27 81 3c 2d 1d 95 bc 18 45 ac 3b
       0.005213232 0.015765954 -0.018202389 0.00525726
000200 2c 00 e8 bc 19 41 86 bc dc b7 03 bc 1f 2c d5 bc
       -0.028320394 -0.016388463 -0.008039441 -0.026022015
000210 91 41 67 3c 74 1b 82 bc 1a 73 2b bb a8 38 cd 3b
       0.014114753 -0.015882231 -0.0026161135 0.0062628575
000220 f7 93 96 bb 87 29 9c bc 04 98 e7 38 f2 2d 6c bc
       -0.0045952755 -0.01906277 0.000110432535 -0.014415251
000230 65 34 71 3b b4 b4 88 bb 31 8b c2 bc b5 8e d1 bc
       0.0036804911 -0.004171932 -0.023748012 -0.025580743
000240 7f 88 89 3c 32 28 ec 3b be 5f e2 3c f8 23 f2 3c
       0.01678872 0.00720694 0.027633544 0.029558167
000250 4c f4 bc bb df 69 fa bc 27 01 1b bb d4 7d 81 bc
       -0.005766427 -0.030568061 -0.002365181 -0.01580707
000260 83 8e 05 bc 6d 4a 07 3c 4b f2 e4 3c ff 47 66 bc
       -0.008151653 0.008257491 0.027947566 -0.014055251
000270 2d fd 4f bb 53 1f e3 bc 67 22 89 bc 3a bc 1e 3c
       -0.0031736598 -0.027724897 -0.016740037 0.009688431
000280 52 38 7c 3c ed 68 ab 3a 32 cd a1 bb 5f c0 62 bc
       0.015394287 0.0013077535 -0.0049377913 -0.01383981
000290 2e 5a b9 bc ed 0a 89 bc 8a 3f 64 bc 28 ff e9 3b
       -0.022626009 -0.016728843 -0.0139311645 0.0071410127
0002a0 25 c4 1b bc e3 90 d7 3c 4d 96 db 3c ea 5e b7 3c
       -0.009507214 0.026314205 0.026805067 0.022384126
0002b0 ac fb cd 3b 4a 03 a2 bb e1 4a 72 bc 2b 94 26 bb
       0.006286105 -0.0049442397 -0.01478836 -0.0025417905
0002c0 e5 39 41 3a 91 1c 05 3d 06 71 39 ba 90 73 22 3c
       0.00073709927 0.032497946 -0.0007074032 0.009915248
0002d0 39 fd 4a bd 63 9c 76 bc b5 29 8c 3c cb cb 28 3c
       -0.0495579 -0.015051934 0.017109731 0.010302494
0002e0 67 2a d7 bc 90 c1 86 3b 73 11 0c bc 9e 3d 09 3b
       -0.026265336 0.00411243 -0.008549082 0.0020941268
0002f0 cf f2 04 ba 87 2d bb 3b 14 0e 88 bb 6b 70 d7 bc
       -0.00050715817 0.0057122144 -0.004152069 -0.026298722
000300 d9 38 f3 3c cc 8e 83 bc 00 9e c5 bb cb 84 f0 bc
       0.029690193 -0.016059302 -0.006030798 -0.029360196
000310 87 79 8b 3c 4f 11 91 3a a0 28 be 3c de 24 e4 bb
       0.017025722 0.001106778 0.02321273 -0.0069624027
000320 64 5d b7 bc ba b3 e3 bc 61 60 b7 bb a0 45 84 3c
       -0.0223834 -0.027795661 -0.005596206 0.016146481
000330 8a 4c 8c 3c 56 c3 d1 3b 50 0a 70 3c 51 3d 67 bc
       0.01712634 0.0064014597 0.014650896 -0.01411374
000340 87 8f cc 3c 07 8a 01 bc bd f6 81 3b 59 77 6c 3a
       0.024970783 -0.007906443 0.003966181 0.000902047
000350 f0 a1 9f bc 3b ff 7f 3b f0 63 61 bc 16 4d b5 bc
       -0.019486398 0.0039062041 -0.013756737 -0.022131484
000360 07 50 a2 bc 8f 68 32 3d d9 ef b6 3c bc 33 03 bb
       -0.01981355 0.043556746 0.022331165 -0.002001985
000370 85 70 11 bc df 0b 77 3c 55 90 27 bd a9 d1 97 bc
       -0.008876924 0.015078514 -0.04090913 -0.018532591
000380 55 b8 c6 ba d0 a0 06 bd 88 82 9f bc 5d b0 45 3c
       -0.0015161136 -0.032868207 -0.019471422 0.012065974
000390 74 fb 20 3c 05 bf 31 3c f8 4b ec 3b ec b9 14 bc
       0.009825576 0.010848765 0.0072112046 -0.00907753
0003a0 ce 74 a3 3c fa 68 5f 3b b7 40 33 3c 8c d8 af 3c
       0.019953158 0.003408967 0.010940722 0.021465562
0003b0 d3 46 fd bb b0 53 75 bb 4d 21 08 bd 9b e5 a6 bc
       -0.00772939 -0.0037433915 -0.033234883 -0.020373156
0003c0 d9 28 da bc 60 35 2a 3c 07 3a b4 bc 55 77 81 bb
       -0.026630806 0.010388702 -0.022000326 -0.003950993
0003d0 bd be e6 3b cf 9b 77 3c 5c 1e 6d 3c 3b e4 0e 3c
       0.0070417807 0.015112831 0.01447257 0.008721407
0003e0 04 28 13 3c 9f f9 1a 3d d0 ca 26 bd 93 76 a8 3c
       0.008981708 0.037835713 -0.04072076 0.020564353
0003f0 94 43 7b 3c 07 f7 a0 3c 88 97 9d bb 11 9b c9 3b
       0.015335936 0.019649042 -0.0048093237 0.0061525186

network_body._body_endoder.seq_layers.0.bias f4 [256]
000000 24 96 8b 3b d4 b0 09 3b 70 85 30 3c 65 74 bc 3c
       0.0042598415 0.0021009939 0.0107740015 0.02300472
000010 be 62 80 bc e9 63 da ba e4 e8 1a bc 9d a5 76 ba
       -0.015672084 -0.0016661856 -0.0094549395 -0.00094088336
000020 e0 91 72 3c f7 e2 37 3a dc a0 1e 3c 4c 38 14 3c
       0.014805287 0.00070147164 0.009681907 0.009046625
000030 46 4b a1 3c d2 be 01 3c ff 2a 41 3c 3e d6 92 3c
       0.019689213 0.00791903 0.011790036 0.017924424
000040 34 d6 f8 3b 3e 8c b6 3b 5f e8 e0 3b 14 08 ae 3b
       0.0075938944 0.0055709174 0.0068636383 0.0053110216
000050 eb 36 35 3c e7 b6 b1 b9 a8 b2 c7 bb 73 47 48 3b
       0.011060457 -0.00033896344 -0.0060942955 0.0030560165
000060 4f 38 39 bb 56 82 93 3b f4 e8 02 3c 41 bb be 3b
       -0.0028262322 0.0045016212 0.007990111 0.0058206622
000070 2a dd 49 ba 70 4e 79 3a b7 26 5c 3c 57 52 a1 3b
       -0.00077004975 0.0009510284 0.013436965 0.0049231458
000080 4f dd c0 3b f9 b9 0e 3c cd 06 a0 3b 48 ad 52 bc
       0.005885757 0.0087113315 0.004883623 -0.012858696
000090 8c 43 55 3b 3d eb 19 3a e8 52 73 3c 1d 0f 37 3b
       0.0032541482 0.000587154 0.014851309 0.0027932592
0000a0 8a 5b b8 bb 3b 2f 93 3c 02 52 4d bc e6 25 85 bb
       -0.0056261467 0.017966857 -0.012531759 -0.0040633557
0000b0 d0 a1 90 3b e6 38 96 3c 8b 06 cb b9 41 04 8d bb
       0.004413821 0.018337678 -0.00038724052 -0.0043034856
0000c0 79 ce bc b9 f2 eb ca 3b af d2 08 b9 90 cf d3 3b
       -0.00036011988 0.0061926777 -0.00013048456 0.0064639524
0000d0 55 f2 ff ba df 66 2a 3b 95 56 a7 bb 1d 15 43 39
       -0.0019527177 0.0026001257 -0.005106757 0.00018604514
0000e0 5f 78 14 3a 46 ff 52 3b 69 50 a0 3c b8 66 88 bb
       0.00056636886 0.0032195612 0.019569593 -0.0041626357
0000f0 21 5d 2c ba 3a 90 04 3c 9c f2 41 3c 62 52 00 3b
       -0.00065751566 0.008091027 0.011837628 0.0019580354
000100 ce dc 46 ba 1b 6c 02 bb bb 5e 7f 3b 08 ca 8a 3c
       -0.0007586003 -0.0019900862 0.0038966376 0.01694204
000110 e0 34 1c 39 b3 ea 24 3b 4b 5c fd 3a 8c 73 b1 3b
       0.00014897017 0.0025164306 0.0019329874 0.0054153856
000120 51 06 d9 3a c7 7f 49 bc 31 16 dd 3a 53 f7 81 bb
       0.0016557669 -0.012298531 0.0016867575 -0.003966251
000130 23 7a 86 39 3d 85 5a bb cb a0 ad 39 e2 f6 b0 3c
       0.0002564947 -0.0033343576 0.0003311693 0.021602098
000140 08 0c fe 3b a4 14 45 3c 35 66 11 bb 78 8b 0f bc
       0.007752899 0.012028847 -0.0022186164 -0.008761279
000150 ee 2c a6 ba 4c 90 01 3c fd 4a 12 3c b2 25 82 3c
       -0.0012678185 0.007907938 0.008929011 0.015887115
000160 2a 25 00 bc 93 5a 51 3b 75 27 e4 3b 8b 24 5c 3c
       -0.007821361 0.0031944856 0.0069627115 0.013436447
000170 f3 b9 e5 3a 0b 5f fd 3b d9 38 25 3b 11 ea 10 3b
       0.0017526731 0.0077322773 0.0025210886 0.002211217
000180 67 8c 5f 3b 88 56 cf 3b e2 fe 59 bc 71 02 6b 3c
       0.0034110786 0.006327454 -0.013305398 0.014343844
000190 25 b5 60 3b f5 0b 60 bc 88 f9 ec 3b ae be 17 bb
       0.0034287658 -0.013674726 0.007231895 -0.0023154425
0001a0 4f 8b a2 3b d3 fa 7b 3b 99 41 08 3c 7f 2f ca ba
       0.0049604545 0.0038449063 0.008316421 -0.0015425532
0001b0 c5 8f 3c 3a dc 76 eb 3a 32 e1 71 3b 98 56 66 bb
       0.0007193054 0.00179645 0.0036907909 -0.0035146829
0001c0 b8 97 b3 3c 9a 11 a1 3b ed a6 ff 3b 1b 12 53 3c
       0.021922931 0.0049154283 0.0078018815 0.012882735
0001d0 cf b9 d6 3a 9b bd 28 3b ad 42 11 3c 6e 98 53 3b
       0.001638228 0.002574778 0.008865994 0.00322869
0001e0 42 82 ca 3a c3 1b d7 ba dd 36 51 3b 5e 3f 5a 3a
       0.0015450197 -0.0016411472 0.003192357 0.00083254825
0001f0 fa c5 8c bb f8 ee 1e 3c f7 b8 31 bb 6f 7d 30 3c
       -0.0042960616 0.009700529 -0.0027118304 0.010772093
000200 df 4b 96 bb e9 c6 33 3c 9d c4 b8 3a 01 39 01 3c
       -0.0045866813 0.010972717 0.0014096681 0.007887126
000210 5f 83 2a 3c ef ff d4 3a f5 3e 19 3a e6 4b 3f 3c
       0.010407298 0.001625059 0.0005845868 0.01167581
000220 56 2d e4 3b e5 86 40 bb ce 09 96 3c 47 aa d7 3b
       0.0069634123 -0.0029377278 0.018315222 0.006581578
000230 cb 18 01 3b 99 7e 61 3b ed da 89 3b fc ff a2 3c
       0.0019698616 0.0034407733 0.004207006 0.019897453
000240 19 5c db 3b 9a df 06 bc 51 7c f2 3b bb 78 58 3b
       0.0066943285 -0.008232022 0.0074000736 0.0033030945
000250 42 18 62 bb 2e 3c e3 3a d2 0c 0d 3b d2 be 6e 3b
       -0.0034499322 0.001733666 0.0021522534 0.0036429656
000260 eb fa 24 bb 85 78 9c 3b ae 18 11 3c a5 6c 82 3c
       -0.0025173973 0.0047751092 0.008855982 0.015920946
000270 a7 85 f1 bb 1b aa 9c 3b a9 27 3c 3c b2 40 af 3b
       -0.007370669 0.0047810203 0.011484065 0.0053482885
000280 a7 82 80 3b aa e0 bc bb 47 f2 ec 3a 14 d8 b3 ba
       0.003921825 -0.0057640867 0.0018077575 -0.0013721013
000290 27 11 37 3c 0c 5b aa bb 88 45 6e bc 3e 6d 19 3c
       0.011173523 -0.005198842 -0.014542945 0.009364424
0002a0 75 dd 96 3c bf 46 f8 3b a9 e1 d7 3a 9c 77 ff 3b
       0.018416146 0.007576793 0.001647045 0.007796241
0002b0 9b f9 a6 bb 24 68 15 3c ee 38 93 3a f2 b9 da 3b
       -0.0050956733 0.009119067 0.0011232176 0.0066749984
0002c0 7c 23 4b 3b bd 5d b9 bb c4 d7 2a b9 bd e7 19 3c
       0.0030996492 -0.0056569264 -0.00016292842 0.00939363
0002d0 df f3 31 bb c4 4f 71 3b 85 10 25 3c 08 b4 a5 3b
       -0.0027153415 0.0036821226 0.010074739 0.005056862
0002e0 3c b4 bf 39 c3 a3 d0 b9 dd 28 66 3b e5 c2 e6 39
       0.00036564644 -0.00039794864 0.0035119571 0.00044014226
0002f0 33 f7 85 3b b9 b6 2d 3c 3d 5f 1f 3c cf d2 0f 3c
       0.0040883063 0.0106026465 0.009727296 0.008778288
000300 58 5b ac 3a 46 6e 9f 3b 7f 98 82 bb f5 54 7c 3c
       0.0013149781 0.0048654405 -0.003985464 0.015401115
000310 13 8e 51 3b a2 0d 5d 3b 3b 12 cf ba 24 0b 92 3b
       0.0031975552 0.003373005 -0.001579828 0.0044568945
000320 ff 41 32 ba 7f 0c a7 3b 01 c2 f6 3b be 55 a4 3b
       -0.00067999953 0.005097925 0.0075304513 0.005015104
000330 86 d3 cf bb aa 9d f1 bb 0b 43 6c 3b 86 59 d0 3b
       -0.006342354 -0.0073735313 0.0036050703 0.0063583283
000340 cb 88 b2 3c 6e b0 ac bb 81 37 ea 3b 80 17 92 bb
       0.021793744 -0.0052700555 0.00714773 -0.004458368
000350 f4 f8 93 b9 36 40 8f 3b 6a c9 27 3a dc b0 b3 3b
       -0.0002822351 0.004371668 0.00064005575 0.0054837298
000360 33 d6 d6 ba c5 b6 14 bb 71 0b a0 3c ca f9 d3 ba
       -0.0016390741 -0.0022691947 0.019536706 -0.0016172465
000370 d8 f3 0d 3c c1 63 84 bb 6c a4 f1 3a 39 9a e5 3b
       0.008664094 -0.004040212 0.0018435842 0.00700691
000380 66 ad 4f 3c fd 06 86 3b 71 99 93 bb 08 ad db 3b
       0.012675619 0.0040901885 -0.0045043756 0.0067039765
000390 c6 9f 56 3c bd a3 e9 ba a7 71 83 3c 9f 6e 11 3c
       0.013099616 -0.0017825287 0.016045405 0.008876472
0003a0 3d a4 7f 3b 88 15 b9 39 9a 91 7b 3c fa 95 5c 3c
       0.0039007806 0.00035301992 0.015354538 0.013463492
0003b0 11 38 bf 3c 79 55 87 3b 37 30 00 bb aa 14 15 bb
       0.023342164 0.004130062 -0.0019559988 -0.0022747912
0003c0 5d b8 e2 3a ec 27 e0 3b ae dd 18 3a 94 1c 0c 3c
       0.0017297376 0.0068406966 0.00058313727 0.008551735
0003d0 c3 9e ac ba f6 2d 8b 3b d8 56 e4 3b 9a 3e 0b 3c
       -0.0013169873 0.0042474223 0.0069683604 0.008498812
0003e0 cd 70 38 3b 72 41 85 3c 17 5d d4 ba ed 75 1c bb
       0.0028143406 0.016266558 -0.0016202059 -0.0023874
0003f0 00 f3 da bb c5 2e b2 3b 23 f6 ec bb 06 8e 6c 3b
       -0.0066818 0.0054377043 -0.00723149 0.0036095395

network_body._body_endoder.seq_layers.0.weight f4 [256, 134]
000000 2d f1 6f 3d 27 5b 0e be f3 d3 dc bc e4 89 89 3c
       0.058579613 -0.1390196 -0.026956534 0.016789384
000010 ea 2d e6 3c d6 b2 63 3b 17 c9 d8 3d 77 ad 15 bd
       0.028098065 0.0034744046 0.1058523 -0.036542382
000020 43 48 7a bc 43 fd d5 3d df 6c 94 3c c7 76 d3 bb
       -0.015276018 0.104486965 0.01811832 -0.0064533683
000030 e4 5a 0e 3e 79 62 87 3d 33 bc 90 3d 81 12 0e 3e
       0.1390186 0.06610579 0.07067146 0.13874246
000040 79 a9 e6 3b d5 32 1d 3b 33 be 84 3d 06 17 f5 bc
       0.0070392457 0.0023986597 0.0648159 -0.029918205
000050 5d da fb 3d 30 f1 04 bd 6e 9a a9 3d 58 de 43 bc
       0.12297509 -0.032456577 0.08281408 -0.011954866
000060 ff 2a e0 3d 03 65 28 bd 8d fe 0c bd c5 c2 85 bd
       0.10945701 -0.041111957 -0.034422446 -0.0653129
000070 5a 16 f1 3d f4 06 8b bd 9b 36 48 bd 35 d2 83 bc
       0.11771841 -0.067884356 -0.0488802 -0.016091445
000080 d8 24 c7 3d a5 82 48 bd 87 a7 8a 3d 2e 5b 26 bc
       0.09723824 -0.048952717 0.067702346 -0.010153575
000090 c9 bf 00 3d 78 e5 a8 bd 18 0f 2f bd fe 14 3d 3d
       0.0314329 -0.08246893 -0.042739004 0.046162598
0000a0 02 86 e8 bd a9 14 66 bc 2a 6d f2 3c 80 38 ef 3d
       -0.11353685 -0.014043012 0.02959307 0.116806984
0000b0 c4 4b ae bd ea 66 81 3d e4 12 fc bc d3 0a 0a 3e
       -0.08510545 0.063184574 -0.030770727 0.13480692
0000c0 75 e8 21 3c 05 78 cf 3d 83 a9 00 be 59 47 db 3d
       0.009882082 0.10130314 -0.12564664 0.10706968
0000d0 c0 a9 b6 bd 68 c0 e2 3d ca 28 d1 bd 38 11 dc bd
       -0.08919096 0.11071855 -0.10212858 -0.10745472
0000e0 bf a2 ad 3d 77 5a b4 bd bf f5 89 bd 99 2f 92 3c
       0.08478307 -0.08806317 -0.067363255 0.017844962
0000f0 b9 51 84 bd 87 87 49 bd 75 88 11 be a8 98 41 be
       -0.064609 -0.049201515 -0.1421221 -0.1890589
000100 f9 3b c7 3c f4 1a 1f 3d 4a c2 0e 3d 5a 3c 4c 3e
       0.02432059 0.038844064 0.034853257 0.19944897
000110 42 b8 e8 ba 31 38 2b 3c fb 26 06 3e 79 c8 b2 3c
       -0.0017755108 0.010450409 0.13100807 0.021824108
000120 25 2c a0 bb 63 55 8f 3c d3 ac 77 be d6 03 8a 3c
       -0.004888075 0.01749677 -0.24187021 0.016847532
000130 b0 6d 72 3d be 4b ee bc 3b 54 bd 3d 64 c4 82 3d
       0.059186637 -0.029088851 0.09244581 0.06385115
000140 d8 27 91 3d 58 b9 27 bd 2b 33 94 bd 44 07 b3 ba
       0.07087678 -0.040948242 -0.07236322 -0.0013658782
000150 a3 7e 17 3e 3a 99 82 3d c2 a2 46 bc f3 58 45 bd
       0.14794402 0.06376882 -0.012123765 -0.04818053
000160 b3 9e 56 3c ea 76 ed bd e1 d0 37 bd 26 85 9a 3d
       0.01309936 -0.11594947 -0.044876937 0.07544927
000170 37 4c ba 3d 19 cb 26 3c 1a 96 75 bb 27 3d 85 3c
       0.09096568 0.010180258 -0.00374735 0.016264511
000180 8a 58 88 bd 2c 92 ce bd b0 c7 46 3d ec cf e0 ba
       -0.066575125 -0.10086474 0.04853028 -0.0017151809
000190 e6 6e 77 bd 42 53 d4 3d 4f 97 c9 bd 8e f0 d6 bd
       -0.060408495 0.10367443 -0.09843313 -0.10495101
0001a0 94 54 08 3e e9 00 54 3d fd 27 77 bb df b3 3a 3e
       0.13313514 0.05175868 -0.0037713044 0.18232678
0001b0 c5 da 02 3e 26 fe ea 3d 09 1f 57 3d ae a6 15 be
       0.12778766 0.11474256 0.05251983 -0.14614365
0001c0 7a e0 c7 3c 36 7a 92 3c 70 03 43 3d a9 48 b8 3d
       0.024399031 0.01788054 0.0476107 0.08998234
0001d0 32 5b cf bd c0 c6 ed bc ce 96 c7 b8 cb 86 a5 3d
       -0.10124816 -0.029025435 -9.517149e-05 0.0808235
0001e0 0f b1 5d bd cb d1 51 3d 97 3f 21 3d 0d a4 29 3e
       -0.054123934 0.051225465 0.039367285 0.16566487
0001f0 13 a6 bb 3c 0d 0a f3 3d ed a1 92 bc e4 ca be 3d
       0.022906339 0.118671514 -0.017899478 0.09316042
000200 b2 12 81 3d b2 88 65 bc 1a 85 7c bd 20 01 27 3d
       0.06302394 -0.0140096415 -0.061650373 0.040772557
000210 c0 e3 fb bd 47 8c 20 bd f7 f7 97 bc 93 4f b6 3c
       -0.12299299 -0.03919628 -0.018550856 0.02225474
000220 60 52 c9 bd 04 ea 3c 3e 9e ee 1f bd e8 91 77 bd
       -0.09830165 0.18448645 -0.039045922 -0.06044188
000230 44 a0 4f bc 3a 3f 2f be 9c 24 a8 3a 11 c6 e8 3d
       -0.012672488 -0.17113963 0.0012828293 0.11365903
000240 6d 86 17 bc 3c dc 79 bb f0 19 4d 3d 06 f1 3f be
       -0.009248358 -0.0038125655 0.050073564 -0.18744287
000250 d0 90 27 bd 98 7b d3 bc a8 e5 b8 3d b8 b1 b4 bb
       -0.04090959 -0.02581577 0.090281785 -0.00551435
000260 f5 95 8c 3d 55 2a c6 bd ef 38 14 3d 95 6a 69 bd
       0.068645395 -0.09676043 0.03618711 -0.05698641
000270 e3 5a af bd a1 b8 b8 bd b2 69 1c 3c 75 f6 b1 bd
       -0.08562257 -0.0901959 0.009546684 -0.08689586
000280 bf 2c b8 ba f6 50 63 bd 42 56 7e 3d 79 2b 0a be
       -0.0014051421 -0.055497132 0.06209398 -0.13493146
000290 8f 29 73 bd 93 1e 1a 3d 2a 91 59 bd cd 6c 90 3d
       -0.059365805 0.037626814 -0.053116955 0.07052002
0002a0 4f 38 a5 bd 6e f1 42 3d 35 7f 3b bd 25 ca 6a bc
       -0.08067381 0.047593527 -0.04577561 -0.014330422
0002b0 84 46 3e be 10 95 75 3c 25 3d 9f bc 53 99 99 3b
       -0.18581587 0.014989153 -0.019438336 0.004687467
0002c0 68 cf ef 3d dd 27 95 3d d6 bc 95 bb 01 d1 14 be
       0.117094815 0.07282994 -0.00456963 -0.14532854
0002d0 04 8b 13 3d 0a 82 1b 3d e0 37 70 bd 5e fb a0 bd
       0.036021248 0.03796581 -0.058647037 -0.078604445
0002e0 5c c4 cf bd 48 22 1a be 4e 8b 29 3e 91 74 00 3d
       -0.101448745 -0.1505214 0.16557047 0.031361166
0002f0 1b f4 4f 3c 8e 83 11 be e6 e1 82 bc 37 59 cd bc
       0.012692477 -0.1421034 -0.015976857 -0.025066955
000300 28 38 04 bd 50 96 28 bd e5 6a 51 bd ba e1 8e 3d
       -0.032280117 -0.041158974 -0.051127333 0.06976648
000310 07 dc 72 bd 44 0c 14 3d 07 3e f8 3d d7 96 68 bd
       -0.059291866 0.03614451 0.12121206 -0.056784477
000320 fb 38 02 bd 12 7e b5 3d 76 e6 63 3b b1 85 1a bd
       -0.031792622 0.08861937 0.0034774817 -0.037725154
000330 fc 63 70 3e 34 03 ab 3c d1 5a ce 3d c9 4f a1 3d
       0.23475641 0.02087555 0.100759156 0.07876546
000340 a3 b9 cc 3d 7a ae 97 bd d0 ae 31 3d 28 ce 19 bd
       0.09996345 -0.07406326 0.043379605 -0.03755012
000350 0f ca 9e 3c fe f5 21 3d 39 ea 3f bd a8 75 f9 3c
       0.019383458 0.039541237 -0.04685423 0.03045161
000360 f4 d9 29 bd ea 9a 87 bc 20 d1 ff 3c 32 e4 5b 3d
       -0.041467622 -0.016553361 0.031227648 0.05368442
000370 56 37 a2 3d d7 2a a4 bd b6 cf 15 be 7c 6b 5a bd
       0.07920711 -0.080159836 -0.14630017 -0.05332516
000380 ea 6e 48 3e 88 79 b7 3d 75 ce dc bc 51 fd 1f bd
       0.1957356 0.08958727 -0.026953915 -0.03905994
000390 0b b6 dd bb 8a a2 96 bd 66 6b e3 3c 3f d0 de bc
       -0.006766086 -0.073552206 0.027761173 -0.027198909
0003a0 9f 50 0a 3c 1e fa 6a 3c d8 56 fa bc 8a 04 72 3e
       0.008442073 0.014341859 -0.030558988 0.23634544
0003b0 4b c5 32 be 07 35 11 bc 13 b4 4a 3d db 37 e2 bc
       -0.17458074 -0.00886274 0.04948814 -0.027614525
0003c0 4d 59 eb 3d 45 b8 92 3d 0d 84 a6 bc c6 ea db 3d
       0.11491642 0.07164053 -0.020326639 0.10738139
0003d0 29 1a 8f 3d 45 87 61 bd ed 60 c5 3d ea f2 83 3c
       0.069874115 -0.055060644 0.09637628 0.016107041
0003e0 95 b9 0d be 23 27 e5 bc 42 d9 a4 bd 15 0a 02 3e
       -0.13840325 -0.027972763 -0.08049251 0.12699158
0003f0 f7 c0 be 3c ca 99 a8 3d 60 88 8f bc b9 78 06 3d
       0.023285372 0.08232458 -0.017521083 0.032829974

network_body._body_endoder.seq_layers.2.bias f4 [256]
000000 40 78 98 3b ff e3 24 3c 93 cc e8 3b 0c 37 73 3b
       0.004653007 0.010064124 0.0071044653 0.0037111668
000010 57 61 3b 3c 02 e6 16 3b 50 bd 4c ba 42 fc 40 3b
       0.011436782 0.002302528 -0.0007810192 0.0029447232
000020 a0 ff 83 bb 83 2c 5d bb c5 0d b0 3b 6a 5b 0d 3c
       -0.0040282756 -0.0033748455 0.005372735 0.008627752
000030 c9 fb 7f 3b 15 a5 50 bb 55 2d ed 3b 2e 18 f9 3b
       0.0039059988 -0.0031836678 0.00723807 0.0076017594
000040 d4 3a 96 3b ab 0c f0 37 2e 13 fc ba 85 aa fa 3b
       0.0045846496 2.8616128e-05 -0.001923179 0.007649722
000050 55 4b 84 3b e0 2c 85 bb db 54 3a 3c ba f9 42 3b
       0.0040373006 -0.0040641874 0.01137277 0.00297509
000060 21 e7 a4 ba fe 7e 4e 3b 31 66 74 3b d3 75 49 38
       -0.0012581089 0.0031508799 0.0037292356 4.8031867e-05
000070 83 84 08 3c ca 4a dc 3a 8a 04 72 3b 17 6d c5 bb
       0.0083323745 0.0016806957 0.0036928975 -0.0060249674
000080 69 59 08 3c bc 8e a4 3b 5c ac c1 ba 07 fa 8e 3a
       0.008322098 0.005021898 -0.0014776099 0.0010908254
000090 e3 76 b4 3b 28 eb 30 3b f1 61 25 3c 72 bd a4 3b
       0.0055073365 0.0026995633 0.010094152 0.0050274665
0000a0 39 ea bd 3b 93 00 85 3b e9 5c af 3b 42 f2 d7 3a
       0.005795744 0.0040589063 0.005351652 0.0016475397
0000b0 cb af 70 ba 8f 56 1b 37 6a 82 26 3b fc 7c 85 3b
       -0.00091814686 9.258873e-06 0.0025407323 0.004073737
0000c0 7a f0 c4 3a c1 3c 11 3c 06 8b 78 ba ea e9 a4 3a
       0.0015025281 0.0088645825 -0.00094811653 0.0012581919
0000d0 98 1b 68 3a 34 33 f2 b9 52 d3 bc 3b 85 b8 02 bb
       0.00088542094 -0.00046195986 0.005762496 -0.0019946408
0000e0 e2 f9 25 3b da ae 7e ba 0b 81 52 3c d3 a5 7c 3b
       0.0025325944 -0.0009715386 0.012848149 0.0038550987
0000f0 06 1a dc bb f2 2e 70 ba 02 0b 55 3a da b5 c0 3a
       -0.0067169694 -0.0009162269 0.00081269455 0.0014702633
000100 29 8a 56 bc ce e3 c6 3a 6b 46 af 3b 57 a6 2d ba
       -0.013094463 0.0015174092 0.0053489706 -0.0006624213
000110 62 3c 9e bb 77 43 a9 3b 75 93 76 b9 c9 a6 9b 3b
       -0.0048289755 0.005165513 -0.0002351532 0.004750107
000120 23 56 94 bb 6f a2 b1 ba 4f 3b a8 3b 1a fa e6 3a
       -0.00452687 -0.0013552437 0.0051340233 0.0017622143
000130 d9 85 53 3c 5a 86 d7 3b ea f8 14 3c a5 64 39 3c
       0.01291033 0.0065772953 0.009092549 0.011315499
000140 a4 f6 0c 3c 31 42 9a bb 6c a5 82 ba b6 a6 13 3c
       0.008603726 -0.0047075977 -0.0009967512 0.009011915
000150 34 51 9f 3a f2 60 95 3b 1e 81 45 bb 2e b1 a3 bb
       0.0012154938 0.004558676 -0.0030136774 -0.0049954867
000160 3d d8 cf 3b d3 f8 2e 3b 66 6c 7e 3b b7 23 a7 3b
       0.0063429163 0.0026698604 0.0038821935 0.005100693
000170 e5 f9 c1 3b f3 27 10 3c 0a a6 94 3a 5a 0f 3f bb
       0.0059196823 0.008798587 0.0011340987 -0.0029153437
000180 ef b5 05 ba 57 40 20 bb 87 ec 6f 3a af 79 19 3a
       -0.00051006576 -0.0024452412 0.0009152372 0.0005854619
000190 59 4c 87 bb bf cc 2d bb db 16 e1 3b 65 86 72 39
       -0.0041289744 -0.0026519743 0.0068691797 0.00023128984
0001a0 bf 6d df 3b da 1b 58 3c 92 43 bb bb 41 81 3f 3c
       0.0068185027 0.013190234 -0.005714842 0.011688531
0001b0 fc 21 6e 3b 86 98 b2 3a de c5 be 3b b9 4e 52 3c
       0.0036336174 0.0013625778 0.0058219275 0.012836152
0001c0 db 82 c9 3a 6a 5b 4d 3a f2 ca 20 3c 14 b2 ad 3c
       0.0015374081 0.0007833751 0.009814011 0.021203078
0001d0 eb e8 ec 3b 82 eb 75 3a af 0c 9b ba 6b 19 b6 3b
       0.0072299144 0.00093811017 -0.0011829342 0.0055572293
0001e0 4f 3b 40 3c 08 db 31 bb 64 88 17 3c c1 61 52 3a
       0.01173289 -0.002713861 0.009248827 0.0008025431
0001f0 d1 56 8a 3c 34 01 af 3a eb 94 3c 3b 99 13 b0 bb
       0.0168871 0.0013351799 0.0028775285 -0.00537343
000200 8f e9 97 3b bc 85 23 3b e3 bd c1 3b 32 ae d7 b7
       0.0046359967 0.0024951538 0.005912529 -2.5711113e-05
000210 6f 03 aa ba d6 4b 71 3b c6 63 30 b8 ee 9d 39 3c
       -0.0012970994 0.0036818883 -4.205459e-05 0.011329157
000220 b5 73 c9 3b 04 4c 9d bb 1a f2 55 3b 7c a7 ba 3a
       0.0061478266 -0.0048003215 0.0032645524 0.0014240588
000230 83 00 db ba bd a7 5b bb fb 49 1a bc 98 3f 05 bb
       -0.0016708527 -0.0033516728 -0.009417052 -0.0020332094
000240 b2 9e 4f 3a 04 b0 b0 39 c3 c8 a9 3b 20 68 8c 39
       0.0007920071 0.00033700478 0.0051814034 0.0002678046
000250 bf 51 49 3c 2f 31 b6 3b 08 c6 2b 3b 75 9e 88 3b
       0.012287556 0.0055600624 0.0026210565 0.00416928
000260 4f 79 2f 3c e6 82 98 bb ed 12 97 3b 81 39 97 3b
       0.010710075 -0.004654276 0.0046104104 0.0046150093
000270 01 af 94 3c 55 6f 2b 3b 35 38 d4 3b 82 aa bf 3b
       0.018149855 0.0026158888 0.006476427 0.0058491835
000280 a4 b2 0f bc 27 9d 96 3b 01 7e 9a 3a bf 64 69 3b
       -0.008770619 0.0045963707 0.001178682 0.0035613028
000290 4d 6b e9 3b 97 de ce 3b b2 67 99 ba 6a fd c1 3b
       0.007123387 0.006313156 -0.0011703877 0.005920102
0002a0 58 63 0c 3c 2d 5c 5f 3c dc 5c 9b 3b 7e 06 00 bc
       0.008568607 0.013632816 0.0047412943 -0.007814048
0002b0 c3 42 7a 3c 83 84 91 3b b0 01 39 bb 02 c5 2e bb
       0.015274706 0.0044408455 -0.0028229766 -0.0026667719
0002c0 52 0c 58 b9 52 2e e6 bb 7f f4 4b ba 6f d7 88 3b
       -0.00020603955 -0.007024565 -0.0007780268 0.0041760723
0002d0 3f 12 e7 3b 12 a1 89 3b 6f f3 90 bb 34 0b 92 3a
       0.0070517357 0.0042001093 -0.004423551 0.0011142255
0002e0 31 09 95 3b 9f 78 71 3b 60 5e 8e 3a 96 f8 25 bc
       0.004548215 0.0036845577 0.0010861866 -0.010130068
0002f0 93 9b 95 3b 84 fc 4f 3c e0 39 76 3c 67 b4 79 3a
       0.004565665 0.012694482 0.015028447 0.0009525478
000300 fc 75 1d bc 54 cf cc bb 7c fd 90 3a 77 35 09 3c
       -0.009610649 -0.0062503014 0.0011061872 0.008374563
000310 ab 2a 9a 39 06 b9 59 3b 13 64 a6 b9 e9 74 ec ba
       0.0002940496 0.0033221855 -0.00031736548 -0.0018040213
000320 b7 e2 13 bb dd ac d0 3b 0b 3d d1 bb c2 06 70 bb
       -0.0022565552 0.006368263 -0.0063854507 -0.0036625122
000330 6f 52 0c ba 7b eb 86 3a 82 2e 0c bc ce 29 05 bc
       -0.000535286 0.0010293567 -0.00855601 -0.008127643
000340 a3 d0 cf 3a e0 30 d3 bb 46 ea 03 3c 0d b4 fd 3a
       0.0015855025 -0.0064450353 0.008051461 0.0019356027
000350 4e 3d 71 3a d8 4d c1 3b c9 c7 f3 39 54 81 0d 3c
       0.00092025555 0.0058991723 0.00046497423 0.008636791
000360 1b 4e af 3a 27 d4 3f 3c a7 96 fa 3a b0 1c c5 b9
       0.0013374718 0.011708296 0.0019118384 -0.00037596142
000370 fd 35 2a 3b b9 ab 62 bb e8 08 0f bc ba 26 ac 3b
       0.002597212 -0.0034587218 -0.008730151 0.00525364
000380 29 7b be 3b a6 2a f0 ba f4 cc 4b 3c 7b 5f cf 3a
       0.0058130217 -0.0018323257 0.012439001 0.0015821302
000390 15 38 cc 3a d4 55 3d 3b fd 01 7b 3c 97 19 ce 39
       0.0015580679 0.002889027 0.015320298 0.00039310448
0003a0 6b 2c 6d 3b 84 7b 3b 3b ec e1 2d 3c 92 a0 94 ba
       0.0036189805 0.0028607557 0.010612946 -0.0011339358
0003b0 fe 92 77 3c 64 6a 4d 39 14 7b bd 3b 47 d3 57 ba
       0.015110729 0.00019589957 0.0057824943 -0.0008233082
0003c0 49 a9 bc ba d6 0d 2a 3c 64 ff 64 ba e9 98 83 3b
       -0.0014393713 0.010379275 -0.0008735566 0.004016031
0003d0 66 7c c8 3a 33 fe 49 3c df 64 0f 3a 69 1d 3f 3c
       0.0015295863 0.012328672 0.0005470048 0.011664727
0003e0 99 18 d3 3b 5c ba 41 3b 0f 88 08 bc 39 c7 1f bc
       0.0064421413 0.0029560542 -0.00833322 -0.009752088
0003f0 66 9a 81 ba 32 8a 3a 3b c0 74 7e 3a e6 7e ab 3b
       -0.0009887933 0.0028463718 0.0009706728 0.0052336333

network_body._body_endoder.seq_layers.2.weight f4 [256, 256]
000000 82 df dd bd 74 af 52 3d 93 39 49 3d a5 5b 88 3b
       -0.10833646 0.051436856 0.049127173 0.0041613155
000010 d2 7a d6 bc 7a 8e 82 3c cf f9 f4 b9 e9 d3 ca 3c
       -0.026181612 0.015937079 -0.0004672543 0.02475925
000020 90 aa 45 3d 9e 84 2a bd 64 e8 43 bc 2e c0 13 3c
       0.048258364 -0.04163038 -0.011957262 0.009017987
000030 78 b4 7f bd 0a ee 78 bd ee a9 63 3d 9b 27 7b 3d
       -0.062427968 -0.060773887 0.05558198 0.061317068
000040 77 6d ad bd 2f 86 db 3d d2 77 ad bd 97 94 0d bd
       -0.084681444 0.10718953 -0.084701195 -0.034565534
000050 f0 2f a0 bd 23 1c 57 3d fd ae e5 bc e9 87 bb bc
       -0.07821643 0.052517068 -0.028037542 -0.022891955
000060 97 17 d3 bd 6f e8 44 bd f4 fb 69 bd 16 47 25 be
       -0.10307234 -0.04807323 -0.057125047 -0.16140398
000070 cc 31 84 3d 94 5b 44 3d c1 88 90 3c 24 4d 38 3d
       0.064548105 0.0479389 0.017643334 0.044995442
000080 d0 48 fb bc d4 3a 79 3d 8c 7f 8f bd 4a 82 00 bd
       -0.030674368 0.06084712 -0.070067495 -0.031374253
000090 64 3c c5 3c bd 60 3c bd 8a fb 6c bd 95 87 42 3e
       0.024076648 -0.045990694 -0.057857074 0.18997033
0000a0 c5 37 b0 3c 29 45 85 3b 8f f9 9f bd 97 a7 ea bd
       0.021510968 0.0040670824 -0.078112714 -0.114577465
0000b0 8e cd c0 3d 01 37 e3 bc bb fc 41 bd 1f 32 1b bd
       0.094142064 -0.027736189 -0.047360163 -0.037889596
0000c0 37 03 9b 3d b0 3e 30 bd 90 37 59 bd 23 b4 c4 bc
       0.075689726 -0.043028533 -0.053031504 -0.024011677
0000d0 bc 0f 24 bd 39 66 c0 bd 54 16 c4 bc 44 3d a1 bd
       -0.040054068 -0.093944974 -0.023936428 -0.078730136
0000e0 c5 3b 2a bd 69 44 b6 bd 97 cc 97 3d 71 d7 53 3c
       -0.041560907 -0.08899767 0.07412069 0.012929783
0000f0 8e 43 b3 3d 73 7e 25 bd a3 11 ed bd 0a 87 f9 bc
       0.087531194 -0.040403794 -0.115756296 -0.0304599
000100 5a 08 26 3e 30 69 92 bd 2d 80 3f 3c 1f 73 a1 bd
       0.16214123 -0.07148969 0.011688274 -0.07883286
000110 54 34 43 bd de 2f 8b 3d fa c9 c3 3c ad 9f 89 bc
       -0.047657326 0.06796239 0.02390002 -0.016799772
000120 85 e6 2b 3e a4 0c 45 3d 59 46 be 3a 5d 44 08 3d
       0.16787155 0.04810776 0.0014516815 0.03326832
000130 18 bb 0f 3e a9 10 94 bb e4 55 ed bc 22 a3 b0 bd
       0.14036214 -0.0045185876 -0.02897162 -0.08624865
000140 05 ea 52 3d e1 b8 b7 bd b2 87 ca bd 9e 0f 95 3c
       0.05149271 -0.0897081 -0.09889163 0.018195923
000150 85 e0 17 bd 6e 91 9c 3c e9 ad 83 bc ca 3d 26 3d
       -0.037079353 0.019112315 -0.016074138 0.04058627
000160 94 4a 78 3b 07 34 3a bc 2b 66 23 3d 15 7a 8d 3d
       0.003788625 -0.011364943 0.039892357 0.06908051
000170 c2 d8 1a 3c 81 1e 56 3c 71 10 41 bc 04 89 d0 3d
       0.009451093 0.013068796 -0.011783705 0.10182384
000180 2c e2 39 bd 7a 02 11 bc 5c 9c 7d bc f1 35 f0 3d
       -0.04538171 -0.008850688 -0.0154791735 0.117290385
000190 ad cf b6 bd 52 bf 21 bc e0 cc 1b 3e e8 14 0f bd
       -0.0892633 -0.0098722745 0.15214872 -0.034932047
0001a0 82 11 91 bd 35 b8 c1 bd 68 87 d5 3d b9 02 42 bd
       -0.070834175 -0.09458963 0.10426217 -0.047365878
0001b0 04 5e 85 bc 75 14 b8 3d 10 b5 3d bd 2d 03 11 3d
       -0.016280182 0.08988277 -0.046315253 0.03540342
0001c0 f9 ea 84 bd 32 74 9d 3d 37 6e 25 bd 97 77 80 3c
       -0.0649013 0.07688178 -0.040388312 0.015682025
0001d0 6b 62 95 bd d0 1f 96 3d 14 71 a6 bd 2e 01 75 3d
       -0.07294162 0.073302865 -0.08127037 0.05981558
0001e0 1d 47 39 bd ee ab 93 bc 2c 20 19 3d c4 93 ca bd
       -0.045233835 -0.018026318 0.037384197 -0.09891465
0001f0 c2 3a 1e ba ff 57 b5 3d 80 65 8f 3d e6 d8 1c bd
       -0.0006035977 0.088546745 0.070017815 -0.038292788
000200 d3 a6 0d 3d 98 df ed bb 86 c5 ae bc fa 45 ba 3d
       0.034582924 -0.0072593205 -0.02133442 0.09095378
000210 2a 1f 35 3d cc 32 ee 3d 20 b7 a8 bd 5f bf 76 bd
       0.044219173 0.116307825 -0.08238053 -0.0602411
000220 85 4f 3f bb 75 c9 23 bd 6d f2 9f bc 3a 4a 23 bd
       -0.0029191684 -0.039987046 -0.019524777 -0.03986571
000230 75 8d 72 3d 99 30 64 bd e1 eb 7b 3d e2 79 48 bd
       0.059216935 -0.05571041 0.06150425 -0.04894436
000240 00 a3 db 3d 7f ac 42 3c de c7 0a be 20 c3 61 ba
       0.10724449 0.011881947 -0.13552806 -0.0008612145
000250 8c 5f 88 3d 7f 6f 11 bd 94 6a 3a 3c 09 5e c8 bd
       0.06658849 -0.03550672 0.011377949 -0.09783561
000260 11 01 98 bd ce 8e c2 bd f0 d3 9a bc e2 28 85 bd
       -0.074220784 -0.09499894 -0.018899888 -0.065019384
000270 4c ab ea 3c 8e dc 0a 3c 57 28 01 bc 77 bf 55 bd
       0.028646134 0.008475436 -0.007883153 -0.05218455
000280 f1 d3 b7 bc fc 17 bb 3d 9f 48 98 3d 35 02 09 bc
       -0.022439929 0.09135434 0.074357264 -0.008362343
000290 1e de 36 bd 3e 45 40 3b ae fa ef 3c 75 4a 3d 3c
       -0.04464542 0.0029338147 0.029294338 0.0115533965
0002a0 a6 6f 24 bd 35 e9 fd bd 7a f4 b5 bd 66 30 9e bd
       -0.04014554 -0.12397996 -0.08884521 -0.07724075
0002b0 4e 85 ea bc 09 db 38 3d ff 41 53 bd 4d 74 be 3b
       -0.028628018 0.045130763 -0.05157661 0.005812204
0002c0 e7 12 88 bd 5e 88 95 3d 4a a0 70 bd 9f e5 d5 3c
       -0.0664423 0.073014006 -0.058746614 0.026110468
0002d0 76 b0 0b 3d af 88 67 bd 7f 75 56 3d e1 b3 3b 3d
       0.034103833 -0.056526836 0.052358147 0.045825843
0002e0 b4 ba 8b bd fc 25 f9 3d 28 a7 e6 3a e6 e2 0d be
       -0.0682272 0.12165448 0.0017597424 -0.13856086
0002f0 18 00 93 bc 24 32 e0 3d f7 0e 89 3d f3 43 2f 3d
       -0.01794438 0.109470636 0.066923074 0.04278941
000300 6e 9f 60 bd 62 0e d4 bc f5 92 05 bd d7 00 64 bd
       -0.054839544 -0.025885765 -0.032610852 -0.055664863
000310 b9 d1 09 3b 92 db 3e 3c 0d 72 b1 bd b6 67 19 3e
       0.0021029545 0.011649029 -0.086643316 0.14980969
000320 d7 fb 34 bd 78 3f 85 3d 0b 06 09 bd 1f 50 91 3d
       -0.044185486 0.06506246 -0.03345303 0.0709536
000330 85 28 aa 3c 9b 16 a2 bc b3 ec 2f 3d 2b d0 e2 3d
       0.020771274 -0.01978617 0.042950343 0.11074861
000340 c2 47 72 bd 69 ee 0e 3d 31 f2 2c bd ac 7d b2 bd
       -0.059150465 0.034895334 -0.04222316 -0.08715376
000350 77 2e 82 bd a4 86 de 3d 6d fa 5f bd 95 dd 38 3d
       -0.06356519 0.108655244 -0.054682184 0.045133192
000360 cd 33 9c 3d c7 82 25 3d 1b 5c 38 3c a4 52 1a 3d
       0.07627068 0.040407922 0.011252428 0.03767647
000370 04 59 69 3d 2b f9 2e bc f9 42 e2 bc 2e e7 c5 3d
       0.056969658 -0.010679523 -0.027619826 0.09663235
000380 39 4d 58 bd 37 e0 ee bc d0 bd 2d 3d 1d a6 85 3c
       -0.05280802 -0.029159648 0.042417347 0.01631456
000390 27 01 24 bd ec 91 92 bd 2f 31 96 3d 6c 8d 95 3d
       -0.04004016 -0.07156739 0.073336 0.07302365
0003a0 1e fb 56 bd f0 71 31 bb 58 1b ab bd 05 4e a0 3b
       -0.052485578 -0.0027075969 -0.08354825 0.004892113
0003b0 7f 58 15 39 87 28 ec 3c 4c 91 8e bd d1 41 53 3d
       0.00014242715 0.028827919 -0.06961307 0.05157644
0003c0 7f 8a 90 bd 14 f8 c8 3c c9 7a ea 3d 1c 4a 0b 3d
       -0.07057666 0.024532355 0.11449201 0.034006223
0003d0 72 ec 81 bc 72 56 51 3d 79 47 0d 3e 72 8e 09 be
       -0.015859816 0.05110783 0.13796796 -0.13433245
0003e0 58 34 b3 3b f5 bb 8a 3d b4 5c cb bd 35 dc bf bc
       0.0054688863 0.06774131 -0.09929791 -0.023420433
0003f0 af 24 22 bd 26 6d d4 bc 10 16 85 3c 22 19 65 3d
       -0.039585765 -0.025930952 0.016245872 0.05593217

network_body._body_endoder.seq_layers.4.bias f4 [256]
000000 e7 69 af 3a 3b 8c 52 ba ab ce 8f 3b b9 23 2b 3c
       0.0013383002 -0.000803176 0.0043886504 0.010445529
000010 3a 1b 28 3b a7 26 2b bb 15 25 98 3b 5d 81 d8 ba
       0.0025650994 -0.0026115568 0.0046430924 -0.0016518045
000020 26 19 ea 3a 43 35 c4 bb 68 31 73 3b 7c 6a 03 bb
       0.0017860278 -0.0059877946 0.0037108306 -0.0020052483
000030 e1 e5 e0 3b 33 57 2a 3b 8d 7e 2b 3b 05 be 9c 3b
       0.006863341 0.0025991916 0.002616796 0.0047833943
000040 8a 39 7c 3b 7b b1 d2 ba 5b fe ac 3b f7 97 eb 3b
       0.0038486444 -0.0016074622 0.005279345 0.0071897465
000050 7c 41 fd 3b fe c3 94 b8 b0 32 fc 3a b9 c9 c9 ba
       0.0077287536 -7.093696e-05 0.001924118 -0.0015395201
000060 ed 5a 84 ba 0b 1e 29 3c 47 0c 57 ba 67 4c bb 3b
       -0.0010097899 0.010322104 -0.00082034286 0.005715895
000070 83 6f 0a 3b 20 ff 4c 3a 0d 00 2c 3b dd d5 fc 3b
       0.0021123595 0.0007819999 0.0026245147 0.007715924
000080 ca 26 8a 3b 48 dd 13 bb 0c 6d 29 39 96 a6 9f 3b
       0.00421605 -0.0022562314 0.00016157719 0.0048721535
000090 18 7d 4f bb 96 de 6f 3b ab fc 58 3b b5 2e 98 3b
       -0.0031660255 0.0036601177 0.0033109586 0.00464424
0000a0 bf dc e4 bb 78 56 d0 39 75 6e b3 3a f5 16 43 bb
       -0.006984323 0.00039737276 0.0013689535 -0.0029768322
0000b0 89 e8 a7 3a d1 0f b7 ba ed 38 b8 bb f0 8c a1 ba
       0.001281039 -0.0013966506 -0.0056220205 -0.0012325328
0000c0 a4 24 c3 3b fa c4 1b b9 53 2a 74 3b 37 9b 80 3b
       0.0059552956 -0.00014855331 0.0037256673 0.003924753
0000d0 1a 94 e5 ba 23 3b d4 3b b7 90 e6 3b 7d 8a 82 bb
       -0.0017515451 0.006476776 0.0070362943 -0.0039837942
0000e0 45 57 19 bc 7e 33 1c 3b a0 75 19 3c 67 80 e1 ba
       -0.009359186 0.0023834403 0.009366423 -0.0017204405
0000f0 44 2a 17 3a 98 8e f0 ba f2 c6 25 3b db a2 a0 b9
       0.0005766491 -0.0018353043 0.0025295583 -0.00030638915
000100 a0 d7 25 3b e4 c6 94 3a 50 1e 48 3c a9 b6 82 ba
       0.0025305524 0.0011350778 0.012214258 -0.000997265
000110 3d 76 11 3b 2a 52 e0 3a 61 40 43 3b 1c bc f0 3b
       0.002219572 0.001711433 0.0029793011 0.007346643
000120 3a e2 b0 3b c9 dd 93 39 9d dd 34 bb b9 9f c3 39
       0.005398062 0.00028203268 -0.0027597912 0.000373123
000130 15 c3 82 3b ce 8b 6b ba 04 e6 3b b9 26 25 b5 3a
       0.0039905407 -0.0008985371 -0.00017919397 0.0013820275
000140 c4 79 c1 3a 98 0b af 3b cf bd b0 3b ba 99 56 3a
       0.001476102 0.0053419583 0.0053937207 0.0008186359
000150 74 67 5d b8 5c 51 d5 3b 22 b8 f2 bb 27 11 a2 ba
       -5.2786854e-05 0.006509943 -0.0074072042 -0.0012364731
000160 cc 28 b8 3a 83 2a 34 bb 16 df 35 ba ae e3 0e 3b
       0.0014050244 -0.002749116 -0.00069378444 0.0021803188
000170 f2 43 f2 b9 c6 6f ef ba af e0 25 3c e1 01 f3 3b
       -0.0004620846 -0.0018267564 0.0101243695 0.0074159955
000180 bc 18 20 3b 48 a1 31 3b 5a 12 94 3b c3 74 e7 3b
       0.0024428805 0.0027104188 0.0045187892 0.0070634796
000190 87 a2 cf ba 16 39 48 3b 12 a0 c3 3a fa 86 8f ba
       -0.0015841284 0.0030551604 0.0014925024 -0.001095026
0001a0 0d b3 b9 b9 b4 37 64 bb 97 41 a6 3b 8c e7 78 3b
       -0.00035419353 -0.003482324 0.005073737 0.003797981
0001b0 c5 13 20 3c f6 8d fb ba 3e b7 63 b9 33 0c 6a bb
       0.009770338 -0.0019192088 -0.0002171667 -0.0035712838
0001c0 60 54 ea 3b 02 3b 06 3c 31 4d 86 b9 cf ad 5a 3b
       0.0071511716 0.0081927795 -0.00025615984 0.0033367758
0001d0 1c 06 ef bb 6c c3 09 bb de 1f 75 3b 46 50 50 3c
       -0.0072944295 -0.0021021022 0.0037403028 0.012714451
0001e0 0c 84 21 bb 23 91 66 bb 95 c8 86 3b d3 4a eb 3b
       -0.0024645356 -0.0035181723 0.0041132667 0.0071805506
0001f0 2d d1 1e 3c 35 32 bc bb df 7f 2e 3b b9 b0 15 ba
       0.009693426 -0.00574329 0.002662651 -0.00057102327
000200 3f b9 26 3c 33 45 c7 3b 3e 17 4d 3b 57 84 65 3b
       0.010176002 0.0060812472 0.003129437 0.0035021508
000210 12 99 21 3a fe 79 df 39 fb d1 ff 37 cf b7 65 3a
       0.0006164472 0.00042624766 3.0496149e-05 0.00087630464
000220 cd f4 0b 3c 94 34 69 3b cf b3 b0 bb 1f 29 da 3b
       0.008542252 0.0035584318 -0.0053925286 0.006657734
000230 c0 17 d9 3a 7e 18 ca ba 02 d1 86 3b 1b 9a de 3a
       0.0016562864 -0.0015418676 0.004114271 0.0016983183
000240 80 9a e2 38 96 08 28 bb 48 20 ef 3a 49 d9 09 3b
       0.00010805298 -0.0025639883 0.0018243873 0.0021034053
000250 14 e9 03 bc de 71 23 3c 75 d6 5b bb 31 d3 5e bb
       -0.008051176 0.0099758785 -0.0033544574 -0.0034000392
000260 37 fb d1 3b 61 62 c3 39 04 73 3e 37 49 8a 84 bb
       0.006408121 0.00037266596 1.1351662e-05 -0.004044805
000270 01 9e 1b 3b 1c f2 3f 3c 77 9f 81 3b 9e c2 6b 3b
       0.00237453 0.011715438 0.0039557773 0.0035974155
000280 5d 1d 60 39 83 f4 90 39 04 49 bf 39 58 77 ff 3b
       0.00021373243 0.00027647996 0.0003648476 0.0077962093
000290 89 d6 11 3b 35 73 ba 3b 29 64 90 3b 04 6c ce ba
       0.0022253117 0.0056900033 0.0044064713 -0.0015748744
0002a0 97 00 11 bb 22 0d 80 3b ce 7f b2 3a c9 9a 83 3b
       -0.0022125596 0.0039078156 0.0013618411 0.0040162546
0002b0 b0 f9 98 3b 05 07 c3 3a 03 3b c7 3b d2 9d 6d 3b
       0.004668437 0.0014879411 0.006080033 0.0036257398
0002c0 af 98 a5 3b ab 01 07 3c 94 e8 ca bb 49 01 a4 39
       0.0050536017 0.008240144 -0.0061922763 0.00031281475
0002d0 ea 50 18 3c 4a 96 e2 3b 62 00 b7 3b 52 8d e7 ba
       0.009296635 0.0069148885 0.0055847624 -0.0017666018
0002e0 26 d8 80 3b 23 49 53 3a 1a 2d 9a 3b e7 b5 e1 bb
       0.003932017 0.00080599095 0.0047050836 -0.0068881395
0002f0 b9 93 6b ba 2c 49 ae ba bb b7 de ba 88 ea 11 3c
       -0.0008986551 -0.0013296953 -0.0016992012 0.008906014
000300 12 00 d1 ba bc e1 ba 3b 60 fa 8c ba 42 0e dc 3b
       -0.0015945456 0.005703179 -0.001075577 0.006715567
000310 f1 07 8c bb 98 b4 ad bb b2 b8 6b 3a df 54 67 bb
       -0.0042734076 -0.0053010695 0.00089920603 -0.003529839
000320 a1 de 5c 3c 6f 41 2a 3c 54 a3 aa 3a 50 3a b2 38
       0.013480813 0.010391577 0.0013018646 8.498563e-05
000330 70 1b 7a bb 97 f2 f1 b9 e2 df 89 3a 35 f0 c7 3b
       -0.0038163327 -0.00046147846 0.0010518993 0.006101633
000340 58 7e 1f 3b 8b 2c 73 bb bb fc 32 3b aa c0 97 ba
       0.0024336781 -0.0037105407 0.0027311284 -0.0011577804
000350 51 af 94 3b d1 01 06 3c 4f 91 8d 3b 52 ac fd 3b
       0.004537501 0.008179144 0.0043203006 0.0077414894
000360 18 5d e9 39 17 e4 63 3b cf 22 8f bb cc d0 50 3b
       0.00044510583 0.0034773403 -0.004368163 0.0031862734
000370 20 d0 a1 3b 5c c9 37 ba 1c 01 6e 3c a4 d3 db 39
       0.0049381405 -0.0007010901 0.014526632 0.0004192862
000380 06 86 24 ba 54 ab 18 3c 5e 1f f8 ba 51 bc 14 3c
       -0.00062760746 0.009318192 -0.0018930247 0.009078101
000390 f8 85 55 ba cf 2f 9c bb ff ad 55 3b 4f 74 58 b9
       -0.0008145268 -0.0047664414 0.003260493 -0.00020642694
0003a0 f6 b2 03 3a 63 fd 8a 3b 6f 63 74 3a f5 b6 21 3c
       0.00050239207 0.004241632 0.0009322678 0.0098702805
0003b0 37 95 71 3b 92 f2 14 ba 17 bb 29 3c 79 a4 9c 3b
       0.003686262 -0.0005681898 0.010359547 0.004780349
0003c0 1e d1 c9 3b d1 4d 96 3b 3d 82 09 3b d1 74 de 3b
       0.006158962 0.004586913 0.002098217 0.006788828
0003d0 ae 51 8b 39 d2 f5 d0 39 d7 1e ba 3b cd e3 90 3a
       0.00026573002 0.00039856002 0.005679946 0.0011054218
0003e0 4a b2 1c 3b 5d 07 07 3c f8 3f 0d 3c b5 cd 27 3a
       0.002390998 0.008241502 0.008621208 0.0006401197
0003f0 dc fa a4 3b b9 39 c7 3b b6 91 1c 3b d9 0c 95 3b
       0.0050347876 0.006079879 0.0023890561 0.0045486507
