Assets/Training/results/RUN1/SzitakotoBehavior/SzitakotoBehavior-3999977.onnx (onnx, 670607 bytes, 13 tensors)

65 f4 [132]
000000 b9 2e 9d 3e fc b7 5e 3e 03 4c c0 3e b9 4a 82 3e
       0.3069971 0.21749872 0.37557992 0.25447634
000010 35 97 9c 3e ab 65 5e 3e d4 d9 bf 3e ea b9 80 3e
       0.30584112 0.21718471 0.37470877 0.2514184
000020 3c 7c 97 3e 8d 81 5d 3e 37 23 bc 3e 76 35 82 3e
       0.2958697 0.21631451 0.36745617 0.25431412
000030 3f 38 96 3e 51 07 5a 3e 21 86 ba 3e d6 c4 77 3e
       0.29339787 0.21291853 0.36430457 0.2419618
000040 34 2e 94 3e 90 b5 5b 3e ea 84 b9 3e c8 9c 80 3e
       0.289415 0.2145598 0.36234218 0.25119615
000050 d9 3e 84 3e 48 46 4e 3e b3 a0 ab 3e 60 f6 65 3e
       0.258292 0.20143998 0.3352104 0.22457266
000060 ae 76 95 3e e3 d1 56 3e 78 54 b9 3e d9 65 79 3e
       0.29192108 0.20978503 0.36197257 0.24355258
000070 07 c1 48 3e d7 27 44 3e 9b 91 94 3e 07 1f 51 3e
       0.19604884 0.19155823 0.29017338 0.20421992
000080 c7 89 93 3e 57 1a 4d 3e 3a d7 b5 3e 31 64 6b 3e
       0.28816053 0.20029579 0.35515767 0.22987439
000090 5e d6 3e 3e 57 2d 56 3e 4c 24 97 3e 0e 26 43 3e
       0.18636462 0.20915733 0.2951988 0.19057485
0000a0 8b fe 86 3e 81 67 44 3e 7c 37 ab 3e 21 3f 59 3e
       0.26366076 0.19180109 0.3344077 0.21215488
0000b0 c9 95 9d 3e 86 3f 5f 3e 69 63 be 3e ae ac 7c 3e
       0.3077834 0.21801576 0.3718522 0.24675247
0000c0 95 f2 9c 3e c1 f5 5e 3e 4d ec bd 3e 09 70 79 3e
       0.30653825 0.21773435 0.37094346 0.24359144
0000d0 25 d7 97 3e 89 09 5e 3e f1 1a ba 3e 72 78 7c 3e
       0.2965633 0.21683325 0.3634868 0.24655321
0000e0 fb 96 96 3e 16 91 5a 3e 3c 76 b8 3e 8c 3a 6f 3e
       0.29412064 0.21344408 0.36027706 0.23362178
0000f0 24 78 94 3e d7 43 5c 3e fa 61 b7 3e af 1d 79 3e
       0.2899791 0.21510254 0.35816938 0.2432773
000100 0c 9a 84 3e 4f c9 4e 3e de 17 a9 3e 77 40 5c 3e
       0.25898778 0.2019398 0.33026022 0.21508966
000110 39 c2 95 3e ac 61 57 3e 10 2d b7 3e c9 ee 70 3e
       0.29249743 0.21033353 0.35776567 0.2352859
000120 2e 45 49 3e 75 b7 44 3e 18 3e 91 3e 11 e1 45 3e
       0.19655296 0.19210608 0.28367686 0.19324137
000130 73 d1 93 3e d6 a7 4d 3e 4b 9d b3 3e 93 1b 62 3e
       0.28870735 0.20083556 0.35080943 0.22080831
000140 99 56 3f 3e 59 e8 56 3e bb f1 93 3e 27 e1 36 3e
       0.18685378 0.20987071 0.28895363 0.17859326
000150 42 42 87 3e 21 f4 44 3e 8b a3 a8 3e ca c0 4e 3e
       0.26417738 0.19233753 0.32937273 0.2019073
000160 39 fa 9d 3e 5f c6 5f 3e 87 73 bc 3e cc 6d 74 3e
       0.30854967 0.21853016 0.3680689 0.23870009
000170 e8 5a 9d 3e d3 7f 5f 3e 49 f5 bb 3e 9d 06 71 3e
       0.30733418 0.21826105 0.36710575 0.23537679
000180 6c 27 98 3e dd 91 5e 3e db fd b7 3e d9 27 74 3e
       0.29717577 0.2173533 0.35935864 0.23843326
000190 5b 00 97 3e d0 15 5b 3e b5 56 b6 3e 2e 39 66 3e
       0.2949246 0.2139504 0.35613027 0.2248275
0001a0 4a c2 94 3e 28 cb 5c 3e 6c 31 b5 3e 28 a1 70 3e
       0.2905448 0.21561873 0.35389268 0.23498976
0001b0 3a f5 84 3e e0 4b 4f 3e 3e 89 a6 3e 57 f4 51 3e
       0.25968343 0.20243788 0.32526582 0.20503365
0001c0 9d 0e 96 3e 9d ea 57 3e 5b f9 b4 3e e7 00 68 3e
       0.29308024 0.21085592 0.35346493 0.22656594
0001d0 a6 c9 49 3e ad 46 45 3e 8b c7 8d 3e 91 ce 39 3e
       0.19705829 0.19265242 0.27691302 0.18145205
0001e0 76 19 94 3e d5 2f 4e 3e 69 4c b1 3e 97 4b 58 3e
       0.28925675 0.20135434 0.3462861 0.21122585
0001f0 63 cf 3f 3e 49 a6 57 3e 77 a1 90 3e eb 88 29 3e
       0.18731456 0.21059527 0.28248188 0.16556136
000200 eb 86 87 3e 34 7a 45 3e 23 fe a5 3e b8 91 43 3e
       0.26470122 0.19284898 0.32420453 0.19098556

68 f4 [2]
000000 cf d6 2c 3e 01 73 95 3e
       0.16878818 0.29189304

action_model._continuous_distribution.log_sigma f4 [1, 2]
000000 95 86 97 bc ed 60 bd bb
       -0.01849679 -0.0057793767

action_model._continuous_distribution.mu.bias f4 [2]
000000 f9 4e bd ba 22 b5 c0 3b
       -0.0014443091 0.0058809677

action_model._continuous_distribution.mu.weight f4 [2, 256]
000000 61 33 68 3c ec 38 1a 3c 87 54 65 bc 38 89 3c bd
       0.014172406 0.009412985 -0.013997204 -0.0460293
000010 c7 c1 df bb f6 6e 03 3c 2b d0 2d 3d e0 c1 d3 bc
       -0.00682852 0.008022061 0.042434853 -0.025849283
000020 c8 0e 27 3c 78 bd 97 3b 38 a9 c5 3b e7 e8 2e bc
       0.010196395 0.0046307407 0.0060321353 -0.010675645
000030 18 02 e3 bc 41 af b6 3c 2b ec 17 3d 08 08 c7 bc
       -0.02771096 0.022300364 0.03709046 -0.024295822
000040 c5 b7 c9 3c 23 16 81 b9 6f 28 0f bd c8 ed 3f bd
       0.024623761 -0.0002462129 -0.03495067 -0.046857625
000050 78 2c a4 bb 4b eb a0 3c f9 d0 e8 3c 3d 55 ed bb
       -0.005010184 0.019643446 0.028419958 -0.007242827
000060 ce a4 89 bc 67 31 9a bc 94 92 51 3c 0c 84 bf bc
       -0.016802218 -0.018822385 0.012791295 -0.023378395
000070 68 a5 8f bc 35 48 0c 3c 53 39 5c 3c 35 b9 cc 3c
       -0.017534927 0.008562137 0.0134414015 0.024990657
000080 60 79 ce 3c 52 9d b3 3b 0f be 4f 3c 3a 61 d2 bc
       0.02520436 0.0054814005 0.012679591 -0.025681127
000090 77 4f 2d bc 6e 56 b2 3b 81 28 d6 bc 28 ef 04 3c
       -0.010578028 0.005442432 -0.02614236 0.00811366
0000a0 68 a6 4e bb 66 75 79 3c de af b7 3c c8 dc d4 ba
       -0.0031532291 0.015225744 0.022422727 -0.0016240114
0000b0 fb 90 6b bc 8f 0b ba 3c 6a 55 0c 3c 1b 38 c4 bc
       -0.014377828 0.02271059 0.008565286 -0.023952534
0000c0 f2 de 8c bc b2 71 74 bc 8c 15 1b 3c 82 3e 01 3c
       -0.017196152 -0.014919685 0.009465586 0.007888438
0000d0 6d 6e 87 bb 9f 7c 20 3c fc 35 ea bc 44 1f a3 3b
       -0.004133037 0.009795337 -0.028590195 0.0049780924
0000e0 d3 fc 0d 3b b5 e7 a0 3c ea c5 6a bc 8c 7f 32 3c
       0.0021665588 0.019641737 -0.014329413 0.010894667
0000f0 07 8d 72 bc 29 85 1b 3c a1 96 a2 bc ae 98 db 3c
       -0.014804131 0.009492197 -0.019847216 0.026806202
000100 11 28 c3 bc 07 ca 0d bb 98 aa 26 bd 85 3d 0e 3c
       -0.023822816 -0.002163531 -0.040690035 0.00868166
000110 3b 86 60 bc d2 b5 a4 3b 0f f2 0a 3d 4b 06 bf bb
       -0.013703878 0.0050265575 0.03392225 -0.0058296076
000120 fe 64 4e 3d bb 4d 4a 3c 99 aa 81 3c 3a fc 89 bc
       0.050389282 0.012347634 0.015828418 -0.016843904
000130 6a 4c d0 3c 2d 2f d7 3b 51 67 b6 3c 68 12 ab 3c
       0.025427062 0.006566903 0.022266062 0.0208828
000140 36 33 ba bc 02 a8 1a bd 79 f1 65 bb 69 b3 ae 3c
       -0.022729497 -0.03775788 -0.0035086556 0.021325784
000150 55 ea 9c bc 9d 4e f3 bc 12 31 90 bb 08 6f 95 3c
       -0.019154707 -0.029700572 -0.004400381 0.01824142
000160 9c 7e 13 3c 0d 1c 11 bc 62 09 57 bc 9e bc 35 bb
       0.009002354 -0.0088567855 -0.013124796 -0.0027730833
000170 f1 4a 13 3c be 12 fc bb e9 2e 0d bd 29 87 3a 3b
       0.008990035 -0.007692664 -0.034468565 0.002846191
000180 9b c8 ef bc 24 f4 41 3d 7b 2c a9 3b b1 5c 09 bd
       -0.02927046 0.04735197 0.005162773 -0.033535663
000190 07 dc 91 3c 35 fd e0 ba 83 4b 4f bc a4 08 b0 3b
       0.017805113 -0.0017165305 -0.012652281 0.005372124
0001a0 18 7b a2 bc 6b dd a2 3b dc 94 b2 bb 0a a4 b1 3c
       -0.019834086 0.0049702427 -0.0054498743 0.021684665
0001b0 19 55 0c 3d dd 60 09 bc a5 6b 82 bc f1 ea 06 3c
       0.034260843 -0.00838491 -0.01592047 0.008234725
0001c0 38 17 3d 3d 16 b4 8f bc 86 9d ed 3a 96 36 f6 3a
       0.04616472 -0.017541926 0.0018128611 0.0018784578
0001d0 4d 45 6c 3c 06 d7 87 3c 6d fb 40 bc e5 2e 9c bb
       0.0144208195 0.016582023 -0.011778695 -0.0047663325
0001e0 f0 c5 a3 3c be e0 92 3c c6 0c 19 bc 03 f6 e3 bc
       0.019991845 0.017929431 -0.009341424 -0.027827268
0001f0 6c 21 8e 3b 4d 54 82 3c 27 26 9b bc 70 b9 67 3b
       0.0043374803 0.015909338 -0.01893909 0.0035358332
000200 26 ef e8 bc 6f 67 78 bc bb 5f 07 bc 59 46 df bc
       -0.028434347 -0.015161379 -0.00826257 -0.027255224
000210 98 b0 72 3c a2 c0 8a bc e3 36 80 bb 9e 3e ae 3b
       0.014812611 -0.016937558 -0.003912793 0.005317523
000220 53 59 ae bb 89 3d a8 bc 6f b5 a4 3a 9d fe 82 bc
       -0.005320707 -0.020537155 0.0012566278 -0.01599055
000230 a9 e4 8a 3b 5f d5 35 ba d5 2e be bc 5d e3 d1 bc
       0.004238684 -0.0006936397 -0.02321569 -0.02562111
000240 c4 4b 84 3c 19 7b f4 3b 03 8f e1 3c 6f cd f4 3c
       0.01614941 0.0074609634 0.027534014 0.029883115
000250 0e 1f ad bb 45 81 01 bd 15 4c 56 bb 56 ab 84 bc
       -0.005283243 -0.03161742 -0.0032699157 -0.01619498
000260 24 6a 0a bc 3f 32 3f 3c 23 b5 ed 3c 26 0f 47 bc
       -0.008448157 0.011669694 0.029017037 -0.012149608
000270 4a f3 50 bb ab 4e ec bc 10 f4 a7 bc 63 4a 22 3c
       -0.0031883293 -0.028846106 -0.02050212 0.0099054305
000280 25 a3 6c 3c 95 b7 2c 3a a6 57 b7 bb 4e 03 96 bc
       0.014443194 0.0006588635 -0.0055951653 -0.018312123
000290 17 4f b8 bc d7 61 a1 bc b3 60 5f bc 81 b7 f9 3b
       -0.02249865 -0.019699974 -0.013633895 0.0076207523
0002a0 6f 56 17 bc 8f 13 d7 3c 53 7f de 3c 11 0c b5 3c
       -0.009236916 0.026254443 0.027160322 0.02210048
0002b0 d3 37 d8 3b a3 96 40 bb c3 ea 82 bc 53 c2 3f bb
       0.0065984516 -0.0029386661 -0.015981084 -0.0029260113
0002c0 3f 62 43 b7 04 a7 08 3d 63 ff 05 39 92 c4 21 3c
       -1.164578e-05 0.033362404 0.00012779007 0.009873526
0002d0 de a3 52 bd 64 39 85 bc bb 74 91 3c 0e 15 30 3c
       -0.051425807 -0.016262718 0.017755857 0.010747207
0002e0 a6 59 d3 bc 20 b6 a2 3b 2f da db bb 97 22 64 3a
       -0.025799584 0.0049655586 -0.006709359 0.0008702664
0002f0 2b 67 17 3b 05 40 de 3b 3f 33 a6 bb 90 4f df bc
       0.0023102264 0.006782534 -0.005072027 -0.027259618
000300 c5 bc 00 3d af 5f 8a bc 08 88 9e bb 4b 19 f6 bc
       0.031430025 -0.016891329 -0.0048379935 -0.030041358
000310 32 4b 82 3c 9e 84 09 3b 60 e0 c0 3c 17 99 d9 bb
       0.015904997 0.0020983587 0.02354449 -0.006640564
000320 68 ec bf bc 9c 1f f5 bc 22 0a 51 bb 24 28 86 3c
       -0.023428157 -0.0299223 -0.0031896909 0.016376562
000330 1f 44 a1 3c 4b 2c 1e 3c 91 be 76 3c b5 91 90 bc
       0.019685803 0.009654115 0.015060083 -0.017647604
000340 a3 45 db 3c cc b1 f3 bb 9c 82 65 3b e7 f8 3a 3a
       0.026766604 -0.0074369665 0.0035020476 0.0007132426
000350 c9 71 a4 bc 02 f8 c8 3b ec 7d 49 bc 6e a4 ba bc
       -0.020073788 0.0061330805 -0.0122980885 -0.022783484
000360 3b b6 a5 bc 88 a3 30 3d e3 67 c3 3c 66 fc 07 bb
       -0.020228496 0.043124706 0.023853248 -0.0020749806
000370 4a ec 2a bc 0a 84 74 3c 5f bf 2e bd 84 7d 96 bc
       -0.010432312 0.014924059 -0.042662974 -0.018370397
000380 19 c7 d5 39 72 aa 09 bd ac 3c a1 bc bb 77 4a 3c
       0.00040774865 -0.033609815 -0.01968225 0.0123576475
000390 fa a5 35 3c e7 a0 3f 3c 42 52 ed 3b 4c a0 26 bc
       0.011086935 0.011696077 0.007242472 -0.010170054
0003a0 aa 4e a9 3c c7 37 7f 3b 2b 2c 22 3c e3 0f b8 3c
       0.020667393 0.0038943158 0.009898226 0.022468513
0003b0 f6 1b 14 bc 95 25 58 bb f2 78 0e bd ef 45 a6 bc
       -0.0090398695 -0.0032981385 -0.03478331 -0.020297019
0003c0 aa 0f dc bc c6 de 35 3c 0e 80 c0 bc e4 ab a9 bb
       -0.026862938 0.011100477 -0.023498561 -0.0051779617
0003d0 a5 f5 1a 3c bd 29 71 3c 5c 65 75 3c 3f c0 01 3c
       0.00945798 0.014719424 0.014977779 0.00791937
0003e0 18 3c 02 3c d6 88 1e 3d e7 9b 29 bd 8e 12 b8 3c
       0.007948898 0.038704716 -0.041408446 0.022469785
0003f0 18 a4 83 3c 5c b2 a1 3c 61 2b 46 bb bf ab b6 3b
       0.016069457 0.019738369 -0.0030238258 0.005574673

network_body._body_endoder.seq_layers.0.bias f4 [256]
000000 10 d5 73 3b e0 9e 53 3b f4 63 21 3c a2 4d ba 3c
       0.0037205853 0.0032290742 0.009850491 0.022742096
000010 a6 3f 91 bc 3d a1 35 bb bd ad 39 bc 33 fe 35 ba
       -0.017730545 -0.0027714514 -0.011332926 -0.00069424807
000020 d2 3e 77 3c 80 b8 4a b9 36 35 e5 3b 05 e8 15 3c
       0.015090661 -0.00019332953 0.0069948686 0.009149556
000030 0e c3 9b 3c e8 fb 37 3c 77 22 72 3c ca bb 83 3c
       0.019013908 0.011229493 0.014778725 0.016080756
000040 1a 15 fd 3b 28 2e a9 3b dd 7a c0 3b e5 c0 ae 3b
       0.007723463 0.005162973 0.0058740214 0.0053330534
000050 fc ec 2b 3c 03 fe 14 bb 14 33 09 bc 18 74 5e 3b
       0.010493513 -0.002273441 -0.008373994 0.003394371
000060 4e fe 4c bb f9 ab 16 3b 6d e3 1e 3c 3a 51 bf 3b
       -0.0031279507 0.0022990687 0.009697777 0.0058385404
000070 92 ac a6 3a 74 7f aa 39 be de 32 3c 72 8c a1 3a
       0.0012716225 0.00032519887 0.010917364 0.0012325181
000080 1b f2 da 3b 16 07 2b 3c 36 24 fc 3b da e2 63 bc
       0.0066816933 0.010438701 0.0076947464 -0.013909066
000090 13 e6 38 3b 9b fa 18 3b 17 b0 75 3c 7e 50 92 3b
       0.0028213307 0.0023342732 0.014995596 0.004465162
0000a0 23 2a ae bb 41 74 9e 3c 88 fc 43 bc 2d 95 86 bb
       -0.0053150817 0.019342544 -0.011962064 -0.0041071386
0000b0 e7 aa c1 3b 34 33 a5 3c 83 1a 68 b9 55 4f cc bb
       0.0059102657 0.020166017 -0.0002213512 -0.006235043
0000c0 f5 26 66 b9 98 c7 fc 3b 75 7a f6 39 85 37 10 3c
       -0.00021949022 0.007714223 0.00047012014 0.008802299
0000d0 be a8 1b bb 22 65 9a 39 bf 31 e7 bb ba 22 4f bb
       -0.0023751701 0.0002944852 -0.0070554907 -0.0031606392
0000e0 8a 61 0f ba d7 ce 20 3b f0 07 c8 3c 31 bc cc bb
       -0.00054695515 0.0024537349 0.024417847 -0.00624802
0000f0 5d fc 2a 3b 45 ec 06 3c d9 e2 37 3c 78 74 1f 3b
       0.0026090362 0.008235042 0.011223518 0.0024330895
000100 6c ae 87 3a 10 86 1d bb 10 ce b5 3b 1f 9f 9d 3c
       0.0010351664 -0.0024036206 0.005548246 0.019240914
000110 0f ac 0a 3b c3 2c 0d b9 bd 3d b1 3a fd ea cd 3b
       0.0021159684 -0.00013463483 0.0013522428 0.0062841163
000120 82 e2 0a 3b 06 84 3e bc ae 01 30 3b 6d 2b 61 ba
       0.0021192138 -0.0116281565 0.002685647 -0.000858954
000130 da 4d f7 3a d7 0c 29 bb 2d dc ae b9 13 43 b1 3c
       0.0018867806 -0.0025795007 -0.0003335191 0.021638429
000140 4d b3 30 3c 35 47 46 3c f1 2c 8e bb a4 21 33 bc
       0.010784936 0.012101938 -0.0043388535 -0.0109333135
000150 88 0c cf ba 04 83 19 3c 7b 54 18 3c c8 1e 87 3c
       -0.0015796581 0.009369615 0.009297485 0.01649417
000160 79 c7 d0 bb ee d9 43 3b 65 26 f6 3b da 7e 4d 3c
       -0.0063714352 0.0029884535 0.007511901 0.012542451
000170 0a 78 ad 3a 7e df f2 3b 8e 41 2f 3b 72 42 85 3a
       0.0013234627 0.0074118963 0.0026741954 0.0010166897
000180 d6 6a 93 3b 6c ff e2 3b 56 67 44 bc b2 a0 5c 3c
       0.00449882 0.0069274213 -0.011987528 0.013466047
000190 74 f1 25 3b 8a 4f 3d bc e8 c9 f4 3b 0f 3d fd ba
       0.002532092 -0.011554608 0.007470358 -0.0019320565
0001a0 38 ee de 3b 18 3a 83 3b c9 8a fa 3b b5 ce 69 bb
       0.0068033 0.004004728 0.007645939 -0.0035676186
0001b0 b8 cd 66 ba 1a b2 a1 3a 98 77 39 3b 55 d9 25 bb
       -0.0008804458 0.0012336404 0.0028300043 -0.0025306542
0001c0 75 cc b9 3c 71 25 8a 3b 21 ea 1d 3c 75 5d 46 3c
       0.0226805 0.004215889 0.00963834 0.012107243
0001d0 34 43 b2 3a 02 e0 a9 3b 83 5f 1c 3c a0 6d 84 3b
       0.001360035 0.0051841745 0.009544256 0.0040413886
0001e0 b7 6f dc 3a e8 5c 3d bb 12 e4 99 3b 8d 6c 30 3a
       0.0016817962 -0.0028894488 0.0046963776 0.00067300425
0001f0 f1 00 d3 bb c4 86 20 3c 99 ad 37 bb 0d 02 1c 3c
       -0.006439321 0.009797756 -0.0028027056 0.009521973
000200 77 27 a4 bb c8 3d 37 3c 74 c5 a2 3a a8 ed 31 3c
       -0.0050095874 0.011184163 0.0012418465 0.010859884
000210 c6 be 38 3c f1 9c 4f 3a 1e 0d 36 ba 3c a8 72 3c
       0.011275953 0.00079198094 -0.00069447036 0.014810618
000220 a3 a4 0b 3c 53 79 05 bb ad f7 99 3c 05 2d fe 3b
       0.008523139 -0.0020366504 0.018794859 0.0077568316
000230 c9 76 a1 ba 5a c2 99 3b 27 05 6d 3b c9 4f a1 3c
       -0.0012318726 0.004692358 0.00361664 0.019691365
000240 cd 8b 8f 3b 4e 50 07 bc 32 d2 0b 3c 9c 1d a0 3b
       0.004380679 -0.008258892 0.008534001 0.004886342
000250 f0 99 4e bb 45 4f 15 3b 45 e3 18 3b d5 91 74 3b
       -0.003152486 0.0022782844 0.0023328823 0.0037318368
000260 6a 76 71 ba 6e 5c da 3b bd 16 2a 3c 22 6a 8b 3c
       -0.00092110655 0.0066638505 0.010381398 0.017018382
000270 3b cd 0e bc a0 bc 2e 3b 10 fc 66 3c 2a 44 d1 3b
       -0.008715923 0.0026662722 0.014098182 0.0063862996
000280 87 3c a7 3b 03 2b ca bb 93 14 02 3b 04 b4 8a ba
       0.005103651 -0.006169678 0.001984869 -0.0010582213
000290 c9 ce 4c 3c 01 86 c1 bb 04 91 67 bc ac 1c 49 3c
       0.012500473 -0.005905867 -0.0141336955 0.012274902
0002a0 44 2a a1 3c bf 4a 08 3c e7 b5 16 3b 0d 27 3e 3c
       0.019673474 0.008318602 0.0022996606 0.01160599
0002b0 3d c9 00 bc e5 c6 16 3c a4 c3 c6 38 15 b4 fc 3b
       -0.007860479 0.009202694 9.477817e-05 0.007711897
0002c0 8d f8 0d 3b 8a f4 c4 bb bf 2d 10 3a e1 fd 11 3c
       0.002166304 -0.0060105966 0.0005499981 0.008910627
0002d0 91 af 4b ba 0f 4b 80 3b d7 db 10 3c d8 93 e7 3b
       -0.0007769997 0.0039151977 0.008841476 0.007067185
0002e0 d2 ea 08 3b f5 f4 3f 3a 85 a0 b4 3a 93 cd 08 3b
       0.0020891917 0.0007322573 0.0013780749 0.0020874485
0002f0 e2 8f c1 3b 0f d5 6b 3c b6 8f 2d 3c 61 f8 0c 3c
       0.0059070447 0.014394059 0.010593345 0.00860414
000300 eb 8f 1a 3a 8b ec bc 3b 47 cd d7 bb e7 cb 7a 3c
       0.0005896079 0.005765503 -0.0065857503 0.015307403
000310 c1 0b 5d 3b 3f bc e1 3a be f4 05 bb 7b 97 a9 3b
       0.003372893 0.0017222239 -0.0020440067 0.0051755286
000320 00 28 7f ba a4 19 a9 3b 65 4d d4 3b ca 46 86 3b
       -0.00097334385 0.0051605273 0.0064789527 0.004097794
000330 96 b4 6c bb 2e a7 af bb a0 4b b5 3b d5 16 07 3c
       -0.003611838 -0.0053605055 0.005532697 0.00824519
000340 f0 59 b7 3c 4c 38 82 bb 45 9d 15 3c 44 3b 14 bb
       0.022381753 -0.0039739963 0.009131734 -0.0022618333
000350 b6 c6 83 b9 04 71 df 3b 16 b6 60 ba 06 99 d5 3b
       -0.00025134318 0.0068188924 -0.0008572055 0.006518486
000360 cf 72 73 bb 1c e2 8d bb 29 af 99 3c 25 c2 32 bb
       -0.0037147289 -0.004329933 0.01876028 -0.0027276364
000370 b8 fe 28 3c 5d 1c 94 bb 94 61 83 3b aa e0 04 3c
       0.010314636 -0.0045199827 0.004009435 0.008110205
000380 40 a7 3d 3c 7b 86 5f 3b fc cf 82 bb 29 8b 02 3c
       0.01157552 0.0034107256 -0.003992079 0.007967749
000390 30 eb 5e 3c 34 a6 db b8 bb a6 88 3c d4 fa 06 3c
       0.013605878 -0.000104736915 0.016681066 0.008238513
0003a0 5b fe 80 3b 6e b1 86 ba 51 59 83 3c 0d e3 4b 3c
       0.0039365715 -0.0010276267 0.0160338 0.01244427
0003b0 f3 06 c4 3c 7c 23 d0 3b 4e 72 df ba 73 a1 25 bb
       0.023929095 0.0063518863 -0.0017047615 -0.0025273233
0003c0 05 9e f0 b9 69 e7 c6 3b 64 aa fc 39 a5 0e f7 3b
       -0.000458941 0.0060700667 0.00048192136 0.0075395876
0003d0 e4 3c ae ba 6e 8a b1 3b df 89 ea 3b 8f cb 15 3c
       -0.0013293293 0.0054181134 0.007157549 0.00914277
0003e0 1c 7c 6d 3b 35 76 89 3c db 79 49 bb 20 78 62 ba
       0.0036237305 0.016779998 -0.0030742798 -0.0008639116
0003f0 30 6b ed bb c1 17 af 3b 9c d1 d7 bb f0 7f 56 3b
       -0.0072454438 0.005343408 -0.0065862667 0.0032730065

network_body._body_endoder.seq_layers.0.weight f4 [256, 134]
000000 c0 84 71 3d c6 4d 12 be 66 2c d0 bc 34 af 9a 3c
       0.05896449 -0.1428748 -0.025411796 0.018882371
000010 15 06 e8 3c cb be 89 3a 31 6e db 3d 1c c0 0e bd
       0.028323213 0.0010509131 0.10714377 -0.03485118
000020 cf 95 65 bc 29 0c cf 3d 08 db 97 3c ee db 96 bb
       -0.014012768 0.10109741 0.01853706 -0.0046038544
000030 6b 25 0f 3e 92 9e 84 3d 22 00 91 3d b0 2d 0f 3e
       0.13979118 0.064755574 0.070801035 0.13982272
000040 92 ee ba 3b 36 9e d5 3a a0 e2 87 3d 93 b4 e8 bc
       0.0057047093 0.0016297761 0.06635022 -0.028406417
000050 93 d9 fa 3d 17 f3 13 bd ee 2e af 3d 2e 5a 22 bc
       0.1224853 -0.0361205 0.08553873 -0.009909196
000060 f2 9b df 3d 1b 06 2c bd 81 be 0a bd 9f b6 82 bd
       0.10918416 -0.04199801 -0.033873085 -0.063824885
000070 29 ae f0 3d b7 9b 8f bd 07 ca 40 bd e4 60 69 bc
       0.117519684 -0.07012122 -0.04706767 -0.014244292
000080 7b 5f c3 3d fa 23 50 bd 06 11 90 3d 29 7b 04 bc
       0.09539696 -0.05081556 0.07034497 -0.008086004
000090 67 45 01 3d d6 60 aa bd 7a 46 2d bd 66 ec 47 3d
       0.031560328 -0.08319251 -0.04230354 0.04880943
0000a0 7e 3f ea bd d4 3c 64 bc ae 23 f7 3c 5a bd f0 3d
       -0.114378914 -0.013930518 0.03016838 0.11754866
0000b0 82 e9 ab bd 10 b8 71 3d 09 f7 ed bc cd d8 0c 3e
       -0.083941475 0.059013426 -0.02904846 0.13754578
0000c0 59 ee 37 3c 5d 94 c5 3d 3d 9c fc bd 7a 42 e2 3d
       0.01122626 0.09647439 -0.123344876 0.11047836
0000d0 ff 39 b4 bd 2b 84 db 3d 18 69 ce bd 91 6b d6 bd
       -0.088001244 0.107185684 -0.10078639 -0.104697354
0000e0 93 8e b0 3d 24 b6 b8 bd 4a 69 89 bd e0 e7 a3 3c
       0.08620944 -0.090191156 -0.067095354 0.020008028
0000f0 ca c2 83 bd ca b8 51 bd 30 70 10 be fa fd 3e be
       -0.064336374 -0.05120162 -0.14105296 -0.18651572
000100 1f 83 d1 3c a4 bd 13 3d 98 80 12 3d f9 27 4e 3e
       0.025575219 0.036069527 0.035767168 0.20132436
000110 fa 20 eb ba ab 34 02 3c fe dc 07 3e 1d 5d cb 3c
       -0.0017938905 0.007947127 0.13267896 0.024824673
000120 20 68 93 bb 71 76 77 3c c9 17 76 be 47 00 a0 3c
       -0.0044984967 0.015103922 -0.24032511 0.019531382
000130 b1 2b 68 3d c6 f2 02 bd 3d 2d c5 3d f7 c2 89 3d
       0.056682292 -0.031969808 0.09627769 0.0672664
000140 c8 47 8f 3d 3b 1e 2d bd dd bd 90 bd 03 7b 7c 3a
       0.06996113 -0.04226516 -0.070674635 0.0009631367
000150 2f ba 17 3e 0a 1f 79 3d bd 36 27 bc 5f 1f 38 bd
       0.14817117 0.060820617 -0.010205922 -0.044951793
000160 ad de 3b 3c dd 94 ee bd b0 61 30 bd ff 9c 9c 3d
       0.011466664 -0.11649487 -0.043061912 0.07647132
000170 1c cf bb 3d e5 7b 0b 3c d0 23 56 bb 7d 6a 88 3c
       0.09170362 0.0085134255 -0.0032675155 0.01665234
000180 21 51 89 bd 01 0d ce bd f0 f2 47 3d 2d 3d 5d ba
       -0.06704927 -0.10061074 0.048815668 -0.0008439597
000190 da ad 76 bd 0d 33 d2 3d 4b 92 c8 bd 9a c9 d6 bd
       -0.06022439 0.102636434 -0.09793528 -0.10487671
0001a0 01 7b 05 3e b9 4d 59 3d c1 a3 0d bb 76 56 3b 3e
       0.13035204 0.053052638 -0.0021612498 0.18294701
0001b0 9b ec 02 3e 5a 64 e8 3d 8a 8e 5a 3d 44 ae 14 be
       0.1278557 0.113472655 0.053358592 -0.14519602
0001c0 9e 60 c7 3c 2a c5 a0 3c c8 a9 3e 3d 0e 73 b8 3d
       0.024338063 0.019625265 0.046548635 0.0900632
0001d0 1a 3e cf bd 1f 7d f4 bc aa 99 07 3a cb eb ab 3d
       -0.10119267 -0.029844819 0.0005172739 0.08394583
0001e0 be 91 65 bd aa 59 5b 3d 9d aa 21 3d 89 b9 29 3e
       -0.056047194 0.053552307 0.03946935 0.16574682
0001f0 e8 e9 a5 3c 41 59 ec 3d ae cb 5d bc 08 6f c5 3d
       0.020253137 0.11540461 -0.013537331 0.09640318
000200 16 1f 80 3d 39 56 62 bc 22 5f 7b bd fc ee 29 3d
       0.06255929 -0.013814502 -0.061370023 0.04148768
000210 9d 0f fc bd b0 e3 1a bd e4 f2 80 bc e1 12 a9 3c
       -0.123076655 -0.037814796 -0.01574082 0.020638885
000220 89 14 ce bd da 0f 3c 3e 84 64 0f bd bf 6b 7e bd
       -0.100625105 0.18365422 -0.03500797 -0.062114473
000230 04 76 83 bc 47 5e 30 be e5 7f b1 3b 24 4b e5 3d
       -0.016047485 -0.17223464 0.0054168575 0.111959726
000240 97 81 50 bc 36 61 8a bb 71 84 5c 3d 2d fa 41 be
       -0.012726209 -0.004223014 0.053837243 -0.1894309
000250 42 0b 33 bd ee 83 d7 bc 6f 8c bb 3d f8 9d bc bb
       -0.04371191 -0.026308026 0.09157645 -0.005756136
000260 98 84 89 3d 07 ca c6 bd 8d b5 1c 3d 6d 93 67 bd
       0.067147434 -0.097065024 0.038259078 -0.05653708
000270 1c 20 b4 bd a6 88 ba bd 54 a2 dd 3b 15 4a ad bd
       -0.08795187 -0.09108095 0.006763736 -0.08461396
000280 23 f7 42 ba 8d e7 66 bd 4a eb 7f 3d ae dd 0b be
       -0.0007437339 -0.056373168 0.06248025 -0.13658783
000290 bb 7e 71 bd 27 79 18 3d cc 55 6a bd 30 2c 93 3d
       -0.05895875 0.037224915 -0.05721073 0.071861625
0002a0 0e 6f a1 bd 1f c1 42 3d 45 01 35 bd 33 1c 8b bc
       -0.0788251 0.047547456 -0.044190664 -0.01698122
0002b0 b6 9b 3d be df e5 73 3c 06 fd c5 bc 80 30 13 3c
       -0.1851643 0.0148863485 -0.024168503 0.008983731
0002c0 ba b1 ee 3d 13 c7 8f 3d 8a ab ac 38 8d 62 16 be
       0.116549924 0.07020392 8.233551e-05 -0.14686032
0002d0 91 f9 04 3d c4 5c 13 3d 6b a6 5d bd 43 bf a5 bd
       0.032464568 0.03597714 -0.054113787 -0.08093121
0002e0 2a b4 d5 bd a0 be 1b be a6 f2 2e 3e ba 6e f0 3c
       -0.10434754 -0.15209436 0.1708475 0.029349674
0002f0 33 e9 11 3c ff e8 12 be c6 f9 44 bc 64 d3 d8 bc
       0.008905697 -0.14346693 -0.012022441 -0.026467986
000300 f3 91 0f bd 6c 73 30 bd 9c 9d 47 bd e7 f7 8d 3d
       -0.035051297 -0.043078825 -0.048734292 0.06932049
000310 9a e7 7a bd 03 1e 0d 3d 0e 82 00 3e 12 e3 6c bd
       -0.06125603 0.03445245 0.12549612 -0.05783374
000320 9a fb 0e bd 84 e2 b1 3d e1 c7 77 3b 52 37 18 bd
       -0.034907915 0.086857826 0.0037808346 -0.037162133
000330 2e 98 6f 3e 6d 28 99 3c 61 b2 ce 3d 27 10 a1 3d
       0.23397896 0.018696034 0.10092617 0.07864409
000340 f4 99 cc 3d e0 88 9a bd 84 b0 2f 3d 4d 5a 16 bd
       0.09990302 -0.07545638 0.042892948 -0.03670721
000350 15 b2 9c 3c 27 92 19 3d 33 40 39 bd d8 ea f0 3c
       0.019127885 0.037492897 -0.04522724 0.029408857
000360 68 10 2b bd 5d e5 89 bc cf 0a ed 3c 7d 26 66 3d
       -0.041763693 -0.016833002 0.028935818 0.05618905
000370 b0 ae a0 3d 14 71 ab bd af 23 14 be 09 0d 50 bd
       0.07845819 -0.08371177 -0.14466737 -0.05079368
000380 a8 54 45 3e 11 bd b1 3d 71 a5 c1 bc 38 b6 1d bd
       0.19270575 0.0867864 -0.023638459 -0.038503855
000390 09 b7 23 bc 58 ad 9b bd 1f b9 f1 3c da 52 d4 bc
       -0.009992369 -0.07601422 0.029507218 -0.025918413
0003a0 4d 48 c8 3b d7 89 47 3c 16 7d e4 bc 1d e9 73 3e
       0.0061121345 0.01217886 -0.027891677 0.23819394
0003b0 a1 4d 36 be 8f 46 41 bc 51 a3 4e 3d 01 83 c9 bc
       -0.1780305 -0.011796608 0.05044872 -0.0245986
0003c0 0c 5a e5 3d cf 8a 8b 3d 70 b3 88 bc 68 20 dd 3d
       0.11198816 0.06813585 -0.016687125 0.107971966
0003d0 aa 57 88 3d 87 d7 6c bd 93 51 c4 3d bc 20 99 3c
       0.066573456 -0.05782273 0.095858715 0.018692367
0003e0 58 4c 0f be bd d3 00 bd ca bd 9f bd e8 1c 04 3e
       -0.13993967 -0.03145193 -0.07799871 0.12901652
0003f0 58 1d a4 3c fe 18 a0 3d 33 95 95 bc 44 c2 0d 3d
       0.020033523 0.07817267 -0.01825962 0.034609094

network_body._body_endoder.seq_layers.2.bias f4 [256]
000000 4a 36 b5 3b e4 32 1a 3c ed ac cd 3b 54 a2 9d 3b
       0.0055301534 0.009411547 0.006276718 0.004810611
000010 06 dc 35 3c df fa 3f 3b 65 0b 08 ba cb 6a cd 3a
       0.011099821 0.0029293818 -0.0005189686 0.0015672086
000020 3d 74 04 3a 0e 5d 8b bb b5 e7 94 3b 32 b0 24 3c
       0.0005052721 -0.0042530363 0.004544223 0.010051774
000030 7a f0 85 3b 41 b1 a6 ba 1a 0a fa 3b aa 72 df 3b
       0.004087505 -0.0012717621 0.0076305987 0.006819089
000040 59 bc 9f 3b fe 14 de 3a 38 82 87 ba 59 b8 ea 3b
       0.0048747477 0.0016943512 -0.0010338491 0.0071630892
000050 47 de 8f 3b 56 64 c0 bb 28 c1 46 3c e3 bf 74 3b
       0.004390511 -0.005871336 0.012131013 0.0037345819
000060 9f d6 85 ba 66 40 08 3b 2b 3f 95 3a 3d 10 ad 3a
       -0.0010211057 0.0020790338 0.0011386623 0.0013203692
000070 52 45 08 3c 30 c9 5f 3b e2 a6 93 3b 69 bb 08 bc
       0.0083173085 0.0034147017 0.004505978 -0.008345463
000080 5f 25 2a 3c 91 8e 80 3b 3d 05 30 bb eb 05 92 3a
       0.0103848865 0.0039232452 -0.002685859 0.001114068
000090 08 0d b6 3b 07 87 09 3b e4 07 37 3c 2b d5 bf 3b
       0.0055557527 0.0020985024 0.011171315 0.005854269
0000a0 d5 d8 f6 3b 5a 3f 48 3a 6b 1c 96 3b ba 08 53 3a
       0.0075331726 0.00076388346 0.0045810244 0.00080503116
0000b0 a0 97 9e 38 5c 62 1f ba 23 68 64 3b 87 9c 41 3b
       7.5622695e-05 -0.00060800253 0.003485211 0.002954276
0000c0 37 5f e0 3a cc 49 3f 3c 50 7a e7 ba 5a 08 a9 b9
       0.001711822 0.011675309 -0.0017660353 -0.00032240414
0000d0 89 3b 7c 3a 77 f6 e6 39 cf 03 c3 3b 4a 13 d3 ba
       0.00096219085 0.0004405265 0.0059513818 -0.0016103771
0000e0 e2 86 04 3a 08 e8 a0 3a 68 48 50 3c 7f 22 74 3b
       0.00050554995 0.0012276182 0.0127125755 0.0037252007
0000f0 bb 22 09 bc cd 48 98 39 d7 8f 16 3b da 0f 58 3b
       -0.008370097 0.0002904594 0.0022973919 0.0032968433
000100 c8 93 59 bc 10 67 04 3b ed 64 9d 3b 28 ea 2e bb
       -0.013279863 0.0020203032 0.004803291 -0.002668986
000110 30 69 92 bb f0 da e8 3b 00 0b 94 ba 23 25 89 3b
       -0.0044681057 0.0071061775 -0.0011294782 0.0041853352
000120 1a c3 aa bb 06 56 bc ba 90 78 73 3b 61 be 86 3a
       -0.005211246 -0.0014368899 0.0037150718 0.0010280126
000130 e0 10 4e 3c b6 ea e1 3b 39 b8 27 3c fe b5 49 3c
       0.0125772655 0.006894435 0.010236793 0.012311457
000140 5f 95 f5 3b 4a cd 9e bb 3e 94 aa ba 49 e9 13 3c
       0.007494613 -0.0048462497 -0.001301415 0.0090277875
000150 73 26 88 3a c7 72 68 3b d6 2b 4a bb 30 33 95 bb
       0.0010387435 0.0035468803 -0.0030848882 -0.004553221
000160 12 c7 d2 3b d5 20 3a 3b c5 d3 77 3b 04 dc df 3b
       0.0064324224 0.0028400917 0.0037815433 0.006831648
000170 68 b2 e2 3b 79 20 1b 3c 92 ad 19 3b f3 03 61 bb
       0.0069182403 0.009468191 0.0023449403 -0.003433463
000180 8d c2 e1 39 3e b0 26 bb 59 69 4e 3a c3 f3 12 ba
       0.00043060296 -0.0025434638 0.00078739744 -0.00056057813
000190 47 77 be bb 53 8a af bb 9c da 10 3c a8 a4 dc 39
       -0.005812559 -0.0053570657 0.008841183 0.00042084348
0001a0 cb c6 df 3b ba a6 54 3c 3a ec e5 bb 98 c2 31 3c
       0.006829118 0.012979204 -0.007016686 0.010849617
0001b0 25 c6 20 3b 96 d5 b6 38 f2 60 f1 3b e0 a4 6e 3c
       0.0024532166 8.71822e-05 0.007366293 0.014565676
0001c0 64 2f d6 b8 e8 b2 3b 3a fc 95 43 3c 48 88 a5 3c
       -0.000102131424 0.0007160143 0.0119376145 0.020206586
0001d0 a1 20 e4 3b 10 df 83 b8 5d 49 6b bb f3 01 ef 3b
       0.0069618975 -6.2881154e-05 -0.0035901882 0.0072939335
0001e0 73 8c 4f 3c 93 7b 27 bb ed 3a 28 3c 58 7c 44 39
       0.012667763 -0.0025555834 0.010267955 0.00018738338
0001f0 0e 8c 9f 3c 5d 3c c6 3a 9f f4 a9 3b 5c 99 c7 bb
       0.019475963 0.0015124191 0.005186632 -0.00609128
000200 ae ae 89 3b 60 bf c3 3a 85 47 d4 3b 84 ee 47 3a
       0.0042017316 0.0014934354 0.0064782524 0.0007626789
000210 37 6d 0d bb 23 5c 61 3b 09 96 9a ba 03 c0 3b 3c
       -0.002157999 0.0034387193 -0.0011793982 0.011459353
000220 c1 44 02 3c 2b 10 f2 bb 03 46 a4 3b 99 5c 24 39
       0.0079509625 -0.0073871813 0.005013229 0.00015674754
000230 17 5f 85 bb f5 c6 3f bb bd e9 3a bc e3 ef 99 bb
       -0.0040701735 -0.0029262875 -0.011408267 -0.004697786
000240 21 2b 45 3b 0d 21 94 3a 72 e3 9e 3b 78 7e d7 3a
       0.0030085521 0.0011301354 0.004848891 0.0016440889
000250 ae a0 59 3c 61 9f ef 3b 80 ca 01 37 be 79 d5 3b
       0.013282938 0.0073127006 7.736147e-06 0.006514757
000260 3f 23 42 3c 01 ca ae bb 51 ba ac 3b 8e bf 9d 3b
       0.011849224 -0.0053341393 0.005271234 0.004814095
000270 f0 4f 9d 3c bc d1 5f 3b d8 77 e2 3b 59 5a f6 3b
       0.019203156 0.003415211 0.006911259 0.0075180945
000280 39 19 1a bc d7 59 87 3b 65 ce 94 b9 98 b4 33 3b
       -0.009405428 0.004130583 -0.00028382536 0.0027420875
000290 e2 c5 0b 3c c9 95 dd 3b 12 c0 9a ba 1c e9 f1 3b
       0.008531066 0.0067622405 -0.0011806509 0.007382525
0002a0 50 21 1a 3c 9d 33 64 3c 14 55 87 3b 2e 98 24 bc
       0.009407356 0.013928321 0.004130015 -0.010046048
0002b0 4c c7 7f 3c d6 44 46 3b 0d 6a f3 ba 33 c5 a6 bb
       0.015611481 0.0030253432 -0.0018571034 -0.005089426
0002c0 ed d1 46 3a 36 a4 ed bb f3 c6 8b bb b1 8d bb 3a
       0.0007584382 -0.0072522415 -0.00426566 0.0014309195
0002d0 a9 bc d5 3b 99 a1 47 3b 9b 7c 61 bb ad 59 ac 3a
       0.006522734 0.003046131 -0.0034406546 0.0013149284
0002e0 0f 2f 9d 3b ac d9 2b 3b 6a bc ef 39 ef 7b 06 bc
       0.0047968696 0.0026222272 0.00045726012 -0.008208259
0002f0 55 62 96 3b 58 96 68 3c f1 f0 86 3c 85 68 67 38
       0.004589359 0.014196001 0.016472312 5.5172033e-05
000300 3e c3 37 bc eb 73 c8 bb 81 ad 8c ba cb 83 1d 3c
       -0.011215983 -0.006117334 -0.001073286 0.009613941
000310 e9 44 36 3a 47 01 93 3b 7b 80 e4 39 8c de 7a 3a
       0.00069530174 0.0044862363 0.00043583274 0.0009569905
000320 0a 2c 58 bb 78 65 b9 3b 78 8f bc bb 73 d1 7e bb
       -0.0032985234 0.005657848 -0.0057544075 -0.0038882166
000330 53 c6 d0 3a 88 66 2c 3b b7 30 09 bc c6 f3 01 bc
       0.0015928246 0.002630623 -0.008373431 -0.007931655
000340 d1 4a 04 3b 18 a4 89 bb cd 3d 0e 3c 0a a1 c5 3b
       0.0020186196 -0.0042004697 0.008681727 0.0060311602
000350 92 76 c6 3a 77 83 03 3c c5 b7 ab 38 a9 f2 eb 3b
       0.0015141538 0.008026949 8.188145e-05 0.007200558
000360 4b 17 d7 3a 41 6c 47 3c 24 bf 9c 3b 28 c9 4c ba
       0.001641014 0.012171806 0.004783528 -0.0007811957
000370 3e c5 ba 3a 0f 15 7e bb cb aa 13 bc 00 c6 d4 3b
       0.0014249457 -0.0038769876 -0.009012888 0.00649333
000380 57 2d c4 3b a5 20 b7 ba 9a b8 4c 3c 90 9a 96 3a
       0.0059868502 -0.0013971521 0.012495184 0.0011490155
000390 f9 27 d0 3a 0f 5f e5 3a a4 24 7e 3c b6 0d e3 b9
       0.0015881053 0.0017499643 0.0155116655 -0.0004330703
0003a0 00 ce 12 3b ed 3c 7b 3b ce 94 40 3c 49 22 c1 ba
       0.0022400618 0.0038335875 0.011754228 -0.0014734949
0003b0 4d d4 79 3c 4a cf 2a bb 67 3b c5 3b f3 a1 4a bb
       0.01524837 -0.0026063495 0.006019044 -0.0030919283
0003c0 6f fb 1d bb a6 c9 34 3c 7d 63 92 3a 0f 6d 91 3b
       -0.0024106165 0.011034405 0.0011168566 0.0044380496
0003d0 19 c2 a6 3b f7 c9 5d 3c 18 c9 29 3a e5 25 51 3c
       0.005089056 0.013536922 0.00064768037 0.012765382
0003e0 04 f5 c9 3b 83 cb 9c 3b 63 a8 14 bc 94 b5 37 bc
       0.0061632413 0.0047850027 -0.00907335 -0.011212725
0003f0 7d 9d b4 b9 c9 f4 18 3b 34 a0 1b 3b fb 08 d6 3b
       -0.00034449613 0.0023339263 0.0023746612 0.0065318323

network_body._body_endoder.seq_layers.2.weight f4 [256, 256]
000000 18 36 de bd e5 8b 4c 3d 8f d1 48 3d 08 8a 80 3b
       -0.10850161 0.0499381 0.049027976 0.0039227046
000010 a0 0b da bc 69 ca 7e 3c 60 21 11 38 e4 72 cc 3c
       -0.026616871 0.015551188 3.4601777e-05 0.024957128
000020 2d c6 42 3d 17 26 2e bd bf d8 20 bc 75 93 0b 3c
       0.047552276 -0.042516794 -0.009817301 0.008519043
000030 80 61 82 bd 13 58 6f bd a8 bb 65 3d f8 24 83 3d
       -0.06366253 -0.058433603 0.056087166 0.064035356
000040 ff 3b a9 bd a8 19 de 3d 1e e2 ab bd 45 99 1b bd
       -0.082633965 0.10844737 -0.08392738 -0.037987966
000050 d6 de 9c bd a5 bc 53 3d 84 4d fe bc c0 65 ac bc
       -0.0765969 0.051693577 -0.031042822 -0.021044612
000060 6f 45 d6 bd 94 15 47 bd 87 a3 5c bd 9c 83 26 be
       -0.10462462 -0.048604563 -0.05386689 -0.16261142
000070 5a 3a 87 3d 54 00 43 3d 95 24 8e 3c 73 5a 41 3d
       0.066029266 0.047607735 0.017351428 0.0472054
000080 71 41 e9 bc c7 bb 7d 3d 8c 9f 95 bd 1c 1c 03 bd
       -0.028473588 0.061946657 -0.07305822 -0.03200923
000090 5d 87 bb 3c 32 00 3d bd a3 8d 6c bd c6 69 41 3e
       0.022891695 -0.046142764 -0.057752263 0.18888006
0000a0 36 58 b5 3c 54 22 0d 3b 5d 88 9d bd cb 34 ef bd
       0.022136789 0.0021535354 -0.07692025 -0.11679991
0000b0 24 29 be 3d fa 2c f4 bc c3 6a 4b bd 07 c4 20 bd
       0.09285191 -0.029806603 -0.049662363 -0.039249446
0000c0 db 7b 98 3d 3d 62 34 bd 2d 93 56 bd 70 84 a8 bc
       0.074454986 -0.044039 -0.05238645 -0.020570964
0000d0 29 24 32 bd a6 bc bd bd 59 f5 d1 bc 55 7d a0 bd
       -0.043491516 -0.092644975 -0.025629686 -0.07836405
0000e0 73 14 2c bd cb a7 ba bd 21 ef 99 3d d6 97 86 3c
       -0.04201169 -0.09114035 0.07516313 0.016429823
0000f0 a4 ac b1 3d 4c 49 27 bd 5a 6c e4 bd 9a 6d 00 bd
       0.08675507 -0.040841386 -0.11153479 -0.031354524
000100 8c ba 26 3e da e8 8a bd 66 be 6e 3c a8 62 a0 bd
       0.162821 -0.06782694 0.014571762 -0.07831317
000110 c2 02 50 bd 7c b6 8e 3d 37 08 ba 3c 50 a5 a1 bc
       -0.05078388 0.069684 0.022708995 -0.019732147
000120 1b 45 2e 3e 46 37 39 3d 9e be d9 39 ef f8 fb 3c
       0.17018549 0.04521873 0.00041531486 0.03075835
000130 33 ac 10 3e 8e 9e 7e bb 74 30 dc bc e5 42 b1 bd
       0.14128189 -0.003885183 -0.026878573 -0.08655337
000140 f4 c2 51 3d 8e 55 b7 bd ce 37 c6 bd 97 1f 88 3c
       0.051211312 -0.08951865 -0.09678613 0.016616626
000150 7a d2 17 bd 1f 0e 9e 3c 0d c2 89 bc 77 8a 2d 3d
       -0.03706596 0.019293843 -0.016816163 0.04236838
000160 59 70 d9 3b ee 40 34 bc ee 7b 20 3d ba ec 8b 3d
       0.0066357073 -0.011001809 0.03918069 0.068322614
000170 49 f9 11 3c ad c5 67 3c 55 a8 48 bc 94 97 d1 3d
       0.008909532 0.014146251 -0.012247165 0.10233989
000180 8b 61 39 bd 39 bf ec bb 10 2e 80 bc eb 7e f1 3d
       -0.04525904 -0.007224944 -0.015646964 0.11791786
000190 27 5c bc bd 7e dd 48 bc c9 cd 1c 3e 8c 9f 0a bd
       -0.09197264 -0.012259839 0.15312876 -0.033843562
0001a0 eb 1d 91 bd 4d 42 c4 bd d2 5a d0 3d c6 17 39 bd
       -0.070857845 -0.09582958 0.101735726 -0.045188688
0001b0 17 37 6b bc 13 e8 b7 3d 5d af 3a bd 12 4e 1a 3d
       -0.014356396 0.089798115 -0.045577396 0.03767211
0001c0 34 77 83 bd d8 96 9e 3d d1 10 29 bd a1 98 7b 3c
       -0.064192206 0.07743615 -0.041275803 0.015356214
0001d0 eb d8 98 bd d1 8f 98 3d 18 8d ac bd d1 1b 81 3d
       -0.07463249 0.07449306 -0.08425349 0.06304134
0001e0 76 c8 38 bd af f2 98 bc 17 ba 1b 3d 6d 59 cc bd
       -0.04511305 -0.018670408 0.038019266 -0.09977994
0001f0 3f 23 5f bb c4 b4 b4 3d 74 ee 8e 3d 2c 07 21 bd
       -0.0034048108 0.08823541 0.06979075 -0.03931348
000200 36 72 1b 3d 8c 52 90 bb ac c3 b2 bc ee f0 bb 3d
       0.037950717 -0.0044043716 -0.02182182 0.09176813
000210 27 d7 33 3d 16 60 ed 3d b9 44 aa bd d5 82 74 bd
       0.043906357 0.115905926 -0.08313889 -0.059695084
000220 97 54 e1 bb c4 c2 22 bd fc 6a b5 bc 45 c1 28 bd
       -0.006876539 -0.039736524 -0.02214574 -0.04119994
000230 19 ef 6a 3d 66 fe 58 bd 1c f3 80 3d c9 b4 47 bd
       0.057356928 -0.05297699 0.062963694 -0.048756395
000240 1e f5 dd 3d 39 7b 22 3c 46 ea 0a be 9a 33 23 bb
       0.10837768 0.009917074 -0.1356593 -0.0024902583
000250 ea ad 82 3d c3 67 18 bd ed d7 39 3c d1 dd c4 bd
       0.06380828 -0.03720833 0.011342985 -0.096126206
000260 b9 b5 9e bd 51 41 c4 bd fe 63 8f bc 9d 0e 88 bd
       -0.077495046 -0.095827706 -0.017503735 -0.06643412
000270 18 b7 f2 3c f6 00 35 3c a5 f9 fa bb 37 59 59 bd
       0.029628322 0.011047592 -0.0076591545 -0.053063598
000280 02 52 b3 bc eb a9 b7 3d 94 62 97 3d b4 04 1a bc
       -0.02188969 0.08967956 0.07391849 -0.009400535
000290 a9 f6 38 bd 77 04 9a 3b df b2 ee 3c c9 4c ba 3b
       -0.04515711 0.0047002393 0.029138027 0.005685423
0002a0 54 f9 24 bd dc 1f fd bd ee ca b7 bd 33 fe 9f bd
       -0.04027684 -0.12359592 -0.08974253 -0.078121565
0002b0 d2 49 e7 bc d9 fb 4c 3d 3a d6 50 bd fe b0 c3 3b
       -0.028233442 0.05004487 -0.050985552 0.005972027
0002c0 b9 7f 86 bd ea 34 8e 3d 3e c9 5f bd 44 2a fb 3c
       -0.0656733 0.06943686 -0.05463528 0.030659802
0002d0 88 b3 0d 3d 57 d6 66 bd 8d 45 5e 3d 65 66 35 3d
       0.034595042 -0.056356754 0.054265548 0.044287104
0002e0 a1 53 89 bd 1e 1d f8 3d 33 2f 84 3b d8 89 11 be
       -0.06705404 0.12114929 0.004033947 -0.1421274
0002f0 b4 f5 78 bc 60 a9 e1 3d e6 fd 89 3d af ad 32 3d
       -0.015195299 0.11018634 0.067378804 0.04362267
000300 fc 46 6a bd 41 bc d5 bc ac cc 0b bd 2b 33 5d bd
       -0.057196602 -0.026090743 -0.034130737 -0.054003876
000310 cb 10 7f 3a 13 27 4d 3c bf 16 a7 bd 4d 10 1a 3e
       0.00097299804 0.012521523 -0.08158635 0.15045281
000320 2d c3 3c bd 4d b6 8a 3d 8a db e6 bc e5 06 90 3d
       -0.04608457 0.06773052 -0.028180856 0.07032565
000330 8b f9 95 3c b6 11 aa bc 4b 41 2b 3d 3b ee e0 3d
       0.018307468 -0.020760398 0.041810315 0.10982939
000340 ef f5 6b bd 9b 3c 0f 3d 61 0d 31 bd a7 88 b4 bd
       -0.057607587 0.034969907 -0.04322565 -0.08815127
000350 5c a3 7a bd 72 39 de 3d bc 19 5d bd 77 3b 2c 3d
       -0.061190948 0.108508006 -0.05397962 0.042048898
000360 8b 7e a0 3d bd 39 28 3d c1 6e 4a 3c 38 0a 18 3d
       0.07836636 0.04107069 0.012355507 0.03711912
000370 6a bd 6e 3d fb 03 2e bc 42 c5 ea bc d7 ca c1 3d
       0.058286108 -0.010621066 -0.028658513 0.09462517
000380 79 89 61 bd 53 50 ff bc 67 49 28 3d e3 59 8d 3c
       -0.055062745 -0.031166231 0.041085627 0.017254775
000390 96 3a 24 bd a7 48 8f bd 67 c5 95 3d ad 49 8f 3d
       -0.040094934 -0.06996279 0.07313042 0.069964744
0003a0 8c 52 60 bd 49 27 ab bb 93 5d af bd 0e ff ca 3b
       -0.054766223 -0.005223189 -0.0856277 0.0061949557
0003b0 5c 3a 9f 3a cf 04 e6 3c a0 94 8f bd 48 5d 55 3d
       0.001214813 0.028078465 -0.0701077 0.052090913
0003c0 d4 8f 8d bd d4 08 cf 3c 32 c6 ee 3d 3a b7 00 3d
       -0.06912199 0.025272764 0.116588965 0.03142474
0003d0 aa 6f 84 bc d6 67 45 3d 24 c5 08 3e a9 07 0d be
       -0.016166527 0.04819473 0.13356453 -0.13772453
0003e0 dd 0e a2 3b 7c da 91 3d 42 33 cc bd 98 5e b9 bc
       0.0049456195 0.07121751 -0.09970714 -0.022628114
0003f0 e8 c1 21 bd 1e b2 cb bc 86 ef 8f 3c e6 2d 5e 3d
       -0.039491564 -0.024865206 0.017570268 0.05424299

network_body._body_endoder.seq_layers.4.bias f4 [256]
000000 fc 87 0a 3b 2f 06 e0 ba dd cd 88 3b 04 15 2e 3c
       0.0021138182 -0.0017091687 0.0041749314 0.010625128
000010 63 e1 62 3b 1d e4 8c bb 54 27 c3 3b 2a 02 36 bb
       0.0034619204 -0.004299654 0.005955616 -0.0027772286
000020 f5 4d 81 b9 b4 47 ef bb df 1e a1 3b fd 2d 34 bb
       -0.0002466288 -0.007302249 0.00491701 -0.0027493231
000030 55 13 02 3c af 11 56 3b 3c 50 68 3b 48 1a 8e 3b
       0.007939179 0.003266435 0.0035448214 0.004336629
000040 0e 19 5d 3b d1 1e 43 bb 57 6f a6 3b fe 5a 01 3c
       0.0033736858 -0.0029773007 0.0050791907 0.007895229
000050 b0 44 0f 3c 2f 1d db ba 4e 81 ff 3a 33 64 4e bb
       0.008744404 -0.0016717071 0.0019493492 -0.003149283
000060 07 6d a9 ba 81 eb 1d 3c 82 bb 35 b6 61 b1 d3 3b
       -0.001292617 0.009638668 -2.7080246e-06 0.006460354
000070 d4 09 50 3a 5c c6 36 3b 6a ef 89 3b 56 dc 0d 3c
       0.0007936035 0.0027889227 0.0042094486 0.008658489
000080 e9 63 a9 3b ac 25 55 bb 39 1e 7e 3a 30 a1 a4 3b
       0.005169381 -0.0032523675 0.00096938346 0.005024098
000090 d4 ec 66 bb 22 a8 aa 3b 2c 88 a3 3b 02 05 e5 3b
       -0.0035236375 0.0052080313 0.004990598 0.0069891224
0000a0 59 76 25 bc 7f 97 61 3a 5e 4e 55 3b 28 32 89 bb
       -0.010099017 0.00086056435 0.0032547931 -0.0041868873
0000b0 2f f7 00 39 1c f1 ed ba 65 ff 8f bb ba 72 1f ba
       0.00012299114 -0.0018153521 -0.004394459 -0.0006082464
0000c0 89 76 cc 3b 62 b2 6e ba ca 32 c3 3b 57 80 ad 3b
       0.0062397164 -0.00091055606 0.0059569823 0.0052948403
0000d0 05 9a 68 bb f6 d0 ed 3b 99 b8 f0 3b dc 69 59 bb
       -0.0035492193 0.007257576 0.0073462245 -0.003317467
0000e0 54 3e 2b bc be 2c 55 3b f9 f8 27 3c df 1e 0f bb
       -0.010451872 0.003252789 0.010252231 -0.002183847
0000f0 bb 65 c8 b9 ae 16 3c bb eb 28 15 3b cb 45 1b ba
       -0.00038222768 -0.0028700042 0.0022759985 -0.0005923181
000100 68 84 bd 3a 97 94 a3 ba 83 4a 56 3c 0a e2 1a ba
       0.0014459016 -0.0012480196 0.013079288 -0.0005908316
000110 01 91 34 3b d7 78 72 3b d5 95 32 3b bf 7b 16 3c
       0.002755225 0.0036998296 0.0027249951 0.009184777
000120 3f 76 93 3b 08 72 dd ba 28 50 79 bb 3b 02 bf b9
       0.00450018 -0.0016894946 -0.0038042162 -0.0003643202
000130 a5 9e 94 3b 9b 41 81 b9 d0 3e a0 b9 48 9a 21 3b
       0.0045355135 -0.00024653677 -0.00030564377 0.002465861
000140 33 9f a2 3a d7 7a b4 3b 23 a8 d7 3b 8c c5 a9 3a
       0.0012407064 0.0055078077 0.0065813228 0.001295255
000150 87 7b f1 b9 72 bd c3 3b d5 70 19 bc bc 59 ea ba
       -0.00046059137 0.0059735114 -0.00936528 -0.0017879526
000160 cf cd 9c b9 35 81 70 bb 84 e7 19 bb 38 c3 12 3b
       -0.00029907978 -0.0036698107 -0.0023483941 0.0022394191
000170 cc 86 8b b9 d3 70 77 bb cc 49 2d 3c 33 13 1c 3c
       -0.00026612577 -0.0037756457 0.010576677 0.009526062
000180 37 e2 d6 3a c4 4b 76 3b 65 e9 aa 3b bd 7d f1 3b
       0.0016394322 0.003758178 0.005215811 0.0073697255
000190 f1 fa 98 ba d3 ba ac 3b 22 f2 0c 3b 85 0f 85 3a
       -0.0011671466 0.0052712946 0.0021506627 0.001015172
0001a0 6b 64 21 ba 61 83 97 bb e9 a9 cb 3b ce c4 9d 3b
       -0.0006156626 -0.004623816 0.006215323 0.0048147207
0001b0 98 5e 30 3c 0f 91 3b bb aa 3b 34 ba 06 04 38 bb
       0.01076474 -0.0028620397 -0.0006875346 -0.002807857
0001c0 84 9d fb 3b 12 62 09 3c 27 b2 21 3a 29 59 08 3b
       0.0076786894 0.008385198 0.00061682094 0.0020805097
0001d0 ee 0a ec bb 14 b0 37 bb 6c cd 66 3b 44 80 6b 3c
       -0.0072034514 -0.0028028535 0.0035217656 0.014373843
0001e0 77 cd 71 bb b3 4e 6a bb 5c 36 9e 3b 50 73 ed 3b
       -0.0036896148 -0.0035752475 0.0048282575 0.0072464123
0001f0 ab c5 52 3c a2 d3 cf bb 4c e7 15 3b b4 4a 70 bb
       0.0128645105 -0.0063423673 0.002287346 -0.003666562
000200 17 3f 17 3c c8 bc d1 3b 82 cd a2 3b f0 96 73 3b
       0.00923135 0.0064006783 0.004968346 0.0037168823
000210 b5 0b 3b 3a 43 2b 29 ba 50 9d e3 3a 1c df ce 3a
       0.00071352284 -0.0006453285 0.0017365608 0.0015783045
000220 cf 89 30 3c 2f fb b7 3b a8 e4 01 bc 78 a1 03 3c
       0.010775044 0.00561466 -0.007928051 0.008034103
000230 8c f8 7f 3b f4 9c 7e bb 44 4d 73 3b d7 09 43 3a
       0.0039058058 -0.0038850876 0.0037124911 0.0007440126
000240 46 e3 49 3a 71 4f 21 bb 6e b7 ca 3a e9 fd 40 3b
       0.0007701408 -0.0024614 0.0015466043 0.0029448217
000250 54 af 20 bc ef 19 2d 3c 92 5b 94 bb ab c2 94 bb
       -0.0098074265 0.010565265 -0.0045275176 -0.004539808
000260 9c 51 fe 3b 8a 08 40 b9 47 60 71 39 61 9f 9a bb
       0.0077611934 -0.00018313728 0.00023019417 -0.0047187065
000270 d9 af 42 3a e6 9b 46 3c 59 e2 a9 3b 07 48 9a 3b
       0.0007426716 0.01212213 0.0051844534 0.0047082934
000280 5f c3 57 39 e4 6b 39 3b 0e bb 00 39 bf 5f 13 3c
       0.00020576779 0.0028293068 0.00012276715 0.008994996
000290 3e 1c bb 3a 40 35 fe 3b b1 99 b7 3b 5e bc 06 bb
       0.0014275385 0.0077578127 0.0056030382 -0.0020559053
0002a0 b3 12 5b bb 35 cd a2 3b 53 ca 01 3b ae d4 af 3b
       -0.0033427894 0.0049683102 0.0019804433 0.0053659296
0002b0 54 db d6 3b e7 d1 00 3b 34 a9 0a 3c e5 8c a3 3b
       0.0065569077 0.0019656362 0.008463193 0.004991161
0002c0 71 04 09 3c 7a 63 16 3c 35 63 fb bb 4a fd 85 ba
       0.008362875 0.0091789905 -0.0076717385 -0.0010222581
0002d0 c2 1c 23 3c 18 ad 0d 3c 71 f9 de 3b e3 70 34 bb
       0.009955587 0.008647226 0.006804638 -0.0027533106
0002e0 c3 dd 7c 3b b1 b2 87 b9 ce 55 d3 3a c7 24 d5 bb
       0.0038584329 -0.00025882342 0.0016123594 -0.0065046283
0002f0 cb d6 81 bb e7 7f 2e ba 38 12 26 bb e5 c5 23 3c
       -0.003962373 -0.0006656632 -0.002534045 0.009995912
000300 53 47 53 ba 9a 9a f2 3b 80 4e b7 ba ab e2 e4 3b
       -0.00080596394 0.007403684 -0.0013985187 0.0069850287
000310 64 98 c9 bb a2 c3 03 bc 60 13 b9 b9 88 14 94 bb
       -0.0061521996 -0.008042248 -0.00035300385 -0.004519049
000320 0a 02 75 3c 2a c9 2f 3c 4d be c2 39 1e 67 09 39
       0.014954099 0.010729114 0.0003714435 0.00013103752
000330 cf 3d 19 bb f8 1b 9b ba 45 b2 d6 3a 39 fc f7 3b
       -0.0023382788 -0.0011833897 0.0016380033 0.007567909
000340 c4 36 c2 3a 1a 86 b7 bb cd cc 69 3b 51 26 d2 39
       0.0014817347 -0.005600703 0.003567505 0.0004008287
000350 ad 85 89 3b c2 c6 1d 3c 26 a9 5e 3b bb a0 0f 3c
       0.0041968436 0.009629907 0.0033975332 0.0087663485
000360 cd 52 b4 39 82 45 89 3b ca 7b 91 bb 59 10 04 3b
       0.00034393967 0.004189194 -0.0044398056 0.0020151346
000370 19 0d ce 3b ed 78 73 ba 88 2f 81 3c 35 08 64 ba
       0.0062881825 -0.00092877337 0.015769735 -0.00086987327
000380 c2 d1 80 b9 ae 59 12 3c 77 64 03 bb 59 34 2d 3c
       -0.00024570344 0.008932514 -0.0020048895 0.010571563
000390 1d e5 1a bb a6 2f 82 bb bc c9 99 3b 8e 47 6b ba
       -0.0023635097 -0.0039729653 0.004693238 -0.0008975201
0003a0 8c 07 e5 3a 62 a1 22 3b cd 0e b4 3a 82 18 3a 3c
       0.0017473563 0.002481543 0.0013737321 0.011358382
0003b0 be 5a a3 3b e8 9b ef b9 ed 86 38 3c 5a 6c 76 3b
       0.0049851825 -0.00045701792 0.011262638 0.0037601204
0003c0 a2 99 bb 3b 2c af c1 3b 5e 8d ec 3a 40 02 0d 3c
       0.0057251016 0.0059107747 0.0018047502 0.0086064935
0003d0 fa d4 a5 ba 09 ea 91 39 fd a4 e1 3b fc 88 0f 3b
       -0.0012651973 0.00027830925 0.006886123 0.0021901717
0003e0 44 c4 c4 b9 88 e6 17 3c 5b a5 14 3c 90 a3 18 3b
       -0.00037530262 0.0092712715 0.009072627 0.002329085
0003f0 60 5d ca 3b 62 8e 07 3c 7f cb 23 3b 48 0d d7 3b
       0.006175682 0.008273693 0.002499312 0.0065628625
