Assets/Training/results/RUN1/SzitakotoBehavior/SzitakotoBehavior-4535088.onnx (onnx, 670607 bytes, 13 tensors)

65 f4 [132]
00000000: 27e8 9f3e 1372 583e 9243 c03e 87c5 7d3e
00000010: 45ad 9f3e 7f95 583e e41e c03e 5483 7a3e
00000020: fd66 983e b7d1 563e aa9b ba3e 656e 7d3e
00000030: d4be 983e 4093 543e a56f ba3e 4889 703e
00000040: 6419 933e f997 543e a873 b63e 89eb 793e
00000050: 5729 843e d30e 493e 887e a93e 2d91 5e3e
00000060: 035c 933e e068 4f3e 9182 b53e 54ac 713e
00000070: 75ed 413e f792 3e3e 2fd7 8f3e 56e4 493e
00000080: a9ec 903e d8cc 453e d8ad b13e d955 633e
00000090: 0448 363e 8c94 4f3e 77ae 913e 6a00 3c3e
000000a0: d112 843e 3a34 3e3e 67e6 a63e 254b 513e
000000b0: 2546 a03e 85ee 583e f57d be3e 7a46 763e
000000c0: b2ff 9f3e bd19 593e ec62 be3e eeea 723e
000000d0: 54b8 983e f650 573e 7dae b83e 01e7 753e
000000e0: 0614 993e 1514 553e e684 b83e 366d 683e
000000f0: a95f 933e ee1c 553e a96b b43e bd31 723e
00000100: c47a 843e c08b 493e d921 a73e b251 553e
00000110: 3ba0 933e c8ed 4f3e 4b76 b33e d797 693e
00000120: 3a67 423e af17 3f3e 34a5 8c3e bb2d 3f3e
00000130: 762f 913e e351 463e 6d8f af3e 2272 5a3e
00000140: 56c1 363e 0f40 503e 7d98 8e3e ee4a 303e
00000150: 4d54 843e b8b5 3e3e 936f a43e dd3f 473e
00000160: 54a3 a03e 1b6b 593e 68b2 bc3e 937e 6e3e
00000170: e15d a03e 4f99 593e 0691 bc3e 4ff9 6a3e
00000180: 7d00 993e f7d0 573e d7ca b63e f909 6e3e
00000190: 4d77 993e 8692 553e bd90 b63e e5e4 5f3e
000001a0: 85a2 933e e59c 553e e75c b23e 9f22 6a3e
000001b0: 76cc 843e a007 4a3e 91bf a43e 0a89 4b3e
000001c0: 30e5 933e b16c 503e b058 b13e c718 613e
000001d0: 18e1 423e 189c 3f3e 7954 893e f6b3 333e
000001e0: 9672 913e fdd1 463e 9757 ad3e b211 513e
000001f0: be33 373e 02ef 503e ad66 8b3e 048b 233e
00000200: 6094 843e 8931 3f3e 46e8 a13e ce8e 3c3e
0.31231806 0.21137266 0.37551552 0.24782382 0.31186882 0.21150778 0.37523568 0.2446416
0.29766074 0.20978437 0.36446887 0.24749143 0.2983309 0.20759296 0.36413303 0.23489869
0.2873031 0.20761098 0.35635114 0.24406256 0.2581279 0.19634561 0.33104348 0.21735068
0.28781137 0.2025485 0.35451177 0.23600894 0.18938239 0.1861075 0.2809386 0.1971601
0.28305557 0.19316423 0.34702945 0.22200717 0.1780091 0.2027151 0.2845342 0.18359533
0.25795606 0.1857461 0.32597658 0.20438822 0.31303516 0.21184738 0.37205473 0.24050322
0.31249768 0.21201225 0.37184846 0.23722431 0.2982813 0.21026978 0.36070624 0.24013902
0.2989809 0.20808442 0.36038893 0.2269791 0.2878392 0.20811817 0.35238388 0.23651786
0.25874913 0.19682217 0.3264301 0.20831946 0.28833184 0.2030555 0.35051188 0.22811829
0.1898469 0.18661378 0.2746979 0.18669789 0.28356522 0.19367175 0.34289113 0.213326
0.1784719 0.20336936 0.27850714 0.17216083 0.25845566 0.18624008 0.32116374 0.19457956
0.3137461 0.21232264 0.36854863 0.23290472 0.31321624 0.21249889 0.36829394 0.22946666
0.29883185 0.21075808 0.3570163 0.23245992 0.29973832 0.20856676 0.35657302 0.2186466
0.2883493 0.20860632 0.34836504 0.2286477 0.2593724 0.19729471 0.32177404 0.19876495
0.28885794 0.20353962 0.34637976 0.21982108 0.19031179 0.18711889 0.2682226 0.17549118
0.28407735 0.19416042 0.33855888 0.20416906 0.17890832 0.20403674 0.27226773 0.15970999
0.2589445 0.1867124 0.31622523 0.1841385

68 f4 [2]
00000000: 74b4 273e 9315 923e
0.16377431 0.28532085

action_model._continuous_distribution.log_sigma f4 [1, 2]
00000000: 5e89 a9bc 0404 03bc
-0.020695385 -0.007996563

action_model._continuous_distribution.mu.bias f4 [2]
00000000: a290 03ba fa9b b93b
-0.00050188054 0.005664346

action_model._continuous_distribution.mu.weight f4 [2, 256]
00000000: c5d3 513c 1e24 173c e59e 69bc 7741 3fbd
00000010: bd96 eabb f2b6 103c 5b34 2e3d d067 d2bc
00000020: 5aaa 0f3c 9406 963b da32 d53b 90c2 34bc
00000030: f749 e2bc e518 af3c f5f3 173d 6a03 c3bc
00000040: d788 ca3c da4c dcba 03eb 0abd 26cc 3fbd
00000050: 2fd2 5ebb 459a 9d3c f095 e93c bd4d f2bb
00000060: 6f81 92bc 3bc4 8ebc ec28 563c 36ef b8bc
00000070: f793 8fbc 8ce0 1d3c 35c6 5b3c 4408 cc3c
00000080: ca9e cf3c f094 893b 8181 5d3c 42d8 dbbc
00000090: 5618 39bc 69fe c13b c02e cfbc 89c0 f73b
000000a0: f600 49bb 0c45 803c dfb4 be3c 4aa4 c2ba
000000b0: ec8d 81bc 9219 b73c 3c9f 0b3c f85f c7bc
000000c0: ccac 8bbc 24e6 73bc 8804 1b3c 535d f33b
000000d0: ae79 43bb 6199 1b3c bf79 eabc b548 b93b
000000e0: 2fe0 8c3a 8e06 a23c d3f3 6abc 5445 303c
000000f0: 5bde 76bc fa6f 193c 4f26 a8bc 3b6e d43c
00000100: e124 bfbc 910b 2ebb 3236 23bd 3e27 043c
00000110: 9109 60bc 1e30 ae3b f287 0b3d ff6c a9bb
00000120: 5307 4c3d 6dbb 433c e908 803c 0038 93bc
00000130: f319 ce3c 2d49 d63b 1db5 b73c cb40 a33c
00000140: f88a bfbc 87e8 1abd 027f 69bb 16dc b13c
00000150: a79b 9ebc ac24 f1bc 4840 95bb 11a0 943c
00000160: 51c0 0e3c d1d6 22bc 429a 45bc c562 24bb
00000170: 0ab4 153c 1e3a e2bb a49a 0cbd 7e55 723b
00000180: e3de ebbc fbd6 443d fb31 cf3b bf5a 08bd
00000190: 5dd9 913c b61a 42ba d308 47bc 1cab aa3b
000001a0: 92c1 9abc 0838 f43b adfe 99bb 152e b33c
000001b0: 2958 0c3d a998 34bc ea61 86bc fc76 f23b
000001c0: 80da 3f3d 8ad7 8dbc 4fc0 6d3b 451d 143a
000001d0: 3674 633c cdd4 883c db69 32bc 0022 78bb
000001e0: 940d 9c3c 75ab 933c 41b8 04bc 566f dcbc
000001f0: d57e aa3b 756a 823c 26de a1bc f7da 643b
00000200: b7fa e1bc 85f8 5cbc c263 f0bb ad0b d7bc
00000210: 5619 6e3c 46dd 8ebc d8d1 34bb b9bd c93b
00000220: 61e2 80bb f54f a5bc ed3a 223b 7742 89bc
00000230: d296 da3b fc4d 0fbb 202b bbbc e06e d8bc
00000240: 1a30 853c fb4d 0a3c fd0b e33c 43d3 f23c
00000250: 7578 bebb 3bf6 febc 4820 5bbb 6a25 8abc
00000260: b506 f9bb f490 263c eca7 ef3c f7f3 4bbc
00000270: f81b 77bb 8028 f1bc 22f7 a4bc ff0f 3d3c
00000280: cac9 693c 13fd 003b 0945 9fbb 4f3e a4bc
00000290: ca7a b8bc 756f a9bc 6dbc 54bc 6b27 ef3b
000002a0: 511f 1bbc 6011 d93c 0c1a e03c e776 af3c
000002b0: 8369 d03b d31f 66bb ad7a 7bbc b1a2 25bb
000002c0: 6e05 f53a 8696 0b3d b7d5 17ba 92fc 153c
000002d0: 7228 4fbd e07c 7cbc 87a8 943c 7d1f 243c
000002e0: ea52 c9bc 7b04 5f3b b877 f6bb 0e34 80b9
000002f0: 57fb ff3a 5c2a dd3b 533f afbb 4f36 e2bc
00000300: da76 013d 8368 89bc 7940 aebb 787d f7bc
00000310: 0f09 823c 2386 af3a 0e32 c03c 50c8 d8bb
00000320: 2cad bcbc 977e f9bc f88a 5cbb 6f37 873c
00000330: c0f8 a23c cc79 073c 5ed4 803c b297 8bbc
00000340: ecff d73c 08cd ecbb 2f16 823b 5cc3 963a
00000350: 8107 a2bc 9883 d83b a8b3 4bbc 082f b2bc
00000360: 3439 a2bc 305c 2f3d 6888 bb3c 34b7 30bb
00000370: 4e8f 0cbc 9823 773c 6814 2dbd c65c a1bc
00000380: e189 d9b9 264d 09bd 7c87 9bbc d8a6 4f3c
00000390: 1cff 403c 414f 443c 43bf 003c 238c 1cbc
000003a0: f9d0 b13c 648c a43b f156 163c 70c3 ba3c
000003b0: 84d4 1cbc 9c3a 10bb 8957 0fbd 3dc3 afbc
000003c0: 33bc e6bc 5f92 383c 98fe c0bc 0035 9abb
000003d0: ed8f 083c 58de 723c b1f2 823c dfa7 ff3b
000003e0: 11e9 e93b 7204 1f3d c0ee 2abd b5d4 b53c
000003f0: 8afc 873c 4052 a43c 7bc9 09bb 13e5 c63b
0.012806837 0.00922492 -0.014259075 -0.04669329 -0.0071590827 0.00883268 0.0425304 -0.025684267
0.008768642 0.004578421 0.006506306 -0.011032715 -0.02762316 0.021374175 0.03709789 -0.023805339
0.024723453 -0.0016807572 -0.03391553 -0.04682555 -0.003399979 0.0192386 0.028513879 -0.007394521
-0.017883984 -0.017427554 0.01307128 -0.022575002 -0.01752661 0.009636056 0.013413955 0.024906285
0.025344271 0.004198663 0.013519646 -0.026836518 -0.011297306 0.0059202206 -0.025290847 0.007560794
-0.0030670739 0.015657924 0.023279605 -0.0014849987 -0.015814744 0.02235106 0.008521851 -0.024337754
-0.01705017 -0.014886413 0.00946153 0.0074268966 -0.0029827165 0.009497018 -0.028622506 0.0056544193
0.0010747964 0.019778516 -0.014340359 0.010758717 -0.015067662 0.009365076 -0.02052608 0.025931468
-0.023333015 -0.0026557187 -0.039846607 0.008065997 -0.013674156 0.0053157946 0.034065194 -0.005170464
0.049811672 0.011946541 0.015629249 -0.017971039 0.025158858 0.006539485 0.022425229 0.019928357
-0.023381695 -0.03781941 -0.003562868 0.02171139 -0.01936133 -0.029436432 -0.004554782 0.018142732
0.008712844 -0.009938912 -0.012060704 -0.0025083285 0.009137163 -0.0069039008 -0.034327164 0.0036977227
-0.028792804 0.048056584 0.006323097 -0.033289667 0.017803842 -0.0007404493 -0.0121481 0.005208386
-0.01889113 0.0074529685 -0.004699549 0.02187256 0.034263764 -0.011022725 -0.016404111 0.007399438
0.046839237 -0.017314691 0.0036277955 0.00056501135 0.013882687 0.016703034 -0.010889496 -0.0037862062
0.019049443 0.018026093 -0.00810057 -0.026908558 0.005203108 0.015919903 -0.019759249 0.0034920552
-0.02758537 -0.013486986 -0.007336111 -0.026250685 0.014532408 -0.017439496 -0.0027590897 0.00615665
-0.0039332365 -0.020179728 0.002475436 -0.016755326 0.006670811 -0.002186655 -0.022847712 -0.026420057
0.016258288 0.008441444 0.027715677 0.029641753 -0.0058126994 -0.031123271 -0.003343599 -0.016863544
-0.0075996765 0.010166395 0.029254876 -0.0124483025 -0.003770588 -0.029438257 -0.020137373 0.011539458
0.014269302 0.0019682094 -0.0048605246 -0.020049242 -0.022519488 -0.02068303 -0.012984377 0.0072984
-0.009467916 0.026497543 0.02735617 0.021419002 0.006360234 -0.0035114184 -0.015349072 -0.0025273974
0.0018693635 0.034079097 -0.0005792039 0.009154456 -0.05057568 -0.015410632 0.018146766 0.010017273
-0.02457567 0.003402977 -0.007521596 -0.00024452846 0.0019529861 0.0067494344 -0.005348125 -0.027613787
0.031607486 -0.016773468 -0.0053177443 -0.030211195 0.01587346 0.0013391416 0.023461368 -0.006615676
-0.023031794 -0.03045587 -0.0033652168 0.016505925 0.019894004 0.008268785 0.015726265 -0.017040107
0.02636715 -0.00722659 0.0039699296 0.0011502313 -0.019778969 0.006607484 -0.01243297 -0.021750942
-0.019802667 0.042812526 0.022892192 -0.0026964666 -0.008579088 0.01508417 -0.04225579 -0.019697558
-0.00041492193 -0.03352084 -0.018985502 0.012674056 0.011779573 0.011981786 0.0078581 -0.009554896
0.021706091 0.0050216187 0.009176002 0.02279827 -0.009572152 -0.002200759 -0.03499559 -0.021455402
-0.028165912 0.011265366 -0.0235589 -0.004706025 0.008335096 0.014823519 0.015984865 0.007801994
0.0071383794 0.0388226 -0.041731596 0.022196153 0.016599912 0.020058751 -0.0021024633 0.0060697882

network_body._body_endoder.seq_layers.0.bias f4 [256]
00000000: afbb 8c3b 8808 4d3b badf 273c 6fe2 af3c
00000010: c2c9 88bc 8252 d0ba 8fad 35bc 8e00 90ba
00000020: 452f 653c aeb6 ceb9 48d4 c43b 3e81 1e3c
00000030: 8df2 9d3c d9cb 343c a324 7c3c 59a0 883c
00000040: f472 083c f09d 963b 55ee cc3b fd35 c43b
00000050: 84f5 353c 40f5 2cbb 06e6 f6bb e546 6d3b
00000060: 2b29 78bb 14ad 173b 4662 283c c369 043c
00000070: de47 e239 7d06 02bb bc2a 3c3c 4330 ef3a
00000080: bf95 003c ce65 243c a1b7 ee3b edd5 67bc
00000090: c99b f53a a0e6 f63a 5a8e 653c f8a6 5e3b
000000a0: 72b4 e0bb 87b9 9f3c 6470 3dbc 5a92 64bb
000000b0: e570 b83b 04ce aa3c cf4d 513a 503a b4bb
000000c0: 248c eaba 47f5 dc3b 902c 863a fef2 f03b
000000d0: 40f3 b4ba 5c07 d9b9 9a50 14bc b049 62bb
000000e0: ffab b7b8 f673 113b ef53 c43c 4adf d0bb
000000f0: 788c 4f3b 1d66 203c 982a 413c e07f 623b
00000100: ff8c c439 2465 34bb 2872 b83b 9934 a03c
00000110: 3d1d 013b 5f48 8639 3914 063a 9509 cd3b
00000120: 716c d13a 982f 1fbc 56eb 1d3b 41df f6ba
00000130: 69bd aa3a 72b0 3cbb aab7 a4b9 e363 b33c
00000140: c101 1b3c e026 4f3c 6840 72bb 8da4 2fbc
00000150: ef79 3aba d2d9 1b3c ed48 0b3c 9076 803c
00000160: a7af debb 31d4 3e3b ddd9 0c3c 028b 613c
00000170: f590 293b 4bce 013c 9aef 483b 23db 053b
00000180: 0987 813b 398e e13b 32a5 2abc b3a5 583c
00000190: b992 c53a c4a7 34bc 3da4 c33b f097 1abb
000001a0: acff e83b e739 8f3b b73a f73b 3132 09bb
000001b0: c41f 13b9 472b d53a fdfb 733b b430 6cbb
000001c0: 143d b93c 1216 983b 0f04 2b3c 6618 423c
000001d0: 573e 063b 0c90 a53b fa81 1f3c 6dbb 493b
000001e0: 055e 323b c844 3abb 92d3 9e3b fa45 8538
000001f0: ff8d 02bc 0c89 123c c0c2 2ebb e687 0a3c
00000200: 969c a2bb 5141 293c 435f 023b b1a7 3b3c
00000210: e86a 2e3c 9372 ab3a aa2c e53a 7919 6f3c
00000220: 99ba 013c c900 29bb d66d 9c3c a059 0e3c
00000230: e0e0 36ba c0a8 883b d8cf 683b 1a42 aa3c
00000240: 353d 793b d047 08bc cd15 043c 5ce6 a83b
00000250: ffc8 7fbb 2401 1a3b 27e3 0f3b 0c7b 503b
00000260: cc1b 0dba 6ad7 c93b 9e20 233c 1f98 973c
00000270: 96f0 04bc 69f4 6c3b 8f31 5b3c bc1b cf3b
00000280: 7464 933b 7375 c6bb c67d e53a 3785 2739
00000290: c1d4 453c 9bd3 bfbb 7d9f 5fbc 6bc9 413c
000002a0: 5ce1 ac3c 958c 123c e7d7 473b b2ea 413c
000002b0: 92a8 01bc ba7a 0a3c d533 33ba 4c38 f23b
000002c0: 3d34 043b b1e0 90bb 70f1 d3b9 0fd9 163c
000002d0: 4f4d 17bb 10f1 853b 6700 153c 1d39 fd3b
000002e0: 9ea5 2b3b 94bb 17ba 2cd1 463b f2ac 3d3b
000002f0: b2c2 b63b 8506 7e3c 8e7f 193c 01fc eb3b
00000300: 1d6b aa3a 62b9 923b bc2a dcbb b66d 803c
00000310: 7127 7c3b b6f7 0d3b 8ffa 18bb 2110 cd3b
00000320: 48ae d238 8a8b a43b 15cd d63b 8ab7 b53b
00000330: 4aa7 71bb 04a8 ddbb ae59 aa3b 8e9a fc3b
00000340: ac3f b83c c3ca 64bb 4443 053c 49d4 b4ba
00000350: 62a2 fc39 5a82 da3b 3159 12b9 bfb3 d93b
00000360: 987a 2fbb 4865 94bb a71a a23c 11dd 90ba
00000370: 45ca 403c 4401 9fbb 8235 953b 39e7 1a3c
00000380: e83b 4c3c f0c2 8d3b 9c9a 6abb 2ec3 003c
00000390: c3c6 653c 7cb9 9d3a e0f3 8c3c cbc5 0c3c
000003a0: 38ac 153b 0a59 92b7 d1c1 8a3c ce89 573c
000003b0: a069 ba3c 8e94 ad3b afb4 b2b8 8dd1 39bb
000003c0: 9939 d1b9 c625 d23b b400 9839 eb0e f83b
000003d0: 6584 dbba d612 9e3b 14c0 f23b 5fcd 083c
000003e0: 86a3 683b b2dd 983c 39d2 7fbb 7e46 453a
000003f0: 06cf b5bb e7e4 bf3b da06 01bc e38a 1f3b
0.0042948346 0.0031285603 0.010246212 0.021470277 -0.016697768 -0.001589373 -0.011088743 -0.0010986493
0.013988321 -0.0003942749 0.006006751 0.009674368 0.019280696 0.011034929 0.015389594 0.016678022
0.008328188 0.0045964643 0.0062539973 0.005987881 0.011105899 -0.0026391298 -0.007534745 0.0036205587
-0.0037866335 0.0023143934 0.010277336 0.008081856 0.00043159624 -0.0019840293 0.011484798 0.0018248636
0.007848202 0.010034038 0.007285074 -0.014150125 0.0018738444 0.0018837042 0.01401099 0.0033974033
-0.0068574483 0.019497646 -0.011562441 -0.0034877271 0.0056286925 0.020850189 0.00079843117 -0.0055001155
-0.0017894548 0.0067431065 0.0010236669 0.0073531857 -0.0013805404 -0.00041394948 -0.00905242 -0.0034528784
-8.758157e-05 0.0022194362 0.023965804 -0.0063742744 0.003166942 0.009789971 0.01178994 0.0034561083
0.00037489083 -0.0027526105 0.005628843 0.01955633 0.0019701265 0.00025612392 0.0005114708 0.006257246
0.0015977753 -0.009715937 0.002409657 -0.0018834845 0.0013026419 -0.0028791693 -0.00031417358 0.021898216
0.009460867 0.012643546 -0.0036964659 -0.010720384 -0.00071135064 0.009512382 0.008501274 0.015681535
-0.0067958417 0.0029118175 0.0085968645 0.013766052 0.0025873755 0.007922719 0.0030660392 0.0020424805
0.003952865 0.0068834093 -0.010415362 0.0132230995 0.0015073634 -0.011026327 0.0059705065 -0.0023589097
0.0071105566 0.004370916 0.007544841 -0.0020934457 -0.00014030846 0.0016263508 0.0037229054 -0.0036039772
0.022612132 0.004641303 0.010437979 0.011846637 0.0020483935 0.005052572 0.009735579 0.003078188
0.0027216685 -0.0028422344 0.0048469985 6.354968e-05 -0.007968425 0.008943807 -0.0026666373 0.008455252
-0.004962514 0.010330514 0.0019893206 0.011453555 0.010645606 0.001308041 0.0017484624 0.0145934755
0.0079180235 -0.0025787822 0.019095343 0.00868836 -0.0006976258 0.004170507 0.0035524275 0.020783473
0.0038030867 -0.008317903 0.008061838 0.005154414 -0.0039029715 0.0023499215 0.0021955462 0.0031811623
-0.0005382865 0.0061597126 0.009956507 0.018505154 -0.008114001 0.0036156422 0.013378515 0.006320445
0.004498059 -0.0060564815 0.0017508797 0.00015975987 0.01207465 -0.0058540828 -0.013648865 0.011827807
0.021103553 0.00894465 0.0030493678 0.011835741 -0.007913725 0.008452112 -0.00068360317 0.007391965
0.0020172738 -0.0044213166 -0.0004042494 0.009207024 -0.002308685 0.004087575 0.009094334 0.0077277557
0.0026191245 -0.0005788144 0.0030337078 0.0028942195 0.0055774087 0.015504484 0.00936879 0.007201672
0.0013001893 0.0044776658 -0.0067189615 0.015677314 0.0038475657 0.002166254 -0.0023342704 0.006258026
0.00010046043 0.005021517 0.0065552094 0.005545561 -0.0036873394 -0.006764414 0.005198679 0.007708854
0.022491299 -0.0034910894 0.008133713 -0.0013796176 0.0004818617 0.006668371 -0.00013956871 0.006643742
-0.0026775952 -0.004528675 0.0197881 -0.0011052211 0.011766975 -0.004852446 0.004553498 0.009454542
0.012465455 0.004326217 -0.003579772 0.007859034 0.014024439 0.0012033428 0.017206132 0.008592079
0.0022838246 -1.7446018e-05 0.016938122 0.013155414 0.022755444 0.00529725 -8.521356e-05 -0.0028353662
-0.000399065 0.0064131944 0.00028992223 0.0075701377 -0.0016747831 0.0048240228 0.0074081514 0.008349746
0.0035497858 0.0186604 -0.0039035215 0.0007525458 -0.0055483608 0.0058561447 -0.007875169 0.0024344258

network_body._body_endoder.seq_layers.0.weight f4 [256, 134]
00000000: 923b 6b3d 4d11 13be 7f1f c1bc e7b6 9b3c
00000010: 1841 db3c d16c cd3a 0af0 dd3d 1260 10bd
00000020: 1406 76bc 9fb1 cd3d 0b46 a23c 88b1 81bb
00000030: 10db 0d3e ef3a 863d ae66 923d b0c7 0e3e
00000040: 681f a93b 8711 ed3a a7d6 883d 6be7 e4bc
00000050: 0b70 f73d f9c5 13bd 4a06 b23d 9839 24bc
00000060: f8b8 de3d 6ecc 2abd a07d 09bd 465d 81bd
00000070: 2723 ee3d 23a5 8abd 5945 43bd 5785 75bc
00000080: 9f6b c03d a0f7 50bd 70fb 923d 4230 efbb
00000090: 5327 013d b49a a8bd b8ce 2fbd 6b13 463d
000000a0: 82b7 ecbd 60bf 5ebc d697 fd3c 43ec f13d
000000b0: 70c3 aebd 8df6 713d 0106 e4bc 2e40 0d3e
000000c0: 6731 203c 216f c63d 25a0 fabd 8429 e23d
000000d0: 7218 b7bd 506e d93d 73ae cabd 5e69 d4bd
000000e0: f313 ae3d b2de b7bd b7e2 87bd c823 a53c
000000f0: b633 84bd 2e77 53bd 6001 10be d05e 3ebe
00000100: c660 ce3c ab9b 0f3d 1655 163d 97ba 4e3e
00000110: 5e9a 1abb dc74 093c 5714 083e d69e cf3c
00000120: 251d b4bb 72d7 833c 811a 76be d94d a03c
00000130: 9db4 623d a5b0 02bd 716c c73d 04e6 8a3d
00000140: 225e 8e3d dfaa 2abd a3e7 90bd ac24 833a
00000150: 270c 163e 5da8 783d 7e8d 10bc 0ed3 39bd
00000160: 1b3e 213c 964f edbd 5e7a 2bbd ded4 9c3d
00000170: 4bd0 b93d 3dee 173c bfb6 3bbb 46d1 863c
00000180: 7c55 8dbd 1ab8 d0bd 9733 523d 3e4a 6339
00000190: fa17 7abd 96b9 d23d 6271 c7bd 85ef d6bd
000001a0: 0469 053e 0640 583d 6c9e fcba ee08 3c3e
000001b0: 4b43 023e f1ac e93d 2c11 5b3d 1904 15be
000001c0: ceda c43c 54e3 a13c f098 3f3d db44 ba3d
000001d0: cf5b d0bd 57f7 e9bc 9eb2 b637 b9f6 aa3d
000001e0: b8a0 69bd afd5 5a3d e08b 253d 79da 2a3e
000001f0: 450a a33c 8c2a ef3d 6a72 69bc f117 c33d
00000200: 93b6 7a3d baac 60bc 02f9 76bd f050 2a3d
00000210: 44ad febd a087 1dbd 2890 89bc 4765 aa3c
00000220: 2f3d ccbd a89c 3d3e 7981 15bd cfbd 7abd
00000230: 1483 76bc 0428 2fbe fb48 623b d293 e43d
00000240: 84c8 2ebc ea19 13bb da65 583d 3a33 40be
00000250: c78b 32bd 6a83 d0bc 8fb1 b73d e220 babb
00000260: 3aed 8c3d 266a c3bd f8f8 123d 9164 66bd
00000270: a207 b0bd ee50 b9bd a14c 8b3b a1ce aabd
00000280: 6eb1 223a e8f6 62bd c849 7c3d 1dd6 0abe
00000290: 5523 71bd 368b 173d bf8c 71bd 0f3b 953d
000002a0: e144 a0bd fd57 443d a56b 3bbd 567b 7dbc
000002b0: f073 3dbe 061a 663c a696 debc 1635 183c
000002c0: 6537 f23d 471f 913d 274f 8eba cd49 16be
000002d0: 7a80 093d a3b2 193d 9843 63bd 2d79 a2bd
000002e0: 88b3 d4bd 49d0 1abe 905b 2d3e 8dc2 f23c
000002f0: 1f33 283c 7363 11be ab84 5bbc f6b0 c9bc
00000300: af18 0ebd d95c 2ebd 1be5 4bbd e96b 8f3d
00000310: 2188 78bd 7e37 123d 551c fc3d b2f7 66bd
00000320: 7d04 09bd d223 b23d 3931 e93a 3939 16bd
00000330: a215 713e 2b4a a33c 12e1 cc3d 0169 a33d
00000340: 2665 cc3d 2bf8 9bbd b912 293d 2022 11bd
00000350: af0c a03c 3150 1c3d 0db5 3ebd 2a2e 013d
00000360: 2825 2dbd c207 94bc b5cb d83c 6c94 663d
00000370: 5828 a43d ea71 aabd efcc 15be c527 50bd
00000380: 16d7 463e 7969 b43d 6745 cbbc 4414 1bbd
00000390: ee58 19bc 4aaa 99bd c51e e93c c051 d3bc
000003a0: fe4c e53b 2636 5b3c 3dfd f1bc 7738 753e
000003b0: 64a7 35be 08b3 39bc 4c92 4a3d 1311 c7bc
000003c0: f496 e63d 4ac9 8d3d 7a5b a1bc dad2 de3d
000003d0: 892a 8c3d c8e7 6cbd 09fc c03d 4f58 a03c
000003e0: 30b7 0ebe 35e6 fbbc 8ee6 a1bd 2a39 043e
000003f0: 43da a93c 7752 a03d 11e5 99bc 96d1 103d
0.057429858 -0.14362068 -0.023574589 0.019008113 0.026764438 0.0015672689 0.108367994 -0.03524787
-0.015016098 0.10043644 0.01980879 -0.003957931 0.13853097 0.065542094 0.07148491 0.13943362
0.0051612146 0.0018086889 0.06681567 -0.02794238 0.120819174 -0.036077473 0.08692606 -0.010023497
0.10875124 -0.041698866 -0.03356707 -0.063166186 0.116277985 -0.067697786 -0.047673557 -0.014985404
0.09395527 -0.051017404 0.07176864 -0.007299454 0.031531643 -0.08232632 -0.04292175 0.048358362
-0.11558439 -0.013595432 0.03095619 0.118126415 -0.085333705 0.05907302 -0.027834894 0.13794014
0.009777403 0.09689165 -0.122375764 0.11043075 -0.089402094 0.106167436 -0.09896555 -0.1037166
0.08499899 -0.08978023 -0.06635039 0.020158663 -0.064551756 -0.05162733 -0.14063025 -0.18590856
0.02519263 0.035060566 0.036702238 0.20188366 -0.0023590545 0.008389678 0.13289009 0.025344294
-0.0054966384 0.016093943 -0.24033548 0.01956837 0.055348027 -0.031906743 0.097374804 0.06782153
0.06951548 -0.04166686 -0.07075431 0.0010005436 0.14653073 0.06070744 -0.008822797 -0.045367293
0.009841467 -0.115874454 -0.041864745 0.07657789 0.09072932 0.009273109 -0.002864286 0.016457211
-0.069010705 -0.101913646 0.05131873 0.00021676064 -0.061058022 0.10289304 -0.09738423 -0.104949035
0.13028342 0.052795433 -0.0019273288 0.18362781 0.12720983 0.11409939 0.053483173 -0.14552344
0.024030115 0.019761719 0.046776712 0.090951644 -0.10173761 -0.028560324 2.1779266e-05 0.0834784
-0.05703804 0.05342644 0.0404166 0.16684903 0.019902358 0.11678037 -0.01424847 0.09526051
0.061209273 -0.013713056 -0.060296066 0.041581094 -0.124353915 -0.03845942 -0.016792372 0.020800246
-0.09972607 0.18516791 -0.036500428 -0.06121617 -0.0150459 -0.17105108 0.0034528363 0.11161007
-0.010667924 -0.0022445866 0.05283151 -0.18769541 -0.043590333 -0.025453288 0.089694135 -0.0056801895
0.06881185 -0.095417306 0.035881966 -0.05624825 -0.08595206 -0.09048639 0.0042510782 -0.083401926
0.00062062487 -0.05541125 0.0615938 -0.1355824 -0.058871586 0.036997996 -0.058972117 0.07286655
-0.078256376 0.047935475 -0.045756955 -0.0154713 -0.18501258 0.01404429 -0.027171444 0.00929
0.11826972 0.07086044 -0.001085733 -0.1467659 0.03356979 0.037523877 -0.055484384 -0.07933269
-0.10385805 -0.15118517 0.1692946 0.029633785 0.0102660945 -0.14198093 -0.01339833 -0.024620514
-0.03469151 -0.042569015 -0.04977904 0.07003004 -0.060676698 0.035697453 0.123100914 -0.056388564
-0.033451546 0.086982384 0.0017791159 -0.036675666 0.23543409 0.019932827 0.10003866 0.07979012
0.0998023 -0.07615694 0.04127762 -0.035432935 0.019537298 0.038162414 -0.046559382 0.031538166
-0.042271763 -0.018070105 0.026464323 0.05629389 0.080155075 -0.08322509 -0.14628957 -0.050819177
0.19417986 0.0880918 -0.024813367 -0.037861124 -0.009359581 -0.07503183 0.028457055 -0.025795817
0.0069977036 0.013379609 -0.029539699 0.23947321 -0.17739636 -0.011334188 0.049455926 -0.024300134
0.11259261 0.069231585 -0.01969694 0.108800605 0.068440504 -0.05783823 0.09423072 0.019573359
-0.13937068 -0.03074942 -0.07905303 0.12912431 0.020733958 0.07828229 -0.018785985 0.035356127

network_body._body_endoder.seq_layers.2.bias f4 [256]
00000000: 4d00 9f3b fbb2 0e3c a99b ca3b adae b53b
00000010: f009 3e3c f297 8d3b 383c 993a 6992 023b
00000020: 55da 5138 5d99 50bb 8e6b 953b db99 3a3c
00000030: 5f28 893b 1fc1 e2ba c245 f33b a9c6 d83b
00000040: d0a7 ad3b 5544 133b 6087 0339 50fa f43b
00000050: 8435 833b 7494 d4bb 8681 433c e050 ab3b
00000060: f176 99ba c74c 273b 0740 013b b1ad a33a
00000070: ec19 103c 4eb9 893b 76bd a63b 6d34 03bc
00000080: aa35 363c 5eda 3f3b e240 21bb 56ba e73a
00000090: c0e4 b03b cc98 243b c655 4e3c 6aa4 dd3b
000000a0: d7e5 023c 8ab8 9639 0ae9 a13b df77 7b3a
000000b0: 9cfa c739 2aba 91ba 0c93 4d3b 23e9 753b
000000c0: 067e 3d3b 4670 393c d2ec 3bbb 2101 923a
000000d0: 72d3 06ba 0933 30ba 2346 a53b 5805 abb9
000000e0: 8fc9 f83a 9fc3 ab3a 5687 383c 1f85 2c3b
000000f0: ef77 19bc 130d a1b9 9e61 ab3a 1545 123b
00000100: 58cb 5cbc c038 193b 6fed c43b d83a 87bb
00000110: 6466 8bbb 8180 ec3b 13a2 dfb9 88b9 9c3b
00000120: cb1b a0bb 908f c1ba 7988 3a3b 518f 8ab9
00000130: 95f4 4d3c e279 c93b 4c47 143c 69cc 2e3c
00000140: 899c 053c ddf4 9fbb ee72 4cba b98f 263c
00000150: 86f0 c53a fc7e a53b f22e 06bb 8b71 b9bb
00000160: 7408 f23b 8315 663b ea4d ad3b 7ac5 a93b
00000170: 4c2e ca3b 3c96 223c 2ca8 173b f294 5dbb
00000180: 0c49 ceb9 7fd7 b0ba d763 7c3a 0275 e3b9
00000190: c564 afbb 85ec aebb 956b 193c dbf6 903a
000001a0: 5032 e43b fce0 4c3c 9da0 c4bb 0d69 2e3c
000001b0: 4cf8 1a3b f6d9 3cb8 012d db3b 08ee 603c
000001c0: de80 90b9 f1a5 ed3a 4209 303c 1561 ac3c
000001d0: 228d eb3b d7e7 293a a49b 90bb 91dc 063c
000001e0: a427 403c 1dae 46ba 15cd 3e3c 7f57 8dba
000001f0: 7ae0 993c 9a56 963a fed4 973b dc70 a1bb
00000200: a28f 8d3b e098 1b3b 89a8 bd3b 2464 d73a
00000210: 3e24 0dbb bccb a33b abab 41ba eaa4 2a3c
00000220: de3e e03b 7685 dcbb f115 913b db80 e0b9
00000230: e7f4 52bb 43d9 70bb f5ef 46bc b2cb 98bb
00000240: 4dd8 1d3b e4db e53a 6011 873b 8f0f a13a
00000250: 09a3 473c 16f6 043c 4e98 ff38 3ab7 d53b
00000260: e9e9 453c fd66 a5bb a98a bc3b dbd7 a33b
00000270: 5a81 a53c 3795 8a3b e5f0 ce3b c0e9 093c
00000280: 9210 1cbc fc59 a43b bdb7 c53a 89c0 143a
00000290: bf6f eb3b 4072 f13b 1ee7 98ba 630e e53b
000002a0: cb19 2d3c 971d 503c fd9e 6e3b 5251 19bc
000002b0: f010 7e3c 5042 4f3b b5e4 a3ba 1a74 a1bb
000002c0: 0c64 7539 6843 b7bb 6fd6 8ebb 48e0 ac3a
000002d0: 3493 c33b 6f66 313b 4b18 4fbb 23a5 c43a
000002e0: 5655 9c3b 1392 313b 4512 083a 160c f1bb
000002f0: 0e1e 9a3b d73f 4e3c 9c03 763c 7e4c 9b3a
00000300: d95d 2ebc 87b2 ccbb ad46 04ba 3e1f 203c
00000310: 680f 3b3a 225a a63b aa84 173a 5ec1 9b3a
00000320: 13ba 86bb dfca 8c3b c4da d8bb f324 54bb
00000330: 0db1 453b 1946 543b 4722 07bc d143 05bc
00000340: 1818 373b 174f a1bb 18f6 163c 3718 d23b
00000350: 29b0 163b 2dfa e63b 1cef 9539 a666 ff3b
00000360: 757c 5a3b ec0d 363c 9822 783b c2d1 37ba
00000370: 1a2a 253b 011c abbb 226a 19bc 58e8 d93b
00000380: fbef c03b 7c9d 37b9 ce8e 3b3c 639d 323b
00000390: 051b b739 c28e f03a ba8c 733c 42d5 d538
000003a0: 5d83 e93a 585a 693b c0e5 3c3c 9931 3eba
000003b0: 9e6b 783c 8883 52bb 3818 ae3b f0c4 36bb
000003c0: 5384 21bb d03f 373c 451e eb3a 8c11 943b
000003d0: 7f45 b53b a5fd 693c b197 25b9 aaed 553c
000003e0: 6daa b23b e463 c33b 5233 0abc ebe7 3abc
000003f0: 01b5 d9b9 53c5 ca3a 9d78 1f3b 81ef d93b
0.004852331 0.008709664 0.006183107 0.0055445046 0.011599049 0.004321092 0.001169092 0.0019923693
5.003282e-05 -0.0031829693 0.0045599407 0.011389221 0.004185721 -0.0017299986 0.0074240873 0.006615479
0.005299546 0.002247115 0.00012543565 0.0074761286 0.0040041823 -0.0064874236 0.011932736 0.005228147
-0.0011708421 0.002552794 0.0019722 0.0012487677 0.008795243 0.0042029982 0.0050885035 -0.008008105
0.011121193 0.0029274444 -0.0024605324 0.0017679434 0.005398363 0.0025115488 0.012593692 0.0067639844
0.007989368 0.00028747722 0.0049411105 0.00095927523 0.00038142956 -0.0011118103 0.0031368164 0.0037522994
0.0028914227 0.011318272 -0.0028675091 0.0011139252 -0.0005143202 -0.0006721472 0.0050437613 -0.00032619643
0.0018980968 0.0013104564 0.011262735 0.0026324464 -0.009366973 -0.00030718054 0.0013075357 0.0022319008
-0.013476215 0.0023379773 0.0060097496 -0.004126888 -0.0042541493 0.0072174673 -0.0004265463 0.0047828592
-0.0048861257 -0.0014767516 0.0028462692 -0.0002642819 0.01257052 0.0061485628 0.009050202 0.010668852
0.008154997 -0.004881485 -0.0007799108 0.010166102 0.0015101589 0.005050538 -0.002047476 -0.0056592873
0.0073862616 0.0035108037 0.005288829 0.0051810117 0.00617007 0.009923514 0.002314101 -0.0033810702
-0.00039345806 -0.0013491957 0.00096279144 -0.00043383992 -0.005352589 -0.005338254 0.009364028 0.0011059897
0.0069640055 0.012504812 -0.006000592 0.010645163 0.0023646532 -4.5025685e-05 0.0066887145 0.013728626
-0.00027561834 0.001813112 0.010744395 0.021042386 0.007188455 0.0006481385 -0.004413085 0.008231298
0.011728201 -0.00075790455 0.011645575 -0.0010783522 0.018783797 0.0011469901 0.004633545 -0.004926784
0.004320101 0.0023742244 0.005787913 0.0016433042 -0.0021536495 0.0049986523 -0.0007387946 0.010415295
0.006843432 -0.006729777 0.0044276644 -0.00042820614 -0.003218943 -0.0036750592 -0.012142171 -0.0046629542
0.0024085224 0.0017536846 0.0041219443 0.0012287962 0.012184867 0.008115312 0.000121877165 0.0065220864
0.012079694 -0.0050476776 0.0057538343 0.005000097 0.020203281 0.0042292136 0.006315338 0.008417547
-0.009525435 0.00501561 0.0015084666 0.0005674442 0.007184952 0.007368356 -0.0011665558 0.0069902404
0.010565232 0.012702367 0.0036410682 -0.009357767 0.015506968 0.0031625219 -0.0012504073 -0.0049271705
0.00023402291 -0.0055927522 -0.0043590586 0.00131894 0.0059684757 0.0027069112 -0.0031600173 0.0015002828
0.004770915 0.0027095124 0.00051907107 -0.007356177 0.00470329 0.012588463 0.015015509 0.0011848358
-0.010642492 -0.006246868 -0.0005045932 0.009773074 0.00071357796 0.0050766626 0.00057799614 0.001188319
-0.0041115372 0.004296645 -0.006617876 -0.0032370656 0.0030165345 0.0032390414 -0.008247918 -0.0081338445
0.0027937945 -0.0049227583 0.009213947 0.006411578 0.0022993183 0.0070488662 0.00028597645 0.007794219
0.0033338342 0.011111718 0.0037862416 -0.00070121523 0.0025202096 -0.005221844 -0.009363683 0.006650012
0.005887983 -0.00017510907 0.0114476215 0.0027254454 0.0003492461 0.0018353092 0.014865095 0.00010196354
0.0017815639 0.0035606828 0.011529386 -0.00072553154 0.015162377 -0.0032121856 0.0053129457 -0.002788838
-0.0024645522 0.011184648 0.0017938098 0.0045186933 0.005531966 0.014281665 -0.00015792136 0.013057152
0.0054524452 0.0059628356 -0.008435087 -0.011407833 -0.00041524324 0.0015470184 0.0024333366 0.0066508655

network_body._body_endoder.seq_layers.2.weight f4 [256, 256]
00000000: 6c9b e0bd 4016 4e3d ff07 4c3d c696 443b
00000010: 105f e4bc 8daa 593c a2b0 e03a b414 d03c
00000020: 36b0 3c3d 053c 2cbd 0114 04bc 9a28 133c
00000030: 3eab 82bd f031 6dbd f0f5 6d3d d8b0 823d
00000040: 9633 a7bd 5276 de3d 394c adbd a530 12bd
00000050: 076e 9bbd 28d9 533d 5cd3 febc 47cd b2bc
00000060: eef9 d3bd aebe 3ebd da5d 5cbd 8e20 28be
00000070: 8277 8c3d c0a0 493d bef5 8b3c ac03 413d
00000080: 84bd f2bc 7dae 7c3d f451 94bd 1d5f 05bd
00000090: 4900 ba3c 0496 3ebd 88aa 6bbd 58c8 403e
000000a0: daa9 b53c ab4a 6e3b 043d 9fbd daee f0bd
000000b0: 8bd3 be3d a70d f8bc 04b7 4cbd 5b11 21bd
000000c0: fe3d 983d 98fe 37bd be41 5bbd 5bf3 a9bc
000000d0: e05e 35bd 8e65 c1bd 0649 debc aaf4 9dbd
000000e0: 8aca 2cbd 3278 b7bd e912 9c3d 2767 9d3c
000000f0: 80a0 b13d 4673 2abd 9d98 e4bd 7cfc 02bd
00000100: 4610 263e 5ad4 8bbd f15d 853c f0a1 9dbd
00000110: 0659 45bd 62b3 8d3d 9e36 b13c 0d74 a1bc
00000120: 49b3 2e3e 8619 343d 8b50 fa3a 6f54 003d
00000130: 8994 103e ece4 2bbb ee89 d9bc 8ed3 b0bd
00000140: 367f 513d 47ae b6bd 70d1 c5bd 3b43 8d3c
00000150: 4bac 1bbd 23f6 9f3c 2516 8fbc d0d2 2b3d
00000160: ffdd d43b a4b6 2fbc 41d4 1f3d c90a 8b3d
00000170: f447 0f3c c668 673c f7e2 35bc 84c7 d13d
00000180: 86cb 38bd 2fda d1bb bf60 81bc 04b3 f13d
00000190: d412 b9bd a5b6 4ebc f250 1c3e 935e 0ebd
000001a0: 7d43 93bd 1003 c3bd 9c68 d13d 36f3 3ebd
000001b0: e5a6 58bc d1ea b83d 8a47 3abd 6898 173d
000001c0: 7d98 82bd 8c1c 9f3d 65b1 27bd 07ce 833c
000001d0: b875 9cbd 27fd 983d 45d2 adbd ab3d 7f3d
000001e0: 0e35 40bd d4a3 92bc f9d6 183d 1d84 cdbd
000001f0: 5593 70bb 7194 b43d 9986 8d3d cf1b 28bd
00000200: c2da 173d fa7f 76bb a0ae afbc 2092 bb3d
00000210: b8b3 2d3d ffcd ed3d e09f aabd 8b11 77bd
00000220: 58a3 aebb 8156 24bd 8f2f b1bc fbde 2bbd
00000230: ec89 6f3d 0635 5cbd a0b7 833d 6cb4 50bd
00000240: de6a e03d 88c4 233c fb00 0cbe bb6d 00bb
00000250: 3287 853d 4083 14bd 618f 393c 8f0a c6bd
00000260: 3f42 9fbd d239 c3bd 0e8e 90bc 6dc7 89bd
00000270: 85db ea3c 25d1 313c 78c1 16bc a44a 53bd
00000280: 6d49 b0bc d060 b63d f69a 963d 0ea8 1abc
00000290: b13b 34bd b025 b43b 6b1f e73c 2e1a ff3b
000002a0: 4047 23bd 592b febd e119 bcbd 7926 9ebd
000002b0: f689 00bd 5788 4d3d 18c7 51bd 70e4 ba3b
000002c0: 0e7a 88bd 61b1 8c3d b3a8 5cbd 3459 043d
000002d0: 8875 093d a411 5fbd d3e7 613d 7ccb 3f3d
000002e0: 7891 89bd d463 f63d 907a 293b 2a3e 11be
000002f0: f7b8 58bc 791a e23d 3704 853d 5c05 2e3d
00000300: c5d3 67bd 2b23 e1bc 9983 08bd 0d82 5dbd
00000310: ba80 c73a 0338 513c c6a9 a3bd 4281 193e
00000320: 69d5 3abd c002 8d3d 1c88 e3bc 42bc 8d3d
00000330: 663f 943c 1f48 abbc 8a4c 303d 47d3 e03d
00000340: d61f 61bd 25ca 0c3d 4593 2fbd 41a7 b3bd
00000350: 9b89 7dbd a57d dd3d 6980 61bd 1fcc 303d
00000360: e3fc 9d3d d9fb 2b3d edb0 523c 1fe2 143d
00000370: 00d9 5f3d 8f7f 22bc 295c dcbc d780 c13d
00000380: 8d06 60bd a066 febc c589 253d 08d0 8a3c
00000390: 6d33 26bd cdbc 8dbd 988c 983d 42f2 8e3d
000003a0: 9b7a 69bd 6234 babb 543c aebd 6e99 e23b
000003b0: 52cc 2a3b c9f5 ef3c 7511 91bd 551d 573d
000003c0: c478 8ebd f31b d13c 91e2 ec3d e784 023d
000003d0: 57be 8dbc b96d 503d b7e2 093e 8173 0cbe
000003e0: e818 773b 2bf9 983d 0251 cebd bffb bebc
000003f0: 63c3 1ebd bd3f c4bc 8a79 883c 3121 5e3d
-0.10967144 0.050314188 0.049812313 0.0029997095 -0.02787736 0.013285291 0.0017142484 0.025400497
0.046066485 -0.042049427 -0.00806141 0.008981848 -0.06380318 -0.057908952 0.058095872 0.063813865
-0.08164136 0.108624116 -0.08461804 -0.035690922 -0.075893454 0.05172077 -0.031106643 -0.0218264
-0.10350405 -0.046568565 -0.05380044 -0.16418669 0.06858732 0.04922557 0.017084952 0.047122642
-0.029631384 0.061689842 -0.07242194 -0.03256141 0.022705214 -0.046529785 -0.05753568 0.18826425
0.022175718 0.0036360424 -0.0777531 -0.11764307 0.09317692 -0.030279947 -0.049979225 -0.039323192
0.07433699 -0.044920534 -0.053529494 -0.020745924 -0.044279933 -0.09443198 -0.02713443 -0.077126816
-0.042185344 -0.08958472 0.07620794 0.019214226 0.08673191 -0.04161384 -0.11161921 -0.03197907
0.16217145 -0.06827612 0.016280146 -0.07696903 -0.048180602 0.0691898 0.021632489 -0.019708658
0.1706058 0.043969654 0.001909749 0.031330522 0.14119162 -0.0026228977 -0.026555028 -0.08634101
0.05114671 -0.089199595 -0.09659088 0.017243972 -0.03800611 0.019526547 -0.017466614 0.041949093
0.0064961906 -0.010724697 0.03902078 0.067891665 0.008745182 0.014124101 -0.011101476 0.10243133
-0.04511597 -0.0064041833 -0.015793202 0.11801723 -0.09036794 -0.012616788 0.15265253 -0.03475816
-0.07190607 -0.095220685 0.10225031 -0.046618663 -0.0132233845 0.09029163 -0.04547838 0.03701058
-0.06376741 0.07769117 -0.04094066 0.016089452 -0.076396406 0.0747016 -0.08487371 0.06231467
-0.046925597 -0.017900385 0.03731439 -0.10034964 -0.003670891 0.088173755 0.06910438 -0.041042145
0.037073858 -0.00376129 -0.021445572 0.091587305 0.04240772 0.11611556 -0.08331275 -0.060319465
-0.0053295307 -0.04012156 -0.021629123 -0.041960698 0.058481142 -0.053761505 0.06431508 -0.050953314
0.10957883 0.009995587 -0.13672249 -0.0019596654 0.06519927 -0.036257982 0.011325688 -0.09669983
-0.07776307 -0.09532513 -0.017645862 -0.067274906 0.028669128 0.010853087 -0.0092014 -0.051584855
-0.021519387 0.08905184 0.07353775 -0.009439481 -0.04400224 0.0054976568 0.028213223 0.0077851033
-0.03986287 -0.12410612 -0.091846235 -0.07722182 -0.03138157 0.050178852 -0.05121526 0.0057035014
-0.06663905 0.0686977 -0.05387182 0.032311633 0.033559352 -0.054460183 0.055152725 0.046824917
-0.06717199 0.120307595 0.0025860406 -0.1418387 -0.013227693 0.110402055 0.064949445 0.04248558
-0.056598444 -0.02748259 -0.033328626 -0.054079104 0.0015220859 0.012769702 -0.07991366 0.14990714
-0.04561368 0.0688529 -0.027774863 0.06920673 0.018096637 -0.020908413 0.043041743 0.10977798
-0.054962 0.034372468 -0.042865057 -0.087721355 -0.06189881 0.108149804 -0.055054102 0.043163415
0.0771425 0.041988228 0.012859565 0.03634846 0.054650307 -0.009918108 -0.026899414 0.094484024
-0.054693747 -0.031054795 0.04041459 0.0169449 -0.040576387 -0.069207765 0.07448691 0.06979801
-0.05700169 -0.005682514 -0.085076004 0.006915263 0.0026061726 0.029292004 -0.07083408 0.052518208
-0.06956628 0.025526023 0.115666516 0.031865027 -0.017302675 0.05088589 0.13465391 -0.13715936
0.0037704054 0.074694 -0.10074045 -0.023313401 -0.038760554 -0.023956174 0.016659517 0.054230873

network_body._body_endoder.seq_layers.4.bias f4 [256]
00000000: c74a 273b b9d9 aeba c370 643b 8ba4 2a3c
00000010: 6940 3e3b 9b03 56bb fb97 db3b b8a9 6fbb
00000020: 336f 0eba 2ed8 01bc 1091 a13b c611 33bb
00000030: 4be7 e23b f205 703b 775c 923b 3c5c 603b
00000040: 5220 833b 6c9d 2fbb 31c4 873b c659 ec3b
00000050: 983e 083c fddb b2ba 2e69 243b 7601 47bb
00000060: c345 bcba ba6f 073c 6930 793a b12a b13b
00000070: 620e 5b3a a384 403b 893c ab3b c13e 293c
00000080: 719d c63b 06f8 38bb c7c2 083b f41a 9c3b
00000090: 95bf 72bb f65a aa3b 104a 813b b89d 023c
000000a0: 18e6 26bc c17a 033b 4ce9 673b cae1 7ebb
000000b0: 2605 0c39 578c 7bba 8607 6ebb 4b25 b2ba
000000c0: 0736 b33b ef24 a6ba 8638 d53b 6a71 c03b
000000d0: 827e 6bbb c149 083c 95b2 d03b e1c9 23bb
000000e0: f74c 21bc c4ec 763b c089 163c 288b efba
000000f0: c2a1 31ba 545d 17bb 3fb5 033b 90f6 e0b8
00000100: 578b 373a a7bb 50ba f922 423c 2511 00ba
00000110: fc43 d63a 2beb 693b 20bd 463b d84f 123c
00000120: 250b a13b 0510 99ba 3340 4cbb dbb8 1eba
00000130: 39e8 b93b d38f 8739 e503 cc39 d60b 4e3b
00000140: 3c8f b03a 1664 9b3b 0f54 cb3b 646f 0e3b
00000150: 732d 6fba 5022 b03b e804 1cbc 7417 7cba
00000160: 3a12 62b9 ac62 5abb a1f0 6abb eaef e13a
00000170: bda9 153a 9cf3 93bb cc1e 1e3c 790d 243c
00000180: 4138 2b3a 89df a33b 6a02 ab3b a79d cf3b
00000190: 4a39 ebb9 d66f a23b 927e c23a 2852 b83a
000001a0: a4b6 0cbb 6bfe 88bb 611c bc3b 4d84 bb3b
000001b0: 743c 453c 7fda 32bb fba0 85ba afb7 15bb
000001c0: 8ed9 103c 0302 f83b 8187 8f3a 2f90 123b
000001d0: 4ad8 d9bb 96ab 1fbb 96c5 223b bacb 5d3c
000001e0: 2124 77bb a0b9 2dbb fc08 903b 03e9 c33b
000001f0: a4d5 563c 51c1 c8bb 8411 1d3b d9fd 5dbb
00000200: e02a 093c a109 a23b e363 733b 9dd8 273b
00000210: 8e5b 9b3a ba0c 5eba 563a bb3a 2889 243b
00000220: fb2a 243c 4d7d 8d3b bd95 f8bb 6431 ea3b
00000230: 6bda 783b 72b3 70bb 9e56 273b b9fd 1a3a
00000240: 586e bc3a c6fe bdba 0d87 213b 7313 6c3b
00000250: 33ad 1bbc f2fd 193c f5ed 8ebb 9aed 93bb
00000260: 6fbf df3b 284d 00b9 4a08 983a 3944 a7bb
00000270: a58e 193a f48f 3e3c d782 843b 5603 b23b
00000280: 0450 1f3a 8cb4 283b 5904 69ba 5977 103c
00000290: b39c 893a 83b9 e83b c6a0 983b 3440 d3ba
000002a0: 5dbb 5ebb d99b c23b 0a5a 1c3b a871 b63b
000002b0: fe84 d73b 70f9 013b b8bd f83b e88d 853b
000002c0: adb8 ef3b 1812 2e3c 5118 e4bb 7456 5cba
000002d0: 88f8 103c 1e63 fb3b c414 fa3b a26c fbba
000002e0: f23b 363b b044 57b8 734d d53a 761d cbbb
000002f0: 6977 79bb 6ae9 c139 7134 0ebb 3ebd 153c
00000300: f717 8239 4206 db3b 9eb5 cbba aad7 c83b
00000310: 0a37 b3bb 0132 efbb 36a5 aa39 e75c 9ebb
00000320: d04b 613c 7b4a 273c 9a58 473a 52d7 963a
00000330: be64 48ba 8e66 24ba 7f21 183b c791 db3b
00000340: 130f ed3a 2906 ccbb 73b1 773b 2bf0 9239
00000350: 4bcf 663b 8bde 253c ce4a 393b 6dba 013c
00000360: 414a 70ba 7561 9d3b a0df 73bb 84b2 213b
00000370: c94e a33b 58e9 0cb9 d831 793c ecdc 89ba
00000380: fed0 d0b9 5f2d 063c 2f75 29bb 8701 303c
00000390: 96f0 ebba ccc5 2bbb 07aa aa3b 6d10 d4ba
000003a0: 4189 253b 9673 553b 8873 073b bf60 423c
000003b0: e289 8b3b a062 b5ba 20ca 2d3c f051 7f3b
000003c0: 37d5 bb3b 2a12 c53b 9bb4 9d3a 9cc7 003c
000003d0: d93f 5eba 1432 6a3a c651 f73b 8a31 563b
000003e0: a111 d1b9 0e64 293c 282c 073c de44 4c3b
000003f0: d7f0 e03b 7c65 1d3c 357d 193b c4df d83b
0.0025526749 -0.0013340033 0.003485725 0.010415207 0.002903009 -0.0032655958 0.006701467 -0.0036569666
-0.000543344 -0.007925076 0.004930623 -0.0027323826 0.006924545 0.0036624637 0.004466589 0.0034234663
0.0040016556 -0.0026796712 0.004143261 0.0072128503 0.008315705 -0.0013645884 0.0025087106 -0.003036586
-0.0014364052 0.008266384 0.000950581 0.0054067005 0.000835633 0.0029375933 0.005225722 0.010329903
0.006061249 -0.0028224005 0.002086805 0.0047639553 -0.0037040461 0.0051988317 0.0039455965 0.007972173
-0.010186695 0.002006218 0.0035386859 -0.0038891905 0.00013353358 -0.00095958024 -0.0036320402 -0.0013591436
0.005469087 -0.0012675802 0.0065069823 0.005872895 -0.0035933559 0.008318366 0.006368945 -0.0024992155
-0.00984501 0.0037677744 0.009188116 -0.0018275725 -0.0006776118 -0.00230964 0.0020097045 -0.00010727078
0.0007001659 -0.00079625327 0.011849158 -0.0004885367 0.0016347165 0.003569315 0.003032513 0.008930169
0.0049146586 -0.0011677748 -0.0031166195 -0.00060547673 0.005673435 0.00025856364 0.00038912814 0.003144016
0.0013470422 0.004742156 0.006205089 0.0021733874 -0.0009123899 0.005375184 -0.009522654 -0.0009616532
-0.0002155983 -0.0033322973 -0.0035848992 0.0017237638 0.0005709192 -0.0045151245 0.009650897 0.010012978
0.0006531515 0.0050010127 0.0052187936 0.0063359323 -0.00044865377 0.0049571795 0.0014838746 0.001406257
-0.0021471167 -0.0041807196 0.0057406877 0.0057225586 0.012038339 -0.0027290878 -0.0010195071 -0.002284508
0.008840932 0.007568599 0.0010950417 0.0022363772 -0.006648098 -0.0024363748 0.0024837009 0.013537342
-0.0037710743 -0.0026508346 0.0043956023 0.005978705 0.013112459 -0.0061265607 0.002396674 -0.0033873229
0.008372039 0.0049449955 0.0037138395 0.002561129 0.0011852847 -0.00084705243 0.0014284353 0.0025106166
0.010020013 0.0043179155 -0.0075862096 0.007147001 0.0037971984 -0.0036728051 0.0025533806 0.00059124414
0.0014376147 -0.0014495484 0.0024647147 0.0036022335 -0.009501743 0.009398924 -0.004361863 -0.0045144083
0.0068282406 -0.00012235774 0.001159915 -0.0051045683 0.00058577425 0.011631001 0.0040439176 0.0054325266
0.0006077292 0.002574238 -0.00088888925 0.008817517 0.001049897 0.007102193 0.0046578376 -0.0016117156
-0.003398619 0.0059389886 0.0023857378 0.005567748 0.006577133 0.0019832514 0.0075909756 0.0040757544
0.0073157162 0.010624431 -0.0069609066 -0.00084052165 0.008848317 0.007671728 0.00763187 -0.0019182155
0.0027806726 -5.1323965e-05 0.0016273692 -0.0061985804 -0.0038065559 0.00036985736 -0.0021698738 0.009139357
0.00024813387 0.0066840956 -0.0015541797 0.006129225 -0.0054692077 -0.007299662 0.00032548018 -0.004832852
0.013750985 0.010210629 0.000760445 0.0011508262 -0.0007644406 -0.00062713854 0.0023213325 0.0067007276
0.0018086158 -0.0062263203 0.0037794977 0.0002802623 0.003521877 0.010123859 0.0028273347 0.0079179825
-0.0009166338 0.0048028775 -0.0037212148 0.0024673054 0.004983757 -0.00013438368 0.015209638 -0.001051811
-0.00039828563 0.008189528 -0.00258572 0.010742552 -0.0018000777 -0.0026210425 0.005208257 -0.0016179212
0.0025258812 0.0032570115 0.0020668227 0.011863886 0.0042583803 -0.0013838597 0.010607272 0.003895875
0.0057322043 0.006014128 0.0012031974 0.007860091 -0.0008478142 0.0008933854 0.00754759 0.0032683336
-0.0003987672 0.010338796 0.008250274 0.0031168978 0.006864648 0.009606715 0.0023420576 0.006618472

network_body._body_endoder.seq_layers.4.weight f4 [256, 256]
00000000: d1ac 6ebd bf56 a53d 0e91 63bd 7643 693d
00000010: 0e8f b6bd fb74 30bd 6f20 cf3c 14fc 983d
00000020: f097 123a a50f 453b e276 1ebd 12e4 d23b
00000030: 4149 a23b 4fc9 983d 7cf4 023d 83dc 1abd
00000040: 54fa 1dbe 1aca f0bc aa62 a43d 9695 b9bb
00000050: 60fd 8cbd 5c35 88bd 1d63 303d c827 ff3c
00000060: 5f0b 5dbe 765c ffbc 51e0 263c d2c9 e4bc
00000070: 3c1f 46bc eb12 e53c e56a b1bc ae0d 4ebd
00000080: 3e58 233d 6eb9 763d dfa0 443c 4029 38bc
00000090: 1d84 893a d323 adbc 1fcf 5c3d 1199 0d3d
000000a0: ba56 53bc f9f1 53bc 5766 10be f1d2 e9bc
000000b0: 6329 a0bd 4727 213d 7246 0fbd 1a62 b0bb
000000c0: 8897 513c 3427 aa3d 0e16 1abc f527 21bd
000000d0: f8e3 873c 5f78 eebc 6d09 aa3a 9b67 21bd
000000e0: 334f 9e3d 1e72 debd 902f d93c 7920 98bd
000000f0: c3c0 92bd 8fb0 15bd 3f40 ddbd 2fbe 853c
00000100: 910d 933d 809b b83d 557f 103d 6839 1d3d
00000110: 7535 333d f156 25be 8840 b6bd 70de d53d
00000120: dca7 16bd ade6 b63b e7f0 fd3d bbd7 b2bc
00000130: e1f7 a53d b4e7 bcbc 5c4b dabc 757f c43d
00000140: b3ec 6dbd 9a36 ba3c 25a8 2e3d d147 823d
00000150: b8f3 abbd 8d01 69bd eb2b a13c ba0f 2a3b
00000160: 088c 7e3c bad7 cf3c 3b01 4abc 4290 613d
00000170: 0137 07be 0a68 00be 39c1 213d edea 6b3d
00000180: cbb2 2b3c a5bb 56bd 793a 9b3c 072d 2ebc
00000190: 51a2 6cbc 7eca ac3d 7104 acbc d918 af3d
000001a0: 5bbe e13c 7531 0e3d 2d0a 9b3d 3a5d 843d
000001b0: 4725 c3bb 090d 90bd 88b8 99bb 1bb5 dd3d
000001c0: f85e f2b9 4cbd 683c 86bf 793d 44d0 7ebd
000001d0: 50c8 c2bd 657b 733d 5301 c2bd 8bcf a4bd
000001e0: 4673 78bc 5a3c e93d f353 82bd 9665 3dbd
000001f0: e83b 1ebd ed6e 6abd 9652 71bc d9bc 99bd
00000200: 0008 8c3d 8a74 e3bd 65db 88bd d9d9 b03c
00000210: bcf9 1dbd ee2a 053e 1c44 2a3d 383b 0cbe
00000220: 34d7 373c 1f49 c8bd 97f0 cd3d d4a1 5bbc
00000230: 1ff7 ed3c 456c 0bbc 6082 abbd f0e1 813d
00000240: 2aa1 06bc e9ba 433d d5bd 87bd 209a 0abd
00000250: ea92 b33c 7b1b 823d 8edc c7b9 90ba 96bc
00000260: fb21 053d 4132 b03d 011a c2bd ff89 01bd
00000270: 55ac e93c e899 fbbc 1b81 abbc 2a57 adbd
00000280: d605 8b3d 51b9 573c 5a6b 6dbd 633a cbbd
00000290: 2bac 6dbd dbf5 a73d 4c93 e4bc f3b5 3d3d
000002a0: c13d d83c 56ff 16bd 108d 40bd 216c 91bd
000002b0: 2ed4 38be 12df 0d3d 1373 a0bd 8043 0f3c
000002c0: 1ca6 12bd ff4b f43b 3598 83bc c92c 13bd
000002d0: 280e 193d 690e dfbd 791f d33c 355c 36bd
000002e0: 5cd8 44bd 8fbc b9bd 071d f9bb 3d97 85bd
000002f0: 1278 153d 027d a0bd 1e0d 213d bfeb 993d
00000300: 8dcb 2e3c 26f2 a13c bfc2 733d a774 8ebd
00000310: 60f8 2d3d 5b26 bd3d 6222 71bd a893 cd39
00000320: 7f29 ea3c 3ca2 9c3d 480c da3c 34ef 9b3c
00000330: 29df 893d 65d3 96bd 5aa3 093d 95e1 c4bc
00000340: 2f4c cc3b 5b16 23be d28b 84bd 4099 493d
00000350: 662a 8b3d 6b9b 48bd 9414 68bd be7f 473d
00000360: 710d 56bd 0056 4fbd 1e3f 0339 a9c3 5e3b
00000370: edc3 743c b8c6 493d 3848 29bd 8047 363d
00000380: 91e8 ec3c cd44 103d c237 a2bc 1317 813d
00000390: 7b8f 3c3c ae4a 8dbd a197 c3bb d810 023e
000003a0: d496 353b 7ed7 263c b0a6 723d e11a 943d
000003b0: 3a29 f1bc a71e bbbb 08c3 863c 4582 59bd
000003c0: ac11 d8bd 4287 e8bc cdab 933d a63a c0bc
000003d0: a6d7 89bd 726b 7b3d 5da8 7fbd 37af ed3d
000003e0: 75fa df3d 543d 85bd 364c 893b e616 9c3c
000003f0: f6db 063e b757 adb9 3da6 b43d e67d a8bd
-0.05827028 0.08073186 -0.055558257 0.0569491 -0.08914004 -0.04308031 0.02528402 0.07469955
0.00055920985 0.003006914 -0.038687594 0.0064358795 0.00495258 0.074602716 0.03197144 -0.037807953
-0.15427524 -0.029393245 0.08026631 -0.005663584 -0.06884265 -0.066508025 0.04306327 0.031146899
-0.21586369 -0.031172018 0.010185317 -0.027928267 -0.012092408 0.027963122 -0.021657417 -0.050306015
0.039879076 0.060235433 0.012001245 -0.0112403035 0.0010491643 -0.021135246 0.053908464 0.034569804
-0.012899095 -0.012936109 -0.1410154 -0.028542968 -0.07820394 0.0393441 -0.03497929 -0.0053827884
0.0127924755 0.08308259 -0.009404672 -0.039344747 0.016588196 -0.029110132 0.001297278 -0.039405446
0.0772995 -0.1086161 0.026511937 -0.07428069 -0.07165673 -0.036545333 -0.108032696 0.016326038
0.07180322 0.09014034 0.035277683 0.038384825 0.043752152 -0.16146447 -0.08899027 0.10442817
-0.036781177 0.005581698 0.12399464 -0.021831384 0.0810392 -0.023059703 -0.026647262 0.09594623
-0.058087062 0.022731114 0.042640824 0.06361354 -0.08396095 -0.056886245 0.019674262 0.0025949315
0.015536316 0.025371421 -0.012329395 0.055069216 -0.13204576 -0.12539688 0.039490912 0.05759709
0.010479639 -0.052425046 0.01894878 -0.010630853 -0.014442996 0.0843706 -0.020998212 0.08549661
0.027556589 0.034715135 0.075703 0.06463094 -0.0059553715 -0.07033736 -0.0046911873 0.10825559
-0.00046228594 0.014205288 0.060973667 -0.062210336 -0.09510863 0.05944385 -0.09472909 -0.08047398
-0.015164202 0.11388464 -0.06363668 -0.046239458 -0.03863135 -0.057234693 -0.014729163 -0.07506723
0.068374634 -0.111062124 -0.06682471 0.021588253 -0.038568243 0.13004658 0.04156886 -0.13694465
0.011220742 -0.09779572 0.100556545 -0.013405282 0.0290485 -0.0085097 -0.083744764 0.06341922
-0.008217135 0.047785673 -0.066280045 -0.03383839 0.02192064 0.06352898 -0.00038120564 -0.018399507
0.03250311 0.08603335 -0.09477616 -0.031625744 0.028524557 -0.030713037 -0.020935586 -0.08463891
0.067882225 0.0131667415 -0.057963707 -0.09923246 -0.05802552 0.0820119 -0.027902268 0.0463161
0.026396634 -0.0368646 -0.047009528 -0.07100702 -0.1804969 0.034636565 -0.07834449 0.008744121
-0.035802945 0.0074553485 -0.016063789 -0.035931382 0.037367016 -0.108914204 0.025771843 -0.04452153
-0.0480579 -0.09069168 -0.0076023373 -0.06522987 0.03649146 -0.07836343 0.03931915 0.07515668
0.0106686475 0.019768786 0.059511896 -0.069558434 0.042473197 0.09235831 -0.05887068 0.0003921066
0.02858424 0.07648131 0.026617184 0.01903496 0.067320175 -0.07364539 0.03360305 -0.024033347
0.0062346677 -0.15926497 -0.06471981 0.049218416 0.06795196 -0.048976343 -0.05666025 0.04870581
-0.052258912 -0.050619125 0.00012516647 0.0033991134 0.0149392905 0.04926178 -0.04132864 0.04450178
0.02891949 0.035221864 -0.019801978 0.06303229 0.011508818 -0.0689901 -0.0059690033 0.12701738
0.0027708309 0.010183213 0.059240997 0.07231689 -0.029438604 -0.005710441 0.01645042 -0.05310275
-0.10550246 -0.028384808 0.07210503 -0.023465466 -0.06730585 0.061381765 -0.062416423 0.11605685
0.10936443 -0.06505838 0.0041899933 0.019053888 0.13169846 -0.00033062484 0.0882077 -0.08227138
