Assets/Training/results/RUN1/SzitakotoBehavior/SzitakotoBehavior-3499989.onnx (onnx, 670607 bytes, 13 tensors)

65 f4 [132]
0	0x3e9caedb	0.30602154
1	0x3e636d56	0.22209677
2	0x3ec1b838	0.3783586
3	0x3e84e86b	0.2595857
4	0x3e9c2b9c	0.3050202
5	0x3e62bba3	0.2214189
6	0x3ec14242	0.37745863
7	0x3e83818c	0.25684774
8	0x3e977397	0.29580376
9	0x3e62abb7	0.22135817
10	0x3ebe17d5	0.37127557
11	0x3e84cebe	0.25938982
12	0x3e96a152	0.29419953
13	0x3e5e294b	0.2169544
14	0x3ebc8558	0.36820483
15	0x3e7df0ab	0.24798839
16	0x3e952380	0.29128647
17	0x3e6132af	0.2199199
18	0x3ebc3ce7	0.36765215
19	0x3e8348a8	0.2564137
20	0x3e86c77e	0.26324075
21	0x3e5288e8	0.20560038
22	0x3eaf4c1e	0.3423776
23	0x3e6cb8b8	0.2311734
24	0x3e96f939	0.29487017
25	0x3e5c9fcb	0.21545331
26	0x3ebc7240	0.36805916
27	0x3e7f0839	0.2490548
28	0x3e51b050	0.20477414
29	0x3e49152b	0.19636981
30	0x3e99db4d	0.30050126
31	0x3e58518b	0.21124856
32	0x3e94f825	0.2909557
33	0x3e52ed83	0.20598416
34	0x3eb8fca4	0.3613025
35	0x3e7176d2	0.23580483
36	0x3e480392	0.19532612
37	0x3e5aeaf4	0.2137869
38	0x3e9c4e15	0.30528322
39	0x3e4ac2bd	0.1980085
40	0x3e883e7d	0.26610175
41	0x3e494c82	0.19658092
42	0x3eae2f67	0.3402054
43	0x3e5fc7d2	0.21853569
44	0x3e9d1e7d	0.30687323
45	0x3e63ff84	0.2226544
46	0x3ebfa733	0.3743225
47	0x3e80a6aa	0.25127155
48	0x3e9c94aa	0.30582172
49	0x3e6355f6	0.2220076
50	0x3ebf2cf4	0.37338984
51	0x3e7e6950	0.24844861
52	0x3e97d9f3	0.2965847
53	0x3e633fc2	0.2219229
54	0x3ebbe226	0.36695975
55	0x3e808965	0.25104824
56	0x3e970d9f	0.2950258
57	0x3e5ec120	0.21753359
58	0x3eba4acc	0.3638519
59	0x3e74cfda	0.23907414
60	0x3e95764a	0.2919181
61	0x3e61cf22	0.22051671
62	0x3eb9f3c2	0.36318785
63	0x3e7ddcc7	0.24791251
64	0x3e872ccb	0.26401362
65	0x3e531999	0.20615233
66	0x3eac9b7a	0.3371237
67	0x3e6264fa	0.22108832
68	0x3e9749dd	0.2954854
69	0x3e5d3b04	0.21604544
70	0x3eba283c	0.3635882
71	0x3e75f577	0.24019419
72	0x3e523e1e	0.20531508
73	0x3e49b46d	0.19697733
74	0x3e965fd1	0.29369977
75	0x3e4c6c00	0.19963074
76	0x3e954810	0.29156542
77	0x3e5388c7	0.20657645
78	0x3eb69a99	0.35664824
79	0x3e678a91	0.22611453
80	0x3e488e63	0.19585566
81	0x3e5bb600	0.21456146
82	0x3e98f615	0.29875246
83	0x3e3dd09f	0.18536614
84	0x3e888960	0.2666731
85	0x3e49e7c0	0.19717312
86	0x3eab6c33	0.33480987
87	0x3e5494a6	0.2075983
88	0x3e9d8995	0.3076903
89	0x3e6491f0	0.22321296
90	0x3ebd8aab	0.37019858
91	0x3e7864e4	0.24257237
92	0x3e9d0bbb	0.30673012
93	0x3e63eb17	0.22257648
94	0x3ebd0931	0.36921075
95	0x3e755cee	0.23961231
96	0x3e9834fc	0.29727924
97	0x3e63d2dc	0.22248405
98	0x3eb99952	0.36249787
99	0x3e781b16	0.24229082
100	0x3e977444	0.2958089
101	0x3e5f53b7	0.21809278
102	0x3eb8013b	0.3593844
103	0x3e6b27cb	0.22964399
104	0x3e95c937	0.29255077
105	0x3e6264c2	0.22108749
106	0x3eb79898	0.35858607
107	0x3e74b7ee	0.23898289
108	0x3e878cca	0.264746
109	0x3e53a9e6	0.2067028
110	0x3ea9e1eb	0.33180174
111	0x3e5767ba	0.21035662
112	0x3e979905	0.29608932
113	0x3e5dcfcf	0.21661304
114	0x3eb7cb5a	0.35897332
115	0x3e6c5801	0.23080446
116	0x3e52cba2	0.20585492
117	0x3e4a5277	0.1975802
118	0x3e92be67	0.2866089
119	0x3e3f976d	0.18710108
120	0x3e9598cb	0.29218134
121	0x3e541e81	0.20714761
122	0x3eb41f9e	0.35180372
123	0x3e5d024e	0.2158291
124	0x3e49109c	0.19635242
125	0x3e5c84e1	0.21535064
126	0x3e957bc0	0.29195976
127	0x3e2fb29f	0.17157982
128	0x3e88d552	0.2672525
129	0x3e4a7bb7	0.19773756
130	0x3ea892e4	0.3292457
131	0x3e48a4fd	0.19594188

68 f4 [2]
0	0x3e3309d6	0.17484221
1	0x3e98f5d0	0.2987504

action_model._continuous_distribution.log_sigma f4 [1, 2]
0	0xbc9375cf	-0.018000511
1	0xbbcf84e9	-0.006332983

action_model._continuous_distribution.mu.bias f4 [2]
0	0xbb01ec35	-0.0019824628
1	0x3bd07e87	0.0063627395

action_model._continuous_distribution.mu.weight f4 [2, 256]
0	0x3c655032	0.013996171
1	0x3bf75aa9	0.0075486493
2	0xbc64e09b	-0.013969566
3	0xbd411df2	-0.0471477
4	0xbbca2ece	-0.0061701303
5	0x3bd8b628	0.0066135116
6	0x3d2c4588	0.042058498
7	0xbcd52e28	-0.026022986
8	0x3c2793b3	0.010228085
9	0x3bacf746	0.0052785007
10	0x3bcca979	0.0062457887
11	0xbc30b86f	-0.01078616
12	0xbce2350f	-0.027613191
13	0x3cbf1e94	0.02333001
14	0x3d1785f9	0.036993
15	0xbccbbe77	-0.024871094
16	0x3cc5dfc0	0.024154544
17	0x39bb47c6	0.00035720895
18	0xbd0fbe7c	-0.03509377
19	0xbd40c965	-0.047067065
20	0xbbb0e7ab	-0.0053987107
21	0x3c9f641d	0.019456917
22	0x3ce81e0d	0.028334642
23	0xbbfb50d9	-0.00766955
24	0xbc88f900	-0.016720295
25	0xbc9e0b44	-0.019292481
26	0x3c47c900	0.012193918
27	0xbcbe1254	-0.023202099
28	0xbc924ef1	-0.017859908
29	0x3bfa02b6	0.0076297177
30	0x3c344803	0.011003497
31	0x3cc73760	0.024318397
32	0x3cc93706	0.02456237
33	0x3bb0689a	0.005383563
34	0x3c5b00db	0.013366903
35	0xbcd93735	-0.026515583
36	0xbc2d9ef4	-0.010596979
37	0x3bc2fa2a	0.005950232
38	0xbcda45d0	-0.026644617
39	0x3c003c29	0.007826843
40	0xbb6afc22	-0.003585585
41	0x3c7cf83e	0.015440045
42	0x3cb1d4b5	0.021707872
43	0xba5dd371	-0.0008461988
44	0xbc6ff8e4	-0.0146467425
45	0x3cb61112	0.022224937
46	0x3c0b52c4	0.00850362
47	0xbcc50351	-0.024049433
48	0xbc905a3b	-0.01762115
49	0xbc7976e3	-0.015226099
50	0x3c2164a2	0.009850653
51	0x3c00cacf	0.007860853
52	0xbb74bc68	-0.0037343744
53	0x3c14d191	0.009083168
54	0xbcef6524	-0.029223032
55	0x3b9abb9e	0.0047220727
56	0x3b3fef2b	0.0029286842
57	0x3c9f86aa	0.019473393
58	0xbc7919ee	-0.015203936
59	0x3c20232c	0.009774011
60	0xbc7f6f30	-0.015590474
61	0x3c0ed190	0.008716956
62	0xbca238be	-0.019802447
63	0x3cdc9921	0.026928486
64	0xbcc5aea0	-0.02413112
65	0xbb5aff78	-0.0033416431
66	0xbd251b59	-0.040309284
67	0x3bf5b5a5	0.0074984604
68	0xbc5bc13c	-0.01341277
69	0x3b5a87d2	0.0033345115
70	0x3d0a4cb7	0.033764567
71	0xbbbae498	-0.00570352
72	0x3d4e273f	0.050330397
73	0x3c44353e	0.011975585
74	0x3c7e4bfc	0.015521046
75	0xbc875a41	-0.016522529
76	0x3cc7d2c2	0.02439249
77	0x3bd497e1	0.006487832
78	0x3cb69298	0.022286698
79	0x3cacaf71	0.02107975
80	0xbcb90dc3	-0.02258957
81	0xbd1a4b21	-0.037669305
82	0xbbabf8c6	-0.005248162
83	0x3cb23c52	0.021757279
84	0xbc9d6bfa	-0.019216526
85	0xbcf653b3	-0.030069208
86	0xbb96e2ea	-0.004604687
87	0x3c922f89	0.017844932
88	0x3c127b39	0.008940511
89	0xbc06b186	-0.008221036
90	0xbc673068	-0.014110662
91	0xbb5429b0	-0.003237348
92	0x3c1866bf	0.00930184
93	0xbc0494f7	-0.008092157
94	0xbd0fe4d6	-0.035130344
95	0x3b1cc507	0.0023921148
96	0xbcef23ce	-0.029191878
97	0x3d40258d	0.04691081
98	0x3bbabbb4	0.0056986455
99	0xbd0970aa	-0.03355471
100	0x3c8f885e	0.01752108
101	0xbab370d1	-0.0013690238
102	0xbc58ba05	-0.013227944
103	0x3ba70914	0.0050975177
104	0xbca65195	-0.020302573
105	0x3b9a1650	0.004702367
106	0xbbe055db	-0.0068461723
107	0x3cb29c29	0.021802979
108	0x3d0c91a0	0.034318566
109	0xbc098c09	-0.008395203
110	0xbc88085f	-0.016605554
111	0x3bf9f7a0	0.007628396
112	0x3d3957c8	0.04524973
113	0xbc817b0e	-0.015805747
114	0x3ae87ca2	0.0017737339
115	0x3b1fa162	0.0024357666
116	0x3c6e04da	0.014527524
117	0x3c8577f9	0.016292559
118	0xbc455bba	-0.012045795
119	0xbb7f0e61	-0.0038918483
120	0x3ca142f2	0.019685242
121	0x3c9375eb	0.018000564
122	0xbc203d0c	-0.00978018
123	0xbce73e4e	-0.028227951
124	0x3b94b74c	0.0045384523
125	0x3c7c3f74	0.015395988
126	0xbc9fb080	-0.019493341
127	0x3b6efdf4	0.0036467286
128	0xbcf1a1f4	-0.02949617
129	0xbc7fe8dd	-0.015619484
130	0xbc22d621	-0.009938748
131	0xbce0f1eb	-0.027459105
132	0x3c68447a	0.014176482
133	0xbc8c2fb0	-0.017112583
134	0xbb9ad69d	-0.004725291
135	0x3bc88c4a	0.0061202394
136	0xbba66bbb	-0.0050787604
137	0xbca1d399	-0.019754218
138	0x3992f63f	0.00028030758
139	0xbc857a59	-0.016293691
140	0x3b8a188e	0.004214353
141	0xba70bd95	-0.00091835234
142	0xbcc2b9e3	-0.023770278
143	0xbcd2efdc	-0.02574914
144	0x3c853125	0.016258786
145	0x3c05420a	0.008133421
146	0x3ce16f4b	0.027518889
147	0x3cf06a96	0.0293477
148	0xbbbe6726	-0.005810636
149	0xbd0100f8	-0.031495064
150	0xbb55a5fb	-0.0032600153
151	0xbc85cbd6	-0.016332548
152	0xbc1a3c1a	-0.009413743
153	0x3c24bb8e	0.010054482
154	0x3cef8758	0.029239342
155	0xbc519f54	-0.012794334
156	0xbb463b2a	-0.0030247667
157	0xbce4f239	-0.027947532
158	0xbca45118	-0.0200582
159	0x3c2d539a	0.010579014
160	0x3c761ada	0.01502105
161	0x3a8c1abd	0.0010689121
162	0xbba5bd71	-0.0050579836
163	0xbc8ebb87	-0.017423404
164	0xbcbbde16	-0.022933047
165	0xbc95c168	-0.0182807
166	0xbc636dc9	-0.013881155
167	0x3bf44a16	0.007455121
168	0xbc119b0c	-0.008887064
169	0x3cda42bc	0.02664315
170	0x3cdfb6f6	0.027308922
171	0x3caf20ef	0.021378009
172	0x3bcc8bb9	0.006242242
173	0xbb432546	-0.0029776855
174	0xbc83912e	-0.016060438
175	0xbb29e85d	-0.0025925853
176	0x392a9f79	0.00016271872
177	0x3d078b53	0.033091854
178	0x3a42b158	0.0007426939
179	0x3c252f44	0.01008207
180	0xbd546eda	-0.05186353
181	0xbc8c1bbe	-0.017103072
182	0x3c93bb30	0.018033594
183	0x3c370e48	0.0111728385
184	0xbcdcbcf8	-0.026945576
185	0x3bac4bb6	0.005258049
186	0xbbe47f0a	-0.006973152
187	0x3b137b76	0.0022504008
188	0x3ad2020c	0.0016022339
189	0x3bbfbf98	0.005851697
190	0xbba14e24	-0.004922645
191	0xbce17565	-0.027521798
192	0x3cf9fad1	0.030515106
193	0xbc8a253e	-0.016863462
194	0xbbc997d5	-0.006152133
195	0xbcf8c5b6	-0.030367713
196	0x3c7b02cb	0.01532049
197	0x3b1c2255	0.0023824174
198	0x3cbe1249	0.023202078
199	0xbbca0d2f	-0.0061661224
200	0xbcbe7f87	-0.02325417
201	0xbcf499b5	-0.02985845
202	0xbb42c057	-0.0029716694
203	0x3c85272e	0.016254034
204	0x3c9b6dc4	0.018973239
205	0x3c19d3cd	0.009388876
206	0x3c6deb4c	0.014521431
207	0xbc879024	-0.016548224
208	0x3cda5d40	0.026655793
209	0xbbedef6e	-0.0072612083
210	0x3b5d3ccc	0.0033758162
211	0x3a14860c	0.00056657265
212	0xbca7e7c0	-0.02049625
213	0x3b9e83ac	0.004837474
214	0xbc5a611d	-0.013328818
215	0xbcbf34af	-0.023340551
216	0xbcaa471b	-0.020785859
217	0x3d3146f7	0.043280568
218	0x3cbec2ae	0.02328619
219	0xbb21ee3c	-0.002470865
220	0xbc2396d9	-0.009984695
221	0x3c757fa3	0.014984044
222	0xbd30ba76	-0.043146573
223	0xbc8ebb41	-0.017423274
224	0x3a1962ef	0.0005851229
225	0xbd0be475	-0.03415342
226	0xbc9cf812	-0.019161258
227	0x3c518060	0.012786955
228	0x3c3df7ae	0.011594696
229	0x3c47e100	0.01219964
230	0x3beeb589	0.0072848243
231	0xbc2c46f4	-0.010514963
232	0x3ca33dea	0.019926984
233	0x3b823498	0.003973555
234	0x3c30457b	0.010758753
235	0x3cb37764	0.021907516
236	0xbc102ed1	-0.008800224
237	0xbb78106b	-0.0037851583
238	0xbd11cff2	-0.035598703
239	0xbcaaddbb	-0.020857682
240	0xbce233b7	-0.02761255
241	0x3c315e9a	0.010825777
242	0xbcc2cdb2	-0.023779724
243	0xbbb1982a	-0.0054197507
244	0x3c183edf	0.009292333
245	0x3c6f9af7	0.014624349
246	0x3c6bf2e3	0.01440117
247	0x3c19ed00	0.009394884
248	0x3be4c1a6	0.0069810925
249	0x3d219dfe	0.039457314
250	0xbd2af50e	-0.04173761
251	0x3cb89b22	0.02253491
252	0x3c804ec3	0.015662557
253	0x3ca3e257	0.020005388
254	0xbb9c0a97	-0.0047620046
255	0x3bba88ae	0.005692563

network_body._body_endoder.seq_layers.0.bias f4 [256]
0	0x3b41f408	0.0029594917
1	0x3ad91a2c	0.0016563586
2	0x3c1fbdd1	0.009749846
3	0x3cc2d761	0.023784341
4	0xbc991259	-0.018685507
5	0xba9aab72	-0.0011800362
6	0xbc1ea7ef	-0.009683593
7	0xb9f0745b	-0.0004586306
8	0x3c8494fd	0.016184324
9	0xb998b14d	-0.000291238
10	0x3bf76536	0.007549907
11	0x3c265093	0.010151046
12	0x3c9569da	0.01823895
13	0x3c2cf57f	0.010556578
14	0x3c73617c	0.014854785
15	0x3c7b5ea2	0.015342386
16	0x3c01b0b9	0.007915669
17	0x3bc8ca8a	0.00612766
18	0x3ba442b0	0.0050128326
19	0x3b95e4ce	0.004574395
20	0x3c2a71c7	0.010403103
21	0xba05bb49	-0.0005101455
22	0xbbe9d1ad	-0.007135591
23	0x3b4076b6	0.0029367632
24	0xbb268dd4	-0.0025414126
25	0x3b31d362	0.002713405
26	0x3c1489ce	0.009066058
27	0x3ba5ee87	0.005063835
28	0x39549460	0.0002027317
29	0x39d3321d	0.00040282393
30	0x3c447c32	0.011992501
31	0x3b13fa7a	0.0022579716
32	0x3bc0f4f8	0.0058885776
33	0x3c34589e	0.011007456
34	0x3bb4f9f3	0.0055229603
35	0xbc70bf81	-0.014694096
36	0x3b81bef2	0.00395953
37	0x3aa48b5e	0.0012553742
38	0x3c7bd3f1	0.015370355
39	0x3b96c862	0.004601524
40	0xbbbd5f3e	-0.005779176
41	0x3c9638c5	0.018337617
42	0xbc3b2a1c	-0.011423614
43	0xbb7cd9b0	-0.00385819
44	0x3ba6bd1c	0.0050884616
45	0x3ca3b1f4	0.019982316
46	0xba90b9f9	-0.0011041752
47	0xbbb3e6f0	-0.0054901764
48	0x391617c5	0.0001431397
49	0x3c07bc51	0.008284644
50	0x38ad7d20	8.272589e-05
51	0x3c12a3b2	0.008950161
52	0xbb6d2cf3	-0.0036190122
53	0x3ac55f48	0.0015058303
54	0xbbe891c2	-0.007097454
55	0xbb057bb9	-0.0020367934
56	0xba869ba5	-0.0010269774
57	0x3b5b9f38	0.003351165
58	0x3cbdcd11	0.023169072
59	0xbbd76f4d	-0.0065745474
60	0x3abd2458	0.0014430387
61	0x3bf111ff	0.0073568816
62	0x3c3f9443	0.011693063
63	0x3b2d0cd5	0.0026405354
64	0x3abb67ae	0.0014297867
65	0xbaf473e6	-0.0018650263
66	0x3ba12758	0.00491802
67	0x3c97481b	0.018467
68	0x3aedc6d4	0.001814092
69	0xb9692a54	-0.0002223638
70	0x3b029949	0.001992779
71	0x3bc63f38	0.0060500167
72	0x3abe74d4	0.0014530667
73	0xbc49a72c	-0.012307923
74	0x3aebf2de	0.0018001457
75	0xbae19dff	-0.0017213224
76	0x3910e853	0.00013819458
77	0xbb09f3e6	-0.0021049916
78	0xb9a84030	-0.0003209128
79	0x3cb43a8d	0.022000575
80	0x3c299a1c	0.010351684
81	0x3c56d4a1	0.013112218
82	0xbb85e283	-0.00408584
83	0xbc1fc4b3	-0.009751487
84	0xbaaf1702	-0.0013358297
85	0x3c24a6a3	0.010049495
86	0x3c1c7327	0.009548939
87	0x3c908068	0.017639354
88	0xbbb58dad	-0.0055405707
89	0x3b055a71	0.0020348097
90	0x3bcfda7a	0.006343183
91	0x3c4cb5b8	0.012494497
92	0x3af6fc6a	0.0018843536
93	0x3bda5ee7	0.0066641453
94	0x3ad3a64d	0.0016147584
95	0x3a92d084	0.0011201059
96	0x3bb079fa	0.0053856345
97	0x3c072fa9	0.008251109
98	0xbc59745a	-0.013272369
99	0x3c73c13c	0.014877614
100	0x3ae96b59	0.0017808481
101	0xbc38a24d	-0.011269164
102	0x3c0ed5fc	0.00871801
103	0xbae6f486	-0.0017620481
104	0x3bc8e864	0.0061312187
105	0x3b48f58b	0.0030663933
106	0x3c09773c	0.008390244
107	0xbb8cdf75	-0.004299099
108	0xba81a8aa	-0.0009892185
109	0x3a789c2a	0.00094837195
110	0x3afdbd96	0.0019358869
111	0xbae76c7c	-0.0017656232
112	0x3cadc7ed	0.021213496
113	0x3b498b03	0.0030753023
114	0x3c15991c	0.009130742
115	0x3c5a3c0b	0.013319979
116	0x3b37192d	0.002793859
117	0x3bb02f5a	0.0053767385
118	0x3c227320	0.009915143
119	0x3b8c5885	0.0042830133
120	0x3ae83c8b	0.0017718239
121	0xbafda8a1	-0.0019352623
122	0x3ba622cf	0.0050700675
123	0x3a4d303b	0.00078273163
124	0xbba41da7	-0.0050084176
125	0x3c2c4294	0.01051392
126	0xbb213298	-0.0024596807
127	0x3c2b069c	0.0104385875
128	0xbb9bf964	-0.0047599543
129	0x3c4ac40d	0.012375844
130	0x3a83c084	0.0010051881
131	0x3c201d25	0.009772574
132	0x3c53f900	0.012937784
133	0x3a06de42	0.00051448133
134	0xb9806a98	-0.0002449348
135	0x3c57cc8d	0.013171327
136	0x3bfcb778	0.007712301
137	0xba7c48d8	-0.00096238917
138	0x3c98279c	0.018573575
139	0x3be5611a	0.007000101
140	0x3b05264a	0.0020317012
141	0x3b819355	0.003954331
142	0x3baeadbc	0.0053307693
143	0x3c9b3183	0.018944507
144	0x3b932c65	0.004491376
145	0xbc0c8248	-0.008575983
146	0x3c1dc907	0.009630448
147	0x3b8ea989	0.0043537063
148	0xbb2c5447	-0.002629535
149	0x3b1abdd7	0.0023611689
150	0x3b064108	0.002048554
151	0x3b95eafb	0.004575131
152	0xbad73d01	-0.0016421379
153	0x3bcb5494	0.006205151
154	0x3c250815	0.010072728
155	0x3c83c4de	0.016085085
156	0xbc089b60	-0.008337826
157	0x3b2acbb9	0.002606137
158	0x3c681017	0.014163992
159	0x3bb24f64	0.005441593
160	0x3b8044f5	0.0039144703
161	0xbbafc7e0	-0.005364403
162	0x3af198c3	0.0018432367
163	0xbac531e7	-0.0015044779
164	0x3c4947b8	0.0122851655
165	0xbbb676ca	-0.00556836
166	0xbc60b847	-0.01371581
167	0x3c331e86	0.01093257
168	0x3ca54c0b	0.020177862
169	0x3bf8b194	0.0075895283
170	0x3b3fae81	0.00292483
171	0x3c2c9898	0.010534428
172	0xbbc4e400	-0.006008625
173	0x3c0da66b	0.008645634
174	0x37e60f3e	2.7425234e-05
175	0x3bf0cde6	0.0073487638
176	0x3b32c7c7	0.002727972
177	0xbbbfab8b	-0.005849307
178	0x3acb993a	0.0015533336
179	0x3c13af69	0.009013989
180	0xba20e9ea	-0.00061383715
181	0x3ba8a6ca	0.005146836
182	0x3c0b49c7	0.008501477
183	0x3be222f2	0.0069011385
184	0x3a107758	0.00055109477
185	0x3aa4e19d	0.0012579445
186	0x3aeaaced	0.0017904319
187	0x3aaba565	0.0013095556
188	0x3b9897f6	0.004656787
189	0x3c5116bc	0.012761768
190	0x3c448a06	0.011995798
191	0x3c1b99b0	0.009497091
192	0x3ac0ea7b	0.0014718318
193	0x3be1a11a	0.00688566
194	0xbbbe7044	-0.005811723
195	0x3c7550a7	0.014972842
196	0x3b4bc249	0.0031091145
197	0x3b07c134	0.0020714523
198	0xba7fb7a9	-0.00097548455
199	0x3bd0b010	0.0063686445
200	0xba2b9a11	-0.000654609
201	0x3bcb8733	0.0062111854
202	0x3bdbb182	0.00670451
203	0x3b84a5a8	0.004048068
204	0xbb95e57e	-0.0045744767
205	0xbbb38d66	-0.0054795025
206	0x3ba8fdd1	0.0051572104
207	0x3c08f86a	0.008360008
208	0x3cb184d5	0.021669785
209	0xbb67ae2e	-0.0035351622
210	0x3c0f2340	0.008736432
211	0xbb3cdbc4	-0.0028817514
212	0xba8bd35a	-0.0010667846
213	0x3bcbeb05	0.006223085
214	0xbafe3b2b	-0.0019396296
215	0x3bc319f3	0.005954021
216	0xbb62848f	-0.0034563874
217	0xbb6e9e4a	-0.0036410266
218	0x3c9b7ad2	0.018979464
219	0xbb0b442e	-0.0021250355
220	0x3c18828b	0.009308468
221	0xbb73b31f	-0.0037185622
222	0x3b85bb61	0.004081175
223	0x3c0f0552	0.008729296
224	0x3c4a3840	0.012342513
225	0x3b6b215f	0.0035878045
226	0xbb652139	-0.003496243
227	0x3bebbbea	0.007194032
228	0x3c45e32b	0.012078087
229	0xba7ecb0c	-0.00097195874
230	0x3c8cbcdc	0.017179899
231	0x3c05e79f	0.008172899
232	0x3ba7a043	0.00511554
233	0xba41dc2a	-0.0007395173
234	0x3c826279	0.015916096
235	0x3c3c7def	0.011504634
236	0x3ccb8105	0.024841795
237	0x3bb515e0	0.0055262893
238	0xbb3a5e18	-0.0028437432
239	0xbb23b389	-0.0024978837
240	0xbaabe9fa	-0.0013115995
241	0x3bad349f	0.005285814
242	0x3ab6259a	0.0013896704
243	0x3bebdbf8	0.007197853
244	0xbb0f238e	-0.002184126
245	0x3b84004c	0.0040283557
246	0x3bf4dc6b	0.007472565
247	0x3c17d2fb	0.00926661
248	0x3b8fc25b	0.0043871826
249	0x3c8bb102	0.017052177
250	0xba967f65	-0.0011482058
251	0xbae78a1e	-0.0017665063
252	0xbbd0b06d	-0.006368688
253	0x3bae229c	0.0053141844
254	0xbbd311d7	-0.0064413357
255	0x3b7cbb43	0.0038563765

network_body._body_endoder.seq_layers.0.weight f4 [256, 134]
0	0x3d707a1e	0.05871021
1	0xbe118061	-0.14209129
2	0xbcd28df3	-0.025702452
3	0x3c985948	0.01859726
4	0x3ce33801	0.027736666
5	0x3ac0918a	0.0014691812
6	0x3ddbacdb	0.10726329
7	0xbd1041a5	-0.035218854
8	0xbc7ac913	-0.015306729
9	0x3dd2b43a	0.10288282
10	0x3c9a10cd	0.01880684
11	0xbbad15c4	-0.0052821357
12	0x3e0e397b	0.13889115
13	0x3d857a0a	0.06517418
14	0x3d91ceab	0.07119497
15	0x3e0ec21a	0.13941231
16	0x3bcdaed6	0.0062769456
17	0x3b5dcf77	0.0033845583
18	0x3d84b374	0.064795405
19	0xbcf28ad9	-0.029607223
20	0x3dfacf05	0.12246517
21	0xbd0d203f	-0.03445458
22	0x3dacb1f7	0.084323816
23	0xbc2e0aae	-0.010622663
24	0x3de091f5	0.10965339
25	0xbd235209	-0.039873157
26	0xbd116728	-0.035498768
27	0xbd8530e2	-0.06503464
28	0x3df1300d	0.11776743
29	0xbd8d8191	-0.069094785
30	0xbd4577a7	-0.048209812
31	0xbc72d006	-0.014820104
32	0x3dc4a979	0.09602637
33	0xbd4a9493	-0.049458098
34	0x3d8d0b69	0.06886942
35	0xbc263dd1	-0.010146574
36	0x3d072def	0.03300279
37	0xbdaa4324	-0.08313587
38	0xbd325204	-0.043535247
39	0x3d42ce0f	0.047559794
40	0xbde95639	-0.11393399
41	0xbc68f1c1	-0.014217795
42	0x3cf3c56c	0.029757224
43	0x3df085b8	0.11744255
44	0xbdae1c7d	-0.085015275
45	0x3d74076d	0.059577394
46	0xbcea760c	-0.028620742
47	0x3e0cd0fd	0.13751598
48	0x3c175596	0.009236714
49	0x3dc8be9c	0.09801981
50	0xbdfbc12e	-0.122927055
51	0x3de1a410	0.110176206
52	0xbdb93b4f	-0.09044515
53	0x3ddf16e2	0.108930364
54	0xbdcca5bc	-0.09992549
55	0xbdd6d425	-0.10489682
56	0x3dad93e1	0.08475471
57	0xbdb7b377	-0.08969777
58	0xbd87dce2	-0.06633927
59	0x3ca47847	0.020076884
60	0xbd85d192	-0.06534113
61	0xbd498c29	-0.049205933
62	0xbe110038	-0.1416024
63	0xbe3fe3fd	-0.18739314
64	0x3cc1543d	0.023599738
65	0x3d1ab604	0.03777124
66	0x3d13dfc8	0.036102086
67	0x3e4e1967	0.20126878
68	0xbaa9e252	-0.0012961125
69	0x3c279508	0.010228403
70	0x3e05cf12	0.13067272
71	0x3cbd2f59	0.023093866
72	0xbbac9b11	-0.005267509
73	0x3c833039	0.016014205
74	0xbe765db6	-0.24059185
75	0x3c9cc689	0.019137638
76	0x3d69da83	0.057093155
77	0xbcf38d0c	-0.029730342
78	0x3dc1344c	0.09433803
79	0x3d847e6f	0.06469428
80	0x3d91fe94	0.07128635
81	0xbd2ee7c8	-0.042701513
82	0xbd922bb1	-0.0713724
83	0x3ab1d6d6	0.0013568054
84	0x3e1739cb	0.1476814
85	0x3d7ec1f1	0.062196676
86	0xbc320f3f	-0.010867893
87	0xbd40621f	-0.046968576
88	0x3c3367a2	0.010950001
89	0xbdf01962	-0.117235914
90	0xbd2ce73b	-0.042212706
91	0x3d9f0902	0.0776539
92	0x3db9ec36	0.09078257
93	0x3c02f3a4	0.007992659
94	0xbb0e6852	-0.002172966
95	0x3c929400	0.017892838
96	0xbd8af567	-0.06785088
97	0xbdce6848	-0.10078484
98	0x3d4b32e2	0.049609073
99	0xb89f9635	-7.609689e-05
100	0xbd786618	-0.06064424
101	0x3dd10fe0	0.10208106
102	0xbdc72760	-0.09724307
103	0xbdd506b7	-0.104016714
104	0x3e061721	0.1309476
105	0x3d583a32	0.052789874
106	0xbb28330f	-0.00256652
107	0x3e3b2cf1	0.18278863
108	0x3e01b087	0.12664996
109	0x3de972f6	0.1139888
110	0x3d5ce68f	0.053930815
111	0xbe140793	-0.14456014
112	0x3ccb9e6b	0.024855813
113	0x3c9e76ec	0.019343816
114	0x3d3d670d	0.046240855
115	0x3db7e73f	0.089796536
116	0xbdd0ff11	-0.102049
117	0xbcf814b0	-0.030283302
118	0x3ab87fc6	0.0014076165
119	0x3dab1b6e	0.08354841
120	0xbd5d5a06	-0.05404093
121	0x3d55e0a1	0.052216176
122	0x3d1e0273	0.038576555
123	0x3e28e732	0.16494444
124	0x3cadbef9	0.021209227
125	0x3deef233	0.116672896
126	0xbc78b064	-0.015178774
127	0x3dc51a99	0.09624214
128	0x3d802818	0.06257647
129	0xbc7d21bf	-0.01544994
130	0xbd76f434	-0.060291484
131	0x3d2d0399	0.04223976
132	0xbdfb705c	-0.1227729
133	0xbd18edc2	-0.03733612
134	0xbc8b5e3d	-0.01701271
135	0x3ca90937	0.020634277
136	0xbdcac54b	-0.09900912
137	0x3e3d7fc1	0.18505765
138	0xbd14836c	-0.036258146
139	0xbd80c251	-0.06287063
140	0xbc683896	-0.014173647
141	0xbe2e6e20	-0.17034197
142	0x3b4f3ca2	0.0031621833
143	0x3de5eea2	0.11227156
144	0xbc28fba5	-0.010313903
145	0xbb3b6f94	-0.0028600441
146	0x3d57f644	0.05272509
147	0xbe42142f	-0.18953012
148	0xbd2d81a4	-0.042359963
149	0xbcca6574	-0.02470658
150	0x3db7cc06	0.08974461
151	0xbbcf164a	-0.0063197957
152	0x3d8e7acf	0.06957018
153	0xbdc41ca8	-0.09575778
154	0x3d15e864	0.036598578
155	0xbd6a7521	-0.05724061
156	0xbdafbeab	-0.08581289
157	0xbdb6581e	-0.08903526
158	0x3bf330ef	0.007421605
159	0xbdaff454	-0.08591524
160	0xb8deda15	-0.00010626406
161	0xbd646771	-0.055762712
162	0x3d7e31d6	0.062059246
163	0xbe09ffae	-0.1347644
164	0xbd7356ce	-0.059408955
165	0x3d1ada8e	0.037806086
166	0xbd60a510	-0.054844916
167	0x3d8ebad0	0.069692254
168	0xbda15572	-0.078776255
169	0x3d472023	0.048614632
170	0xbd3d6917	-0.0462428
171	0xbc76fccb	-0.015074919
172	0xbe3d5d0c	-0.18492526
173	0x3c7ac00b	0.015304576
174	0xbcb11131	-0.021614643
175	0x3bcf0140	0.0063172877
176	0x3df03144	0.11728147
177	0x3d93dd88	0.07219988
178	0xbb226c08	-0.002478363
179	0xbe154556	-0.14577231
180	0x3d0cd993	0.034387182
181	0x3d194d05	0.037426967
182	0xbd63b2e1	-0.055590514
183	0xbda46088	-0.080262244
184	0xbdd38309	-0.10327727
185	0xbe1a6854	-0.1507886
186	0x3e2b0805	0.16702278
187	0x3cfa6d35	0.030569652
188	0x3c42d34e	0.011891199
189	0xbe117f03	-0.14208607
190	0xbc5a68a7	-0.013330615
191	0xbcd84654	-0.026400723
192	0xbd0a6ad9	-0.033793304
193	0xbd2aedac	-0.041730568
194	0xbd5472d1	-0.05186731
195	0x3d8f9bef	0.07012164
196	0xbd70f50c	-0.058827445
197	0x3d12281d	0.035682786
198	0x3dfd7a93	0.12376895
199	0xbd6b8f3f	-0.057509657
200	0xbd092461	-0.03348196
201	0x3db4a003	0.08819582
202	0x3aff47ff	0.0019476413
203	0xbd16f30e	-0.03685289
204	0x3e7124d1	0.235492
205	0x3ca2d042	0.019874696
206	0x3dcc9131	0.099886306
207	0x3da3c51c	0.0799658
208	0x3dcc7049	0.09982354
209	0xbd997786	-0.074935004
210	0x3d313ddc	0.043271884
211	0xbd18e780	-0.03733015
212	0x3c9f0db8	0.019415721
213	0x3d1ff15f	0.03904855
214	0xbd3e7526	-0.04649844
215	0x3d020c53	0.031750035
216	0xbd2ebb1a	-0.042658903
217	0xbc901b1d	-0.017591054
218	0x3cf173ea	0.029474217
219	0x3d636392	0.05551488
220	0x3da1be1a	0.07897587
221	0xbda63fc0	-0.08117628
222	0xbe14f2e7	-0.14545785
223	0xbd555af4	-0.052088693
224	0x3e46e389	0.19422735
225	0x3db5060a	0.088390425
226	0xbcc5e281	-0.024155857
227	0xbd233379	-0.03984401
228	0xbc0e6932	-0.008692073
229	0xbd986ec2	-0.074430004
230	0x3ce8d0e2	0.028419916
231	0xbce18225	-0.027527878
232	0x3c046ade	0.00808212
233	0x3c66a370	0.0140770525
234	0xbcea1070	-0.028572291
235	0x3e71df3d	0.23620315
236	0xbe3462df	-0.17615841
237	0xbc2307ac	-0.00995056
238	0x3d449afb	0.047999363
239	0xbcd4a6d4	-0.025958456
240	0x3deb444a	0.114876345
241	0x3d9027e8	0.070388615
242	0xbca11f3e	-0.019668218
243	0x3ddc8d67	0.10769158
244	0x3d8d8780	0.0691061
245	0xbd65f4a2	-0.056141503
246	0x3dc35510	0.09537709
247	0x3c8f3317	0.017480416
248	0xbe0e09e2	-0.13870957
249	0xbcf379ad	-0.029721105
250	0xbda0a326	-0.07843618
251	0x3e0491f1	0.12946297
252	0x3ca37ef3	0.019957995
253	0x3da298e2	0.07939316
254	0xbc95e8fe	-0.018299576
255	0x3d0661c6	0.032808088

network_body._body_endoder.seq_layers.2.bias f4 [256]
0	0x3bb56f1e	0.005536928
1	0x3c2bef31	0.010494039
2	0x3bc734fa	0.0060793133
3	0x3b91d598	0.004450511
4	0x3c395f5b	0.011314238
5	0x3b2bfe43	0.002624408
6	0x38b1de68	8.481444e-05
7	0x380a2d10	3.294373e-05
8	0xba07e673	-0.0005184181
9	0xbb446c28	-0.0029971693
10	0x3bab56b3	0.005228841
11	0x3c0d1f1b	0.008613373
12	0x3b60aaf7	0.003428159
13	0xba3d4cf6	-0.0007221246
14	0x3bf664be	0.0075193336
15	0x3badff5d	0.0053099827
16	0x3b90bdb9	0.004417148
17	0x3a1c79b8	0.0005969065
18	0xbae6203e	-0.0017557216
19	0x3bcbd887	0.0062208804
20	0x3b9f41fd	0.0048601613
21	0xbba7df4a	-0.0051230537
22	0x3c4a5e9d	0.012351659
23	0x3b695912	0.0035606069
24	0xbae9634c	-0.0017806082
25	0x3af16f80	0.001842007
26	0x3aa228e1	0.0012371802
27	0x3b098133	0.002098155
28	0x3c02e1b0	0.007988378
29	0x3b267281	0.002539784
30	0x3b8d8406	0.004318717
31	0xbc135481	-0.008992315
32	0x3c0bd970	0.008535728
33	0x3ba82711	0.00513161
34	0xbb1843aa	-0.002323369
35	0x3a0b5b91	0.00053160737
36	0x3bb1aa40	0.0054219067
37	0x3b2c405a	0.0026283474
38	0x3c337e7f	0.010955452
39	0x3bc65691	0.0060528
40	0x3bc59260	0.006029412
41	0x3a883a5c	0.0010393369
42	0x3b5d2d88	0.0033749063
43	0x3a1be24c	0.00059465016
44	0xba8d2bdb	-0.0010770516
45	0xb9d31cb2	-0.00040266436
46	0x3b6c95dc	0.0036100065
47	0x3b069c48	0.0020539928
48	0x3af0caf3	0.001837103
49	0x3c31624b	0.0108266575
50	0xbaf5fa9c	-0.0018766704
51	0xba34d388	-0.00068979757
52	0x3a429066	0.000742203
53	0x3a994ee4	0.0011696485
54	0x3bbed83a	0.005824116
55	0xbb0c7fdc	-0.0021438515
56	0x3a3e93ee	0.0007269968
57	0x3a90032d	0.0010987275
58	0x3c5c1f02	0.013435127
59	0x3b8d3fec	0.0043105986
60	0xbc010056	-0.007873615
61	0xb91e8f46	-0.00015121428
62	0x3b41de21	0.0029581862
63	0x3b4780c5	0.0030441743
64	0xbc6d647e	-0.014489291
65	0x3aa0c1db	0.0012264805
66	0x3b93679c	0.004498435
67	0xbb1a747b	-0.0023567963
68	0xbb9c069d	-0.0047615306
69	0x3bea5099	0.0071507213
70	0xba8c48b7	-0.0010702823
71	0x3b85c265	0.0040820115
72	0xbbb76514	-0.0055967662
73	0xba7c1a07	-0.00096169155
74	0x3b9ca6d6	0.0047806306
75	0x3b0d2677	0.002153782
76	0x3c4f1730	0.012639806
77	0x3bfe06a8	0.0077522583
78	0x3c2996a7	0.01035086
79	0x3c5280f8	0.012848131
80	0x3beb32f4	0.007177705
81	0xbb9ac298	-0.0047229044
82	0xbaeae62a	-0.0017921377
83	0x3c205d24	0.009787831
84	0x394b0061	0.0001935973
85	0x3b595793	0.003316377
86	0xbb46bc04	-0.0030324468
87	0xbb8dcf6f	-0.0043277065
88	0x3bd868a2	0.00660427
89	0x3b3d8cec	0.0028923107
90	0x3b84fbdc	0.0040583443
91	0x3bf00ed1	0.007325985
92	0x3bf92a22	0.0076038996
93	0x3c171ead	0.009223622
94	0x3ae98467	0.0017815948
95	0xbb779b2b	-0.0037781696
96	0x3996f3a1	0.00028791747
97	0xbb6db119	-0.0036268889
98	0x39f34399	0.00046398936
99	0xba89a3fa	-0.0010501139
100	0xbbcc51e9	-0.0062353504
101	0xbba35938	-0.004985001
102	0x3c18ba7f	0.009321808
103	0xba96293c	-0.0011456381
104	0x3bd6f1ba	0.006559578
105	0x3c5ba638	0.013406329
106	0xbbf12acd	-0.0073598386
107	0x3c31e0bb	0.010856803
108	0x3b1f7b1b	0.0024334851
109	0x3997d2b4	0.0002895795
110	0x3be649fe	0.0070278635
111	0x3c753143	0.014965358
112	0xb8d3a2a7	-0.000100915604
113	0x3a3e0101	0.00072480744
114	0x3c40681b	0.011743571
115	0x3ca45d07	0.02006389
116	0x3be003e5	0.0068364018
117	0xba138bf8	-0.0005628462
118	0xbb14ae20	-0.0022686794
119	0x3beb0a11	0.007172831
120	0x3c586c8f	0.013209476
121	0xbb348a6a	-0.0027548322
122	0x3c25f2f8	0.010128729
123	0x3aac6553	0.0013152756
124	0x3ca318e8	0.019909337
125	0x3ae856d4	0.0017726072
126	0x3b9210e0	0.004457578
127	0xbbc46892	-0.005993911
128	0x3b910501	0.0044256453
129	0x3a817aad	0.0009878479
130	0x3bd81643	0.0065944507
131	0x392742a4	0.00015951187
132	0xbb365dfd	-0.0027827017
133	0x3b682e88	0.0035428125
134	0xbae09029	-0.0017132807
135	0x3c4c86ad	0.012483281
136	0x3c0a674c	0.008447479
137	0xbbf3632d	-0.007427594
138	0x3bbe2522	0.0058027664
139	0xba16fbc1	-0.000575956
140	0xbb751b43	-0.0037400282
141	0xbb7d99a8	-0.0038696323
142	0xbc340f6e	-0.010990007
143	0xbbac7ddf	-0.0052640284
144	0x3b319103	0.002709449
145	0x3a492abb	0.0007673909
146	0x3bafbbe2	0.0053629735
147	0x3acd4553	0.0015660919
148	0x3c66d7a6	0.0140895005
149	0x3bd869b6	0.0066043986
150	0x391ceb45	0.00014964964
151	0x3bd47403	0.0064835562
152	0x3c36079e	0.0111102145
153	0xbbe4b8fe	-0.0069800606
154	0x3bb5b244	0.0055449326
155	0x3b97f5b7	0.004637446
156	0x3c9d83ed	0.019227946
157	0x3b5f9ca9	0.0034120476
158	0x3be7fe08	0.0070798434
159	0x3bec834a	0.0072177993
160	0xbc2db537	-0.010602287
161	0x3b6f1e18	0.0036486443
162	0xba1159ff	-0.00055447215
163	0x3b88221e	0.0041544577
164	0x3c076812	0.008264558
165	0x3bc73be8	0.0060801394
166	0xbade4513	-0.0016957842
167	0x3bec9d10	0.0072208717
168	0x3c17728e	0.009243621
169	0x3c712287	0.014717705
170	0x3b79e2ea	0.0038129636
171	0xbc2c58fe	-0.010519264
172	0x3c89f2d4	0.016839422
173	0x3b180880	0.0023198426
174	0xbb217a69	-0.0024639613
175	0xbbbdae3b	-0.005788592
176	0x3ab26f19	0.0013613432
177	0xbc0b6782	-0.008508565
178	0xbb6d1a9a	-0.0036179186
179	0x3aefc0bc	0.0018291692
180	0x3c0167b4	0.00789826
181	0x3b24e666	0.0025161742
182	0xbb370150	-0.0027924366
183	0x39a47f1e	0.00031375227
184	0x3ba6f3df	0.0050949897
185	0x3b0bde80	0.0021342337
186	0xb9f885b5	-0.00047401866
187	0xbc15a590	-0.009133711
188	0x3b8074ce	0.003920174
189	0x3c7ac27f	0.015305161
190	0x3c910b61	0.017705621
191	0x38c0e0d7	9.197153e-05
192	0xbc43d6f6	-0.011953106
193	0xbbc3c58b	-0.0059744767
194	0xbaa135a1	-0.0012299308
195	0x3c18a163	0.009315821
196	0xb90ffe7f	-0.0001373235
197	0x3b921c75	0.0044589587
198	0xba83410d	-0.0010013893
199	0x3a0fae0e	0.0005480953
200	0xbb2a0c38	-0.0025947224
201	0x3bd9dc3e	0.0066485694
202	0xbb8bd6ec	-0.004267564
203	0xbb9a668c	-0.0047119316
204	0x3a3e1bf1	0.00072520884
205	0x3b100114	0.00219733
206	0xbc0c7c77	-0.008574597
207	0xbc043e4f	-0.008071496
208	0x3b067b76	0.0020520366
209	0xbb5646f0	-0.003269609
210	0x3c0447c0	0.008073747
211	0x3bd545af	0.006508551
212	0x3b186674	0.0023254426
213	0x3c06c1e2	0.008224936
214	0xb98e4754	-0.00027137494
215	0x3bc5c44c	0.0060353633
216	0x3ab511c3	0.0013814498
217	0x3c60c20b	0.013718138
218	0x3b97a69c	0.0046280157
219	0xbaeb368f	-0.0017945337
220	0x3a22983c	0.0006202494
221	0xbb3a5cbb	-0.002843662
222	0xbc12f133	-0.008968639
223	0x3bdcc663	0.0067375167
224	0x3bb8f380	0.005644262
225	0xbaa571b6	-0.001262239
226	0x3c5f1c0a	0.013617525
227	0x3ab0f2da	0.001350011
228	0x3b454855	0.0030102928
229	0x3b061a67	0.0020462514
230	0x3c88426a	0.016633231
231	0xba98d6e9	-0.0011660728
232	0x3aa7ae76	0.0012793082
233	0x3b24223d	0.0025044822
234	0x3c4b6782	0.012414815
235	0xbabdf61a	-0.00144929
236	0x3c7ac599	0.0153059
237	0xbb00ac9d	-0.0019634136
238	0x3be8083e	0.0070810607
239	0xbb589432	-0.0033047316
240	0xbb13facc	-0.0022579907
241	0x3c3593bd	0.011082587
242	0x3a6a2e78	0.0008933316
243	0x3bbc5eb3	0.0057485937
244	0x3b6ee370	0.0036451481
245	0x3c4c1d0c	0.012458097
246	0x3a7bc1bf	0.00096037606
247	0x3c4c472f	0.012468143
248	0x3bdffe85	0.006835761
249	0x3b8fb062	0.00438504
250	0xbc09c220	-0.008408099
251	0xbc424a7c	-0.011858579
252	0xb8283ac4	-4.010905e-05
253	0x3b0f5a1f	0.0021873785
254	0x3b45cf2d	0.00301833
255	0x3be19dc4	0.006885262

network_body._body_endoder.seq_layers.2.weight f4 [256, 256]
0	0xbdde8cc9	-0.108666964
1	0x3d515e7e	0.051115505
2	0x3d416064	0.047211066
3	0x3bb504e2	0.0055242637
4	0xbcdc836b	-0.026918134
5	0x3c78faff	0.015196561
6	0xb9f18b2d	-0.00046070796
7	0x3cc30937	0.023808105
8	0x3d476eb1	0.048689548
9	0xbd2e2cbb	-0.042523127
10	0xbc42d835	-0.011892368
11	0x3c06c491	0.008225576
12	0xbd80a272	-0.06280984
13	0xbd72e4c1	-0.059300188
14	0x3d678498	0.056522936
15	0x3d7dd71d	0.061972726
16	0xbdabe4e8	-0.0839327
17	0x3dddf187	0.10837083
18	0xbdacf4f2	-0.08445157
19	0xbd1675ef	-0.036733564
20	0xbda2e2e4	-0.07953432
21	0x3d517830	0.05114001
22	0xbcf626c3	-0.03004778
23	0xbcc003bb	-0.023439279
24	0xbdd26e5d	-0.102749564
25	0xbd41d5d2	-0.047323056
26	0xbd59e46b	-0.053196352
27	0xbe254041	-0.16137792
28	0x3d83bb78	0.06432241
29	0x3d43609a	0.04769955
30	0x3c8e1f61	0.017348947
31	0x3d3dd2da	0.04634366
32	0xbcf6874a	-0.030093808
33	0x3d7c022b	0.061525505
34	0xbd95d2f4	-0.07315627
35	0xbd0b493c	-0.03400539
36	0x3cbd66bc	0.023120277
37	0xbd3fcc0c	-0.046825454
38	0xbd6f0771	-0.058356706
39	0x3e41b7f6	0.18917832
40	0x3cab9191	0.020943435
41	0x3b45c819	0.0030179082
42	0xbd9f820b	-0.077884756
43	0xbdf241a2	-0.11828925
44	0x3dbee528	0.09321052
45	0xbce2c57f	-0.027682064
46	0xbd426925	-0.047463555
47	0xbd23225b	-0.039827686
48	0x3d98481e	0.0743563
49	0xbd34b043	-0.04411341
50	0xbd5cbc23	-0.05389036
51	0xbcb25a4c	-0.021771573
52	0xbd2a3c01	-0.04156113
53	0xbdbf3787	-0.09336763
54	0xbcd8875d	-0.026431734
55	0xbda179cf	-0.07884561
56	0xbd2e41da	-0.04254327
57	0xbdba84e0	-0.09107375
58	0x3d982ea5	0.07430772
59	0x3c7db581	0.015485168
60	0x3daef26b	0.08542331
61	0xbd2ecc4c	-0.0426753
62	0xbde60d00	-0.11232948
63	0xbd0327e4	-0.032020465
64	0x3e26c7dc	0.16287178
65	0xbd8feda4	-0.07027748
66	0x3c5c0acc	0.013430309
67	0xbd9f250d	-0.07770739
68	0xbd4bafe7	-0.0497283
69	0x3d8d740e	0.06906901
70	0x3cc492b4	0.023995735
71	0xbc9d924f	-0.019234804
72	0x3e2d7927	0.16940747
73	0x3d40bcd0	0.047055066
74	0x39f95b63	0.0004756107
75	0x3d016b0c	0.03159623
76	0x3e10a0a9	0.14123787
77	0xbb851b9c	-0.004062129
78	0xbce8c18b	-0.028412601
79	0xbdb36a88	-0.087605536
80	0x3d4da300	0.050204277
81	0xbdbca742	-0.092115894
82	0xbdc90c06	-0.098167464
83	0x3c80ca92	0.015721593
84	0xbd192919	-0.03739271
85	0x3c86d236	0.016457658
86	0xbc93b932	-0.018032644
87	0x3d2e75c5	0.042592783
88	0x3bd2cef5	0.0064333626
89	0xbc3354a9	-0.0109454775
90	0x3d2544ed	0.040348936
91	0x3d8b3f2e	0.0679916
92	0x3bf8690f	0.0075808833
93	0x3c748c10	0.014925972
94	0xbc7142ea	-0.014725426
95	0x3dcd4a85	0.10023979
96	0xbd3a2d79	-0.045453522
97	0xbc0d99ed	-0.008642656
98	0xbc83354a	-0.016016621
99	0x3df2f0b5	0.118623175
100	0xbdbb9e94	-0.09161106
101	0xbc360339	-0.011109167
102	0x3e1cb9d1	0.15305258
103	0xbd123369	-0.03569356
104	0xbd91cd96	-0.071192905
105	0xbdc2c81f	-0.09510826
106	0x3dd04d9d	0.101710536
107	0xbd39eb3b	-0.04539035
108	0xbc7e4f31	-0.01552181
109	0x3db60767	0.08888131
110	0xbd3ec2c5	-0.046572465
111	0x3d192025	0.03738417
112	0xbd854d4b	-0.06508883
113	0x3d9d0ee9	0.076688595
114	0xbd2a8b3f	-0.0416367
115	0x3c4e6734	0.012597848
116	0xbd9a0e68	-0.07522279
117	0x3d9a3318	0.075292766
118	0xbdaba444	-0.083809406
119	0x3d7d9962	0.061913855
120	0xbd3894af	-0.04506367
121	0xbc9ce9c0	-0.01915443
122	0x3d1ea173	0.03872819
123	0xbdc968f3	-0.098344706
124	0xbb248b35	-0.0025107388
125	0x3db6a4fa	0.089181855
126	0x3d8cea7a	0.0688066
127	0xbd1f3312	-0.038867064
128	0x3d11b038	0.035568446
129	0xbba9c9f8	-0.0051815473
130	0xbca9ca34	-0.0207263
131	0x3db94b25	0.09047536
132	0x3d387557	0.04503378
133	0x3debf989	0.115222044
134	0xbdaa3adf	-0.0831201
135	0xbd77778e	-0.06041675
136	0xbbc11274	-0.0058920924
137	0xbd202977	-0.039102044
138	0xbcb083c3	-0.021547204
139	0xbd288d28	-0.041150242
140	0x3d632dd6	0.055463634
141	0xbd630422	-0.055423863
142	0x3d8183bd	0.06323955
143	0xbd410510	-0.04712397
144	0x3ddbbf84	0.10729888
145	0x3c2c8aa2	0.0105310995
146	0xbe095eb2	-0.1341503
147	0xbb5f3f13	-0.0034064695
148	0x3d848c06	0.0647202
149	0xbd153a21	-0.03643239
150	0x3c309c34	0.010779429
151	0xbdc3dac3	-0.0956321
152	0xbd9da86e	-0.07698141
153	0xbdc48e1d	-0.095974185
154	0xbc9125c1	-0.017718198
155	0xbd89300c	-0.06698617
156	0x3cedd53d	0.029032344
157	0x3c26fbb4	0.010191847
158	0xbbe40bff	-0.006959438
159	0xbd5677af	-0.052360233
160	0xbcb49138	-0.022041902
161	0x3db7d005	0.089752235
162	0x3d97e3aa	0.0741647
163	0xbc1fdec4	-0.009757701
164	0xbd384653	-0.04498894
165	0x3b77e287	0.003782423
166	0x3ce4dfca	0.027938742
167	0x3bbfd4a0	0.0058542043
168	0xbd22fa00	-0.0397892
169	0xbe002092	-0.12512425
170	0xbdb90eff	-0.090360634
171	0xbd9e6b41	-0.07735301
172	0xbcea966a	-0.028636176
173	0x3d423900	0.04741764
174	0xbd4fa01b	-0.050689798
175	0x3bafabae	0.005361042
176	0xbd87d4bd	-0.066323735
177	0x3d917a23	0.07103374
178	0xbd673102	-0.056443222
179	0x3ce581d0	0.028016001
180	0x3d0d793b	0.034539443
181	0xbd660099	-0.056152914
182	0x3d55db41	0.05221105
183	0x3d34c249	0.044130597
184	0xbd89ae6d	-0.06722722
185	0x3df846f9	0.12122912
186	0x3b8d1849	0.0043058735
187	0xbe102e4d	-0.14080162
188	0xbc8ed533	-0.017435646
189	0x3de3351d	0.11094115
190	0x3d8a04dd	0.06739209
191	0x3d308043	0.04309107
192	0xbd680174	-0.05664201
193	0xbcd5826c	-0.026063167
194	0xbd0836b6	-0.0332553
195	0xbd5f2fdb	-0.054488998
196	0x3b1071a9	0.0022040403
197	0x3c3954f7	0.011311761
198	0xbda86f1d	-0.08224318
199	0x3e1b2882	0.15152171
200	0xbd3f54ee	-0.046711855
201	0x3d8a1f60	0.067442656
202	0xbd0263ba	-0.031833388
203	0x3d8de306	0.06928067
204	0x3c956a03	0.018239027
205	0xbca1effa	-0.01976775
206	0x3d2ac6be	0.04169344
207	0x3de19f67	0.11016732
208	0xbd6a9b28	-0.057276875
209	0x3d0c75a1	0.034291867
210	0xbd30d98b	-0.043176215
211	0xbdb2bf02	-0.08727838
212	0xbd7ede99	-0.062224004
213	0x3dde10bd	0.10843036
214	0xbd60891b	-0.054818254
215	0x3d3059a5	0.04305424
216	0x3d9df95a	0.07713576
217	0x3d28470e	0.041083388
218	0x3c53ff17	0.012939236
219	0x3d1594a1	0.036518697
220	0x3d6beb36	0.05759736
221	0xbc36caf7	-0.011156789
222	0xbcec16e6	-0.028819513
223	0x3dc352b0	0.09537256
224	0xbd650ea0	-0.05592215
225	0xbd007550	-0.031361878
226	0x3d24934b	0.040179532
227	0x3c841029	0.016120987
228	0xbd21a91a	-0.03946791
229	0xbd8fcdf3	-0.070217036
230	0x3d96f17a	0.07370277
231	0x3d8f8bed	0.070091106
232	0xbd5a1dc9	-0.05325106
233	0xbb8a8142	-0.0042268345
234	0xbdad990f	-0.08476459
235	0x3bbbf46b	0.005735924
236	0x3b05b5b1	0.0020402486
237	0x3ceb16b9	0.028697358
238	0xbd8df6ff	-0.069318764
239	0x3d50405d	0.05084263
240	0xbd8dfba4	-0.06932762
241	0x3ccab221	0.024743142
242	0x3ded9b18	0.116018474
243	0x3d04a9a7	0.032388356
244	0xbc7f38a8	-0.015577473
245	0x3d44c66d	0.048040796
246	0x3e0a5ea8	0.13512671
247	0xbe0bf591	-0.13667895
248	0x3b55bd23	0.0032613955
249	0x3d910c52	0.07082428
250	0xbdc96481	-0.09833623
251	0xbcb9b120	-0.022667468
252	0xbd261a1e	-0.04055225
253	0xbcc44614	-0.023959197
254	0x3c8a3047	0.016868724
255	0x3d60edee	0.054914407

network_body._body_endoder.seq_layers.4.bias f4 [256]
0	0x3ade0525	0.0016938789
1	0xbb256734	-0.0025238516
2	0x3ba3a61c	0.004994167
3	0x3c3190fb	0.010837789
4	0x3b7e21f3	0.003877756
5	0xbbb3bfaa	-0.0054854946
6	0x3bbad420	0.005701557
7	0xbb13dfa5	-0.0022563722
8	0xba02887f	-0.0004979446
9	0xbc016cb9	-0.007899457
10	0x3bac6dbf	0.005262106
11	0xbb462956	-0.003023704
12	0x3c0caa76	0.008585563
13	0x3b28a2b9	0.0025731756
14	0x3b6f961a	0.0036557973
15	0x3baf543c	0.0053506177
16	0x3b41446e	0.002949025
17	0xbb5c17cb	-0.0033583518
18	0x3ba9fe9b	0.005187822
19	0x3c0778d9	0.008268558
20	0x3c205c02	0.009787561
21	0xbb028d13	-0.0019920513
22	0x3ad01070	0.0015874039
23	0xbb499bda	-0.003076306
24	0xba4b4e31	-0.0007755487
25	0x3c2b8551	0.010468797
26	0xba11e102	-0.000556484
27	0x3be9865c	0.0071266126
28	0x3a8fc58a	0.0010968905
29	0x3b53ae48	0.0032299925
30	0x3b56bc84	0.0032766173
31	0x3c09e3ce	0.008416129
32	0x3b9faa97	0.004872631
33	0xbb860766	-0.0040902374
34	0x3a72ba60	0.00092593394
35	0x3bb7fb7e	0.005614697
36	0xbb775e1e	-0.0037745307
37	0x3bb7486c	0.00559335
38	0x3bb4c022	0.005516068
39	0x3bc93ffc	0.0061416607
40	0xbc21b678	-0.009870164
41	0xb87c6ee6	-6.0184764e-05
42	0x3b3c51ad	0.0028735206
43	0xbba191b3	-0.004930699
44	0x39d954c1	0.00041452612
45	0xbb3a1ae0	-0.0028397366
46	0xbbbf2520	-0.005833283
47	0xb95c9445	-0.0002103607
48	0x3be38179	0.0069429246
49	0xba576e79	-0.0008218061
50	0x3bc7a247	0.006092343
51	0x3bc98d6d	0.0061508925
52	0xbb8f13aa	-0.004366358
53	0x3bda14a9	0.006655295
54	0x3c064289	0.008194574
55	0xbb836742	-0.004010112
56	0xbc335dc7	-0.010947651
57	0x3b2f0280	0.002670437
58	0x3c3561a6	0.0110706445
59	0xbb36f16d	-0.0027914897
60	0x391a1793	0.00014695367
61	0xbb5fe803	-0.003416539
62	0x3b21b5f2	0.0024675098
63	0xba98cde7	-0.0011658043
64	0x3ac640fc	0.0015125568
65	0xba94fc09	-0.0011366616
66	0x3c59e633	0.013299513
67	0xbada1b71	-0.0016640258
68	0x3b67978f	0.0035338139
69	0x3b745dcd	0.0037287355
70	0x3b2c7356	0.0026313863
71	0x3c230dfc	0.009952065
72	0x3b9111b4	0.004427159
73	0xbacac6a2	-0.0015470574
74	0xbb846ac0	-0.004041046
75	0xba976768	-0.0011551203
76	0x3b7fe836	0.003904832
77	0xb9e5ff1f	-0.00043868364
78	0xb9500b19	-0.0001984056
79	0x3b0f43f4	0.0021860572
80	0x3a0e7b17	0.0005435212
81	0x3bd3aa51	0.0064595123
82	0x3bebc459	0.0071950373
83	0x3aa891c5	0.0012860826
84	0xb9eefd13	-0.00045583452
85	0x3bc63bde	0.006049617
86	0xbc1393d6	-0.009007415
87	0xbb21df2d	-0.0024699674
88	0xb9a257f3	-0.00030964575
89	0xbb9716fc	-0.0046108942
90	0xbae74a05	-0.0017645961
91	0x3b0ff1b2	0.002196413
92	0xba3fc776	-0.0007315794
93	0xbb526e51	-0.003210921
94	0x3c390430	0.011292502
95	0x3c1e4971	0.0096610645
96	0x3afacdad	0.0019134782
97	0x3b648eac	0.0034875078
98	0x3bbb3f0e	0.005714304
99	0x3c054690	0.008134499
100	0xbaea9a3f	-0.0017898752
101	0x3bbcab88	0.005757753
102	0x3b430fee	0.0029764134
103	0x3aaf93d8	0.0013395501
104	0x38808ef7	6.130145e-05
105	0xbbb36365	-0.0054744952
106	0x3bfbba5f	0.0076821293
107	0x3b9eea7e	0.004849731
108	0x3c2c3ce9	0.010512569
109	0xbb701f7b	-0.0036639858
110	0xb9db154a	-0.00041786797
111	0xbb9738eb	-0.0046149394
112	0x3be2e92c	0.006924769
113	0x3c1f5f24	0.009727273
114	0x3ad77bb9	0.001644007
115	0x3a8881b5	0.0010414632
116	0xbc01747f	-0.00790131
117	0xbb6327ce	-0.0034661177
118	0x3b8cb621	0.0042941724
119	0x3c75990c	0.0149901025
120	0xbb85e1ab	-0.0040857396
121	0xbb935d72	-0.0044972235
122	0x3bbdfc24	0.00579788
123	0x3c033d29	0.008010187
124	0x3c54ed52	0.012996035
125	0xbbf069ad	-0.0073368163
126	0x3b157636	0.0022806055
127	0xbb4e14c2	-0.0031445478
128	0x3c2c9b61	0.010535092
129	0x3be38d1f	0.006944313
130	0x3bc4f648	0.0060108043
131	0x3b94540e	0.0045266217
132	0x39c7f04e	0.0003813528
133	0xba2160e0	-0.0006156098
134	0x3b23fb53	0.0025021627
135	0x3b01007d	0.001968413
136	0x3c3701a0	0.011169821
137	0x3bb84cc1	0.005624384
138	0xbc00d991	-0.007864372
139	0x3c143175	0.009044995
140	0x3b912d0c	0.004430419
141	0xbb8a939f	-0.0042290236
142	0x3bb0e2dd	0.005398138
143	0x3a339129	0.00068499387
144	0x3a04e654	0.0005069722
145	0xbb1e5192	-0.0024157506
146	0x3aa6d28b	0.0012727542
147	0x3af0c88c	0.0018370315
148	0xbc226a09	-0.009912976
149	0x3c3510d4	0.011051375
150	0xbba902e7	-0.0051578167
151	0xbb8f9454	-0.0043816958
152	0x3c0f0f4f	0.008731677
153	0xba82c9ef	-0.0009978394
154	0x3938c8ac	0.00017622364
155	0xbba8160c	-0.0051295813
156	0x3a31b589	0.0006779065
157	0x3c4666d4	0.012109477
158	0x3baacff1	0.005212777
159	0x3bb138bf	0.005408376
160	0xb6d9514c	-6.476568e-06
161	0x3b414cdd	0.0029495277
162	0x3a99a015	0.0011720682
163	0x3c164891	0.009172575
164	0x3adaa1e7	0.0016680331
165	0x3c011732	0.007879065
166	0x3bbfcd48	0.005853329
167	0xbb37be4d	-0.0028037012
168	0xbb71c271	-0.0036889578
169	0x3b9bddd4	0.0047566686
170	0x3ac67521	0.0015141108
171	0x3b9850a7	0.0046482864
172	0x3be32dc4	0.006932946
173	0x3b67bd7d	0.0035360747
174	0x3c0e921c	0.008701827
175	0x3ba0610e	0.0048943823
176	0x3c02b07e	0.007976649
177	0x3c183e3a	0.00929218
178	0xbc0a8328	-0.008454122
179	0xbabdba8d	-0.0014475152
180	0x3c309797	0.010778329
181	0x3c1b5655	0.009481032
182	0x3bdbb808	0.006705288
183	0xbb5b4f3b	-0.0033463973
184	0x3ba112f3	0.004915589
185	0xb9ab7dc9	-0.0003270938
186	0x3ac70e49	0.0015186752
187	0xbbde365b	-0.006781382
188	0xbb78b5a8	-0.0037950072
189	0xba8bd68a	-0.0010668796
190	0xbb425207	-0.0029650943
191	0x3c30b973	0.010786402
192	0xbabab1ed	-0.00142437
193	0x3c00d06e	0.0078621935
194	0xbaf39275	-0.0018583076
195	0x3bed7820	0.007246986
196	0xbbd45fd3	-0.0064811497
197	0xbc0975db	-0.008389915
198	0xb9e627d9	-0.00043898707
199	0xbba13265	-0.0049193376
200	0x3c7cde7f	0.015433907
201	0x3c34d87a	0.01103794
202	0xba5b537a	-0.0008366626
203	0xb996653d	-0.00028685658
204	0xbb49a959	-0.0030771105
205	0xbaf8c973	-0.0018980935
206	0x3b023c9d	0.0019872554
207	0x3c08ea69	0.008356669
208	0x3a573dcd	0.0008210808
209	0xbba7860a	-0.0051124142
210	0x3b7ba3c7	0.003839718
211	0x3a66dfb9	0.0008807141
212	0x3b93e31d	0.004513158
213	0x3c26a0f1	0.010170207
214	0x3b82be36	0.00398996
215	0x3c1b85fd	0.0094923945
216	0x3a9296ba	0.0011183836
217	0x3b7cb09f	0.0038557423
218	0xbbba2c49	-0.0056815487
219	0x3b09b0ec	0.0021009995
220	0x3be4d38d	0.0069832266
221	0xbabbe69e	-0.0014335697
222	0x3c8536dd	0.016261512
223	0xbad460c2	-0.0016203152
224	0xbafddd23	-0.0019368272
225	0x3c1c9209	0.009556302
226	0xbb261516	-0.0025342158
227	0x3c385c94	0.011252541
228	0xbb427f9d	-0.0029678114
229	0xbb8fd840	-0.0043897927
230	0x3b9a2aae	0.004704795
231	0xba2c0cf1	-0.0006563208
232	0x3a96e28b	0.0011511607
233	0x3ab1dd8b	0.0013570053
234	0x3ad61a48	0.0016334737
235	0x3c3a0ff5	0.0113563435
236	0x3ba8fe50	0.0051572695
237	0xb9f29cd2	-0.00046274677
238	0x3c4392bf	0.011936842
239	0x3b4b138a	0.0030986988
240	0x3bc47446	0.005995306
241	0x3bbfa325	0.0058483058
242	0x3b2c803d	0.0026321553
243	0x3c1a9261	0.0094343135
244	0xbafb3cb9	-0.0019167877
245	0xb95e0b24	-0.0002117572
246	0x3be5435a	0.0069965543
247	0x3b123d73	0.0022314459
248	0x38b39910	8.563895e-05
249	0x3c1aea6d	0.0094553055
250	0x3c1a822a	0.009430448
251	0x3ae4d34a	0.0017457989
252	0x3bcb31de	0.006201013
253	0x3c0339f0	0.008009419
254	0x3b649687	0.003487976
255	0x3bd69245	0.0065481984
