Assets/Training/results/RUN2/SzitakotoBehavior/SzitakotoBehavior-10000014.onnx (onnx, 670607 bytes, 13 tensors)

65 f4 [132]
00000000: a037 6e3e 2a1b 453e b5cf 983e 4d23 3c3e
00000010: ce42 903e a13a 4a3e 3760 ac3e 55d0 493e
00000020: e82a 2f3e 59fc 373e a208 7f3e ff51 2e3e
00000030: 6bca 9f3e e893 443e f80e b73e c35f 523e
00000040: 296a 143e dbea 293e 07e8 643e 541b 203e
00000050: 3074 a53e 58e1 403e acc8 ba3e 8754 553e
00000060: c9d5 283e 4ed9 203e 37e8 6b3e 6e36 123e
00000070: 8319 9d3e 9326 433e 5f9c b43e d252 523e
00000080: e7d6 4a3e 3121 2b3e 9ce2 843e 23a3 0c3e
00000090: 1852 883e 4a78 4e3e 37c2 a73e b9a7 4c3e
000000a0: 3827 573e b8ea 2a3e 3437 893e 430a 0d3e
000000b0: 706a 6e3e df42 453e 69f4 973e fa93 383e
000000c0: 985f 903e ee64 4a3e d9c3 ab3e ca7f 463e
000000d0: 8d53 2f3e c221 383e 00b2 7c3e 044a 2a3e
000000e0: 14e7 9f3e 07c1 443e 0882 b63e e554 4f3e
000000f0: f190 143e cc0f 2a3e 3410 623e be9d 1b3e
00000100: de91 a53e f01b 413e d039 ba3e 0c0c 523e
00000110: a90b 293e a2fe 203e 8132 693e bf2c 0d3e
00000120: f438 9d3e f776 433e a7fc b33e dc55 4f3e
00000130: 6d16 4b3e 9048 2b3e dcca 833e d677 073e
00000140: 4571 883e f4a6 4e3e 1f16 a73e 1e9f 493e
00000150: 696c 573e a516 2b3e 6b30 883e caef 073e
00000160: 2f9e 6e3e 7f6a 453e 7518 973e b3e7 343e
00000170: e77c 903e 438e 4a3e 89e2 aa3e d30e 433e
00000180: ed7b 2f3e 2c46 383e 5752 7a3e fd37 263e
00000190: 5203 a03e f2ea 443e ccf7 b53e 8c3a 4c3e
000001a0: 73b9 143e e732 2a3e 6537 5f3e 3a06 173e
000001b0: c2ae a53e fe4b 413e 81aa b93e 81eb 4e3e
000001c0: 7943 293e 9723 213e 3477 663e 8def 073e
000001d0: 6e58 9d3e 98c0 433e ed62 b33e 4558 4c3e
000001e0: fa55 4b3e 2e70 2b3e 52aa 823e effa 013e
000001f0: 6190 883e a7d8 4e3e 9238 a63e e459 463e
00000200: acb2 573e fa42 2b3e f518 873e 9dad 023e
0.23263407 0.19248644 0.29845968 0.18372841 0.28175968 0.19748928 0.33667156 0.19708379
0.17106211 0.17967357 0.24905637 0.17023467 0.3120912 0.19197047 0.35753608 0.20544343
0.14493622 0.16593497 0.22354136 0.15635425 0.32315207 0.18835962 0.36481225 0.20833026
0.16487803 0.15707895 0.23037802 0.14278576 0.30683526 0.19057684 0.35275552 0.20539406
0.19808541 0.1671188 0.2595414 0.13734107 0.26625133 0.20163074 0.32765362 0.19985856
0.21011055 0.166911 0.2679993 0.13773446 0.2328279 0.1926379 0.29678658 0.18025199
0.28197932 0.19765064 0.33547857 0.19384685 0.17121716 0.17981628 0.24677277 0.16629797
0.31230986 0.19214259 0.3564608 0.20247228 0.14508416 0.16607589 0.22076494 0.15196893
0.3233785 0.18858314 0.36372232 0.20512408 0.16508354 0.15722135 0.22773172 0.137866
0.30707514 0.1908835 0.35153696 0.20247597 0.19832774 0.16726899 0.25740707 0.13229308
0.26648918 0.20180875 0.32634065 0.19689605 0.21037449 0.16707857 0.2659944 0.13275066
0.2330253 0.19278906 0.29510847 0.17666511 0.28220293 0.19780831 0.33375958 0.19048624
0.17137118 0.17995518 0.24445473 0.16232295 0.31252533 0.1923025 0.35540617 0.19944209
0.14523868 0.1662098 0.21798475 0.14748469 0.32359892 0.18876645 0.36262897 0.20207025
0.16529645 0.15736233 0.2250641 0.13274975 0.3073153 0.19116437 0.35036412 0.19955547
0.19857016 0.16742012 0.2552057 0.1269338 0.26672652 0.20199834 0.32465035 0.19370228
0.21064252 0.16724768 0.26386228 0.1276154

68 f4 [2]
00000000: b4b0 0f3e ea71 873e
0.1403225 0.26454097

action_model._continuous_distribution.log_sigma f4 [1, 2]
00000000: f4df 68bc 1839 593c
-0.014213551 0.013258241

action_model._continuous_distribution.mu.bias f4 [2]
00000000: c8c0 f33b d888 0c3c
0.007438753 0.008577548

action_model._continuous_distribution.mu.weight f4 [2, 256]
00000000: 6c2e 1f3b 1907 063d d98d d4bc af37 29bc
00000010: 2863 263d a6bc 0cbd c344 033c 6675 323c
00000020: 9166 4c3c d29b bcbc e772 02bd 7dc8 fbba
00000030: bf52 c2bb c1e9 aebc 8c55 d23c 81e1 23bd
00000040: 7e52 55bc 27c6 a83b 8754 923a fed2 89bb
00000050: 2450 343c 9fab 1dbd a846 2dbd 8c65 c2bc
00000060: c596 5abc 89d1 bebb 9b70 d5bb e384 0cbd
00000070: 9efc 05bd 53f0 66bc 2f09 cdbc 28f4 ac38
00000080: 3bb6 c7bc 711a 22bd dc0b bc3c ccce 003d
00000090: 53b0 193d 2bbb dc3c 01f5 cb3c 44d9 c23c
000000a0: 38cc 0ebd 08ad d13c 8f19 debb 70f8 b2bc
000000b0: 2da5 f13c dae3 d8bc daf0 dd3c 5bf7 d0bc
000000c0: 47ad b6bc 8035 1abb 6877 463d 8c15 a23c
000000d0: 1a2c 8b3c 265c 2cbd 6e99 40bd a302 aebc
000000e0: 1c91 253d 2fe9 51bd d6e7 133d 2c1c 24bc
000000f0: 6102 8d3c 9c6c f2bc 2d71 3dbc e230 4abd
00000100: 19f7 aabc 2119 a1bc 25d5 81bc b891 e0bc
00000110: 0516 8c3c 6b37 083d 846d d9bb 5f8f 313d
00000120: 6640 f8bc 9d7d b43c cc14 c33c 10d8 05bd
00000130: 3097 7a3c 82ec 113d 53ed 023d 64f9 4cbd
00000140: ac54 bd3c d426 28bb 6181 233d fdb3 3cbc
00000150: 60e6 2cbd d70c 01bd f172 c03c b4fc 1abc
00000160: 0564 01bd e0a0 d83c 6ca7 8a3c c551 4abd
00000170: 867d 17bd dfbb 00bc 7c9a 093d b801 673b
00000180: 259e 493c 42d2 a63c 2848 c03c 5f94 f3bb
00000190: b9ce 81bc 067a 12bc 50f8 513c 0a36 083d
000001a0: 045c 3c3a 1aa1 da3b 2e7d b93c 69b3 3d3c
000001b0: 4b6e 0d3d 8f11 1ebd e37c b33c 0424 fa3c
000001c0: 9a5f 26bc eb9e ad3b b711 3d3d 9378 443d
000001d0: 7ba8 893c 08a3 69bb db45 dabc 018b 183c
000001e0: 2125 28bd e364 bcbc 81ef b63c b21d 29bd
000001f0: 553a b9bb 9ec2 1a3c 5ed0 31bc 1471 173d
00000200: 0c00 f5bb a80e c73c cfee 693c 9e97 bfbc
00000210: 6c41 d3bc de51 6dbb c5e6 daba 9788 f63c
00000220: f5d7 873c 3c13 893b cd26 eb3c 0db5 80b9
00000230: 2d87 00bd 905f 11bd e961 19bc ada7 2cbc
00000240: d546 51ba 5876 0abb 7476 90bc 6335 0cbd
00000250: 35fa 1dbd 5022 963c 345c 00bd f8f4 013c
00000260: ce28 ffbc 1d5a c5bc 642e 24bd 5164 bc3c
00000270: 2822 ebbc 1d99 75bc ba01 e83c a4fa 043c
00000280: 7ae4 e0bc ea88 75bb 422a f93c 5e0f d2bc
00000290: 9721 ed3c 2921 d3bc a3d7 f6bc 858e 0c3d
000002a0: 1884 273c 4df3 87bc a7c8 ddb8 6e03 1f3c
000002b0: 3cea ae3b 5e0f d2bb 56a5 9d3c f8fe 1ebc
000002c0: 6419 d23c fd69 e6bb 3038 973c 6077 e0bb
000002d0: 5c02 b93c a3ef 66bc c852 883c cc4d 9a3c
000002e0: 804d abbc 0d91 0cbd 8a61 b3bc d641 e33b
000002f0: b7a5 253c 8230 45bc eaf0 adbc 0ede 2dbd
00000300: f030 613c dc1a 06bc bb26 32bb 2b83 aebb
00000310: a41a 90bc 2ebb 01bb d47a 47bd cd98 5bbb
00000320: 1e11 1f3c 4352 d2bc d398 f4bc abe7 c73c
00000330: f70c e9bc e983 bf3c 81ff c23b aeed d4b9
00000340: b5dd 03bd 6d75 463c afbb 3c3c 84b2 083d
00000350: 5afc 8bbc 1a97 883c 8dbe 653c 6b56 4e3c
00000360: 3c09 fb3a f4de 6cbd bef6 083c 1170 ed3c
00000370: 4369 043a 2783 59bc caa0 d5ba 97b5 a2bb
00000380: 0102 1b3c 71d9 83bb c199 60ba c81d 953c
00000390: c3cb 183d 4315 063c c138 a03c 9c9b 3fbd
000003a0: 4703 24bd 3e1d 14bd a2b8 94bc 9e75 8e3c
000003b0: 5282 aa3c a896 f9bc 9fcf 7c3d fcb7 31bc
000003c0: 3eff 813c 328f a5bb db3c 983c 2e1d 2dbd
000003d0: 1088 c93c 7acb bfbc 4297 bc3c 16f0 f43c
000003e0: a35e a3ba 7d7b 13bd 7f21 c8bc 4e90 81bd
000003f0: 634a 173d 8696 02bd ae32 9e3c 69da c53b
0.0024289144 0.032721613 -0.025946544 -0.010328217 0.040621907 -0.034359597 0.008012 0.010892248
0.012475626 -0.02302352 -0.03184786 -0.001920953 -0.0059302743 -0.021351697 0.025675558 -0.04000998
-0.013020156 0.0051505747 0.0011164107 -0.0042060604 0.011005435 -0.03849375 -0.04230371 -0.023730062
-0.01334161 -0.0058233184 -0.0065136678 -0.03430642 -0.032711618 -0.014095384 -0.025028793 8.247077e-05
-0.024378886 -0.039575998 0.022954874 0.031447217 0.03752167 0.026944717 0.0248971 0.023785241
-0.034862727 0.025595203 -0.006777949 -0.02184698 0.029497707 -0.026475836 0.027092386 -0.025508573
-0.022299422 -0.0023530424 0.04845372 0.019785665 0.016988803 -0.042080067 -0.047021322 -0.021241492
0.04042159 -0.05124777 0.036109768 -0.010016482 0.017213048 -0.029592805 -0.011562628 -0.049363025
-0.020869778 -0.019665303 -0.015848706 -0.027413234 0.017100343 0.033255976 -0.0066353697 0.04334962
-0.030304145 0.022032553 0.023813628 -0.032676756 0.015294835 0.035625942 0.03196461 -0.050042525
0.023111664 -0.002565791 0.039918307 -0.011517522 -0.04221189 -0.031506386 0.023492308 -0.009459663
-0.031589527 0.026443899 0.016925536 -0.049394388 -0.036984943 -0.007857292 0.033594593 0.0035248827
0.012305771 0.02036393 0.023471907 -0.0074334587 -0.015845643 -0.0089402255 0.01281555 0.03325466
0.0007185342 0.006672037 0.022642698 0.011578419 0.03452901 -0.038590964 0.021910137 0.030534752
-0.010154629 0.0052984855 0.046159472 0.04796655 0.01680397 -0.0035650153 -0.026644638 0.009310485
-0.041051034 -0.022997325 0.022331001 -0.041288085 -0.0056527057 0.009445814 -0.010852901 0.036973074
-0.007476812 0.02429898 0.014278128 -0.023387726 -0.025788032 -0.0036212127 -0.0016700855 0.030094428
0.016582469 0.004183201 0.028705025 -0.00024548956 -0.031378914 -0.035491526 -0.0093617225 -0.010538024
-0.0007983272 -0.0021127667 -0.017634608 -0.0342306 -0.038568694 0.018326908 -0.03133793 0.00793194
-0.031147387 -0.02409082 -0.040083304 0.022997053 -0.02870281 -0.014990118 0.028321136 0.008116398
-0.027452696 -0.003746564 0.030415658 -0.025642093 0.028946681 -0.025772648 -0.03013212 0.034315605
0.010224365 -0.016595507 -0.000105754756 0.009705408 0.0053379815 -0.0064105233 0.019243877 -0.009704344
0.025646873 -0.0070316778 0.01845941 -0.006850168 0.022584133 -0.01409522 0.016641036 0.018835925
-0.020910978 -0.03431802 -0.021897096 0.0069353385 0.01011031 -0.012035491 -0.02123304 -0.042448096
0.013744578 -0.008185115 -0.002718373 -0.005325695 -0.017590828 -0.0019795406 -0.048701122 -0.0033507824
0.009708671 -0.025673991 -0.029858029 0.02440246 -0.028448565 0.02337833 0.0059508686 -0.00040612876
-0.03219386 0.012112957 0.011519357 0.03337337 -0.017088104 0.016673613 0.014022482 0.012593846
0.0019152532 -0.057829812 0.008359609 0.028984101 0.00050510856 -0.013275898 -0.0016298529 -0.004965495
0.009460927 -0.004023724 -0.0008567833 0.018202677 0.037303697 0.00818378 0.019558312 -0.04677926
-0.040042188 -0.0361607 -0.018154446 0.017390069 0.020814095 -0.030467346 0.06172144 -0.010847088
0.01586878 -0.0050524706 0.018583706 -0.042264156 0.024601012 -0.023412455 0.023021344 0.029899638
-0.0012464117 -0.03600644 -0.024430035 -0.06326352 0.036936175 -0.03188183 0.019311275 0.0060379994

network_body._body_endoder.seq_layers.0.bias f4 [256]
00000000: 509d 153b 2508 d9b9 ddde 893c 5ae1 c53b
00000010: 94d1 793b 9a00 c33a 11f8 983b ab15 243c
00000020: 612f 6dbc d45f f43b 411c 993c 1fd6 d13c
00000030: 8098 7bb8 4e94 6e3c 0f58 45bb a06b cc3b
00000040: ddd1 1a3c 5847 7a3b 1618 ae3b 7e86 073c
00000050: a8ec 963c e59e ab3b 8577 673c ffb8 8b3a
00000060: 6d80 1d3b 2e4a 853c 3880 173b dc19 d83c
00000070: d3c1 513b 3c80 813b 0c2c 36bc 76cb 203a
00000080: 35a6 183a 54c0 003c 3395 8d3c 2345 853c
00000090: 0b80 9bbc f2ad e33b 32ca d63b f1bf 023c
000000a0: 34ce 513c c4d0 733c ddab 203c 0351 aebb
000000b0: 7781 7b3a 6b6e b33c 1501 653c b4d3 94ba
000000c0: 7648 0a3c ad01 233c 9f67 4c3b fc74 51bb
000000d0: 9f2a 9bbb a604 093c 055b 7c3c 6e68 5fbb
000000e0: e825 933c 40c9 e03b 9d8f 3d3c 9723 493a
000000f0: 666c 18bb 11d8 fe3b 5f2d b7ba 96f6 f8bb
00000100: 1997 3c3c d7f6 a7bb 048e ab3b 86d9 713c
00000110: 1709 7e3c 4e44 1d3c 6a96 063c ae86 c6bb
00000120: 99a5 b03c 141d fa3b aeaa 053c 6b23 9a3c
00000130: bec1 e7bb 8b6a c8bb 6875 1b3d 80a2 85bb
00000140: 6560 603c e435 0b3c fac5 7f3b 944b a6bb
00000150: 5e1f 6b3c 6481 ea3c c770 3abb c737 ae3a
00000160: d375 4239 99e7 ce3c 6b72 453b 0762 0c3c
00000170: e838 293d 7ca3 8abb 9041 d4ba 1138 0cba
00000180: 8b2f 003c 0e5f cab9 568d c7bb 54b1 1a3c
00000190: 8aff 483b cd4b b63a ca36 b23b 034e 8d3c
000001a0: caf6 c33b 9d15 0c3c 57ec 213a 3dc7 b93b
000001b0: 9803 643c 3cf3 ed3a 271d 793c 0758 153b
000001c0: a2b7 66ba 554f 67bb bf55 323c 4f3c 03bb
000001d0: c4ed 423c a128 db3b eebe 4c3c cefe d63b
000001e0: 2bee ebbb be13 53bb adea 3d3b 8467 003d
000001f0: f805 6abb 1d2b fa3c e72d e5ba 1e0a cc3b
00000200: e829 633c de4c 2dbc bf89 59bc 9567 04bc
00000210: 585e 7e3b 6251 993c ff7e 823c 1c0a d83b
00000220: 6ba4 473b b7f2 463c a0be 903b 7a5e da3b
00000230: 3e5f 203c 1b3e e13b 7f5d 6e39 5b9b 1a3c
00000240: ae4e 973c 3c55 1ebb af59 6fbb 8257 be3b
00000250: 9020 263c 35a5 823c 845a c83c 57f5 693c
00000260: 1e81 b6bb 179f 81bb 138c f73a 0873 cdb9
00000270: a3d8 1d3b 8248 01bc 95d7 c63b 89db 953b
00000280: ffdb dc38 8cf3 29b9 e3fb 27bb 5ba0 f63a
00000290: b24d 96bb 43af 663c 427e 15bc f0f6 40bc
000002a0: da12 593a ab9a db3a 2afb 5c3c eb7b f93a
000002b0: 174b 03bc fb8c 833b 349f 893c bff0 393c
000002c0: 6b4f 9dbc b2f7 823b 56e8 2b3b 070d 3b3c
000002d0: 9c9b d5ba cbb1 413b f433 843c 6f28 af38
000002e0: 10a4 b9bb 9f74 793c cc89 593c 848d 98bb
000002f0: 997b 813c 1e00 66b9 88e9 1d3c c947 ee3c
00000300: 64e5 0f3b 6f85 593a 18ea 9dbb bb99 c13b
00000310: 7ee8 0e3c e706 69bb 909f ac3c 81b8 373c
00000320: 688d 0cbc 3824 003c fda2 923c 2eb4 263d
00000330: f420 3e3c 2feb d5bb 9cde 763c fdee 8a3c
00000340: fc57 bd3b b3ce 393c 3358 24bc 1ea0 873c
00000350: 3e3a 4c3b 77b7 223c 8f36 8d3b 6f9e c03b
00000360: 6866 bf3b 5edb 533c 4f55 98bb 5501 8139
00000370: ffe6 ba3b b33f 223c f69e 063b c3ec e3bb
00000380: 9329 0f3c 4f67 3c3b 6875 19bc 2929 4e3c
00000390: e07c 753c 6e94 b7bb 4908 093c 7712 313c
000003a0: fa9f c93b 2dcd 843c 6f9e 953b f4e3 8f3c
000003b0: 95f6 793a 7ac3 043b 6bcf f4ba 0b33 893c
000003c0: cc28 b6bc 3e33 5d3a 0481 3dbb 1fe9 ae3a
000003d0: 7983 053d c686 273c 1577 d83a dd0c 35bb
000003e0: 2ed8 4c3c b0ad 0a3c 1c76 b43c a5c8 adbb
000003f0: 456f b33b 3857 243c 987e 083b d1c3 d03a
0.0022829361 -0.00041395533 0.016829902 0.006038827 0.0038119303 0.0014877499 0.0046682437 0.010014932
-0.014476628 0.0074577127 0.01869023 0.025614796 -5.998509e-05 0.014561726 -0.0030112301 0.006238416
0.009449449 0.0038189497 0.00531293 0.0082718115 0.018423393 0.0052374476 0.014127617 0.0010659992
0.0024032847 0.016270723 0.0023117196 0.026379518 0.0032006397 0.0039520543 -0.0111189 0.00061338337
0.00058231066 0.007858355 0.017283058 0.016268319 -0.018981954 0.006948226 0.0065548653 0.007980333
0.01280551 0.014881317 0.0098066 -0.005319716 0.0009594182 0.021903237 0.013977309 -0.0011354596
0.008440128 0.00994913 0.0031189693 -0.0031960597 -0.0047353054 0.008362925 0.01540256 -0.0034089345
0.017962411 0.0068599284 0.011569885 0.0007672845 -0.002325797 0.007777222 -0.0013975314 -0.0075977547
0.011510634 -0.005125861 0.0052354354 0.014761334 0.015505097 0.009598805 0.008214572 -0.0060585355
0.021563338 0.007632861 0.008158369 0.018815717 -0.0070726564 -0.0061162165 0.037953764 -0.0040782094
0.013694857 0.008496735 0.0039027915 -0.0050749276 0.01435074 0.028626151 -0.0028448568 0.001329177
0.00018545175 0.025256919 0.0030128013 0.008568293 0.041314036 -0.0042309146 -0.0016193856 -0.0005348931
0.007823835 -0.00038599264 -0.0060898466 0.009441692 0.0030669891 0.0013908088 0.0054386603 0.017249113
0.0059803473 0.008550075 0.000617688 0.005669503 0.013916872 0.0018154155 0.015204704 0.0022788064
-0.0008801167 -0.0035295088 0.010884701 -0.002002496 0.011897508 0.006688193 0.012496693 0.006561137
-0.0072000227 -0.0032207812 0.002897899 0.03134872 -0.0035709124 0.030538136 -0.0017484993 0.006226792
0.013864972 -0.010577409 -0.01327747 -0.0080813365 0.0038813557 0.018715564 0.015929697 0.006593002
0.003046299 0.012142829 0.0044172555 0.0066640945 0.0097883325 0.0068738586 0.00022732279 0.009436454
0.018470135 -0.002415969 -0.0036521961 0.0058087716 0.010139599 0.015947917 0.024457224 0.014279685
-0.005569591 -0.0039557326 0.001888635 -0.00039186352 0.0024085424 -0.007890822 0.00606818 0.00457329
0.00010531395 -0.00016207824 -0.0025632314 0.00188161 -0.0045868987 0.014079872 -0.0091243405 -0.0117776245
0.0008280702 0.0016754469 0.013487617 0.0019034123 -0.008013508 0.004014609 0.016799547 0.011348902
-0.019202909 0.0039968127 0.0026231012 0.01141668 -0.0016296986 0.0029555436 0.016138054 8.3521816e-05
-0.0056653097 0.015225559 0.013277482 -0.004655542 0.015806006 -0.00021934553 0.009638198 0.029086964
0.0021956796 0.0008297776 -0.004819166 0.0059082187 0.008722423 -0.0035557093 0.02107218 0.011213423
-0.008578636 0.007821135 0.017899984 0.040699176 0.011604536 -0.00652828 0.015067723 0.016959662
0.005778311 0.011340785 -0.010030794 0.016555842 0.0031162645 0.009931437 0.0043094824 0.0058782618
0.005841065 0.012930719 -0.0046488415 0.0002460579 0.0057038064 0.009902882 0.0020541525 -0.0069557144
0.008737939 0.00287481 -0.009366371 0.0125830555 0.014983386 -0.005602411 0.008363792 0.010807625
0.006153104 0.016211117 0.004566006 0.017564751 0.000953534 0.0020258115 -0.0018677538 0.016747972
-0.02223625 0.00084381166 -0.002891601 0.0013344622 0.032596085 0.010225004 0.0016514981 -0.0027626075
0.012502713 0.008464262 0.022028975 -0.0053034597 0.005475911 0.01003056 0.002082741 0.0015927498

network_body._body_endoder.seq_layers.0.weight f4 [256, 134]
00000000: b50f f5bd 9428 fa3d d255 b8bc fe94 0a3b
00000010: 5db7 733c 855a fdbc fcc4 573d 306e 84bd
00000020: 04cd debd 798c 3ebd 0c00 c73d 4436 60ba
00000030: e658 a03d 2e7c b53d 8146 073d 8805 0b3d
00000040: 58fe 6f3c 9c4b 6fbd f440 c1bd d8a7 833d
00000050: 760c bfbd a8ee dabc aa0e 8dbc df68 093c
00000060: 1d62 5dbe 9f32 ef3c 85c4 923d a8d5 4f3d
00000070: 232c 4dbd 4732 86bd b772 8dbd 4e01 343c
00000080: fa9e 5cbd 2c5a e83d a92b 35bd 40f2 5d3d
00000090: 3961 2ebd 40e8 6bbd 4802 e33d 1687 d5bd
000000a0: 8372 54bd eaba 823c ade6 6e3d 58bd 7ebd
000000b0: aa70 113d ca97 abbc 5f3a e23d 3dac 48be
000000c0: 618d e0bb 171d 60bd 7386 b4bc 2e9e 06bd
000000d0: fef1 31bd 89f9 98bc 9725 3a3e 6e72 5fbd
000000e0: 9c90 c2bd d9fe 56bc 366c 9d3d 3005 953d
000000f0: b08c 2ebd 197f 993d e7ad 87bd d05b 643d
00000100: 8948 b6bc 9882 ac3c 0938 743d 334b 77be
00000110: 8633 523d b5db a1bd 2a03 1c3b 13c6 0bbc
00000120: 872f 2ebb eab1 edbd ec71 883d e7de 53bc
00000130: 7991 69bc e50a adbc 1eef 96bd e089 0dbc
00000140: 8780 6c3c 71bc b8bc 9544 3ebd b462 363e
00000150: be4e 8e3d b642 d73c a9fd 9ebd f605 39bd
00000160: a94b 463d c239 bfbd 25e3 163e bb27 da3d
00000170: a3c3 35bc 17ec 823d 7a5d 983d 70e3 0e3d
00000180: 7670 06be ca10 583d 033b 823d 4567 173e
00000190: bce2 e33b 9656 073e 9e7f c8bc ac24 103e
000001a0: 04a6 b1bd 2040 a5bd 5c92 2b3d ef3d 44bd
000001b0: d856 533d 4d65 09be 1d8e db3d 5db0 8f3d
000001c0: d41b ad3b bf82 f8bd 0fce 3b3c 204c e3bc
000001d0: a876 6f3b 7ab8 92bc 6b2f c03d e583 09bd
000001e0: 44d6 653d 32b7 e4bd 7477 ad3c 48d9 94bd
000001f0: e68b 0dbe 4498 7f3d fbae 9bbb 7bdc 343d
00000200: ac14 833d 4d0f 00bc 3d80 53bd 74f7 133e
00000210: 005a 08bd aa6f 5b3c ffa8 99bd fdb9 78bd
00000220: cbfc 32be 4606 443d 7bed 9f3d 5c64 2d3d
00000230: e133 e3bd e711 613c 5d0c 59bd 7372 253e
00000240: e200 813c e775 0abc 1626 443d 663c 593d
00000250: b0a4 3b3d 86a4 d43d c177 86bd 0e77 223d
00000260: 1e88 413c 6932 33bc 1019 0dbd 119a fb3d
00000270: a136 02bd 6f57 853d c16f 453c d20a fabc
00000280: 6d90 13bd f496 1a3d 33e8 debd 266b 2ebd
00000290: 2358 8abd 2f93 863c 535c e73c eb67 ddbc
000002a0: ce70 30bd d633 bfbb 4645 113e 968e b2bd
000002b0: a1f2 9cbd 1344 113e d287 463e fdad c3bd
000002c0: 906b 6fbd 2c09 a13d a0b0 e93d fab7 be3d
000002d0: fe50 493d 9497 003d 9ce7 213d 77a3 d33b
000002e0: 789b c0bc 4e0c a13d ca06 033c d4ed f33b
000002f0: 3c5b 813d 4e16 fa3d 32b7 af3d d59f 3fbd
00000300: e267 863d 7682 cf3d ff32 37be a4b5 593d
00000310: 6034 063e 2264 adbe 3da9 8d3d a06f 8abd
00000320: 4ae6 8bbd 6ac4 6e3d 53e1 533d 2187 0a3d
00000330: 189d 90bd 4542 dc3d fc20 d939 c1b4 cf3d
00000340: 7471 5a3d cf2d 9cbd 765c 37bd 9293 17bd
00000350: dd04 83bd f89d 823d 5019 303d 30ce 2dbc
00000360: f5e4 c3bc 0f98 113e fbee efbc 4a25 3e3d
00000370: aa27 743b cb94 83bd adb2 3e3b 4969 da3a
00000380: a9ca 653e 2d82 49bd aefd 4bbd 5eda f73c
00000390: 3c81 1ebe c2c2 c5bb ff1c 36bc ab43 35bd
000003a0: 7d72 823e 07bc dcbb 5018 91bc 9557 fbbd
000003b0: 2914 903d 1e93 ca3d e981 bdbc 6e3c 4e3d
000003c0: 6232 553c fb32 90bd 4798 ff3d ee77 2bbd
000003d0: ba03 08bd 52ef e3ba 26eb dcbb 3083 f1bd
000003e0: e50a 15bd a5c1 ae3d 0a3f 143c 9196 2b3c
000003f0: aeeb 25bd 7a54 acbc 03d8 603d 61c5 97bd
-0.119658865 0.12214771 -0.02250186 0.0021145935 0.01487526 -0.030926952 0.052678093 -0.06466329
-0.108789474 -0.046520684 0.09716806 -0.0008553008 0.07829456 0.08861576 0.033026222 0.033940822
0.014648043 -0.058421716 -0.09436217 0.06428498 -0.093285486 -0.026725128 -0.017218906 0.00838682
-0.21619458 0.029198943 0.071663894 0.050740868 -0.05009092 -0.065525584 -0.06906646 0.010986639
-0.05386255 0.11345324 -0.04423109 0.054186106 -0.042573188 -0.057594538 0.110844195 -0.10426156
-0.05186702 0.015958268 0.05832546 -0.06219229 0.035507835 -0.020946402 0.1104629 -0.19596954
-0.006852791 -0.054715242 -0.022036767 -0.032865696 -0.043443672 -0.018673675 0.18178402 -0.054552488
-0.09500238 -0.013122284 0.07686655 0.0727638 -0.04261464 0.07494945 -0.06624966 0.05575162
-0.022251384 0.021058366 0.05962375 -0.2414978 0.051318668 -0.07903234 0.0023805597 -0.008531111
-0.0026578621 -0.116062 0.06662354 -0.012931562 -0.014255875 -0.021123359 -0.07369827 -0.008638829
0.01443494 -0.022550793 -0.046452124 0.1781109 0.06948613 0.026276927 -0.077632256 -0.0451717
0.048412 -0.09337188 0.14735086 0.10652109 -0.011094007 0.06392687 0.07439704 0.03488487
-0.13128838 0.052750386 0.06358912 0.14785488 0.006954519 0.13216624 -0.024474915 0.14076489
-0.08674243 -0.080688715 0.041887626 -0.047910627 0.051596493 -0.1341755 0.10720465 0.070160605
0.0052828584 -0.12134313 0.011462702 -0.02774626 0.003653923 -0.01791023 0.09384044 -0.03357305
0.056112543 -0.11167754 0.021175124 -0.072680056 -0.13822898 0.06240107 -0.004751084 0.04415558
0.06400427 -0.007816148 -0.05163597 0.14449865 -0.033288956 0.013393322 -0.075029366 -0.060724247
-0.17479245 0.047857545 0.07808968 0.04233204 -0.110938795 0.013737178 -0.052990306 0.1615694
0.015747491 -0.008450962 0.047887884 0.053036116 0.045811355 0.10382943 -0.0656581 0.03966432
0.011812238 -0.010937312 -0.03444773 0.12285245 -0.03179038 0.06510817 0.01205057 -0.030522738
-0.036026407 0.037741616 -0.10884132 -0.042582653 -0.06755092 0.016427604 0.028242266 -0.027027091
-0.04307633 -0.0058350367 0.14186582 -0.08718602 -0.07663465 0.14186125 0.19387749 -0.0955467
-0.05845219 0.078630775 0.11410642 0.093124345 0.049149506 0.031394556 0.03952752 0.0064586955
-0.023511633 0.07863675 0.007997224 0.007444123 0.0631623 0.122112855 0.085798636 -0.046783287
0.06562783 0.10132305 -0.17890547 0.05315174 0.13105917 -0.33865458 0.06917045 -0.06759572
-0.068310335 0.058292784 0.051728558 0.033820275 -0.07061213 0.107548274 0.0004141404 0.10141898
0.053330854 -0.07625925 -0.044765912 -0.03700597 -0.06397412 0.063777864 0.04299289 -0.010608241
-0.023912886 0.14218162 -0.02928876 0.04642228 0.0037255087 -0.064248644 0.0029098198 0.0016663457
0.2244059 -0.04919641 -0.049802475 0.030255493 -0.15478987 -0.00603518 -0.011115312 -0.044253986
0.25477973 -0.006736282 -0.017711788 -0.12272564 0.07035095 0.098913416 -0.023133235 0.0503506
0.0130125005 -0.07040974 0.124802165 -0.04186242 -0.03320668 -0.0017390049 -0.006741899 -0.117926
-0.036387343 0.085330285 0.009048233 0.01047291 -0.040507965 -0.021036375 0.054893505 -0.07410694

network_body._body_endoder.seq_layers.2.bias f4 [256]
00000000: f136 753c 48fe aab8 4e42 b6ba d248 74bc
00000010: 839f 57bb 74cf b1bb 0f81 9c3b b066 5b3c
00000020: b4aa 76ba b605 a53a 1929 5e3c 5c2a 383c
00000030: 924a 383c f769 eb3b 27a0 0a3c 75d4 fe3a
00000040: 8aa0 a1bb cc92 19bc b8cd e7bb 846c aabb
00000050: 1223 a5bb a522 9c3c bb05 533c 6b8d 02bc
00000060: 4099 af3c 73e1 043b bf08 643c dedf b83c
00000070: dc74 543b 5c79 883b 5aef e23a 0d71 b13b
00000080: 67fe 4cbb ebf1 6b3c c545 063c c33d 4c3b
00000090: 1978 9e3c a871 473b 124d 503c 2940 1fbc
000000a0: 80f4 adba be3f 0ebc 9a44 7c3c 9511 3abb
000000b0: 9d60 4e3c ee73 573b f1b4 8b3c 5ad7 65ba
000000c0: 9e9c 5c3c fa71 f03b 9c42 14bc 40c6 f63b
000000d0: 6f1e 49ba 8136 833c c4cc da3b 9221 853c
000000e0: f7d1 e13b afc5 0c39 3e80 cb3c 4dc9 263a
000000f0: 50d8 16bc 7582 50bb 4461 133a 17ae 823b
00000100: 5bd1 243b f7cf 783c 8c04 6d3c d63c 423c
00000110: 050b 973c 4283 813c 0887 b73b d2f7 11bc
00000120: 41cf 483c 6321 8c3a b32c c6ba 5a37 213c
00000130: 779f 403b d8bb 283b 74bb f53b 390d f53b
00000140: 15ae 6fbb 08ec cb3b bc7a 0c3c c0da 2ebc
00000150: 85d7 debb d0c3 403c 9416 a63b 6873 1d3c
00000160: 45ca d83b 6606 193d b5c1 5fbb 36a2 98bb
00000170: 8269 283c 11e0 843b ff25 dcbb 709e 4a3a
00000180: 563f 373c cdf4 8ebc 9078 96bb 606a 96bb
00000190: c24d 5a3b fb7c 98bb b57c 4b3c 0b22 65bc
000001a0: 57dc c4bb 2d80 21bb 7774 7f3a cb9e 893c
000001b0: 313f a93b bdd7 aa3a ad09 6abb a45b 1a3c
000001c0: bf69 423c 5006 d63c 4a3c b73b ec3e ea3b
000001d0: add0 d93b 2f8f 823c 6140 f7ba e74e e53b
000001e0: c95b 5abb a2cd 7f3c 9d0d 713c 4ae7 3d3c
000001f0: 3fa8 24bb 5c58 813b ad8b e4bb 4a63 773a
00000200: 452c 8d3c 8c56 853b 630e be3b 077c 883c
00000210: 845f daba fddd a43b 91f8 973c 082e 8d3b
00000220: 0125 03b9 6751 043b 4bc6 6c3a 336e fbbb
00000230: a173 343b 4ac1 433c cacb acba e59b 573a
00000240: 31be c7bb 8c1e 3d3c d60a b6ba 7ca0 40bc
00000250: d744 c43b d59d 8f3b 933c 9d3c 704a 803c
00000260: db79 dcbb 6ada 0c3c e707 9d3c 197e 373b
00000270: d6b1 0ebc 21bf 373b 27e5 1a3c 6a38 bfbb
00000280: 1ec2 103b 3ba2 d63b f855 043c 1c3a 0d3c
00000290: 7c65 b9bb c5f1 dfbb 933d 23bb f1c2 ccba
000002a0: 9216 333b 7c73 fc3b 4aea f13b 2d0f 50bb
000002b0: 2903 6f3c 4f0d 193b 884b ee3b e521 0b3a
000002c0: a7cc 2b3c 2b3a a8bb abd2 4f3c b722 e437
000002d0: e4c7 643c 607c 563c 202c ab39 6a34 22bb
000002e0: 1d1a 80ba b16a 003c f689 1d3c cde9 7a3c
000002f0: 4888 1f3b 7884 b63c d830 dd3b 5ae3 c4bb
00000300: 99e0 45bb 5139 6f3a e1fc 233c ba1a d3ba
00000310: 1d0d 343c 4e56 8837 035b 303c 4681 0c3c
00000320: f36d 1b3c a771 a7ba df9b 94bb 4210 f23a
00000330: 529b 873c 9123 3abb cccb bb3a d630 8f3c
00000340: a2d5 503c 5b48 0bbc 3201 0b3c 5d52 213c
00000350: 338a 6c3b 9010 bfb9 41eb 563b 9912 303c
00000360: 3e92 a839 4dde 763b 2f96 36bb 4d7f 8139
00000370: 6985 c13b 52c1 86bb 27ca 483c ea4a 23bb
00000380: 8f99 a73b 91f2 c83c 3ad0 e2ba 3182 993b
00000390: f951 b53b 13c1 6c3c 3632 153b d8d7 e6bb
000003a0: 2dae 7c3b bb90 9cbb 8c1f 0b3c a007 18bb
000003b0: 2eee 2e3c afc3 af39 1dcc cbbb a8d2 873c
000003c0: 8c7f 55bb b55f 163c 2abd a13b 5a37 a13a
000003d0: 8db1 323c 3cc4 383c da75 fb3b f3a7 0fbb
000003e0: 33e4 4e3c b880 1ebc c9cf 993c 652a eabb
000003f0: 4b24 10bc ebc6 1a3c cd2f 823b 2577 a5bb
0.014966712 -8.153595e-05 -0.0013905258 -0.01490994 -0.0032901473 -0.0054263417 0.004776127 0.013391182
-0.0009409592 0.0012590203 0.013559603 0.011240568 0.011248248 0.007184263 0.008461035 0.0019441979
-0.004932468 -0.009373378 -0.007074084 -0.0052009244 -0.005039581 0.019059489 0.012879784 -0.007968287
0.02143538 0.002027598 0.013918101 0.022567686 0.0032418286 0.004164858 0.0017313764 0.005415088
-0.0031279565 0.014400939 0.008195345 0.0031164743 0.019344376 0.0030432735 0.0127136875 -0.009719887
-0.0013271719 -0.0086821895 0.015397215 -0.0028391827 0.012596277 0.0032875496 0.017054053 -0.00087677466
0.013465075 0.007337806 -0.009049084 0.0075309575 -0.00076720765 0.0160172 0.006677242 0.01625136
0.006891485 0.00013425083 0.024841424 0.00063623936 -0.009206846 -0.003181604 0.00056220987 0.0039880383
0.00251492 0.015186301 0.014466416 0.011855325 0.018437872 0.015809659 0.005600814 -0.008909183
0.012256444 0.0010691102 -0.0015119523 0.009839857 0.0029391923 0.002574673 0.007499153 0.007478383
-0.0036572267 0.0062232055 0.008574184 -0.010672271 -0.0068005943 0.011765435 0.0050686095 0.0096100345
0.0066159093 0.037359618 -0.0034142558 -0.004658009 0.010279061 0.004055031 -0.0067183967 0.00077292975
0.011184534 -0.017450714 -0.004592009 -0.0045903176 0.0033310507 -0.0046535707 0.012419869 -0.013985167
-0.006007712 -0.002464305 0.00097448326 0.016799351 0.0051650037 0.0013034266 -0.0035711334 0.009421263
0.011866032 0.026126057 0.005591904 0.007148614 0.0066471905 0.015937416 -0.0018863791 0.0069979313
-0.0033318868 0.0156129915 0.014712718 0.011590788 -0.0025124697 0.003947301 -0.0069746585 0.00094370975
0.017233023 0.004069155 0.005800055 0.016660703 -0.0016660546 0.005031346 0.018551143 0.004308466
-0.00012506919 0.002019012 0.00090322335 -0.007673049 0.002753474 0.011947939 -0.0013183292 0.0008224829
-0.0060956706 0.0115429275 -0.0013888727 -0.011757012 0.0059896517 0.0043828287 0.019193923 0.015660495
-0.0067283935 0.008596996 0.019168807 0.0027998744 -0.008709392 0.0028037506 0.009454048 -0.0058355825
0.002208836 0.006550101 0.008077137 0.008619811 -0.00565785 -0.006834241 -0.0024908527 -0.0015622062
0.0027326685 0.0077041965 0.0073826658 -0.0031747327 0.014588156 0.002335388 0.0072721876 0.000530748
0.010485805 -0.0051338873 0.0126845045 2.7195883e-05 0.013963673 0.013091177 0.00032648537 -0.002475048
-0.0009773407 0.007837937 0.009615412 0.0153145315 0.0024342705 0.022279963 0.0067502074 -0.0060085477
-0.0030193685 0.0009125667 0.0100090215 -0.0016105988 0.010989455 1.6252652e-05 0.010763886 0.008575743
0.009486663 -0.001277496 -0.004535183 0.001846798 0.016553555 -0.0028402547 0.0014327704 0.017479341
0.0127462465 -0.008501138 0.008484172 0.009846297 0.0036093115 -0.000364427 0.003279403 0.0107466215
0.00032152416 0.0037669123 -0.0027860512 0.00024699644 0.0059057963 -0.004112401 0.012255228 -0.0024916478
0.005114741 0.024529727 -0.0017304488 0.0046847095 0.0055334535 0.014450329 0.0022765524 -0.0070447735
0.0038555965 -0.0047779954 0.008491408 -0.0023197904 0.010676904 0.00033524397 -0.0062194006 0.01657994
-0.0032577245 0.009178092 0.00493588 0.0012299821 0.010906589 0.011277255 0.007673961 -0.0021920174
0.012627649 -0.009674244 0.018775837 -0.007146167 -0.008797715 0.00944684 0.0039729835 -0.0050496035

network_body._body_endoder.seq_layers.2.weight f4 [256, 256]
00000000: 7bb9 04be 3fc6 af3b 50ac 083c 53c3 b8bc
00000010: 324e b3bc dbaa a0bc 1924 18be 0c75 403d
00000020: 20f0 0d3e fce7 bc3c ad52 05bd 8d3d 473d
00000030: 7196 ccbb c2fd b8bd 026a 683d 7743 843d
00000040: 5976 d2bd 0d5b 13bd eaa6 0abd a3dd 343d
00000050: 1749 e03d a95b 243d dfd1 293e 948f 3cbd
00000060: d2f3 a73d d03b bbbb 8d17 1e3d 6285 823d
00000070: be6c 103c 8f51 83bc f31a 7ebd c4c2 1e3d
00000080: 0c40 25bd 15a5 8c3d 9b4b 23bd bcba b4bc
00000090: 5912 98bd f7e5 d1bd a225 743c ec22 753d
000000a0: ecc5 103d 15dd 3dbd 2fa7 f43d 45d6 753d
000000b0: 44d7 28bd b4ba 3d3c e723 fbbc 2486 90bc
000000c0: ff18 6fbd 9dd6 a03d 593c 0cbd b3a5 d4bd
000000d0: 904d 93bd c0fe bebc dfdc 9bbc 692b 8cbd
000000e0: d125 563c b3dd 1c3c 9ea0 96bc 79cb 943a
000000f0: f160 1d3d 8b68 be3d 6e0e 083e 6a25 c3bc
00000100: 260a 363d ef80 a3bd 4b30 f8bc 72dc 463d
00000110: 6ceb e43c af8f 813d 7491 b33d eab9 423b
00000120: 788f 42bd 2249 e33c d2fd e1bc 658d 4a3e
00000130: 964b 06be e5d2 22bd a52d a23d 3061 9abc
00000140: 1cf0 4cbc c04f c73d cb57 993c e32b 923b
00000150: ea32 bf3d f939 bd3d 4b7d aa3c 537f f0bc
00000160: d59a 003c f246 71bd 90cf 053d 0e48 623c
00000170: a2f4 9abd 403a afbd 95ba 863b 36f5 0c3d
00000180: 4153 c33d 5744 bfbd fc7c 8a3c 643a b7bd
00000190: b26f fd3d 4914 4cbd 055b 493e 0fa7 943d
000001a0: 0dc4 5bbd 6997 17bc c2ad ab3d d749 ae3d
000001b0: a29f c6bc 3b18 003d 1926 06be d4cd 1ebd
000001c0: 2998 27bd 8a7c de3c a0b6 3e3c 994a a9bd
000001d0: 25fb a9bd d049 7abd ca0b c73c 36bf e73b
000001e0: fb19 c3bc baa3 f3bd a712 bd3b 85ad 573d
000001f0: cac8 643d b3c9 5a3c 44af eabb d15d 11bd
00000200: 64d4 b63a 28aa 8c3c 8d66 773d c03b 0ebd
00000210: ac11 ca3c ce22 d9bc 3f12 2abd 729e c43d
00000220: 5701 323d abd7 a13c f3bb 8cbd 9f46 193d
00000230: d524 3c3c 82c8 2a3c 0489 3c3d 2a36 a8bd
00000240: 5c74 b539 0981 bdbb e768 77bd 90da 7a3d
00000250: 7378 e2bc 3b07 20bd 8fae c73d 23cd 833d
00000260: fe35 edbc 5752 aebd 7923 7d3d 9d14 00bc
00000270: 9caf 933d 87af 5fbd 652b 42bd 6aca adbd
00000280: 2ab0 ef3c 6092 2f3e b96a 04bd 16eb de3c
00000290: 6df7 ffbd db10 123d a446 0cbe 5d0a 773c
000002a0: c640 803b 3a51 32bd e971 b23c 94a6 cfbc
000002b0: c2ca 12bc 4d32 e539 4f19 533d 4c71 debc
000002c0: 88af 6ebc 09a8 af3c 822a bc3d 7fd0 95bd
000002d0: 010f 9fbc f543 e73d 0634 573d 6b5e 96bd
000002e0: b1b5 973d dcb5 48bd ca3e fbbb 4d7b 1ebd
000002f0: 0d69 d2bc 9fbd 223c 8a14 333d 9551 083e
00000300: 3df0 bbbc 7301 b5bc 0101 7e3d 6abd b63d
00000310: 33b4 26bd f259 b43d 1ed5 a5bc b354 a23d
00000320: e530 d03d 1568 403d 1ef2 e63c 3d50 dc3d
00000330: 06ec 90bc 9a71 3d3d e8cb cb3c 6dfd 0cbd
00000340: b13e 00bd 46f8 c8bc 6f58 76bd 8d75 eabc
00000350: a776 6e3d be48 f3bc ed1d ab3c 09b6 b13c
00000360: e55b 83bd ca2e 12bb 6db3 94bd a0f5 44bc
00000370: 53ff 283d 6cc9 c2bd bb2a b2bc 3d8f c5bc
00000380: 9336 77bc 8d36 883c b43b 513d c820 0c3d
00000390: e564 a43c 7027 423d 9b9f 23be f280 05bc
000003a0: bf22 67bd 2af1 1dbd 2430 2abc 58a1 cebc
000003b0: 5ec0 efbb e74a 80bd b56f ac3d 9cb3 c3bd
000003c0: 1da3 69bd 76b8 a5ba e4e1 2bbd f17f 193d
000003d0: fb99 043e af25 67bc 10c4 233d 71e9 2b3c
000003e0: 04d7 b13d 0b60 9e3c 6478 55bc 8f8b b3bd
000003f0: 7391 f03c 4073 013e 05c4 71bd 2aaf 2bbc
-0.1296138 0.005364209 0.008341864 -0.022554075 -0.021887872 -0.01961272 -0.1485752 0.046986625
0.13861132 0.023059838 -0.03254955 0.048642684 -0.00624352 -0.090327755 0.056741722 0.064581804
-0.10276479 -0.035975505 -0.033850588 0.04415668 0.10951441 0.040126476 0.16583966 -0.046035364
0.08200802 -0.0057139173 0.03859668 0.06373097 0.008814989 -0.016030101 -0.06203742 0.03875996
-0.040344283 0.068674244 -0.039867025 -0.022061698 -0.074253745 -0.102489404 0.0149015505 0.059847757
0.035345003 -0.04635342 0.1194595 0.060018796 -0.04122092 0.011580158 -0.030656768 -0.017642088
-0.058373448 0.07853434 -0.03423724 -0.10383167 -0.07192528 -0.023314834 -0.019026218 -0.06844217
0.01307054 0.009574342 -0.018387135 0.0011352143 0.03842253 0.09297284 0.13286754 -0.023821551
0.044443272 -0.079835765 -0.030296465 0.048550077 0.02794429 0.063262336 0.08767977 0.0029712864
-0.047500104 0.027744833 -0.027586851 0.197805 -0.13114771 -0.039751906 0.07918862 -0.01884517
-0.012508418 0.09732008 0.01871862 0.004460798 0.09335883 0.09239573 0.020811697 -0.029357588
0.007849415 -0.05890555 0.03266865 0.0138111245 -0.07566191 -0.08556032 0.004111598 0.03441354
0.09537364 -0.09339207 0.0169053 -0.08946684 0.1237482 -0.049824033 0.19663627 0.072584264
-0.053653765 -0.009252408 0.08382751 0.085101776 -0.02424604 0.031273108 -0.1310047 -0.03877051
-0.040916596 0.027158994 0.011640221 -0.082661815 -0.08299855 -0.06110555 0.024297614 0.0070723547
-0.0238161 -0.11896463 0.005770046 0.052655715 0.05585555 0.013353753 -0.0071620066 -0.03548986
0.0013948795 0.01717098 0.060400534 -0.03472495 0.02466663 -0.026505854 -0.041521307 0.096005335
0.04345831 0.019756159 -0.06871786 0.037420865 0.011483391 0.010423781 0.046029106 -0.08213456
0.00034609705 -0.0057832045 -0.060402777 0.061243594 -0.027645325 -0.039069396 0.09750091 0.06435611
-0.02895641 -0.08511799 0.061801407 -0.007817415 0.07211229 -0.054610755 -0.047404665 -0.08485873
0.029258806 0.17145681 -0.03232834 0.027211707 -0.124983646 0.035660606 -0.13698822 0.015078154
0.0039139716 -0.043534495 0.021782832 -0.025347985 -0.008959474 0.0004371576 0.051537808 -0.027153634
-0.014568217 0.02144243 0.09187795 -0.07315158 -0.019416334 0.11292259 0.052539848 -0.073422275
0.07407702 -0.04900156 -0.007667397 -0.038691808 -0.025684858 0.0099329045 0.04372076 0.13312371
-0.022941703 -0.022095418 0.062012676 0.089228466 -0.040699195 0.08806218 -0.020243224 0.07926311
0.10165576 0.04697426 0.028191622 0.10757492 -0.01769067 0.046250917 0.024877504 -0.034421373
-0.031309787 -0.024532449 -0.06014293 -0.028620506 0.058218624 -0.029697772 0.020888293 0.021693246
-0.06414012 -0.002230572 -0.07260785 -0.012021452 0.04125912 -0.095110744 -0.021748891 -0.024116153
-0.015088695 0.016627574 0.051082328 0.03421095 0.020067642 0.04740089 -0.15978853 -0.008148419
-0.05642962 -0.03856007 -0.010387454 -0.02522342 -0.007316633 -0.062642865 0.08419744 -0.09555742
-0.057040323 -0.0012643475 -0.041963473 0.03747553 0.12949364 -0.014108106 0.0399819 0.0104926685
0.08683589 0.019332906 -0.013029192 -0.08766853 0.02936623 0.1264162 -0.05902483 -0.010478774

network_body._body_endoder.seq_layers.4.bias f4 [256]
00000000: e0e6 543c 80d9 553c 0a2d 89bb 9ab4 73bb
00000010: 1f06 723c 722c f43b 58d5 463c 3bb2 4c3b
00000020: fd6e 523c a48b d63a d0bc a73b 5ecb 3bbc
00000030: c8b5 e13a 8a7a 88bb 86d1 553c 57df a83b
00000040: 81c7 f33b 0589 85bb 4add 19bc b89a 18bc
00000050: 3140 503c 88f7 8eb9 2a3e ea3b bb28 013c
00000060: 5200 1bbc ca7e 34bc 35a6 2ebb 6a43 aaba
00000070: c6c3 29bb 83a1 32bb 0224 ef3b cafd 1fbc
00000080: f924 253a 662e 203b c922 333c 1eee 2b3c
00000090: d825 7e3c 1afc 593c 1b1a be3c c226 c13c
000000a0: bd57 3dbb 278d 333c cc50 bdbb 7729 0b3b
000000b0: fc63 9f3c 0b39 a6ba 25f4 913c fe67 8cbb
000000c0: bc90 47bc 2cc1 02bb 348c 793c fca5 823a
000000d0: 630e a53c f503 47b7 95e6 f139 ed45 04bb
000000e0: 4988 4a3c 5618 9d3b d70d 423c 46c0 2abc
000000f0: ae6f 4c3c 49c2 fb3a 2bdf 1bbc d6a0 503b
00000100: d756 94bb 7b74 c53b 0a44 1cba 4b15 063c
00000110: 3905 2e3c 047e 823c 59ee da3b 7ee5 983c
00000120: bdda 063b 31e0 c63b 08cc 5e3c 44d0 62bb
00000130: 458f 6a3c a0e6 503c da26 853c 245f a33b
00000140: abf5 ac3c b147 72bc 2089 e03b fe0e 35bb
00000150: 7daa 853b 7804 5f38 b042 903c 330d e8bb
00000160: f585 afba e140 433c f185 6c3c 3a17 ca3b
00000170: d367 333b 4716 07bb 17f0 613c 93df 48bb
00000180: 4c11 713b 305a 933c bb43 c93b 5617 e6bb
00000190: 96ec 893b 41ae 32bc 5710 7eba 703e 9b3b
000001a0: fa56 06bc e6d7 703c 1d5c 863c d666 cabb
000001b0: 5e1b a33c ba04 0e3c 75dc ad3c 5640 693c
000001c0: 5a30 92ba 864b 643c 9959 573c 3916 7d3c
000001d0: 372b 313c e89b 93bb b2ec 63bb 4dc2 8b3c
000001e0: dcec 88b9 8530 74bb 8207 193b bd64 47bb
000001f0: 3f5d 0fbb bdf0 513c 6838 36bb 2b3c 723c
00000200: 31b8 173c 3908 733c 50fa 6c3c ec60 183b
00000210: 8fdb b3bb ea75 423a 5038 dcbb 1835 783c
00000220: a9e3 9d3c f0bb 42bc 9391 433c 5ff2 dfb8
00000230: b3b3 7ebb 5b94 573b efb5 aebb 109a 8dbb
00000240: a737 283c d778 0f3c 190c e03b f3f1 d039
00000250: e7fe eb3a 3ecf a13c e39f 49bb c911 44b9
00000260: dd7b b9ba 1f4d 883b 024c a33a b83a 9e3a
00000270: 19f2 ae3a 0296 ccbb aaed 0c3c ce9d 173c
00000280: 915f 59bb f6bc 27bc 012c 4e3b 6519 90bb
00000290: 69ea 763c fb05 1d3c 8983 713b 248f 153c
000002a0: 711a 983c 1884 19bb dc1e 2fbc 5dc4 863c
000002b0: d088 5d3c e5d4 e7bb fe11 da3b 5c82 9339
000002c0: 3de4 ca3c 9ca2 333c bb50 1f3b 48f3 2b3c
000002d0: 248a 843c 9363 3e3c c4ed 323b 2484 673c
000002e0: a5f7 39bb e3c1 253a 6059 6e3a 9fe3 163c
000002f0: e30d 1f3c 7257 e3ba 606c debb 7e64 873b
00000300: d8c7 073c c5dd bdbb 8945 cf3b 2df3 c9ba
00000310: 089c 583b 92bd 2b3c cfe7 363c c450 4cbc
00000320: 7fdd 823b a9c5 1fbc 599a 82ba 0b8a 743c
00000330: a7b1 e038 93ba 103c 446e 55bb 2017 52bb
00000340: a861 573b 0dda 11bb 25ef 6f3c fd00 e43b
00000350: a7b4 cd3b 3be6 433c d3fd b53b 9dd2 973c
00000360: bc23 b5bb e7b0 a43b aa11 303c 885d 9e3c
00000370: e3b9 023c 7241 b0bb 57ef e83b ca10 303c
00000380: b9ff 483c 08cb 1ebc cfa7 20bc 4f0a a13c
00000390: cbed 093c 476e bbba fcb4 163c 0f36 943b
000003a0: 160f 153b 6318 223b 14a5 7fba da0d 753a
000003b0: 0ad7 cd3b b206 32bb 844c c73c b50b ffbb
000003c0: ad96 a03c 1fa3 f5ba 1c11 923b ecc8 c03a
000003d0: a1b1 813c 7f27 97bb b06e 903b ea3f 9b3c
000003e0: 333f 4c3c b65d 293a 1436 7dbb 029a 263c
000003f0: de9d b43c a6f1 3c3a bccf 3f3c 786e 26bb
0.012994498 0.013052344 -0.0041862773 -0.0037186504 0.014771967 0.0074515874 0.012135826 0.0031234163
0.0128438445 0.001636852 0.0051189438 -0.011462061 0.0017220313 -0.0041649984 0.013050443 0.0051535773
0.007439554 -0.004075172 -0.009391138 -0.009314232 0.012710617 -0.00027268776 0.007148524 0.007883246
-0.009460526 -0.011016557 -0.002664936 -0.0012990062 -0.0025904044 -0.0027256913 0.0072979936 -0.009765098
0.000629976 0.0024441718 0.010933586 0.010493783 0.015511952 0.013304735 0.023205807 0.023578051
-0.0028891407 0.010958946 -0.005777454 0.0021234432 0.019456856 -0.0012681795 0.017816612 -0.004284858
-0.012180503 -0.0019951565 0.015231181 0.000996768 0.020148462 -1.1862246e-05 0.000461389 -0.002018328
0.0123615945 0.004794161 0.01184412 -0.010421818 0.012477798 0.0019207682 -0.009513657 0.0031834147
-0.0045269537 0.0060258484 -0.00059610663 0.008183788 0.010621362 0.01592923 0.0066812453 0.018664118
0.0020577156 0.006069206 0.0135984495 -0.0034609 0.014316385 0.012750298 0.016253877 0.004985707
0.021113237 -0.0147876 0.006852284 -0.0027627344 0.0040791617 5.3171505e-05 0.017609924 -0.0070816516
-0.0013391363 0.011917324 0.014436231 0.0061673196 0.0027375116 -0.0020612644 0.013790152 -0.0030650839
0.0036783991 0.01798734 0.0061421073 -0.007021825 0.0042091114 -0.010905803 -0.0009691766 0.0047376677
-0.008199448 0.014699912 0.016401345 -0.00617681 0.01991051 0.008668119 0.021223286 0.01423653
-0.0011153326 0.013934022 0.01314392 0.015447193 0.010813526 -0.0045046695 -0.0034778533 0.017060423
-0.00026116415 -0.0037260365 0.0023350422 -0.0030425035 -0.0021875647 0.012813744 -0.0027804617 0.014784853
0.009260223 0.014833503 0.014463976 0.002325113 -0.00548882 0.0007418083 -0.00672058 0.015149377
0.019273596 -0.011885628 0.011936563 -0.00010678614 -0.0038864433 0.0032894823 -0.005331747 -0.004321344
0.010267175 0.008756838 0.0068373797 0.00039853118 0.0018005044 0.019752141 -0.0030765466 -0.00018698642
-0.0014151294 0.004159584 0.0012458565 0.0012071943 0.0013347297 -0.0062434683 0.008601585 0.009253932
-0.0033168534 -0.010237923 0.0031459334 -0.0043975585 0.015070536 0.009583945 0.0036852083 0.009128366
0.018567296 -0.0023424681 -0.01068851 0.016451055 0.013521388 -0.0070749396 0.006654977 0.0002813515
0.024767036 0.010964062 0.0024309594 0.0104950145 0.016179152 0.01162042 0.0027302364 0.014130626
-0.0028376367 0.0006323142 0.00090922974 0.009209543 0.009707901 -0.0017344786 -0.0067878217 0.0041318526
0.008287393 -0.0057942593 0.006325428 -0.0015407555 0.0033051986 0.010482209 0.011163666 -0.012470428
0.0039936895 -0.009751716 -0.0009964212 0.01492549 0.00010714243 0.008833545 -0.0032566944 -0.003205724
0.0032864604 -0.0022255213 0.014644419 0.0069581256 0.006277639 0.011956747 0.00555394 0.018533045
-0.0055279415 0.005025971 0.010746399 0.019331709 0.007978889 -0.0053788954 0.0071086097 0.01074619
0.012268 -0.009691961 -0.009805634 0.019658236 0.008418511 -0.0014299833 0.0091984235 0.004523046
0.0022744588 0.0024733774 -0.00097520766 0.00093480723 0.006281738 -0.0027164635 0.024328478 -0.007783378
0.019603098 -0.001874063 0.004457606 0.0014708317 0.01583177 -0.0046128626 0.004407726 0.018951375
0.01246624 0.00064608024 -0.003863697 0.010168554 0.022047933 0.0007207639 0.011707243 -0.0025395434

network_body._body_endoder.seq_layers.4.weight f4 [256, 256]
00000000: 7336 b73d 3de3 2bbd c184 423d 162e bebd
00000010: e06f 223c 1ce7 ed3c 77d8 fdbc f359 853d
00000020: b952 c2bd 94e6 bd3c accd 46bd 7db4 1cbd
00000030: 8b2d 33bc 3da3 483d 0a75 ce3b fdec a3bd
00000040: 4818 22bc 4bb0 ca37 10b4 3bbd fbe7 81bd
00000050: 354e fabc f189 16bc b93c 4e3c 2115 743d
00000060: b341 9c3b 2307 c03d 615e 22bd bce0 e33c
00000070: e2ca 46bd d8a3 66bd 6335 8ebb 0137 b7bd
00000080: 9206 82bd 593a aabc 8e8f 783b ca8f 973c
00000090: 328b 5d3d b4e8 663d c6cb 443d efd6 edbd
000000a0: 0b2e e43d 26b8 c6bd 219b 883c 8b47 d73c
000000b0: 94e2 993d 3651 88bd 630f 1b3d 9ccc 263d
000000c0: 281d 36bc b598 ddbd 94ff f63d 6aa3 7a3c
000000d0: 18c9 f7bc bc54 3e3b 0558 69bd bdbb 093d
000000e0: 757b 20bc d5da 9abc f9ce 84bd 45de 7ebb
000000f0: 28ba a3bd f7b7 2bbd b146 7d3d ace7 60bd
00000100: 8e66 ac3a 7bad 293c 89a0 233d 651b 3abd
00000110: 2683 813c 49e2 3f3d d5c7 54bd 0c47 ddbb
00000120: bd47 d2bd 8eb4 683d e343 9b3d 2d6e 173e
00000130: c59d 113d 76e2 3d3d ddbe e5ba 4e8f 70bd
00000140: 0cac d83d 646d 8abb de3c cfbd ca0e fcbd
00000150: ddc7 21bd 4ee8 e4bd 566a 86bd f8df 9db8
00000160: c30b f2bd 52e9 f63c 3ad8 483d 23e1 6d3d
00000170: e445 0abc 3f88 08bc 7941 5d3d 7637 7a3d
00000180: aafc f0bc edcb b33b cd23 283d c26f fa3c
00000190: 9c78 52bd 769a 863d 1550 a33d 0d41 13be
000001a0: b32e c6bd be5f 29bd ec3f f1bd c8d9 10bd
000001b0: 9ae2 aabd a6bb b33c c88b 093d 6f8e e7bc
000001c0: f78f 083e 3f4a a43d bc75 6dbc 7b9d 4dbd
000001d0: 63ed ae3b e099 913d 04ff a23c 53f8 183c
000001e0: 92c2 033d 0ac2 153e 720c 61bd 2cf6 b0bb
000001f0: 9a90 033e af3e 80bd d0c6 4bbc c576 103d
00000200: a318 a83c 9240 773d a5e4 b43d 244d 91bd
00000210: 8013 b8bd 833a d0bd f4ab 963d 5853 40bd
00000220: a35a 443c d77a babb dd86 0ebd d826 a03d
00000230: df59 893c 5fa4 383c 560d b93c 00a6 96bc
00000240: 1576 053b c73a 0e3d 853b 10bd 315f 66bd
00000250: 414e 6e3b c849 68bd 3988 2cbd a1ea 003d
00000260: 450e 9c3b 2159 173d 30ed 4e3d 2153 1bbd
00000270: 7dc9 43bd 4299 873c 4b3a dc3d f008 383e
00000280: 2da9 ba3d a776 f5bc 211c 8dbd cc5d 23bc
00000290: 1f8d 8b3d eb09 11bd 723e 0d3d 7b98 aaba
000002a0: c068 853d b0d6 6abd ec88 943d 7b7a 86bd
000002b0: 7e61 50bd 3944 553d 6e78 08bd c18b 53bd
000002c0: fcb8 423d 6891 433d b399 c03b b749 c5bd
000002d0: 92c2 64bd c9fb 12bd 152f 8dbd 77a3 333d
000002e0: 24ff 253d 0fd5 833d fd56 febd 0338 c33d
000002f0: 636b 21bd 986c 6abd e11b 63bd f249 e3bd
00000300: 9f08 153e 1657 92bd 21aa 93bd d534 aabd
00000310: 68bc 90bd 4d8b 0dbd e4ed f83d 79cf e33d
00000320: 6aac ea3d 0931 c63b fd11 85bc 1fd5 a6bd
00000330: 35e7 12bc b853 f13d ada2 053e e129 673c
00000340: 5c49 5c3d 4a2d 7ebc dd94 b1bd 5274 403e
00000350: 34e0 a63b 682d be3d 04cf afbd 0534 193d
00000360: 75b0 a5bb b988 9ebd 5620 bdbd 4c6b 703c
00000370: f198 44bc 833a 88bd 8231 bd3b 774f a2bc
00000380: 98e3 9b3d c4d0 1cbd d77e 98bd 6241 973b
00000390: 9be7 5f3c ad8a 91bd cf81 ac3c 4440 37bc
000003a0: aab1 06bd f6f4 aabc 9985 fd3d 33a0 09bd
000003b0: 4436 7d3d ab32 073d 7c1b 093c 4bea 193d
000003c0: 5c10 d2bd c530 20be cdd2 a8bc 4934 8fbd
000003d0: e28e d23d a593 ebbc 05b0 563d 2332 8ebd
000003e0: 717f fc3d ced7 cebb 80f9 8cbc 826a 233e
000003f0: a0bd d33c f200 943d e2b3 43bd b9a3 b33d
0.08945932 -0.04196476 0.047489885 -0.09286134 0.009914368 0.029040866 -0.030987008 0.06511297
-0.09488434 0.023181237 -0.048535988 -0.038258065 -0.010936151 0.0489838 0.0063005732 -0.08004186
-0.009893484 2.416237e-05 -0.045826018 -0.06343075 -0.03055487 -0.009188161 0.01258772 0.059590463
0.004768574 0.09376361 -0.039640788 0.027817123 -0.048533328 -0.056308597 -0.0043398603 -0.08946038
-0.063489094 -0.020779775 0.0037927362 0.018501181 0.054087825 0.056374267 0.048045896 -0.11613261
0.111415945 -0.09703092 0.016675534 0.026279232 0.075139195 -0.06656115 0.03785647 0.040722474
-0.01111535 -0.10820142 0.120604664 0.01529775 -0.030247256 0.0029042205 -0.056968708 0.033626307
-0.009795059 -0.018903175 -0.064847894 -0.0038889807 -0.07994491 -0.04192349 0.061834995 -0.05490844
0.0013153122 0.010356302 0.03994802 -0.04543628 0.015809607 0.04684666 -0.051948387 -0.006752854
-0.10267589 0.056812815 0.07581308 0.14788122 0.03555085 0.046358548 -0.0017528195 -0.058730416
0.1057969 -0.004224466 -0.10119031 -0.12307508 -0.039497245 -0.11177121 -0.06563251 -7.528061e-05
-0.118186496 0.030140553 0.049034335 0.058076035 -0.008439515 -0.008333265 0.054017518 0.061088048
-0.029417355 0.0054869563 0.041049767 0.030570868 -0.051384553 0.0657243 0.07974259 -0.14380284
-0.09676876 -0.041351072 -0.1177977 -0.035363942 -0.08344002 0.021940064 0.03358057 -0.02826616
0.13336168 0.08021974 -0.014493402 -0.050199013 0.0053383573 0.071094275 0.019896992 0.009336549
0.03216798 0.14624801 -0.05494351 -0.0054004397 0.1284813 -0.06261956 -0.012437537 0.035269517
0.02051956 0.060364313 0.08832673 -0.070947915 -0.08988094 -0.1016741 0.07357016 -0.046954483
0.0119845 -0.005690913 -0.034796584 0.07819909 0.016766487 0.011269658 0.022589367 -0.018389702
0.0020364572 0.034724023 -0.035213012 -0.056243125 0.003636256 -0.05671099 -0.0421221 0.03147376
0.0047624432 0.036950234 0.05051917 -0.037921075 -0.047799576 0.016552571 0.10753306 0.1797216
0.09114299 -0.029963804 -0.06890131 -0.009971093 0.06814026 -0.03540985 0.03448338 -0.0013015413
0.0651412 -0.05733365 0.07252678 -0.0656633 -0.050874226 0.052067015 -0.033317976 -0.05164695
0.047539696 0.047746092 0.0058776974 -0.096332006 -0.05584962 -0.035884652 -0.06893746 0.043857064
0.040526524 0.06437122 -0.124189354 0.09532168 -0.039409053 -0.05723247 -0.05544651 -0.11098088
0.1455407 -0.071455166 -0.07210184 -0.08310858 -0.07067186 -0.034556676 0.12154749 0.11123557
0.114586666 0.006048326 -0.016243929 -0.081461184 -0.008966257 0.11783546 0.13050337 0.014109106
0.0537809 -0.015513727 -0.086709715 0.18794373 0.005092645 0.09286004 -0.08584407 0.037403125
-0.0050564357 -0.077409215 -0.09234683 0.014674019 -0.011999355 -0.06651785 0.005773724 -0.019813282
0.076117694 -0.038285032 -0.07446068 0.0046159485 0.013666059 -0.071065284 0.021057991 -0.011184756
-0.032884277 -0.02086876 0.12378997 -0.033600044 0.06181933 0.033007305 0.008368369 0.037576955
-0.102570266 -0.15643604 -0.02060833 -0.069923945 0.10281159 -0.028756926 0.05241396 -0.069431566
0.12328995 -0.006312347 -0.017208815 0.15958598 0.025847256 0.07226743 -0.04777897 0.08771462
