Assets/Training/results/RUN2/SzitakotoBehavior/SzitakotoBehavior-8499991.onnx (onnx, 670607 bytes, 13 tensors)

65 f4 [132]
000000 c2 65 6c 3e 80 ae 48 3e 24 43 99 3e cb 0b 3f 3e
       0.23085693 0.19597816 0.29934037 0.18656842
000010 0f 1f 8f 3e 42 d1 4d 3e 6a 86 ac 3e 29 9d 4b 3e
       0.27953383 0.20099357 0.336963 0.1988417
000020 41 f8 30 3e 3e fb 3b 3e 4b 8d 81 3e 22 90 32 3e
       0.17282201 0.1835756 0.2530311 0.17437795
000030 e0 43 9e 3e 84 67 47 3e e6 71 b6 3e 48 37 53 3e
       0.3091116 0.19473082 0.35633773 0.20626557
000040 4e fa 1a 3e 28 c8 2d 3e 85 ce 6b 3e e3 c0 24 3e
       0.15134546 0.16970885 0.23028 0.16089205
000050 f0 04 a4 3e 6c 9d 42 3e 31 15 ba 3e 3a 44 55 3e
       0.32035017 0.19005364 0.36344293 0.20826808
000060 64 38 33 3e 39 9e 24 3e ab 68 75 3e 7e 62 17 3e
       0.1750198 0.16075982 0.23965709 0.14783666
000070 24 70 9c 3e b5 97 43 3e 78 5a b4 3e 3f cb 51 3e
       0.30554307 0.1910084 0.35225272 0.20487688
000080 87 4d 56 3e 9b 82 2d 3e 31 bf 89 3e a5 cd 12 3e
       0.20928012 0.16944353 0.2690368 0.1433626
000090 05 19 89 3e a3 59 4d 3e 8b 0d a8 3e 39 b4 4b 3e
       0.267769 0.20053725 0.32822832 0.19892968
0000a0 b5 f2 61 3e 83 c4 2d 3e 78 0b 8e 3e 7e be 13 3e
       0.22065242 0.16969495 0.27743125 0.14428136
0000b0 67 97 6c 3e aa d9 48 3e 46 5d 98 3e 83 6a 3b 3e
       0.2310463 0.19614282 0.29758662 0.1830235
0000c0 ac 3b 8f 3e 2a ff 4d 3e f6 dd ab 3e d4 2f 48 3e
       0.27975214 0.20116869 0.3356778 0.19549495
0000d0 e6 22 31 3e 46 23 3c 3e 77 5c 80 3e e4 81 2e 3e
       0.17298469 0.18372831 0.25070545 0.17041737
0000e0 d6 60 9e 3e 47 97 47 3e 76 de b5 3e d9 0c 50 3e
       0.30933255 0.19491301 0.35521287 0.20317401
0000f0 b0 23 1b 3e c4 ef 2d 3e 53 f7 68 3e 10 43 20 3e
       0.15150332 0.16985995 0.22750597 0.15650582
000100 75 23 a4 3e de dd 42 3e 76 76 b9 3e 19 09 52 3e
       0.32058302 0.19029948 0.3622319 0.20511283
000110 40 72 33 3e 1e c6 24 3e 83 dc 72 3e 02 82 12 3e
       0.17524052 0.160912 0.23716931 0.14307407
000120 2d 90 9c 3e 19 dc 43 3e 3a b6 b3 3e c5 ab 4e 3e
       0.30578747 0.1912693 0.35099965 0.20182712
000130 0b 92 56 3e c2 ac 2d 3e 73 ab 88 3e dd c3 0d 3e
       0.20954148 0.16960433 0.26693305 0.13844247
000140 c8 38 89 3e a7 8b 4d 3e 5e 57 a7 3e ce 89 48 3e
       0.26801133 0.20072804 0.32683843 0.19583818
000150 98 39 62 3e 37 f4 2d 3e 9b 16 8d 3e 8c bf 0e 3e
       0.22092283 0.16987692 0.2755631 0.13940257
000160 27 c9 6c 3e 74 04 49 3e 60 76 97 3e fa ab 37 3e
       0.23123609 0.19630605 0.295825 0.17936698
000170 42 59 8f 3e 0a 2c 4e 3e 77 fd aa 3e f9 9f 44 3e
       0.27997786 0.20133987 0.33396503 0.1920165
000180 b2 4c 31 3e 6d 4a 3c 3e c3 4d 7e 3e 63 63 2a 3e
       0.17314413 0.18387766 0.24834351 0.16639476
000190 a5 7d 9e 3e 7f c5 47 3e 8a 45 b5 3e b9 d2 4c 3e
       0.30955234 0.19508933 0.35404617 0.2000226
0001a0 af 4f 1b 3e 6b 15 2e 3e 13 22 66 3e 15 ad 1b 3e
       0.15167116 0.17000358 0.22473936 0.15202744
0001b0 e9 40 a4 3e a4 12 43 3e e9 db b8 3e 7c c1 4e 3e
       0.32080773 0.1905008 0.36105278 0.20190996
0001c0 75 ae 33 3e 13 ee 24 3e bf 3d 70 3e 1f 64 0d 3e
       0.17547019 0.16106443 0.23461054 0.13807724
0001d0 8b b0 9c 3e 1e 15 44 3e 44 0e b3 3e ec 8c 4b 3e
       0.30603442 0.1914868 0.3497182 0.19877976
0001e0 57 d6 56 3e 52 d7 2d 3e 05 8d 87 3e bc 7e 08 3e
       0.20980202 0.1697667 0.26474777 0.13329595
0001f0 b7 57 89 3e e3 c1 4d 3e 22 8e a6 3e 40 1c 45 3e
       0.26824734 0.20093493 0.32530314 0.19249058
000200 4e 82 62 3e 6a 24 2e 3e a2 01 8c 3e a4 9f 09 3e
       0.2212002 0.17006078 0.27344996 0.13439804

68 f4 [2]
000000 d2 00 15 3e 2c 6d 8a 3e
       0.14551094 0.27036417

action_model._continuous_distribution.log_sigma f4 [1, 2]
000000 cc c9 58 bc 38 a8 58 3c
       -0.013231706 0.0132237

action_model._continuous_distribution.mu.bias f4 [2]
000000 74 21 fa 3b 20 c2 08 3c
       0.0076333825 0.008347064

action_model._continuous_distribution.mu.weight f4 [2, 256]
000000 de 22 08 3b f9 03 05 3d 71 ba d5 bc 21 87 2b bc
       0.0020772736 0.03247449 -0.026089879 -0.010469229
000010 f6 4b 25 3d 8a c7 09 bd 07 a1 04 3c aa 3f 25 3c
       0.040355645 -0.03363756 0.008095033 0.0100859795
000020 68 ca 55 3c cb 08 b7 bc 5b 1b ff bc e4 2e d0 ba
       0.013048746 -0.02234306 -0.031140974 -0.0015883115
000030 8d 47 c3 bb 56 8a aa bc 2d 50 d3 3c cb 06 22 bd
       -0.0059594573 -0.020817917 0.025795067 -0.03955726
000040 96 83 4a bc 85 47 a8 3b da ed b0 3a ab d9 80 bb
       -0.012360474 0.005135479 0.001349862 -0.003932198
000050 70 88 34 3c 47 e0 1b bd 1b 33 2b bd 8b d9 bc bc
       0.011018857 -0.038055684 -0.041796785 -0.023052951
000060 34 5e 51 bc ef 43 ce bb 7b 28 de bb 0f 04 09 bd
       -0.012778807 -0.0062947194 -0.006779728 -0.033451136
000070 ba 6c 03 bd 06 39 6d bc 5a a5 c9 bc 1f 19 90 39
       -0.03208611 -0.0144789275 -0.024614979 0.00027484537
000080 6f 26 c4 bc 92 f7 1f bd a2 95 bb 3c ca 95 00 3d
       -0.023944108 -0.03905446 0.022898499 0.03139285
000090 91 b2 16 3d 12 67 dd 3c f3 1d c8 3c 14 96 bf 3c
       0.036791388 0.027026687 0.024428343 0.023386993
0000a0 b3 89 0c bd 77 34 d0 3c 89 87 e0 bb 8b b8 ae bc
       -0.034311008 0.025415642 -0.0068520945 -0.021328231
0000b0 51 8a ef 3c c9 ac d7 bc 95 cd d8 3c e0 ea d0 bc
       0.02924076 -0.026327508 0.026465217 -0.025502622
0000c0 49 8b b3 bc ff 1c 25 bb 9c fd 43 3d 5e eb a5 3c
       -0.021917002 -0.0025194285 0.047849283 0.020253833
0000d0 56 00 8a 3c ef 44 29 bd b5 ba 3e bd 71 0e aa bc
       0.016845863 -0.041325506 -0.046564776 -0.02075884
0000e0 d3 6c 23 3d 76 33 4f bd b9 62 13 3d a8 6d 18 bc
       0.039898705 -0.050586186 0.03598282 -0.009303488
0000f0 3c 1e 8d 3c 35 f8 eb bc 2f 35 37 bc a4 dd 48 bd
       0.017226331 -0.028804878 -0.011182114 -0.049039498
000100 30 99 a9 bc 61 51 9b bc 18 bf 7f bc 05 96 db bc
       -0.020702928 -0.018959703 -0.015609525 -0.026804933
000110 4d e7 8f 3c f7 38 06 3d e1 84 c1 bb ba 10 2f 3d
       0.017566347 0.03276917 -0.005905733 0.04274056
000120 28 ae f2 bc 0b ce b1 3c 8f ba c1 3c 82 ae 04 bd
       -0.02962406 0.021704694 0.023648528 -0.032392986
000130 f0 39 77 3c 4b 06 11 3d b2 ef 01 3d 61 c9 49 bd
       0.015089497 0.035406392 0.031722732 -0.049264316
000140 7a a8 bb 3c d1 d5 18 bb ce 91 22 3d 9b 45 45 bc
       0.022907484 -0.0023320804 0.03968983 -0.012040521
000150 72 d0 2c bd ea 52 fc bc 9c 33 c2 3c fc b4 18 bc
       -0.042190976 -0.030801255 0.02370625 -0.009320494
000160 61 2e 01 bd b8 09 d6 3c 50 e1 86 3c 4a 42 47 bd
       -0.03153837 0.026127681 0.01646486 -0.048647203
000170 58 8c 15 bd ca cb f1 bb 82 0e 09 3d 08 0e 50 3b
       -0.036510795 -0.00737903 0.0334611 0.0031746645
000180 94 77 43 3c 33 7f a1 3c cb 1f bd 3c b5 4a f2 bb
       0.011930365 0.019713974 0.02308645 -0.0073941597
000190 ab e1 7d bc a1 d0 13 bc 45 de 4e 3c f0 ef 04 3d
       -0.015495698 -0.009021909 0.012626235 0.032455385
0001a0 d1 17 56 3a 19 94 df 3b 90 b4 bb 3c 58 db 36 3c
       0.0008167001 0.0068230745 0.022913247 0.011160694
0001b0 de 3e 0d 3d d8 74 1b bd 1a 2b ad 3c a4 92 f0 3c
       0.034483783 -0.037953228 0.021138716 0.029366799
0001c0 48 db 1c bc 16 93 b9 3b 2e 3d 3c 3d c4 80 43 3d
       -0.009573765 0.005663286 0.045956783 0.047730222
0001d0 35 33 85 3c ed 4e 6d bb 17 ee d6 bc e4 fa 16 3c
       0.016259769 -0.0036210374 -0.026236577 0.00921509
0001e0 de 8e 27 bd 06 ac b5 bc a7 f1 b3 3c 7a e2 27 bd
       -0.040907733 -0.022176754 0.021965815 -0.04098747
0001f0 e0 8f c0 bb 1f 77 16 3c b7 23 34 bc 47 76 15 3d
       -0.0058765262 0.009183674 -0.010994843 0.03648975
000200 f0 77 f5 bb a0 d2 c6 3c 79 0f 6d 3c d3 34 b9 bc
       -0.0074911043 0.024270356 0.014469021 -0.022608196
000210 58 3c d2 bc bd 78 80 bb e8 9e f4 ba 36 06 f4 3c
       -0.02566354 -0.003920643 -0.001866308 0.029788118
000220 53 aa 79 3c 35 b3 7d 3b 7a 31 e9 3c 12 f2 cc b9
       0.015238362 0.0038711552 0.028465975 -0.0003909027
000230 a3 fe f9 bc d2 87 0e bd 3d 80 1f bc cc 9c 2e bc
       -0.030516928 -0.034797497 -0.009735164 -0.0106575005
000240 4b 18 bc b9 f3 86 e3 ba 0b 8d 90 bc ba 1f 0a bd
       -0.00035876254 -0.0017358944 -0.01764538 -0.033721663
000250 f8 bd 1c bd 83 0d 96 3c 0b d3 ff bc 33 6f fe 3b
       -0.038267106 0.01831699 -0.031228563 0.007764721
000260 82 dc fe bc f6 da c2 bc 1f d8 20 bd 87 de bc 3c
       -0.031111006 -0.02378605 -0.03926861 0.023055328
000270 25 81 e8 bc 2f ed 78 bc 36 63 e5 3c 4e 1e 07 3c
       -0.028381893 -0.015193268 0.028001409 0.008246971
000280 c5 c0 df bc 94 d8 7b bb 47 4b f5 3c e3 c5 d2 bc
       -0.0273136 -0.0038428651 0.029943122 -0.025729125
000290 e3 d8 ed 3c 38 90 ce bc 28 41 f2 bc 9c 6a 09 3d
       0.029034084 -0.025215253 -0.029572085 0.033548936
0002a0 5a c4 29 3c 0c 33 88 bc 80 02 a8 39 c2 03 1c 3c
       0.010361755 -0.016625904 0.0003204532 0.00952238
0002b0 19 0a b8 3b 52 21 ce bb 11 99 9b 3c c1 95 1d bc
       0.005616438 -0.006290593 0.018993886 -0.009618224
0002c0 48 0c d1 3c 78 b6 dd bb 8f ad 93 3c ee 5d e2 bb
       0.025518551 -0.0067661367 0.018027095 -0.00690817
0002d0 b9 06 bc 3c 0d d0 64 bc f0 50 87 3c 60 83 97 3c
       0.022952424 -0.013965619 0.016518086 0.018495262
0002e0 58 8f aa bc dc fc 0b bd b3 50 b0 bc c8 a3 e0 3b
       -0.020820305 -0.034176692 -0.021522855 0.0068554617
0002f0 da fa 1e 3c 0e e4 3d bc 71 6a a6 bc 3f a9 2b bd
       0.009703362 -0.011590017 -0.020314427 -0.041909453
000300 a0 2d 61 3c 57 26 05 bc 9a da 2a bb 05 3b b4 bb
       0.013743788 -0.008126817 -0.0026070238 -0.0055001997
000310 44 2b 8a bc 3d 91 ee ba f3 1a 46 bd 3a 9d 5a bb
       -0.016866334 -0.0018201243 -0.048365545 -0.0033357874
000320 9b 70 1b 3c 1e d6 cb bc b9 6d f5 bc 07 3a c8 3c
       0.009487296 -0.024882372 -0.029959546 0.024441732
000330 88 01 e7 bc 36 f6 bf 3c 4d 8a b9 3b 07 2e dd 38
       -0.028198972 0.023432832 0.0056622387 0.000105466745
000340 9d 81 01 bd 14 a8 3c 3c d1 95 45 3c 1a 05 07 3d
       -0.03161775 0.011514682 0.012059645 0.03296385
000350 aa 47 88 bc 16 9d 87 3c 40 9b 5c 3c de 45 4f 3c
       -0.016635735 0.016554397 0.013464749 0.012650935
000360 b7 0c 2a 3b 70 ab 69 bd ab fd 04 3c 1f 76 eb 3c
       0.002594752 -0.05704826 0.00811712 0.028742848
000370 e4 df 96 39 16 2d 5a bc 32 f1 f8 ba 5a 67 a9 bb
       0.0002877704 -0.013316413 -0.001899278 -0.005169791
000380 bb 27 18 3c c0 0e 71 bb b0 fe 47 ba 96 63 97 3c
       0.009286816 -0.0036782473 -0.0007629199 0.018480103
000390 4b 19 18 3d 79 83 fa 3b da 95 9b 3c 70 e2 3c bd
       0.037133496 0.0076450673 0.018992353 -0.046114385
0003a0 17 50 22 bd 86 47 12 bd e1 0d 91 bc 50 b5 8b 3c
       -0.03962716 -0.03571274 -0.017706813 0.01705423
0003b0 ff 2b ab 3c dd b6 f4 bc 85 1d 7b 3d a2 10 2c bc
       0.020895002 -0.029872352 0.06130745 -0.010502012
0003c0 12 95 7d 3c 7e d2 98 bb 0e b2 98 3c 91 7a 2a bd
       0.015477436 -0.0046637645 0.01863959 -0.041620795
0003d0 23 cf c5 3c e6 fd bb bc ff 8a b9 3c 9b b4 ed 3c
       0.024146622 -0.022948217 0.022649286 0.029016783
0003e0 d7 fd 4b ba a7 39 10 bd 3b 13 ca bc 2d 9d 80 bd
       -0.00077816605 -0.03521123 -0.024667373 -0.06279979
0003f0 4b 2e 14 3d d5 16 03 bd 33 e4 9b 3c 20 8a ba 3b
       0.03617696 -0.032004196 0.019029712 0.0056927353

network_body._body_endoder.seq_layers.0.bias f4 [256]
000000 cc 1e bb 3a 3c 7f 8c ba d8 46 86 3c 6a d1 c1 3b
       0.0014276146 -0.0010719071 0.016391203 0.0059148567
000010 91 88 50 3b ea 47 56 3a c6 25 a3 3b 85 88 26 3c
       0.0031819681 0.0008174168 0.004978868 0.010164385
000020 a0 18 74 bc 72 a1 00 3c 2a f1 95 3c 87 36 cd 3c
       -0.014898449 0.007850992 0.018303473 0.025050415
000030 0c 9f 11 ba 41 01 69 3c 10 e0 36 bb b8 c2 d0 3b
       -0.0005555011 0.01422149 -0.0027904548 0.0063708685
000040 2c e0 1a 3c 79 15 84 3b 70 01 a6 3b b4 55 05 3c
       0.009452861 0.00403088 0.0050660893 0.008138109
000050 6e a7 96 3c d9 19 96 3b e9 c1 60 3c 1f 2f aa 3a
       0.018390384 0.004580718 0.013718107 0.0012984014
000060 b1 46 f9 3a 45 ee 85 3c 9a f9 27 3b 47 4f db 3c
       0.001901826 0.016348967 0.0025630952 0.0267712
000070 9a a1 36 3b 27 5d 74 3b 28 ee 3a bc 30 b1 a5 39
       0.0027867318 0.0037286968 -0.01140932 0.00031603267
000080 9e 3c 65 3a 4d b9 ee 3b 3c 50 8d 3c 35 16 80 3c
       0.00087446894 0.007285273 0.017250173 0.01563559
000090 e3 37 9d bc 19 88 cd 3b e9 3d c8 3b e9 37 f7 3b
       -0.019191688 0.0062723276 0.006110896 0.007544507
0000a0 d9 c5 55 3c 8a 91 75 3c b9 c5 12 3c 70 43 a4 bb
       0.013047659 0.0149883125 0.008958274 -0.005012922
0000b0 77 00 aa 39 eb e4 b3 3c e0 16 68 3c b4 a2 cf ba
       0.00032425273 0.021959743 0.01416561 -0.0015841336
0000c0 84 7e 0d 3c 10 44 1c 3c b2 40 25 3b b2 b6 53 bb
       0.008636121 0.009537712 0.0025215563 -0.003230494
0000d0 89 fe 96 bb d6 30 14 3c 2a 37 7d 3c 5c ea 64 bb
       -0.0046079797 0.0090448465 0.015455047 -0.0034929728
0000e0 89 0b 97 3c 94 5f de 3b 3a 80 2e 3c ac 91 e0 39
       0.018438118 0.006786296 0.010650689 0.00042833143
0000f0 c7 03 4a bb 6a b9 fc 3b 95 80 ca ba 6e 5f f8 bb
       -0.0030825005 0.0077125328 -0.0015449697 -0.0075797355
000100 41 dd 42 3c 6f b6 ab bb 12 2d 91 3b 57 9b 65 3c
       0.011893571 -0.0052402536 0.0044304216 0.014014087
000110 b4 96 71 3c 71 84 16 3c 76 4d 00 3c 2e 25 b8 bb
       0.014745403 0.00918685 0.007830968 -0.0056196665
000120 d7 ca af 3c 81 45 f2 3b 30 06 fc 3b e5 08 9d 3c
       0.021459026 0.0073935394 0.0076911673 0.01916928
000130 ec 13 f0 bb 7e b2 c2 bb cb 76 18 3d da 63 69 bb
       -0.0073265936 -0.005941688 0.037222665 -0.0035612495
000140 ee c7 52 3c 1a 7b 05 3c 15 d0 5f 3b 9c e7 9f bb
       0.01286505 0.0081470255 0.0034151126 -0.004879905
000150 9c 8f 6e 3c 2c 1b e6 3c ec bb 18 bb 45 30 76 3a
       0.014560606 0.028089128 -0.002330537 0.0009391348
000160 a1 1a 93 b9 e4 82 c6 3c 70 da 59 3b 59 35 07 3c
       -0.00028057865 0.024232335 0.003324177 0.008252465
000170 fd 40 23 3d 8e 36 6f bb 7b 53 c2 ba e6 86 02 ba
       0.0398569 -0.0036501023 -0.0014825905 -0.0004979208
000180 ff d6 fc 3b b1 1c 7e b9 e8 5f b7 bb 43 bf 11 3c
       0.007716059 -0.00024234016 -0.0055961497 0.008895698
000190 61 c5 23 3b e7 8b 02 3b d4 86 bf 3b 87 9f 8e 3c
       0.0024989473 0.0019919814 0.00584493 0.017410053
0001a0 3e fc cd 3b 77 e7 05 3c 87 b9 c6 3a 26 81 ca 3b
       0.006286173 0.008172861 0.0015161493 0.0061799465
0001b0 1f 73 60 3c cc 41 a8 3a 46 83 7c 3c 52 f6 ee 3a
       0.013699322 0.0012836992 0.015412157 0.0018231368
0001c0 ee a2 1c ba e0 ec 82 bb 8f fa 27 3c e4 ee 21 bb
       -0.0005975206 -0.003995523 0.010252609 -0.002470904
0001d0 0c 27 3d 3c 76 cc dc 3b f7 06 46 3c 08 68 c1 3b
       0.011544954 0.006738241 0.0120866215 0.005902294
0001e0 44 ef df bb 62 53 45 bb bd 49 46 3b 62 95 ff 3c
       -0.0068339426 -0.0030109514 0.0030256354 0.031199161
0001f0 64 a3 49 bb cd 9b f5 3c 8f 4e a0 ba 68 79 cb 3b
       -0.0030767554 0.029981518 -0.0012230444 0.006209541
000200 a9 a4 60 3c 27 b8 33 bc 5c 2d 54 bc 95 b5 fb bb
       0.013711133 -0.010969198 -0.012950268 -0.0076815584
000210 e0 06 3a 3b 2d d1 96 3c e3 a9 82 3c e1 c2 e8 3b
       0.0028385445 0.01841029 0.015950149 0.0071033095
000220 fe a8 61 3b 5b a7 47 3c 31 9d a9 3b 71 db c5 3b
       0.0034433003 0.012185897 0.0051762094 0.0060381223
000230 93 3d 26 3c aa 3b d2 3b eb fc 75 3a 94 5a 14 3c
       0.010146516 0.006415804 0.0009383696 0.009054799
000240 df 62 99 3c 5a 6d 27 bb c1 c1 3f bb f3 f0 ae 3b
       0.018723903 -0.0025547356 -0.0029259773 0.005338782
000250 07 06 24 3c 21 a9 80 3c 9d eb ca 3c 52 79 63 3c
       0.010011203 0.015705647 0.024770552 0.0138839055
000260 d8 d1 9f bb 3c 69 5e bb d1 b3 f0 3a 12 7a c2 b8
       -0.0048773102 -0.0033937236 0.0018364136 -9.273378e-05
000270 6f e3 17 3b a0 68 f9 bb 42 71 b0 3b 88 d0 7a 3b
       0.0023176332 -0.007611349 0.005384595 0.0038271267
000280 a0 83 12 37 6e 76 ca 37 34 1d 0d bb 97 c3 0f 3b
       8.7329245e-06 2.4135425e-05 -0.00215323 0.002193665
000290 62 ea 99 bb 0b 59 5d 3c 62 16 1a bc 73 5d 3d bc
       -0.00469713 0.013509999 -0.009404751 -0.011557925
0002a0 03 c5 34 3a b7 98 1a 3b e1 10 5f 3c 7b c8 21 3b
       0.0006895812 0.002358956 0.013614864 0.0024686146
0002b0 cb 5b 00 bc 4e 50 6e 3b 90 89 89 3c ef 28 38 3c
       -0.007834385 0.0036363783 0.016789228 0.011240228
0002c0 29 f7 97 bc 38 f7 56 3b e9 f1 65 3b ed 85 3c 3c
       -0.018550472 0.0032801162 0.0035086817 0.01150654
0002d0 4d e8 81 ba 72 60 0e 3b b1 4e 87 3c 80 ca 3c b9
       -0.000991115 0.0021724966 0.016517015 -0.00018004514
0002e0 a8 92 a7 bb c2 5c 7e 3c b4 20 44 3c 49 cc 9f bb
       -0.0051139183 0.015525045 0.011970688 -0.0048766476
0002f0 b1 12 86 3c 3b ca ac b9 3a 3e 19 3c d5 85 ec 3c
       0.016366335 -0.0003295707 0.009353215 0.02887241
000300 e8 76 d1 3a f6 24 03 3a d6 57 ae bb 70 d1 aa 3b
       0.0015980871 0.0005002761 -0.0053205295 0.005212955
000310 af 04 0f 3c 49 52 5c bb 93 9e a6 3c 1c 79 32 3c
       0.008729144 -0.0033618382 0.020339286 0.010893133
000320 b1 ad 13 bc d0 92 fa 3b e2 8a 93 3c e3 6d 25 3d
       -0.009013579 0.007646896 0.01801056 0.040388
000330 df c9 31 3c 67 4d d3 bb f6 3b 6d 3c 34 fa 86 3c
       0.0108513525 -0.006448436 0.014479628 0.016476728
000340 24 ea a7 3b ad cb 42 3c 4f 40 20 bc fb 49 85 3c
       0.0051243473 0.01188938 -0.009780957 0.016270628
000350 8e 0c 3c 3b 40 e8 22 3c b6 92 90 3b 17 a7 a8 3b
       0.0028694007 0.009943068 0.0044120206 0.005146872
000360 dc 7a cd 3b b4 0a 56 3c a4 1d 9d bb 15 91 10 39
       0.0062707495 0.013064075 -0.004794793 0.00013786957
000370 31 fd 9f 3b 72 07 1f 3c c5 fd de 3a 02 6a df bb
       0.0048824777 0.009706365 0.0017012885 -0.006818057
000380 f1 98 0d 3c 7d 58 02 3b 01 59 14 bc 5d 4d 49 3c
       0.008642421 0.001988917 -0.009054423 0.012286511
000390 0a 33 71 3c 91 7e b7 bb 0b e1 08 3c c2 e6 33 3c
       0.014721641 -0.0055998047 0.008354436 0.01098031
0003a0 71 df bc 3b 12 c8 80 3c 04 3b 89 3b 40 c0 8d 3c
       0.005763941 0.015720401 0.0041879434 0.017303586
0003b0 58 67 28 3a d8 05 f9 3a 1d 08 21 bb c8 02 80 3c
       0.0006424091 0.0018998934 -0.0024571486 0.015626326
0003c0 2b ea b4 bc 5f 2d 4e 3a 68 b6 5c bb 5f 4f c7 3a
       -0.022084316 0.0007865037 -0.0033678059 0.001520615
0003d0 e9 35 03 3d 3b 3a 1c 3c 5c 3d 8f 3a b0 83 22 bb
       0.032033835 0.009535368 0.0010928321 -0.002479773
0003e0 43 de 51 3c 13 96 04 3c 67 48 b7 3c 0f c4 ac bb
       0.012809339 0.008092421 0.022373391 -0.0052723954
0003f0 d1 43 b8 3b 8e 7c 2b 3c 60 09 1d 3b 9a 29 f5 3a
       0.0056233187 0.010466708 0.0023961887 0.0018704415

network_body._body_endoder.seq_layers.0.weight f4 [256, 134]
000000 d0 7c f4 bd fd d5 f9 3d 05 51 b7 bc ae 7d 1c 3b
       -0.119378686 0.12199018 -0.0223775 0.0023878622
000010 da 28 76 3c 0e 12 00 bd 95 f8 58 3d e5 d7 83 bd
       0.015024388 -0.03126722 0.05297144 -0.06437663
000020 f7 fd dc bd 89 91 3c bd 7b 0f c6 3d 8f 0b 7b ba
       -0.107906274 -0.04603723 0.096709214 -0.00095766125
000030 b7 24 a0 3d 56 be b6 3d 03 36 06 3d e8 bc 0a 3d
       0.07819503 0.089230224 0.032766353 0.03387156
000040 06 d5 7c 3c 18 f5 6f bd aa 07 c1 bd 00 d0 83 3d
       0.015431648 -0.05858335 -0.0942529 0.06436157
000050 5c 75 bf bd 35 3e d3 bc ef 4c 8f bc b6 26 07 3c
       -0.093485564 -0.025786499 -0.01749274 0.0082489755
000060 b5 66 5d be 13 f1 ef 3c 75 dd 92 3d 31 2b 4f 3d
       -0.21621211 0.029289758 0.07171146 0.0505783
000070 de f5 4c bd de 02 83 bd 11 1b 8f bd d7 70 2b 3c
       -0.050039165 -0.06397031 -0.069875844 0.010463915
000080 bc 19 5b bd 4f 86 e8 3d b8 0e 36 bd 72 8a 5b 3d
       -0.05349134 0.11353742 -0.04444763 0.05359883
000090 6e 86 2e bd 5f 0b 69 bd f0 63 e2 3d 83 43 d6 bd
       -0.04260867 -0.05689561 0.11054218 -0.104620956
0000a0 2e bc 52 bd b5 63 81 3c 34 9e 6e 3d c5 05 81 bd
       -0.051448993 0.015794614 0.058256343 -0.062999286
0000b0 9c e1 0f 3d 3f 9c a6 bc d8 46 e1 3d db 28 49 be
       0.035127267 -0.020338176 0.109998405 -0.19644491
0000c0 7a 99 d9 bb c7 8b 5f bd 7a 42 b7 bc 04 bd 08 bd
       -0.0066406103 -0.05457666 -0.022370566 -0.033383384
0000d0 68 ad 2c bd e9 a8 8f bc ee b4 38 3e 69 d8 63 bd
       -0.04215756 -0.017536597 0.18037769 -0.055626307
0000e0 a6 ea c2 bd 60 f0 4f bc 4f d4 9c 3d 32 a1 93 3d
       -0.09517412 -0.012691587 0.07657682 0.0720848
0000f0 fb 1e 2c bd 82 2c 9a 3d a2 c4 88 bd d7 0b 61 3d
       -0.042021733 0.075280204 -0.0667813 0.054942932
000100 77 5a b8 bc 43 eb b4 3c 27 40 72 3d 3d f8 77 be
       -0.022504074 0.022084838 0.05914321 -0.24215789
000110 67 7e 54 3d 35 76 a2 bd 3e 35 16 3b 5e 57 15 bc
       0.05187836 -0.079327025 0.0022919918 -0.009115068
000120 0b 68 2b bb dd 2a ec bd 10 82 87 3d ab bb 5c bc
       -0.0026154544 -0.11531613 0.06616604 -0.013472478
000130 97 5f 63 bc 86 07 ab bc ea d8 97 bd b6 5f 19 bc
       -0.013877771 -0.02087761 -0.0741442 -0.009361198
000140 56 da 76 3c 68 45 b5 bc 16 5b 41 bd 35 e3 35 3e
       0.015066704 -0.022127822 -0.047206007 0.17762454
000150 6b 05 8f 3d 68 02 d5 3c 64 05 9f bd 8a f6 3a bd
       0.06983455 0.026002124 -0.077647 -0.045645274
000160 19 94 44 3d ac 47 bf bd d1 27 17 3e 3d 6b da 3d
       0.0479928 -0.09339842 0.14761283 0.10664985
000170 9b 87 2f bc dc 96 82 3d 4e 30 98 3d 03 a5 0e 3d
       -0.010713483 0.063764304 0.074310884 0.034825336
000180 b1 39 05 be 91 58 59 3d c9 d6 80 3d a2 d3 16 3e
       -0.13010289 0.05306298 0.06290967 0.14729169
000190 f3 8a e9 3b 5e d4 07 3e dd 87 cc bc c2 b6 0f 3e
       0.0071271597 0.13264605 -0.024967128 0.1403456
0001a0 26 1b b1 bd 9d aa a5 bd 1d 48 2c 3d c8 91 45 bd
       -0.08647756 -0.080891825 0.04206096 -0.04823473
0001b0 ad 5d 52 3d 44 47 08 be 17 11 db 3d 58 6a 8e 3d
       0.051358867 -0.13308436 0.10696619 0.06953877
0001c0 02 44 bc 3b 3c 9e f8 bd 4f f9 38 3c d9 38 e6 bc
       0.005745412 -0.12139556 0.011289909 -0.028103279
0001d0 60 8f 78 3b 74 58 91 bc 8a c4 bf 3d ca 22 09 bd
       0.0037927255 -0.017742373 0.09363659 -0.033480443
0001e0 19 37 68 3d 20 87 e5 bd 62 52 ad 3c 49 b9 95 bd
       0.05669317 -0.11207414 0.021157447 -0.07310731
0001f0 df 8c 0d be 63 75 7e 3d 04 3f 96 bb d2 c9 36 3d
       -0.1382327 0.062123667 -0.0045851488 0.044626065
000200 ad 3b 84 3d bb f7 ff bb 2e f7 54 bd 31 6b 13 3e
       0.06456695 -0.007811514 -0.05199354 0.14396359
000210 e3 ac 09 bd 7f 7d 50 3c 20 77 99 bd 05 0a 79 bd
       -0.033612143 0.012725233 -0.074934244 -0.06080057
000220 ae 07 33 be c0 df 45 3d ba 4d 9f 3d b8 4d 2a 3d
       -0.17483398 0.048309088 0.07778497 0.041578025
000230 d5 0c e2 bd 50 eb 69 3c 17 2f 5c bd a5 22 25 3e
       -0.11037604 0.014277294 -0.053755846 0.16126497
000240 72 ea 86 3c 15 d0 04 bc 22 22 43 3d 2c 05 58 3d
       0.016469214 -0.008106251 0.047639973 0.052739307
000250 27 fc 3c 3d f2 77 d5 3d 72 6e 86 bd b8 9a 22 3d
       0.04613891 0.104232684 -0.065640345 0.039698333
000260 88 e1 42 3c 50 b8 30 bc 4e 8b 0d bd 23 5c fd 3d
       0.011894591 -0.010786131 -0.03455668 0.12371089
000270 f6 41 02 bd 3f f7 85 3d 40 05 47 3c 7b 0a fe bc
       -0.031801187 0.06541299 0.012147248 -0.031010857
000280 42 e8 11 bd da 28 1b 3d 05 91 de bd 6b 63 2c bd
       -0.03562189 0.037880756 -0.10867504 -0.042087
000290 98 d7 8a bd be 10 89 3c 56 63 ea 3c c8 63 e3 bc
       -0.067794025 0.016731616 0.02861182 -0.02775754
0002a0 35 c2 2f bd 66 4f c8 bb 6e 04 11 3e a6 f6 b1 bd
       -0.04290982 -0.0061129807 0.14161846 -0.086896226
0002b0 3e 9a 9c bd 68 61 11 3e 36 5e 46 3e b3 52 c4 bd
       -0.07646607 0.14197314 0.19371876 -0.09586086
0002c0 69 2b 6e bd 8f 28 a1 3d 5c 67 e9 3d b0 ea be 3d
       -0.058146868 0.07869064 0.11396667 0.09322107
0002d0 dd 8d 49 3d 5e b9 00 3d 66 11 21 3d 66 77 c2 3b
       0.049207557 0.03142678 0.039323233 0.0059346436
0002e0 72 8c bd bc 07 9f a1 3d 90 98 f9 3b 09 3b f9 3b
       -0.023138259 0.0789166 0.007617064 0.0076059145
0002f0 3e 9f 81 3d 2f 2e f9 3d 8b bb af 3d 5a 8f 3f bd
       0.06329201 0.12167012 0.08580693 -0.04676757
000300 ab 68 86 3d ff f0 cf 3d 55 a5 36 be 38 8c 5b 3d
       0.065629326 0.10153388 -0.17836507 0.05360052
000310 c8 a3 05 3e 5b a2 ad be 0c c3 8d 3d 31 96 8a bd
       0.13050759 -0.3391293 0.06921968 -0.06766928
000320 74 fa 8b bd a1 75 6f 3d 8d ed 54 3d 7c bd 06 3d
       -0.068348795 0.05846179 0.05198436 0.03289555
000330 42 54 8f bd 5e 10 dc 3d 92 31 af 39 44 dc d0 3d
       -0.06998493 0.10745309 0.00033415534 0.10198262
000340 ee 4d 5a 3d 1c de 9b bd 22 b7 36 bd fd ca 1a bd
       0.053296976 -0.076107234 -0.044608243 -0.03779124
000350 3f 52 82 bd 01 6f 81 3d 3d af 30 3d a7 b9 24 bc
       -0.063633434 0.063200004 0.04313587 -0.010054029
000360 57 58 c6 bc 9f 9d 11 3e a5 39 ef bc a1 92 3c 3d
       -0.024212046 0.14220284 -0.029202292 0.046038274
000370 08 6f 7f 3b 38 78 83 bd a0 6b 23 3b 28 5a b9 3a
       0.0038976092 -0.06419414 0.0024935976 0.0014141249
000380 cb 4f 66 3e 75 44 48 bd 05 54 4d bd 47 69 f6 3c
       0.22491376 -0.04889341 -0.050128955 0.030079497
000390 73 20 1e be 5f f5 b0 bb f3 43 2b bc c7 da 33 bd
       -0.15442066 -0.0054003443 -0.010453212 -0.043909814
0003a0 b9 23 82 3e a0 51 ed bb f2 40 8f bc 04 27 fa bd
       0.2541788 -0.0072423965 -0.017487023 -0.12214473
0003b0 ac 70 8f 3d 8a 93 cb 3d 73 ea bc bc 30 a0 4d 3d
       0.07003912 0.0994025 -0.023061013 0.050201595
0003c0 05 f5 57 3c 58 a3 90 bd 7f bc ff 3d 8e 62 2b bd
       0.013180976 -0.07062405 0.12487125 -0.041842036
0003d0 f2 56 08 bd 0a 3d c5 ba c2 d1 db bb 72 0f f3 bd
       -0.033286043 -0.0015048098 -0.0067083547 -0.1186818
0003e0 1b 72 12 bd 84 af ae 3d fa 44 14 3c bf c6 31 3c
       -0.03575335 0.08529571 0.009049648 0.010850607
0003f0 2b 56 26 bd 12 ef a8 bc 97 9d 61 3d f7 15 99 bd
       -0.04060952 -0.02062181 0.05508193 -0.074748926

network_body._body_endoder.seq_layers.2.bias f4 [256]
000000 c4 7b 77 3c 28 08 1e 3a a7 e1 ac ba 31 8b 7e bc
       0.015105192 0.0006028437 -0.0013189808 -0.0155361155
000010 c4 85 52 bb 32 30 c6 bb cf 51 91 3b 4f 6c 5d 3c
       -0.0032123188 -0.006048226 0.004434801 0.013514592
000020 f2 61 bb ba 8e 84 6b 3a 8a 1e 5c 3c 13 05 32 3c
       -0.0014296158 0.0008984291 0.013435015 0.010865468
000030 c2 d5 3c 3c c5 ec d3 3b 41 3e 0e 3c 9e 3e d4 3a
       0.011525573 0.006467434 0.008681835 0.0016192978
000040 bf 97 a1 bb d7 5a 19 bc cc bb e2 bb 17 66 a1 bb
       -0.0049314196 -0.009360037 -0.00691936 -0.0049255
000050 f2 24 9f bb 53 14 96 3c 43 40 5a 3c f7 21 f8 bb
       -0.004856699 0.018320238 0.013320985 -0.0075724083
000060 46 a8 ae 3c 84 a2 0f 3b 36 4d 6a 3c 5c cf b8 3c
       0.021320473 0.0021916935 0.014300635 0.022559814
000070 4a 1f 36 3b 10 19 63 3b 10 fc af 3a ed 7a b8 3b
       0.0027789646 0.003465239 0.0013426561 0.0056298883
000080 c8 72 6e bb 61 98 6b 3c 3a 2f ff 3b 31 17 52 3b
       -0.0036384333 0.014379592 0.0077876123 0.003205728
000090 9e 6d 9e 3c 82 91 40 3b dc 8c 58 3c 8d 7a 24 bc
       0.019339379 0.0029383604 0.013217177 -0.010038984
0000a0 55 98 8d ba 52 72 0e bc d9 8d 7f 3c 0c b7 33 bb
       -0.0010802845 -0.008694248 0.015597784 -0.0027422337
0000b0 58 7b 51 3c b9 a4 67 3b 89 38 8b 3c 45 35 71 ba
       0.012785755 0.0035345985 0.016994732 -0.0009201358
0000c0 ab bd 59 3c f2 07 fc 3b de 71 0a bc a1 24 ed 3b
       0.013289849 0.007691377 -0.00845 0.0072370325
0000d0 73 ef fd b9 36 8e 7b 3c d4 a3 d3 3b 76 32 86 3c
       -0.00048434324 0.01535373 0.006458739 0.016381484
0000e0 a4 69 d9 3b 1e 1b 35 3a bb de ca 3c a4 06 69 3a
       0.006634908 0.0006908643 0.02476441 0.0008889234
0000f0 51 99 1f bc 7a b2 41 bb 53 c2 0f 3a 01 88 85 3b
       -0.009741143 -0.0029555843 0.00054839737 0.004075051
000100 a0 d2 0b 3b 05 57 79 3c 6a 9c 70 3c b6 79 43 3c
       0.002133526 0.015218501 0.0146857295 0.011930874
000110 0f 38 95 3c 6b 77 7d 3c 6d 05 a1 3b 93 08 0f bc
       0.018215207 0.015470366 0.004913977 -0.008730072
000120 36 50 41 3c d1 fe d3 3a b3 7d f4 ba 35 f2 28 3c
       0.011798909 0.0016173964 -0.0018653184 0.010311653
000130 bf a4 31 3b bb fe 38 3b 32 d2 ea 3b a4 b7 f0 3b
       0.0027106253 0.0028228003 0.0071661705 0.0073461104
000140 62 c7 81 bb f1 95 b6 3b 27 cb 04 3c b4 b9 33 bc
       -0.003960536 0.0055720736 0.008105076 -0.010969568
000150 4a 6e d5 bb bc 86 41 3c 7d 09 9e 3b 18 a7 21 3c
       -0.0065133916 0.011811908 0.0048229084 0.009866498
000160 86 1f e5 3b da 3e 17 3d 49 09 4a bb fa 92 83 bb
       0.0069922833 0.036925174 -0.0030828288 -0.0040153237
000170 83 9b 2b 3c 7d f4 82 3b fa 78 ca bb a0 c6 85 3a
       0.010474089 0.0039964304 -0.0061789723 0.001020629
000180 65 ee 31 3c 8a fc 8c bc 46 86 80 bb fd 61 81 bb
       0.01086006 -0.017210264 -0.0039222566 -0.0039484487
000190 ea 92 4c 3b eb 27 ae bb 15 c0 4c 3c 77 42 63 bc
       0.0031215497 -0.005314817 0.012496968 -0.013870827
0001a0 32 cf b5 bb 55 6a 24 bb c3 ba 0b 3a 69 94 87 3c
       -0.0055483812 -0.0025087793 0.0005330259 0.01655026
0001b0 78 1b a4 3b 8e 98 74 3a c6 a1 69 bb 78 89 10 3c
       0.0050081573 0.0009330594 -0.0035649403 0.008821838
0001c0 a5 2b 46 3c b2 fa d1 3c 01 ca a3 3b 06 15 ed 3b
       0.012095367 0.025632236 0.004998446 0.007235172
0001d0 3e 15 ca 3b c4 92 86 3c 87 43 09 bb 94 79 e3 3b
       0.006167083 0.016427405 -0.002094479 0.0069419835
0001e0 f6 f0 5b bb 05 11 81 3c 8d 9d 61 3c fc e8 3d 3c
       -0.0033560372 0.015755186 0.013770473 0.011591192
0001f0 a5 55 fb ba df 38 67 3b 76 18 f6 bb 1e 6b d0 3a
       -0.0019175304 0.00352817 -0.00751024 0.0015901064
000200 25 4a 8f 3c ef d2 93 3b f7 f7 b8 3b da 63 87 3c
       0.01749141 0.004511229 0.005644794 0.016527105
000210 f5 b5 e6 ba fb ff ab 3b 19 57 98 3c ef 67 80 3b
       -0.0017601835 0.005249021 0.018596219 0.00391864
000220 c4 c4 e2 b8 d9 fe f4 3a fd 4a 96 3a 52 1e e9 bb
       -0.0001081317 0.0018691673 0.001146644 -0.00711421
000230 cc f0 48 3b a8 ed 4c 3c 46 56 ac ba d3 48 94 39
       0.0030661104 0.012507834 -0.001314827 0.00028283018
000240 b5 5f c6 bb 66 04 47 3c 80 fb f3 ba e2 db 42 bc
       -0.0060538896 0.012147045 -0.0018614382 -0.011893244
000250 35 e0 b6 3b cd a6 8a 3b c0 ca 96 3c 6d fe 80 3c
       0.005580927 0.00423131 0.018407226 0.01574632
000260 e7 1b e1 bb 6f 4c 04 3c 0b 4b 9b 3c 6d db 33 3b
       -0.0068697813 0.008074864 0.018956682 0.002744402
000270 29 c8 0f bc 87 bf 0d 3b 10 99 1d 3c e4 26 cc bb
       -0.008775749 0.0021629052 0.0096190125 -0.006230222
000280 13 34 08 3b cf 55 ce 3b 8a 21 f4 3b 5b 8c 0e 3c
       0.0020782992 0.0062968503 0.007450287 0.008700456
000290 d0 ad bd bb a2 bd e5 bb ee 4e 18 bb 2d 0f 8d ba
       -0.0057885423 -0.0070111314 -0.0023240405 -0.0010761969
0002a0 80 5b 07 3b f4 de f5 3b 98 fb dc 3b 32 f2 37 bb
       0.0020653903 0.0075033847 0.0067438595 -0.0028067944
0002b0 72 59 6b 3c d4 55 2d 3b a3 1e fc 3b 7a 33 f5 34
       0.014364587 0.0026448863 0.007694082 4.567226e-07
0002c0 f1 a3 2c 3c 8c 39 98 bb d8 89 57 3c ad 16 56 b9
       0.010537134 -0.004645532 0.013155423 -0.00020417078
0002d0 b0 81 65 3c 70 15 57 3c f6 0c a9 39 3e 8d 1e bb
       0.014007971 0.01312767 0.0003224385 -0.0024193074
0002e0 fe c1 cc ba 84 20 f9 3b c8 48 22 3c 65 6c 71 3c
       -0.0015621779 0.007602753 0.009905048 0.014735316
0002f0 c1 67 39 3b ae dc b0 3c ff 58 cb 3b 48 f5 af bb
       0.0028290602 0.021589603 0.0062056775 -0.005369816
000300 40 4a 49 bb d3 bb e5 3a cf af 15 3c dc a0 fa ba
       -0.0030714422 0.001752729 0.009136154 -0.0019121426
000310 9a 08 27 3c 06 2b 94 b8 fd a8 2e 3c 88 6e 0b 3c
       0.010194922 -7.065204e-05 0.010660407 0.008510239
000320 ec ae 14 3c 52 0b 12 bb f3 78 93 bb 09 4b 01 3b
       0.009074908 -0.002228458 -0.0045005023 0.0019728562
000330 3a d4 86 3c 5e d1 60 bb 09 e5 79 3a e5 3a 8d 3c
       0.01645862 -0.003430448 0.0009532725 0.017239997
000340 e2 82 4e 3c c3 19 07 bc c4 1c 0b 3c 1e bc 1e 3c
       0.012604447 -0.008245888 0.008490745 0.009688405
000350 0f 12 8a 3b 0e f0 6e ba e2 61 74 3b aa 3e 31 3c
       0.0042135785 -0.00091147504 0.0037289788 0.010818163
000360 ec 89 fe 39 29 14 84 3b c4 24 41 bb 57 c9 0d b9
       0.00048549415 0.0040307236 -0.0029471377 -0.00013521813
000370 9b 4e af 3b c2 8b 9a bb ad 1d 4a 3c f7 d9 1a bb
       0.0053499467 -0.0047163675 0.012336177 -0.0023628452
000380 d1 6e 9f 3b 5a 61 c9 3c 24 d6 18 bb 91 dc 9f 3b
       0.0048655053 0.024582554 -0.0023320997 0.0048785885
000390 40 d3 bd 3b 34 f8 6c 3c 52 96 1b 3b 56 98 f7 bb
       0.005793005 0.014463473 0.002374072 -0.0075560017
0003a0 cc 7a 5f 3b 03 e7 92 bb 32 8a ff 3b 06 5f 22 bb
       0.0034100292 -0.004483105 0.0077984566 -0.0024775877
0003b0 15 59 31 3c 3d d9 8a b9 37 6e ba bb df 53 87 3c
       0.0108244615 -0.00026483266 -0.005689408 0.016519485
0003c0 5d ca 51 bb db ac 1c 3c 55 91 85 3b c0 70 a9 3a
       -0.0032011487 0.009562696 0.004076163 0.0012927279
0003d0 4a be 34 3c 1d de 30 3c f1 2c f1 3b 60 5e 27 bb
       0.011031697 0.010795143 0.0073600938 -0.002553843
0003e0 c2 74 47 3c 71 14 1e bc ab 36 9a 3c 9a 82 ee bb
       0.012173833 -0.009648428 0.018824896 -0.0072787525
0003f0 b2 d8 19 bc a6 a3 11 3c 45 d0 82 3b d2 3d a4 bb
       -0.009390043 0.0088891145 0.003992113 -0.0050122524

network_body._body_endoder.seq_layers.2.weight f4 [256, 256]
000000 a0 ba 04 be 5e 76 bd 3b 99 4c 0f 3c 5a b7 b8 bc
       -0.12961817 0.0057819327 0.00874629 -0.022548366
000010 44 c3 af bc bc b5 96 bc 48 02 18 be 25 e6 43 3d
       -0.021455415 -0.018397205 -0.1484462 0.047826905
000020 d5 68 0d 3e 1e 3e be 3c 93 6c 02 bd c3 f7 45 3d
       0.13809521 0.02322298 -0.031841826 0.048331987
000030 dd 23 c6 bb 57 5f b8 bd ab b3 66 3d ca cb 86 3d
       -0.0060467557 -0.0900256 0.05632369 0.065818384
000040 29 fa d1 bd 7c 0f 14 bd 77 aa 0b bd 24 e6 33 3d
       -0.102527924 -0.03614758 -0.034098115 0.04392065
000050 31 ab df 3d d3 59 22 3d b5 cc 29 3e 0b 23 3b bd
       0.10921324 0.039636444 0.16581996 -0.045687716
000060 db eb a8 3d 18 5f b8 bb 2e 13 1c 3d 7b e2 83 3d
       0.08248111 -0.0056265704 0.03810423 0.06439682
000070 35 e4 09 3c 30 e3 76 bc 35 0a 7b bd 9d 1e 21 3d
       0.008416225 -0.015068814 -0.06128903 0.039335836
000080 8c f0 25 bd d1 8e 8d 3d d0 d2 24 bd 97 b3 af bc
       -0.040512607 0.06912006 -0.04024011 -0.02144794
000090 1a 38 99 bd 1f 10 d2 bd 75 e4 71 3c 90 aa 76 3d
       -0.07481404 -0.10256981 0.014763941 0.060221255
0000a0 28 53 10 3d 46 50 3a bd 46 b6 f5 3d 06 e5 77 3d
       0.035235554 -0.04548671 0.119976565 0.06052115
0000b0 8d b9 27 bd 4e fe 2c 3c b6 13 ff bc f2 88 8e bc
       -0.04094844 0.010558678 -0.031137329 -0.017399285
0000c0 60 7b 6f bd 64 15 a2 3d 49 82 0f bd f0 8e d5 bd
       -0.05846727 0.07914236 -0.03503636 -0.10427654
0000d0 e2 5a 91 bd ed 3f c3 bc 63 93 99 bc 6a f5 8a bd
       -0.07097413 -0.023834193 -0.018747037 -0.0678509
0000e0 3b f4 5c 3c 6b da 1c 3c 0c 4c 95 bc 5a 1e 91 3a
       0.013485963 0.009573559 -0.018224739 0.0011071668
0000f0 11 6e 1b 3d 5e 5c bf 3d 56 21 08 3e 27 8b bd bc
       0.037946764 0.093437895 0.13293967 -0.023137642
000100 1a 8e 38 3d 63 cc a2 bd 30 0d ef bc d2 5f 49 3d
       0.045057394 -0.0794914 -0.029181093 0.049163647
000110 42 11 e7 3c f3 c1 80 3d 78 f6 b3 3d f9 68 67 3b
       0.028206471 0.06286993 0.087872446 0.0035310371
000120 1f 2b 42 bd 72 e1 e2 3c bb 15 e4 bc 2b 84 4b 3e
       -0.047404405 0.027695391 -0.027842393 0.19874637
000130 21 e0 05 be c4 7f 22 bd fb f9 a1 3d 88 87 93 bc
       -0.1307378 -0.039672628 0.07909008 -0.018008962
000140 fe b9 3f bc 75 c8 c8 3d b3 d1 9e 3c dc 11 b1 3b
       -0.011702059 0.09803859 0.019387102 0.0054037403
000150 41 51 c0 3d 1c 2a bc 3d 81 ed ae 3c fa 69 f0 bc
       0.09390498 0.09187719 0.021353485 -0.029347409
000160 99 0d fd 3b cb 0a 6f bd f7 6a 08 3d 31 9b 71 3c
       0.007722568 -0.058359902 0.033305135 0.014746473
000170 38 75 9b bd c0 d1 af bd a0 2c 8c 3b 3d 3f 0e 3d
       -0.07590717 -0.085849285 0.0042777807 0.034728277
000180 76 6a c3 3d 94 9a bf bd 63 92 8d 3c ae 3f b7 bd
       0.0954179 -0.09355655 0.017281717 -0.08947693
000190 71 60 fd 3d a9 3a 4d bd 7f 7c 49 3e 23 69 94 3d
       0.1237191 -0.05010477 0.19676398 0.07246616
0001a0 4b 0f 5a bd 1c 41 18 bc 71 9b ad 3d 99 52 af 3d
       -0.05323724 -0.009292867 0.08476914 0.08560676
0001b0 28 29 c0 bc ba 0a f9 3c 88 7a 05 be 07 47 20 bd
       -0.023457125 0.030400623 -0.13035023 -0.039130237
0001c0 6d 52 21 bd c2 fb de 3c b4 d9 3b 3c ed 33 a8 bd
       -0.039385248 0.027219657 0.011465479 -0.08213029
0001d0 7a 23 a9 bd 77 ec 77 bd a4 65 c7 3c 77 ee e4 3b
       -0.0825872 -0.060528245 0.024340458 0.006986435
0001e0 92 9b c3 bc cf 47 f6 bd 2e 24 cd 3b aa af 53 3d
       -0.023877893 -0.12025415 0.0062604165 0.0516812
0001f0 a8 00 64 3d 03 41 56 3c 22 e6 d6 bb cb 3f 0f bd
       0.05566469 0.013077023 -0.0065581957 -0.034972947
000200 00 02 91 3a 56 41 98 3c f0 ed 77 3d 7f 65 0f bd
       0.0011063218 0.018585842 0.06052965 -0.035008904
000210 00 30 cb 3c 36 0e da bc ec d5 28 bd 4e 3f c4 3d
       0.024803162 -0.026618104 -0.041219637 0.09582387
000220 ef aa 31 3d 2b d3 a0 3c 75 48 8c bd b8 c5 1c 3d
       0.043375906 0.019631943 -0.068497576 0.038274497
000230 8b ea 48 3c 0b c4 30 3c 00 bb 3c 3d 90 1c a8 bd
       0.012262951 0.010788928 0.046076775 -0.08208573
000240 89 31 92 b9 51 45 c2 bb 15 31 77 bd cf b4 7c 3d
       -0.00027884197 -0.0059286733 -0.060349543 0.06169587
000250 85 c8 e3 bc 3f b0 1d bd 09 72 c8 3d 3a e2 85 3d
       -0.027805576 -0.03849816 0.097873755 0.0653729
000260 d9 65 ee bc ed 16 ae bd 4f cf 7d 3d d9 91 f8 bb
       -0.0291013 -0.085004665 0.061965283 -0.007585746
000270 20 84 94 3d 07 b4 5c bd 83 7f 3f bd 9c 28 ac bd
       0.07251763 -0.053882625 -0.046752464 -0.08406183
000280 1b 28 f0 3c 0b d3 2f 3e 88 0a 02 bd a3 e8 e5 3c
       0.029315999 0.1717035 -0.031748325 0.028065031
000290 d4 2a ff bd d4 ce 16 3d 60 67 0c be a9 26 79 3c
       -0.12459341 0.03681834 -0.1371131 0.015206971
0002a0 e9 09 6d 3b c2 93 30 bd 46 93 b7 3c 6e 2b cc bc
       0.0036169237 -0.043109663 0.022409093 -0.024923053
0002b0 f1 5c 11 bc 25 b9 ba 3a b6 84 54 3d 01 87 d7 bc
       -0.008872257 0.0014245851 0.051884376 -0.026309492
0002c0 a1 14 69 bc ff 89 b1 3c cf b6 bd 3d 06 e2 96 bd
       -0.01422611 0.021672247 0.092633836 -0.07367329
0002d0 06 19 9b bc d0 7d e7 3d 5d 8d 57 3d a5 42 95 bd
       -0.01893283 0.11303294 0.05262505 -0.07288102
0002e0 53 b3 97 3d 16 af 48 bd af 55 e1 bb ac f4 1e bd
       0.0740725 -0.0489951 -0.0068766694 -0.038807556
0002f0 fb 31 d3 bc e4 dd 2a 3c 0d 08 33 3d e3 60 08 3e
       -0.025780668 0.010428879 0.04370885 0.1331821
000300 c4 de b6 bc 3c f9 ad bc cf e4 7e 3d cb 0e b7 3d
       -0.02232302 -0.021237008 0.062229928 0.089383684
000310 0e 56 26 bd d4 65 b5 3d 46 87 aa bc 3b 91 a4 3d
       -0.040609412 0.08857313 -0.020816457 0.08035513
000320 80 f0 ce 3d 8e 6b 41 3d 51 1d e5 3c bb 04 dc 3d
       0.101044655 0.047221713 0.02796808 0.1074309
000330 c3 c5 88 bc 26 b8 3d 3d e2 e3 d0 3c ae 6c 0b bd
       -0.016695863 0.046318196 0.025499288 -0.034039192
000340 2c 40 f9 bc 74 1f c8 bc 8a f4 76 bd 3d 16 eb bc
       -0.030426107 -0.02442906 -0.060291804 -0.028697127
000350 f0 b4 71 3d 93 72 f0 bc c4 4c b0 3c 5b 5f ab 3c
       0.059010446 -0.029351508 0.02152098 0.020919492
000360 74 c2 83 bd a2 6d e0 ba 13 06 93 bd 33 57 42 bc
       -0.06433573 -0.0017122517 -0.07178893 -0.01186161
000370 4a d2 2d 3d bf 0d c3 bd ca cd af bc 34 82 c5 bc
       0.042436875 -0.09524106 -0.021460433 -0.024109937
000380 33 a9 71 bc ad 30 88 3c f5 14 54 3d 79 1b 0e 3d
       -0.014749813 0.016624773 0.0517778 0.03469417
000390 87 7f a7 3c bd 3a 41 3d d2 44 23 be 16 4d f6 bb
       0.020446552 0.047175158 -0.15944222 -0.0075165136
0003a0 ac 1b 64 bd cb 8b 1a bd c3 28 25 bc b0 14 cb bc
       -0.055690452 -0.037730973 -0.010080519 -0.024790138
0003b0 20 e7 eb bb b3 0c 7f bd 61 af ac 3d 9f 32 c4 bd
       -0.007199183 -0.06226797 0.08431888 -0.09579968
0003c0 05 2c 67 bd e7 bf a9 ba 96 20 29 bd c6 ed 1a 3d
       -0.056438465 -0.0012950868 -0.041290842 0.037824415
0003d0 4e 99 03 3e 94 77 5b bc 04 5e 23 3d f4 c8 2f 3c
       0.1285145 -0.013395209 0.039884582 0.010729063
0003e0 f0 0e b1 3d df f3 9f 3c 08 07 4c bc 4f 1f b3 bd
       0.08645427 0.019525466 -0.012452848 -0.08746206
0003f0 b0 22 ee 3c 84 77 01 3e 8f dc 6e bd 34 dc 2d bc
       0.029069275 0.12643248 -0.05831581 -0.010611583

network_body._body_endoder.seq_layers.4.bias f4 [256]
000000 f5 18 4c 3c 98 16 54 3c f8 45 8e bb 7d 88 6b bb
       0.012457122 0.01294484 -0.004341837 -0.0035939508
000010 0f 66 72 3c ea fb e0 3b 82 e2 42 3c 5b 08 4f 3b
       0.0147948405 0.006865968 0.011894824 0.0031590674
000020 21 47 56 3c 3c 2b 98 3a 85 a3 93 3b 23 d8 3a bc
       0.013078482 0.0011609565 0.004505577 -0.01140407
000030 4f 8b a8 3a 77 3b 98 bb 70 7a 57 3c 22 96 9c 3b
       0.00128589 -0.0046457606 0.01315175 0.0047786394
000040 9c ec e5 3b e7 f8 78 bb df 54 15 bc 78 ab 19 bc
       0.0070167314 -0.0037990154 -0.009114473 -0.00937926
000050 4b aa 4d 3c ee d7 47 ba af f2 d9 3b ab 1d fa 3b
       0.012552808 -0.00076234236 0.0066512446 0.007632931
000060 9a 69 1f bc d7 72 2d bc 4d a9 32 bb 7d 74 fe ba
       -0.009729767 -0.010586462 -0.0027261556 -0.0019413378
000070 cd 9d 47 bb f1 4c 31 bb d2 54 e3 3b 07 69 1b bc
       -0.0030459047 -0.0027053917 0.0069376016 -0.00948549
000080 85 0f f3 b8 48 0f fc 3a 1e 20 36 3c ad 9c 30 3c
       -0.00011590034 0.0019230628 0.011116056 0.010779542
000090 c6 ec 7a 3c f3 d5 5d 3c bb 46 bc 3c fd ee be 3c
       0.01531524 0.013539779 0.022982946 0.023307318
0000a0 0d 17 5c bb 35 dd 36 3c 55 6b c1 bb 45 d4 e4 3a
       -0.0033583075 0.011161138 -0.0059026876 0.0017458281
0000b0 f2 ba 9d 3c 57 09 cc ba 23 b0 90 3c 1f c1 96 bb
       0.019254182 -0.0015566748 0.017662114 -0.0046006585
0000c0 fd 09 4e bc 79 19 ff ba d3 88 76 3c 48 b3 aa 3a
       -0.012575624 -0.0019462547 0.01504727 0.0013023401
0000d0 00 9d a2 3c 10 1d 11 ba 5a 2d 58 38 d9 53 1e bb
       0.019850254 -0.00055356417 5.154065e-05 -0.0024158864
0000e0 3e 94 4a 3c 2e 8d 8a 3b c6 99 42 3c 8c e0 30 bc
       0.012364445 0.0042282557 0.011877483 -0.010795724
0000f0 c4 86 4a 3c c2 7d d3 3a c2 32 1e bc fe 46 40 3b
       0.012361232 0.0016135501 -0.009655656 0.002933919
000100 8a 8c a1 bb f6 be af 3b 84 43 5a ba a6 da 01 3c
       -0.0049300836 0.0053633405 -0.00083261007 0.007925665
000110 69 41 2e 3c 85 c4 83 3c 15 1f cf 3b 87 db 96 3c
       0.010635712 0.016084919 0.006320844 0.018415226
000120 a5 22 cd 3a 2b 24 ca 3b 8a d6 60 3c 1b f6 71 bb
       0.0015650584 0.0061688623 0.013723025 -0.0036920372
000130 3e 4f 65 3c 11 21 4f 3c 1f ed 83 3c 63 95 8e 3b
       0.013995944 0.012642161 0.01610428 0.0043513044
000140 ce a8 ac 3c c8 e6 6e bc eb d7 e5 3b 79 f7 2e bb
       0.021076586 -0.01458139 0.007014265 -0.0026697798
000150 cc b9 79 3b 45 c5 eb b9 4e 0c 90 3c e0 2b eb bb
       0.0038105128 -0.0004496967 0.017583992 -0.007176861
000160 c7 41 ce ba 6f 1c 42 3c 9c e8 6d 3c 02 b1 b8 3b
       -0.0015736156 0.011847599 0.01452079 0.0056363354
000170 3c 73 16 3b 47 01 25 bb 43 9e 5f 3c 99 2e 46 bb
       0.0022956869 -0.0025177763 0.013648572 -0.0030240177
000180 2c 33 80 3b eb 0e 90 3c 5f a3 c8 3b ae fa f0 bb
       0.00391235 0.017585238 0.006122991 -0.007354102
000190 dd 4b 79 3b 0c e6 32 bc 08 85 1b ba 56 b9 9c 3b
       0.0038039603 -0.010919105 -0.0005932604 0.004782836
0001a0 33 da 05 bc d1 b9 6b 3c 7a 7c 85 3c 54 95 c1 bb
       -0.0081696985 0.014387564 0.016294707 -0.005907694
0001b0 0c 07 a1 3c 3b ac 03 3c 0a ed ab 3c d8 e6 68 3c
       0.01965668 0.008036668 0.020987052 0.014215194
0001c0 bd 77 d7 ba 98 93 60 3c 5c e5 5a 3c 8b 3e 7c 3c
       -0.0016438883 0.013707064 0.013360348 0.015395771
0001d0 91 35 36 3c c6 b8 96 bb 43 7e 7e bb 62 e8 87 3c
       0.01112117 -0.0045996634 -0.0038832582 0.016590301
0001e0 a9 73 34 ba e2 1f 8f bb 73 7c 24 3b 37 0b 61 bb
       -0.000688369 -0.0043678144 0.0025098592 -0.003433896
0001f0 26 40 11 bb 53 37 4f 3c 96 c3 2d bb c5 70 74 3c
       -0.002216348 0.012647468 -0.0026514283 0.0149194645
000200 49 f5 15 3c 3d 0f 71 3c 7c 53 6f 3c 1a b2 e1 3a
       0.009152719 0.014713106 0.014607307 0.0017219216
000210 69 ec bb bb d0 36 80 3a 0f 20 df bb 8a 10 7b 3c
       -0.0057349694 0.000978196 -0.0068092416 0.015323767
000220 68 a1 98 3c 7f 7c 42 bc a6 14 3e 3c 08 ed c9 39
       0.018631652 -0.0118705025 0.011601603 0.0003851431
000230 ae ee 99 bb 24 94 31 3b 2f ba aa bb 01 ce 8a bb
       -0.0046976423 0.0027096355 -0.005210183 -0.0042359834
000240 35 d5 1e 3c 10 e5 0c 3c dc 89 d5 3b 69 de 1f b9
       0.009694387 0.008599535 0.0065166783 -0.00015246276
000250 87 9b bf 3a 64 fd 9f 3c 80 04 54 bb b1 a7 d1 b7
       0.0014618494 0.019530006 -0.0032351315 -2.4992829e-05
000260 37 ae c9 ba cb 54 7e 3b 06 6b 2e 3a 4d 97 b8 3a
       -0.0015387003 0.0038807865 0.0006653521 0.0014083177
000270 6c 5d 82 3a a7 9c d0 bb 70 95 11 3c f5 2e 16 3c
       0.0009946055 -0.0063663307 0.008885726 0.009166469
000280 17 4c 61 bb 7b 9e 25 bc dc b2 4c 3b a9 14 93 bb
       -0.0034377628 -0.0101085855 0.0031234538 -0.004488547
000290 cf 28 7b 3c d8 eb 18 3c 30 d3 5a 3b 7e c7 17 3c
       0.015329554 0.009333573 0.0033390038 0.009263871
0002a0 db 42 96 3c 07 ea 1f bb 27 19 2d bc be 12 85 3c
       0.018342426 -0.0024400966 -0.010565079 0.016244289
0002b0 f3 26 64 3c 5a 9f eb bb 35 f4 e1 3b d7 b1 99 37
       0.013925302 -0.007190627 0.006895567 1.8321834e-05
0002c0 41 2b ca 3c 0d 84 2f 3c 5f 09 2a 3b 92 e3 24 3c
       0.024678828 0.010712636 0.0025945527 0.010064023
0002d0 26 0e 83 3c 06 13 39 3c 0f a5 45 3b e6 f0 68 3c
       0.015997957 0.011296039 0.0030158197 0.014217591
0002e0 40 04 4d bb 59 ef e1 39 f1 c3 ca 39 b3 cc 14 3c
       -0.003128305 0.00043093672 0.0003867443 0.009082007
0002f0 1e be 1a 3c 98 2f 0f bb 7e a8 ee bb 03 b3 66 3b
       0.0094447415 -0.0021848436 -0.0072832694 0.0035201914
000300 95 26 0b 3c 2a 42 c5 bb 8a ce c2 3b 68 2d ec ba
       0.008493085 -0.0060198503 0.0059450315 -0.0018018903
000310 90 a0 4b 3b 6a 86 2a 3c 62 7b 2f 3c a2 3c 4b bc
       0.0031071045 0.010408023 0.010710569 -0.012404593
000320 a5 f0 8d 3b c6 bf 2b bc dc 32 9d ba 89 61 74 3c
       0.0043316656 -0.010482734 -0.0011993307 0.014915832
000330 4a db 02 b9 4b c8 0f 3c 34 4c 46 bb 75 2e 4f bb
       -0.00012479458 0.008775781 -0.0030257823 -0.0031613384
000340 24 fd 33 3b 8b 19 f7 ba e4 a6 6c 3c a6 62 e8 3b
       0.0027464116 -0.0018852217 0.014444087 0.007091838
000350 f7 19 c2 3b 0b 09 41 3c 70 5d b2 3b 4c f7 97 3c
       0.0059235054 0.011781941 0.0054432675 0.018550538
000360 0d 8d a8 bb a7 0e 8e 3b b3 f1 2e 3c bf 2b 9e 3c
       -0.0051437677 0.004335243 0.010677743 0.01930797
000370 c0 d8 f4 3b 72 1d b5 bb 89 b5 df 3b 3c 40 29 3c
       0.0074721277 -0.005527192 0.0068270606 0.010330256
000380 d3 a9 47 3c f4 84 19 bc 30 37 1a bc 46 b6 9e 3c
       0.012186485 -0.009370077 -0.009412572 0.019374024
000390 da 44 0e 3c 4d fa 82 ba 6a d3 15 3c c8 64 82 3b
       0.008683408 -0.0009992808 0.009144643 0.003979299
0003a0 0b 37 00 3b 86 3a 07 3b 28 0d b4 ba 43 00 8f 3a
       0.0019564058 0.0020634248 -0.0013736831 0.0010910112
0003b0 43 82 d5 3b da cf 58 bb a0 d7 c5 3c 7e 63 03 bc
       0.0065157725 -0.0033082874 0.02415067 -0.008019326
0003c0 79 48 9f 3c 96 97 1b bb 92 95 94 3b 56 19 5b 3a
       0.019443737 -0.0023741475 0.0045344317 0.00083579624
0003d0 f1 f5 81 3c a1 6a ac bb d5 ed 98 3b 71 83 98 3c
       0.015864344 -0.0052617346 0.0046670237 0.018617364
0003e0 c4 b2 46 3c 34 b7 8b 38 03 d8 74 bb fd 39 1f 3c
       0.012127582 6.662161e-05 -0.0037360198 0.009718415
0003f0 3d 78 b2 3c 4d 9f 29 3a 6f 45 41 3c 28 00 26 bb
       0.02178585 0.0006470576 0.011796339 -0.0025329683
