Assets/Training/results/RUN2/SzitakotoBehavior/SzitakotoBehavior-8999984.onnx (onnx, 670607 bytes, 13 tensors)

65 f4 [132]
00000000: 143b 6d3e 3fee 473e d250 993e 4751 3e3e
00000010: 95d1 8f3e 3d0f 4d3e d0d5 ac3e 0e56 4b3e
00000020: 8d13 303e 0efa 3a3e 8fe2 803e 0468 313e
00000030: ec1b 9f3e 94dc 463e f8fc b63e 5357 533e
00000040: ab83 183e bbae 2c3e 7075 693e f344 233e
00000050: 9bd3 a43e 2b82 423e b7aa ba3e 42c8 553e
00000060: 056f 2f3e bb77 233e 2d19 723e 958f 153e
00000070: 5eee 9c3e b308 443e a6c2 b43e 8f83 523e
00000080: 483a 523e 7a25 2d3e 7725 883e 2092 103e
00000090: 8efd 883e f744 4e3e 0334 a83e 848b 4c3e
000000a0: d33a 5e3e 1d32 2d3e 667f 8c3e bf57 113e
000000b0: 516c 6d3e 4d18 483e fd6e 983e 44b8 3a3e
000000c0: 12ee 8f3e 093c 4d3e 8131 ac3e 14f4 473e
000000d0: 663d 303e 3521 3b3e 1e68 7f3e 7f57 2d3e
000000e0: c238 9f3e 9d0a 473e e16c b63e 443a 503e
000000f0: 17ac 183e 6dd5 2c3e 1ba0 663e cac8 1e3e
00000100: aaf1 a43e a7c0 423e a410 ba3e c089 523e
00000110: 71a7 2f3e 589e 233e 6182 6f3e e1a8 103e
00000120: 260e 9d3e 3b50 443e b022 b43e e672 4f3e
00000130: 4b7d 523e 244e 2d3e 3311 873e 5880 0b3e
00000140: 191d 893e 6176 4e3e 0a82 a73e c26f 493e
00000150: d17f 5e3e 8e60 2d3e 137a 8b3e bb4f 0c3e
00000160: fa9d 6d3e 2b42 483e 908c 973e d302 373e
00000170: 630b 903e e267 4d3e e44a ab3e 4871 443e
00000180: 5a66 303e 5c47 3b3e 2101 7d3e 013d 293e
00000190: 6c55 9f3e 7437 473e 03d9 b53e cf0d 4d3e
000001a0: d9d6 183e 22fa 2c3e c2c8 633e 2c34 1a3e
000001b0: 010f a53e f1f3 423e 837c b93e 8b52 4f3e
000001c0: 00e2 2f3e cac4 233e 62ce 6c3e b574 0b3e
000001d0: 072e 9d3e b593 443e f380 b33e a462 4c3e
000001e0: f3bf 523e 1077 2d3e ccf1 853e a031 063e
000001f0: 1a3c 893e 6aab 4e3e 64b1 a63e 1e13 463e
00000200: d5c6 5e3e 058f 2d3e 3f64 8a3e af23 073e
0.23167068 0.19524477 0.29944474 0.18585692 0.28089586 0.20025344 0.33756876 0.19857046
0.17194958 0.18259451 0.2517285 0.17324835 0.3107599 0.19420081 0.35739875 0.2063878
0.14893977 0.1686353 0.22798705 0.15944271 0.32192692 0.18994968 0.3645837 0.20877174
0.17132194 0.15963642 0.23642416 0.14605553 0.3065061 0.19143943 0.35304755 0.20557998
0.20530045 0.16908827 0.26591083 0.14118242 0.26755947 0.20143496 0.32852182 0.19975096
0.21702127 0.16913648 0.27440947 0.14193629 0.2318585 0.1954052 0.29772177 0.18234354
0.2811132 0.20042433 0.33631518 0.19526702 0.17210922 0.18274386 0.24942061 0.16927908
0.3109799 0.19437642 0.35629943 0.20334727 0.14909397 0.1687829 0.22522013 0.15506282
0.32215625 0.19018804 0.3634082 0.2056036 0.17153718 0.15978372 0.2338958 0.14126922
0.30674857 0.1917123 0.35182714 0.20258674 0.20555608 0.1692434 0.2638031 0.13623178
0.26780012 0.20162345 0.327164 0.19671538 0.21728446 0.16931364 0.27241573 0.1370229
0.23204795 0.19556491 0.29599428 0.17872171 0.28133687 0.2005916 0.33455575 0.19183838
0.17226544 0.1828894 0.24707462 0.16527177 0.3111986 0.19454747 0.3551713 0.20024799
0.14925708 0.16892293 0.22244552 0.15058964 0.3223801 0.19038369 0.36227807 0.20246331
0.17176056 0.15993038 0.23125604 0.13618739 0.3069918 0.19196971 0.35059318 0.19959503
0.20581035 0.1693995 0.2616104 0.13104868 0.26803666 0.20182577 0.32557213 0.1934323
0.21755536 0.16949089 0.27029607 0.13197206

68 f4 [2]
00000000: a116 133e b664 893e
0.14364101 0.2683465

action_model._continuous_distribution.log_sigma f4 [1, 2]
00000000: ee0d 5ebc 3a5c 5b3c
-0.013553126 0.013388688

action_model._continuous_distribution.mu.bias f4 [2]
00000000: 5761 f93b 1eb8 0a3c
0.0076104808 0.0084667485

action_model._continuous_distribution.mu.weight f4 [2, 256]
00000000: daaf 153b 98f2 063d a6bc d4bc 45cb 2ebc
00000010: d838 263d f29e 0cbd eeb5 063c 4117 303c
00000020: 2087 503c 7a12 bcbc c55f 02bd 061e 01bb
00000030: 4777 c5bb 2f34 aebc e7b9 d13c 2fc7 23bd
00000040: dfe3 53bc 4d19 af3b a370 a73a f2a6 8bbb
00000050: b259 353c 15f2 1dbd 8d61 2dbd 3c41 c2bc
00000060: 876f 57bc 4b23 c7bb add9 d7bb be89 0cbd
00000070: 6ac5 05bd 9234 69bc baea cdbc a973 1f39
00000080: f98f c8bc 7eaa 22bd 135e bb3c 4152 ff3c
00000090: 56bc 173d 590e de3c 1fb8 c93c 3305 c33c
000000a0: c4a2 0ebd 9041 d23c 4c77 e0bb 05e9 b4bc
000000b0: 9380 f03c 311f d8bc 67e6 db3c 38c6 d0bc
000000c0: eef3 b7bc 9f54 07bb e9b9 453d 0d84 a23c
000000d0: 0493 8a3c ab72 2bbd 601c 41bd a0e7 aebc
000000e0: 01e8 253d bc93 52bd 8ad4 123d edd0 22bc
000000f0: 2242 8e3c 9d53 f0bc c3d2 3ebc 1608 4abd
00000100: e8fd a8bc 3df1 a1bc 0d08 83bc f107 e0bc
00000110: 7a14 8f3c d8c1 063d c3c7 cfbb b751 303d
00000120: d3bd f7bc 3c50 b33c 1223 c13c 2088 05bd
00000130: 3c24 7a3c ba70 133d 8a1e 033d 84e6 4cbd
00000140: 37fa bb3c 4a94 30bb 78c8 223d 4d1a 40bc
00000150: 9ec7 2dbd c328 01bd 529f c03c 1c3b 1ebc
00000160: 8dfe 01bd 5a55 d73c 5299 873c 28da 4abd
00000170: 12f3 16bd 0570 fabb 2dc0 093d 37cc 643b
00000180: b8b7 473c 9aee a43c 9262 be3c 612c f6bb
00000190: b8d0 81bc 6b00 18bc 1b0e 583c 2f42 073d
000001a0: 9290 2d3a 06c5 de3b 2342 bb3c f595 373c
000001b0: 743b 0e3d d985 1ebd c774 b03c 4bf9 f83c
000001c0: 83d4 24bc 0ef4 b93b b34f 3c3d 1e1d 443d
000001d0: dcaa 883c 18ee 7cbb ae56 dcbc 6a65 1b3c
000001e0: d78a 28bd 79a6 bcbc 32c6 b53c f770 29bd
000001f0: b6d5 bbbb d556 1c3c 7229 34bc 2283 163d
00000200: f76b ebbb 8c92 c63c edfa 6e3c bc8f bebc
00000210: 4c21 d4bc 9902 6dbb 764b 08bb 10f1 f53c
00000220: 8832 823c fe88 7d3b bab0 eb3c 1ece 98b9
00000230: 0eb7 00bd ad86 11bd c96d 1fbc c959 31bc
00000240: 2b80 2aba bcf3 0fbb e6b8 90bc 0d6d 0cbd
00000250: 2e6f 1dbd 6dbc 973c 9cbf 01bd 3037 ff3b
00000260: b82d 00bd a48a c5bc b6bf 23bd 3fd6 bb3c
00000270: 9d65 ecbc c635 79bc 5669 e73c 706f 033c
00000280: ed35 e2bc bab2 76bb dbcd f93c 2d22 d2bc
00000290: 997f ec3c d0e8 d1bc f95c f6bc 81f6 0b3d
000002a0: 7e8c 283c 7ab0 88bc 881e fbb8 f73c 223c
000002b0: f8e8 b23b 632d d5bb 28f6 9b3c d149 21bc
000002c0: 5d2c d33c 6ee6 e2bb 953e 973c 3d09 d5bb
000002d0: 892f bc3c 6ab8 65bc 7646 883c 9b38 983c
000002e0: b581 abbc beac 0dbd 5a3f b4bc dd75 e33b
000002f0: 2f5d 223c b921 48bc 5116 afbc 5589 2ebd
00000300: a4e8 5e3c ec60 febb f956 1ebb 36cf adbb
00000310: 2456 8fbc eb62 f9ba beb2 47bd 55a6 59bb
00000320: 2821 1d3c 25d8 d2bc 0501 f5bc b837 c73c
00000330: 3c04 eabc bd99 c03c 0fbc ba3b fcf9 65b9
00000340: bde3 03bd 60ce 443c 878a 453c 777b 083d
00000350: 9e74 8dbc 5af6 883c 3c8f 643c 64e6 503c
00000360: 6563 ec3a 27cf 6cbd d539 093c 907d ed3c
00000370: 8867 bd39 5bc9 5cbc d139 deba eb46 a0bb
00000380: 8f56 1e3c 9fc1 81bb 2e8f 67ba bf6d 983c
00000390: d939 193d 87d4 003c bce6 9a3c d94c 3fbd
000003a0: 1a31 24bd 00a1 14bd 755c 93bc 079a 8d3c
000003b0: 720b ab3c 658a fbbc 2a97 7d3d a488 30bc
000003c0: d95b 803c 5b74 9cbb 021b 993c 5431 2dbd
000003d0: b5e2 c73c 9416 c1bc 76e2 ba3c dd3d f43c
000003e0: 9c4f 5dba 3710 13bd 8bdc c8bc 28c5 81bd
000003f0: d217 163d 8f43 04bd 6189 9c3c 6f89 b73b
0.0022840411 0.0329462 -0.02596886 -0.01066858 0.040581554 -0.03433127 0.008222086 0.010747732
0.012727529 -0.022958029 -0.031829614 -0.0019701733 -0.006026182 -0.021265117 0.02560134 -0.03998488
-0.012932747 0.0053435923 0.0012774657 -0.004261845 0.011068748 -0.038560946 -0.04232936 -0.023712747
-0.013149149 -0.0060772053 -0.0065872283 -0.03431105 -0.03265897 -0.014233725 -0.02513634 0.00015206508
-0.024482714 -0.039713375 0.022872007 0.031167151 0.037044846 0.02710645 0.024623929 0.02380619
-0.034823194 0.025666028 -0.006850159 -0.022083769 0.029358184 -0.02638206 0.026843263 -0.025485143
-0.022455182 -0.0020649803 0.048273 0.019838357 0.016915806 -0.041857403 -0.0471462 -0.021350682
0.04050446 -0.05141042 0.035847224 -0.009937507 0.017365519 -0.029336745 -0.011646929 -0.049324118
-0.020628884 -0.019768352 -0.01599505 -0.027347537 0.017465819 0.032899708 -0.006340952 0.04304668
-0.030241882 0.021888845 0.023576293 -0.032600522 0.015267428 0.035996176 0.032011546 -0.050024524
0.02294646 -0.0026943856 0.039741963 -0.011725021 -0.042426698 -0.031533014 0.02351347 -0.009657647
-0.0317369 0.026285816 0.016552601 -0.049524456 -0.036852904 -0.0076427483 0.03363054 0.003491176
0.012189798 0.020133305 0.023240361 -0.0075126146 -0.015846595 -0.009277443 0.013186957 0.033022102
0.0006620969 0.0067983894 0.022858685 0.011205186 0.034724668 -0.038701866 0.021540059 0.03039231
-0.010060432 0.0056748455 0.045974445 0.04787933 0.016683035 -0.0038594063 -0.0268968 0.009484628
-0.041148033 -0.0230286 0.022189233 -0.041367497 -0.0057322634 0.009542187 -0.010996209 0.03674615
-0.0071845013 0.0242398 0.014586193 -0.023261897 -0.025894783 -0.0036164878 -0.0020796931 0.030022174
0.015893236 0.003868639 0.028770793 -0.00029145268 -0.031424575 -0.035528827 -0.009730765 -0.010824629
-0.0006504084 -0.0021965345 -0.017666291 -0.034283686 -0.038436107 0.018522466 -0.031676874 0.0077885613
-0.0312936 -0.02411396 -0.03997775 0.022929309 -0.028857047 -0.0152105745 0.02824847 0.008022174
-0.027613604 -0.003764315 0.030493667 -0.025651062 0.028869437 -0.025623709 -0.03007363 0.03417063
0.010287402 -0.016685713 -0.000119742996 0.00990223 0.005459901 -0.0065056547 0.019038275 -0.009844259
0.02577799 -0.006924442 0.018462459 -0.0065013454 0.022971885 -0.0140210185 0.01663516 0.01858168
-0.020935873 -0.034588568 -0.022002865 0.0069415406 0.009909912 -0.012215071 -0.021372946 -0.04261144
0.013605271 -0.007763019 -0.0024160726 -0.0053042425 -0.01749713 -0.0019026672 -0.048754446 -0.0033210714
0.009590425 -0.025737831 -0.029907713 0.024318561 -0.028566472 0.023510808 0.005698688 -0.00021932268
-0.03219961 0.012012094 0.012056953 0.03332087 -0.017267521 0.016719032 0.013950165 0.012750242
0.0018034993 -0.057814743 0.008375605 0.028990537 0.00036126026 -0.013475741 -0.0016954486 -0.0048912666
0.009664192 -0.003959849 -0.0008833286 0.018607019 0.037408683 0.0078631705 0.01890885 -0.046704147
-0.04008589 -0.036286354 -0.017988423 0.01728536 0.020879481 -0.03070564 0.06191174 -0.010774765
0.015668796 -0.004774613 0.018689636 -0.04228337 0.024400095 -0.023570336 0.022813063 0.029814655
-0.00084423437 -0.035904136 -0.024519226 -0.06336433 0.03664381 -0.03229099 0.019108476 0.0056011

network_body._body_endoder.seq_layers.0.bias f4 [256]
00000000: 2d6d e03a 6639 6eba 352d 883c 72aa bc3b
00000010: a11e 7d3b 22ac b13a 1954 983b 21a5 263c
00000020: 8c97 73bc d19b fa3b 497d 983c 771a d43c
00000030: 5ec7 39b9 721b 6e3c e524 48bb 5247 cb3b
00000040: 099e 163c 9013 803b c7bc a83b 1c78 003c
00000050: f243 973c 4a61 a63b 5588 683c 4e36 933a
00000060: a92d 223b 5f6b 873c 5837 0e3b a5db d93c
00000070: cc5d 5f3b d9b7 863b 8d3e 3bbc 8879 163a
00000080: 95c4 2a3a 5257 013c 26e7 8d3c 8690 853c
00000090: daf6 9ebc 9785 e33b 3801 cf3b 9e21 023c
000000a0: 3f1b 543c 8af1 763c 9436 173c 34b6 a9bb
000000b0: c77f 753a 351e b53c a489 663c 0e2c a8ba
000000c0: d7b9 0c3c 13b8 213c a7d9 533b 42bd 50bb
000000d0: 0a76 9fbb f1db 053c c595 7c3c 5c6c 4ebb
000000e0: 630a 953c 476a e53b 9781 363c 549b 4e3a
000000f0: 5494 15bb e9e6 023c 84be edba 1fdb ecbb
00000100: 4801 403c 726a b2bb 36e3 a83b 1c2d 6e3c
00000110: 4caa 7c3c 2241 1e3c ec8c 0a3c 3951 b3bb
00000120: 007f b13c d516 ee3b 4ef8 0a3c f978 9b3c
00000130: aca2 f5bb a7d5 ccbb d2c6 1b3d 4050 71bb
00000140: 6b61 5c3c 39ec 0a3c 142f 843b af03 acbb
00000150: 641b 6a3c ea4d ec3c 6dd1 22bb c329 9e3a
00000160: 055c 5539 06b9 cd3c 73e4 493b 74c4 0d3c
00000170: 601d 283d 1739 87bb 9aed f9ba e8cb f4b9
00000180: 7934 003c 91c4 94b9 f2d7 c0bb 0b3d 173c
00000190: 53bb 453b 9c15 cc3a e220 b93b d795 8e3c
000001a0: c785 bf3b b9b2 0a3c 754a 8f3a 54ee c53b
000001b0: 6660 623c e0f0 e33a e03b 7d3c 8d8c 163b
000001c0: fb05 8cba 6673 66bb 72a4 2f3c d09c 01bb
000001d0: ceea 413c cd41 e03b 7889 4b3c 2c5f da3b
000001e0: 6058 f9bb 2854 41bb 1ad1 4b3b ef6b 013d
000001f0: 2fd1 65bb fbe3 f93c 668d c4ba 2500 ce3b
00000200: 1913 623c cb8c 2ebc f0d3 55bc 2d11 06bc
00000210: 6bd5 5f3b 1b48 973c 9003 833c 87b3 ec3b
00000220: 0190 683b b9fd 473c 2693 9a3b 5b43 d63b
00000230: c0ce 213c 0d43 cf3b 5f14 c439 0d8e 183c
00000240: 54ab 983c d0fe 20bb 639b 81bb 41fa b13b
00000250: 1ee0 243c ee09 823c cdb1 ca3c 037a 663c
00000260: 9a94 aabb 6ad2 80bb 07da 053b fe0d fdb9
00000270: 24ec 243b fcfa 02bc f093 bc3b f5f6 913b
00000280: 274f c838 43bd b7b9 ea1c 18bb 1780 f03a
00000290: e402 95bb 2070 613c 5e7e 1bbc 228a 44bc
000002a0: d30e 5f3a be8d 1b3b 0f11 5d3c befe 063b
000002b0: 89ea 0abc e125 7c3b 6512 8d3c dfe0 393c
000002c0: c9e3 9ebc b2a3 7a3b a34e 503b 0bca 3a3c
000002d0: 28fa b2ba d1d8 373b 6def 863c aa98 22b9
000002e0: 12ae b3bb ed8d 7f3c f606 503c 4913 a2bb
000002f0: da7e 843c d3a5 3ab8 a112 203c 9b91 ef3c
00000300: 3599 0c3b de10 3b3a aaab 9ebb dfcb b83b
00000310: 3ead 133c 447d 5dbb 69ce aa3c 6a02 393c
00000320: 40af 0bbc e3e0 f43b dbd2 923c a975 263d
00000330: 5a90 3b3c 9e75 dcbb fd38 763c 4b12 8b3c
00000340: 659d bf3b cf9b 3b3c 56a3 21bc fb2f 883c
00000350: 5542 453b 733c 2a3c 7f3b 933b 9088 b83b
00000360: 8a0e c33b aa16 553c 7c13 98bb df78 a638
00000370: 60ea b33b 6e3c 1c3c 7199 ff3a fe8d e5bb
00000380: cd07 0c3c ea18 2a3b 607d 18bc ec09 513c
00000390: 6393 6d3c 0d01 b4bb 639a 093c 89f4 333c
000003a0: 5797 cc3b dd0e 853c 2d24 913b 0bb9 8e3c
000003b0: 398a 343a d59f eb3a 7fa8 ffba ea96 863c
000003c0: 6a47 b7bc cb6a 283a a2ad 31bb 15df be3a
000003d0: 4038 053d f657 233c b753 033b fbec 2ebb
000003e0: 73b2 4d3c 7144 093c 0dcb b63c b59b aabb
000003f0: 82ee b13b 53a5 243c 4b07 0e3b ed0d e03a
0.0017122381 -0.00090875325 0.016623119 0.0057576234 0.0038622993 0.0013555328 0.004648697 0.010171206
-0.014867675 0.0076479693 0.018614428 0.025891526 -0.00017717245 0.014532911 -0.003053957 0.0062035704
0.009192952 0.003908582 0.005149457 0.007841136 0.018465016 0.0050775157 0.01419266 0.0011231394
0.0024746454 0.01653069 0.0021700468 0.026593992 0.0034083007 0.004111272 -0.0114284875 0.00057401555
0.00065142784 0.007894354 0.017322134 0.016304266 -0.019404817 0.0069434154 0.006317284 0.007942585
0.012945949 0.015072236 0.009229321 -0.005179191 0.00093650486 0.02210913 0.014070902 -0.0012830512
0.00858923 0.009870547 0.0032325776 -0.0031851088 -0.0048663663 0.008170114 0.015416567 -0.0031497693
0.01819343 0.0070011946 0.011139295 0.0007881422 -0.0022824006 0.007989624 -0.0018138443 -0.0072282697
0.0117190555 -0.005444818 0.005154039 0.014537122 0.015421461 0.009659084 0.00845645 -0.005472329
0.021667004 0.0072659054 0.008482052 0.018978583 -0.0074961986 -0.0062510553 0.038031407 -0.0036821514
0.013450961 0.008479171 0.0040339325 -0.0052494626 0.014288757 0.028845746 -0.0024844066 0.0012066889
0.00020347543 0.02511264 0.0030806332 0.008652795 0.04104364 -0.0041266787 -0.0019068003 -0.0004669123
0.00782501 -0.00028375213 -0.0058851177 0.009230862 0.0030171468 0.0015570405 0.005649672 0.017405434
0.005844805 0.008465462 0.0010932224 0.006040374 0.0138169285 0.0017390512 0.01545617 0.0022971958
-0.0010682935 -0.0035163998 0.010720359 -0.0019777305 0.011835767 0.0068437816 0.012422912 0.0066641774
-0.007609412 -0.0029499624 0.0031099976 0.031597074 -0.003506731 0.030504217 -0.0014995753 0.0062866383
0.013798499 -0.010653685 -0.013051018 -0.008182806 0.0034154307 0.018467 0.01599291 0.0072235498
0.0035486224 0.012206488 0.0047172485 0.006538791 0.009875953 0.0063251317 0.0003739921 0.009311211
0.018636383 -0.0024565943 -0.003955291 0.005431444 0.010063199 0.015873875 0.024742985 0.014067176
-0.005205703 -0.0039313333 0.0020424144 -0.00048266345 0.0025165165 -0.00799441 0.00575494 0.0044544884
9.5514864e-05 -0.0003504549 -0.0023210593 0.0018348721 -0.0045474637 0.013759643 -0.0094905775 -0.011995824
0.0008508984 0.0023735608 0.013492837 0.0020598616 -0.008478769 0.0038474726 0.017220685 0.011345117
-0.019395726 0.0038244543 0.0031785152 0.01140071 -0.0013654875 0.0028052817 0.016471589 -0.00015506396
-0.0054833973 0.015597803 0.012696972 -0.0049461466 0.016173769 -4.450029e-05 0.0097700665 0.029244235
0.0021453623 0.00071359973 -0.0048422413 0.0056395377 0.009013472 -0.0033796588 0.020850377 0.011292079
-0.00852567 0.0074730976 0.01792281 0.040639553 0.01144799 -0.0067278882 0.0150282355 0.016976496
0.0058476203 0.011450722 -0.0098656025 0.016624441 0.0030099351 0.010390389 0.0044931765 0.005631514
0.005952661 0.013005892 -0.0046409946 7.938011e-05 0.005490586 0.009535892 0.0019500685 -0.007005452
0.008546782 0.0025954791 -0.0093072355 0.012758713 0.014500472 -0.0054932893 0.008398625 0.010983595
0.006243627 0.016242439 0.0044293613 0.01742222 0.0006887052 0.0017976711 -0.0019505172 0.016429383
-0.02237292 0.0006424605 -0.002711155 0.0014562333 0.032524347 0.009969702 0.0020038912 -0.0026691544
0.012554753 0.008378134 0.022313619 -0.00520655 0.0054300437 0.010049182 0.0021671827 0.0017093994

network_body._body_endoder.seq_layers.0.weight f4 [256, 134]
00000000: 5647 f5bd 5a6b f93d ae73 b5bc 2d03 1d3b
00000010: a315 743c fdfe ffbc 57ca 583d 091d 84bd
00000020: 9dbb ddbd 7ff8 3fbd 9562 c73d 8721 21ba
00000030: e797 a03d 7d86 b53d a6dd 063d 0530 0b3d
00000040: 7668 743c d427 72bd 0107 c0bd 6172 843d
00000050: 7ad4 bebd 050d dbbc d6ad 8dbc 123a 0b3c
00000060: c56c 5dbe 274d ed3c 3d4f 933d 9694 503d
00000070: 0700 4dbd 01df 85bd 91b4 8dbd 5e40 313c
00000080: cc31 5cbd d2f7 e63d fc15 33bd 9e08 5f3d
00000090: 1288 2ebd 7512 6dbd 627a e33d 0443 d5bd
000000a0: 1fa3 54bd 5b95 813c a38d 6f3d c59f 7ebd
000000b0: a7be 113d 3a5e adbc d670 e23d 8065 48be
000000c0: bcfb d8bb 42ee 60bd 46a8 b4bc c764 06bd
000000d0: 1a65 2fbd 4998 9cbc c947 3a3e d3be 5ebd
000000e0: 8344 c2bd 60a7 59bc 9f62 9d3d 2dcf 943d
000000f0: 26fb 2dbd dbb4 983d bc0c 87bd b083 653d
00000100: 8caa b5bc 9d0d ac3c f4e8 733d f33f 77be
00000110: 65fb 523d 63fa a2bd 6be3 323b 682f 08bc
00000120: 6711 34bb b7f8 edbd 1ba1 883d a280 53bc
00000130: bac6 67bc 508b b2bc 14ee 95bd fe00 08bc
00000140: ad21 6c3c 9393 bcbc dd11 3dbd cca7 363e
00000150: a824 8e3d 65e1 d43c 4867 9ebd bba5 37bd
00000160: 92a9 453d 697f bfbd 3913 173e 007c da3d
00000170: d60e 33bc b62b 823d 30cd 983d 7de1 0e3d
00000180: ee07 06be 271d 573d f165 823d 8f5c 173e
00000190: 0e3f e83b 9c53 073e 6325 c9bc 5710 103e
000001a0: ce2f b1bd 9c1f a6bd b326 2d3d be5e 43bd
000001b0: 6789 533d 0530 09be 4c55 db3d baa4 8f3d
000001c0: fc6d ae3b 24d5 f8bd 3118 3e3c 8151 e2bc
000001d0: 5988 723b b705 90bc 2dc2 bf3d f8ce 09bd
000001e0: ea08 663d 7c95 e5bd c43a b03c f24e 94bd
000001f0: a7ac 0dbe 1880 7e3d 89e8 92bb a019 353d
00000200: 8065 833d 8801 03bc c243 53bd 2e10 143e
00000210: a2c7 07bd a763 5a3c 1129 9abd 26d3 77bd
00000220: 0adb 32be 5b0a 453d 37ad 9e3d 4fc6 2d3d
00000230: cbf3 e1bd d29e 693c bb35 5bbd 96c0 253e
00000240: d4c6 813c 3156 0dbc 2dd9 413d 047a 5a3d
00000250: 89d2 3d3d 33b6 d53d 832e 86bd 66b2 223d
00000260: 2b9d 403c a222 35bc 0ff5 0ebd a653 fc3d
00000270: 007c 00bd f04e 863d eb89 473c 03b9 fabc
00000280: 7866 13bd 2e8e 193d b3ab dfbd e6de 2cbd
00000290: edb0 89bd bbdc 8a3c 6df2 e73c aa52 dfbc
000002a0: 7713 30bd 497a bfbb 1bb2 103e 692f b1bd
000002b0: 2618 9cbd 2da6 113e 55b7 463e 0f22 c3bd
000002c0: afa8 70bd c343 a03d 95a0 e83d 2b1e bf3d
000002d0: a8db 4a3d 61f0 013d 4d83 1f3d 2884 d23b
000002e0: 2cbc bbbc 9145 a23d fabd fe3b eab3 fc3b
000002f0: 493c 813d 888f f93d 21d7 ae3d 3174 40bd
00000300: 0b6a 873d caab d03d 22e8 36be 86f9 5a3d
00000310: 3fd9 053e b083 adbe 49dc 8c3d dc27 8abd
00000320: 101d 8bbd 86a5 703d cfd3 533d 102f 093d
00000330: 65fb 8fbd 4080 dc3d c9ab d435 b4cd d03d
00000340: 2db9 5b3d c343 9bbd e1d2 36bd 6f17 19bd
00000350: 0cc8 82bd d8d3 823d 58c7 2d3d d1f6 26bc
00000360: 3c23 c0bc affe 113e ce19 efbc 2d21 403d
00000370: b6f8 593b a492 84bd 06d7 133b dc04 073b
00000380: 5e41 663e cd5d 49bd 920a 4ebd 31be f63c
00000390: 76f3 1dbe 716d b5bb f09e 34bc 1935 34bd
000003a0: bf54 823e f2e6 e8bb 6523 95bc fdfe fabd
000003b0: 2717 913d 3de3 cb3d a6d1 bdbc 4739 4e3d
000003c0: 4836 563c 02f5 90bd 30ca fe3d 7fde 29bd
000003d0: d29d 06bd 78d6 a4ba f42f e0bb c5c6 f1bd
000003e0: eb36 14bd 844b ae3d cc75 0d3c 8885 3a3c
000003f0: 45fc 24bd 72e3 a8bc 09ad 603d 9bf0 97bd
-0.11976497 0.12178679 -0.022149887 0.0023958192 0.014897737 -0.031249518 0.05292734 -0.064508505
-0.108268 -0.046867844 0.097356 -0.00061466586 0.07841473 0.08863542 0.032926224 0.033981342
0.014917484 -0.059120014 -0.09376336 0.064671285 -0.093178704 -0.026739607 -0.017294805 0.008497732
-0.21623524 0.028967453 0.07192848 0.050922953 -0.050048854 -0.06536675 -0.06919206 0.010818569
-0.053758428 0.11277737 -0.043722138 0.054451577 -0.042610236 -0.05787893 0.11107327 -0.10413173
-0.051913377 0.015818289 0.058484685 -0.062164087 0.03558221 -0.021163095 0.11056678 -0.19569969
-0.006621806 -0.05491472 -0.022052895 -0.032810953 -0.042821027 -0.019115584 0.18191446 -0.054381203
-0.09485724 -0.013284534 0.07684826 0.07266078 -0.042475842 0.074563704 -0.06594226 0.05603379
-0.02217605 0.021002585 0.059548333 -0.24145488 0.05150928 -0.07957914 0.0027296196 -0.008312084
-0.0027476193 -0.11619704 0.066713534 -0.012909086 -0.014146501 -0.021794945 -0.073208004 -0.008301018
0.014412326 -0.023019588 -0.046159614 0.17837447 0.069405854 0.025986383 -0.07734543 -0.044835787
0.048257418 -0.093504734 0.14753427 0.106681824 -0.01092883 0.063559934 0.074610114 0.03488301
-0.13088962 0.052518036 0.063671 0.14781402 0.007087595 0.13215488 -0.02455396 0.14068733
-0.08651696 -0.08111498 0.042273235 -0.047697775 0.05164471 -0.13397224 0.107096285 0.07013841
0.0053231698 -0.12150028 0.011602447 -0.027626755 0.003700754 -0.01758085 0.09363208 -0.033644646
0.056160845 -0.112101525 0.021512397 -0.0724162 -0.13835393 0.06213388 -0.0044832868 0.04421389
0.06415844 -0.007995971 -0.05157829 0.14459297 -0.03314937 0.013329423 -0.07527364 -0.0605041
-0.1746637 0.04810558 0.07747882 0.04242545 -0.11032828 0.014259057 -0.05351804 0.16186747
0.015841879 -0.008626507 0.047326256 0.05333902 0.04634336 0.10435142 -0.0655184 0.039720915
0.011756222 -0.01105562 -0.034901675 0.12320642 -0.031368256 0.06558025 0.012178878 -0.030605799
-0.035986394 0.03748911 -0.10921421 -0.04220476 -0.06723199 0.016950956 0.02831384 -0.027261097
-0.042987313 -0.005843435 0.14130442 -0.08651621 -0.076217934 0.14223547 0.19405873 -0.095279805
-0.05875462 0.078254245 0.113587536 0.09331926 0.049525887 0.031723384 0.038943578 0.0064244457
-0.022916876 0.07923425 0.007774112 0.007711877 0.063103266 0.121855795 0.08537126 -0.04698581
0.06612023 0.10189016 -0.17861989 0.05346062 0.13071154 -0.33889532 0.068779536 -0.06745884
-0.067926526 0.058751605 0.05171567 0.033492148 -0.070303716 0.10766649 1.5845227e-06 0.10195485
0.053643394 -0.07581284 -0.044634704 -0.037375864 -0.06385812 0.06388062 0.042426437 -0.010190682
-0.023454301 0.1425731 -0.02918711 0.04690664 0.0033259816 -0.06473282 0.0022558584 0.0020602262
0.22485873 -0.04916172 -0.05030305 0.030119987 -0.15424904 -0.005536728 -0.011024222 -0.04399595
0.2545528 -0.007107609 -0.018205354 -0.122556664 0.07084494 0.09955452 -0.023171257 0.050347593
0.013074465 -0.070779815 0.12440908 -0.041471954 -0.032865353 -0.0012576124 -0.006841654 -0.118054904
-0.036185186 0.08510497 0.008634042 0.011384375 -0.040279645 -0.020616267 0.05485252 -0.07418939

network_body._body_endoder.seq_layers.2.bias f4 [256]
00000000: 078e 7a3c 75b2 2539 832d 91ba a35f 78bc
00000010: aae0 42bb 3316 b7bb 0a31 983b 8e6a 603c
00000020: d14e 8dba fcc4 373a 3585 5d3c 3716 3a3c
00000030: de98 3a3c d3e4 e33b 8c9a 0d3c 25c2 053b
00000040: 39aa a4bb d914 1cbc c6ef e0bb 43ce a9bb
00000050: 99c5 9cbb fcba 9a3c ad60 583c de5d fbbb
00000060: 77a7 b03c 4fb6 f93a 08be 683c 9cb6 b93c
00000070: 8a38 4e3b 07a3 823b 8fe0 e23a 52cd b23b
00000080: 0110 5ebb eaf3 6b3c f69f 063c 2ddf 4c3b
00000090: 1615 9f3c 6ee3 4a3b 15b4 553c 3d1b 27bc
000000a0: 3744 a1ba 7d90 0fbc 33cf 7e3c f926 30bb
000000b0: 12cf 513c 6958 663b 7ca2 8c3c 152b 66ba
000000c0: 1c58 5d3c 1b34 003c 9322 11bc 619c ea3b
000000d0: 11b6 38ba 2ff9 813c 9b3d e23b c521 873c
000000e0: 9a22 dc3b d119 153a 1c12 cc3c c263 df39
000000f0: 9e43 1ebc e040 30bb 70e8 d939 4bd6 8d3b
00000100: 0eaf 183b 42c0 7a3c 4665 703c 2e6f 423c
00000110: c044 963c baee 7e3c 5ff9 b43b 8e0c 0fbc
00000120: 03cb 413c 8df9 ad3a e73f bcba 362b 273c
00000130: d708 2d3b b3f1 423b e266 f93b 173c f83b
00000140: 0702 80bb abb9 bd3b ad1a 0c3c 0d6d 32bc
00000150: fc45 dbbb 9fbc 423c 5e4d a23b 5545 213c
00000160: 1ba9 df3b 11a2 183d 0c91 56bb e1e2 89bb
00000170: 2c9a 2a3c 43bc 843b c989 e0bb af76 5c3a
00000180: 3e3a 343c fc8b 8ebc bee9 94bb c28a 95bb
00000190: ad70 593b 2fe0 a1bb ff92 4a3c 08c8 5fbc
000001a0: 4c49 b6bb 64a8 29bb 2805 2e3a f5a9 8a3c
000001b0: 6ec0 a33b e5e5 533a e101 61bb 4f4e 193c
000001c0: 6e39 453c 1732 d83c 75b4 b23b 99dc ef3b
000001d0: 86d3 d03b c0e4 863c 9032 03bb 77f2 dd3b
000001e0: 5a84 5fbb ebfd 813c 07d0 6b3c 2889 3f3c
000001f0: 07ac 14bb 9905 733b 3dab ebbb 7532 983a
00000200: c620 8e3c 9243 913b 6099 bd3b c5b7 883c
00000210: 9a59 fbba 3c57 ab3b 17b7 993c 729b 873b
00000220: b6f0 3fb9 88bf 073b 7990 8e3a 94ca f0bb
00000230: 7fc5 3e3b e910 4b3c cb62 caba 1273 3c3a
00000240: ad7a c2bb fc9b 403c abc0 a8ba 0ef2 40bc
00000250: bef7 bf3b 8fd4 8b3b bf25 9c3c aaba 813c
00000260: 3305 d9bb 63c7 0b3c 3b88 9d3c 27e3 433b
00000270: 6738 10bc 8a52 1e3b 5a91 1f3c cfbc c7bb
00000280: f044 f83a f167 d73b 76d3 023c 3e25 0e3c
00000290: 898f b6bb 8289 e6bb 037c 1abb fb3b adba
000002a0: df0e 243b 9f6f 003c 55f5 ef3b cef1 3dbb
000002b0: 4f68 6d3c 90d4 223b 26fd f73b 2346 e839
000002c0: 4bd2 2b3c 9b76 a0bb adcf 533c 87a2 1cb9
000002d0: 7863 633c 9294 573c 3fff 0b3a 2db1 37bb
000002e0: e6f5 8fba 509a 013c 50a6 1c3c 9f24 7d3c
000002f0: 2454 213b 75fe b43c fd74 dd3b e8fb b7bb
00000300: f7a8 5cbb e486 c63a ba7a 203c bc80 fbba
00000310: 441b 2f3c 6fbd b4b8 1b71 313c e2c1 0f3c
00000320: 4c6a 1b3c e99c c6ba a467 90bb 2298 ed3a
00000330: 263f 883c ab00 3fbb ec10 d03a a304 903c
00000340: 9169 523c de35 08bc 813e 0b3c 585e 1d3c
00000350: 5c69 7c3b 9ab2 16ba 356d 633b b7ca 323c
00000360: a80d e739 4468 8a3b 3891 44bb 011e 7839
00000370: 85de c03b 1d31 8cbb ef1e 4b3c 06b3 0cbb
00000380: de41 9a3b fae6 ca3c 4c84 00bb 98c3 a03b
00000390: c3e6 bd3b 50fd 703c 139a 213b 0724 edbb
000003a0: e88d 703b dc10 95bb 43a2 083c c4f3 09bb
000003b0: 27eb 2e3c 32a0 3d39 32d0 c3bb 0f3f 883c
000003c0: 574f 48bb ee94 1b3c c5a7 993b 0698 693a
000003d0: b973 363c 2119 353c 9f88 f03b ebec 0fbb
000003e0: dfbf 4f3c 1452 1dbc ef88 993c 61be efbb
000003f0: f3c7 11bc cf66 1b3c 9cbf 753b 0de3 9dbb
0.015292651 0.00015802107 -0.0011076186 -0.01515952 -0.002973596 -0.005587363 0.004644518 0.01369728
-0.0010780935 0.0007010249 0.013520529 0.0113578355 0.011388985 0.006954768 0.008642804 0.0020409909
-0.005025175 -0.009526455 -0.0068645207 -0.005182059 -0.0047842977 0.01888799 0.013206643 -0.007671102
0.021564228 0.0019051525 0.014205463 0.022670083 0.0031466805 0.0039867195 0.0017309355 0.005456605
-0.003388405 0.014401415 0.008216849 0.0031260953 0.019419234 0.0030958313 0.013043423 -0.010199365
-0.0012303655 -0.008762476 0.01555233 -0.0026878698 0.012805717 0.0035147911 0.017167322 -0.00087802234
0.013509776 0.007824923 -0.008858341 0.007159755 -0.0007046173 0.01586589 0.0069043166 0.016495595
0.006717992 0.0005687746 0.024910979 0.000426082 -0.009659676 -0.0026894137 0.00041562645 0.004328524
0.00232977 0.015304627 0.014672583 0.011867328 0.01834333 0.015559847 0.0055228914 -0.008731021
0.011828187 0.0013273224 -0.0014362306 0.010203173 0.0026402974 0.0029746115 0.0076111415 0.0075755226
-0.0039064917 0.0057899556 0.008551282 -0.010890258 -0.0066916924 0.011885791 0.0049530705 0.00984319
0.006825579 0.037263934 -0.0032740263 -0.0042079543 0.010412734 0.004050763 -0.006852363 0.0008410019
0.011000214 -0.017400734 -0.004544466 -0.0045636604 0.0033178732 -0.004940055 0.012364148 -0.013658531
-0.005562937 -0.0025887722 0.00066383416 0.016926745 0.0049973046 0.0008083268 -0.0034333395 0.009357049
0.012037618 0.026391072 0.005453641 0.0073199985 0.006372872 0.016466498 -0.0020019151 0.006773289
-0.0034105987 0.015868148 0.014392859 0.011690415 -0.0022685544 0.0037082194 -0.007192044 0.0011611717
0.017349612 0.004433104 0.005786106 0.01668919 -0.0019176484 0.005228905 0.018764062 0.0041384036
-0.00018304851 0.0020713527 0.0010876796 -0.007348368 0.0029109416 0.012394168 -0.001544082 0.00071887777
-0.0059350342 0.01175594 -0.0012874802 -0.01177646 0.0058583906 0.0042672823 0.019060967 0.015836079
-0.0066229342 0.008531424 0.019229999 0.0029890032 -0.00880251 0.0024158084 0.009739244 -0.006095506
0.0018941443 0.00657367 0.0079849865 0.008675871 -0.00557131 -0.007035435 -0.0023572452 -0.0013216728
0.0025033278 0.007839113 0.007322947 -0.0028983238 0.014490201 0.0024845935 0.0075680194 0.00044302744
0.0104871495 -0.0048969514 0.012927932 -0.00014937865 0.013878696 0.0131579805 0.0005340464 -0.002802919
-0.0010983318 0.007910326 0.009561136 0.015450626 0.0024616802 0.02209399 0.006758331 -0.0056147464
-0.0033670047 0.0015146402 0.009794885 -0.0019188146 0.010687653 -8.6183536e-05 0.010830189 0.008774253
0.009485792 -0.0015152964 -0.004406886 0.0018127004 0.016631674 -0.0029144685 0.0015874184 0.017580336
0.012842552 -0.008313624 0.008498789 0.009605013 0.0038514948 -0.00057486596 0.0034702544 0.010912589
0.00044069928 0.004223855 -0.0029993784 0.000236623 0.0058859014 -0.0042783157 0.012397512 -0.002146901
0.004707559 0.024768341 -0.0019610105 0.004906129 0.005795331 0.014708832 0.0024658486 -0.007236961
0.0036705676 -0.004549129 0.008339467 -0.0021049837 0.010676182 0.00018084122 -0.0059757465 0.016631631
-0.0030564868 0.009495957 0.004689189 0.0008910898 0.011135989 0.0110533545 0.0073405053 -0.0021961282
0.012680023 -0.0096020885 0.018742053 -0.007316396 -0.008897769 0.009484961 0.0037498241 -0.0048183263

network_body._body_endoder.seq_layers.2.weight f4 [256, 256]
00000000: 4e78 04be c025 bc3b ae4d 103c 31ab b7bc
00000010: 2d95 b3bc 477c 9abc 9c3c 18be 8220 403d
00000020: 847b 0d3e b4b0 bf3c 0300 03bd bc21 483d
00000030: 1e51 bfbb 4e90 b8bd 69eb 683d 0e03 853d
00000040: 3ad2 d1bd 9ec6 11bd f225 0abd 99dc 333d
00000050: a854 e13d 5210 233d ffd5 293e 1027 3dbd
00000060: 5efd a83d 982d b3bb acc7 1c3d 3574 823d
00000070: d2f5 0e3c ff22 7ebc c773 7dbd 341c 1d3d
00000080: 463a 26bd d36e 8d3d 40c2 22bd 9765 b1bc
00000090: dcba 97bd 48db d0bd 13ab 723c 3a49 773d
000000a0: c04e 0f3d 62b5 3cbd 8cb4 f53d 2128 773d
000000b0: 2ea2 27bd 157d 3e3c aeec fbbc 2426 8ebc
000000c0: 7950 6ebd 20ba a13d 5384 0cbd 2d73 d4bd
000000d0: 68af 92bd 0b4a c2bc 01af 9dbc 7dad 8cbd
000000e0: b591 543c ef6b 143c 2aff 98bc 1e7f 883a
000000f0: d06b 1b3d c9af be3d b0f4 073e 335f c5bc
00000100: a3b9 373d b6f3 a1bd d5d2 f8bc c563 483d
00000110: eeeb e53c ceab 813d d587 b43d ce05 333b
00000120: 0141 41bd 758e e53c a3f5 e5bc 65c5 4a3e
00000130: a6d9 05be c134 23bd 7db7 a23d 3f90 9bbc
00000140: c195 49bc d53d c83d ccec 9c3c 8e5f 8c3b
00000150: cddf be3d bb57 bd3d f19d ac3c 4463 eebc
00000160: 22a9 003c e4c6 71bd 5576 073d 67eb 673c
00000170: fef8 9bbd 9009 b0bd 94a0 843b fad7 0c3d
00000180: f7f1 c33d f8c7 bfbd 868d 893c 15d8 b6bd
00000190: 5949 fe3d 4f51 4dbd 376b 493e 4d39 953d
000001a0: b351 5cbd f0b4 0fbc e636 ac3d ed42 af3d
000001b0: 4449 c4bc eea3 ff3c e701 06be 8371 1fbd
000001c0: c07f 25bd 084c e03c d38c 363c 3c0e a9bd
000001d0: a590 a9bd 69c6 77bd 6b87 c53c 7605 e93b
000001e0: f780 bfbc e377 f4bd deaf c13b 06b3 573d
000001f0: e6c2 633d c58d 553c 6329 dbbb 970e 13bd
00000200: 44ff 813a 52b9 8f3c b344 763d 8302 0dbd
00000210: 1429 c73c 356d d7bc 8cd6 28bd 96bb c43d
00000220: 5584 313d afce a13c 0714 8dbd e76e 1c3d
00000230: a302 433c ac58 2c3c f66b 3d3d d085 a8bd
00000240: d184 063a 528e adbb c0a7 78bd a6a0 7b3d
00000250: b011 e2bc fefa 1dbd 3fd9 c83d 215a 843d
00000260: 343e f2bc 1ae0 aebd 1c5a 7b3d c983 02bc
00000270: b8e5 943d 1ad4 5ebd 4c4d 40bd 5ac2 acbd
00000280: 7523 ed3c cd72 2f3e dbe4 02bd 50ce e23c
00000290: 4af9 febd 240e 123d 0c60 0cbe 71a4 753c
000002a0: ae31 6f3b 766b 32bd 96cb b33c 7036 cdbc
000002b0: 98da 10bc bab2 9439 2e2b 553d 6d67 dfbc
000002c0: 1e7a 70bc 7b27 b23c 4502 bd3d d9f0 95bd
000002d0: da47 9dbc 49b1 e73d 6741 563d eddb 95bd
000002e0: 5e58 973d 96b7 47bd 979b f9bb daf5 1fbd
000002f0: acc7 ccbc 9b8f 233c 2f02 343d 906c 083e
00000300: 6d32 b9bc 06e8 b1bc f4c6 7d3d 785a b73d
00000310: 44e6 25bd 167d b53d 655f a8bc 4101 a33d
00000320: ecbd d03d ea31 3f3d 56ec e63c 8fc0 db3d
00000330: c272 8cbc 7eef 3c3d 0de8 cf3c bf91 0bbd
00000340: 2751 febc d687 cabc 6edc 78bd dece e7bc
00000350: 6937 703d a92e f0bc 67f7 a93c 1199 b23c
00000360: 7d1a 83bd 9157 03bb 5bc8 93bd b32a 3ebc
00000370: 63f9 273d 7715 c3bd 9bf2 b2bc 3d4f c5bc
00000380: ee35 73bc 7a95 883c d28c 503d ab84 0c3d
00000390: 5ca4 a73c acf1 403d 797c 23be 1835 03bc
000003a0: 4fe1 66bd c2f8 1abd 6c2b 2bbc b1bf cebc
000003b0: adc3 ebbb 3173 80bd 3a2e ad3d 6601 c4bd
000003c0: 0a4e 67bd 0f71 d0ba da1f 2bbd 4a29 1b3d
000003d0: bba1 043e e0c6 5fbc 6d46 243d 354d 2b3c
000003e0: a411 b23d df99 9b3c 2419 53bc 7ddd b3bd
000003f0: 1ef2 f03c 881c 013e a26c 70bd 736d 30bc
-0.12936518 0.005741805 0.008807583 -0.022420498 -0.021921718 -0.018858088 -0.1486687 0.046906002
0.13816649 0.023399688 -0.031982433 0.048860297 -0.0058385273 -0.09011899 0.05686513 0.06494723
-0.10245176 -0.035589807 -0.033727594 0.04391155 0.11002475 0.039810486 0.1658554 -0.04617983
0.08251451 -0.0054680817 0.03827636 0.06369821 0.0087256 -0.015511273 -0.061877992 0.038356975
-0.040582918 0.06905904 -0.039736032 -0.021654887 -0.074086875 -0.101980746 0.014811295 0.06037257
0.03498721 -0.046071418 0.11997327 0.060341004 -0.04092615 0.011626502 -0.030752506 -0.017352171
-0.058182213 0.07896829 -0.03430588 -0.103735305 -0.07162362 -0.023716947 -0.019248487 -0.06869028
0.012974192 0.0090589365 -0.01867636 0.001041386 0.037944615 0.09310872 0.13276935 -0.024093246
0.04485477 -0.07907812 -0.03037397 0.048923273 0.028066602 0.06331597 0.088149704 0.0027316692
-0.047181133 0.02802203 -0.02807123 0.19801863 -0.13071308 -0.039845232 0.07945154 -0.01898968
-0.0123037705 0.097774185 0.019155882 0.004283852 0.0932003 0.09245249 0.021071406 -0.029100068
0.007852824 -0.059027568 0.033071835 0.014155245 -0.07615851 -0.08595574 0.0040474627 0.03438566
0.095676355 -0.09364313 0.016791116 -0.08927933 0.12416334 -0.05012637 0.19669805 0.0728632
-0.053788852 -0.008771166 0.084089085 0.08557687 -0.023960717 0.031206097 -0.13086663 -0.038926613
-0.040405035 0.027380005 0.011141974 -0.08254668 -0.08279542 -0.060491953 0.024112424 0.0071112467
-0.023376925 -0.11936929 0.0059108576 0.052660964 0.05560579 0.013034289 -0.0066882833 -0.035902586
0.0009917994 0.017544422 0.06012411 -0.034426223 0.02431158 -0.026297191 -0.041220233 0.09606092
0.043339092 0.019751875 -0.068885855 0.038191702 0.011902484 0.010519188 0.046245538 -0.08228648
0.00051314855 -0.005296507 -0.060706854 0.061432503 -0.027596325 -0.038569443 0.098070614 0.06462503
-0.029570676 -0.08538838 0.061365232 -0.00796599 0.07270378 -0.054401495 -0.046948716 -0.08435507
0.028947571 0.17133637 -0.031956535 0.027686268 -0.12449892 0.035658017 -0.13708514 0.014992819
0.0036498117 -0.043559514 0.021947663 -0.025050372 -0.008841179 0.0002836192 0.052043132 -0.027270997
-0.0146775525 0.021747341 0.092289485 -0.07321329 -0.0191993 0.11313111 0.052308466 -0.07317338
0.073899016 -0.048759066 -0.0076174247 -0.03905282 -0.024997555 0.009982969 0.043947395 0.13322663
-0.022607053 -0.021717083 0.061957315 0.089528024 -0.0405028 0.08861749 -0.0205533 0.079592235
0.10192475 0.04667846 0.028188866 0.10730087 -0.017144565 0.046126835 0.025379205 -0.03407454
-0.031044556 -0.024722975 -0.060757093 -0.028296884 0.058646593 -0.029319124 0.020747853 0.021801503
-0.064015366 -0.0020041207 -0.07215949 -0.01160686 0.041009318 -0.095255785 -0.021844199 -0.024085635
-0.014844401 0.016672838 0.050915547 0.03430621 0.020464115 0.047105476 -0.15965451 -0.008008264
-0.056367215 -0.03783489 -0.010447364 -0.02523789 -0.007194957 -0.06271971 0.08456083 -0.09570579
-0.05647091 -0.0015902835 -0.041778423 0.037881173 0.1295232 -0.013658255 0.040106226 0.010455419
0.08694771 0.01899427 -0.012884412 -0.0878248 0.029412325 0.1260854 -0.05869735 -0.010768282

network_body._body_endoder.seq_layers.4.bias f4 [256]
00000000: 26f9 523c 91c6 573c eb4a 8dbb 9a6c 66bb
00000010: 1313 753c a8ee ec3b c245 433c 9bbc 603b
00000020: 3641 563c dcc0 b83a 64be a03b 055d 3bbc
00000030: 4f0f c13a 8d40 92bb 76dc 583c c4d8 a13b
00000040: 35a8 f53b 133f 7bbb b2da 16bc d2d4 19bc
00000050: c957 513c 1ee5 04ba 981f e33b 6250 013c
00000060: 2f6a 1ebc d84d 2ebc d562 21bb d999 bcba
00000070: dba7 34bb c2b5 2bbb 4336 ed3b 6797 1fbc
00000080: 031b da39 8a57 1b3b 4704 363c 69b7 2e3c
00000090: 0b57 7e3c 0129 5d3c 7d91 be3c 77d1 c13c
000000a0: 9c00 4dbb 3f5c 383c 8202 bebb a311 073b
000000b0: e8d9 9f3c b7fc cdba 5a6a 923c 32a6 91bb
000000c0: f37e 4abc 9676 fdba 2a1b 7b3c 4be4 a23a
000000d0: 6ef2 a43c dc36 b0b9 eb5f 8739 6627 0abb
000000e0: 3e49 4e3c 4e8e 993b 6c7c 433c a6d1 2cbc
000000f0: 3a09 4d3c 3329 e03a c6b5 1bbc f80c 433b
00000100: d495 9fbb df48 bf3b 73c8 46ba cef1 043c
00000110: aa62 2f3c e5fd 813c 0439 d13b 4bb1 993c
00000120: fb21 013b ddc9 cd3b 9f8e 603c a7af 6ebb
00000130: bdfc 683c b223 533c f704 853c 27c2 9c3b
00000140: 26ec ad3c 2ebc 78bc a432 e73b 07e1 25bb
00000150: 34e0 813b c653 32b9 5864 903c eefd e4bb
00000160: 6728 c2ba 3821 463c 573a 6d3c 9205 c73b
00000170: b738 243b 2958 12bb 5da0 633c ea33 3fbb
00000180: baaf 823b 46ca 913c fadb cc3b 2424 e9bb
00000190: 1812 833b e527 31bc 8a87 d4b9 648b a13b
000001a0: 2e28 05bc 282f 6e3c e4a9 863c b931 c8bb
000001b0: 3b5a a23c 0547 0d3c 32ab ae3c c198 6d3c
000001c0: b8d8 a5ba 6edf 623c 20c0 5a3c 644d 7e3c
000001d0: 227e 353c 0945 8ebb 2341 69bb 01d8 893c
000001e0: 0b1f 1aba 9435 7dbb 85a1 283b 74bf 52bb
000001f0: 5beb ffba b515 523c 7834 27bb 2b66 753c
00000200: 193a 173c 5d73 723c 0bf3 6f3c a7a9 113b
00000210: e500 babb a35a 823a ae5b d9bb 6d7d 7d3c
00000220: 01b6 9c3c 4775 44bc 3e23 433c 27a9 e139
00000230: fe02 88bb 9e9f 473b 6575 abbb dc10 89bb
00000240: 6f19 263c ae80 0e3c b108 d43b d2b8 4639
00000250: d99a dd3a 2839 a23c dbe2 46bb 5c69 90b8
00000260: 6b6d beba 3b85 863b 996d 813a f537 b73a
00000270: a53a 9d3a 5b8f cdbb c7ac 113c a7ea 163c
00000280: de33 59bb 7e30 26bc 7d2a 623b d301 93bb
00000290: a0db 7a3c 6c9f 1a3c 87aa 653b b33c 193c
000002a0: 1f15 983c ed2e 23bb 1ed6 30bc f4f0 873c
000002b0: 56f7 633c 5476 e6bb cb31 e43b 2421 c439
000002c0: 9bf7 cc3c da9f 353c eb1b 333b 7143 263c
000002d0: b7dd 853c ec77 3c3c 07a1 433b b528 6a3c
000002e0: 70b7 46bb 328a 3b3a b99b 4d3a dc81 163c
000002f0: 2be6 223c ba0f e7ba 3ae1 e0bb a180 823b
00000300: 8639 0a3c 3957 c2bb 1cf4 c43b 8e41 d9ba
00000310: 74ac 603b e1ee 2b3c b76d 333c 7cd5 4bbc
00000320: 2aa6 8d3b e27d 23bc 9be4 9eba 876d 783c
00000330: f0bd 5139 fc06 113c 5e3a 49bb 85f3 48bb
00000340: 11d8 4b3b 8d85 ffba ca82 6d3c 74ff eb3b
00000350: 8a1a d53b 5e5b 433c 6ed5 ba3b db36 993c
00000360: a3f0 acbb 48bc 9c3b b4eb 2e3c 4988 9f3c
00000370: 56a3 023c ad23 afbb 875f e03b e36a 283c
00000380: 2b21 483c 3ca2 1abc 3225 1cbc 6300 a03c
00000390: 90f5 0c3c 8373 8fba e92d 143c ab16 923b
000003a0: 5060 0c3b 4d7f 163b 8ac7 a6ba c1bb a03a
000003b0: a65c d63b 7d46 40bb 06a3 c83c 2d55 01bc
000003c0: 81f7 a03c 9b6f 08bb 1b49 943b 3d84 a83a
000003d0: b21a 833c c583 9fbb 3a6c 973b 11f2 9b3c
000003e0: 5699 483c 743d e439 0604 75bb 1200 233c
000003f0: a90a b63c ee36 393a 8b23 433c cc2c 39bb
0.012876784 0.0131699005 -0.0043119094 -0.0035159946 0.014958161 0.0072305985 0.011918487 0.0034292105
0.013077071 0.0014095563 0.004905509 -0.011435752 0.0014729294 -0.0044632615 0.013236156 0.0049391706
0.0074968585 -0.0038337156 -0.009207414 -0.009389119 0.012777277 -0.00050695415 0.0069312565 0.0078927
-0.009668871 -0.010638677 -0.002462556 -0.0014389112 -0.002756587 -0.0026200865 0.0072391345 -0.009740687
0.00041600325 0.00237033 0.011109418 0.010663846 0.015523682 0.013498546 0.023262734 0.023659451
-0.003128088 0.011252462 -0.005798639 0.0020609878 0.019513085 -0.0015715574 0.017872978 -0.004444861
-0.012359369 -0.001933771 0.015326301 0.0012427656 0.02013513 -0.0003361021 0.0002582067 -0.0021080612
0.0125907045 0.0046861535 0.01193152 -0.010548031 0.012514407 0.0017102122 -0.009503787 0.0029762369
-0.004870156 0.0058375443 -0.000758297 0.008114291 0.010704676 0.015868137 0.0063849706 0.018761298
0.0019704092 0.0062801675 0.0137058785 -0.0036420615 0.014220414 0.012886928 0.016237719 0.004783887
0.021230768 -0.015181584 0.0070555974 -0.0025311129 0.0039634947 -0.00017006611 0.017625973 -0.0069882786
-0.0014813066 0.012092881 0.014479241 0.006073662 0.0025058219 -0.002233038 0.013893214 -0.002917523
0.0039882334 0.017796647 0.006251809 -0.007114904 0.0039999597 -0.010812734 -0.00040536775 0.0049299467
-0.008127255 0.01453761 0.016438432 -0.006109443 0.019818416 0.008622889 0.021321867 0.014501751
-0.0012653088 0.013847215 0.01335147 0.015521381 0.011077436 -0.0043417257 -0.0035591803 0.016826632
-0.00058792596 -0.0038636671 0.0025731039 -0.0032157572 -0.0019525097 0.012822558 -0.0025513452 0.014977972
0.00923016 0.014798013 0.014645348 0.0022226365 -0.005676376 0.0009945225 -0.0066332435 0.015471798
0.019129755 -0.011990852 0.011910258 0.00043041373 -0.0041507473 0.003046013 -0.0052325004 -0.004182918
0.0101379 0.008697672 0.0064707627 0.00018951602 0.001690711 0.019802645 -0.0030347619 -6.88608e-05
-0.0014528459 0.004105238 0.0009874582 0.0013978468 0.0011995627 -0.006273193 0.008891291 0.009211219
-0.0033142488 -0.010143397 0.0034510188 -0.0044863014 0.015311152 0.009437423 0.003504427 0.009352851
0.018564759 -0.0024899796 -0.010793237 0.016594388 0.01391395 -0.007033149 0.0069639436 0.00037408725
0.025020411 0.011085475 0.0027329873 0.010147915 0.016341073 0.011503201 0.0029850618 0.014291932
-0.003032174 0.00071540766 0.0007843334 0.009186234 0.009942572 -0.0017628588 -0.0068627866 0.003982619
0.008436566 -0.005930808 0.0060105454 -0.0016575323 0.0034282478 0.010493965 0.010951451 -0.012441035
0.004322787 -0.009978743 -0.0012122573 0.015162832 0.0002000255 0.008851763 -0.0030704956 -0.0030662727
0.0031104127 -0.0019494757 0.014496515 0.0072020832 0.006503408 0.011923639 0.0057017123 0.018702915
-0.0052777096 0.004783187 0.010676313 0.019474166 0.007973513 -0.005344829 0.0068473252 0.01027939
0.012214939 -0.009438094 -0.009530352 0.019531434 0.008603469 -0.0010944459 0.009044149 0.0044582686
0.0021419711 0.002296406 -0.0012724262 0.0012262986 0.0065418063 -0.002933889 0.024491798 -0.007893843
0.019649269 -0.0020818475 0.0045253164 0.0012856793 0.01600394 -0.004868003 0.004621056 0.019036325
0.012243589 0.00043533335 -0.0037386431 0.009948747 0.02222188 0.0007065375 0.01191033 -0.002825546

network_body._body_endoder.seq_layers.4.weight f4 [256, 256]
00000000: c161 b83d 13da 2bbd 7f8d 403d a8c3 bdbd
00000010: 27fc 193c 85b3 ef3c f7fe 00bd 88f6 853d
00000020: 25b4 c1bd cd4c ba3c 26c5 46bd e22d 1cbd
00000030: 57b9 2fbc 2af8 493d 8a65 d43b ec49 a4bd
00000040: 54cc 27bc b639 6037 d75d 3cbd f7fe 82bd
00000050: 88ea fdbc 9796 0fbc cbc4 4f3c 6e5a 713d
00000060: 5bb1 9d3b c2a4 bf3d a9fc 23bd d174 e83c
00000070: 3f7f 48bd 7f17 66bd 91d4 86bb 8861 b6bd
00000080: 6a02 82bd ed73 abbc c734 843b 1144 953c
00000090: 79f0 5b3d a083 653d 22cd 443d 58e7 eebd
000000a0: 62bc e43d 4435 c6bd 8416 873c ba44 d53c
000000b0: 65b7 993d 3c0c 89bd f016 193d a05d 263d
000000c0: 8468 39bc 6404 dfbd d538 f73d e153 733c
000000d0: 162f fcbc 3354 583b 9f83 6abd 2298 093d
000000e0: 1eed 1fbc 5933 98bc 3750 84bd 4c19 7cbb
000000f0: 53f8 a3bd f9cc 2dbd 87d3 7b3d b18e 64bd
00000100: c5ab a83a 92b0 2c3c afef 223d fea8 3bbd
00000110: 315c 783c c76a 3e3d fdd8 53bd dad7 f8bb
00000120: 6a35 d3bd 87fb 693d 9f09 9b3d 0c90 173e
00000130: 4edb 0f3d e799 3d3d 5d69 deba 314f 72bd
00000140: ecc7 d73d ef11 8ebb 6ef4 cebd 65e2 fabd
00000150: 07fb 22bd ba74 e4bd d2fd 86bd f17e a939
00000160: ee72 f2bd 9e8b f33c e10b 473d 9829 6c3d
00000170: b517 10bc e1cf 0fbc 2743 5d3d 35b1 7b3d
00000180: 3468 f3bc f8de a83b c86c 293d 45f4 f93c
00000190: 6d04 54bd 9c1c 873d 5f60 a33d c88b 13be
000001a0: 1c76 c7bd 830f 27bd e6d0 f1bd 1387 0fbd
000001b0: c96d abbd 1b60 b23c b369 093d e782 e5bc
000001c0: a0c4 083e bfcd a33d 46c4 68bc bf6e 4cbd
000001d0: 26cc af3b 4782 923d 44bf 9e3c e855 123c
000001e0: f7b5 013d c394 153e 9a49 61bd c2b9 bdbb
000001f0: cc6d 033e ea42 7fbd d278 46bc 190e 113d
00000200: 6e75 a53c 5da7 783d c594 b43d 4e10 91bd
00000210: 9616 b7bd 4ee3 d0bd 38f8 963d ef05 40bd
00000220: 6c50 403c 2680 bdbb ee82 0ebd da09 9f3d
00000230: ecb4 873c da14 443c 50ed b73c f150 93bc
00000240: 2704 e23a e2fa 0e3d 9b4b 0ebd f63d 66bd
00000250: d970 843b 9f0a 67bd 545c 2cbd b45e 023d
00000260: daa9 983b b2a0 173d d7cd 4e3d 13f9 1cbd
00000270: edf8 44bd e529 8a3c 4f48 dd3d 8a63 383e
00000280: af58 b93d 73cf f7bc ec4c 8cbd 23f1 2abc
00000290: fca5 8b3d 1a3f 0fbd 3e32 0c3d 0b56 b0ba
000002a0: de31 863d c522 6cbd 14c8 953d eedc 86bd
000002b0: ce77 51bd b529 553d 1d2a 0abd b1e7 50bd
000002c0: efad 443d c3ae 423d 9a93 c33b a037 c4bd
000002d0: eb1c 65bd acf7 11bd 8e47 8ebd 6582 313d
000002e0: 9430 273d a588 843d 7749 febd cfe2 c33d
000002f0: 6fe1 20bd ba06 6cbd acf7 60bd bc1d e3bd
00000300: 4960 143e 6e1e 93bd 25c0 92bd f9b0 a9bd
00000310: f226 90bd 25bb 0dbd e2e1 f83d f591 e43d
00000320: d869 eb3d 1ed3 d03b 9734 83bc fa15 a6bd
00000330: 9fda 13bc 42b5 f03d e0f8 053e cdde 683c
00000340: 1d28 5d3d 491c 84bc baf6 b1bd 574a 403e
00000350: 4818 b03b 28b3 be3d 5b41 afbd 3cf6 193d
00000360: db1d a0bb 35b1 9fbd 659d bdbd f450 703c
00000370: e9ee 38bc 9e59 87bd 9a82 bf3b 5868 a2bc
00000380: df64 9b3d 5bd6 1abd 885e 99bd 8e00 8e3b
00000390: e004 5f3c 0283 92bd d1e3 ac3c 8ffe 35bc
000003a0: adc0 05bd 1b53 acbc 0ed3 fc3d 5e36 08bd
000003b0: 13f2 7c3d 44c3 073d ff4d 083c 0f3d 183d
000003c0: e42a d2bd 8cb7 1fbe 4587 a6bc f0b9 8ebd
000003d0: d3f2 d23d d6ea edbc df39 553d 7da9 8dbd
000003e0: 1215 fd3d 5d4b ccbb b9c1 8fbc 91f3 223e
000003f0: cf7a d43c c2a9 943d c36d 43bd 661c b33d
0.0900302 -0.04195602 0.04700994 -0.09265834 0.009398497 0.029260406 -0.031493153 0.06541163
-0.09458188 0.0227417 -0.04852786 -0.038129695 -0.010725341 0.049308933 0.006481831 -0.08021912
-0.010241587 1.3364877e-05 -0.04598793 -0.06396287 -0.030995622 -0.008763931 0.012681196 0.05892413
0.004812402 0.09357597 -0.040035877 0.028376015 -0.048949476 -0.05617475 -0.0041146954 -0.08905321
-0.06348117 -0.020929301 0.004034612 0.018220933 0.05369613 0.05603373 0.048047192 -0.11665219
0.11168744 -0.09678128 0.016490228 0.026033748 0.07505683 -0.06691787 0.03737539 0.04061663
-0.011316422 -0.10889509 0.12071387 0.014851541 -0.030784171 0.003300917 -0.05725443 0.03359235
-0.009761123 -0.018579172 -0.06460612 -0.0038467227 -0.080063485 -0.042431805 0.061481025 -0.055800144
0.0012868574 0.0105401445 0.03977936 -0.04581546 0.015158699 0.04648855 -0.051720608 -0.007594091
-0.10312922 0.05712464 0.075701945 0.14801043 0.035121255 0.04628935 -0.0016968657 -0.059157554
0.10536179 -0.004335634 -0.10105215 -0.122502126 -0.03979018 -0.11155076 -0.06591381 0.0003232877
-0.11838327 0.02972966 0.048595313 0.057656854 -0.008794715 -0.00877759 0.05401912 0.061448295
-0.029712774 0.005153533 0.041363508 0.030511985 -0.051762033 0.06597254 0.07977366 -0.14408791
-0.097393245 -0.040786278 -0.11807422 -0.035040926 -0.08370549 0.021774342 0.03354807 -0.02801652
0.13356256 0.07998227 -0.0142069515 -0.049910303 0.0053649126 0.07153755 0.019378312 0.008931614
0.031667676 0.1460753 -0.055001833 -0.0057899663 0.12834853 -0.062319674 -0.012113767 0.035413835
0.020197596 0.060706485 0.08817438 -0.07083188 -0.08939855 -0.10199605 0.07371563 -0.04688066
0.011737924 -0.0057830987 -0.034792833 0.07765551 0.016565762 0.011967862 0.022452027 -0.017982932
0.0017243669 0.03490723 -0.03474007 -0.056211434 0.004041773 -0.056406613 -0.04208024 0.031828597
0.0046589198 0.037018485 0.050489273 -0.038323473 -0.048088957 0.01686568 0.108048074 0.18006721
0.09050118 -0.030250287 -0.06850609 -0.010433468 0.068187684 -0.034972288 0.034227602 -0.0013453377
0.0655248 -0.057650346 0.073135525 -0.06585108 -0.051139645 0.052041728 -0.03373157 -0.05100221
0.04801744 0.047529947 0.005968523 -0.09580922 -0.05593578 -0.03563659 -0.06947242 0.043337245
0.040817812 0.064713754 -0.12416356 0.09564745 -0.03927749 -0.057623602 -0.0549237 -0.11089656
0.14489855 -0.071835384 -0.07165555 -0.08285708 -0.07038678 -0.034602303 0.12152459 0.111606516
0.114947975 0.0063728234 -0.016016288 -0.081096604 -0.009024291 0.11753322 0.1308322 0.014213276
0.053993333 -0.016126769 -0.086896375 0.18778358 0.0053739883 0.09311515 -0.085573874 0.037588343
-0.0048863715 -0.077974714 -0.09258536 0.014667738 -0.011287429 -0.0660889 0.0058444263 -0.019825146
0.07587599 -0.03780208 -0.074887335 0.004333562 0.013612002 -0.07153894 0.021104725 -0.011108055
-0.032654453 -0.021035722 0.12344943 -0.033254974 0.061754297 0.033145204 0.008319377 0.037167605
-0.10262087 -0.15597361 -0.020328173 -0.069690585 0.10300221 -0.029042643 0.052057143 -0.06917093
0.123575345 -0.00623457 -0.017548429 0.15913226 0.025937466 0.07258941 -0.0477121 0.08745651
