Assets/Training/results/RUN2/SzitakotoBehavior/SzitakotoBehavior-9499970.onnx (onnx, 670607 bytes, 13 tensors)

65 f4 [132]
000000 08 b9 6d 3e 04 b3 46 3e 94 1e 99 3e 02 46 3d 3e
       0.23215115 0.19404227 0.29906142 0.18483737
000010 cc 25 90 3e 69 d2 4b 3e 59 bc ac 3e 4e b2 4a 3e
       0.28153837 0.19904484 0.33737448 0.1979458
000020 c8 75 2f 3e 72 94 39 3e 4c 2e 80 3e c0 e3 2f 3e
       0.17134774 0.18123034 0.25035322 0.17176723
000030 5f b0 9f 3e 1f e9 45 3e b8 3e b7 3e 52 10 53 3e
       0.31189248 0.1932721 0.35790038 0.20611694
000040 9f 6f 16 3e 07 54 2b 3e b2 2e 67 3e c6 b8 21 3e
       0.14691018 0.16731273 0.22576407 0.15793142
000050 1f 77 a5 3e 4f ee 41 3e c6 06 bb 3e dd d8 55 3e
       0.32317445 0.18938564 0.36528605 0.20883508
000060 ec 0e 2c 3e dd 3a 22 3e 07 ff 6e 3e c5 ed 13 3e
       0.16802567 0.15842767 0.23339473 0.1444617
000070 86 55 9d 3e 9c ec 43 3e 11 00 b5 3e c1 c2 52 3e
       0.30729312 0.19133228 0.35351613 0.20582105
000080 f1 60 4e 3e cf 55 2c 3e 7a 83 86 3e 68 91 0e 3e
       0.20154168 0.16829608 0.26272184 0.13922656
000090 3e e7 88 3e 31 dc 4e 3e bd 48 a8 3e ce fb 4c 3e
       0.26738924 0.20201184 0.32867995 0.20017931
0000a0 af 76 5a 3e 01 2e 2c 3e 25 cd 8a 3e fe 1d 0f 3e
       0.21334337 0.16814424 0.27109638 0.13976285
0000b0 bb ea 6d 3e a4 db 46 3e 3a 40 98 3e 12 b2 39 3e
       0.23234074 0.19419724 0.297365 0.18134335
0000c0 95 42 90 3e c2 fd 4b 3e 1e 1d ac 3e b0 59 47 3e
       0.28175798 0.1992102 0.33615965 0.19467807
0000d0 ee 9e 2f 3e 93 ba 39 3e 7d 02 7e 3e 68 db 2b 3e
       0.1715047 0.18137579 0.24805637 0.16782916
0000e0 1b cd 9f 3e 99 15 46 3e ae b0 b6 3e 86 fd 4f 3e
       0.3121117 0.19344176 0.3568167 0.20311555
0000f0 5f 97 16 3e df 79 2b 3e 82 58 64 3e 5b 3c 1d 3e
       0.14706181 0.16745709 0.22299388 0.15355055
000100 e7 94 a5 3e c8 2a 42 3e 0e 73 ba 3e b3 95 52 3e
       0.32340166 0.18961632 0.36415905 0.20564918
000110 e4 45 2c 3e d6 60 22 3e 12 57 6c 3e b6 f0 0e 3e
       0.16823536 0.15857252 0.2308009 0.13959011
000120 00 75 9d 3e cc 3f 44 3e f5 60 b4 3e bc bd 4f 3e
       0.30753326 0.19164962 0.35230222 0.20287222
000130 17 a2 4e 3e c5 7d 2c 3e 64 6d 85 3e 31 78 09 3e
       0.2017902 0.16844852 0.2606002 0.13424756
000140 5a 06 89 3e 66 0c 4f 3e 57 9a a7 3e 7b eb 49 3e
       0.26762658 0.20219573 0.3273494 0.19718735
000150 64 bd 5a 3e 2e 5b 2c 3e 29 c7 89 3e 15 0c 0a 3e
       0.2136131 0.16831657 0.2690976 0.13481171
000160 bc 1c 6e 3e 59 04 47 3e 44 61 97 3e 1d 02 36 3e
       0.23253149 0.19435252 0.29566395 0.17774244
000170 e9 5f 90 3e 71 28 4c 3e d4 35 ab 3e a3 e0 43 3e
       0.28198174 0.19937302 0.33439505 0.19128661
000180 3a c7 2f 3e d4 df 39 3e 00 9f 7b 3e 90 c9 27 3e
       0.17165843 0.1815179 0.24572372 0.16385484
000190 bd e9 9f 3e 09 41 46 3e 37 22 b6 3e 8d db 4c 3e
       0.31233016 0.19360746 0.3557298 0.20005627
0001a0 d4 c0 16 3e c3 9d 2b 3e 2b 80 61 3e 06 a7 18 3e
       0.14721996 0.167594 0.22021548 0.14907464
0001b0 ec b1 a5 3e e1 5c 42 3e e9 e1 b9 3e bc 6b 4f 3e
       0.32362306 0.18980743 0.36305168 0.20255941
0001c0 06 7f 2c 3e 7e 86 22 3e 49 9f 69 3e d5 b8 09 3e
       0.1684533 0.15871617 0.22814669 0.13449414
0001d0 88 94 9d 3e aa 8a 44 3e f8 c3 b3 3e da b8 4c 3e
       0.30777383 0.19193521 0.3511045 0.1999239
0001e0 39 e3 4e 3e 0e a6 2c 3e 84 4d 84 3e 66 0e 04 3e
       0.20203866 0.1686022 0.2584039 0.12896118
0001f0 64 25 89 3e 11 40 4f 3e 4b c3 a6 3e cf 9c 46 3e
       0.2678634 0.20239283 0.32570872 0.19395755
000200 27 05 5b 3e 90 88 2c 3e a2 b0 88 3e de d4 04 3e
       0.21388684 0.1684897 0.2669726 0.12971827

68 f4 [2]
000000 7b 61 11 3e 7e 6b 88 3e
       0.14197342 0.2664451

action_model._continuous_distribution.log_sigma f4 [1, 2]
000000 4a 1c 66 bc de a0 58 3c
       -0.014044831 0.0132219475

action_model._continuous_distribution.mu.bias f4 [2]
000000 50 cb f6 3b 55 11 0e 3c
       0.007531561 0.0086711245

action_model._continuous_distribution.mu.weight f4 [2, 256]
000000 60 18 20 3b ca 01 06 3d c0 65 d3 bc 0a 99 28 bc
       0.002442859 0.03271655 -0.025805354 -0.010290394
000010 89 85 26 3d 81 47 0c bd 70 12 03 3c 25 a8 32 3c
       0.040654693 -0.03424788 0.008000001 0.010904347
000020 25 7a 4b 3c 3f 14 bb bc a1 d5 01 bd 41 de f4 ba
       0.012419258 -0.022836803 -0.031697873 -0.001868196
000030 d4 b7 bf bb 3e 7a ae bc 7c 19 d2 3c 4e 83 23 bd
       -0.0058507714 -0.021298524 0.025646918 -0.039920144
000040 5a dd 53 bc c6 8c aa 3b 32 50 9b 3a d4 d3 84 bb
       -0.012931192 0.00520477 0.0011849462 -0.004053572
000050 32 10 34 3c 9a 20 1d bd c5 c0 2c bd 89 53 c1 bc
       0.010990189 -0.03836117 -0.042176027 -0.023599403
000060 e6 0a 58 bc 5b 5a c3 bb 8c f6 d3 bb e5 d2 0b bd
       -0.013186192 -0.005961699 -0.0064685997 -0.03413667
000070 bf 48 05 bd 49 b1 65 bc 22 b5 cb bc d3 f6 22 39
       -0.03254008 -0.014019319 -0.024866644 0.00015541473
000080 9a 53 c6 bc 04 97 21 bd 50 77 bc 3c a5 e8 00 3d
       -0.024209786 -0.03945066 0.023006111 0.031471867
000090 a7 e3 18 3d 3d d6 dc 3c a3 bb ca 3c 72 af c2 3c
       0.03732648 0.026957626 0.024747675 0.0237653
0000a0 3a 0b 0e bd fe 03 d2 3c 16 21 db bb 19 95 b2 bc
       -0.034678675 0.02563667 -0.0066872938 -0.02179961
0000b0 22 24 f1 3c 81 c8 d8 bc 70 ff dc 3c 7e 96 d0 bc
       0.029436175 -0.026462795 0.02697727 -0.025462385
0000c0 2d 56 b6 bc 90 b8 11 bb 2f 68 46 3d 2e d5 a2 3c
       -0.022257889 -0.0022235252 0.0484392 0.019877043
0000d0 c9 90 8a 3c 1b b2 2b bd a7 3a 40 bd d0 fc ac bc
       0.016914742 -0.0419179 -0.046930935 -0.021116644
0000e0 9e fe 24 3d c6 5c 51 bd ee 9e 13 3d ff e0 21 bc
       0.040281884 -0.051113866 0.03604024 -0.009880303
0000f0 59 bf 8c 3c 27 23 f1 bc f2 73 3b bc 2e fe 49 bd
       0.017181085 -0.029435707 -0.011441218 -0.04931467
000100 b4 b9 aa bc b0 85 a0 bc ea 06 81 bc f7 7b e0 bc
       -0.020840503 -0.019594997 -0.015750367 -0.027402861
000110 5b cb 8c 3c b5 5f 07 3d 24 81 d8 bb 5c 1e 31 3d
       0.017186811 0.033050258 -0.0066071916 0.043241844
000120 6a 75 f7 bc 0e 83 b4 3c 04 5c c2 3c 1b 6e 05 bd
       -0.030207355 0.022035148 0.023725517 -0.032575708
000130 28 53 7a 3c 86 14 12 3d e9 e9 02 3d 6d 3b 4c bd
       0.015278615 0.035664104 0.031961355 -0.04986136
000140 b8 d6 bc 3c 9a 9d 2b bb 6c 68 23 3d 16 ad 3c bc
       0.023051605 -0.0026186467 0.039894506 -0.011515876
000150 54 85 2c bd 88 7b 00 bd d7 32 c0 3c 97 01 19 bc
       -0.04211934 -0.03136781 0.023461742 -0.009338758
000160 ee e6 00 bd 85 3a d8 3c 74 b0 89 3c fc db 49 bd
       -0.03147023 0.026395092 0.016807772 -0.04928206
000170 84 1c 17 bd cb 3d ff bb 04 77 09 3d 13 cf 67 3b
       -0.03689243 -0.0077893487 0.033560768 0.0035371229
000180 e4 60 48 3c 3f 16 a6 3c e4 e9 bf 3c e7 31 f0 bb
       0.012230132 0.02027428 0.023426957 -0.0073301676
000190 7e bc 80 bc 36 24 10 bc a5 9e 53 3c e6 c2 07 3d
       -0.01571488 -0.008797696 0.012916242 0.033144854
0001a0 40 47 49 3a 69 a2 da 3b 37 c3 b9 3c e5 b1 3a 3c
       0.00076781586 0.006672193 0.022676094 0.011394952
0001b0 8c 8e 0d 3d 49 8d 1d bd d7 de b1 3c ab 06 fa 3c
       0.03455977 -0.03846482 0.021712704 0.030520758
0001c0 84 96 24 bc 1c 45 b0 3b 43 da 3c 3d 51 20 44 3d
       -0.010045651 0.005379332 0.046106588 0.04788238
0001d0 b1 53 89 3c f9 93 62 bb 75 32 d9 bc df 6b 18 3c
       0.01676354 -0.0034573062 -0.026513318 0.009303062
0001e0 b2 9e 27 bd 9d 6a bb bc 63 46 b7 3c 5e 9a 28 bd
       -0.040922828 -0.022877986 0.02237243 -0.04116284
0001f0 b9 28 b8 bb 21 54 1a 3c bb b8 30 bc 91 68 17 3d
       -0.005620089 0.009419472 -0.010786231 0.036964957
000200 76 e1 f3 bb 1c 44 c7 3c 50 c4 69 3c c2 41 bf bc
       -0.0074426485 0.02432447 0.014267996 -0.023346785
000210 ef 63 d3 bc 8f 4c 6a bb 56 0d e7 ba 0d 59 f5 3c
       -0.025804488 -0.00357512 -0.0017627876 0.02994969
000220 4a 83 85 3c a8 29 85 3b 12 44 eb 3c bb a4 7d b9
       0.016297955 0.0040638037 0.028718982 -0.00024189327
000230 c9 a0 ff bc a2 dd 10 bd de 15 19 bc d3 48 2b bc
       -0.031204598 -0.035367616 -0.009343592 -0.010454374
000240 cb 25 67 ba 32 23 09 bb 4a 3d 90 bc fd d0 0b bd
       -0.0008817582 -0.002092552 -0.01760735 -0.034134854
000250 a4 70 1d bd cc a1 95 3c 51 d3 ff bc c3 5b 03 3c
       -0.0384375 0.018265627 -0.031228693 0.008017483
000260 07 9f fe bc 4f b6 c3 bc 1d 6e 23 bd 08 e7 bc 3c
       -0.03108169 -0.023890642 -0.039899934 0.023059383
000270 e3 6d ea bc a2 3c 75 bc 2b af e7 3c 3f 7e 04 3c
       -0.028616851 -0.014968069 0.028281769 0.00808674
000280 1d d1 df bc 3a c3 6f bb 44 ea f9 3c 61 44 d1 bc
       -0.027321393 -0.003658487 0.030507214 -0.0255453
000290 c1 24 ec 3c 3d 5a d2 bc 72 18 f5 bc 27 c2 0c 3d
       0.02882612 -0.025677795 -0.029918883 0.034364846
0002a0 7e 8f 25 3c f7 4b 87 bc 83 e9 17 b8 1e e4 1f 3c
       0.010105012 -0.016515715 -3.621868e-05 0.009758977
0002b0 40 b9 ad 3b 8b 4f cf bb 34 fe 9d 3c 6a 9b 20 bc
       0.0053016245 -0.006326621 0.019286253 -0.009802679
0002c0 a9 df d1 3c 9c e2 e3 bb a7 ce 97 3c d8 e9 de bb
       0.025619345 -0.006954504 0.018531157 -0.0068027787
0002d0 2b 7c b8 3c 50 56 66 bc 2c bd 88 3c f5 bd 99 3c
       0.022520145 -0.014058664 0.016691767 0.018767336
0002e0 39 6e aa bc d6 0d 0c bd d9 35 b2 bc 0b 1a e2 3b
       -0.020804511 -0.034192882 -0.021754192 0.006900077
0002f0 cb 73 23 3c e6 56 45 bc d7 d4 ad bc d8 30 2d bd
       0.009976338 -0.012044644 -0.021219654 -0.04228291
000300 35 fc 60 3c 05 7b 04 bc a2 b7 34 bb 99 70 ad bb
       0.013732006 -0.008085971 -0.0027575274 -0.0052929637
000310 24 3b 8f bc 59 92 03 bb f5 f2 46 bd fa f6 5a bb
       -0.017484255 -0.0020076244 -0.048571546 -0.003341137
000320 c8 55 1e 3c ed 17 d1 bc 22 38 f4 bc fa fa c6 3c
       0.0096640065 -0.025524104 -0.029811922 0.024289597
000330 ac b9 e8 bc 20 cb bf 3c dc 76 c5 3b 68 0a 63 b9
       -0.028408848 0.023412287 0.006026132 -0.00021652284
000340 c0 22 03 bd 0f 8b 47 3c 03 0b 3e 3c 56 e3 08 3d
       -0.032015562 0.01217915 0.011599305 0.03341993
000350 05 58 8b bc b5 fc 87 3c c7 84 65 3c f9 23 4d 3c
       -0.017009744 0.016599992 0.014008707 0.012520784
000360 84 68 06 3b 67 69 6c bd dc 2a 0a 3c e5 13 ed 3c
       0.0020509074 -0.057717707 0.00843307 0.02894015
000370 77 17 e3 39 e9 8d 58 bc ae 50 da ba 4a cb a4 bb
       0.00043314297 -0.013217428 -0.0016656124 -0.0050291168
000380 1e 32 1b 3c 2a e1 80 bb 37 b2 53 ba 46 9f 94 3c
       0.009472398 -0.0039330916 -0.00080755673 0.018142354
000390 96 b6 18 3d 97 32 06 3c be 32 9f 3c dc f6 3e bd
       0.037283503 0.0081907725 0.019433375 -0.046622142
0003a0 8c 6f 23 bd 43 6d 13 bd 60 8a 94 bc dd 24 8e 3c
       -0.0399013 -0.035992872 -0.018132389 0.017351562
0003b0 45 98 aa 3c bf 92 f8 bc 44 78 7c 3d 09 05 30 bc
       0.02082456 -0.030343411 0.06163813 -0.010743388
0003c0 6f ce 80 3c 80 20 a6 bb 74 f0 98 3c 99 7d 2c bd
       0.015723435 -0.0050697923 0.018669344 -0.042111967
0003d0 cc ac c8 3c a7 98 be bc 60 e7 bb 3c 45 cf f4 3c
       0.024496458 -0.02326615 0.022937477 0.02988399
0003e0 c3 12 a2 ba 31 e1 12 bd ff 35 c7 bc 9a 48 81 bd
       -0.001236521 -0.03585929 -0.02431774 -0.06312676
0003f0 93 92 16 3d ae 6c 02 bd 4b fa 9d 3c 52 48 c2 3b
       0.036760878 -0.031841926 0.019284388 0.0059290314

network_body._body_endoder.seq_layers.0.bias f4 [256]
000000 c6 be 0d 3b a6 26 06 ba 21 65 88 3c 35 a4 c4 3b
       0.0021628602 -0.00051174534 0.016649785 0.0060010203
000010 b6 e2 75 3b 95 4b af 3a 99 fd 97 3b 18 a5 24 3c
       0.0037519163 0.0013373966 0.0046383855 0.010049127
000020 70 2a 6f bc 69 bb f8 3b ba fe 97 3c 28 9d d2 3c
       -0.01459752 0.0075907004 0.01855408 0.025709704
000030 61 22 5d b9 46 77 6b 3c 7b 52 45 bb 4f 41 d1 3b
       -0.0002108901 0.014371699 -0.0030108977 0.006385959
000040 bd d0 19 3c ef fa 7e 3b 29 7d b1 3b 61 98 07 3c
       0.009388146 0.0038906892 0.0054165316 0.008276076
000050 0f 43 97 3c a4 81 aa 3b 58 98 66 3c ce c9 92 3a
       0.018464593 0.0052034426 0.0140744075 0.0011199058
000060 46 af 18 3b 52 c5 86 3c fe ef 18 3b 54 81 d9 3c
       0.002329783 0.016451512 0.0023336406 0.026550926
000070 75 d0 56 3b 6a 82 81 3b e5 9b 38 bc aa cd 03 3a
       0.0032778059 0.003952314 -0.011267637 0.00050279
000080 f3 38 16 3a 02 a9 fe 3b 3b 14 8e 3c 66 66 84 3c
       0.0005730532 0.007771612 0.017343631 0.016162109
000090 35 cc 9b bc 66 56 e1 3b 77 7e d5 3b e0 d6 00 3c
       -0.019018272 0.0068767546 0.00651532 0.00786373
0000a0 4e db 52 3c 1c 77 76 3c 1f 32 20 3c 0e cf af bb
       0.012869669 0.015043046 0.009777575 -0.005365259
0000b0 5f 58 5a 3a 05 d9 b3 3c ec ef 66 3c 97 c3 90 ba
       0.00083292084 0.021954069 0.014095288 -0.0011044618
0000c0 41 1b 0a 3c 8d dc 22 3c d1 60 4a 3b 7b 7b 58 bb
       0.008429349 0.009940279 0.003088046 -0.0033032584
0000d0 12 c6 9c bb 83 c6 09 3c fe d0 7c 3c da 74 5f bb
       -0.004784354 0.008409145 0.015430687 -0.0034096749
0000e0 8e 7f 94 3c 34 d9 e0 3b b9 63 3a 3c 76 76 55 3a
       0.018127229 0.00686183 0.011376315 0.0008142957
0000f0 1f a1 1c bb b6 b6 fe 3b a0 54 bd ba a5 e2 f5 bb
       -0.0023899747 0.0077732457 -0.0014444776 -0.007503825
000100 27 7b 3e 3c 47 45 ac bb 67 ff a7 3b 91 3d 6f 3c
       0.0116260415 -0.005257282 0.005126882 0.014602081
000110 a8 7c 7d 3c 4d ff 1d 3c b8 1d 06 3c 1e bd c3 bb
       0.015471615 0.009643388 0.008185796 -0.0059734723
000120 3b ae b1 3c 54 1b f4 3b 1e e6 03 3c 0f e0 9a 3c
       0.021689525 0.007449547 0.00805047 0.018905668
000130 b2 82 e9 bb 1d 1c c7 bb e3 6a 1b 3d ad 17 84 bb
       -0.007126176 -0.0060763494 0.037943732 -0.0040311427
000140 3c 70 5e 3c 4e 67 0b 3c 86 24 80 3b ef cc a4 bb
       0.013576563 0.0085085165 0.003910604 -0.005029313
000150 59 17 6c 3c 16 a5 eb 3c 12 2e 38 bb 24 31 a6 3a
       0.014409863 0.028765243 -0.0028103632 0.001267944
000160 9b 2c a8 38 0d 17 ce 3c b7 71 4d 3b af 8e 0b 3c
       8.019173e-05 0.025157476 0.0031348297 0.008517905
000170 77 b6 28 3d c6 80 89 bb 17 6c c5 ba 5a 28 f3 b9
       0.041189637 -0.004196259 -0.001506212 -0.00046378636
000180 3d b0 fe 3b 17 3a d8 b9 11 93 c8 bb d6 84 18 3c
       0.007772474 -0.0004124201 -0.0061210473 0.009309014
000190 d4 c1 42 3b ee 85 bc 3a 06 03 b6 3b fe a6 8d 3c
       0.0029717581 0.0014383176 0.0055545596 0.017291542
0001a0 68 6e c6 3b b1 be 09 3c 42 32 52 3a e5 40 bf 3b
       0.006055642 0.008407281 0.0008018353 0.0058365935
0001b0 b7 7f 64 3c 11 b5 df 3a c5 73 7a 3c a6 99 11 3b
       0.013946465 0.0017067512 0.015286391 0.0022216826
0001c0 bd 94 53 ba 14 06 73 bb fb 46 30 3c d5 32 06 bb
       -0.0008071175 -0.003708248 0.010759111 -0.0020477076
0001d0 69 6b 41 3c d3 8f e1 3b aa ff 4c 3c b1 11 d3 3b
       0.011805394 0.0068836003 0.012512127 0.006441318
0001e0 f3 35 ea bb 7e c6 55 bb 02 bd 45 3b 0a cf 00 3d
       -0.0071475445 -0.0032619531 0.0030172472 0.031447448
0001f0 dd 47 62 bb 74 0a fa 3c 1b 49 e6 ba 1a 56 cc 3b
       -0.0034527697 0.030522563 -0.0017569395 0.00623585
000200 05 c4 64 3c 90 a2 2e bc 47 7e 5a bc 59 a1 03 bc
       0.01396275 -0.010658875 -0.013335771 -0.008034074
000210 5e eb 7b 3b ec 40 99 3c 9e f9 82 3c 32 22 dd 3b
       0.003843985 0.018707715 0.015988167 0.006748461
000220 55 c1 48 3b f3 dd 47 3c 63 35 94 3b 7e 69 d5 3b
       0.0030632813 0.012198913 0.0045229658 0.00651282
000230 14 9a 22 3c e0 66 e0 3b 8b 8f 83 39 08 5a 1a 3c
       0.00992443 0.006848201 0.00025093215 0.009420879
000240 dc ce 97 3c 0e e5 1f bb db 04 6a bb 72 11 ba 3b
       0.018531255 -0.0024398002 -0.003570846 0.005678349
000250 5a 97 26 3c 26 85 82 3c f0 3c ca 3c 6c 72 6b 3c
       0.010167921 0.01593263 0.02468726 0.014370542
000260 ac 64 b5 bb cd d7 81 bb fc e9 fb 3a da 54 e4 b9
       -0.0055356827 -0.003962493 0.0019219513 -0.00043550768
000270 a5 ca 25 3b 49 d5 fe bb a2 62 c1 3b 6a fd 91 3b
       0.0025297788 -0.0077768904 0.0059016505 0.004455258
000280 ef 52 6b 38 3d 29 7b b9 e2 d6 2b bb bd c3 ff 3a
       5.6105604e-05 -0.00023952588 -0.002622061 0.0019513291
000290 41 02 9a bb fe dd 64 3c d6 83 18 bc 77 36 40 bc
       -0.0046999757 0.013968943 -0.009308776 -0.011731735
0002a0 90 77 6a 3a bc 96 ea 3a 66 7a 5e 3c 48 12 02 3b
       0.0008944208 0.0017897706 0.013578987 0.0019847322
0002b0 5d f6 03 bc 8c e7 7e 3b ba d5 8a 3c cc 55 3b 3c
       -0.008054343 0.0038895337 0.016947616 0.01143403
0002c0 b4 97 9d bc 1c f3 7b 3b db 3d 40 3b dc fd 3a 3c
       -0.019237377 0.0038444465 0.0029333744 0.011413064
0002d0 01 c7 d5 ba c7 d0 3d 3b c8 53 85 3c a7 9f 47 38
       -0.0016309918 0.0028963552 0.016275302 4.7593985e-05
0002e0 ce df b5 bb a5 fe 7a 3c f4 3b 57 3c 6b 8e 95 bb
       -0.0055503612 0.015319501 0.0131368525 -0.0045640967
0002f0 bd 90 82 3c 51 23 e1 b8 bc 13 20 3c d6 4a ee 3c
       0.015938157 -0.00010735414 0.00977033 0.029088419
000300 4b 96 07 3b 04 52 26 3a a5 9c 9f bb c3 e0 ba 3b
       0.0020688947 0.0006344619 -0.0048709684 0.005703063
000310 0e dd 0f 3c e9 84 60 bb 8a 42 ad 3c 98 24 36 3c
       0.008780731 -0.0034258908 0.021149892 0.011117123
000320 32 30 0a bc f3 5c 01 3c f2 63 93 3c 63 b4 26 3d
       -0.008434342 0.007895696 0.017991994 0.040699374
000330 4f 3c 3b 3c 56 f1 d6 bb fe 90 75 3c 82 36 8b 3c
       0.011427953 -0.006559531 0.014988182 0.016993765
000340 f4 00 c0 3b 4b 7a 39 3c 94 fc 24 bc 53 d8 86 3c
       0.0058594886 0.011320661 -0.010069985 0.016460573
000350 de 97 47 3b 32 39 24 3c d8 41 8f 3b ac 65 bb 3b
       0.003045551 0.010023402 0.004371863 0.0057189073
000360 c3 91 bd 3b 81 ea 54 3c eb 8d 9b bb 7b 0f 7e 38
       0.0057851984 0.012995363 -0.0047471425 6.0572736e-05
000370 bc 53 b5 3b 72 b9 20 3c c2 09 ff 3a d4 c4 e7 bb
       0.0055336636 0.009809839 0.0019457864 -0.0070730243
000380 d5 52 0f 3c 78 82 32 3b 55 7a 18 bc 20 01 52 3c
       0.008747776 0.002723841 -0.00930651 0.012817651
000390 77 d7 72 3c 72 c0 ba bb 7f 93 0a 3c 32 f6 31 3c
       0.014821879 -0.005699211 0.008458017 0.01086192
0003a0 df f7 c6 3b 06 17 84 3c 45 e3 90 3b f8 9c 8f 3c
       0.006072029 0.01612426 0.004421624 0.017530903
0003b0 42 e2 5c 3a ae 07 07 3b 2d 05 03 bb a1 7b 88 3c
       0.0008426049 0.0020603943 -0.0019992099 0.016660513
0003c0 94 31 b7 bc 48 10 5d 3a 1b e6 40 bb 2c 22 bc 3a
       -0.022362508 0.0008432907 -0.0029434029 0.0014353446
0003d0 3e cc 05 3d 1c 7f 26 3c 55 f7 d6 3a 34 65 30 bb
       0.032665484 0.010162141 0.0016400615 -0.002691579
0003e0 02 ef 4e 3c df fe 08 3c 24 24 b4 3c 99 f1 ae bb
       0.012630226 0.008361547 0.02198989 -0.0053388593
0003f0 2f 8c b6 3b 6f ec 24 3c 95 06 12 3b 79 79 d0 3a
       0.0055709104 0.010066136 0.0022281755 0.0015905342

network_body._body_endoder.seq_layers.0.weight f4 [256, 134]
000000 45 09 f5 bd 58 07 fa 3d 71 52 b8 bc 00 1a 0d 3b
       -0.11964659 0.12208432 -0.022500249 0.002153039
000010 43 21 75 3c d7 e9 fd bc b5 9f 57 3d 12 65 84 bd
       0.0149615435 -0.030995293 0.052642543 -0.0646459
000020 8c 77 de bd a5 d4 3e bd e1 ed c6 3d 42 49 66 ba
       -0.108626455 -0.046589512 0.097133406 -0.000878472
000030 43 84 a0 3d b0 57 b5 3d ce 0e 07 3d 43 08 0b 3d
       0.07837727 0.08854616 0.032973103 0.033943426
000040 6b 64 70 3c bd 88 70 bd 2b c1 c0 bd 3c be 83 3d
       0.014672379 -0.058724154 -0.09411844 0.06432769
000050 0b cf be bd 53 29 dc bc c7 7a 8d bc f4 1f 0a 3c
       -0.09316834 -0.026875174 -0.017270459 0.00843047
000060 50 4e 5d be db 2c ee 3c a2 e3 92 3d b0 87 4f 3d
       -0.21611905 0.029074123 0.07172324 0.05066651
000070 0c b8 4c bd ad 94 86 bd 01 79 8d bd ef 87 34 3c
       -0.04998021 -0.065713264 -0.06907845 0.011018737
000080 e1 74 5c bd 31 c3 e7 3d 9c 5b 34 bd 4b dd 5d 3d
       -0.053822402 0.11316527 -0.044032678 0.05416612
000090 70 46 2e bd a8 b3 6c bd 42 32 e3 3d 21 6c d5 bd
       -0.042547643 -0.05778852 0.1109357 -0.104210146
0000a0 99 66 54 bd 93 89 82 3c 90 de 6e 3d 67 a4 7f bd
       -0.051855657 0.015934741 0.05831772 -0.062412646
0000b0 d0 a5 11 3d 5e 64 ac bc 56 52 e2 3d 2e 95 48 be
       0.03555852 -0.021043953 0.110508606 -0.19588158
0000c0 8d bd dc bb 43 2e 60 bd 9d 0f b5 bc d4 8e 06 bd
       -0.0067364634 -0.05473162 -0.022102172 -0.032851055
0000d0 b8 2f 31 bd 60 d5 99 bc 67 2e 3a 3e a6 40 5f bd
       -0.0432584 -0.018778503 0.18181764 -0.054505013
0000e0 31 5c c2 bd 77 77 56 bc 49 3c 9d 3d 55 ff 94 3d
       -0.0949024 -0.013090006 0.07677514 0.07275263
0000f0 b4 18 2e bd 9c 20 99 3d 64 5e 87 bd dc b0 64 3d
       -0.042504027 0.07476923 -0.066098005 0.05583273
000100 48 8f b5 bc 10 c3 ab 3c a0 1f 74 3d e3 38 77 be
       -0.022163048 0.020967036 0.059600472 -0.24142794
000110 e3 5e 52 3d 6c 34 a2 bd 97 cc 24 3b 7a ba 0a bc
       0.051360022 -0.07920155 0.002514636 -0.008467311
000120 bc c6 29 bb 29 30 ee bd 68 96 88 3d 38 33 52 bc
       -0.0025905808 -0.116302796 0.06669313 -0.012829594
000130 22 cd 68 bc 01 09 af bc 7a 8e 96 bd f2 f7 0c bc
       -0.014209064 -0.021366598 -0.07351394 -0.008604037
000140 60 4e 6d 3c dc 3b ba bc a0 d5 3d bd af 83 36 3e
       0.014484018 -0.022733621 -0.046346307 0.17823671
000150 21 5b 8e 3d 10 a7 d5 3c a2 ad 9e bd 60 4c 39 bd
       0.06950975 0.026080638 -0.077479616 -0.045238853
000160 8a c9 46 3d f5 29 bf bd ec c6 16 3e 40 08 da 3d
       0.048532046 -0.093341745 0.1472432 0.10646105
000170 0c fd 33 bc 01 fa 82 3d 7d 2d 98 3d f4 b9 0e 3d
       -0.010985624 0.06395341 0.07430551 0.034845307
000180 f5 59 06 be 36 52 57 3d 91 80 82 3d f9 58 17 3e
       -0.13120253 0.052568637 0.06372178 0.14780034
000190 e4 de e7 3b b6 70 07 3e 6f bb c9 bc ff 0e 10 3e
       0.007076131 0.1322659 -0.024625508 0.1406822
0001a0 16 8b b1 bd d2 bd a5 bd 84 85 2c 3d 26 ae 43 bd
       -0.08669107 -0.08092846 0.042119518 -0.047773503
0001b0 52 e5 53 3d 77 4e 09 be 4a 42 db 3d ef 8f 8f 3d
       0.05173237 -0.13408838 0.10706003 0.07009875
0001c0 78 5b ac 3b c1 c4 f8 bd 93 f8 3d 3c a3 f3 e2 bc
       0.0052599274 -0.12146903 0.011594909 -0.027704066
0001d0 e5 f4 73 3b 3d fc 91 bc 52 f9 bf 3d 1d d8 09 bd
       0.0037224826 -0.017820472 0.09373726 -0.033653367
0001e0 85 ac 65 3d a0 1c e5 bd 2c 0c af 3c 42 ca 94 bd
       0.05607273 -0.111871004 0.021368109 -0.0726514
0001f0 15 81 0d be c1 50 7f 3d 86 c9 9a bb dc b7 34 3d
       -0.13818772 0.062332872 -0.0047237305 0.044120654
000200 14 14 83 3d 3e ef 00 bc b3 4f 53 bd fe e5 13 3e
       0.06400314 -0.00786954 -0.05158968 0.14443204
000210 d9 39 08 bd 80 d4 5a 3c c0 99 99 bd e4 cb 78 bd
       -0.033258293 0.013356328 -0.075000286 -0.06074132
000220 9c 02 33 be 71 6c 44 3d 6e da 9f 3d c7 17 2d 3d
       -0.17481464 0.04795498 0.07805334 0.042259004
000230 d7 14 e3 bd e5 44 62 3c 27 d8 59 bd b4 68 25 3e
       -0.11087959 0.013810371 -0.053184655 0.16153222
000240 a7 36 82 3c 75 95 09 bc 43 fe 43 3d af cd 58 3d
       0.0158952 -0.00839745 0.047849905 0.05293053
000250 e2 de 3b 3d 8f bb d4 3d 6e 8e 86 bd d4 5e 22 3d
       0.045866854 0.103873365 -0.06570135 0.039641216
000260 cf 36 42 3c 79 c9 32 bc 88 fd 0c bd 01 a7 fb 3d
       0.011853888 -0.010912293 -0.034421474 0.12287713
000270 b8 57 02 bd d2 52 85 3d 28 23 47 3c 85 03 fa bc
       -0.031821936 0.06509937 0.012154378 -0.030519256
000280 6c d0 13 bd 08 3a 1a 3d 6d d7 de bd 44 7d 2e bd
       -0.03608744 0.037653 -0.10880933 -0.04259993
000290 3e 67 8a bd cf 08 87 3c 5f b2 e7 3c 71 cb dc bc
       -0.06757973 0.016483692 0.028283296 -0.026952477
0002a0 a7 c6 30 bd 27 58 c1 bb b3 4d 11 3e da 81 b2 bd
       -0.0431582 -0.005900401 0.14189796 -0.087161735
0002b0 5b 07 9d bd 31 63 11 3e 03 74 46 3e d3 9c c3 bd
       -0.076674186 0.14197995 0.19380192 -0.09551396
0002c0 bb 3b 6f bd fa d5 a0 3d 0e dd e9 3d 0c a5 be 3d
       -0.058406573 0.07853313 0.11419116 0.09308824
0002d0 d5 0e 49 3d 66 cf 00 3d 95 e3 21 3d b0 d5 d0 3b
       0.04908641 0.03144779 0.03952368 0.00637313
0002e0 46 67 c0 bc d7 19 a1 3d ad 8b 01 3c 40 0d f2 3b
       -0.023486745 0.07866257 0.007906836 0.0073868334
0002f0 33 93 81 3d 87 24 fa 3d cd b0 af 3d 80 bc 3f bd
       0.06326904 0.12213998 0.08578644 -0.046810627
000300 d9 71 86 3d a8 8a cf 3d d8 34 37 be ef 1f 5a 3d
       0.065646835 0.101338685 -0.17891252 0.05325311
000310 db 1d 06 3e d8 67 ad be 3a ba 8d 3d 47 74 8a bd
       0.13097326 -0.3386829 0.069202855 -0.067604594
000320 2d f7 8b bd 48 d1 6e 3d 68 db 53 3d f2 50 0a 3d
       -0.068342544 0.058305055 0.051722914 0.0337686
000330 87 81 90 bd 1f 40 dc 3d 61 3c d7 39 e5 a9 cf 3d
       -0.070559554 0.10754418 0.0004105298 0.10139827
000340 14 7b 5a 3d bd fc 9b bd 60 55 37 bd c8 9b 17 bd
       0.053340033 -0.076165654 -0.044759154 -0.0370138
000350 df 04 83 bd 3b 97 82 3d df 0a 30 3d 8c be 2e bc
       -0.063974135 0.06376501 0.042979117 -0.010665547
000360 84 a1 c3 bc 3e c0 11 3e 49 69 f0 bc 25 94 3e 3d
       -0.023880728 0.14233491 -0.029347079 0.046528
000370 e3 b7 72 3b 5d c5 83 bd 25 3f 40 3b a1 3f d7 3a
       0.0037035875 -0.064341284 0.0029334512 0.0016422161
000380 9c c6 65 3e 70 73 49 bd 6c d0 4b bd b6 98 f7 3c
       0.22439045 -0.049182355 -0.049759313 0.030224185
000390 52 89 1e be 2e ca c5 bb b6 9d 35 bc 71 5c 35 bd
       -0.15482071 -0.0060360646 -0.0110849645 -0.044277612
0003a0 43 73 82 3e d0 f8 dc bb 42 f1 90 bc 6d 6b fb bd
       0.25478563 -0.006743528 -0.017693166 -0.12276349
0003b0 4c 0c 90 3d f5 93 ca 3d fe e3 bd bc 0b 22 4e 3d
       0.070335954 0.09891502 -0.023180004 0.050325435
0003c0 81 fc 55 3c cc 43 90 bd 81 a8 ff 3d cd 6e 2b bd
       0.01306069 -0.07044181 0.124833114 -0.041853715
0003d0 11 27 08 bd f3 1f e1 ba 23 00 e0 bb b2 88 f1 bd
       -0.03324038 -0.0017175659 -0.006835954 -0.11793651
0003e0 09 c2 14 bd bd a5 ae 3d 20 f5 14 3c 23 3d 2b 3c
       -0.03631786 0.08527706 0.0090916455 0.010451588
0003f0 9b 14 26 bd 61 94 ab bc 40 b6 60 3d 8c 98 97 bd
       -0.040546995 -0.020944776 0.054861307 -0.07402143

network_body._body_endoder.seq_layers.2.bias f4 [256]
000000 71 51 78 3c 60 5a 09 b9 f8 32 b8 ba dd c3 76 bc
       0.015156136 -0.00013099005 -0.0014053276 -0.015061346
000010 1f 28 55 bb da 67 b6 bb ea a8 99 3b 4f b1 5e 3c
       -0.0032525135 -0.0055665793 0.0046893256 0.013592078
000020 34 3d 86 ba dd 62 97 3a 38 51 5e 3c 54 f4 38 3c
       -0.0010241629 0.0011549849 0.013569169 0.011288721
000030 db 4d 3a 3c ca 98 e7 3b fd 82 0d 3c da 10 f6 3a
       0.011371101 0.0070677744 0.008637187 0.0018773333
000040 f3 2d a4 bb 1f ba 1b bc b7 49 e7 bb 75 e4 aa bb
       -0.0050103604 -0.009504824 -0.007058348 -0.0052152225
000050 ee 9b a4 bb 03 f2 9b 3c ef a8 55 3c e2 01 ff bb
       -0.005023471 0.019036299 0.013040765 -0.007782207
000060 57 90 b0 3c 8d 0b 0b 3b 88 8b 66 3c eb da b9 3c
       0.021553202 0.0021216602 0.014071353 0.022687396
000070 1e fc 5c 3b 2c 3f 83 3b 84 e4 d2 3a 05 fb b7 3b
       0.003371961 0.0040053334 0.0016089831 0.0056146407
000080 28 1f 5c bb 80 b8 6c 3c 2d 30 06 3c fb b4 51 3b
       -0.0033587907 0.014448285 0.008190197 0.0031998742
000090 13 86 9f 3c bb f7 4a 3b 08 59 52 3c 4b da 20 bc
       0.019473111 0.0030970413 0.0128386095 -0.00981767
0000a0 16 5f ab ba 2e ca 10 bc 0d 85 7d 3c fc 90 3d bb
       -0.0013074602 -0.008837266 0.015473616 -0.0028925529
0000b0 46 cf 50 3c 77 79 5b 3b ac 91 8c 3c 8c bb 8b ba
       0.01274473 0.0033489147 0.017159306 -0.0010660752
0000c0 f2 14 5f 3c 16 1d f1 3b ab 32 15 bc c5 1a f7 3b
       0.013615834 0.0073582036 -0.0091063185 0.007541033
0000d0 59 d7 29 ba db 04 83 3c f7 86 d8 3b de ca 86 3c
       -0.00064789277 0.015993526 0.006607886 0.016454156
0000e0 ac a0 de 3b 5e e3 93 39 29 df cb 3c b8 f8 3b 3a
       0.006794056 0.00028207427 0.024886684 0.0007170546
0000f0 2f f6 18 bc 57 7d 4e bb d3 1a 07 3a fd 5c 80 3b
       -0.0093360385 -0.0031507814 0.00051538384 0.003917335
000100 2b 1d 1f 3b e4 ed 79 3c 5e 86 6e 3c 65 01 44 3c
       0.002427886 0.015254471 0.014558403 0.011963223
000110 ab 64 97 3c 0c e4 81 3c f8 a1 b4 3b 06 ac 13 bc
       0.01848062 0.015855812 0.0055124722 -0.009013182
000120 ca af 49 3c d9 6e 91 3a 5d e4 d7 ba 68 c8 22 3c
       0.012309978 0.0011095657 -0.0016471256 0.009935476
000130 79 b0 3a 3b cb c9 33 3b b4 91 f7 3b 85 99 f7 3b
       0.0028486534 0.002743351 0.007555211 0.0075561428
000140 90 52 78 bb 4f 86 c8 3b 13 3a 0a 3c 1f 95 31 bc
       -0.0037891008 0.0061195265 0.008436698 -0.010838776
000150 06 0f e0 bb 63 c8 42 3c d3 62 9e 3b e7 7e 1f 3c
       -0.0068377284 0.011888596 0.004833558 0.009734846
000160 a1 72 da 3b 1a 1b 19 3d 16 47 61 bb da aa 96 bb
       0.006666497 0.03737936 -0.0034374646 -0.004598004
000170 e4 4d 29 3c 34 54 86 3b 1a e5 da bb e3 8e 69 3a
       0.010333512 0.0040993933 -0.006680143 0.00089095364
000180 94 d9 34 3c e4 26 8f bc 3f c2 95 bb fd 72 94 bb
       0.011038203 -0.0174746 -0.004570275 -0.0045303092
000190 00 6a 52 3b 3c e4 9e bb f0 80 4c 3c a9 3d 65 bc
       0.0032106638 -0.004848985 0.012481913 -0.013991752
0001a0 e1 48 c3 bb 47 3d 28 bb 2f 64 58 3a 5c 5c 8a 3c
       -0.0059596156 -0.002567129 0.00082546746 0.016889744
0001b0 90 2b a9 3b d6 52 9d 3a d3 8a 6b bb b2 3e 18 3c
       0.0051626638 0.0012002836 -0.00359409 0.0092922915
0001c0 fa 8b 44 3c 14 40 d8 3c 09 71 b2 3b 58 fd ee 3b
       0.011996264 0.026397742 0.0054456037 0.0072933845
0001d0 8a e2 d2 3b 31 0d 85 3c ac 69 03 bb 7c 9c e6 3b
       0.006435697 0.016241642 -0.0020052 0.0070376974
0001e0 ad 3f 5f bb 70 bd 80 3c 5d 5e 6f 3c 66 ea 3e 3c
       -0.0034065053 0.01571533 0.0146099 0.011652565
0001f0 84 04 19 bb d3 13 7c 3b 88 7f e8 bb d4 4f 8a 3a
       -0.0023348639 0.0038463965 -0.007095281 0.0010552355
000200 f6 a2 8d 3c 38 35 8c 3b 18 0d be 3b c0 58 89 3c
       0.01728962 0.004278805 0.0057999007 0.016765952
000210 6f 46 e3 ba 30 01 a7 3b 81 10 99 3c cb 4c 89 3b
       -0.0017339716 0.005096577 0.018684627 0.0041900626
000220 d8 6b 95 b9 20 d5 01 3b 67 37 82 3a 1f 14 fc bb
       -0.00028499844 0.001981087 0.0009934724 -0.0076928283
000230 46 21 3b 3b 21 a0 47 3c 46 f9 a8 ba 21 f8 3f 3a
       0.0028553768 0.012184174 -0.0012891672 0.0007323046
000240 b7 9c ca bb 97 0e 40 3c 59 16 c2 ba 14 17 41 bc
       -0.0061832326 0.0117222285 -0.0014807686 -0.011785287
000250 40 ab c0 3b 6a 27 90 3b 1e be 9c 3c db 58 81 3c
       0.0058797896 0.00439923 0.019133624 0.01578944
000260 3e 02 de bb 1a 38 0a 3c c5 ef 9d 3c a8 0a 35 3b
       -0.0067751696 0.008436227 0.01927937 0.002762476
000270 6d 35 11 bc 2d a6 31 3b 68 dc 1c 3c d5 c9 c4 bb
       -0.008862835 0.0027107105 0.009574033 -0.0060055056
000280 db 8c 18 3b d5 9b da 3b f1 7e 03 3c 94 69 0e 3c
       0.0023277316 0.0066714087 0.008025871 0.008692164
000290 26 7b bc bb 59 e6 e7 bb 12 b3 22 bb 7c 0d cd ba
       -0.005751985 -0.00707702 -0.0024825973 -0.0015644277
0002a0 d5 0b 28 3b 3a cb f9 3b 4d 28 f0 3b 4d 7a 4d bb
       0.0025641818 0.0076231034 0.007329023 -0.0031353415
0002b0 b2 6c 6f 3c c6 35 20 3b 41 a9 f0 3b 71 d3 cf 39
       0.014613317 0.0024446114 0.0073443954 0.00039639653
0002c0 6a 41 2d 3c 0e bb a4 bb 74 6c 52 3c 50 65 ed b8
       0.010574678 -0.0050271815 0.01284324 -0.000113199116
0002d0 ad ab 65 3c f2 2b 58 3c 1a 65 69 39 7c c5 1d bb
       0.0140179815 0.013194071 0.00022258275 -0.0024074009
0002e0 25 4f 98 ba 19 18 03 3c eb b9 1e 3c 6b e3 7a 3c
       -0.0011620267 0.008001351 0.009687881 0.01531301
0002f0 d2 7b 23 3b 59 5c b5 3c 40 a0 d9 3b de fb c1 bb
       0.0024945629 0.022138761 0.0066414177 -0.0059199175
000300 cb 2a 43 bb d2 28 8b 3a 06 58 20 3c eb 17 d4 ba
       -0.0029780145 0.0010617024 0.009786611 -0.0016181445
000310 1e 42 30 3c 55 88 a4 b8 5f 75 30 3c e4 44 0f 3c
       0.010757951 -7.845523e-05 0.010770171 0.008744452
000320 fd 17 1b 3c bc 61 bc ba 6e 45 96 bb 1b 06 f4 3a
       0.0094661685 -0.0014372389 -0.0045859134 0.0018617542
000330 08 90 88 3c af 43 45 bb ca 9f bc 3a 2c 21 90 3c
       0.016670242 -0.0030100157 0.0014390883 0.017593943
000340 d6 87 53 3c e5 82 0c bc 3f f1 0b 3c 44 ae 21 3c
       0.012910804 -0.00857613 0.008541404 0.009868208
000350 16 5a 7a 3b 3e 3e f2 b9 19 54 60 3b b8 67 2f 3c
       0.0038200668 -0.0004620421 0.0034229814 0.010705881
000360 85 7e e3 39 99 b2 80 3b 83 1a 43 bb 7a a2 d4 38
       0.00043391078 0.0039275405 -0.002977044 0.000101392114
000370 77 57 bc 3b 4c 95 8a bb 76 bc 49 3c e8 4f 11 bb
       0.0057477313 -0.0042292234 0.012312999 -0.0022172872
000380 bf 74 a6 3b da 7b c9 3c 88 bf fa ba 4a 81 9c 3b
       0.005079835 0.02459519 -0.0019130567 0.0047761546
000390 d3 0f b7 3b c1 31 6d 3c 19 47 17 3b 7a c6 eb bb
       0.005586603 0.014477194 0.002308315 -0.007195291
0003a0 88 ab 75 3b 9e 24 9d bb 8e 26 0a 3c 4a 0e 13 bb
       0.0037486274 -0.004795625 0.008432044 -0.0022438937
0003b0 d2 83 30 3c 9d 87 6c 39 ae 18 ce bb fd 4f 88 3c
       0.010773616 0.00022557234 -0.006289563 0.016639704
0003c0 6c 83 59 bb f3 e0 18 3c 2f 30 9c 3b be 3c 88 3a
       -0.0033189906 0.009330976 0.004766486 0.0010394079
0003d0 51 a5 34 3c 1f b8 36 3c 39 da fa 3b 80 99 11 bb
       0.011025743 0.011152296 0.0076554087 -0.0022216737
0003e0 03 97 4d 3c 21 27 1f bc fc c9 9a 3c b6 c7 ee bb
       0.012548211 -0.009713919 0.018895142 -0.007286991
0003f0 33 15 13 bc 59 2e 19 3c 1e 6d 85 3b d8 51 a3 bb
       -0.008977222 0.009349429 0.0040718457 -0.004984122

network_body._body_endoder.seq_layers.2.weight f4 [256, 256]
000000 49 7a 04 be 86 40 b4 3b 91 b5 0c 3c 54 8a b9 bc
       -0.12937273 0.005500856 0.008588211 -0.022648968
000010 8d 3e b2 bc a6 a0 9e bc 2d 2f 18 be ab 5d 40 3d
       -0.021758342 -0.019363713 -0.14861746 0.04696433
000020 17 f7 0d 3e e0 58 be 3c 34 f2 04 bd 96 f5 47 3d
       0.13863789 0.023235738 -0.032457545 0.048818193
000030 64 97 ca bb f2 6b b8 bd 59 90 68 3d cb 7c 84 3d
       -0.006182598 -0.09004964 0.056778286 0.06469115
000040 66 45 d2 bd 3b 9f 12 bd 00 ac 0a bd 42 9f 34 3d
       -0.10267143 -0.035796385 -0.03385544 0.044097193
000050 59 6f e0 3d e2 09 24 3d aa 0b 2a 3e d5 ad 3c bd
       0.10958738 0.040048487 0.16606012 -0.046064217
000060 fe a2 a8 3d 9e 05 b3 bb fe 11 1e 3d 03 a4 82 3d
       0.08234213 -0.005463316 0.038591377 0.06378939
000070 40 c1 0d 3c 0f 76 82 bc 39 cb 7d bd 13 ab 1d 3d
       0.008652031 -0.015925435 -0.061961386 0.038493227
000080 f6 a8 25 bd 54 33 8d 3d f6 e9 22 bd 55 8a b2 bc
       -0.040444337 0.06894556 -0.039773904 -0.021794477
000090 06 08 98 bd 94 5b d1 bd 99 7c 74 3c 20 7d 75 3d
       -0.07423405 -0.10222545 0.0149222845 0.05993378
0000a0 e7 cb 0f 3d 04 55 3d bd 79 1b f5 3d 11 80 76 3d
       0.035106566 -0.046223655 0.119681306 0.060180727
0000b0 34 4e 27 bd 45 c9 3d 3c 1d bb fa bc 17 2d 90 bc
       -0.040846065 0.011583631 -0.0306068 -0.017599626
0000c0 c2 27 6f bd e0 ea a0 3d fe a0 0c bd f2 82 d4 bd
       -0.058387525 0.07857299 -0.03433322 -0.10376538
0000d0 ce 4e 93 bd a2 c4 bf bc 65 d8 9b bc a7 78 8c bd
       -0.07192765 -0.023409192 -0.019024083 -0.0685895
0000e0 1e cb 57 3c 79 ec 1a 3c 1b 19 97 bc 38 cd 87 3a
       0.0131709855 0.009455794 -0.018444588 0.0010360843
0000f0 69 4c 1c 3d 23 7d be 3d 44 21 08 3e 14 d9 c3 bc
       0.038158808 0.09301212 0.1329394 -0.023907222
000100 d4 db 36 3d 04 13 a3 bd 13 a2 f8 bc 6f 51 47 3d
       0.04464324 -0.07962611 -0.03035072 0.048661646
000110 66 9b e6 3c ee 86 81 3d 7a f8 b3 3d b5 e5 3b 3b
       0.028150272 0.06324564 0.087876275 0.0028670852
000120 1f e3 41 bd eb 55 e5 3c b5 1e e2 bc 7c 7c 4a 3e
       -0.04733574 0.02799507 -0.027602533 0.1977405
000130 b5 13 06 be 6c 0b 23 bd 05 34 a2 3d 41 1e 9c bc
       -0.13093455 -0.039805815 0.07920078 -0.019057395
000140 f7 63 4a bc 55 a4 c7 3d 23 ec 99 3c 8f 3f 8a 3b
       -0.012352935 0.09748141 0.018789357 0.0042190026
000150 35 c3 be 3d 90 38 bd 3d b7 7d ab 3c 4c aa ef bc
       0.093145765 0.09239304 0.020933969 -0.029256009
000160 31 8e 03 3c e1 92 71 bd d0 b1 06 3d 15 8d 61 3c
       0.008029507 -0.058977965 0.03288442 0.013766547
000170 d0 27 9b bd cc 6c af bd 6b 43 82 3b 41 73 0c 3d
       -0.07575953 -0.08565673 0.003975322 0.034289602
000180 4d 7f c3 3d 15 56 bf bd 3a d3 8a 3c af d2 b6 bd
       0.09545765 -0.09342591 0.016946424 -0.089269035
000190 73 b1 fd 3d a7 6d 4c bd 83 50 49 3e 3b ca 94 3d
       0.123873614 -0.04990926 0.19659619 0.07265135
0001a0 a1 05 5c bd c1 9b 13 bc 5e 75 ab 3d 1f e5 ae 3d
       -0.053716306 -0.009009303 0.083719954 0.08539795
0001b0 12 3b c6 bc 58 ea 00 3d 94 10 06 be d0 72 1e bd
       -0.024198089 0.031473488 -0.13092262 -0.038683712
0001c0 93 21 27 bd 66 60 e1 3c 9e 87 3b 3c 16 1f a9 bd
       -0.040803503 0.027511787 0.011445908 -0.08257882
0001d0 90 fe a9 bd 26 30 79 bd 9b 16 c7 3c fe 0b ee 3b
       -0.08300507 -0.060836934 0.024302771 0.007264613
0001e0 d3 b0 c3 bc db be f3 bd 9b c5 bb 3b be 13 57 3d
       -0.023888027 -0.11901637 0.0057303435 0.052509062
0001f0 89 8a 64 3d 13 e6 56 3c cc 85 e9 bb 56 fb 11 bd
       0.05579618 0.013116377 -0.0071265455 -0.035640083
000200 f5 ec 9c 3a 05 95 8d 3c 64 0f 77 3d f5 4e 0d bd
       0.0011972474 0.017282972 0.060317412 -0.034499127
000210 94 39 c9 3c ac 82 d7 bc 5d 52 29 bd 46 e7 c4 3d
       0.024563588 -0.026307426 -0.041338313 0.096144244
000220 fd 3a 32 3d 14 a0 a0 3c 4b 03 8d bd 33 0a 1a 3d
       0.043513287 0.019607581 -0.06885394 0.037607383
000230 c2 3e 3f 3c de 71 2b 3c c9 9f 3c 3d f4 7d a8 bd
       0.0116726775 0.01046416 0.04605082 -0.08227149
000240 37 c2 e2 39 81 e7 bb bb f9 f0 77 bd aa d2 7a 3d
       0.0004325078 -0.0057343845 -0.060532544 0.06123606
000250 9e f7 e1 bc 4f 49 1f bd a7 5e c8 3d fe f2 83 3d
       -0.027583893 -0.038888272 0.097836785 0.064428315
000260 a2 b1 ef bc 6f 71 ae bd f5 71 7c 3d 80 bd 02 bc
       -0.029259507 -0.085177295 0.061632115 -0.007979751
000270 00 27 94 3d 9c 1f 5f bd 0a 14 41 bd 88 80 ad bd
       0.07234001 -0.054473504 -0.04713825 -0.08471781
000280 cb 3c ef 3c 73 87 2f 3e 0f 78 03 bd 53 2c e0 3c
       0.029203793 0.17141514 -0.03209692 0.027364885
000290 8b e6 ff bd 9b dc 11 3d 7c 36 0c be f6 2d 77 3c
       -0.124951445 0.035610776 -0.13692659 0.015086642
0002a0 ce 19 78 3b 6f c0 32 bd 46 73 b3 3c 98 42 ce bc
       0.0037857178 -0.04364055 0.021905553 -0.025178239
0002b0 5d fe 10 bc 8e 64 d8 39 7e f3 53 3d 0d 53 df bc
       -0.008849707 0.0004127365 0.051745884 -0.027261281
0002c0 0a b9 70 bc a1 33 b1 3c cd 93 bc 3d 2a c2 95 bd
       -0.014692554 0.021631064 0.09207878 -0.073124245
0002d0 d3 bf 9d bc bb a5 e7 3d 29 bc 56 3d b6 46 96 bd
       -0.019256508 0.113109075 0.052425537 -0.07337706
0002e0 18 be 97 3d d3 5f 48 bd 10 ed f9 bb df 22 1f bd
       0.074093044 -0.04891951 -0.007627137 -0.038851615
0002f0 83 da d0 bc 2b 80 23 3c 97 24 34 3d 6b 32 08 3e
       -0.02549482 0.009979288 0.043980207 0.13300483
000300 5e 11 bb bc 68 ef b2 bc 8d fc 7d 3d 23 4f b7 3d
       -0.02283543 -0.021842673 0.06200843 0.08950641
000310 56 e7 25 bd c7 81 b4 3d 16 ef a5 bc 84 5d a2 3d
       -0.040503822 0.088138156 -0.020255607 0.07927993
000320 17 a5 d0 3d e3 55 40 3d ce 53 e7 3c 83 c2 db 3d
       0.101877384 0.046956908 0.028238203 0.107304595
000330 fc b0 8e bc d1 54 3d 3d 02 c0 cb 3c e2 e9 0c bd
       -0.017418377 0.046223465 0.02487183 -0.034402736
000340 15 e5 ff bc d9 69 ca bc d0 ff 76 bd 9b cd e9 bc
       -0.031237165 -0.024708675 -0.060302556 -0.028540423
000350 64 4b 6f 3d 44 ac f1 bc 9b bb a9 3c 36 35 b3 3c
       0.058421507 -0.029501088 0.02071934 0.021875959
000360 c5 21 83 bd f1 3e 0c bb f6 72 94 bd 11 3d 41 bc
       -0.064029254 -0.002139982 -0.072484896 -0.0117943445
000370 d7 77 28 3d 35 36 c3 bd 6d 9d b2 bc 0d 13 c6 bc
       0.041129913 -0.095318235 -0.021803582 -0.024179006
000380 e9 61 75 bc 3f 70 89 3c c2 3d 51 3d 59 54 0c 3d
       -0.014976957 0.016777156 0.051084287 0.034260128
000390 a6 a2 a5 3c c8 f4 41 3d d8 94 23 be 1e cf 00 bc
       0.020219158 0.047352582 -0.15974748 -0.007861881
0003a0 0a ea 66 bd f0 3a 1d bd 43 a9 29 bc 40 3e ce bc
       -0.05637554 -0.038386285 -0.010355297 -0.025176167
0003b0 97 e4 eb bb 20 41 80 bd 1b fc ac 3d 45 af c3 bd
       -0.007198881 -0.062624216 0.08446523 -0.095549144
0003c0 87 e5 68 bd 7b 7e b9 ba 80 da 2b bd 33 67 1a 3d
       -0.05685952 -0.0014152074 -0.041956425 0.037696075
0003d0 dc 95 04 3e 0b b2 62 bc 38 36 23 3d f0 10 2c 3c
       0.12947792 -0.013836394 0.03984663 0.010502085
0003e0 84 92 b1 3d 3f 80 9e 3c 57 62 56 bc 99 df b3 bd
       0.08670524 0.019348262 -0.0130849695 -0.08782882
0003f0 5b 0d f1 3c 00 46 01 3e 5c 09 71 bd 63 5b 2d bc
       0.029425314 0.12624359 -0.058846816 -0.01058087

network_body._body_endoder.seq_layers.4.bias f4 [256]
000000 a3 72 56 3c 86 01 57 3c d6 a7 8d bb 5c d5 76 bb
       0.013088855 0.013122922 -0.004322986 -0.0037663793
000010 17 ed 72 3c 13 a7 f0 3b 07 70 47 3c e2 7e 4d 3b
       0.014827034 0.0073441355 0.0121727055 0.0031356146
000020 8c bf 53 3c ba 41 ce 3a d0 48 a1 3b e7 c0 3d bc
       0.012924086 0.0015736141 0.00492201 -0.011581636
000030 17 74 e1 3a c1 f4 8c bb f6 63 57 3c 58 04 a7 3b
       0.0017200735 -0.004301638 0.013146391 0.0050969534
000040 fd 18 f6 3b 43 5b 86 bb d0 31 1b bc 50 09 1b bc
       0.007510303 -0.0041002347 -0.009472325 -0.0094626695
000050 91 a1 52 3c b0 80 ea b9 13 4f e7 3b b8 fa 01 3c
       0.012855903 -0.00044727838 0.007058987 0.007933311
000060 de dc 1d bc 8b 6f 34 bc d1 39 31 bb cb fe bc ba
       -0.009635178 -0.011012922 -0.0027042518 -0.0014419196
000070 4b d8 35 bb 30 96 37 bb 0d c2 ec 3b 74 94 22 bc
       -0.002774733 -0.0028013103 0.007225281 -0.009923089
000080 66 f9 ce 39 7b f3 19 3b 46 1e 33 3c 31 d2 2c 3c
       0.00039477198 0.0023491073 0.010932511 0.01054816
000090 23 5f 7e 3c b6 a8 5b 3c 9a eb bd 3c 0f 43 c2 3c
       0.015525612 0.013406923 0.023183633 0.023713617
0000a0 4b c4 4a bb 34 fd 34 3c 13 f6 c2 bb 8d 26 08 3b
       -0.0030939754 0.011046696 -0.0059497445 0.0020774931
0000b0 93 d6 9f 3c 25 26 b1 ba e0 37 92 3c ab b8 91 bb
       0.019511497 -0.0013515396 0.017848909 -0.004447063
0000c0 e0 0c 4a bc b4 3c 07 bb a4 a4 79 3c e2 b2 83 3a
       -0.012332171 -0.0020635547 0.015237007 0.0010047818
0000d0 f0 df a5 3c 62 7c 21 b9 43 d2 a3 39 a5 9a 0a bb
       0.020248383 -0.00015400493 0.0003124644 -0.0021149304
0000e0 18 c0 4a 3c fe ff 98 3b e2 5f 42 3c ed e6 2c bc
       0.0123749 0.0046691885 0.011863681 -0.010553104
0000f0 dd 1e 4e 3c 77 b6 f2 3a 02 da 1d bc 2c 4d 4d 3b
       0.012580601 0.0018517514 -0.009634497 0.0031326516
000100 a4 71 98 bb 3f 52 c3 3b ec 4d 2e ba 6d 7b 06 3c
       -0.004652219 0.005960732 -0.00066491845 0.008208138
000110 bb ac 30 3c 34 15 82 3c 0f e0 db 3b 43 d1 99 3c
       0.01078337 0.015879251 0.0067100595 0.018776542
000120 5a 4f 03 3b 49 41 c7 3b 9c a1 5e 3c 83 d8 6a bb
       0.002003631 0.0060807806 0.013588335 -0.0035834617
000130 21 a8 6b 3c e3 1b 52 3c 25 e5 85 3c 5b ad 9d 3b
       0.014383347 0.0128240315 0.016344616 0.0048119253
000140 6d bd ad 3c 20 cd 74 bc c5 7b e2 3b 0c c2 36 bb
       0.02120849 -0.014941484 0.006911727 -0.0027886657
000150 2e 7f 82 3b f7 5c f0 b8 8d 21 91 3c 4a 9d eb bb
       0.003982446 -0.00011461408 0.017716194 -0.007190381
000160 7c ee c3 ba 2c aa 43 3c 93 41 6b 3c 13 e3 c6 3b
       -0.0014948393 0.011942428 0.014358896 0.00606955
000170 e5 27 2f 3b cc b8 07 bb 97 73 63 3c 75 aa 4c bb
       0.002672666 -0.0020709513 0.013882539 -0.003122953
000180 fe fc 6f 3b d1 aa 93 3c 79 64 c9 3b af 8c ea bb
       0.00366193 0.018025788 0.0061460105 -0.007157884
000190 66 21 88 3b d5 1c 34 bc 75 d3 6b ba ca 63 9c 3b
       0.004154372 -0.010993202 -0.0008996048 0.004772638
0001a0 ac c4 07 bc 4a 0d 72 3c 2f 41 87 3c 32 6f cb bb
       -0.008286636 0.014773676 0.016510574 -0.006208324
0001b0 ee d0 a3 3c 2c 11 0d 3c c4 ff ad 3c 46 34 69 3c
       0.019997086 0.008610051 0.021240123 0.014233654
0001c0 a4 99 a0 ba f9 1a 66 3c 5a 89 58 3c e4 05 7e 3c
       -0.001225282 0.014044517 0.013216341 0.015504334
0001d0 95 95 30 3c 40 96 94 bb 3d af 6f bb ee 90 8c 3c
       0.010777851 -0.0045345128 -0.0036572956 0.017158952
0001e0 21 36 02 ba 9b 63 7d bb 52 99 19 3b 87 20 53 bb
       -0.0004967172 -0.0038664106 0.0023437333 -0.0032215433
0001f0 8c be 10 bb 39 6c 53 3c 89 66 3b bb 79 71 72 3c
       -0.002208623 0.01290422 -0.0028595051 0.014797562
000200 2e 49 19 3c 16 65 74 3c ae 15 70 3c 47 71 17 3b
       0.009355826 0.014916679 0.014653606 0.002310829
000210 4b c1 b5 bb ae e0 33 3a 43 54 dd bb a2 fb 77 3c
       -0.005546724 0.0006861788 -0.0067544295 0.0151356775
000220 d0 7b 9d 3c 2e 97 44 bc 72 fc 44 3c 02 bb 20 b8
       0.019224077 -0.011998935 0.012023078 -3.8321137e-05
000230 8e 21 86 bb f3 a2 4c 3b 6b 02 b2 bb 4d 66 90 bb
       -0.0040933555 0.0031225055 -0.005432417 -0.0044067265
000240 de 9a 29 3c a4 b1 10 3c 91 bb de 3b 95 ca 71 39
       0.010351865 0.008831415 0.006797262 0.00023059019
000250 60 8a d3 3a ca dd a2 3c a4 b4 52 bb a7 0e 5a b9
       0.0016139261 0.019881148 -0.0032151127 -0.00020795559
000260 d6 94 c2 ba c3 da 82 3b a3 d3 8b 3a a4 47 a3 3a
       -0.0014845382 0.0039933636 0.0010667931 0.0012457264
000270 c7 62 9e 3a 72 d1 d1 bb c7 fe 0d 3c 5b 58 18 3c
       0.0012083881 -0.0064031417 0.008666701 0.009298409
000280 b7 88 61 bb dd 60 29 bc a3 1a 53 3b 6d cd 94 bb
       -0.0034413764 -0.010338035 0.0032211922 -0.00454109
000290 de 5c 78 3c 64 4c 1d 3c 73 d5 67 3b 1a 0a 16 3c
       0.01515886 0.0096007325 0.0035375028 0.009157682
0002a0 7b d7 98 3c eb 40 1f bb 60 7f 30 bc a9 10 88 3c
       0.018657437 -0.0024300169 -0.010772556 0.016609507
0002b0 2d 1d 60 3c 32 55 eb bb f6 0b db 3b 45 d1 b2 39
       0.013678831 -0.007181787 0.0066847755 0.00034106724
0002c0 b0 42 cc 3c 1c a2 35 3c a3 87 25 3b ff c4 2c 3c
       0.024934143 0.011086013 0.0025257848 0.010545014
0002d0 a1 a9 85 3c ec 7c 3f 3c b8 f6 36 3b 63 f0 67 3c
       0.016316237 0.011687499 0.0027918052 0.014156434
0002e0 37 a1 41 bb 7e 76 07 3a bb bb 4a 3a 39 04 18 3c
       -0.0029545554 0.0005167498 0.00077336625 0.0092783505
0002f0 91 a4 21 3c 71 dd e4 ba b0 ed df bb 85 67 82 3b
       0.009865896 -0.0017461014 -0.0068337545 0.0039796256
000300 84 44 08 3c 8f af c4 bb 03 5d d0 3b ed a4 c6 ba
       0.008317117 -0.0060023735 0.006358744 -0.0015155353
000310 a4 69 5b 3b 6f 09 2d 3c 59 79 34 3c 8f d9 4e bc
       0.0033479715 0.010561331 0.01101526 -0.012625112
000320 b8 30 82 3b b3 d9 22 bc 28 60 8c ba b7 ad 75 3c
       0.003973093 -0.009939599 -0.0010709809 0.01499503
000330 17 52 1e 37 72 c0 11 3c 5a 7b 56 bb 90 be 58 bb
       9.436647e-06 0.00889598 -0.0032727332 -0.0033072568
000340 c1 0b 4b 3b 89 1c 12 bb 24 98 71 3c f0 fc e4 3b
       0.0030982348 -0.002229484 0.014745746 0.0069881603
000350 00 ad d0 3b 1e 68 44 3c 0e 0f b7 3b 77 0f 99 3c
       0.0063682795 0.011987714 0.0055865115 0.018684132
000360 85 5c b5 bb 19 60 a0 3b 92 a8 31 3c 70 a3 9e 3c
       -0.005534711 0.0048942682 0.010843413 0.019365042
000370 7a 15 05 3c 4d 98 b4 bb da c2 ea 3b ab 91 2f 3c
       0.008122796 -0.0055113197 0.0071643414 0.010715882
000380 12 a6 4a 3c e0 a3 1e bc 84 12 21 bc 4b 6a a1 3c
       0.012368696 -0.0096826255 -0.009831075 0.019704005
000390 17 38 0a 3c f9 0a bd ba b5 97 16 3c 09 3d 92 3b
       0.008436224 -0.0014422826 0.009191443 0.0044628424
0003a0 fe fa 0d 3b c2 ce 14 3b 72 80 8d ba 10 d8 7b 3a
       0.0021664496 0.0022706245 -0.0010795726 0.0009607086
0003b0 a1 3e d0 3b 62 1c 3e bb 98 9a c7 3c 87 29 01 bc
       0.006355122 -0.0029008617 0.024365708 -0.007883436
0003c0 4d f4 a0 3c eb ed f3 ba 50 49 96 3b 83 82 ab 3a
       0.019647742 -0.0018610334 0.0045863762 0.001308516
0003d0 b6 1e 82 3c 15 6d 9d bb d5 81 8f 3b e6 a0 9b 3c
       0.015883785 -0.0048042634 0.004379491 0.01899762
0003e0 20 93 4d 3c b0 79 ff 39 23 b6 82 bb a6 ae 24 3c
       0.012547284 0.00048728054 -0.0039889975 0.010051405
0003f0 ef 40 b5 3c 36 2d 2d 3a 32 c3 40 3c 75 94 2c bb
       0.02212569 0.0006606163 0.011765288 -0.0026333604
