Assets/Training/results/RUN3/SzitakotoBehavior.onnx (onnx, 670607 bytes, 13 tensors)

65 f4 [132]
00000000: 1af1 913e 86b4 ec3e 90bd d23e 85a9 6d3e
00000010: d93e 853e 79d9 ea3e 989b d53e 8749 723e
00000020: f5c9 923e 8e74 f03e 49b3 d83e c637 673e
00000030: ce41 493e 6f67 eb3e 28a8 e03e 7ac4 783e
00000040: c153 8d3e ee40 f23e 1c1a de3e 19ca 623e
00000050: 21ab 0f3e a64b ed3e 6a0b e83e e18e 7c3e
00000060: ea7f 813e 0a0b f23e a5fb e13e f4d6 603e
00000070: 524e ef3d cd4e f13e dde5 ed3e a644 7f3e
00000080: fbc0 663e a83b f23e e7db e53e 71dd 5f3e
00000090: ad6b e33d 1e4b fb3e 3e90 f93e 25c6 833e
000000a0: b6ca 523e 2301 f63e d0a5 ed3e 3e78 623e
000000b0: 1e1a 923e 278e ec3e d403 d33e 0e45 6c3e
000000c0: 0267 853e e4be ea3e 6dd0 d53e 98e0 703e
000000d0: 62fc 923e c636 f03e 01f7 d83e 70b6 653e
000000e0: 339e 493e 284f eb3e f9e9 e03e 48a4 773e
000000f0: fa88 8d3e 621e f23e a74c de3e 156a 613e
00000100: 0eef 0f3e 0227 ed3e a742 e83e 5d0e 7b3e
00000110: 5aa3 813e 01fe f13e 5a23 e23e 9827 5f3e
00000120: f8ae ef3d 3616 f13e a50e ee3e 11d9 7d3e
00000130: 4c06 673e 3de9 f13e 3142 e63e 922f 5e3e
00000140: 89ac e33d 8640 fb3e 90c2 f93e 6ef4 823e
00000150: 3509 533e 10ed f53e 94d6 ed3e 41d7 603e
00000160: c942 923e 866c ec3e 544b d33e 0b2b 6b3e
00000170: d78d 853e d79f ea3e a137 d63e 0873 6f3e
00000180: 292d 933e db03 f03e 8b1f d93e 352d 643e
00000190: 96f0 493e dd37 eb3e d32b e13e 873b 763e
000001a0: 01bf 8d3e 8ffb f13e e5bc de3e 67f1 5f3e
000001b0: 3132 103e d804 ed3e 196a e83e edaf 793e
000001c0: c7c6 813e a1c7 f13e 7541 e23e 96bb 5d3e
000001d0: 0210 f03d a4ea f03e 5d5b ee3e 935c 7c3e
000001e0: 4d4e 673e 78ce f13e 16b2 e63e acb1 5c3e
000001f0: 18ef e33d 6836 fb3e d8e0 f93e 572a 823e
00000200: 2647 533e 7cde f53e 24f8 ed3e 4f0b 5f3e
0.28504258 0.46231478 0.4116025 0.23209198 0.2602451 0.45869043 0.4172027 0.23660861
0.28669706 0.46963924 0.42324284 0.2257987 0.19654009 0.4597735 0.43878293 0.242937
0.27602962 0.47315162 0.43379295 0.22147407 0.14030124 0.46346778 0.45321208 0.24663879
0.25292903 0.47274047 0.44137302 0.21956998 0.1168486 0.47130433 0.46464434 0.24928531
0.22534554 0.4731114 0.44894335 0.21861817 0.11104522 0.49080747 0.4874286 0.2573711
0.2058514 0.48047742 0.46415567 0.22116181 0.2853555 0.46202204 0.41213858 0.23073217
0.2605515 0.45848763 0.4176058 0.23523176 0.28708178 0.4691679 0.4237595 0.22432876
0.19689254 0.4595883 0.43928507 0.24183762 0.27643567 0.47288805 0.43417856 0.22013123
0.14056036 0.46318823 0.45363352 0.24517198 0.2531994 0.47264102 0.44167596 0.21792448
0.117032945 0.47087258 0.46495548 0.24789836 0.22560996 0.4724826 0.44972375 0.21697834
0.11116893 0.49072665 0.48781252 0.2557711 0.20608981 0.48032427 0.46452773 0.21957113
0.28566578 0.46176547 0.41268408 0.22965638 0.26084778 0.45825073 0.41839316 0.23383725
0.28745392 0.4687794 0.42406878 0.2228287 0.19720683 0.45941058 0.43978748 0.24046145
0.27684787 0.47262236 0.4350349 0.21869431 0.14081647 0.46292758 0.45393446 0.24383517
0.25346968 0.47222617 0.44190565 0.2165359 0.11721803 0.47054017 0.4655408 0.2464469
0.22588463 0.47227836 0.45057744 0.21552151 0.11129588 0.49064946 0.48804355 0.25422928
0.2063261 0.48021305 0.4647838 0.21781658

68 f4 [2]
00000000: f5f6 7b3e 2ee5 9f3e
0.24605925 0.31229538

action_model._continuous_distribution.log_sigma f4 [1, 2]
00000000: d364 98bd eb65 af39
-0.07441106 0.00033454536

action_model._continuous_distribution.mu.bias f4 [2]
00000000: ecc3 e2b9 7bd3 67bb
-0.00043252052 -0.0035373855

action_model._continuous_distribution.mu.weight f4 [2, 256]
00000000: 109f d6bc 806d 2f3c 0da6 9fbc 27b8 0b3c
00000010: b6b5 04bd 8b25 df3c 9152 883c c9f2 a23c
00000020: 4f9f ac3b c39e 6f3b d653 cf3c 995d a0bc
00000030: 7807 413d 19df 20bd d4e1 59bc 5a57 22bb
00000040: 175d 1cbc f335 cb3c c8c9 c03c c386 fbbc
00000050: 7088 7abc 2835 3a3c ebdc 633c 1d77 6ebc
00000060: bb73 4dbc 04c2 b7bc 5e84 f73c a9bb eb3b
00000070: 1d5f e1bc fa92 8fbc 5afa e83c 4da3 f2bc
00000080: a06b 51bc f513 7fbc 4c5f 6bbc 7d92 9ebc
00000090: a597 4f3c 2a3a 993b 60fe d0bc 4685 25bc
000000a0: 983b 92bc f86b 73bc 463e 603c 8f16 27bd
000000b0: ffd5 9abc 83a6 81ba 7e33 3c3c b9ee 113d
000000c0: 85b1 acbc 8cf7 cf3b c326 17bd cb2f 06bd
000000d0: 1227 573d 62c3 15bd bb9d cd39 d955 08bd
000000e0: dc85 4abc 90a5 c7bb b239 823c 92b1 5abc
000000f0: ce5d 133d f600 8bbc 23ae 553c 58c8 36bd
00000100: 2795 c0bc 58f5 8fbc 9a8f 16bc f7ea 82bc
00000110: 45f8 e53c 2188 6bbc 0fab 9a3b 9d1e 353c
00000120: ab04 743d c421 a1bb b574 103c 8fdf 973c
00000130: d88a 983c 35de a63b 7176 ac3c a6ea 053c
00000140: 9e5e df3c a281 8cbb e896 f5bc b496 233d
00000150: d15d c9bc 2d78 8a3c ffee afbb b8fc e53c
00000160: 5698 363c 58ef 47ba 82c1 dbbc e60f 56bc
00000170: 6291 82ba 45d4 6e3b 2d1d 7bbc 2497 343c
00000180: 65a9 243b ebb9 74bc 1618 c33b fb1f 663c
00000190: 60ad 233c 96d6 21bc 80d3 08bc b354 d53c
000001a0: 4df9 35bc 8b9a 773c f5fe c53b a82a 643b
000001b0: a188 e8ba d4d5 3c3d 0b09 8b3c cba9 cebb
000001c0: 5cac aabc a7f2 1d3c beba 63bd 67a0 0c3c
000001d0: 7fb8 e53a fec5 2b3d de7d 043c 0513 d8bc
000001e0: d95d 1dbd df31 c5bc 7007 86bc 3794 453b
000001f0: 23e8 943c 9132 733c 9f8b b53b c78d 153c
00000200: eddf a23c 56da 7b3d a579 c83c bbb8 293c
00000210: 7bbe 08bb a416 9abc 9e37 73bc d646 aebc
00000220: 592e 82bb 342e 71bc dafb 9bbb ba9c 87bc
00000230: e63f 59bc 581e 7abc 59cb ab3c 1521 58bc
00000240: 35b2 ffbb 98d7 823c 76ff 22bc 4063 763c
00000250: a486 ce3c 7d6c 813c 3395 ed3c 43f2 af3c
00000260: e59d 213d 8a77 1f3a e34c d13b f382 e1bb
00000270: 4353 4f3c c8a6 e9bb 1f4c 313d 2a4c 3fbc
00000280: 89a1 8ebb 4ce8 283c c480 63bb 30e5 bf3b
00000290: a112 0ebd 918a ef3b 629b ddbc cacf 9e3c
000002a0: 8ecd e2bc 3ad9 d1bb 4dd6 96bb 5abd 65bb
000002b0: c1e7 e13c 4ff9 bbbc dd90 d7ba 3bd4 4a3c
000002c0: 7c12 17bd a050 e73c cee4 a83c 67cc dbbc
000002d0: e2d1 eebc 32c6 83bc 226a 2bbc 8a86 6fbc
000002e0: 0c0b ccbb 3c77 dcbb 45ed 953c 5a8c d43b
000002f0: 8c88 f63c 970f ccbc bc88 f43b 9849 263d
00000300: c120 9a3c 81db 9b3c 506a e83c fdaa 8bbc
00000310: f3c0 a53c 06aa 933c 6508 c43c 1e12 20bc
00000320: 345c 563a 54b7 4d3b 845d 96bc e733 d73c
00000330: 5cbf 2c3c e802 df3c 7177 f0bc 7392 563c
00000340: de11 9dbb 92b3 bcbc a4e3 4a3b 4911 d0bc
00000350: bc3d f7bc 3728 6c3a 3e38 98bc 6958 13bc
00000360: d571 35bc e211 78bb c93f 43b9 3b06 ad3c
00000370: f5ca ce3c 6268 40bd 4f4e ddbc 9903 15bd
00000380: d385 42bc 042f 743b 2f10 993c a5be 2d3c
00000390: e5fb a33c 26c3 523d 80ba 0b3c 9415 d5bc
000003a0: 10e2 cd3c f32a d3bb bf58 eb3b 8b04 c2bc
000003b0: 8ff7 bf3a 4bb9 afbc 97d7 503c fb86 40bc
000003c0: 6615 01bc bdb6 783c 2552 eabb 59a2 aa3c
000003d0: 3f0c 6f3c ee52 133d d322 913b 0b1f 9f3c
000003e0: da4e 493c 645b 003d 4090 23bb 4161 2d3c
000003f0: ccb9 c3bc 2b2c 38bc 40fe a8bc 6b26 013a
-0.026198894 0.010707259 -0.019488359 0.008527792 -0.032399856 0.027239582 0.016640933 0.01989116
0.0052680145 0.0036563135 0.02530853 -0.01957588 0.047126263 -0.039275263 -0.0132984705 -0.0024771304
-0.009543679 0.024805998 0.023533717 -0.030703908 -0.015291318 0.0113652125 0.013907651 -0.014554766
-0.012539799 -0.022431381 0.030214485 0.0071940017 -0.027511174 -0.017526139 0.02843969 -0.029618884
-0.012782007 -0.015568723 -0.014365982 -0.01935696 0.012670432 0.004676123 -0.02551192 -0.010102576
-0.017850682 -0.014857285 0.013686722 -0.040792998 -0.01890087 -0.0009891543 0.011486886 0.035628054
-0.021080742 0.0063466486 -0.0369022 -0.032760423 0.052527495 -0.036563285 0.00039218165 -0.033284996
-0.012361016 -0.0060927346 0.015896652 -0.013348 0.03597813 -0.016968232 0.013042006 -0.044624656
-0.023508621 -0.017573044 -0.009189511 -0.01598118 0.028072486 -0.014375717 0.004720099 0.011054662
0.059574764 -0.0049173553 0.008816888 0.018539218 0.018620893 0.005092407 0.021052571 0.00817362
0.027266797 -0.0042879144 -0.029979184 0.039938644 -0.024580868 0.016903007 -0.0053690667 0.028074607
0.011144718 -0.00076269126 -0.02682567 -0.013065314 -0.000996154 0.003644244 -0.01532678 0.011022363
0.002512538 -0.014936904 0.005953799 0.014045711 0.009990066 -0.009877821 -0.008351207 0.026041364
-0.011106801 0.0151125295 0.006042356 0.0034815464 -0.0017740914 0.04610236 0.016972085 -0.006306862
-0.02083414 0.009640372 -0.055598013 0.008583165 0.0017526298 0.041936867 0.00808665 -0.026376257
-0.03841958 -0.024071632 -0.016360968 0.0030148157 0.018177098 0.014843599 0.005540326 0.009128041
0.019882167 0.06148752 0.024472067 0.010358985 -0.0020865488 -0.018809624 -0.014844803 -0.021274012
-0.00397281 -0.014720488 -0.0047602477 -0.016554225 -0.0132598635 -0.015266024 0.020970987 -0.013191481
-0.0078032264 0.015971944 -0.009948602 0.0150383115 0.025210686 0.015798802 0.029001808 0.021477824
0.03945722 0.00060831814 0.0063873394 -0.0068820654 0.0126541285 -0.0071304776 0.043285485 -0.011675874
-0.0043527526 0.01030929 -0.0034714201 0.0058561787 -0.034685735 0.0073102196 -0.027051631 0.01938619
-0.027685907 -0.0064040693 -0.0046031834 -0.003505549 0.02757633 -0.022946028 -0.0016446371 0.012379701
-0.036882862 0.028236687 0.020616915 -0.026830865 -0.029152814 -0.016085718 -0.010462316 -0.014619479
-0.006226903 -0.006728081 0.018301615 0.006486458 0.030094407 -0.024909778 0.007462589 0.04059753
0.018814446 0.019025566 0.028371006 -0.017049307 0.020233607 0.01802541 0.023929784 -0.0097699445
0.00081771915 0.003138979 -0.018355139 0.026269866 0.0105436705 0.027223065 -0.02935383 0.01309644
-0.0047933897 -0.023034845 0.0030958438 -0.025398867 -0.030180804 0.0009008678 -0.018581506 -0.008993247
-0.011074503 -0.0037852456 -0.00018620411 0.021121135 0.025243262 -0.046974547 -0.02701488 -0.036380384
-0.0118727265 0.0037259469 0.018684475 0.010604535 0.020017574 0.05145564 0.008528352 -0.026011266
0.025132209 -0.006444329 0.00718221 -0.023683807 0.0014645922 -0.02145066 0.012746713 -0.011750932
-0.007878637 0.015180287 -0.0071509057 0.020829367 0.014590322 0.03596776 0.0044292 0.019423982
0.012286866 0.031337157 -0.0024957806 0.010582269 -0.023892306 -0.011240999 -0.020629048 0.0004926684

network_body._body_endoder.seq_layers.0.bias f4 [256]
00000000: bf31 9b3c a418 30bb 8bf8 513b 9e1e 673c
00000010: eb07 9c3c ec24 ffba 3120 4e3c ef0d b83b
00000020: 39fb e439 c488 be3b ea1c 1e3c f7e5 0dbc
00000030: 5c14 5d3b 5a0d 593c ef55 163c cc62 793c
00000040: 1331 aa3a ed75 863c e150 f43c 3c0c fb3b
00000050: 7a0f 9f3b ef0d ba3c 5e4e 51bb bd0f fbba
00000060: 4567 2a3c 4962 3e3b ca94 463b 1a37 5e3b
00000070: 4dca 1abc 77a0 3f3c b076 2b3c ee2d 0a3c
00000080: 55e0 5a3b 80e4 a63a c6c1 d0bb 54a6 55b9
00000090: 440c dc3a 6270 263c 3ccf 093c 8a87 a03c
000000a0: 5952 06bb 5e92 c73b 5392 8aba d4f2 df3a
000000b0: 0934 7d3c 098b 413a b642 8d3c 5812 783c
000000c0: 8c0e 493b 263b 2f3c 9fb6 863c 0730 f83b
000000d0: 9c95 203c 1721 af3c 0763 afbb a5b9 8abb
000000e0: 2e93 003c 0d8f 003c 1335 3bbb c718 e13a
000000f0: ac18 1b3c 73ef 0c3c 4993 98ba 1fec 633c
00000100: 7c4e 123c 7c27 1c3c 0f97 4a3c ec68 c83b
00000110: e8da 03bc 121b 10bc 23f0 173c ca9f a63b
00000120: 64ad b8bb b3c6 543b bbe3 20bc 2baf bf3a
00000130: aed5 233c 2a1f 293b ead6 163b 11d8 f438
00000140: a8ea bb3b dd7e 44bb be94 c63b 79bb 733a
00000150: 6aa2 e23a 3704 b3ba 51d2 8cba 6eab 7e3c
00000160: b32d 8a3a 229e 8c3a ce6c 173c 2b53 1f3c
00000170: 869a 0d3c 43fb 813c bdbb 613b 490c abbb
00000180: bba7 bcbb 544c 093c 9a91 103c 9218 a43b
00000190: c976 0dbb 6fc6 2e3c f29b 0dbc 56a4 4e3c
000001a0: a14b 433c 9079 233c 8ee3 193c ec88 9a3c
000001b0: 41cd 133c 1ae4 db3b 8244 3c3b 2c23 623b
000001c0: 4544 013a c20e 093a 430d dfb9 238f 3a3b
000001d0: 48eb 5f3c 08a8 44bb 9093 a93b a6c3 a43b
000001e0: c926 493b f016 88bb 88da d23b a856 473c
000001f0: 96a4 153b f89d 3e3c 9719 6dbb 024e 56bb
00000200: 2393 253c 2310 303c da66 6a3c 291d fe3b
00000210: 2a56 023b 4d3e e4ba 90a9 473c 31f9 2fb9
00000220: 7fad 773c 0ee3 a13b b861 653b d719 a6ba
00000230: bde6 313c d99c 073b 303b e73b 3be1 503c
00000240: 95f2 dd3b ffac 223c 697b ecbb c130 8b3b
00000250: 9e78 183c 9435 ad3b 58b3 bf3b 0264 303c
00000260: eebf a93b 3ca7 0b3c 878a c13b 6cb3 443b
00000270: 133f 073b 0ce7 be3b d7c9 9a3b a3c5 37bc
00000280: d0eb 313c cbe7 6a3c ec13 b73b 8958 563b
00000290: d110 683c 3794 573c 5bb8 db3b 8350 473b
000002a0: 3f68 63bc e8f7 05bb e795 893c e9af ae3c
000002b0: c87c 253b 6e57 cfbb ed19 493c b138 a43b
000002c0: 99f7 8038 0f62 3c3c 7264 5e3b c990 033c
000002d0: 39b9 483b 41f6 4e3c c99a c9ba 62a5 b93b
000002e0: cd19 553c ff17 0a3c 73a8 313c 8c37 063c
000002f0: bedb 8a3c 7ff3 fd3b 308a 01bc 0a07 663c
00000300: 5a46 6a3a edd3 debb 7604 9f3b c657 37bc
00000310: c5b9 eaba da6d 75bb d16b bc3c bd5a 673b
00000320: 792a b93a c9c6 2b3c 72e4 4f3c d29b b0bb
00000330: 920d c2ba 7e67 0eb8 3a40 f5bb c4bf ce3b
00000340: 5b46 473b 43bf 0c3c 1ab9 e13a b362 723c
00000350: 7137 42bc 6769 483c 670a 723b a11e 113c
00000360: 1db6 0c3c 640e 52bb 8a3f 003c 5657 25bc
00000370: f964 4a3c 51b3 e73b 3fed 463a c646 9f3c
00000380: bcdb 36bb e685 1c3c 56fb 133c f0bd be39
00000390: 7c74 e73b b2c0 08bb b876 833c d529 bd3a
000003a0: d1b1 6b3c 0144 a53c e945 553c 12b3 d23a
000003b0: 883b 47bc 118a 8f3b 4588 4a3c 356d 253b
000003c0: 81f0 563c d301 8a3c 4ee6 0d3b 3c4a d33b
000003d0: c39d 4b3c 8364 283a 280b 01bb c47f b2bb
000003e0: e0da e43b 5d90 ac3b 1a88 163b c1ef 2f3c
000003f0: bc33 863b 5888 2f3c e75b cc3b 42f6 093c
0.01894462 -0.0026870156 0.0032039012 0.014106421 0.019046744 -0.001946596 0.012580917 0.0056168954
0.00043674724 0.0058146436 0.009650448 -0.008660785 0.003373406 0.013247812 0.009175762 0.015221309
0.0012984596 0.016413653 0.029823722 0.0076613706 0.00485414 0.022711722 -0.003193758 -0.0019154471
0.010400598 0.0029050282 0.0030301088 0.0033907355 -0.009447646 0.011695973 0.010465309 0.008433802
0.0033397872 0.0012732893 -0.006370756 -0.00020375225 0.0016788323 0.01015863 0.008411225 0.01959588
-0.002049586 0.0060904464 -0.0010572172 0.0017085918 0.015454301 0.00073830836 0.017243724 0.015141092
0.0030678837 0.010695254 0.016444502 0.0075740847 0.009801295 0.021378083 -0.005352381 -0.0042335563
0.00784759 0.007846606 -0.002856557 0.0017173522 0.009466331 0.008602011 -0.0011640574 0.013911276
0.008929845 0.009530898 0.012365117 0.0061160233 -0.008047797 -0.008795517 0.009273562 0.0050849663
-0.005635904 0.0032467067 -0.00981992 0.0014624348 0.009999676 0.0025805929 0.0023016282 0.00011675072
0.0057347603 -0.0029982843 0.006060212 0.000929765 0.0017290835 -0.0013657872 -0.0010743832 0.015543802
0.0010542184 0.001072828 0.00924225 0.009724419 0.008642798 0.015866881 0.0034444176 -0.0052199704
-0.0057572997 0.008380014 0.008823777 0.005007812 -0.0021585694 0.010667427 -0.008643137 0.012612423
0.011919887 0.009977713 0.009392632 0.018864118 0.009021104 0.0067105414 0.0028727357 0.0034505827
0.00049311324 0.00052283343 -0.00042543755 0.0028466664 0.013666935 -0.003000738 0.0051750615 0.005028206
0.0030693284 -0.004153125 0.0064347424 0.012166657 0.0022833697 0.011634342 -0.0036178583 -0.0032700305
0.010105881 0.010746035 0.014306748 0.007754941 0.0019887784 -0.0017413587 0.012186423 -0.00016782132
0.015117048 0.004940397 0.0035000872 -0.0012672496 0.010858235 0.0020692854 0.0070566162 0.012749012
0.006773303 0.009928941 -0.00721686 0.0042477553 0.009306101 0.005285928 0.005850237 0.010766031
0.0051803505 0.0085237585 0.0059064063 0.003001417 0.002063696 0.005825883 0.004723768 -0.011216554
0.010859445 0.01433749 0.0055870917 0.003270658 0.014164166 0.013157896 0.0067053265 0.003041298
-0.013879835 -0.0020441953 0.016795112 0.021324115 0.0025251377 -0.006327561 0.012274248 0.005011641
6.149634e-05 0.011497988 0.0033934382 0.008030125 0.003062798 0.012631954 -0.0015381213 0.005665467
0.01300664 0.008428573 0.010843384 0.008191954 0.016950484 0.0077499743 -0.007906482 0.014039764
0.0008936875 -0.006800166 0.0048528267 -0.01119036 -0.0017908147 -0.003744951 0.02300063 0.0035301887
0.0014127038 0.010484406 0.012688743 -0.005389669 -0.001480507 -3.3951823e-05 -0.007484463 0.0063094813
0.0030406925 0.008590522 0.0017221302 0.01479404 -0.011854039 0.012232161 0.003693247 0.0088574
0.008588341 -0.0032052035 0.007827649 -0.010091623 0.012353175 0.0070709367 0.0007588453 0.019442927
-0.0027901968 0.009553408 0.009032091 0.00036381138 0.0070634466 -0.0020866808 0.01604782 0.0014432023
0.014385656 0.020174028 0.013017156 0.0016075096 -0.012160189 0.0043804725 0.012361591 0.0025242094
0.013118864 0.016846573 0.0021652165 0.0064480584 0.01242775 0.0006423669 -0.0019690488 -0.0054473598
0.0069840997 0.005266233 0.0022969306 0.010738314 0.0040955227 0.010713659 0.0062365416 0.008420529

network_body._body_endoder.seq_layers.0.weight f4 [256, 134]
00000000: 5d01 46bd 21d3 243d fd31 c6bd da1b 00bd
00000010: 1a3a 9bbd f4c3 c33d f74a 873d e024 36be
00000020: 4318 57bd 52eb 08be 8975 6e3a fc24 dabd
00000030: a151 49be 15d6 703c 9c7b 11bb dfb0 28be
00000040: 5ae8 363e fda3 33bd 9383 9e3d 8b49 053d
00000050: 564f b9bc 9fd9 1f3e 216a 8d3d 080f 923d
00000060: a9b8 97bd 3bcc 493d 17ff 80bd 4d73 d33c
00000070: 6a5d 95bd 8f22 a43d 50fe 063e e19e fe3d
00000080: f632 d6bd 067b 883c 534b abbc de1c cb3d
00000090: 4cae c13d 671c 893c d52b b6bd fcb5 063e
000000a0: 292a 1fbe 4c3a 2f3c 5857 a13c f5b4 dabd
000000b0: e458 25bd 7358 9e3d 0359 07be 89a9 a4bd
000000c0: b579 ecbd bb30 c5bc 8912 6f3d dfd9 31be
000000d0: 0032 8a3b d6d5 8fbd 9f85 1dbc 056e 233c
000000e0: e599 673d c21f 70bd 53e2 2b3d f5ac 0cbe
000000f0: 8695 eebd 893d 0bbe 7c7f e4bc f26d eb3c
00000100: 6ee1 c4bd cb86 00be 1275 27bd d4e4 fdbc
00000110: 597a ac3b d09f 9c3d 6c1e fabc c7eb f9bd
00000120: f092 29be dd39 693d bad7 043e 56e3 b3bd
00000130: 5a7c 24be 4690 043d 0e3c ce3d 1235 1fbd
00000140: 78e9 73bc b634 7fbd 3dd7 82bc 2570 0cbd
00000150: 77b5 4e3d 2fa7 303d 0480 de3d 0b09 2cbd
00000160: b5db e9bd 17c8 863d e21b 51be 6466 99bd
00000170: 6bf9 64bd df25 d1bd 39e5 8e3d a2e7 df3a
00000180: 5d27 093d 8f41 863d abd1 8a3d fb1f f43c
00000190: 0559 a5bd 9857 48be b7d7 70bd 1b5b cebc
000001a0: 132b 193e 3e69 6cbd bbd1 fa3d 0670 ee3d
000001b0: 660c 243a 8d79 7d3d b4f8 4c3e c1a4 423e
000001c0: 2096 a23d 152a 9ebc d8f2 ca3c 5148 113d
000001d0: a0cc 56bd e957 9bba bcba 6d3d c7bd 083d
000001e0: f47f 0d3b 5519 4abd a793 97bd 1852 8f3d
000001f0: c18e b03c 62d9 e13a 77b4 2f3d 6764 633d
00000200: c89c e5bc d58d 9a3b ebfd 4b3d d0e3 8a3b
00000210: 3f6d 2c3e fcee edbd 5049 1b3e 7c53 393c
00000220: 7679 ff3d 076d 9f3d 9948 ad3d bdb7 b23c
00000230: cfcd 1dbb 4685 08bd 3e94 9a3d 93ea 50bd
00000240: c65f dc3c 6ad6 333e 3aea 08bd cd97 10be
00000250: 4551 e33c fe28 fbbc 2e60 813b 4ff0 3e3d
00000260: 8427 d2bd fd25 0d3e 5e87 babb 20d2 babc
00000270: 8865 3fbc 6b92 8ebd 9881 8ebc efc5 3ebd
00000280: fea0 62bd dbf0 ea3b 00d4 ef3c 6fcd d8bc
00000290: 8bce cbbd 9ccf 343e 9979 fabd 67ba f53c
000002a0: eacc 9dbd 2419 193e 7f08 1b3e 5f70 d23c
000002b0: aee2 58bd dfdf 103d c5b4 413b 4d72 0a3d
000002c0: 7b52 d6bc 1a97 11bc 3242 f8bd c36c 10bc
000002d0: 10e9 fa3b 8a1a 71bd b40c 373e 1571 4ebe
000002e0: dcf3 323d 9703 39bb 0991 713c a5c1 c2bd
000002f0: a679 84bd a4d7 12be 4b4a 42bd b50f 163c
00000300: 11b0 21bd 6654 a6bd ed85 873d 84a4 763d
00000310: 9332 04be 8934 273d ee93 3cbd 0e0d 583e
00000320: 38f9 b9bc 6e2a 9abc 6e17 1bbd cde6 f0bc
00000330: bbe4 18bc 64c3 d4bd 5d12 903d c1a8 f9bc
00000340: e7c7 f13c e5c9 8bbd 0ce6 93bd 0faa 18bc
00000350: cdf0 0dbd 27b6 48bb 2ea8 7d3b 295c 87bd
00000360: 2e72 6c3d 978f 373c 396e b8bd 6eb6 9cbb
00000370: 2c37 a8bd d399 e8bc 3bdb c7bd 4fad a5bd
00000380: de62 cdbd fcc1 0b3e a4c2 e6bc f7ad e4bd
00000390: 0ee0 b5bd 0222 e3bd d43c b7bc aec0 79bd
000003a0: ee65 563c 1fac d23c 6581 2dbd 07dc 9fbd
000003b0: 7679 7d3d c7df 633d c50c 003e 779d aabd
000003c0: c499 1c3d 613b 06be 660f 293d f486 4a3d
000003d0: c69b b43d ca54 91bb 6800 e5bb d006 33be
000003e0: 6bb7 563d 1c5b f33c 745d 173e bf87 2e3d
000003f0: a861 103e 6098 5ebc d441 c8bd d745 963d
-0.048341144 0.04024041 -0.09677503 -0.03127656 -0.07579441 0.095588595 0.06606095 -0.17787504
-0.052513372 -0.13371018 0.00090964936 -0.106515855 -0.19660045 0.014699479 -0.002219892 -0.16473721
0.17862073 -0.043857563 0.077399395 0.03254084 -0.022620838 0.1561036 0.06905008 0.07131773
-0.07408268 0.049267035 -0.062986545 0.025811816 -0.07293208 0.08014404 0.1318295 0.124326475
-0.10458939 0.016660225 -0.02090994 0.09917615 0.094570726 0.016737176 -0.08895079 0.13155359
-0.15543427 0.010695051 0.019694969 -0.10679046 -0.040367976 0.07731714 -0.13217549 -0.08040149
-0.11546651 -0.024071088 0.058367286 -0.17368267 0.0042173862 -0.07023208 -0.009614377 0.009974961
0.05654325 -0.058624037 0.041963886 -0.13737853 -0.11649613 -0.13597693 -0.02789282 0.02873895
-0.0961331 -0.1255142 -0.04088313 -0.030992903 0.0052636084 0.07647669 -0.030532084 -0.12203174
-0.16559958 0.05693995 0.12972918 -0.08783595 -0.16063061 0.032364152 0.10070048 -0.03886897
-0.014887206 -0.06230613 -0.015971774 -0.034286637 0.050466027 0.04312819 0.10864261 -0.04200081
-0.11418859 0.06581133 -0.20420793 -0.074902326 -0.055901926 -0.102123015 0.069773145 0.0017082582
0.033484805 0.06555473 0.06778272 0.029800406 -0.0807362 -0.19564664 -0.05879947 -0.025189927
0.14957838 -0.057717554 0.12247034 0.116424605 0.0006257951 0.061883498 0.20016748 0.19008161
0.0793879 -0.019307176 0.024774 0.035469357 -0.05244124 -0.0011851761 0.058039412 0.03338411
0.0021591159 -0.049340565 -0.07401209 0.0699808 0.021552445 0.0017230923 0.042896714 0.055515673
-0.02802886 0.0047166147 0.049802702 0.004238583 0.16838549 -0.11617848 0.15164685 0.011311408
0.12474339 0.07784467 0.084611125 0.021816129 -0.002407897 -0.033330224 0.07547806 -0.051004957
0.026901137 0.17562261 -0.0334265 -0.14120407 0.027748713 -0.030659195 0.003948233 0.046615895
-0.10261443 0.13784023 -0.0056924066 -0.022805274 -0.011681922 -0.06961521 -0.01739578 -0.046575483
-0.055329315 0.0071698255 0.029275894 -0.026465146 -0.09951504 0.17657322 -0.12230224 0.02999611
-0.077051 0.14950997 0.1513996 0.025688348 -0.052950554 0.03536975 0.002955721 0.033800412
-0.026162377 -0.008886123 -0.12122001 -0.008814993 0.0076571777 -0.0588632 0.1787594 -0.20160325
0.043689594 -0.00282309 0.014744052 -0.09509591 -0.06468515 -0.14340073 -0.047434133 0.009159018
-0.03947455 -0.081215665 0.06617341 0.060215488 -0.12909918 0.040821586 -0.046039514 0.2109873
-0.022701845 -0.01881906 -0.03786414 -0.02940693 -0.009331877 -0.1038883 0.070347525 -0.030475976
0.029514266 -0.06825618 -0.07221612 -0.009317889 -0.034653474 -0.003062615 0.003870498 -0.06609375
0.057726078 0.011203668 -0.09005398 -0.0047824895 -0.08213648 -0.028393662 -0.09758612 -0.080896966
-0.10028623 0.13648218 -0.028168984 -0.11165994 -0.08880626 -0.11090471 -0.022367872 -0.06097477
0.013085825 0.02571684 -0.04235973 -0.07805639 0.061883412 0.055633333 0.12504871 -0.08330815
0.03823258 -0.13108589 0.04127445 0.049445108 0.08818774 -0.0044351565 -0.006988574 -0.17483068
0.052421015 0.02970653 0.14781743 0.042609926 0.14099753 -0.013586134 -0.09778181 0.0733754

network_body._body_endoder.seq_layers.2.bias f4 [256]
00000000: 276f 453c 028d 023c 72f4 7aba f8bc 69bb
00000010: 04a1 523c d756 803b 73c5 513b a33c 65bb
00000020: 59b8 043c 719f df3b a5a8 7e3a dabe 673b
00000030: 4afb 80bb 3df2 3f3a f3d8 c1bb cf10 1b3c
00000040: 8eca 053b 10a0 043c 67d6 a13b 572a 2a3c
00000050: 9e49 01bc cd11 3a3b 0765 653c 314d ae3b
00000060: 26ad 6c3c a15f 113c 9841 3c3b 9d14 ad3b
00000070: f1b5 c3ba 57c1 1239 827f 9eb8 2358 073b
00000080: 0ae8 2e3c 7c02 183c 6d12 c93a a35f e4bb
00000090: 4671 e1ba 9cbd 933b d281 cbba cc8f 5f3b
000000a0: 4099 b738 09cf 2c3c c51e 6a3a 469d 9abb
000000b0: 7eb7 8cbb db46 6f3c 5035 673c ae9a 92b9
000000c0: 781e 8f3b 826a 6a3c a10c ab3b 97bc e33b
000000d0: a749 af3b 919b a339 4eda c13b b989 f23b
000000e0: 3388 d93b afd9 cbbb f53b a93b e878 823c
000000f0: 429e 093c 9968 9abb e3cc 6eba f394 04bb
00000100: 1c69 8cbb 768c 79ba 0caf a53b 23ef b33b
00000110: 7ef8 de3a 1da4 14ba 8426 a13a 1d16 c43c
00000120: c504 823a 4bb3 0e3c a018 ad3a 0f7a 0dbc
00000130: 63dc 46bb 2a83 fb3a cb49 8bbb fbc0 24bc
00000140: f5d4 df3b 5582 cc3b dcfb db3a 0d12 723b
00000150: 7320 923a f37c 473b 3d5c 173c 27d5 ec3a
00000160: 10c1 8f3b 1d26 18bb 7907 b9ba d84d ce3a
00000170: 3c86 013b b63a 97bb 524d 963b 3c88 9d3b
00000180: 15a1 9dba 0f04 6f3b c21c 8a3b 9b61 31bb
00000190: a11d a13a e4f1 313c cfb5 9abb 485b 343a
000001a0: 9b58 203c 6a6a 363c e016 9bbb 4f23 373c
000001b0: fbdf f23b aa45 c43b f964 a6bb b49e 973b
000001c0: 6afd 10b9 424a 18ba a58f fdbb e799 093c
000001d0: f103 a33a 1170 f0bb ade3 40bb c349 333b
000001e0: b15c 0abb 1741 473a 4db0 253c 6916 1d3c
000001f0: 6f1c ef3b e283 4c3b c86b 85bb 8478 353c
00000200: e249 3a3b 0078 71bb c2cb 873c e170 85bb
00000210: 0bbb 373b 1072 2c3b 3035 c03b e50f fd3a
00000220: d7b2 02bc a048 6d3c 3660 fbbb 997e 6fba
00000230: c1b7 62ba 85bb 3a3b 8148 993a bb80 c03b
00000240: df9f df3b e4f2 a23b 8094 adbb 0dc9 e43b
00000250: e345 083c c449 1abc 1694 2c3c 4d79 453b
00000260: 7367 af3b 3a88 b9b9 3c1d 04bc 1622 2c3b
00000270: b1f9 803a 4f47 6d3b d58d d03b 7259 3bbb
00000280: 737b e83b ba8c 41ba 7eb3 683c 7441 47bb
00000290: c64d a43b f9e2 e43b 039c 97bb a3de f03b
000002a0: 67fb 9aba 75e6 4c3c 6e1a 5e3a dc3a 73bb
000002b0: dfd3 4b3b c21f e73a 438a cf3b 40dc 0a3c
000002c0: a109 203c f224 5bbb 097c 83bb 7b2d 0a3c
000002d0: a22a 723b a468 0d3b fdc9 02bb e9dd d7bb
000002e0: e742 79bb 4a77 923a 6dda d73b e6da e13b
000002f0: c4d5 943c b27e b4b9 70f4 3fbb fdbb 40bb
00000300: 6f10 65bb 17f2 12bc 1ddd 263c 8af7 113c
00000310: e2a4 913b 0764 873b 6da0 bd3b c9de 203c
00000320: a7e4 17bc c537 133c b714 11bb eb03 e13a
00000330: 12a5 183c d7d1 243c 1a8c 083c b489 72bb
00000340: 271e edba c01d 1f3b 39fc be3b 1c16 233b
00000350: ae90 d2bb 2d57 01bc d472 52bb 0ce1 cb3b
00000360: 3d67 8dbb 5b5a 753b 6bfc 483c 2ad6 253b
00000370: 2a2f 08bc 59cf 9abb e38d 523b 612c 443b
00000380: 1e38 08bc bdd9 09ba fee6 283c 30fe 583b
00000390: 9f71 1cbc b6a3 053b bcdd 183c 1457 023c
000003a0: 075f 493c 5233 283c 1bf0 2abb f47d 84bb
000003b0: b9a1 40bb a16b b6bb fadf 40bb 48b0 74bb
000003c0: 94d4 08bb 5f0e 413c c744 e8ba a631 033c
000003d0: d84c bc3b a4b7 0f3c b974 293c 4b21 843b
000003e0: 385a 413b dde8 9ebb 5652 00bc e191 9c3b
000003f0: 1ab8 923b 760a 883b 7323 8ebb f2a7 033c
0.012050427 0.007968189 -0.00095731684 -0.0035665613 0.012855772 0.003916602 0.0032008558 -0.003497877
0.0081005925 0.006824427 0.0009714461 0.003536156 -0.003936206 0.0007322168 -0.005915755 0.009464457
0.0020414921 0.0080948025 0.004938889 0.010386071 -0.007891087 0.0028391958 0.014001138 0.0053192605
0.014445579 0.008872897 0.002872562 0.0052819983 -0.0014931542 0.0001399567 -7.557777e-05 0.0020651899
0.01067544 0.009277936 0.0015340574 -0.0069694086 -0.0017199896 0.004508687 -0.001552636 0.003411281
8.754665e-05 0.010547408 0.00089309766 -0.0047184555 -0.004294335 0.014604296 0.014111832 -0.00027962535
0.004367646 0.01430762 0.0052200113 0.006949972 0.005349356 0.0003120569 0.0059159165 0.0074016717
0.0066385507 -0.0062210183 0.005164618 0.015926793 0.008399548 -0.004712176 -0.000910951 -0.0020230382
-0.004284991 -0.00095195265 0.0050562676 0.005491154 0.0017011312 -0.0005670207 0.0012294804 0.023936326
0.0009919634 0.008709739 0.0013206191 -0.008635058 -0.0030343763 0.001918887 -0.00425074 -0.010055776
0.0068308064 0.0062411227 0.0016783434 0.0036937029 0.0011148587 0.0030439466 0.0092383 0.0018068895
0.0043870285 -0.0023216077 -0.0014116607 0.0015739752 0.0019763848 -0.004615153 0.004586854 0.0048075
-0.0012026156 0.0036470925 0.004214854 -0.0027066234 0.0012292155 0.010860894 -0.0047213803 0.0006880057
0.00978675 0.0111337695 -0.0047329515 0.011177852 0.0074119545 0.00598975 -0.005077955 0.004627073
-0.00013827314 -0.0005809405 -0.007738071 0.00839851 0.0012437088 -0.007337578 -0.002943258 0.0027357198
-0.0021112377 0.00076009467 0.010112834 0.0095878625 0.0072970907 0.0031206538 -0.0040716864 0.011076096
0.0028425385 -0.0036845207 0.016576651 -0.004072294 0.002803507 0.0026313104 0.0058657154 0.0019307105
-0.007977209 0.014482647 -0.0076713813 -0.0009135991 -0.0008648597 0.0028493118 0.0011694581 0.005874721
0.006824478 0.0049728025 -0.0052972436 0.006981975 0.008317444 -0.009417001 0.010533353 0.0030132115
0.0053529083 -0.00035387446 -0.008063611 0.0026265434 0.0009840039 0.0036205833 0.006364564 -0.002858725
0.0070947944 -0.00073833356 0.0142029505 -0.0030404003 0.005014154 0.006985065 -0.0046267523 0.007350759
-0.0011824191 0.012506117 0.0008472566 -0.003711394 0.0031101627 0.0017633366 0.0063336208 0.008475363
0.009767921 -0.003343877 -0.004012589 0.008433695 0.003695168 0.0021577263 -0.001995682 -0.006587733
-0.0038034262 0.0011174467 0.0065873177 0.00689255 0.018168338 -0.0003442667 -0.0029289983 -0.0029408925
-0.0034952422 -0.0089688515 0.010184553 0.008909116 0.0044447044 0.0041317972 0.0057869465 0.009818741
-0.009270824 0.008985464 -0.002213759 0.0017167305 0.0093167 0.010059795 0.008334184 -0.0037008347
-0.0018090651 0.0024279207 0.005828407 0.0024885004 -0.0064259386 -0.0078943195 -0.00321119 0.006221896
-0.0043152855 0.003743789 0.012267212 0.0025304654 -0.008312026 -0.004724425 0.0032128028 0.0029933678
-0.008314161 -0.0005258581 0.010308979 0.0033110492 -0.009548574 0.0020391769 0.009330209 0.007955331
0.012290723 0.010266142 -0.0026083055 -0.004043335 -0.002939327 -0.0055670296 -0.0029430375 -0.0037336517
-0.002087866 0.0117832115 -0.0017720693 0.008007443 0.005746465 0.008771811 0.01034277 0.004032289
0.0029503237 -0.004849537 -0.00783213 0.0047781323 0.004477513 0.0041516377 -0.004337722 0.008035647

network_body._body_endoder.seq_layers.2.weight f4 [256, 256]
00000000: 2258 0bbe f70a 21bd 24fb cc3a b6a9 bc3d
00000010: 97d3 9a3c ae95 9a3d 0351 3b3d de23 a9bc
00000020: 5a14 a53c 2324 25bd 5e35 05bb fa5f 06bd
00000030: 6c68 8b3d a613 aa3c d1fa fb3d 05a6 babc
00000040: f664 8b3d e2de f8bb 1dfa 7dbd 6e88 4e3d
00000050: 1fae 0cbe 7426 15bd 1363 983c b75a df3b
00000060: 63e8 a43b 5151 8bbd 96c5 27bd 934b e7bc
00000070: c4ae 463d 9e3f 87bd dbd7 60bd 3738 473a
00000080: fb0a dbbd c760 6fbd 963d 3ebc 9d7a 13bb
00000090: bc37 5cbd 55d4 323d 055e 6dbc 4490 86bd
000000a0: d520 9c3d 387e fa3c ab50 d0bd 4ce7 66bc
000000b0: 2d61 473d cb55 b83b 9fa0 64bd 5fc1 89bc
000000c0: 8796 8b3c 0161 13bc 0006 3cbd e5bc b9bd
000000d0: efcb 1e3c 5903 053d b4f1 1bbe 95de 4bbb
000000e0: af01 1ebe 167e 013e 50cb d6bd 2ec6 a23c
000000f0: 0518 8a3d ea81 153c 2a56 9c3d e3e8 53bb
00000100: dd0a 08be 0e75 0e3d ce36 7a3d 48eb 9c3d
00000110: 0407 f43c c7f3 2f3c 05a1 55bd 14ac e1ba
00000120: 9010 a0bd fafe ad3b 2454 eb3d 5cc2 e0bd
00000130: f3cd 333d a703 60bd c2b6 b8bd 7dde c93c
00000140: 0473 e53c 941d b4bd a6db 73bd 1f27 183d
00000150: 8b67 b6ba ac6b 77bd 1b4b 02bd f264 ad3d
00000160: 57d3 473d 07a5 c8bc 3e55 afbc d07d e2ba
00000170: e80b ef3d 45bf da3c 1a6e 013d c2a4 2f3d
00000180: 0ee7 e93b 49da 1b3c 6839 273d eb77 df3d
00000190: 6e72 cebc 9a62 a0bc c856 873d 8359 3ebe
000001a0: ed17 793d 7705 33bc a3de a73c 787a c83c
000001b0: 9f06 303d ab36 c0bb 2d25 b2bd 6eee 89bd
000001c0: b8ad 8cbb 4140 d8bd 3588 c83d b1ee 27bd
000001d0: 59fa c93d 9838 8d3d b9a3 d4bd 20d2 143c
000001e0: f976 44bd 2eb9 8fbc 4a62 9a3d afd5 8fbd
000001f0: 4e32 86bd 77d6 4a3d 1da3 433b a7e5 183d
00000200: 45c1 51bc 08bf 12be 4a56 0a3d 90f2 bf3d
00000210: b872 1fbd f070 21bd 8b74 d23c 771e 913d
00000220: f147 b53c fe95 2bbc a205 d33d bf62 aa3d
00000230: 59fb 1bbb 793f 1c3d 9ad8 e4bd b139 ae3d
00000240: 87c8 1ebd c2d5 efbd 0902 1fbd 818d f53b
00000250: 72fa 8c3c 7425 553d a67a 38bd 7fa1 d63c
00000260: 672d 203b 30f7 853d abe8 1cbd 7eff 8b3c
00000270: 5790 b0bc e964 c93d 909a 7e3d e2b3 503d
00000280: f553 373d eafb 37bc 7b1a 6ebd aed8 b33c
00000290: 811a 083d 7561 a83d e443 58bd 2a44 c5bc
000002a0: 7e52 0d3d b27c 2fbd 7c42 26bd fc54 9e3d
000002b0: 9f3c fb3c 8d28 46bd 6e84 35bc b323 ffbc
000002c0: 4610 873d b94b 71bd 4640 26bd e07c b8bd
000002d0: f165 163c f33d cfbd c717 ad3c fe0f 653c
000002e0: f354 9cbd fae8 f1bb b335 44bd 444b 5dbd
000002f0: f957 293d 398b efbc d791 7b3d 1552 f23d
00000300: 5ba5 cb3b fa0f f23d ac6e da3c 1138 8ebd
00000310: 3ee3 16bd 5fa8 23bd 1747 353d e7f8 ca3c
00000320: d410 e83d e061 44bd 7d7c e2bc ada1 213d
00000330: 638e 3a3d bcb7 bebb 05e7 083d c38c 183e
00000340: 2303 333d 75ea 1e3e 1067 5d3d 28d3 b63c
00000350: 26cf 833d bcab b1bd d9f7 e03d b2f7 89bd
00000360: f1ff 1bbc 07e4 963c 2049 babd a2c2 d4bd
00000370: bb6f a3bd 2ae1 1e3b 487b e93b f408 f3bc
00000380: 37da bdbd 6e69 c43d 7448 c0bc 11cc dabb
00000390: 3bcb 833b f208 6dbd 914f 0b3e 39a8 aabc
000003a0: de66 933d 49bb d1bd 7fdc 62bd 5add 1e3d
000003b0: 0b1a e5bd d228 6bbc c7d8 503d 5244 97bc
000003c0: f79e ab3d 5da5 463d a414 b43d 36bc 323d
000003d0: e22d 983c ef2c cc3c 7711 aa3d 05c4 29bd
000003e0: 8322 ecbd 301b 1dbd 6fe4 63bd 6657 0b3d
000003f0: 3423 253d db4a b5bc e18c 0c3d d0aa 703a
-0.13607839 -0.039317098 0.0015638811 0.09212057 0.018899722 0.075480804 0.045731556 -0.020646986
0.020151306 -0.040317666 -0.0020325999 -0.032806374 0.06807026 0.020761322 0.12303699 -0.022784242
0.06806366 -0.007594929 -0.062006105 0.05042308 -0.13738297 -0.036413625 0.01860193 0.006816234
0.0050325855 -0.06802619 -0.040959917 -0.028234279 0.048506513 -0.06603931 -0.054893356 0.0007599624
-0.10695454 -0.058441903 -0.011611363 -0.0022503503 -0.05376409 0.043659527 -0.014487748 -0.06570485
0.0762345 0.030577764 -0.10171636 -0.014093231 0.04867666 0.0056254617 -0.055817243 -0.01681584
0.01703955 -0.0089952955 -0.04590416 -0.09069232 0.009692176 0.032473896 -0.15228921 -0.003110801
-0.1543033 0.12645754 -0.104879975 0.01986989 0.067428626 0.009125212 0.07633622 -0.0032334856
-0.13285394 0.0347796 0.061087422 0.07662064 0.029788502 0.010739273 -0.052155513 -0.0017217421
-0.07815659 0.0053099366 0.11490658 -0.10974571 0.04389758 -0.054690983 -0.09019233 0.024642223
0.028008945 -0.08794704 -0.059535645 0.037146684 -0.0013916356 -0.06040542 -0.031809907 0.084665194
0.048785534 -0.024492754 -0.021402951 -0.0017279927 0.11672193 0.026702533 0.03159914 0.042881735
0.0071381396 0.009512492 0.04082623 0.109115444 -0.025201049 -0.019578267 0.06608349 -0.18588834
0.060813833 -0.010926596 0.020491904 0.02447246 0.042975064 -0.005865892 -0.08698497 -0.0673493
-0.00429317 -0.105591305 0.097916044 -0.04099912 0.09862203 0.0689556 -0.1038279 0.009083301
-0.047965024 -0.017544355 0.075382784 -0.07023179 -0.065525636 0.049520936 0.0029851862 0.03732839
-0.012802427 -0.14330685 0.033773698 0.09372437 -0.038927764 -0.039414346 0.025690338 0.07085889
0.02212903 -0.010472773 0.10303809 0.083196156 -0.0023800938 0.03814647 -0.11174126 0.085070975
-0.038765457 -0.11710693 -0.0388203 0.007493675 0.017209265 0.05203767 -0.04503884 0.026200054
0.0024441124 0.06541288 -0.038307827 0.017089602 -0.021553202 0.098337 0.06215912 0.0509528
0.044757802 -0.011229495 -0.058130722 0.021953907 0.0332284 0.082217135 -0.05279912 -0.024080355
0.0345025 -0.042843528 -0.04059075 0.07731053 0.030668555 -0.048378516 -0.011078937 -0.031144952
0.06594901 -0.058910105 -0.04058864 -0.09008193 0.009179578 -0.10119238 0.021129502 0.013980864
-0.0763339 -0.0073825093 -0.047902774 -0.054026857 0.041343663 -0.029241191 0.06141838 0.11832062
0.0062147803 0.118194535 0.0266641 -0.069442876 -0.03683781 -0.039955493 0.04425725 0.024776889
0.11331335 -0.047944903 -0.027647251 0.039460827 0.045545947 -0.0058202427 0.033423442 0.14897446
0.043704163 0.15519126 0.054053366 0.022317484 0.06435995 -0.08675334 0.10984773 -0.06736697
-0.00952147 0.018419279 -0.09095979 -0.10388686 -0.07980295 0.0024243095 0.007125292 -0.029667355
-0.09270137 0.095904216 -0.023472048 -0.0066771586 0.0040220297 -0.05786986 0.13604571 -0.020832168
0.07197355 -0.102408 -0.055386063 0.038785316 -0.11186608 -0.014352994 0.050987985 -0.018465195
0.083799295 0.048497546 0.087929994 0.043636523 0.018576566 0.02492377 0.083041124 -0.041446704
-0.1153002 -0.038356006 -0.055637773 0.034018897 0.040316775 -0.02213042 0.03431404 0.00091807265

network_body._body_endoder.seq_layers.4.bias f4 [256]
00000000: c58b 1aba 97e0 0a3b c56f d13a c0f2 093b
00000010: 6298 f43b b48b 8c3b 94bc 3c3b 1748 053c
00000020: 94d9 843b 0fb5 723b f682 a73b ad01 e03b
00000030: e3d5 5139 3465 b03b ad3a 63bb 1c5b 6c3b
00000040: 21df 98bb 6246 0d3c a43f 533b eab9 243b
00000050: 113e f33b 3af3 473b 7747 de3a 1a9e ad3a
00000060: 877d 4f3b 2199 4e3c ccbd 993b 185f 4abb
00000070: c19a e63b eb7b 893c e3c8 ec3b adef dd3b
00000080: e5ad 5d3a af1b 703a ecfa ca3b 08ef 5fba
00000090: 6f5c 523b 628c 173c ff65 f23b 98a0 143b
000000a0: a5c6 7c3b 7dc3 f83b 39a3 cfba 6dc5 8a39
000000b0: 1e73 9f3b 6c96 523b cf9c 0dbb bc2a b53b
000000c0: 637b 173c 85f8 6b3b ef56 343c 333e aa3b
000000d0: 86e5 253c 54a7 003c 6729 453b f422 733b
000000e0: 7118 53bb a1b1 55bb 41ed 48bb 5b56 d1ba
000000f0: fb29 3d3c 983c 283a f0f2 253b d6fe 003c
00000100: df29 043c cabc d63b c525 9e3b 2eaa c43b
00000110: b6cc b73b 676d 8cba 24da 8f3a 9f49 bb3b
00000120: f92b cd3b 4539 383b 0702 cb3b a2e2 cf3a
00000130: 1f07 1f3c b674 7b3a 0309 0aba 2bfa 053b
00000140: 2186 473a 0f2a 443b c7cd e43b 9efc 183c
00000150: 2066 023c 8aa7 003c 7d9a b0b9 b4e1 f83a
00000160: 24a7 cf3b 16dd 173c 94f3 1e3c 9881 833b
00000170: ebfc 9d3b f06c 09ba cf1f f93b 9360 843b
00000180: 6bc0 cc3a 64f3 a33a 041f 183b 61e7 60b9
00000190: cee0 203a 5d63 88bb f54e c9ba c314 803a
000001a0: 64be ab3b 044a c33b 7199 08bb 5ada 6e3b
000001b0: e12b cb39 5e6f 1c3c c776 eb39 c776 9b3b
000001c0: 116d 04bb 511b 00bb 0bb9 303c 6165 373c
000001d0: dce2 bb3b e237 b03b f3bb 3b3c 6f7e b13b
000001e0: 0801 ef3b f3d9 ec3b 9a3d f33b 86c0 f7ba
000001f0: 7047 be3b c2c1 7aba 3b46 c83b 2ea5 993b
00000200: 81ba 9e3b 6541 9d3b 7cf4 6d3a 4b20 da37
00000210: 0da7 213b 7f2e a739 6b56 e43a 8ad2 633b
00000220: d44b 063c bd42 40bb 34c4 b03a c4e0 2bbb
00000230: 6617 54b9 0d47 a53a f281 1b3b 9afe ec3b
00000240: 44e8 fe3b c8ea 0d3b c29d 80bb 78a7 5b3a
00000250: 6530 003c 9f0d 5b3a 4cc2 283c 8356 5f3b
00000260: b5af 7c3b 8864 c03b f2b8 1eb9 a50c ca3b
00000270: 2b77 9e3b 59d4 9ab9 980a 163c 18c4 143c
00000280: 7b17 efba 84a4 d53a 5e20 d63b 050d 0d3b
00000290: 28b9 133c 1778 f93b b1b6 183c 5e81 1c3b
000002a0: 4158 c03a 21d6 ab39 7374 103b 6c6f 573a
000002b0: c4aa 0fba 3ac5 043c 7f9f 053b cd9d ba3a
000002c0: 851a 363c d99a a83b 817e 42ba f802 e1ba
000002d0: 1234 f13b 4ae8 163c cce8 41bb 1f1a fe3b
000002e0: b94e 26bb a834 563b 71ae ef3b a36b 913b
000002f0: 634f ed3b 3fc5 923b 628e 463b 3858 123c
00000300: 4e5a 033b 7c8e e23a 4113 ff3b 0350 b03b
00000310: e9b9 d3b9 e346 d93b 0ff7 c23b 24ff ba3b
00000320: a5ab d0bb 4204 ae3a 44a8 123c 4603 f43a
00000330: ae54 e73b 5f60 c83b 2599 903b 84a5 2cbb
00000340: 5f8d 863b 9b67 253c 8411 8f3b b3e3 653b
00000350: 9924 593c 29b9 4dbb b798 df3a 7f08 9238
00000360: b723 bb3b 90cc c93a 3620 01bb 0e6d c83b
00000370: 0e33 d63a ceed df3b 37ae 783b 84fd 123c
00000380: 63db d03b 1e8e 043b 186b d93b 940b 01bb
00000390: bc02 0b3c 00fc ed3b 07cb 55bb 3862 0a3c
000003a0: f3bf de3b 2ebb 9abb 5e7a 64ba 48a2 043c
000003b0: 21e6 b83a f21b a83b 3754 673b 1c8a 28ba
000003c0: 3810 2fbb 9654 8f3b 88af 5d3b daea 983b
000003d0: 5c76 483c 5e82 3bba 6aeb 9938 c058 4d3c
000003e0: 7187 a53b 068e 843b 3409 fbba 757f 0eb9
000003f0: 6ce1 0c3c 3bb9 12b9 0fdc db3b 19f0 49bb
-0.0005895461 0.0021190995 0.0015978744 0.0021049231 0.0074644545 0.004289115 0.0028798925 0.008134863
0.0040542576 0.003703419 0.0051120473 0.0068361373 0.00020011472 0.005383158 -0.0034672425 0.0036065048
-0.004665271 0.008622738 0.0032233978 0.0025135227 0.0074231704 0.0030509965 0.0016958554 0.001324597
0.0031660513 0.012609751 0.004691815 -0.0030879434 0.007037491 0.016782722 0.007226096 0.0067729563
0.0008456393 0.00091593986 0.006194463 -0.00085423933 0.0032098552 0.009249778 0.007397413 0.002267873
0.003857055 0.0075916634 -0.0015841491 0.00026468505 0.004866018 0.0032133115 -0.0021608358 0.005528776
0.009245726 0.0036006283 0.011007055 0.005195403 0.010125523 0.007852394 0.0030084492 0.003709969
-0.0032210613 -0.0032607096 -0.0030658992 -0.001597117 0.011545653 0.00064177206 0.0025321804 0.007873258
0.0080666235 0.006553267 0.00482628 0.0060017323 0.0056091202 -0.0010713757 0.0010975045 0.0057155634
0.0062613455 0.0028110307 0.00619531 0.0015860389 0.009706288 0.00095922814 -0.0005265625 0.0020443301
0.00076112343 0.0029932295 0.0069825384 0.009337572 0.007958919 0.007852444 -0.0003368444 0.0018988163
0.0063370634 0.00926902 0.009701628 0.0040132515 0.00482141 -0.0005242368 0.007602669 0.004039833
0.001562131 0.0012508449 0.0023211846 -0.000214485 0.0006137014 -0.0041622357 -0.0015358614 0.0009771812
0.005241202 0.005959751 -0.0020843411 0.0036446066 0.0003875187 0.009548036 0.0004491119 0.004744384
-0.002020661 -0.0019547532 0.010786305 0.011193604 0.005733831 0.0053777555 0.011458385 0.0054166834
0.007293824 0.00722813 0.007423115 -0.0018901981 0.005806856 -0.00095656153 0.0061118877 0.0046888804
0.0048440103 0.0047990554 0.00090772635 2.6002663e-05 0.002466622 0.00031887364 0.0017420774 0.0034762942
0.00819679 -0.0029336654 0.0013486207 -0.00262265 -0.00020226612 0.0012609676 0.0023728576 0.0072324993
0.007779153 0.0021654833 -0.003925056 0.0008379142 0.007824038 0.0008356217 0.01030023 0.0034078665
0.0038556878 0.0058713593 -0.00015136952 0.006166058 0.0048359833 -0.0002953138 0.009157799 0.0090799555
-0.0018241251 0.001629964 0.00653462 0.0021522653 0.009016313 0.007613193 0.009320901 0.002388082
0.0014674739 0.000327752 0.0022042065 0.0008218202 -0.0005480463 0.008103663 0.0020389257 0.0014237702
0.011114721 0.0051454124 -0.0007419363 -0.0017167022 0.0073609436 0.0092106555 -0.002958822 0.0077545787
-0.0025376512 0.0032685194 0.007314496 0.00443788 0.0072421296 0.00447908 0.003029727 0.008932166
0.002004284 0.0017284895 0.0077842777 0.005380632 -0.0004038357 0.006630765 0.005949862 0.0057066847
-0.006368118 0.0013276415 0.00895125 0.0018616698 0.007059655 0.006115004 0.0044127875 -0.0026343772
0.004106208 0.010095502 0.0043661017 0.0035078346 0.0132533545 -0.0031390882 0.0017059062 6.963405e-05
0.0057110447 0.0015396047 -0.0019703037 0.006116516 0.001634212 0.0068337684 0.0037945637 0.008971576
0.006373809 0.002022631 0.006635081 -0.001969074 0.008484539 0.0072627068 -0.0032622234 0.008446269
0.0067977845 -0.0047220206 -0.0008715744 0.0080953315 0.001410667 0.0051302845 0.0035297999 -0.00064292713
-0.0026712548 0.004374097 0.0033826549 0.0046666684 0.01223525 -0.000715291 7.339458e-05 0.012533367
0.0050515463 0.004045251 -0.0019152523 -0.00013589657 0.008598667 -0.00013992649 0.0067095826 -0.0030813275

network_body._body_endoder.seq_layers.4.weight f4 [256, 256]
00000000: a1c7 36bd adbf 94bd a675 c5bd 6dc1 733b
00000010: 4c60 e3bc 8c5e 79bb 6f49 5e3d 184e 6a3b
00000020: bf09 8bbc 90ee 8bbd ace2 abbb 0024 573d
00000030: afde 1b3d bbdd 99bd 2c90 ed3d 66f9 a93d
00000040: 5ac3 8fbd e5a6 2fbd 27b5 0d3e 1e5c 7abd
00000050: a165 863c 411e b2bd 80a8 153d 7ad1 8fbd
00000060: b051 bd3d c2e4 cebc 2499 81bd b197 903d
00000070: 201a 84bd a204 883d 3ffc f63d bb1f c2bb
00000080: ac32 98bc d590 a83c c0c9 17bb 7f68 53bd
00000090: 4be9 a7bd 4262 51ba cd90 ea3b 2164 8cbc
000000a0: a33f 05be a6b8 ed3c f239 4bbc 1bec d9bc
000000b0: b636 32bd 51e9 0ebd a2f9 ec3b 8c08 d4bc
000000c0: 95de b33d 9006 d03d 27fd 6b3d 2129 d0bd
000000d0: 25b4 123d 83c2 bcbd 7d39 553d f2e8 933d
000000e0: 6484 55bc 7f12 1c3e 889d c9bc 0388 a9bc
000000f0: b9f4 c93d 5933 e33c dd73 af3d 0d69 04bc
00000100: 6b76 0f3e 6232 273d 0ca5 3ebd 29f3 97bd
00000110: c758 86bd 23e7 a53c 560a b6bd bd4d 0abd
00000120: 88dc eabd b7ec 1b3b 5dfb 993d 9a6a 49bd
00000130: 9d31 87bc 1e38 d73d 938d 25bd 3458 b3bc
00000140: 8518 a03c 75c5 15bd 6b0c 24bd 39ce 04bd
00000150: 1b7b a9bd 292b c43c ce8f 85bd 983f a13d
00000160: 322a 833d 3dc4 b0bc 904e 74bd a090 35bd
00000170: 9c42 d8bd fa02 d93a 4a4b 0abe 03e0 99bd
00000180: 325d b4bd 5c64 243e 9466 233d a597 5fbd
00000190: 486e 263c 78f2 1ebe 13a9 6cbd 1e96 3fbd
000001a0: 586c 693c e18a a6bd 7e0d 583c bd23 bd3c
000001b0: 01f6 103c 27eb 2a3b 121a 83bc 1329 113c
000001c0: 7a89 3abc e669 653c 1c3f 72bb c305 b23d
000001d0: 05f2 0dbc e352 5b3d e2f1 ae3c f1a9 67bd
000001e0: 07dc 383d 53fe e53c 7179 13bd 1190 dd3d
000001f0: 3750 093e dc23 b93d 9d4f d7bd a893 42bc
00000200: f998 eb3d 3721 c4bb 3d8d 9e3c 212f 8dbd
00000210: 6056 9d3c 60be aebc 88a5 bcbc 1836 b63d
00000220: aad3 6e3c e5af b3bb 755b e33d 4bb1 103d
00000230: 949f f23d e9af 893d 64e5 92bc c8ef bcbd
00000240: a140 033d 2d2e 88bd a2ef ba3d e270 493c
00000250: d3a5 2d3c df8a ee3d 8ad6 bb3d 243c 29bd
00000260: 32ca 32bc 690d ffbc 39c0 3cbd fd81 e93c
00000270: b0d9 6abc 1bfd 793d 75f4 ea3c 168d ad3d
00000280: bc40 efbc 97e9 c5bc 3d66 493d 30a6 ff3d
00000290: 12e5 cfbd 4a84 303d 0bee e6bc 69e6 393d
000002a0: 40d7 5f3d bd91 17bd efac 26bd 74fd d73d
000002b0: 7259 a1bc 1bc3 4b3d c10e 063e 606f af3d
000002c0: 1a2b 6b3c a6da 4ebc 50e4 b5bd 99ad f33c
000002d0: 7210 063e 6bec 97bd 36a0 5f3d f78c 17bd
000002e0: d903 56bd 9d0b f6bc 9201 183e 927c 2dbd
000002f0: 576a 903d d662 d1bd a3e6 2bbd cd1f b1bd
00000300: d1aa 843d 6aae 073c 0cad 713c ef84 843c
00000310: c388 9dbc 73f6 9e3d 3030 e23b 6939 523d
00000320: 2a8d 433d 0f62 7c3d 6807 39bd d10f e7bd
00000330: 8f19 87bd fea5 dc3d 42bf 463d c742 e73c
00000340: f939 97bc bd21 a73c e1aa 153d 58f6 86bd
00000350: fd65 21bd 0807 a23c 8d96 7abd 020c 053d
00000360: 1c90 613c 9419 16be 4563 5bbc 7c93 903d
00000370: 9a65 afbd aa95 19bc b8c5 983c de79 acbd
00000380: 4b5f 173d 80b6 3ebd aa1d 3f3d 0f2a 3d3d
00000390: f4b3 0d3e be27 a53d 7672 57bd 1aa9 f6bc
000003a0: 6b26 2b3d 9f8a e1bb beca 823d 63cd 33bd
000003b0: 2302 27be 93be 88bd 2985 bfbd c3fc 91bd
000003c0: a738 823c 36a1 0fbd b13a 503c 07a9 8d3d
000003d0: 04ec f3bb 9186 1bbe 092f 4a3c 8a4f 27bb
000003e0: 77ce 83bc 57ea 673d 00d1 2ebc 26df 4f3c
000003f0: 8df6 673b c27c b1bc 6c9f cd3d df91 273d
-0.044623975 -0.07263122 -0.0964158 0.0037194148 -0.027755879 -0.003805074 0.05426925 0.0035752114
-0.01697242 -0.068326116 -0.0052455273 0.052524567 0.038054164 -0.07512995 0.11599764 0.08299522
-0.07019682 -0.042883772 0.13838635 -0.061123006 0.016405882 -0.08697177 0.036537647 -0.07022376
0.09244096 -0.025255565 -0.063280374 0.07060183 -0.064502954 0.06641509 0.12059831 -0.0059241927
-0.01857885 0.020576874 -0.0023161024 -0.051613327 -0.08198794 -0.0007987359 0.007158375 -0.017137589
-0.13012557 0.029018711 -0.012403952 -0.026601842 -0.043509208 -0.034890477 0.007231907 -0.025882982
0.087826885 0.10157502 0.05761447 -0.10164095 0.03581633 -0.09216788 0.05205678 0.07222165
-0.013032053 0.1524143 -0.02461125 -0.020694738 0.0986113 0.027734445 0.08567021 -0.008081687
0.14010017 0.040819533 -0.04654412 -0.07419426 -0.06559902 0.020251816 -0.0888869 -0.033765543
-0.11467844 0.0023792216 0.07518647 -0.04917393 -0.01650315 0.105087504 -0.04041822 -0.021892644
0.019542942 -0.036565263 -0.040050905 -0.03242323 -0.08275434 0.023946362 -0.06521569 0.07873458
0.064045325 -0.021577949 -0.059645236 -0.04432738 -0.1055958 0.0016556673 -0.13505283 -0.0751343
-0.08806838 0.16053909 0.039892748 -0.05458798 0.010158129 -0.15522182 -0.05777843 -0.046774022
0.014247023 -0.08131958 0.013186811 0.02308833 0.008847714 0.0026080103 -0.016003642 0.0088598905
-0.011385316 0.014002299 -0.0036963886 0.08692505 -0.008663659 0.053545844 0.021355573 -0.056558553
0.04513171 0.028075373 -0.036004487 0.10818494 0.13409506 0.09040043 -0.10513232 -0.011876024
0.115037866 -0.005985405 0.019354457 -0.06893755 0.019206226 -0.021331012 -0.02302815 0.08897036
0.014576832 -0.0054836147 0.111014284 0.03532533 0.11846843 0.06723005 -0.017931648 -0.09225422
0.032044057 -0.06649432 0.091277376 0.01229498 0.010598618 0.11647581 0.091717795 -0.04131712
-0.010912465 -0.031134324 -0.046081755 0.028504366 -0.014334127 0.061032396 0.02868102 0.08474176
-0.029205672 -0.024159236 0.049169768 0.124828696 -0.101511136 0.04309491 -0.02818968 0.045385752
0.054648638 -0.03700422 -0.040692266 0.10546389 -0.019695971 0.049746614 0.13091566 0.08566165
0.014353538 -0.012625372 -0.08881438 0.029745864 0.13092211 -0.0741814 0.05459615 -0.03699967
-0.052249763 -0.030034835 0.14844349 -0.042355128 0.07051533 -0.102239296 -0.041968 -0.08648644
0.06477893 0.00828133 0.01475073 0.016176669 -0.019230252 0.0776185 0.006902717 0.05132428
0.047742046 0.061616953 -0.04517308 -0.112823136 -0.06596672 0.10773848 0.04852224 0.028230084
-0.01846026 0.02040183 0.036539916 -0.06589955 -0.039403904 0.019778743 -0.061178733 0.032482155
0.0137672685 -0.14658195 -0.013390367 0.070593804 -0.08564301 -0.009374062 0.018648967 -0.08421682
0.036956113 -0.046560764 0.04665915 0.04618269 0.13838178 0.08064221 -0.052599393 -0.03010993
0.041784685 -0.00688298 0.06386326 -0.043897044 -0.16309409 -0.06676974 -0.0935157 -0.071282886
0.015896155 -0.035065852 0.012709306 0.06917005 -0.0074439067 -0.15188052 0.012340316 -0.0025529587
-0.016089661 0.05661997 -0.010669947 0.01268748 0.0035394758 -0.021665934 0.10040173 0.040910598
