Assets/Training/results/RUN5/SzitakotoBehavior.onnx (onnx, 729012 bytes, 17 tensors)

85 f4 [14]
000000 59 6b 9d 39 c9 f1 43 3e 59 6b 9d 39 59 3b 44 3e
       0.00030025354 0.19135202 0.00030025354 0.19163264
000010 59 6b 9d 39 14 94 40 3e 59 6b 9d 39 4e 2f 43 3e
       0.00030025354 0.18806487 0.00030025354 0.19061014
000020 59 6b 9d 39 f4 d7 41 3e 59 6b 9d 39 ca 85 41 3e
       0.00030025354 0.18930036 0.00030025354 0.18898693
000030 59 6b 9d 39 ca 85 41 3e
       0.00030025354 0.18898693

88 f4 [42]
000000 b5 9f de 3a 57 36 8e 3e 93 db 15 3b 22 d6 8b 3e
       0.0016984852 0.27775833 0.0022866472 0.27311808
000010 bf 23 0b 3b be b2 91 3e fb 2e 1c 3b 20 ee 8d 3e
       0.0021231023 0.28456682 0.0023831713 0.27720737
000020 5d 40 13 3b a5 82 93 3e 63 f0 1a 3b a7 b6 91 3e
       0.0022468783 0.2881061 0.0023641817 0.28459665
000030 42 af 19 3b e3 13 94 3e b5 9f de 3a bb b9 8d 3e
       0.002345041 0.28921422 0.0016984852 0.27680764
000040 93 db 15 3b 9b 5f 8b 3e bf 23 0b 3b 67 26 91 3e
       0.0022866472 0.2722138 0.0021231023 0.2834961
000050 fb 2e 1c 3b cf 6e 8d 3e 5d 40 13 3b b7 e5 92 3e
       0.0023831713 0.27623603 0.0022468783 0.28690884
000060 63 f0 1a 3b 15 21 91 3e 42 af 19 3b d4 69 93 3e
       0.0023641817 0.28345552 0.002345041 0.28791678
000070 b5 9f de 3a a2 3b 8d 3e 93 db 15 3b a2 e7 8a 3e
       0.0016984852 0.2758456 0.0022866472 0.27129847
000080 bf 23 0b 3b 88 98 90 3e fb 2e 1c 3b fb ed 8c 3e
       0.0021231023 0.28241372 0.0023831713 0.27525315
000090 5d 40 13 3b 68 47 92 3e 63 f0 1a 3b f5 89 90 3e
       0.0022468783 0.28570104 0.0023641817 0.28230253
0000a0 42 af 19 3b 22 be 92 3e
       0.002345041 0.28660685

91 f4 [132]
000000 ee 23 5f 3e ac b2 f5 3e 02 2e fc 3e 6b 77 8d 3e
       0.2179105 0.47987878 0.4925385 0.2763017
000010 83 7b 52 3e db 1a f7 3e 23 87 fc 3e 82 63 8c 3e
       0.20554928 0.48262677 0.4932185 0.27419668
000020 62 7f 82 3e c6 2b ee 3e 8d d4 f9 3e ed d7 8a 3e
       0.2548781 0.4651777 0.48794976 0.27117863
000030 76 6a 60 3e 20 50 f4 3e d8 65 fb 3e 87 ab 8a 3e
       0.21915612 0.4771738 0.49101138 0.2708399
000040 6f cf 8c 3e fb be e8 3e 21 57 f8 3e c1 f0 86 3e
       0.2750201 0.45458207 0.48503974 0.26355556
000050 45 d5 84 3e 1b 9d ee 3e c0 61 fa 3e f0 86 88 3e
       0.25943962 0.46604237 0.48902702 0.2666545
000060 36 66 8e 3e e7 42 e4 3e 28 21 f6 3e 94 ca 84 3e
       0.27812356 0.44582292 0.4807217 0.25935805
000070 f8 bc 8e 3e 8f ba e5 3e 14 03 f7 3e 4d 85 86 3e
       0.27878547 0.44868895 0.48244536 0.26273575
000080 4d 12 8d 3e c5 2e df 3e 20 eb f2 3e 34 84 82 3e
       0.27553025 0.4359037 0.4744501 0.25491488
000090 4c 3e 8b 3e 0d af d7 3e 32 ed ed 3e 8a 8e 83 3e
       0.27195966 0.4212574 0.46470028 0.25694686
0000a0 47 c5 8c 3e cd b4 d8 3e 4e f2 ee 3e 38 54 7e 3e
       0.2749426 0.4232544 0.4666924 0.24836814
0000b0 39 89 5f 3e 4a c0 f5 3e d3 07 fc 3e fe 3d 8c 3e
       0.2182969 0.47998267 0.4922472 0.27391046
0000c0 7d f0 52 3e ab 27 f7 3e 1c 63 fc 3e ea 25 8b 3e
       0.20599551 0.48272452 0.49294364 0.27177364
0000d0 ad af 82 3e 6d 3d ee 3e f8 a4 f9 3e 21 93 89 3e
       0.25524655 0.4653124 0.48758674 0.26870063
0000e0 29 ec 60 3e 85 5f f4 3e a2 3d fb 3e 32 64 89 3e
       0.21965088 0.47729126 0.4907046 0.26834255
0000f0 9d fc 8c 3e 3c d3 e8 3e e5 21 f8 3e d1 9b 85 3e
       0.2753648 0.4547366 0.4846336 0.2609544
000100 c6 0c 85 3e fc af ee 3e 55 36 fa 3e 21 32 87 3e
       0.25986308 0.4661864 0.48869577 0.26405433
000110 60 90 8e 3e ca 56 e4 3e 70 e2 f5 3e 33 69 83 3e
       0.27844524 0.44597465 0.4802432 0.25666198
000120 56 ec 8e 3e 47 d0 e5 3e d6 c9 f6 3e 1a 20 85 3e
       0.27914685 0.44885466 0.48200864 0.26001054
000130 7d 3b 8d 3e a1 3b df 3e 5d 9c f2 3e 13 11 81 3e
       0.27584448 0.4360018 0.4738492 0.2520834
000140 91 6c 8b 3e a6 be d7 3e ab 90 ed 3e 0b 0a 82 3e
       0.27231267 0.4213764 0.46399435 0.25398287
000150 03 ec 8c 3e 12 be d8 3e 2d 93 ee 3e 94 38 7b 3e
       0.27523813 0.42332512 0.4659666 0.24533302
000160 de ee 5f 3e 9f cd f5 3e 62 e1 fb 3e 0f 00 8b 3e
       0.21868464 0.4800844 0.4919539 0.27148482
000170 89 64 53 3e 3a 34 f7 3e 7c 3e fc 3e b2 e3 89 3e
       0.2064382 0.48282033 0.49266422 0.2693153
000180 ec df 82 3e d7 4f ee 3e 3a 74 f9 3e 87 49 88 3e
       0.25561464 0.46545288 0.48721486 0.26618597
000190 4f 6c 61 3e cc 6e f4 3e 12 15 fb 3e 53 18 88 3e
       0.22013973 0.4774078 0.49039513 0.26581058
0001a0 93 29 8d 3e a0 e7 e8 3e 5a ea f7 3e 87 41 84 3e
       0.2757078 0.45489216 0.48420984 0.25831243
0001b0 ca 44 85 3e 81 c3 ee 3e bc 09 fa 3e 4f d8 85 3e
       0.26029044 0.46633533 0.48835552 0.26141593
0001c0 41 bb 8e 3e ae 6a e4 3e 43 a2 f5 3e 00 02 82 3e
       0.27877238 0.4461264 0.47975358 0.2539215
0001d0 9e 1c 8f 3e 04 e6 e5 3e 91 8f f6 3e a7 b5 83 3e
       0.2795152 0.4490205 0.48156407 0.25724527
0001e0 e2 64 8d 3e 8a 48 df 3e d4 4b f2 3e ab 2c 7f 3e
       0.2761603 0.4361003 0.47323477 0.24919383
0001f0 7b 9a 8b 3e 10 ce d7 3e 8c 32 ed 3e ef 7e 80 3e
       0.27266297 0.421494 0.46327627 0.25096843
000200 c8 12 8d 3e 53 c7 d8 3e e1 32 ee 3e 7e 0f 78 3e
       0.2755339 0.42339572 0.46523193 0.2422466

94 f4 [2]
000000 29 97 84 3e 9b e8 d1 3e
       0.25896576 0.40997776

action_model._continuous_distribution.log_sigma f4 [1, 2]
000000 3a 4a 80 bf 31 6b cd be
       -1.0022652 -0.40120843

action_model._continuous_distribution.mu.bias f4 [2]
000000 7e 91 96 3c e9 12 47 bc
       0.018379923 -0.012150505

action_model._continuous_distribution.mu.weight f4 [2, 256]
000000 cb fc 0c 3d 3d 56 58 bc 2b dc 40 3d 7d bf f4 bc
       0.03442077 -0.013204155 0.04708497 -0.029876465
000010 66 f0 b8 ba 22 19 0d 3c 6a 7a 25 3c a3 dd 9b bc
       -0.001410973 0.008611949 0.010099987 -0.019026583
000020 42 f6 c2 bc a0 ff 8e bc 9f 15 ec 3c de ff 01 bc
       -0.023799066 -0.017455876 0.028818903 -0.007934539
000030 50 65 7d bc 8e 54 8c ba 2e 7d 53 3c 9d a4 12 3c
       -0.015466049 -0.0010706352 0.012908263 0.00895038
000040 2f 68 bc 39 de b4 10 bd de 4f 6c bb ef 6d ee 3c
       0.00035935777 -0.03532874 -0.0036058347 0.029105155
000050 05 48 62 bd 7a 7b 08 3c c7 ad 5c 3d 64 0b 0e 3d
       -0.055244464 0.00833022 0.053876664 0.03467883
000060 41 af 22 bd d3 1b 69 bb 49 e9 19 3d 7c 9c 0c bc
       -0.039717916 -0.0035569563 0.037575994 -0.008582231
000070 58 35 7f bd 57 af 6a 3c d2 fb f1 bc 14 5e 58 bb
       -0.062306732 0.014324031 -0.029539023 -0.003301506
000080 dc 8b 5c bd 05 8d 55 3d 25 7f 1d 3d 14 da 57 bb
       -0.053844318 0.05213644 0.038451333 -0.0032936381
000090 19 f8 52 bc 0b b9 a1 3c 46 5e 41 3c c1 76 53 3c
       -0.012876534 0.019741556 0.011802262 0.012906731
0000a0 bb bf 44 3c 9e 74 4d bc 18 c1 95 bb 50 a3 3a bc
       0.012008603 -0.012540011 -0.0045701377 -0.011391476
0000b0 bb 4d 0a 3c 84 5d 82 3c d8 bd 99 bc 6d cd 9c bc
       0.008441384 0.015913732 -0.018767282 -0.019140923
0000c0 5b 87 48 3b 48 db 0d bd ee 18 b5 bb 62 d3 10 bc
       0.0030598256 -0.03463295 -0.0055266535 -0.00883946
0000d0 73 85 15 bd e4 c8 8f bd 67 5b 25 3d e0 ca c7 3c
       -0.03650422 -0.07020739 0.04037037 0.02438873
0000e0 93 b0 23 bd e6 d2 8c ba 02 a9 97 3a c3 83 67 3d
       -0.039963316 -0.0010744005 0.0011570754 0.056522142
0000f0 de b8 68 bc 14 aa 67 3c e1 a9 ad 3b d5 ff 32 3c
       -0.014204232 0.014139671 0.005299792 0.010925253
000100 e7 f4 f1 bb 37 a2 ac bc 76 fc 6f bc 90 5e 04 3d
       -0.007383931 -0.021073444 -0.014647594 0.032316744
000110 74 f2 10 bc 80 95 9f 3b 02 ef 90 bd cc 6c bd bb
       -0.008846868 0.0048701167 -0.07076837 -0.005780792
000120 d9 b4 d8 3a 83 4e 2a 3b 9a 6e 1c bd 41 3a 18 bd
       0.0016533389 0.0025986738 -0.038191415 -0.03716493
000130 1c 00 f6 3b 24 00 07 3c 70 16 64 bc 63 05 9f bb
       0.0075073373 0.00823978 -0.013921365 -0.004852937
000140 63 e3 b8 bd ad 9e d1 ba e7 a8 95 bb 49 76 0c 3d
       -0.090277456 -0.0015992724 -0.004567254 0.034292493
000150 fa f9 1e bb 88 cd 23 bc b0 a4 94 bd 54 72 81 3d
       -0.0024257884 -0.009997733 -0.07257974 0.063206345
000160 c0 09 9b 3a 8b 5f 04 bc d1 f6 4e bc 76 be c2 3b
       0.0011828467 -0.00807942 -0.012632088 0.005943115
000170 51 ce 79 bd 25 78 97 bd e4 d6 5b bd e6 98 27 bc
       -0.060987774 -0.073959626 -0.053671733 -0.010229325
000180 54 fb 75 bd 63 bf 48 3c 7e d5 4c bc ad 75 cd bb
       -0.06005414 0.012252661 -0.012502072 -0.0062701316
000190 8e 0b 17 3c 21 0a a3 bc 00 32 cc bc f6 69 de 3a
       0.009219063 -0.01990229 -0.024926186 0.0016968835
0001a0 57 7a 5f 3c 61 a3 64 3c 42 75 df bc 16 06 3d 3c
       0.013640008 0.013954968 -0.027277593 0.0115370955
0001b0 91 f3 1f bc 03 55 32 bc e5 1f 1e 3c 00 3b a8 bc
       -0.009762661 -0.010884526 0.009651159 -0.020535946
0001c0 d6 5d c6 bb a7 ac b2 bc b3 4b 25 bd 72 ff b6 3b
       -0.0060536666 -0.021810843 -0.040355396 0.0055846507
0001d0 92 bc 89 3c c2 c3 b0 bc 98 34 88 bc ed bd d9 3b
       0.01681355 -0.02157772 -0.016626641 0.0066449554
0001e0 15 e5 7a 3a aa 7a 96 3c 03 02 49 bd e5 8d 4b 3a
       0.0009570879 0.018369038 -0.049074184 0.00077649794
0001f0 a6 de 02 bb f5 6b c8 3b 6e ee d0 bc 32 e5 6e 3a
       -0.0019969135 0.006116385 -0.025504317 0.0009113132
000200 a2 f9 1a bc 3e 5a bd bb 0d 2c 5a bd 42 89 34 3b
       -0.009458931 -0.00577858 -0.053264666 0.0027547632
000210 99 66 b5 3d cb f3 24 bb 82 6d 31 bb 3a 05 ce bc
       0.088574596 -0.0025169726 -0.0027073328 -0.025148977
000220 aa e6 b3 3d e3 84 bc 3c 80 f0 0a 3d 27 46 c1 3a
       0.0878423 0.023012584 0.033920765 0.0014745638
000230 6a be af bc 75 3e 56 3d d7 f5 0b 3d 9d 41 04 bc
       -0.021453101 0.052305657 0.034169998 -0.008072284
000240 8d a4 48 bb 0b 84 1a 3b f1 80 85 bb 71 7d d7 3c
       -0.0030615658 0.002357724 -0.004074209 0.026304932
000250 08 62 c6 3b c0 b8 70 bc ed 51 f6 bb b4 08 82 bb
       0.0060541667 -0.014692485 -0.0075170905 -0.0039683226
000260 c1 88 06 bd ac 0b 95 bd 2a 9b 08 3d e8 63 3a 3d
       -0.032845262 -0.07277617 0.0333511 0.045505434
000270 ef 98 c3 3c e4 a6 e7 bc 1b 6f 9b bb a5 57 88 3a
       0.023876635 -0.028277822 -0.0047434694 0.0010402097
000280 ab 0c 6b bc b1 93 09 bd c3 8e 72 3b e6 1c c6 3b
       -0.014346282 -0.033588115 0.0037011362 0.0060459254
000290 cf 93 98 bb 7d 7c 10 bb f7 e7 39 bd 50 3a fe ba
       -0.004656292 -0.0022046857 -0.045387235 -0.0019396041
0002a0 26 e7 70 3d 95 f3 f7 3b ce 60 21 bb cd b2 69 3c
       0.05881419 0.007566879 -0.002462435 0.014263821
0002b0 22 e5 b0 3a 08 c8 07 bd 34 94 c3 3d fb 64 d5 3b
       0.0013496021 -0.03314975 0.09549752 0.006512282
0002c0 c5 c3 6a bc e6 2f c8 bc b8 25 9a bd 0c 6d 65 bd
       -0.014328902 -0.024436902 -0.075267255 -0.0560122
0002d0 a3 00 2b b9 55 f3 bf 3c 3b 89 fd bc 02 39 80 bb
       -0.00016308068 0.02343146 -0.030949226 -0.003913046
0002e0 e6 ea 6c 3b 3a 59 9d bb e0 d8 c8 3c 17 a9 85 bc
       0.0036150753 -0.0048018964 0.024517477 -0.01631598
0002f0 f2 13 ee bb eb f0 2b bd c2 ed cd bc 56 ee a6 ba
       -0.0072655613 -0.041977804 -0.025137786 -0.0012735825
000300 67 68 f5 3a 72 cd 23 bc 31 79 1a bc bf 0f 01 3b
       0.0018723131 -0.009997712 -0.009428308 0.0019693223
000310 42 f4 6b bc 0b f6 3d bc 96 68 b6 3b e6 2d fc bb
       -0.014401497 -0.011594306 0.005566667 -0.007695901
000320 56 9b 3c bd 16 6a 43 3b 26 33 b6 bc 30 64 f3 3c
       -0.046046577 0.002981787 -0.022241186 0.029710859
000330 45 f7 1f bc b5 fb e7 bc 46 67 2c 3b 69 47 91 bc
       -0.0097635435 -0.028318265 0.0026306673 -0.017734246
000340 3d e6 a3 bb f1 d6 02 3c 24 91 26 3c 1f a2 45 3b
       -0.005001812 0.007985816 0.01016644 0.0030156446
000350 ba da db bb 10 77 d4 3b eb 11 7a b9 7d 40 83 bc
       -0.006709424 0.00648392 -0.00023848533 -0.016021961
000360 d0 31 b5 3c c7 13 f1 ba 99 a7 1e bd 53 4f 2e bb
       0.022118479 -0.0018392735 -0.038734052 -0.0026597574
000370 6f a4 af 3a 80 86 37 bc 75 0f 74 ba 29 9e 2e 3c
       0.0013400445 -0.011201501 -0.00093101646 0.0106578255
000380 33 b7 39 bd ed 5b 86 bd b7 e1 b5 ba d9 9f 6c bb
       -0.045340728 -0.06560502 -0.0013876472 -0.0036106019
000390 60 8b 55 bd 16 9d 84 3c 5e 86 15 3d c3 65 08 3c
       -0.05213487 0.016188186 0.036505096 0.008325043
0003a0 c7 cf 9f 3c 98 71 33 b8 5d b9 a1 3b cb e2 27 bc
       0.019508256 -4.2782718e-05 0.004935427 -0.010246943
0003b0 17 18 a2 3c a1 7e 9a 3c 14 55 84 3c 78 1c 60 bb
       0.019786878 0.01885921 0.01615385 -0.0034196656
0003c0 d8 6e af 3b e3 42 60 bc 2f 20 4d 3c 7a e6 a5 3a
       0.00535379 -0.013687822 0.01251988 0.0012657188
0003d0 dc 96 64 bd a2 fb ff bb fe a8 4e 39 ff db a9 bd
       -0.055807933 -0.0078119794 0.00019708645 -0.08293914
0003e0 ce 70 97 3d d5 1d f6 bb ad b1 4f 3a a6 88 89 bc
       0.07394563 -0.0075108805 0.0007922899 -0.016788792
0003f0 33 5c cb 3b 12 7f e1 3b ea 27 83 bb 37 5a 39 bb
       0.0062060594 0.006881603 -0.004002561 -0.0028282532

network_body._body_endoder.seq_layers.0.bias f4 [256]
000000 1b e3 34 bc 52 4a 0e 3c 25 b4 ff 3b 3f 97 fe bb
       -0.011040474 0.0086847115 0.0078034573 -0.007769495
000010 19 93 e8 3b 9f 5c 2e 3d 14 9b 79 bc d7 5d 19 3d
       0.0070976135 0.0425688 -0.015234727 0.03744301
000020 b5 f3 80 bb db ab ca 3b 1f e4 42 3d ec e7 8d bb
       -0.003935302 0.0061850375 0.047580834 -0.0043306258
000030 80 50 36 bd 89 97 00 bc ce b1 9e bc 64 0a 19 bd
       -0.044510365 -0.007848629 -0.019371893 -0.037363425
000040 d6 2f c0 bc 17 c5 98 bc 11 52 c1 bc d1 1c a3 3b
       -0.02346031 -0.018648667 -0.023598703 0.0049778004
000050 4a 96 14 bd 5e 6e 28 bd 90 fd ef bc e2 3c 70 3a
       -0.03627614 -0.04112088 -0.029295713 0.00091643457
000060 04 07 94 3c bb 79 75 3c 09 31 86 bc d3 b3 35 bd
       0.018069752 0.014982636 -0.016380804 -0.044360947
000070 60 06 38 bd 9e f4 2e ba e5 ab 65 bd 47 71 cf bc
       -0.044927955 -0.0006674024 -0.056072135 -0.02532257
000080 97 79 e4 bc 20 a1 85 bc 25 90 ea bc 87 0b 0d bd
       -0.02789001 -0.016312182 -0.028633187 -0.03443482
000090 10 09 e1 3c b9 57 ea bc 63 ac 13 bd 8e 97 19 bd
       0.027470142 -0.028606283 -0.036053073 -0.03749805
0000a0 0b 1b 7c bc aa 4a 00 bd 3d b9 34 3a e4 32 16 bd
       -0.015387307 -0.031321205 0.0006894058 -0.036669627
0000b0 51 ec 18 bc 0e 3c 1d bd f0 72 4b bd 54 08 17 bd
       -0.009333686 -0.03838735 -0.04967016 -0.036873177
0000c0 d6 14 94 3c 27 69 61 bc 9b 43 e2 3b 1d c3 fa 3c
       0.018076342 -0.01375798 0.006905032 0.030610615
0000d0 ec 1c 0d bd 02 d2 0a bd 64 8e 2e ba 30 92 a8 bb
       -0.03445141 -0.033891685 -0.0006658791 -0.00514438
0000e0 89 30 ce bc 07 6a da 3a 0d 28 85 bb 0d e3 34 bc
       -0.025169628 0.0016663679 -0.0040636123 -0.011040461
0000f0 4a 2b 0a bd 7f dd f3 3c 81 5e 84 3c bf c8 9e 3c
       -0.03373269 0.029768704 0.016158344 0.019382833
000100 66 64 32 bb 05 00 9d bc 0a f0 14 bd 7f 37 4a bb
       -0.0027220487 -0.019165048 -0.03636173 -0.0030855832
000110 32 3b a4 3c 37 42 20 bd 2c 15 c4 bc 9b f2 fa bc
       0.020047758 -0.039125647 -0.023935877 -0.030633261
000120 fd d6 8f bd bd 1e c4 bc 7f 80 e1 bc bf 62 41 bc
       -0.07023428 -0.023940438 -0.027527092 -0.011803328
000130 1a 05 6b bd ec 1c 30 3c ac c0 65 3c f0 48 2b bd
       -0.057377912 0.010749083 0.014022987 -0.041817605
000140 1a b1 24 bd 00 c4 f5 3c 40 f0 b7 bc 08 2e 93 bb
       -0.04020796 0.030000687 -0.022453427 -0.0044915713
000150 8a 8f 4d bd 82 f7 fd 3c 4a 72 d9 bc 33 61 a0 bc
       -0.050185718 0.03100181 -0.026543755 -0.019577598
000160 de 50 af 3c ff 31 3b bd 39 0e ab ba 29 ea 9a bc
       0.021400865 -0.045701977 -0.0013050503 -0.018910484
000170 51 c0 49 bc c0 29 74 3c 7e e5 05 3c 3f 2b ab bc
       -0.012313918 0.014902532 0.008172391 -0.020894645
000180 bc ba ce bc 5d 29 60 38 a3 f0 15 3c ee 7c ac bc
       -0.025235526 5.3444284e-05 0.009151611 -0.021055665
000190 b7 29 29 bc 99 b6 87 bd bf 06 2f 3c 51 9b 9c 3a
       -0.010324887 -0.066266246 0.010682761 0.0011948143
0001a0 e8 0a 52 3c 8c 59 5b 3d bf 47 f7 bc b7 99 17 bb
       0.012819983 0.053552195 -0.030185578 -0.0023132393
0001b0 55 59 33 bd 21 54 38 3c fa 71 9a bc 41 f5 fe bc
       -0.043786366 0.011250527 -0.018853176 -0.031122806
0001c0 49 11 af bc 18 38 d0 bb 9f dd b8 bc 6b 9f b4 bc
       -0.021370547 -0.006354343 -0.022566615 -0.022048673
0001d0 fa 45 2a bd 27 6f 44 bc 49 95 8a bd 6b b3 46 bd
       -0.04157064 -0.011989391 -0.06766755 -0.04851095
0001e0 d1 bf 37 3c 37 f1 87 bd 04 46 36 bc 63 39 c3 bc
       0.011215166 -0.06637805 -0.011125091 -0.023831075
0001f0 fb 32 50 ba ec 35 d5 bc 9a 23 d5 bc 3f 92 d2 bb
       -0.0007942167 -0.026026689 -0.026017953 -0.0064261253
000200 98 8e 8b bc e4 dd c1 bc fb 31 8d 3c 78 fe 32 bc
       -0.017035767 -0.023665376 0.017235747 -0.010924928
000210 b0 23 08 bb de 1d d2 bc 79 f7 81 bc 82 07 de 3c
       -0.0020773225 -0.025649007 -0.015865074 0.02710319
000220 a2 5d 39 bd 49 ed af 3c 89 3a 6f bb 00 23 0a bb
       -0.04525531 0.021475451 -0.0036503396 -0.002107799
000230 a7 86 52 bd 81 72 a9 bd 17 89 6e bd de 64 80 3b
       -0.051397946 -0.08273793 -0.058236208 0.0039182743
000240 71 88 16 bc bf 27 75 3c 01 b0 a0 3b 50 57 f7 3c
       -0.009187804 0.0149630895 0.004903794 0.030193001
000250 2a 9e 19 3c 50 47 f5 bc a2 ec b4 bb e2 4e 7f bc
       0.009376088 -0.029941231 -0.005521373 -0.015582772
000260 11 b6 4a 3c 65 87 25 bd 05 9b 18 bd 86 42 06 bd
       0.01237251 -0.040412325 -0.037257213 -0.032778285
000270 fe 66 27 bd fb 97 bd bc 09 a7 26 bc 00 6a 46 39
       -0.040869705 -0.023143759 -0.01017166 0.0001892224
000280 03 fa 4b bc b1 5a e4 bc d7 50 7d 3c 62 b2 20 bd
       -0.012449744 -0.027875276 0.015461168 -0.03923262
000290 0c fb 3a 3d fb 39 4f 3b 1b 78 eb bc fa 88 62 bc
       0.045649573 0.0031620252 -0.028743794 -0.013826603
0002a0 26 90 ad 3c 6e 7e ab 3b c1 5a 8a bb 84 31 63 bb
       0.0211869 0.0052335775 -0.0042222445 -0.0034666965
0002b0 67 bf ed bc 55 82 48 bc 46 9d 51 3c c8 51 86 bb
       -0.029021932 -0.012238105 0.012793845 -0.0040991046
0002c0 a5 5e c9 bc b3 09 a5 bc 25 f6 3e bc 49 87 74 3c
       -0.024581263 -0.020146227 -0.011655365 0.014924833
0002d0 41 b6 1a bc 97 0b a7 3b 3f eb 4a bc e3 ca d6 bb
       -0.009442867 0.005097817 -0.012385189 -0.0065549477
0002e0 d9 48 26 3b c0 1b 70 bd ec fe 5e 3b 52 fe ab bc
       0.002537301 -0.058620214 0.0034026457 -0.020995293
0002f0 c2 cc 15 bc 73 6e 27 bd 72 fd a0 bb 84 1a c0 bc
       -0.009143056 -0.040876817 -0.0049130255 -0.023450144
000300 45 7f 2f bc 26 6e 36 bd 47 33 a9 bc 2d 07 35 bd
       -0.010711496 -0.04453864 -0.020654334 -0.044196296
000310 2f e8 37 ba bd 3c 47 bc db 99 12 bd 62 8d 47 bd
       -0.0007015494 -0.012160477 -0.03579126 -0.048718818
000320 19 5d 2a bc 3b 7a bf bc 2b 13 b0 bc 0b 17 c0 bc
       -0.010398173 -0.023373714 -0.021493515 -0.023448488
000330 49 9c 65 bc 48 4b 50 bc 06 a4 48 3c 49 77 9b 3c
       -0.014014312 -0.012713261 0.0122461375 0.018977778
000340 e0 65 aa 3b ca 6f 21 ba 76 e5 aa bc f0 fb c0 bc
       0.0052001327 -0.00061583205 -0.020861369 -0.023557633
000350 88 0c 75 3b ed 36 19 bc 84 6c 61 bc 3c b7 fb bc
       0.0037391502 -0.009351474 -0.013758782 -0.030727021
000360 11 a6 39 3b 0c e6 fb bc d1 df 52 ba 90 a9 57 bd
       0.0028327743 -0.030749343 -0.00080442155 -0.05265194
000370 a8 77 56 bc 87 de 6e 3c ac 01 ca bc db c6 2e bd
       -0.013090052 0.014579422 -0.024659 -0.042670112
000380 bf 2f 73 bd 33 ba cb bc b5 1d 8c bc 6f a5 dc bc
       -0.059371706 -0.02486906 -0.01710401 -0.026934354
000390 68 92 c2 bc fe 55 3b 3c 31 a0 37 3c 68 b3 d0 bc
       -0.023751453 0.011434076 0.011207626 -0.025476173
0003a0 87 b8 17 bd 9a ec 13 bc a5 c0 2f bd 91 87 b9 bc
       -0.037041213 -0.009028578 -0.04290833 -0.02264765
0003b0 3a ab a5 3c 0b 73 57 bd 56 d7 c3 bc a2 85 45 bd
       0.020223249 -0.052599948 -0.023906391 -0.048223145
0003c0 6a b6 dc bc da 54 aa bc 81 f0 9d bc bf 74 d6 bc
       -0.02694245 -0.020792414 -0.01927972 -0.026178716
0003d0 6f 2b fc bc 0a d0 f2 bc 8a 24 5b 3c c7 e9 d2 bc
       -0.03078243 -0.029640216 0.013375411 -0.02574624
0003e0 b5 66 3f bd 13 b2 41 bd 92 b1 8c 3c e8 68 f3 3c
       -0.04672881 -0.047288965 0.017174516 0.02971311
0003f0 48 e4 8e bc 51 4f 47 bc 16 58 cf bc 28 63 92 bb
       -0.017442837 -0.012164907 -0.025310557 -0.0044673868

network_body._body_endoder.seq_layers.0.weight f4 [256, 190]
000000 5a 89 a9 3d b2 3d 44 3e 28 35 3c 3e db 56 95 3d
       0.08278151 0.1916416 0.18379653 0.07291957
000010 b5 c7 49 bd f5 ba 63 bd f3 9e d1 bc 72 c9 73 bd
       -0.04926272 -0.055598218 -0.025588488 -0.059518285
000020 89 54 af 3d 82 18 03 bb 12 fb 92 bd 6a eb 16 bd
       0.08561046 -0.0020003621 -0.07176794 -0.036845602
000030 eb 41 77 bd 47 82 68 bd 0e b3 cd 3d 7a 23 ab bd
       -0.0603656 -0.056764867 0.100439176 -0.08356376
000040 43 8b 87 3d aa 71 ce 3c 52 f2 60 bc 2f 46 bd bb
       0.06618359 0.025200684 -0.013729649 -0.005776189
000050 08 cf 58 3d a1 62 c0 3c 65 65 a1 bd 0b da 94 bd
       0.052931815 0.02348453 -0.078806676 -0.07268151
000060 dd 11 39 3e da 11 54 3c 2b b0 1c bd 55 f0 6f 3d
       0.1807322 0.012943709 -0.038253944 0.058578808
000070 a3 b9 48 3d 0b e4 36 3d 7f 46 da 3b 49 dc b3 3b
       0.049005162 0.044651072 0.006661236 0.0054889065
000080 e1 a7 8b bc 9f 5a 8d 3d d6 b5 21 ba f0 ea ae bb
       -0.017047824 0.0690205 -0.0006168758 -0.0053380653
000090 40 82 c2 3d 8c 4a ca 3d 32 86 e7 bd fd 86 b4 3d
       0.094974995 0.098775 -0.113048926 0.088148095
0000a0 6c 8d 31 bd c2 f0 9b bc 1a 29 ca 3c bd f2 ce 3d
       -0.04334776 -0.0190357 0.024677802 0.101048924
0000b0 96 f5 c2 3d 30 2a c4 3d 4d 55 c3 3d d3 32 52 3d
       0.09519498 0.09578359 0.09537754 0.051318
0000c0 ed 2d 66 3e 63 7f c0 bd 2d c9 fb 3d 21 19 87 bb
       0.22478457 -0.09399297 0.122942306 -0.0041228686
0000d0 09 22 bb 3d 27 bd 15 be fb 60 48 bd ff 12 73 bb
       0.09137351 -0.14622937 -0.048920613 -0.003709018
0000e0 8d b1 ae bd d2 f1 4c 3c 86 03 c3 3d 16 8f 9a 3d
       -0.08529959 0.012508826 0.095221564 0.07546823
0000f0 fa 3b 9e bd 1e e3 22 3e 31 ba 6f bd 94 6c 5e bd
       -0.07726283 0.15906951 -0.058527175 -0.054302767
000100 f1 b3 59 3d 1b b0 99 bd fb da 96 3d a2 9c 57 3d
       0.05315012 -0.075042926 0.07365986 0.05263961
000110 6d 4b bd 3d 96 27 e0 3d f9 5f 79 bd f9 77 9e bc
       0.09242902 0.109450504 -0.060882542 -0.019344317
000120 f9 9e d0 3d 6c fc 74 bd d7 bd 0d be 5b 03 cc 3c
       0.10186572 -0.05981104 -0.1384195 0.024903944
000130 45 00 72 bd a9 ae 4a 3b 0e 2d 99 3c 1a 65 09 3e
       -0.05908229 0.003092686 0.018698242 0.13417473
000140 a8 b4 59 3d 3f 6a ed bb a4 26 99 3c 0a 98 95 3d
       0.053150803 -0.0072453315 0.018695183 0.0730439
000150 1c 96 af bd b6 7e 44 bc 5d b8 ba 3d 2c 70 5a 3d
       -0.08573553 -0.011993101 0.09117196 0.05332963
000160 56 aa c8 3c 0b 03 48 be af bf 56 3b d6 b9 0b 3b
       0.024495285 -0.19532411 0.003276806 0.0021320484
000170 f5 f1 fc 3d a8 02 a6 bd c6 a7 11 3e 81 72 15 3d
       0.12350837 -0.081059754 0.14224157 0.036486153
000180 5e fc a5 3d ce aa 1c bc fc 11 1b be ba 9f 2a be
       0.08104776 -0.009562207 -0.15143579 -0.16662493
000190 ac 7f e8 bd 66 d0 b2 bd 49 3f 86 bd 29 c8 05 3d
       -0.113524765 -0.08731155 -0.065550394 0.03266159
0001a0 31 03 59 bd 8e c7 aa 3d b1 51 ad 3c 34 c5 51 bd
       -0.05298156 0.08338843 0.021157118 -0.05121346
0001b0 57 81 97 3d 37 96 23 3d c5 30 cb bd fa 23 9b 3b
       0.073977165 0.039938178 -0.099214114 0.0047345133
0001c0 71 82 06 be d9 00 38 bd 3d 0b 15 3e 9e 88 cf bd
       -0.13135697 -0.044922683 0.14555068 -0.101334795
0001d0 dd 19 b3 bd 6e da e3 3d 90 70 02 bd da 95 b8 bd
       -0.087451674 0.111256465 -0.03184563 -0.09012957
0001e0 62 39 0b bd 91 91 a3 bc c5 f3 b6 bd 52 18 96 bd
       -0.03399027 -0.019966872 -0.08933214 -0.073288575
0001f0 6a 0e a8 3d 64 6c 9e bd 59 d1 ea 3d 53 62 3b bd
       0.08205874 -0.077355176 0.11465711 -0.045748066
000200 dc b2 77 3d b6 69 69 3c b8 aa 5c bd 23 06 8e bd
       0.060473308 0.014246395 -0.053873748 -0.06934764
000210 26 a1 8a bc 1d 20 72 3c 52 d0 91 bc ff 20 c7 bd
       -0.016922545 0.014778164 -0.01779953 -0.097230904
000220 68 8e 8f 3d 06 a0 78 bd f2 c6 84 bc fd cd 10 bb
       0.07009584 -0.060699485 -0.016208146 -0.0022095435
000230 62 37 99 3d 83 05 b0 3d 59 3f c4 3c 7e 24 71 3d
       0.074812666 0.08594801 0.023955988 0.058872692
000240 8f c8 f2 3d 19 3a 11 bd a0 14 8c 3d a0 ac 42 3d
       0.1185466 -0.035455797 0.068398714 0.04752791
000250 75 47 87 bc a2 b6 cb bd 8d 75 b7 bd d4 d5 7b bd
       -0.016513566 -0.09946944 -0.08957968 -0.06148322
000260 57 32 84 3e 77 f2 d7 bd fb 30 ef 3b b5 a5 bf 3d
       0.25819656 -0.105442934 0.00729954 0.09357778
000270 74 69 f6 bd 6e da 23 3e 49 3d 9e 3c 9c c0 33 be
       -0.12031832 0.16001293 0.019316332 -0.17553943
000280 8b 71 a2 bc d3 eb 1c 3e 1f 60 2a 3e 0b b4 a4 3d
       -0.019829532 0.15324335 0.1663823 0.08042153
000290 6b 97 8a bd 6a cd 33 bd 98 25 5d bc 21 7a 59 3d
       -0.06767162 -0.04389707 -0.013497733 0.053094987
0002a0 20 c7 29 bd 2b 56 9e 3d e7 e5 fc 3c 62 07 b2 bd
       -0.041449666 0.07731279 0.030871345 -0.086928144
0002b0 c4 0e 7b 3e 1e 82 b0 3d a9 57 96 bc 78 4b f4 bc
       0.24517351 0.08618568 -0.018352346 -0.029821143
0002c0 62 7c 8c bd 5a ae 5d 3d 45 ac c7 bd 4f 83 83 3d
       -0.06859662 0.054121353 -0.09749655 0.064215295
0002d0 84 8a fa 3b 62 d5 b4 bc 54 cb cb 3c ac eb a1 3d
       0.007645907 -0.022074405 0.024877228 0.07906279
0002e0 7c 0d 93 3a c6 70 81 3b b9 bc 8b 3d e5 a7 f9 3d
       0.0011219229 0.003950211 0.06823105 0.121902265
0002f0 b2 2c a9 bd 12 31 8d 3e 4d 88 9a 3d 9d 8d 98 be
       -0.08260478 0.275765 0.075455286 -0.29795542
000300 64 6f d9 3d fc ed a3 3b be 0a 5f 3e b8 d0 cf bd
       0.10616949 0.005002735 0.21781442 -0.10147232
000310 76 3c 0b bd ab 91 20 3e c3 34 cb 3c 38 f7 2d 3e
       -0.033993207 0.15680568 0.024805432 0.16988838
000320 21 35 2b 3d 67 be 3a 3e 2f 9d 72 3c 9a 00 86 3c
       0.041798715 0.18236695 0.014807983 0.016357709
000330 f0 6f fa bb 1a e7 03 bd 4a 1b 52 3d df 44 11 3c
       -0.0076427385 -0.032202817 0.051295556 0.008866518
000340 a9 46 9a bd 1d 62 53 bd a5 e7 ac 3b 65 69 7c be
       -0.075330086 -0.05160724 0.0052766376 -0.2464958
000350 4c 2e 4b bd 31 76 20 3c de fe e1 bd 1b 55 95 bd
       -0.0496047 0.009793804 -0.1103494 -0.07291623
000360 48 8c ae bd 05 39 69 3d e1 4f 71 bc a4 7b c6 3d
       -0.0852285 0.056939144 -0.014728517 0.09691551
000370 5c df 6c 3d 00 d0 ae bd 26 fd bf bb 78 a4 d5 bc
       0.0578302 -0.085357666 -0.005859035 -0.026079401
000380 a6 1b 24 3e 6d bc 82 3d 62 0b 1c 3e 13 17 1b 3e
       0.16026172 0.063835956 0.15238717 0.15145521
000390 19 b0 0c 3e 89 a8 cb bb 5a 3c 06 be 6c c9 b9 bd
       0.13739051 -0.0062151593 -0.1310896 -0.09071621
0003a0 8c 57 a6 bd 7f 72 90 bd 7d cc 08 3d f6 42 d5 bc
       -0.08122167 -0.070530884 0.03339814 -0.026032906
0003b0 7d 54 0c 3e d9 bd ed bd cb 11 6d 3d ff e1 9a 3d
       0.13704105 -0.11608476 0.057878297 0.075626366
0003c0 fd 70 24 3d dd 40 87 3d 81 26 a0 bc 65 3b fd 3d
       0.040146817 0.066041686 -0.01954961 0.12364844
0003d0 75 92 9f bc b3 15 11 3c e7 0d f8 bd 07 63 bc bc
       -0.019479016 0.008855271 -0.12112027 -0.022996439
0003e0 7e a8 e2 3d a2 c3 7e bc 43 3f b1 bc 61 20 31 bd
       0.110672936 -0.015549572 -0.02163661 -0.04324377
0003f0 d4 85 c9 3d 30 16 74 bd 4b 6b 22 bc 41 16 b6 bd
       0.09839979 -0.059591472 -0.009913276 -0.08890963

network_body._body_endoder.seq_layers.2.bias f4 [256]
000000 a4 e5 3b bd b5 16 7e bc c0 e3 c8 bc 32 88 1b bc
       -0.0458733 -0.015508343 -0.024522662 -0.009492921
000010 85 76 02 bd ed bf 27 bc 71 fd ff bc 1c 5a c5 bc
       -0.03185131 -0.01023863 -0.03124878 -0.024090819
000020 54 59 d1 bc 69 14 38 bd 99 64 bc bc 2a af e0 bc
       -0.02555529 -0.04494134 -0.022997187 -0.027427275
000030 09 ab 4f 3c 3a 9e 19 bc 74 d2 27 bd 2f 5e e2 bc
       0.012675055 -0.009376103 -0.040972188 -0.0276328
000040 74 3f 42 bd 90 bc ae bc 9f 32 23 bd 90 df 59 bc
       -0.047423795 -0.021330148 -0.039843198 -0.01329793
000050 f7 c7 e5 bc e1 93 c7 bc 73 fd 29 bc 1c dc 23 ba
       -0.028049452 -0.024362506 -0.010375368 -0.00062507554
000060 4b bb 0c bd bb 8f bf bc 2d ba d5 b9 f8 5d 2f bd
       -0.034358304 -0.023383966 -0.00040765238 -0.042814225
000070 97 d8 fd bc 48 46 db bc c7 f7 2c bd 5f fc 25 bd
       -0.030987067 -0.026766911 -0.042228486 -0.040523883
000080 43 6c 01 bd 99 47 cb bc d3 54 8c bc c8 66 0c bc
       -0.031597387 -0.024814414 -0.017130291 -0.008569427
000090 08 1b 0d bd a9 f1 05 bd 80 28 df bc 07 cd ad bc
       -0.034449607 -0.03270117 -0.027240992 -0.021215929
0000a0 2b 1f 07 bc 58 51 00 bd e6 79 08 3b 2f c1 22 bc
       -0.008247177 -0.031327575 0.002082461 -0.009933754
0000b0 c2 24 9a bc a9 a8 68 bc e6 ae 8d bc 1d 56 41 bc
       -0.018816356 -0.014200368 -0.017295312 -0.011800316
0000c0 62 8a 86 bc 29 f9 7d bd 1a b8 aa bc e2 00 d7 bc
       -0.016423408 -0.062005196 -0.02083974 -0.026245538
0000d0 6f 7b 9f bc c2 22 61 bc 72 2f c3 bb ed fc 1e bd
       -0.019468037 -0.013741197 -0.0059565837 -0.038815428
0000e0 f7 22 cf bc af 60 22 bd cb 82 06 bc b5 78 75 bb
       -0.025285227 -0.039642986 -0.008209894 -0.003745598
0000f0 7d 0d d9 bc 7f 47 fb bc 6f d8 dd 3b ad b5 18 bd
       -0.02649569 -0.03067374 0.0067701857 -0.037282635
000100 87 1c 16 bd 91 c8 b1 bc 1f 2b 08 bd 3d 84 fc bb
       -0.0366483 -0.021702083 -0.03324425 -0.0077061937
000110 5b f4 a2 bb f8 b3 98 3c c3 d8 67 bd b5 8d c6 39
       -0.004972977 0.018640503 -0.056603204 0.00037871083
000120 73 3a 27 bd aa 3e dd bc 72 70 87 bc ce 45 aa bb
       -0.040827226 -0.02700742 -0.01653311 -0.0051963096
000130 4e 61 14 bd 8e c5 05 bd 54 ea 1d bd 31 f8 09 bc
       -0.03622561 -0.032659106 -0.03855355 -0.00842099
000140 8f 4f 01 bd 4c 7a 6b bc 58 a0 92 bc ad 0d 2d bc
       -0.031570014 -0.01437242 -0.017898723 -0.010562343
000150 3e 17 07 bd 45 c5 10 bc 45 fd fe bc 91 88 fd bc
       -0.03298115 -0.008836095 -0.031126628 -0.030948909
000160 92 94 e5 bc 4e 65 5b bb 14 ce d8 bb 49 36 0e 3c
       -0.028024945 -0.003347713 -0.0066163633 0.008679935
000170 7d e5 f8 bc 81 36 27 bc 61 12 87 bc 96 0e 12 bd
       -0.030382866 -0.010205866 -0.016488256 -0.03565844
000180 fb 03 bc bc 80 c8 9d bc 93 21 f2 3c 2e cb 03 3d
       -0.022951117 -0.019260645 0.029557025 0.03217619
000190 64 a9 d2 bc 17 a9 09 bd 14 78 ce bc 95 08 72 bc
       -0.025715537 -0.033608522 -0.025203742 -0.014772554
0001a0 50 75 a3 ba b5 45 ff bc 8d 1d f6 bc 11 19 c2 bc
       -0.0012470875 -0.031161169 -0.030043388 -0.023693593
0001b0 71 92 d2 bc f7 c9 8c bc c0 50 f2 ba cc bd e5 bc
       -0.025704594 -0.017186148 -0.00184872 -0.028044604
0001c0 8c 20 7b bc c1 9b d0 bc fc 4a 11 bd 81 d5 e7 bc
       -0.015327584 -0.025464894 -0.0354719 -0.028300049
0001d0 ab 1d ac bc c0 8a e3 bc 67 06 2c bd df 82 1c bd
       -0.02101024 -0.027776122 -0.041998293 -0.038210746
0001e0 1f 08 e8 bc f0 1f 08 3c 4f ef 8f bc 06 a0 e6 bc
       -0.028324185 0.008308396 -0.017570166 -0.028152477
0001f0 d6 db e0 bc bc f5 4c bc 73 b9 a7 bc 04 a8 c4 bc
       -0.027448576 -0.0125097595 -0.020474171 -0.024005897
000200 86 8d ac bc 82 11 96 bc 0b 34 33 bc b5 d7 b5 bc
       -0.021063577 -0.018318895 -0.010937701 -0.022197584
000210 bb a8 2d bc de 45 79 bc 5a c7 24 bd 50 c4 d2 bc
       -0.0105993105 -0.015214412 -0.04022918 -0.025728375
000220 ff 70 90 bc 20 e1 a2 bc 80 d1 a6 bc eb a8 c3 bc
       -0.017632006 -0.019882739 -0.02036357 -0.023884257
000230 b7 71 86 bc d9 1d 6e bb a2 54 78 bc e9 79 db bb
       -0.016411645 -0.0036333709 -0.015156897 -0.0066978824
000240 79 db 62 bc 94 0f d4 bb fe 80 db bb 37 3e 4e bd
       -0.013846272 -0.0064715836 -0.0066987267 -0.0503523
000250 c2 34 11 bd d2 c6 5d bc aa 41 06 bd a9 c7 19 bd
       -0.035450704 -0.013536172 -0.032777466 -0.037543926
000260 42 40 b5 bc b5 11 20 3c fb 52 30 bd e5 f9 00 bd
       -0.022125367 0.009769847 -0.043047886 -0.031488318
000270 bb f8 f8 bc ec fb 1a bb 6d dd 0c bd e4 62 b2 bc
       -0.030392041 -0.0023648692 -0.034390856 -0.02177567
000280 8e 9f 0f bd 76 40 53 bd d8 ef 8c bc da 06 4e bc
       -0.035064273 -0.051575147 -0.01720421 -0.012574876
000290 46 d0 0d bc ed 0e 2c bd 44 50 84 bc cc 31 c2 bc
       -0.008655613 -0.04200642 -0.016151555 -0.023705386
0002a0 6b d9 ef bc 88 cd 01 bd be 6b 13 bc 54 df 47 bc
       -0.029278478 -0.03169015 -0.008997856 -0.012199242
0002b0 cb 0d d3 bc 78 bc e1 bb de 8a 7b bc e5 76 60 3c
       -0.025763413 -0.0068889223 -0.015352933 0.013700222
0002c0 cc 03 76 bd cc 2e d2 bc 4c 79 e6 bc bc 49 fa bc
       -0.060062215 -0.02565708 -0.02813401 -0.030552737
0002d0 a7 78 a8 ba a8 f3 fa bc 70 f8 80 bc 1d aa 88 bc
       -0.001285334 -0.030633762 -0.015743464 -0.016682679
0002e0 d8 d6 5d bd a5 d7 e3 bc d3 46 8a bc 5d cd c6 bc
       -0.05415997 -0.027812788 -0.016879475 -0.024267847
0002f0 1d 28 c5 bc 18 72 bc bc 13 00 59 bb 38 82 27 bd
       -0.024066979 -0.023003623 -0.0033111617 -0.04089567
000300 77 30 03 bb e8 91 d1 bc 25 87 e8 b9 b5 64 2b bb
       -0.00200179 -0.025582269 -0.0004435118 -0.0026152555
000310 3d 2d 18 bd 61 9c 9a bc 23 c3 bf b9 b0 41 ed bc
       -0.037152518 -0.018873395 -0.00036575747 -0.028961986
000320 b8 fa a1 bc a7 15 d2 bc 82 e0 01 ba 90 5d da bc
       -0.019772872 -0.02564509 -0.0004954414 -0.026655942
000330 3e 61 50 bd 0e 24 ce 3b 79 c9 9a bc f6 c9 48 bc
       -0.050873987 0.006290919 -0.018894898 -0.0122551825
000340 2f 15 48 bd 99 54 c8 bc 02 de 0b bd a4 59 71 bc
       -0.048848327 -0.024454402 -0.03414727 -0.014730845
000350 d8 24 ec bc 9c 3b 58 bd 32 ea 0e bc 7f 18 23 bd
       -0.028826162 -0.052791223 -0.008722829 -0.039818283
000360 e8 3f 1b bd ba 91 b0 bc f3 8e 0b bd f8 ae 31 bd
       -0.037902743 -0.021553863 -0.034071874 -0.043379754
000370 a4 00 78 bb 49 b9 bc bc bd 02 4b bc 5f b0 e3 bc
       -0.0037842179 -0.02303757 -0.01239079 -0.027794061
000380 29 22 81 bc 74 00 d5 bc 32 bb 94 bb 92 a6 00 bd
       -0.01576336 -0.026001193 -0.004538917 -0.031408854
000390 30 78 ef 3b 8c 25 de bc c2 90 77 bc 2a 92 7e bc
       0.0073080286 -0.027117513 -0.015110197 -0.015537778
0003a0 b7 37 ec bc 2a fe 3e bd 71 77 a3 bc 00 b7 d9 bb
       -0.02883516 -0.04662911 -0.019954415 -0.0066441298
0003b0 66 08 be bc 55 5b eb bc 60 fd bb bc 24 89 55 bd
       -0.023197364 -0.028730074 -0.022947967 -0.05213274
0003c0 0b 9e b1 3b 97 f2 89 bc 90 d1 8d bc f3 4d 12 bc
       0.0054204515 -0.016839309 -0.017311841 -0.008929717
0003d0 7a 70 76 bb 17 6c bf bc c6 ac 16 bd 77 d2 d1 bb
       -0.0037603662 -0.023366971 -0.036785863 -0.006403263
0003e0 f3 d6 00 bc ea 77 e8 bc 4f 85 98 bb ae 6c 97 bc
       -0.007863748 -0.028377492 -0.0046545635 -0.01848444
0003f0 ac fd b7 bc 99 64 99 3a cc 04 8b bc 6b fb f0 bc
       -0.022459827 0.0011702954 -0.01697006 -0.02941676

network_body._body_endoder.seq_layers.2.weight f4 [256, 256]
000000 84 13 8d ba cc ef d8 bd 35 72 61 3d b8 34 d7 bd
       -0.0010763262 -0.105926126 0.055040557 -0.10508102
000010 9f 0a 62 3d 21 5b 54 3d 08 81 98 3d 3b 94 10 be
       0.05518591 0.05184472 0.07446486 -0.14119045
000020 07 42 5c 3d d8 6c bf bd bb d4 c8 bd 37 ac 2e bd
       0.053773906 -0.09346932 -0.098062 -0.042644706
000030 82 44 15 3e 95 62 9b 3d 0d ef 3a bb f5 e3 c8 bc
       0.14576915 0.075871624 -0.0028523833 -0.02452276
000040 7c 2b cd bd 7b 2f 8b bd 18 77 c0 bd 70 41 a9 bd
       -0.100180596 -0.067961656 -0.09397715 -0.08264434
000050 ac 8c e4 bd cc 36 ff bc 92 7b 8f bd f9 40 4b 3d
       -0.111596435 -0.031154059 -0.07005991 0.04962251
000060 fd 39 df bd df 04 32 be 45 64 b0 bb 1d c9 83 bc
       -0.10899732 -0.1738467 -0.005383047 -0.01608711
000070 71 ab 26 be 8f 25 5f bd 26 d5 e9 bd 16 9e 52 3d
       -0.16276337 -0.054479178 -0.11417608 0.051420294
000080 27 e7 0e be d6 f4 18 bc 10 7c 5c 3d d3 05 62 3c
       -0.13955365 -0.009335717 0.053829253 0.013795334
000090 c1 b4 26 3c 05 b0 2d bd 42 bb 24 3d 2d e4 6f 3d
       0.010174931 -0.042404193 0.040217645 0.058567215
0000a0 d3 4e 90 bd ba e9 0e 3e e5 72 04 be d6 74 c9 bc
       -0.070462845 0.13956347 -0.12934454 -0.024591845
0000b0 59 e3 13 be f8 0f 1d bd 07 c3 22 3d 6d 53 72 bd
       -0.14442195 -0.038345307 0.039736774 -0.059161592
0000c0 d4 19 0f be 1a a9 27 bc c0 c7 85 bd 0e 72 50 3d
       -0.13974696 -0.010233188 -0.0653224 0.05089002
0000d0 af bd 02 be 79 00 f0 bd 26 cd 17 bd e9 8c 07 3d
       -0.12767671 -0.1171884 -0.03706088 0.033093367
0000e0 bd b5 14 3d cd 6d e9 bd 92 ec d2 3c b0 9d b8 3d
       0.03630613 -0.11397896 0.025747571 0.090144515
0000f0 d3 f1 36 3d e2 71 84 bd cf 03 51 be bd 9e 79 bd
       0.044664215 -0.06467034 -0.20411609 -0.0609424
000100 7d 64 b9 3c e1 46 7e 3a f7 ab 80 bd 1c f4 61 3d
       0.022630924 0.0009699893 -0.062828 0.05516444
000110 59 d9 f4 bd b2 91 12 3d 79 da 98 3b 9c 92 4c 3d
       -0.11955518 0.035783477 0.004664716 0.049944505
000120 12 b5 70 3d 1e f8 af 3c e6 3c 28 be eb 44 fb 3c
       0.058766432 0.021480616 -0.16429481 0.030672511
000130 36 82 31 3e 46 69 c4 3c de 77 30 be 1b 41 9f bd
       0.17334828 0.02397598 -0.17233226 -0.0777609
000140 b9 83 0a bd 6b 58 5f be 36 22 4f be 01 7f 20 bd
       -0.033817027 -0.21811073 -0.20227894 -0.03918362
000150 7c e8 ce bc de ef 0b 3e 3f 1a 28 3d f1 31 38 bd
       -0.025257342 0.13665721 0.041040655 -0.044969503
000160 f6 0d 37 be a7 9e 48 3d 3f cf 69 bd b5 56 fc bd
       -0.1787642 0.048979428 -0.05708241 -0.123212256
000170 69 d7 e6 bd 46 a8 73 bd ff a0 22 bb 23 60 33 be
       -0.11271555 -0.05948665 -0.00248152 -0.17517142
000180 f7 84 2a 3d f8 4e 64 bd 80 a6 eb bc 27 9d d5 bd
       0.04163071 -0.055739373 -0.028765917 -0.10430365
000190 89 c1 e3 ba d9 a8 04 bc 88 99 0d 3b 0b 6d 3d bd
       -0.0017376404 -0.008096897 0.0021606404 -0.04624657
0001a0 5c 69 20 3c ff 28 e6 3d d3 b5 1d 3e 94 5e d3 bd
       0.009790745 0.11238288 0.15401392 -0.10320774
0001b0 2c c9 ce ba 07 7c c2 bc c7 f5 49 bc d9 c5 89 bc
       -0.0015776507 -0.023740781 -0.012326664 -0.016817974
0001c0 2c 63 7f bd 51 c7 8f ba f0 54 11 bc 22 2e 31 be
       -0.062350437 -0.0010969435 -0.008870348 -0.17302755
0001d0 59 5d 11 be 84 a0 f3 bb 71 7e bb 3d 73 26 76 bb
       -0.14195766 -0.0074349064 0.09154976 -0.0037559539
0001e0 bf d3 17 3d 3b 03 c4 bc 2f 54 f4 bb cc f6 43 bc
       0.03706717 -0.023927322 -0.0074563245 -0.011960696
0001f0 7e ed 02 be 5a b9 23 bd 16 5b ee bc 01 f7 d3 bd
       -0.12785909 -0.039971687 -0.029096168 -0.10349847
000200 86 9d 01 3e 31 34 11 be 2a 82 d8 3d 4e 67 b0 bd
       0.12657747 -0.14180066 0.10571702 -0.08613454
000210 42 fd da bd af e4 00 3d 54 30 3e bb 97 2e 56 3d
       -0.10692836 0.03146809 -0.0029020505 0.052290525
000220 00 ce d9 3d be ea c2 bc 6b b3 24 3d 5a ea da bc
       0.106349945 -0.023793574 0.04021017 -0.026723076
000230 b3 98 26 3e ce 62 d1 bd 00 6c a0 bc cb da 1b be
       0.16269188 -0.102239236 -0.019582748 -0.15220182
000240 99 82 12 3e 93 b6 40 3d 2a ab 8e bd da f7 53 3c
       0.14307632 0.047049116 -0.06966241 0.01293751
000250 b0 18 c0 bc 7e 62 27 3b 91 6f 7a bd 8c 46 5d bd
       -0.023449272 0.0025540884 -0.061141554 -0.054022357
000260 42 a6 4e 3d bc 3e ea 3d 68 7c 84 3d 39 b4 9c bd
       0.050451525 0.11437747 0.06469041 -0.07651562
000270 8d 44 ac 3b f2 75 08 bd 3a ea 38 3e 88 3d e6 3d
       0.0052571953 -0.033315606 0.180581 0.11242205
000280 9d 8e d1 3c ab 84 a0 3d 09 41 b6 3c 3d 82 2a 3c
       0.025580699 0.078378044 0.022247808 0.010407028
000290 13 a3 94 3c 2a be 64 bd 31 6f 25 bd b0 d1 aa 3b
       0.018144166 -0.055845417 -0.040389244 0.005212985
0002a0 2b 35 6c bc 6b 7c 4a bd 4c 74 ce 3a be 80 60 3d
       -0.014416973 -0.04943506 0.0015751212 0.054810278
0002b0 e9 97 19 3d a8 89 ec 3d 6b b7 09 3e 1d ec 3d bc
       0.03749839 0.11549693 0.13448875 -0.011591938
0002c0 0f 6b 53 3c a4 c8 c6 bb bc c1 e6 3c 07 e3 e1 3c
       0.012903943 -0.0060663987 0.028168552 0.027574075
0002d0 52 60 99 bd 36 c2 de bb c7 ff df 3c d5 40 cb 3c
       -0.07489075 -0.006798054 0.027343644 0.024811188
0002e0 a0 2d 69 3c 92 c4 09 3d 96 7e 8e 3d 5c df 1e 3c
       0.014232069 0.03363473 0.06957738 0.009696808
0002f0 5f a2 3e bc ef 7a 83 3c 4f 4b 1d bd 9a 04 3e 3d
       -0.011635392 0.01604983 -0.038401898 0.046391107
000300 19 e2 1e 3b cb 09 13 bd 0c 3b 50 3d 20 28 1d 3d
       0.0024243651 -0.03589801 0.05083756 0.038368344
000310 7a 81 ac 3d 5f ba d8 bc 6c c7 4a bd a2 a9 6e bd
       0.08423133 -0.026456056 -0.04950659 -0.058267243
000320 97 75 9b bd e7 55 12 bd f2 db 80 3c d4 d7 05 bd
       -0.07590788 -0.035726454 0.015729878 -0.032676533
000330 48 8f 9d bd 59 2f 40 be f8 23 8c bd 5f 30 6e bc
       -0.07693344 -0.18768062 -0.06842798 -0.0145379
000340 a5 df 9f bd e4 ff fe bc 58 6c 3e bd a8 1a 9c bc
       -0.07806329 -0.031127878 -0.046490043 -0.01905568
000350 3e 80 b7 bd 06 9e 16 3e 56 b4 c6 3d bc 69 91 3c
       -0.08960007 0.14708719 0.09702365 0.017750613
000360 7a f5 c5 3d 13 f5 86 bd 4d ab b5 3d e3 18 21 3d
       0.096659616 -0.06589713 0.08870564 0.039330374
000370 4f 48 c4 bd 6a d1 05 3c 1a 5c 85 bd d0 fe 3d bd
       -0.09584104 0.008167604 -0.065117076 -0.046385586
000380 73 64 44 3d 71 da 66 3d 22 6a c3 bd 38 5d 78 bd
       0.04794736 0.056360666 -0.095417276 -0.060635775
000390 f3 8e b9 bd cb ef 3f 3d 58 fd 87 bc da 4f dd bd
       -0.090604685 0.046859544 -0.016600296 -0.10806246
0003a0 ee 1c 19 bc c3 80 cf 3d d7 26 d9 bd 64 6d 26 bd
       -0.009345276 0.10131981 -0.10603111 -0.040631667
0003b0 0f 80 01 be cd b4 2b 3c 46 8c 68 3a 1d 99 f6 3a
       -0.12646507 0.010480118 0.0008871 0.0018813942
0003c0 cf 5c 92 3d 14 71 a5 3c a2 a8 c2 bc 7e e9 c7 bd
       0.07146608 0.020195521 -0.023762051 -0.09761332
0003d0 41 78 ae bc 7d 27 b2 3d 46 44 bd bd e0 57 25 3d
       -0.021297576 0.08698938 -0.09241538 0.040367007
0003e0 28 54 2a bd 32 96 22 be d2 e9 52 3d b8 38 80 bd
       -0.041584164 -0.15877607 0.05149252 -0.06260818
0003f0 fc bc 9d bc 6b fb f0 3c c7 6f 73 3d b5 5c b6 bb
       -0.019255154 0.02941676 0.05943277 -0.0055652508

network_body._body_endoder.seq_layers.4.bias f4 [256]
000000 82 19 1b 3c 72 87 10 bd ac f7 81 bb 5e c1 22 bd
       0.009466531 -0.03528542 -0.0039662924 -0.03973519
000010 b4 b5 0e 3b f5 9d e5 bc 95 88 61 bd 31 14 ae bc
       0.0021775784 -0.028029421 -0.055061895 -0.021249862
000020 d7 dd 3b bd b0 44 0c bd c9 36 e9 bb 1a 41 1d bd
       -0.04586586 -0.034245193 -0.0071171266 -0.038392164
000030 f2 ce 83 3a e6 63 71 bc 47 4e aa bc 8e b5 8d bc
       0.0010056181 -0.01473329 -0.020789279 -0.017298486
000040 b1 73 10 bd 4d e7 e0 bc 66 5d 25 bd 98 73 81 3a
       -0.035266582 -0.027454043 -0.040372275 0.0009876369
000050 c3 40 b8 bc 96 d0 3c bb 12 45 21 3c d8 4b ce 39
       -0.022491818 -0.002881085 0.009843128 0.0003934789
000060 27 c6 f5 bc 4c 12 34 bd a9 02 8c bb 64 a9 b0 bc
       -0.030001713 -0.04396276 -0.004272778 -0.021565147
000070 19 19 a9 bc e5 6a b6 bc 26 cf a8 bc 72 67 1c bd
       -0.02064185 -0.022267768 -0.020606589 -0.03818459
000080 8b cd ba bc 34 40 3e 3c 3c c9 c9 bb 28 22 3c bd
       -0.022803089 0.011611987 -0.006158022 -0.04593101
000090 07 35 c4 ba 13 31 0f bd fe 33 5a bc 61 a0 8e bc
       -0.0014969417 -0.03495891 -0.01331806 -0.017410459
0000a0 3e 5b 55 bc 75 14 b3 bc e1 56 a1 bc 6e 17 0d bd
       -0.013022242 -0.02186034 -0.019694747 -0.034446172
0000b0 e1 13 c2 bc a0 69 2a bd eb 73 15 bd 92 bd 2c bd
       -0.02369112 -0.041604638 -0.0364875 -0.042172976
0000c0 a3 38 6f bd 3c 64 02 3a 93 bc c5 bc 4b 3f ff bc
       -0.058403622 0.00049740425 -0.02413777 -0.03115811
0000d0 4e 0e cd bc 31 44 01 bc b0 39 46 3c 0f 96 d0 bb
       -0.025031235 -0.007889793 0.012098715 -0.0063655446
0000e0 96 81 5f bc b8 e8 10 bd 3e 77 27 bc d7 ba f1 3b
       -0.013641736 -0.035378188 -0.010221301 0.0073770094
0000f0 3a 5a 0b bc 72 9b eb bc 22 8e ab bc 13 65 81 bc
       -0.008505398 -0.028760646 -0.020941798 -0.015795266
000100 45 df 51 bd 0c a4 b9 bc e6 c2 7a bb 79 09 4f 3b
       -0.051238317 -0.022661231 -0.0038263141 0.003159134
000110 d4 20 5c bd 06 91 b5 bc 7c 44 e0 bc c5 97 49 bd
       -0.053742245 -0.02216388 -0.027376406 -0.049217004
000120 58 d3 0a bd b1 57 24 bd ec 5e 28 bd 44 e7 67 bb
       -0.03389296 -0.04012269 -0.04110615 -0.0035385648
000130 d8 16 38 bc 95 da 30 bd 94 c0 16 bd 0d 54 cf bb
       -0.011235915 -0.043177206 -0.03680475 -0.0063271583
000140 28 b1 85 bc 03 c2 13 bd 13 a1 c2 bc 9b 5e 8d bc
       -0.016319826 -0.036073696 -0.023758447 -0.017257025
000150 d8 16 d9 bc 18 7d 35 bd d9 05 49 bc 2e c7 ce 3c
       -0.02650015 -0.04430875 -0.012269461 0.02524146
000160 14 85 85 bc 5c 0a 50 bd 21 32 2a bd 54 27 67 bd
       -0.016298808 -0.05079113 -0.041551713 -0.05643399
000170 30 df dd bc 2e 15 ec bc 59 50 99 bc b2 83 09 bd
       -0.027083963 -0.028818693 -0.01871507 -0.03357286
000180 aa 64 da bc 54 2a f3 bc 70 2a cb bc f9 c1 f3 bc
       -0.026659328 -0.02968327 -0.02480051 -0.02975558
000190 69 93 ba bc 77 51 60 bd 8c 75 f9 bc a8 a8 02 bd
       -0.022775369 -0.05476519 -0.030451559 -0.031899124
0001a0 be d3 bb bb c9 11 15 bd e0 34 18 bd f6 de 8c bc
       -0.0057320287 -0.036393914 -0.0371598 -0.01719616
0001b0 4f 6e 69 bc ff 76 90 bc 2b 78 e7 bb 5c eb 07 bd
       -0.014247491 -0.017634867 -0.0070638857 -0.03318344
0001c0 12 0e c4 bc 1d ec 6b bc 2c b6 fa bc b5 9f a4 bc
       -0.02393249 -0.0143995555 -0.030604444 -0.020095685
0001d0 52 b0 85 bc 21 3d 89 bb 64 43 45 bd b8 73 4f bc
       -0.016319428 -0.0041881953 -0.04815997 -0.012661867
0001e0 31 54 ed bc 43 f6 90 bc 56 d9 0f bd 25 92 e8 bc
       -0.02897081 -0.017695552 -0.035119377 -0.02839
0001f0 5e 86 45 bd 3f 63 cf ba 83 24 0b bd ed 62 16 bd
       -0.048223846 -0.0015822424 -0.033970367 -0.036715437
000200 61 87 85 bc f4 be 67 bc 2f c9 6a bc d6 ca 5f bd
       -0.016299905 -0.014144648 -0.0143301925 -0.0546368
000210 8d a9 b6 3c 39 b1 7d bc a3 92 f8 bc 9c 8f 2a bd
       0.022297645 -0.015484148 -0.03034336 -0.041640863
000220 c6 58 ab 3c 85 b4 6f bc d3 d3 52 bb 6a 89 5e bd
       0.020916354 -0.014630442 -0.0032169714 -0.054330267
000230 cc d3 c1 bc f6 18 ee 3b 0d c5 97 bb 34 1a 0a bd
       -0.023660563 0.007266159 -0.0046316446 -0.033716395
000240 fc 39 2a bd ef 75 f0 bb a0 59 f3 bc 4f 78 dd ba
       -0.041559204 -0.0073382775 -0.029705822 -0.0016896817
000250 f1 32 8d bc 71 6d 0a bd fe 71 ef bc 25 b8 09 3c
       -0.017236205 -0.033795778 -0.02922916 0.00840572
000260 1e 79 1e bc e5 5d a9 bc 78 66 9c 3b 32 16 81 3b
       -0.009672431 -0.020674655 0.0047729574 0.0039394135
000270 fc 8c 8c bb e9 77 ab bc 60 68 de bc 8a ed a2 bc
       -0.0042892676 -0.020931201 -0.02714938 -0.019888658
000280 dd 6d ea bc 0b 36 c3 bc c5 a9 76 bc 20 84 0d bd
       -0.02861684 -0.02382948 -0.015055125 -0.034549832
000290 05 bf 44 bd 3a 0a 1a 39 1c a7 c0 39 3c 4a 47 bd
       -0.048033733 0.00014690394 0.000367456 -0.04865478
0002a0 48 c9 e4 3b e2 cf af bc f2 09 c4 bc 4c e7 f1 3a
       0.0069820024 -0.021461431 -0.023930524 0.0018455773
0002b0 1a 6d 02 bd bf 00 f5 bc b7 87 60 bb 01 f6 66 bc
       -0.03184233 -0.029907582 -0.003426058 -0.014096738
0002c0 3e 73 f0 bc 94 f8 cb bc 5c a0 84 bc b6 33 1e bd
       -0.029351827 -0.024898805 -0.016189747 -0.038623534
0002d0 ad 44 be bb 34 4e 7c bc 86 90 04 bd 44 fd 2a bd
       -0.0058065266 -0.015399504 -0.03236439 -0.04174544
0002e0 8f f1 46 bd 17 9e 0e bd 8a 20 c7 3a 25 5e 98 bc
       -0.048570212 -0.034818735 0.0015192193 -0.01859958
0002f0 6e 27 11 bd 3f 95 01 bd af bd 95 bc 8c c4 07 bd
       -0.035437994 -0.031636473 -0.018278925 -0.033146426
000300 14 f1 10 bd 47 d8 8f ba 8b b9 e8 bc 6b 30 5f bc
       -0.03538616 -0.001097449 -0.028408786 -0.013622384
000310 1b 04 fc bc 84 9a fe bc dd 3d 66 bc 9d fc f1 bc
       -0.030763676 -0.031079538 -0.014052835 -0.0295394
000320 ab e4 16 bd 57 78 38 3b 35 36 2b bd 97 3b 1f 3b
       -0.03683917 0.00281479 -0.041799743 0.0024296993
000330 68 96 33 bd 72 09 aa bb 29 47 2c bd ee 18 03 bd
       -0.04384461 -0.0051891143 -0.04206005 -0.032006197
000340 a9 cf 3e bd 89 91 f7 ba 27 6a b5 bc 28 21 53 bc
       -0.04658476 -0.0018887977 -0.022145344 -0.012886323
000350 58 dc 16 bc 63 fc e6 bc dc b8 ef bc f3 58 be 3a
       -0.0092078075 -0.02819652 -0.029262953 0.0014522359
000360 15 4e e3 39 6e a4 d7 bc b2 7b 89 bc 60 2e af bc
       0.0004335499 -0.026323523 -0.016782615 -0.021384418
000370 af 0a 1b bd 63 48 3d bd c4 c4 12 bd e9 70 ef 3b
       -0.037851986 -0.04621161 -0.03583218 0.007307161
000380 db 11 72 bc 96 a6 25 bc dc 24 bf bc 99 33 e2 bc
       -0.014774765 -0.010110518 -0.023333006 -0.027612494
000390 c1 65 02 bc 81 6e be bb a3 41 7c bc ca b8 c0 bc
       -0.00795883 -0.005811513 -0.015396508 -0.023525614
0003a0 45 78 24 bc 90 2e a6 bc d3 7b 64 bc e5 32 9d bc
       -0.01003844 -0.020285875 -0.013945538 -0.019189307
0003b0 32 d1 ba bc e6 9b 14 bc 55 fe 9c bc 70 f9 26 bd
       -0.02280483 -0.009070372 -0.019164244 -0.040765226
0003c0 6f 17 c4 bc 76 da ad bc 4d 58 4f bd 56 e4 22 bd
       -0.023936955 -0.021222334 -0.05062132 -0.03976854
0003d0 b9 d4 17 bd c3 cd 34 bd 74 03 98 bb 10 c6 a0 bc
       -0.037068103 -0.044141542 -0.0046390835 -0.019625694
0003e0 73 17 11 3c a4 b7 0f bd 04 ce a7 bc 0e c0 ba bb
       0.008855688 -0.035087243 -0.020483978 -0.0056991642
0003f0 e3 77 2e bc d5 cb 9d bc 95 a3 09 bd e6 ed b8 bc
       -0.0106487 -0.019262234 -0.03360327 -0.022574376
