Assets/Training/results/RUN3/SzitakotoBehavior/SzitakotoBehavior-8499984.onnx (onnx, 670607 bytes, 13 tensors)

65 f4 [132]
000000 2f eb 91 3e 51 1d ed 3e d0 7e d3 3e dc e7 6d 3e
       0.28499743 0.4631143 0.41307688 0.23232979
000010 45 1b 86 3e 73 b5 eb 3e ca 8a d6 3e 7c 10 72 3e
       0.2619268 0.46036872 0.41902763 0.23639101
000020 c6 9f 92 3e a1 90 f0 3e 5a 0e d9 3e 90 3a 68 3e
       0.28637522 0.46985343 0.42393762 0.2267859
000030 65 72 4f 3e 2a 99 ec 3e 6c 75 e1 3e be 25 78 3e
       0.20258482 0.46210605 0.44034898 0.24233148
000040 69 0e 8d 3e 6d 63 f2 3e 92 7b de 3e f3 14 64 3e
       0.27550057 0.4734148 0.43453652 0.22273616
000050 07 3a 16 3e 11 7f ee 3e 43 f7 e8 3e 37 e6 7b 3e
       0.14670573 0.4658132 0.45501146 0.24599539
000060 11 9c 81 3e fe 44 f2 3e bb 55 e2 3e af 07 62 3e
       0.25314382 0.47318262 0.44206032 0.22073244
000070 5c e3 f8 3d 40 4a f2 3e e0 b4 ee 3e ad 71 7e 3e
       0.1215274 0.47322273 0.46622372 0.24848051
000080 6b ca 66 3e 59 80 f2 3e 97 52 e6 3e b9 f9 60 3e
       0.22538154 0.47363546 0.44984886 0.21970262
000090 9f 5f e7 3d cb 6c fb 3e bc ad f9 3e 83 ea 82 3e
       0.11297535 0.4910644 0.4876536 0.25569543
0000a0 dd bb 52 3e 43 76 f6 3e 3e 53 ee 3e f8 a9 63 3e
       0.20579477 0.48137102 0.46547884 0.22232807
0000b0 05 18 92 3e c3 03 ed 3e da ca d3 3e b4 7c 6c 3e
       0.2853395 0.46291932 0.413657 0.23094445
0000c0 cf 46 86 3e 18 9e eb 3e 46 c4 d6 3e 1e a1 70 3e
       0.26225898 0.46019053 0.4194662 0.23498961
0000d0 9e d7 92 3e 58 58 f0 3e 00 5a d9 3e 3d ba 66 3e
       0.28680128 0.469424 0.42451477 0.22531982
0000e0 9c d6 4f 3e de 7e ec 3e 6e af e1 3e 63 0d 77 3e
       0.2029671 0.46190542 0.44079155 0.241262
0000f0 c5 48 8d 3e c5 47 f2 3e 8d a5 de 3e 71 8f 62 3e
       0.2759458 0.4732038 0.4348568 0.22125031
000100 24 84 16 3e 23 5e ee 3e 43 26 e9 3e cc 57 7a 3e
       0.14698845 0.46556196 0.45537004 0.24447554
000110 8e c1 81 3e 5e 38 f2 3e e9 81 e2 3e 93 39 60 3e
       0.25342983 0.4730863 0.4423974 0.21896963
000120 43 50 f9 3d bd 0f f2 3e 5b e4 ee 3e 83 e7 7c 3e
       0.12173512 0.47277632 0.46658596 0.2469769
000130 63 13 67 3e 6d 34 f2 3e bf b1 e6 3e da 3e 5f 3e
       0.22565989 0.47305623 0.45057485 0.2180132
000140 12 a7 e7 3d 21 60 fb 3e b2 d1 f9 3e 03 10 82 3e
       0.11311163 0.49096778 0.48792797 0.2540284
000150 a4 fb 52 3e 0c 5b f6 3e e3 77 ee 3e 5d fa 61 3e
       0.20603806 0.48116338 0.4657584 0.22068162
000160 6e 44 92 3e 81 e6 ec 3e 6d 1b d4 3e 82 6b 6b 3e
       0.28567833 0.4626961 0.41427174 0.2299023
000170 10 71 86 3e 47 86 eb 3e d9 36 d7 3e 3e 2d 6f 3e
       0.26258135 0.46000883 0.42034033 0.23357102
000180 47 0d 93 3e 3a 34 f0 3e d7 86 d9 3e f0 1a 65 3e
       0.28721067 0.46914846 0.42485687 0.22373557
000190 ff 2f 50 3e 55 6a ec 3e 18 ec e1 3e 8b 8c 75 3e
       0.20330809 0.46174875 0.44125438 0.23979394
0001a0 c7 84 8d 3e d5 20 f2 3e d4 08 df 3e 71 20 61 3e
       0.27640364 0.47290674 0.43561423 0.21985032
0001b0 60 cd 16 3e 8d 3e ee 3e df 51 e9 3e 2e f5 78 3e
       0.14726782 0.46532097 0.45570275 0.24312279
0001c0 2f e7 81 3e 7f 16 f2 3e 74 a7 e2 3e 72 ce 5e 3e
       0.25371692 0.47282788 0.44268382 0.2175844
0001d0 89 c1 f9 3d 58 e5 f1 3e 60 3b ef 3e ae 53 7b 3e
       0.12195117 0.47245288 0.46724987 0.2454364
0001e0 a3 5f 67 3e 49 1b f2 3e 24 18 e7 3e 98 b4 5d 3e
       0.22595076 0.47286442 0.45135605 0.21650922
0001f0 ef ef e7 3d ce 55 fb 3e 17 ee f9 3e 54 44 81 3e
       0.113250606 0.490889 0.4881446 0.25247443
000200 a9 3a 53 3e a1 4c f6 3e 88 98 ee 3e 33 24 60 3e
       0.20627846 0.48105338 0.46600747 0.21888809

68 f4 [2]
000000 79 79 7e 3e ef ec a1 3e
       0.24851026 0.31626078

action_model._continuous_distribution.log_sigma f4 [1, 2]
000000 00 45 93 bd 90 ff b9 3a
       -0.07190895 0.0014190543

action_model._continuous_distribution.mu.bias f4 [2]
000000 63 4d 43 ba 4d 49 5c bb
       -0.0007450191 -0.0033613027

action_model._continuous_distribution.mu.weight f4 [2, 256]
000000 58 69 d5 bc 06 fc 2a 3c 6b 83 a2 bc b4 db 0b 3c
       -0.026051208 0.010436064 -0.019838056 0.008536268
000010 8d 93 02 bd 49 dc df 3c 8b 56 8a 3c e2 3c a5 3c
       -0.031878997 0.02732672 0.01688697 0.020170633
000020 ae 47 ad 3b 88 ef 84 3b 1e 19 cf 3c 83 c1 9b bc
       0.005288086 0.0040568747 0.025280531 -0.019013172
000030 16 25 3c 3d fb 43 1e bd 30 fd 5a bc d1 d2 24 bb
       0.045933805 -0.03863905 -0.013366029 -0.002515007
000040 10 8e 17 bc 4c ef cc 3c 6b cd c0 3c 2c 39 fa bc
       -0.009250179 0.02501645 0.02353545 -0.03054484
000050 1a ae 76 bc 17 dd 38 3c 76 0c 66 3c 31 47 62 bc
       -0.0150561575 0.011283181 0.014041057 -0.013810919
000060 06 42 43 bc 49 37 b5 bc 46 f9 f7 3c bd 8e de 3b
       -0.011917597 -0.022121089 0.03027023 0.006791918
000070 13 ad e1 bc 0b 6b 89 bc 9b 2c eb 3c 59 cc ed bc
       -0.027548349 -0.016774675 0.028707793 -0.029028105
000080 09 73 4e bc 8b df 7b bc 64 3d 69 bc 6c a4 9d bc
       -0.012600669 -0.015373121 -0.014235828 -0.019243442
000090 58 78 4e 3c ca 0f 9e 3b ce f0 ce bc b8 de 1e bc
       0.012601934 0.0048236595 -0.025261309 -0.009696655
0000a0 9e 1f 90 bc 79 5c 70 bc 40 eb 67 3c 9f d0 26 bd
       -0.017593201 -0.014670485 0.014155209 -0.0407263
0000b0 c2 e1 93 bc f8 f3 6a ba 6f 15 39 3c 8a bf 11 3d
       -0.018051986 -0.0008962746 0.011296614 0.035583057
0000c0 98 bd aa bc 80 0a c3 3b cb af 17 bd 77 a9 05 bd
       -0.020842358 0.0059521794 -0.037032884 -0.032632317
0000d0 2e 1c 56 3d 6f a7 14 bd ca d5 5c 39 58 b7 08 bd
       0.052272968 -0.03629249 0.00021060478 -0.033377975
0000e0 6a 11 4b bc dc 51 c9 bb 4b 8d 86 3c cd 4f 59 bc
       -0.012394289 -0.0061437916 0.016424796 -0.013263655
0000f0 4c c5 13 3d 58 46 88 bc 22 ed 56 3c 59 c2 32 bd
       0.03607683 -0.016635105 0.01311806 -0.043642376
000100 6f 46 bc bc be e3 8c bc 86 e5 11 bc 81 59 84 bc
       -0.022982804 -0.01719844 -0.00890482 -0.01615596
000110 ca c6 e2 3c b3 df 61 bc 95 85 96 3b 89 e1 32 3c
       0.02768268 -0.013786244 0.004593561 0.01091803
000120 ec 85 73 3d 43 4f 95 bb b4 5a 0c 3c 10 b7 96 3c
       0.05945389 -0.004556568 0.008566547 0.018397838
000130 d3 77 99 3c 27 b0 b7 3b af 61 ac 3c ef fb 06 3c
       0.018733894 0.005605716 0.021042673 0.008238777
000140 a1 f1 df 3c 6d f8 96 bb 4a 4d f1 bc d5 db 23 3d
       0.027336897 -0.0046072514 -0.0294558 0.04000457
000150 f8 02 c6 bc c4 c0 8a 3c 01 f9 a9 bb d6 5f e3 3c
       -0.024171337 0.016937621 -0.0051871543 0.02775566
000160 7a bd 37 3c 5b 69 3a ba bf 20 da bc db 48 4d bc
       0.011214608 -0.0007111036 -0.026626943 -0.012529577
000170 89 4b 69 ba 7b c0 77 3b 49 d1 7c bc 7e 16 29 3c
       -0.00088995 0.0037803936 -0.015430757 0.010320304
000180 13 65 1e 3b b5 cb 6a bc af 39 c2 3b 78 0a 5c 3c
       0.0024169132 -0.014330794 0.0059272866 0.01343023
000190 b8 4d 18 3c 7d 80 20 bc db d8 07 bc 87 45 d8 3c
       0.009295873 -0.009796259 -0.0082914485 0.02640034
0001a0 cc 61 37 bc 5a af 6d 3c fa 97 ab 3b 1e 80 7e 3b
       -0.01119275 0.014507139 0.005236623 0.0038833688
0001b0 db 4b 0c bb 1a a9 3d 3d c2 9f 86 3c bb ac d2 bb
       -0.0021407518 0.046303846 0.0164336 -0.0064292825
0001c0 ee 81 ab bc a8 5f 20 3c c2 d4 61 bd cc 2b 0b 3c
       -0.020935979 0.009788431 -0.055134542 0.008494329
0001d0 56 0f e6 3a de 85 2a 3d 22 83 0d 3c f7 bd d7 bc
       0.0017552178 0.041631572 0.0086372215 -0.0263357
0001e0 f7 4e 1d bd 73 c9 c3 bc 7f de 7f bc 02 ee 41 3b
       -0.038405385 -0.02389977 -0.015617012 0.0029591327
0001f0 32 08 93 3c 95 c8 77 3c 00 6d c2 3b cb f5 16 3c
       0.017948244 0.015123506 0.005933404 0.009213875
000200 87 ed 9d 3c 26 03 7b 3d ae 7b c9 3c b1 3d 2b 3c
       0.0192783 0.0612823 0.024595108 0.01045172
000210 68 7e 20 bb 33 ce 9e bc 6c d2 6e bc 1a 26 ae bc
       -0.0024489406 -0.019385433 -0.014576536 -0.021258403
000220 af 86 62 bb 8e 83 6e bc 60 10 8f bb 30 02 80 bc
       -0.003456514 -0.014557732 -0.0043659657 -0.015626043
000230 4c 57 55 bc d7 e0 6b bc a3 fc aa 3c 9e b3 55 bc
       -0.0130213015 -0.014396868 0.02087242 -0.013043312
000240 77 42 f5 bb c1 00 82 3c 34 be 1f bc 1d 54 6c 3c
       -0.00748473 0.0158695 -0.009749938 0.014424351
000250 08 5b cc 3c 19 44 83 3c 86 b0 ec 3c 56 9d b2 3c
       0.02494575 0.016023682 0.028892767 0.02180354
000260 39 28 20 3d ef 40 2b 3a df 73 dd 3b 47 00 dd bb
       0.03910086 0.0006532808 0.0067581977 -0.006744418
000270 5f 9b 58 3c 7a b5 e9 bb 83 f6 2f 3d 60 ee 3d bc
       0.013220637 -0.0071322294 0.0429597 -0.011592478
000280 1b 58 87 bb 56 7a 28 3c 14 86 63 bb d0 c3 c0 3b
       -0.004130376 0.010283073 -0.0034717368 0.0058827177
000290 39 3a 0e bd 1f 3e eb 3b 66 0f db bc 9e e7 9b 3c
       -0.034723494 0.0071790363 -0.026740741 0.019031342
0002a0 f0 02 e3 bc a3 44 d8 bb a6 46 9d bb 9e 57 64 bb
       -0.027711362 -0.006599979 -0.0047996817 -0.0034842263
0002b0 16 17 e1 3c 40 0a bb bc 91 23 cc ba 77 c4 4a 3c
       0.027476829 -0.022832036 -0.0015574564 0.012375942
0002c0 4e e7 14 bd 90 a0 e7 3c e2 90 a6 3c 5e dd db bc
       -0.0363534 0.028274804 0.020332757 -0.026838955
0002d0 06 b7 ee bc 71 71 80 bc 85 3b 20 bc 7b 14 6a bc
       -0.029140007 -0.015679093 -0.009779816 -0.0142871095
0002e0 86 bf c0 bb d2 23 e9 bb fd 7e 93 3c d3 0d d4 3b
       -0.0058822064 -0.007114866 0.018004889 0.0064713745
0002f0 3c 17 f9 3c 00 98 c7 bc ce 8b d7 3b 41 a1 25 3d
       0.030406587 -0.024364471 0.0065779453 0.040436987
000300 c4 c7 96 3c 41 b9 9a 3c cd 5d eb 3c 1c 6a 88 bc
       0.018405803 0.018887164 0.028731251 -0.01665216
000310 9e e7 a6 3c bb 78 91 3c 65 f7 c5 3c 36 d4 1c bc
       0.020374116 0.017757764 0.024165818 -0.009572079
000320 cd d0 84 3a ef bb 61 3b 5b 4d 8f bc aa aa d6 3c
       0.0010133028 0.0034444293 -0.01749294 0.026204426
000330 68 03 2f 3c c8 00 dd 3c fd 34 ec bc 91 c3 52 3c
       0.010681964 0.026977912 -0.02883386 0.0128640095
000340 4a de 95 bb 50 c1 b8 bc 5f 7b 43 3b 19 54 c7 bc
       -0.004573618 -0.022553116 0.0029828174 -0.024332093
000350 29 92 f3 bc 94 81 95 3a c3 c5 91 bc 8a af 15 bc
       -0.02973278 0.0011406415 -0.017794495 -0.00913609
000360 ff ea 36 bc 89 96 89 bb 27 0b 32 ba 40 75 ad 3c
       -0.011164426 -0.0041988534 -0.0006791823 0.021174073
000370 1e d5 cd 3c ec 6d 3d bd 3c a4 d9 bc 04 24 11 bd
       0.025126036 -0.046247408 -0.02656757 -0.035434738
000380 e9 ab 40 bc 3f cc 7a 3b 9b 4f 98 3c 9c 5b 2d 3c
       -0.011759737 0.0038268713 0.018592646 0.010580923
000390 2c f6 a3 3c d6 1f 53 3d 83 47 12 3c 02 01 d5 bc
       0.020014845 0.051544033 0.008928183 -0.026001457
0003a0 4b f2 cc 3c 02 4a cc bb 51 7b d9 3b 90 ad bc bc
       0.025017878 -0.0062344084 0.006637015 -0.02303198
0003b0 1a ca df 3a d1 3a ad bc f8 0f 56 3c 60 50 3d bc
       0.0017073781 -0.02114621 0.013065331 -0.011554807
0003c0 38 23 00 bc d2 a2 76 3c 71 36 e5 bb 88 47 aa 3c
       -0.007820897 0.015053468 -0.0069950153 0.020786062
0003d0 e0 a2 66 3c f9 61 13 3d 8b 22 8d 3b 51 1f 9e 3c
       0.014076918 0.035982106 0.0043070964 0.019302042
0003e0 19 3c 45 3c 7e f9 ff 3c 5c 41 22 bb ed 21 2b 3c
       0.012038254 0.031246897 -0.0024758196 0.0104451
0003f0 46 65 bd bc 55 52 36 bc 11 88 a5 bc 52 92 84 36
       -0.02311958 -0.011128028 -0.020206483 3.9509405e-06

network_body._body_endoder.seq_layers.0.bias f4 [256]
000000 c9 39 95 3c fc ee 3a bb 2a 06 45 3b 9f a7 63 3c
       0.01821603 -0.0028523793 0.0030063489 0.013894944
000010 dc 2e 93 3c a9 a3 c8 ba 35 51 4e 3c df e5 b2 3b
       0.01796668 -0.0015307564 0.012592603 0.0054595317
000020 e5 66 4e 39 0b da b4 3b b1 cc 13 3c d9 e9 0a bc
       0.00019684022 0.005519157 0.00902097 -0.008478605
000030 73 8b 78 3b f7 d8 5e 3c d7 bd 12 3c 95 d6 75 3c
       0.0037924915 0.013601533 0.008956394 0.015004774
000040 5d 00 85 3a b1 f2 85 3c 7d 36 f9 3c 82 01 ed 3b
       0.0010147203 0.016351076 0.03042149 0.0072328458
000050 bf 69 9c 3b bc 32 b9 3c 07 16 58 bb 15 65 ce ba
       0.004773348 0.0226072 -0.0032972114 -0.0015746678
000060 b2 24 2a 3c bb 6c 3c 3b d1 a0 26 3b aa d4 4d 3b
       0.010384725 0.0028751332 0.0025425444 0.0031407275
000070 97 bb 15 bc 5b e4 42 3c 61 e9 2a 3c a5 cb 06 3c
       -0.009138963 0.0118952645 0.010431618 0.008227264
000080 43 25 57 3b 6c ae bb 3a 58 c5 d6 bb 6c 09 e1 b9
       0.0032828606 0.001431895 -0.006554287 -0.00042922364
000090 13 a4 87 3a 97 8a 20 3c 44 10 0f 3c 44 c2 98 3c
       0.001034858 0.009798667 0.008731905 0.01864732
0000a0 49 e0 20 bb 72 53 c6 3b c4 87 a9 ba fd 61 2c 3b
       -0.0024547747 0.006052428 -0.0012934138 0.0026303523
0000b0 98 92 78 3c 9d 4b 49 3a 34 56 8a 3c 15 03 80 3c
       0.015171669 0.0007678809 0.016886808 0.01562647
0000c0 83 66 69 3b 36 c9 1e 3c 09 58 85 3c d9 b2 f9 3b
       0.003561408 0.009691527 0.01627733 0.0076201973
0000d0 a9 2e 19 3c 1a 6a ae 3c 05 b9 b2 bb 1f 25 9a bb
       0.009349504 0.021290828 -0.005454185 -0.004704132
0000e0 01 6e 09 3c b3 0d eb 3b 64 49 3c bb cb 14 b8 3a
       0.008388043 0.007173264 -0.0028730268 0.0014044283
0000f0 96 01 19 3c 62 71 12 3c b0 32 88 ba 40 be 69 3c
       0.009338757 0.008938165 -0.0010391083 0.014266551
000100 d3 5b 0c 3c ee 98 1a 3c b8 e3 4d 3c 2a 38 c5 3b
       0.0085668145 0.009435875 0.012566499 0.006018658
000110 bd ef f4 bb b8 f6 0a bc ea 28 0f 3c e0 e6 ab 3b
       -0.007474868 -0.008481674 0.008737782 0.0052460283
000120 64 5f b0 bb ab 60 5d 3b 39 8c 1a bc 9c d9 bc 3a
       -0.005382465 0.0033779542 -0.009432846 0.0014408114
000130 bf 11 1a 3c 78 bc 2d 3b c9 81 17 3b 39 42 14 ba
       0.009403645 0.0026510041 0.002311813 -0.000565562
000140 a7 91 b4 3b f9 d0 39 bb e9 fe c1 3b 55 b1 80 3a
       0.005510527 -0.0028353317 0.0059202802 0.0009818474
000150 7f ae f0 3a 94 bc 7c ba 29 36 4c ba 7c e8 79 3c
       0.0018362551 -0.00096411374 -0.0007790053 0.0152531825
000160 ea 43 52 3a 0e 12 3c 3a e4 1d 1c 3c 0c 64 1a 3c
       0.0008020984 0.0007174321 0.009528611 0.009423267
000170 92 0e 0c 3c 3f be 7b 3c 36 bc 4b 3b aa a3 af bb
       0.008548396 0.015365182 0.0031087524 -0.0053600864
000180 2f df ca bb 15 7e 01 3c d0 3a 10 3c cf 51 a4 3b
       -0.0061911563 0.007903595 0.0088030845 0.005014635
000190 f8 20 df ba bd 1e 2c 3c 6b 26 09 bc 4f ab 50 3c
       -0.0017023375 0.010505375 -0.008370976 0.012736156
0001a0 4a 55 3e 3c 84 1f 28 3c b2 c9 18 3c ea 26 9a 3c
       0.011617014 0.01026142 0.009325432 0.018817384
0001b0 22 69 0e 3c e2 4e e1 3b e0 1b 2b 3b 4d 8d 55 3b
       0.008692058 0.0068758586 0.0026109144 0.0032585443
0001c0 05 f6 2e 3a 75 04 51 3a e1 ea b8 b9 ba f8 40 3b
       0.0006674233 0.00079733814 -0.00035270213 0.0029445128
0001d0 a7 50 57 3c c7 83 76 bb 42 91 b5 3b a9 0e a6 3b
       0.013141788 -0.0037615167 0.0055409977 0.0050676656
0001e0 5b 86 44 3b aa 36 89 bb 77 49 d6 3b b0 c9 3f 3c
       0.0029987309 -0.0041874247 0.0065395194 0.011705801
0001f0 64 da 3b 3b c4 02 3b 3c 78 13 63 bb c9 d3 56 bb
       0.0028664107 0.011414234 -0.0034649055 -0.0032780042
000200 8b ac 27 3c af 27 39 3c a1 69 5e 3c 47 c4 fa 3b
       0.010234009 0.011300965 0.013574989 0.0076527926
000210 5c f6 00 3b a8 3c 0f bb 08 4e 43 3c 0e 7a d0 b7
       0.0019678092 -0.0021856222 0.01192046 -2.4852368e-05
000220 35 cd 75 3c 37 1b 97 3b 81 a6 63 3b 9a 33 9a ba
       0.015002538 0.0046113986 0.0034736695 -0.0011764646
000230 fa fb 2a 3c 36 f8 07 3b 11 48 e9 3b c8 88 47 3c
       0.010436052 0.002074731 0.0071191867 0.012178607
000240 84 22 e8 3b 7c 9e 25 3c 19 b5 f8 bb 81 38 8d 3b
       0.0070841927 0.010108586 -0.007589948 0.0043097143
000250 d2 49 11 3c 2f d7 a6 3b 94 e6 cc 3b d9 bd 2e 3c
       0.008867698 0.00509157 0.006253073 0.01066538
000260 43 42 a5 3b 47 06 0a 3c 42 08 bb 3b 0c 9b 5c 3b
       0.0050432994 0.008424348 0.0057077715 0.003366175
000270 98 aa 15 3b 72 b9 ab 3b 60 d4 9a 3b f1 63 35 bc
       0.0022837278 0.0052406127 0.004725024 -0.011071191
000280 ac 8a 38 3c 36 b6 60 3c e2 cc c0 3b d9 fd 73 3b
       0.011263531 0.0137153175 0.005883799 0.0037230162
000290 1a 46 68 3c 65 a9 52 3c 69 c7 ee 3b d0 02 23 3b
       0.01417687 0.01285777 0.007286955 0.0024873503
0002a0 2c 16 63 bc 13 65 db ba c0 2f 87 3c b9 1b ac 3c
       -0.013860267 -0.0016738496 0.016502261 0.021009313
0002b0 4c 00 d2 3a 2a d5 d5 bb 16 17 4c 3c fb ba 94 3b
       0.0016021817 -0.0065256553 0.012456676 0.0045388914
0002c0 64 51 85 b9 62 bb 35 3c 90 ee 51 3b d2 eb 08 3c
       -0.00025428378 0.011092039 0.0032033063 0.008357005
0002d0 45 bc 47 3b d5 87 47 3c 86 bb f6 ba af 2c a2 3b
       0.0030477208 0.012178381 -0.0018824197 0.0049491744
0002e0 63 40 4e 3c 18 4b 09 3c 69 1a 2b 3c fa 05 fc 3b
       0.012588593 0.00837972 0.010443308 0.007691142
0002f0 29 e8 8d 3c c7 e2 fc 3b 6b f1 01 bc c7 3d 62 3c
       0.017322617 0.0077174637 -0.007931094 0.013808674
000300 7c c2 22 3a 9b b3 e2 bb fc 35 86 3b ec 48 31 bc
       0.000620879 -0.0069183833 0.004095791 -0.010820609
000310 9a 0d 0c bb 37 86 93 bb 9e 1d bb 3c 92 ea 63 3b
       -0.0021370412 -0.0045020836 0.022841271 0.0034777266
000320 7c 8c 92 3a 61 04 26 3c ed 4d 49 3c 85 9e b3 bb
       0.0011180784 0.01013288 0.012286645 -0.0054815435
000330 11 9a e1 ba 1d a5 77 39 33 dd fe bb 4b f1 c9 3b
       -0.0017212053 0.00023617265 -0.007777834 0.0061627976
000340 af d5 46 3b 5b c0 0a 3c 67 e6 ee 3a 05 a4 66 3c
       0.0030339768 0.008468713 0.0018226624 0.014077191
000350 ea fc 3f bc 09 82 4d 3c 96 48 4f 3b 8a 95 08 3c
       -0.011718014 0.01254321 0.0031628958 0.008336434
000360 10 47 0e 3c ab 79 63 bb 79 55 e6 3b 81 3e 24 bc
       0.008683935 -0.003470997 0.007029232 -0.010024668
000370 59 4a 49 3c 5f 02 d2 3b b9 be 59 3a 9a 16 9b 3c
       0.012285792 0.006408974 0.0008306313 0.018931676
000380 c5 d7 3b bb 96 4e 13 3c c6 b6 0c 3c 1e 56 90 3a
       -0.0028662544 0.008990904 0.008588498 0.0011011993
000390 89 c6 d2 3b d1 36 f1 ba 5c 0a 81 3c d9 ef 97 3a
       0.0064323586 -0.0018403177 0.01575201 0.0011591866
0003a0 5a ac 66 3c bc 1c a5 3c fb e5 58 3c 92 f6 48 3a
       0.014079178 0.020155303 0.013238425 0.00076661364
0003b0 24 82 46 bc 4e 6d 74 3b 6e 5d 4b 3c b4 f8 2a 3b
       -0.012115989 0.0037296596 0.012412412 0.002608818
0003c0 90 50 53 3c 7e 31 83 3c 4b 04 ee 3a 75 9f cb 3b
       0.012897626 0.01601481 0.0018159238 0.006214077
0003d0 33 6e 4e 3c 9a 50 52 3a 6f 50 ce ba 47 2d bf bb
       0.012599516 0.0008022875 -0.0015740524 -0.005834255
0003e0 23 4c ef 3b af 7a ac 3b 08 92 05 3b 61 62 2c 3c
       0.0073027774 0.0052636485 0.002038123 0.010521502
0003f0 84 ef 82 3b 06 48 38 3c 34 74 cb 3b 1f b1 07 3c
       0.0039958376 0.0112476405 0.006208921 0.008281975

network_body._body_endoder.seq_layers.0.weight f4 [256, 134]
000000 4a bd 47 bd 6b 32 27 3d 90 4e c6 bd 81 2f 00 bd
       -0.048764504 0.040819567 -0.09682953 -0.031295303
000010 28 6f 9b bd db 7e c4 3d 6d 3f 87 3d 5a a5 35 be
       -0.07589561 0.09594508 0.066038944 -0.17738858
000020 62 99 59 bd 78 f4 07 be 0e 0f 17 3a 96 59 da bd
       -0.053124793 -0.13276851 0.0005762436 -0.106616184
000030 aa 43 49 be e5 b0 7d 3c 6f 81 33 bb b1 bd 28 be
       -0.19654718 0.0154840695 -0.002739038 -0.16478612
000040 da 63 36 3e d7 6a 31 bd cc 80 9e 3d bd 31 06 3d
       0.17811528 -0.04331478 0.0773941 0.032762278
000050 3f 54 b9 bc 2b 4e 20 3e 34 0d 8d 3d bd 2f 92 3d
       -0.02262318 0.15654819 0.06887284 0.071380116
000060 6d 3c 97 bd 16 a8 4a 3d 20 29 81 bd ca 49 d6 3c
       -0.07384572 0.049476705 -0.06306672 0.026158232
000070 10 7e 95 bd 74 f2 a4 3d 8e db 06 3e 00 10 ff 3d
       -0.07299435 0.08054057 0.13169691 0.12454224
000080 9e cc d5 bd 27 db 8a 3c b7 1b ac bc 00 f9 cb 3d
       -0.10439418 0.016950203 -0.02100931 0.09959602
000090 4b ca c0 3d 52 29 89 3c b8 7c b5 bd c9 45 07 3e
       0.09413584 0.016743336 -0.08861679 0.13210215
0000a0 9c 88 1f be 53 03 35 3c b3 69 a1 3c 4e 2a da bd
       -0.15579456 0.011048156 0.019703722 -0.106526
0000b0 64 0c 25 bd 8f dc 9e 3d f4 81 07 be c4 e5 a4 bd
       -0.04029502 0.07756912 -0.13233167 -0.08051637
0000c0 86 7a ec bd 34 de c6 bc 80 94 70 3d e5 97 31 be
       -0.11546807 -0.024275877 0.05873537 -0.173431
0000d0 e2 be 76 3b ac c0 8d bd ee 90 27 bc 24 27 18 3c
       0.0037650396 -0.06921515 -0.010227425 0.009286676
0000e0 43 e8 67 3d c4 82 6e bd 16 c1 2a 3d 30 d2 0c be
       0.056617986 -0.058230177 0.041688047 -0.13752055
0000f0 ea 4f ee bd db 95 0a be c1 44 e9 bc f6 09 eb 3c
       -0.11636336 -0.13533728 -0.028475167 0.028691273
000100 08 dc c4 bd 87 78 ff bd d7 f8 29 bd 1d b7 00 bd
       -0.0961228 -0.12474161 -0.041497078 -0.03142463
000110 f8 6e c0 3b 55 09 9c 3d 01 09 f9 bc 67 fe f8 bd
       0.0058726035 0.076189674 -0.030399801 -0.121578984
000120 f5 83 29 be 54 21 6d 3d 45 05 04 3e 62 0c b5 bd
       -0.16554244 0.057893112 0.12892635 -0.088402525
000130 c9 d0 23 be 49 33 04 3d 36 44 ce 3d 08 a2 1d bd
       -0.15997614 0.03227547 0.10071604 -0.038484603
000140 6a ba 70 bc 4c ab 7d bd ca d4 84 bc f7 f6 0d bd
       -0.014692882 -0.06193094 -0.016214747 -0.034659352
000150 fd f3 4d 3d f9 d2 31 3d 39 4f de 3d 56 60 2b bd
       0.050281513 0.04341409 0.10854954 -0.04183992
000160 e6 02 ea bd 70 4d 86 3d 34 ce 50 be 25 8e 98 bd
       -0.11426334 0.06557739 -0.2039116 -0.07448987
000170 cc 60 65 bd cb 88 d1 bd 5d 66 8f 3d 87 ad 07 3b
       -0.056000516 -0.10231169 0.07001946 0.0020702796
000180 3f 46 07 3d 08 b5 87 3d a2 e3 89 3d 59 38 ef 3c
       0.033025976 0.06626326 0.06732871 0.029201673
000190 18 91 a5 bd d3 f2 47 be de 4c 72 bd f9 f1 d0 bc
       -0.08084315 -0.19526224 -0.059155338 -0.025506007
0001a0 7b f4 18 3e ec 2c 6a bd 94 ec f9 3d 8e db ed 3d
       0.14937012 -0.057171747 0.12203327 0.11614142
0001b0 32 0c ae 39 99 65 7e 3d b7 cc 4c 3e a1 5e 42 3e
       0.00033196952 0.06210861 0.19999968 0.1898141
0001c0 84 44 a2 3d 68 3f 9c bc 7b 8e c9 3c d5 1f 10 3d
       0.079232246 -0.019073203 0.024604073 0.035186607
0001d0 cd 5b 55 bd cc 20 97 b9 3d 07 6a 3d a7 02 06 3d
       -0.0520895 -0.000288254 0.05713581 0.032717373
0001e0 9d ad 27 3b 93 05 4a bd 9f e5 97 bd 6e 59 8f 3d
       0.002558566 -0.049321722 -0.074168436 0.06999479
0001f0 bc 5c b1 3c 6f 6f ff 3a d5 d5 2e 3d b7 f6 62 3d
       0.021650665 0.0019488166 0.042684395 0.055411067
000200 06 a8 e5 bc fe f8 a7 3b 24 50 4a 3d 82 e8 83 3b
       -0.028034221 0.0051261177 0.049392834 0.00402552
000210 79 e0 2b 3e eb b0 ef bd 43 bc 1a 3e 17 94 3e 3c
       0.16784848 -0.11703666 0.15110879 0.011631987
000220 16 85 ff 3d 13 2b 9f 3d 41 20 ad 3d 93 f8 b6 3c
       0.12476556 0.07771888 0.084534176 0.022335326
000230 44 6e 40 bb 40 c6 0a bd 20 84 99 3d e3 6b 50 bd
       -0.0029362598 -0.033880472 0.07495904 -0.05088414
000240 23 4d de 3c 68 fe 33 3e 02 4a 0a bd a3 05 10 be
       0.027136391 0.17577517 -0.033761986 -0.1406465
000250 82 72 df 3c 62 87 ff bc d1 97 67 3b 8c 50 40 3d
       0.027276281 -0.031192485 0.0035338292 0.046951815
000260 be 50 d2 bd 49 db 0c 3e 81 c1 b7 bb 10 2e b6 bc
       -0.102693066 0.13755526 -0.0056077843 -0.022238761
000270 37 4d 49 bc 23 23 90 bd 9c 47 8b bc 17 4e 3e bd
       -0.012286476 -0.07037952 -0.01700192 -0.04646119
000280 4d 5d 64 bd f6 c9 d3 3b 82 40 e8 3c 23 b7 d3 bc
       -0.05575304 0.0064632846 0.028351072 -0.025844162
000290 0f d7 cc bd 8b 1e 34 3e 4b 6e f9 bd 42 ac f5 3c
       -0.10001957 0.17589776 -0.1217924 0.029989365
0002a0 fe 8c 9e bd 9b 89 18 3e 69 7f 1a 3e ad 49 d7 3c
       -0.07741736 0.14896242 0.15087666 0.026280249
0002b0 9c 1b 5b bd 2a 4f 0e 3d 24 f2 4c 3b e2 bd 08 3d
       -0.053493127 0.034743465 0.0031272257 0.03338421
0002c0 02 3c d4 bc 70 47 13 bc 6c a5 f8 bd 4c 6b 0e bc
       -0.02590752 -0.0089892 -0.12140927 -0.008692574
0002d0 cd b2 f9 3b a2 85 70 bd 0b e3 36 3e 0d 63 4e be
       0.0076201917 -0.058721192 0.17860048 -0.20154972
0002e0 fa fc 32 3d dd 73 29 bb 8b 76 6c 3c d0 6d c2 bd
       0.04369829 -0.0025856413 0.01443256 -0.09493601
0002f0 9b 6c 84 bd 9f c7 12 be 57 cd 42 bd d6 b2 1c 3c
       -0.06466027 -0.14333962 -0.04755911 0.009564122
000300 a0 52 23 bd a4 99 a6 bd cd d1 87 3d 0e 2a 77 3d
       -0.03987372 -0.081347734 0.06631813 0.06034284
000310 44 7a 04 be ee 43 27 3d 41 4f 3f bd f5 38 58 3e
       -0.12937266 0.040836267 -0.04670644 0.21115477
000320 f9 c8 ba bc bf 7c 99 bc 64 f5 17 bd 64 82 f0 bc
       -0.02280091 -0.018736241 -0.037099257 -0.02935905
000330 55 d3 21 bc dd 70 d5 bd 19 d4 8d 3d 03 cd f4 bc
       -0.009877046 -0.104219176 0.0692522 -0.029882913
000340 ca 0e ee 3c 9a 88 8c bd 4c 8a 92 bd b4 dc 19 bc
       0.029059786 -0.06861992 -0.07155284 -0.009390999
000350 8e 73 0f bd 16 18 63 bb 35 d5 4b 3b ab 0c 87 bd
       -0.03502231 -0.0034651808 0.0031102423 -0.06594213
000360 6f 25 6c 3d 08 db 35 3c e1 86 b7 bd f2 22 a4 bb
       0.057652887 0.011099584 -0.08961273 -0.0050090486
000370 bf 6a a8 bd 81 80 e8 bc f6 90 c8 bd 81 95 a5 bd
       -0.08223485 -0.028381588 -0.09793274 -0.08085156
000380 ee f9 cc bd c6 eb 0b 3e b9 15 ea bc 22 56 e4 bd
       -0.10008608 0.13664159 -0.028574811 -0.11149241
000390 2e b3 b5 bd 33 70 e3 bd 59 c6 b7 bc bd 82 79 bd
       -0.088720664 -0.11105385 -0.022433447 -0.060915697
0003a0 2e 5e 56 3c 80 71 d2 3c e9 be 2c bd 10 b0 9e bd
       0.013083978 0.025688887 -0.042174254 -0.07748425
0003b0 76 e1 7a 3d 4e a9 61 3d 19 0b 00 3e 75 ba aa bd
       0.061250173 0.055093102 0.12504233 -0.08336345
0003c0 fe ea 1c 3d 78 37 06 be 38 b7 27 3d a0 66 4c 3d
       0.038310044 -0.13107097 0.040946215 0.04990256
0003d0 0b d4 b3 3d a8 2c 97 bb 57 96 da bb f7 d7 32 be
       0.08780678 -0.0046134777 -0.006670754 -0.17465197
0003e0 19 2b 55 3d 1d 2c ef 3c 9b 62 16 3e 5e 9e 30 3d
       0.052043054 0.02919584 0.14686053 0.04311978
0003f0 c8 05 10 3e ca bb 63 bc cd dc c5 bd 5f 70 95 3d
       0.14064705 -0.013899753 -0.09661255 0.07296824

network_body._body_endoder.seq_layers.2.bias f4 [256]
000000 5c 92 45 3c eb 02 03 3c a8 3c 9d ba 3b 74 6f bb
       0.012058821 0.007996301 -0.0011996226 -0.0036537785
000010 14 7a 51 3c ac 2d 7b 3b 37 6b 62 3b 39 58 8b bb
       0.012785453 0.0038326783 0.0034548768 -0.0042524603
000020 38 ae 05 3c f9 ba cf 3b 79 e7 8a 3a 84 f6 58 3b
       0.008159213 0.0063394275 0.0010597549 0.003310592
000030 da fa 82 bb a6 c5 1c 3a ab ef b8 bb b6 31 21 3c
       -0.003997189 0.00059803796 -0.005643805 0.009838512
000040 76 41 f8 3a e8 e9 09 3c 6e 20 9c 3b 36 cc 2a 3c
       0.0018940407 0.008417584 0.004764608 0.010424664
000050 2d 47 e7 bb c7 98 46 3b 5c d7 65 3c ae e0 9c 3b
       -0.0070580454 0.0030303465 0.014028396 0.004787526
000060 3e d6 6e 3c c6 d8 0c 3c df 05 3d 3b 3f d7 aa 3b
       0.0145774465 0.008596605 0.002884261 0.0052136476
000070 ce 0b c9 ba 43 2f 01 37 2a 6b 8d 38 8b 4f e5 3a
       -0.0015338601 7.700003e-06 6.743365e-05 0.0017495019
000080 4f b6 2b 3c 48 88 0f 3c 34 ae 88 3a 43 8a da bb
       0.0104804775 0.008760519 0.0010427893 -0.006669314
000090 27 4c d7 ba be aa 90 3b db 63 b7 ba f1 62 66 3b
       -0.0016425893 0.0044148853 -0.0013991551 0.0035154189
0000a0 2d 2a f8 b9 af 83 20 3c 24 c1 87 3a ac 9e 94 bb
       -0.0004733367 0.009797021 0.0010357243 -0.0045355167
0000b0 2b 05 8c bb c8 9d 68 3c 44 27 69 3c 83 38 7c ba
       -0.004273077 0.014197774 0.014230553 -0.0009621458
0000c0 d9 9f 74 3b 9c 56 61 3c fe ee a5 3b 20 ea d5 3b
       0.0037326722 0.013753559 0.0050638905 0.006528154
0000d0 36 35 a4 3b 4e c4 36 3a 9b 0f c5 3b d0 fa db 3b
       0.005011226 0.00069720007 0.006013823 0.006713249
0000e0 5d 78 c9 3b e2 b6 cc bb 52 24 ab 3b de 69 84 3c
       0.0061483816 -0.0062473873 0.0052228356 0.016163763
0000f0 33 e8 f9 3b 71 71 95 bb 7d bb 45 ba d4 60 12 bb
       0.0076265573 -0.0045606424 -0.00075428915 -0.0022335546
000100 23 82 7d bb a7 01 94 b9 6a 5f b6 3b 59 08 af 3b
       -0.0038682304 -0.0002822999 0.0055655735 0.0053415713
000110 5b d5 f1 3a e0 e0 78 ba ad aa 51 3a d4 60 c0 3c
       0.0018450426 -0.0009493958 0.000799815 0.023483671
000120 56 79 a0 3a c1 78 0e 3c 35 0c e8 3a 38 9c 0a bc
       0.0012243192 0.008695782 0.0017703833 -0.008460097
000130 c5 14 5c bb 1a 22 d5 3a 5f e1 88 bb d4 24 26 bc
       -0.0033581716 0.0016260773 -0.004177257 -0.010140616
000140 ad 06 da 3b 5b de c6 3b f0 4d e3 3a 31 60 81 3b
       0.006653628 0.0060689873 0.0017341953 0.0039482345
000150 96 81 b1 3a f8 6f 58 3b ac 3b 14 3c cc 3e bd 3a
       0.0013542648 0.0033025723 0.00904743 0.0014438271
000160 68 6f 98 3b 6c 90 26 bb 3c ac 65 ba 83 99 ff 3a
       0.0046519525 -0.0025415672 -0.00087613217 0.0019500706
000170 a7 3c 17 3b bf 08 92 bb 5b e4 8a 3b 93 9b 8f 3b
       0.0023076923 -0.004456609 0.004238648 0.0043825596
000180 db e1 94 ba ac 7c 5f 3b 4a 60 93 3b 49 98 28 bb
       -0.0011358814 0.003410141 0.0044975625 -0.0025725535
000190 2d 37 0a 3a 4e 9c 2d 3c 9d 96 89 bb 19 89 8c 3a
       0.0005272504 0.010596348 -0.0041988627 0.0010722011
0001a0 e5 c7 1b 3c 13 56 2c 3c c4 82 90 bb 1c 0f 30 3c
       0.009508108 0.010518569 -0.0044101197 0.01074579
0001b0 de 76 e3 3b b9 02 d3 3b 8c fe aa bb 3c ef 9b 3b
       0.0069416603 0.0064395336 -0.0052183326 0.0047587436
0001c0 45 04 94 ba ef 78 0f ba f2 72 f0 bb 0e 23 06 3c
       -0.0011292776 -0.00054730376 -0.0073379213 0.008187069
0001d0 15 b0 7e 3a 1e 0a e7 bb 82 c9 4d bb c0 c2 33 3b
       0.00097155693 -0.0070507666 -0.0031400626 0.0027429312
0001e0 8f fb 08 bb 07 ba 82 3a de b5 1c 3c 12 f4 12 3c
       -0.0020901894 0.0009973653 0.009564845 0.008969324
0001f0 b2 a0 e6 3b c9 5c 5f 3b 96 7c 87 bb b7 db 37 3c
       0.0070381993 0.0034082404 -0.004134725 0.011221818
000200 73 83 1f 3b 94 d0 76 bb 56 cf 87 3c 04 17 97 bb
       0.0024339824 -0.0037660943 0.016578358 -0.004610898
000210 58 bc 41 3b ee 7e 2d 3b 69 56 b4 3b 60 dc 0e 3b
       0.0029561725 0.002647336 0.005503465 0.0021798834
000220 97 fe fa bb 44 fa 69 3c cf 9c fa bb 6f a6 c7 ba
       -0.007659744 0.014280859 -0.0076480876 -0.0015232096
000230 f9 71 27 ba 7e 43 55 3b 21 f9 b9 3a 16 97 b7 3b
       -0.00063875277 0.003254145 0.0014188626 0.0056027276
000240 c3 76 da 3b a4 17 a1 3b 1c cb b3 bb 73 c4 e9 3b
       0.0066669895 0.0049161483 -0.005486859 0.0071340143
000250 a7 3c f9 3b 55 a6 13 bc 8c 59 23 3c 54 b7 52 3b
       0.0076061073 -0.009011825 0.00997008 0.003215273
000260 63 e7 b2 3b 30 47 fc b6 95 e4 01 bc cc 4d 36 3b
       0.0054597124 -7.5184726e-06 -0.007928033 0.0027817367
000270 69 f4 88 3a b4 13 62 3b c6 99 bb 3b 31 5e 15 bb
       0.0010448816 0.0034496607 0.0057251183 -0.0022791738
000280 d3 fa f9 3b 78 04 92 ba 08 e5 6b 3c df b0 2a bb
       0.0076287775 -0.0011140248 0.014397867 -0.0026045365
000290 25 d9 92 3b 6d 00 de 3b 5a 33 97 bb 2a 82 f6 3b
       0.004481452 0.006774953 -0.004614276 0.007522841
0002a0 a8 ef 94 ba 4a f0 4c 3c e9 60 c5 39 eb f5 5d bb
       -0.0011362927 0.012508461 0.00037646972 -0.0033868502
0002b0 72 4a 31 3b 3e 12 8c 3a a9 88 c6 3b 7c 15 04 3c
       0.002705243 0.0010686589 0.0060587716 0.008061763
0002c0 78 32 18 3c 87 06 4a bb ed 11 7c bb 81 e0 0b 3c
       0.009289376 -0.0030826645 -0.0038462833 0.008537413
0002d0 e8 84 68 3b 4a c4 f7 3a ac f8 0c bb c4 20 e1 bb
       0.003547961 0.0018903103 -0.0021510525 -0.006870361
0002e0 c0 60 6d bb 83 cc 41 3a 8c 01 be 3b 4a 90 e4 3b
       -0.0036220998 0.00073928403 0.0057985242 0.0069752084
0002f0 69 ed 90 3c 2d 67 81 ba e3 e3 39 bb 5a 69 3a bb
       0.017691331 -0.0009872668 -0.002836459 -0.0028444142
000300 84 cb 31 bb a2 ed 15 bc d7 92 2b 3c 03 1f 0e 3c
       -0.0027129361 -0.009150894 0.010472021 0.008674386
000310 e4 47 8e 3b 57 0d 99 3b b1 28 ba 3b 3f b4 1b 3c
       0.004342066 0.0046707797 0.0056811203 0.009503423
000320 a9 fe 09 bc 72 31 11 3c f4 f3 38 bb f1 2d 98 3a
       -0.008422532 0.008861886 -0.002822158 0.0011610371
000330 dc 0a 1a 3c 33 93 20 3c 9b 45 07 3c 84 0f 75 bb
       0.009402003 0.00980072 0.008256341 -0.0037393281
000340 d2 98 11 bb 64 34 19 3b 2f 7e b4 3b bb f8 3b 3b
       -0.0022216332 0.0023377175 0.0055082063 0.002868219
000350 56 6e d6 bb b7 dc f1 bb 97 f6 68 bb 9a 5c d1 3b
       -0.006543915 -0.0073810476 -0.003554737 0.006389213
000360 7f 3d 96 bb 59 df 77 3b d2 5c 3f 3c 2e 14 26 3b
       -0.0045849676 0.0037822335 0.011679845 0.0025341618
000370 0b b1 06 bc 4c b4 94 bb 05 c4 3e 3b 9b ca 51 3b
       -0.008220921 -0.0045380946 0.0029108536 0.0032011631
000380 44 be ec bb 7f 64 e3 b9 4f 47 26 3c 93 84 23 3b
       -0.00722483 -0.0004337169 0.010148837 0.0024950847
000390 cd c7 21 bc 8d 73 00 3b d8 83 15 3c 35 3f eb 3b
       -0.009874296 0.0019600124 0.009125672 0.0071791657
0003a0 1d 3e 3d 3c ae 48 1e 3c c1 ce 1d bb 3d 44 84 bb
       0.0115504535 0.009660883 -0.0024079534 -0.004036455
0003b0 3c 3e 4a bb 96 7a a9 bb c2 ac 4e bb 05 4f 60 bb
       -0.0030859848 -0.005172084 -0.0031536077 -0.0034226787
0003c0 77 58 14 bb d9 6a 3d 3c a0 ad cd ba 01 2c f3 3b
       -0.0022635737 0.011561119 -0.0015692003 0.007421017
0003d0 2f 63 b2 3b 77 6b 05 3c a5 0e 26 3c 55 ad 8f 3b
       0.0054439525 0.008143297 0.0101353275 0.0043846765
0003e0 01 3a 40 3b a7 fb b2 bb 53 78 04 bc e2 29 87 3b
       0.0029331448 -0.005462128 -0.008085328 0.004124866
0003f0 ff 72 91 3b 25 9b 8d 3b 15 47 8b bb 44 1d 0a 3c
       0.0044387574 0.004321473 -0.004250417 0.008429829

network_body._body_endoder.seq_layers.2.weight f4 [256, 256]
000000 cf 33 0b be 8a d7 1d bd 36 c2 07 3b 80 fe bb 3d
       -0.13593982 -0.038535632 0.0020715124 0.091794014
000010 fd 69 93 3c 42 9d 9b 3d 89 7d 3c 3d c9 0c a9 bc
       0.017994875 0.07598354 0.046018157 -0.02063598
000020 ca b2 a5 3c 5a 1b 25 bd ad 9c 1f bb 8e f4 03 bd
       0.020226855 -0.040309288 -0.002435486 -0.032215647
000030 55 52 8b 3d 71 38 af 3c d2 a3 fc 3d d7 98 bc bc
       0.06802813 0.021389218 0.12335934 -0.023022098
000040 9b ff 8b 3d 44 2a eb bb 73 42 80 bd 85 2b 4e 3d
       0.06835862 -0.0071766693 -0.06262674 0.050334472
000050 dc a3 0c be ad dd 14 bd b6 f2 96 3c 3b 3c f6 3b
       -0.13734382 -0.03634422 0.01842628 0.0075145043
000060 ce bc a4 3b dc 25 8b bd 54 ad 28 bd 62 c4 ea bc
       0.00502739 -0.067943305 -0.041180924 -0.028658096
000070 96 82 48 3d 6a 3b 88 bd 0e 19 60 bd 0e 80 c9 3a
       0.04895266 -0.06651957 -0.054711394 0.0015373246
000080 f5 c0 da bd b8 65 70 bd 20 a3 38 bc 88 18 0c bb
       -0.10681335 -0.058690757 -0.011269361 -0.0021376926
000090 b4 e0 5b bd 2b 5c 31 3d a2 99 65 bc 56 1f 88 bd
       -0.05368109 0.04330079 -0.01401368 -0.06646602
0000a0 90 8a 9c 3d 72 65 f9 3c 73 29 d2 bd 56 59 62 bc
       0.07643616 0.03044388 -0.10261812 -0.013815245
0000b0 84 3e 43 3d 17 67 c1 3b 0b fd 62 bd 92 6c 8f bc
       0.04766704 0.005902182 -0.0554171 -0.017507825
0000c0 0f be 83 3c 9f 7a 13 bc d8 b7 3b bd 27 29 b9 bd
       0.016081838 -0.009001403 -0.045829624 -0.09041052
0000d0 05 49 1b 3c b1 0c 08 3d 87 ad 1b be 44 bf 63 bb
       0.009477858 0.03321523 -0.15202914 -0.0034751454
0000e0 3c 06 1f be f5 51 01 3e 47 e0 d5 bd 4e a2 9c 3c
       -0.15529722 0.1262892 -0.10443168 0.019120362
0000f0 fd b9 8a 3d 3d bc 1d 3c ff f1 9c 3d 3e 8b 6e bb
       0.06773756 0.009627399 0.076633446 -0.0036398913
000100 28 b2 07 be a5 df 10 3d 7f 7f 7c 3d b4 28 9d 3d
       -0.13251555 0.035369534 0.061645027 0.07673779
000110 4b 6d f8 3c 82 32 30 3c bd 0e 56 bd 81 d4 8a ba
       0.030325552 0.0107542295 -0.05226015 -0.0010591896
000120 66 8f 9f bd 9f f4 93 3b fd f6 ea 3d 0a f3 df bd
       -0.07791023 0.004515245 0.114728905 -0.10935028
000130 7e 20 34 3d b2 2e 5f bd f2 ad b7 bd f1 38 c7 3c
       0.0439763 -0.05448789 -0.08968724 0.024319144
000140 5c 3c e8 3c b1 cb b2 bd 5a ec 72 bd a5 76 18 3d
       0.028349094 -0.08730257 -0.059307434 0.037222523
000150 3b 36 94 ba ac 47 76 bd 59 be 00 bd c7 20 ac 3d
       -0.0011307666 -0.060126945 -0.03143153 0.08404689
000160 91 41 49 3d f7 ec c9 bc 45 2a ae bc b6 80 a5 ba
       0.049134795 -0.024649126 -0.02126039 -0.001262686
000170 25 d0 ee 3d a4 b5 db 3c c3 f3 02 3d 00 ee 2b 3d
       0.11660794 0.026820011 0.03197075 0.04197502
000180 34 2d e7 3b 51 3e 10 3c 2f cf 28 3d 88 0c e0 3d
       0.007054949 0.00880392 0.04121321 0.1093989
000190 56 11 cd bc 32 1b a2 bc ed 3b 88 3d 70 b2 3d be
       -0.02503268 -0.019788358 0.06652055 -0.185251
0001a0 ea 29 7a 3d 46 78 30 bc f3 12 a5 3c eb f5 c8 3c
       0.06107513 -0.010770863 0.020150637 0.024531325
0001b0 32 c1 30 3d 98 00 d9 bb ee 45 b1 bd c1 d0 89 bd
       0.043152995 -0.0066223852 -0.08655916 -0.0672927
0001c0 22 90 7d bb 5f bf d7 bd 74 ab c9 3d df b5 25 bd
       -0.0038690646 -0.10534548 0.09847155 -0.04045665
0001d0 ca d8 c8 3d f1 b8 8e 3d 3a d4 d6 bd d5 87 1a 3c
       0.09806974 0.069688685 -0.10489698 0.009431799
0001e0 cf 45 45 bd 3d cb 96 bc 0c d0 99 3d d4 de 8e bd
       -0.048162278 -0.018407458 0.07510385 -0.06976095
0001f0 ae 20 86 bd 1c c9 4a 3d 2b 9a 73 3b d4 c6 19 3d
       -0.06549202 0.0495082 0.0037170749 0.037543133
000200 23 90 54 bc ca 17 13 be 70 81 07 3d a2 6a c0 3d
       -0.012973818 -0.14364544 0.033082426 0.093953386
000210 e2 31 1f bd 14 78 20 bd 2b b3 cf 3c dc e0 8f 3d
       -0.03886593 -0.039177015 0.025353989 0.070253104
000220 64 9b b3 3c 32 89 26 bc 54 dc d2 3d 1a 51 aa 3d
       0.021924682 -0.010164546 0.102959305 0.0831625
000230 55 0e 11 bb 5e 43 1d 3d 68 5b e4 bd d5 54 ae 3d
       -0.0022133787 0.038394324 -0.11150247 0.08512274
000240 2d ce 21 bd 50 02 f0 bd 8a 04 20 bd cb 36 fd 3b
       -0.039503265 -0.11719191 -0.03906683 0.007727479
000250 b3 06 8b 3c b0 74 56 3d 3e 87 37 bd 34 12 dc 3c
       0.016970968 0.052357376 -0.04480671 0.026864149
000260 0f 49 25 3b 27 d8 85 3d 29 15 1d bd 0e e6 8f 3c
       0.0025220548 0.065353684 -0.038350258 0.017565753
000270 f1 d4 b2 bc 30 ff c8 3d 77 78 80 3d 13 da 52 3d
       -0.021830054 0.09814298 0.06272977 0.051477503
000280 3b d4 37 3d 55 bf 36 bc 9c b8 6d bd c3 68 b1 3c
       0.044880133 -0.011154016 -0.058037385 0.0216564
000290 9f 4a 09 3d b0 f6 a7 3d c1 84 58 bd ba 5b c9 bc
       0.03351843 0.08201349 -0.05286098 -0.024579871
0002a0 71 0b 0e 3d b9 53 2d bd 1d 67 26 bd 6a 95 9e 3d
       0.03467888 -0.042316172 -0.04062568 0.07743342
0002b0 21 39 fb 3c c7 15 46 bd 4f 87 33 bc 55 5d 03 bd
       0.03066689 -0.048360612 -0.010957553 -0.03207143
0002c0 31 f5 85 3d 2c c1 6f bd 09 e0 25 bd e6 57 b8 bd
       0.06540907 -0.058533832 -0.04049686 -0.0900114
0002d0 d2 24 15 3c 58 c0 cf bd 3a 53 b2 3c 52 0d 5e 3c
       0.009103017 -0.101441085 0.021768201 0.0135529805
0002e0 f8 09 9c bd 86 68 e8 bb 17 1f 45 bd 61 95 59 bd
       -0.07619089 -0.0070925383 -0.048125353 -0.053120974
0002f0 1f 82 26 3d e3 46 ee bc ed 3f 7c 3d 53 6e f3 3d
       0.040651437 -0.029086536 0.061584402 0.11886277
000300 42 2c c0 3b 72 39 f2 3d 4a 64 d6 3c 6d 07 8d bd
       0.005864651 0.11827363 0.026170868 -0.06886182
000310 29 69 14 bd 17 ce 24 bd 13 92 35 3d b2 32 c6 3c
       -0.0362331 -0.040235605 0.04432876 0.024194095
000320 d9 5c e7 3d ac 80 43 bd 45 f3 dc bc 53 07 21 3d
       0.11297006 -0.047730133 -0.026971469 0.039313626
000330 33 3b 3c 3d 96 89 b6 bb 7e bb 08 3d ca 4a 18 3e
       0.045954894 -0.0055706007 0.03338193 0.1487228
000340 26 df 32 3d 74 50 1f 3e 2b be 5e 3d cb ca b7 3c
       0.043669842 0.15558034 0.054380577 0.022435566
000350 d4 3c 85 3d 16 b2 b0 bd ae 3b e1 3d b1 f0 89 bd
       0.06505743 -0.08627717 0.10997711 -0.06735361
000360 eb 2d 24 bc e4 95 99 3c 05 1d ba bd de 8f d4 bd
       -0.010020713 0.018748231 -0.09087566 -0.10379003
000370 0b 84 a3 bd 8c 53 de 3a 61 be d4 3b de 53 f4 bc
       -0.079841696 0.0016962155 0.0064924215 -0.029825147
000380 16 33 bc bd 11 ba c4 3d fc 0c c2 bc 8b b0 da bb
       -0.09189431 0.09605802 -0.023687832 -0.0066738776
000390 4d 10 91 3b 07 68 6b bd a1 2a 0b 3e 38 dc aa bc
       0.004426992 -0.057472255 0.1359048 -0.020856962
0003a0 3f 99 93 3d be 2f d1 bd c6 44 61 bd 59 3f 1d 3d
       0.07206964 -0.10214184 -0.054997228 0.03839049
0003b0 af 23 e5 bd c0 7b 6f bc 54 01 51 3d 71 7a 96 bc
       -0.11188447 -0.014616907 0.051026657 -0.018368931
0003c0 ab b9 ac 3d 57 74 47 3d 51 85 b5 3d a3 8f 31 3d
       0.08433851 0.048694935 0.08863319 0.043349873
0003d0 91 51 9f 3c 51 dd d0 3c 5e 4e aa 3d 61 a0 29 bd
       0.019448074 0.025496157 0.083157286 -0.041412715
0003e0 9c 55 ec bd d6 70 1b bd d4 3a 65 bd ea 85 0b 3d
       -0.11539766 -0.037949406 -0.055964306 0.034063257
0003f0 b4 59 26 3d f8 9d bb bc dd f0 0c 3d 22 32 2d 3a
       0.04061289 -0.022902474 0.034409393 0.00066068966

network_body._body_endoder.seq_layers.4.bias f4 [256]
000000 0c 36 cb b9 d3 ce f4 3a e4 88 1b 3b 10 ec c5 3a
       -0.00038759445 0.0018677361 0.0023732716 0.0015100259
000010 95 45 f7 3b 73 07 81 3b b7 83 16 3b c7 db f5 3b
       0.0075461366 0.0039376556 0.0022966692 0.007503006
000020 b5 fd 81 3b d9 f8 57 3b 59 b7 93 3b 82 e7 e1 3b
       0.003967012 0.0032954721 0.0045079407 0.006894053
000030 af 1d d7 b9 bd 07 af 3b eb fe 68 bb 63 53 74 3b
       -0.00041030112 0.0053414986 -0.0035552334 0.0037281148
000040 4c 48 91 bb 40 1f 06 3c dd 93 37 3b 73 4e 2a 3b
       -0.0044336673 0.0081861615 0.0028011717 0.00259867
000050 5a 2e f0 3b 16 2e 2b 3b 46 cd a3 3a 48 3d b8 3a
       0.0073297443 0.0026119999 0.0012497089 0.0014056349
000060 c0 fc 52 3b 34 59 53 3c d7 5b 89 3b 61 d6 4a bb
       0.0032194108 0.012899686 0.0041918564 -0.0030950534
000070 6d 04 f2 3b 63 8e 8a 3c 6a a1 e3 3b 1c 0a db 3b
       0.0073857815 0.016913598 0.0069467323 0.0066845547
000080 98 69 ae 3a b8 3b 9c 3a ed 9a cf 3b b4 8b de b9
       0.0013306616 0.0011919653 0.0063356073 -0.00042447227
000090 e7 ae 3f 3b 3e a3 11 3c ec 37 f4 3b f6 88 14 3b
       0.0029248537 0.008889018 0.0074529555 0.0022664643
0000a0 3b 0d 81 3b 4b 9c fe 3b 8b db 02 bb 8a 6c ed 39
       0.003938345 0.0077700964 -0.0019967284 0.0004528503
0000b0 e1 4d 9c 3b df 10 54 3b 64 6e 1d bb 58 a7 a4 3b
       0.004770026 0.0032358689 -0.0024022097 0.0050248317
0000c0 4a f0 16 3c a0 e3 50 3b a1 c2 34 3c b3 fa ae 3b
       0.009212563 0.0031873956 0.011032731 0.0053399443
0000d0 48 19 17 3c f3 bf 00 3c 67 7c 32 3b 86 68 84 3b
       0.009222336 0.007858264 0.0027234794 0.0040407805
0000e0 45 ec 45 bb 73 61 53 bb 68 59 36 bb f7 d7 b8 ba
       -0.0030200642 -0.003225413 -0.0027824286 -0.0014102448
0000f0 43 2c 33 3c fd 78 50 3a 8a fd df 3a f9 59 00 3c
       0.010935846 0.0007952599 0.001708911 0.007833951
000100 78 82 05 3c e6 1b d4 3b fc 75 99 3b 8e 58 d0 3b
       0.008148782 0.0064730523 0.0046832543 0.006358213
000110 2d d6 a2 3b d0 78 67 ba e3 08 16 3a 4d 55 a4 3b
       0.0049693794 -0.0008829953 0.000572337 0.0050150515
000120 66 ab c0 3b 17 02 30 3b f5 74 b9 3b aa a8 a1 3a
       0.0058798073 0.0026856714 0.0056596943 0.0012333591
000130 5b 2f 16 3c e9 97 a6 3a 74 8e 61 ba 4c cb e9 3a
       0.009166564 0.0012710068 -0.0008604296 0.0017837076
000140 cf e1 03 3a ee 0e 51 3b e9 dc e2 3b 61 57 13 3c
       0.00050309015 0.0031899768 0.006923307 0.008993001
000150 2d 28 03 3c 8a 03 ef 3b 7d 61 a6 39 89 47 a2 3a
       0.008005184 0.007294123 0.00031734622 0.0012380938
000160 4e 7c bc 3b 0f 95 14 3c 66 44 21 3c 00 0f 66 3b
       0.005752123 0.009068741 0.009842968 0.0035104156
000170 05 1e 95 3b 70 e2 dd b9 ab 7a fa 3b e4 cb 45 3b
       0.0045506977 -0.00042321114 0.0076440177 0.0030181343
000180 0f c8 b2 3a 9f c3 aa 3a 14 f4 15 3b d8 7c ec b9
       0.0013639944 0.001302827 0.0022881078 -0.00045106444
000190 f7 69 d4 39 8d bc 7a bb 85 c5 ab ba e3 25 4d 3a
       0.0004051474 -0.0038259358 -0.001310513 0.0007825775
0001a0 3e a5 ae 3b 4d f9 a6 3b 35 81 2e bb 28 63 69 3b
       0.005329757 0.005095637 -0.0026627306 0.003561208
0001b0 9a ce 1e 3a f5 2a 19 3c 8f 32 98 38 3d 6e 95 3b
       0.0006058008 0.009348621 7.257342e-05 0.0045602606
0001c0 d2 6b e9 ba 78 8b f5 ba 43 87 31 3c cc da 2d 3c
       -0.0017808622 -0.0018733582 0.010835472 0.010611247
0001d0 a3 d0 b1 3b 90 9e 97 3b 53 bc 37 3c 4d 82 b8 3b
       0.0054264828 0.0046270564 0.011214334 0.0056307674
0001e0 6e a5 f6 3b ec dc f1 3b a8 1e f2 3b ae fb ca ba
       0.007527045 0.0073810723 0.0073889084 -0.0015486383
0001f0 5e 2a bb 3b 6e 14 a4 ba 1e f0 b7 3b fe 63 9d 3b
       0.0057118377 -0.0012518296 0.005613341 0.0048031798
000200 36 4a 96 3b d6 af 8b 3b ec 5c 0e 3a a5 f1 62 b9
       0.0045864834 0.0042629046 0.00054307166 -0.00021643059
000210 91 18 15 3b 21 60 49 3a 3f 9b fb 3a 36 ab 67 3b
       0.0022750238 0.0007681866 0.0019196047 0.0035349852
000220 ec 91 02 3c 83 44 35 bb d7 0d a2 3a d1 ad 33 bb
       0.007969361 -0.0027659244 0.0012363744 -0.0027416835
000230 42 6e ce b8 c2 fc 97 3a 57 a1 00 3b a6 c1 f0 3b
       -9.8433826e-05 0.0011595713 0.0019627416 0.0073473034
000240 d4 14 fe 3b 24 52 ec 3a c8 e8 79 bb 1a 17 ba 39
       0.0077539477 0.0018029851 -0.0038133133 0.00035493897
000250 7e a1 e2 3b f2 9f 23 3a 1c af 1a 3c b8 86 5a 3b
       0.006916224 0.000624179 0.009441163 0.0033344459
000260 5f a0 5f 3b 68 82 af 3b 78 a1 44 b9 48 49 cb 3b
       0.0034122688 0.005356122 -0.00018752168 0.006203804
000270 fe 56 b2 3b 67 5b 74 b9 50 ab 0d 3c 37 4b 12 3c
       0.005442499 -0.00023303703 0.008646801 0.008929065
000280 51 7b e4 ba 5c 59 da 3a 51 9b d4 3b 5a 62 02 3b
       -0.0017431771 0.0016658711 0.0064882417 0.0019895048
000290 80 d1 16 3c 9b 8a e5 3b 73 51 1a 3c b7 08 e4 3a
       0.009205222 0.0070050485 0.009418833 0.0017397617
0002a0 97 b9 f9 3a 05 b2 45 3a 7d 9f 1a 3b 1d b3 a5 3a
       0.0019052502 0.00075414806 0.0023593598 0.0012641881
0002b0 67 a6 80 ba bf 10 08 3c cc 27 02 3b 45 d5 7d 3a
       -0.0009815217 0.008304774 0.0019860147 0.0009682964
0002c0 8d 15 37 3c 0c f2 9e 3b 7f fd 85 ba 7c 68 c7 ba
       0.011174572 0.0048506316 -0.0010222642 -0.0015213634
0002d0 8f a3 f9 3b 8c 00 1a 3c b1 5a 3d bb 7f 9a 00 3c
       0.0076183747 0.009399544 -0.0028893168 0.007849335
0002e0 e8 d0 26 bb 2b 24 4a 3b 2b b1 dd 3b 47 0e 86 3b
       -0.0025454108 0.0030844312 0.006765505 0.0040910575
0002f0 00 46 e0 3b 79 3a 94 3b de b9 29 3b 0b 36 09 3c
       0.006844282 0.004523572 0.002589814 0.008374701
000300 0f f2 d7 3a f7 23 b4 3a 66 84 02 3c 88 dd b1 3b
       0.0016475337 0.0013743629 0.007966137 0.00542802
000310 fc 78 5a ba 61 2e c1 3b 07 c9 b3 3b 5e be c1 3b
       -0.0008334068 0.0058954214 0.005486611 0.005912586
000320 e0 52 bf bb d7 f5 f5 3a 48 21 12 3c 55 6f bf 3a
       -0.005838737 0.0018765283 0.008919068 0.0014605323
000330 56 9c e4 3b 59 4c bc 3b 84 0a 91 3b f4 3b 47 bb
       0.0069766445 0.005746406 0.0044263024 -0.0030400725
000340 cb eb 83 3b ce 17 29 3c 91 09 8f 3b b9 b0 59 3b
       0.0040259114 0.010320617 0.004365154 0.0033216907
000350 6c 3a 5b 3c 68 7a 54 bb 7e b9 d9 3a d5 cf ba 39
       0.013380628 -0.0032421593 0.0016611067 0.00035631532
000360 81 f3 bb 3b 3f c4 00 3b 74 0c 0d bb 15 f3 ae 3b
       0.005735815 0.0019648222 -0.0021522315 0.005339036
000370 03 90 b2 3a 8e a2 e0 3b 38 37 79 3b 71 21 11 3c
       0.0013623241 0.0068553155 0.0038027298 0.008858071
000380 b2 c9 d3 3b 95 91 fa 3a ad ec cb 3b e8 4c 14 bb
       0.006463253 0.0019116873 0.0062232823 -0.0022628848
000390 c4 4b 09 3c a6 8d e6 3b ad 99 79 bb 3e 32 0a 3c
       0.00837988 0.007035929 -0.0038085983 0.00843483
0003a0 01 25 c5 3b 86 99 94 bb 98 1e 91 ba 61 6a 00 3c
       0.006016374 -0.004534903 -0.001107174 0.007837863
0003b0 cd df 8b 3a b0 62 ab 3b 97 c4 44 3b 22 7d a5 b9
       0.0010671556 0.0052302703 0.0030024403 -0.00031564484
0003c0 cc 11 27 bb 70 9e 7c 3b f5 87 62 3b 25 8c 83 3b
       -0.0025492785 0.0038546585 0.00345659 0.0040145093
0003d0 3c 67 3c 3c 2a 38 58 ba 3e 3a e3 38 5a 3f 46 3c
       0.011499222 -0.0008248115 0.00010835052 0.012100065
0003e0 bf f1 89 3b db d4 69 3b be 16 e7 ba 1d c7 34 ba
       0.0042097266 0.003567985 -0.0017630679 -0.0006896125
0003f0 21 c7 0a 3c 54 4f da b8 c7 19 db 3b 07 0d 48 bb
       0.008470328 -0.00010409826 0.0066864225 -0.0030525343
