Assets/Training/results/RUN3/SzitakotoBehavior/SzitakotoBehavior-7999999.onnx (onnx, 670607 bytes, 13 tensors)

65 f4 [132]
000000 3e ef 91 3e 94 27 ed 3e ab 8e d3 3e 83 54 6d 3e
       0.2850284 0.46319258 0.41319785 0.2317677
000010 21 65 86 3e 20 e8 eb 3e 6e bc d6 3e aa 5b 71 3e
       0.2624903 0.46075535 0.41940635 0.23570123
000020 ef 9f 92 3e 80 75 f0 3e 28 e6 d8 3e 14 20 68 3e
       0.28637645 0.46964645 0.42363095 0.22668487
000030 8c af 51 3e dc eb ec 3e 40 9e e1 3e 9b 55 77 3e
       0.20477122 0.46273696 0.44066048 0.2415375
000040 8d 03 8d 3e 16 48 f2 3e 92 55 de 3e 1f 3f 64 3e
       0.27541772 0.47320622 0.4342466 0.22289704
000050 bf 06 19 3e da d7 ee 3e a5 28 e9 3e 59 0a 7b 3e
       0.1494398 0.46649057 0.45538822 0.24515666
000060 1f b7 81 3e 48 38 f2 3e 55 31 e2 3e 8e 30 62 3e
       0.25335023 0.47308564 0.44178262 0.22088835
000070 c4 0e fd 3d e3 87 f2 3e d7 e2 ee 3e dd 89 7d 3e
       0.12356332 0.47369298 0.4665744 0.24759622
000080 67 32 67 3e 37 6f f2 3e 39 3d e6 3e 2b 1f 61 3e
       0.2257782 0.47350475 0.44968584 0.21984546
000090 b4 63 e9 3d 87 77 fb 3e ed ae f9 3e 89 5a 82 3e
       0.1139597 0.4911463 0.4876627 0.25459698
0000a0 20 64 53 3e e2 93 f6 3e a9 65 ee 3e 58 f2 63 3e
       0.20643663 0.481597 0.46561936 0.22260416
0000b0 d4 1d 92 3e 28 0e ed 3e 3b de d3 3e 7a e6 6b 3e
       0.28538382 0.46299863 0.41380486 0.23037139
0000c0 68 92 86 3e 59 cf eb 3e ba f8 d6 3e f8 e7 6f 3e
       0.26283574 0.4605663 0.41986638 0.23428333
0000d0 2f da 92 3e f3 38 f0 3e 1d 36 d9 3e 17 9f 66 3e
       0.28682086 0.4691845 0.42424098 0.22521625
0000e0 35 17 52 3e 09 d5 ec 3e 14 db e1 3e f0 32 76 3e
       0.20516665 0.46256283 0.44112456 0.24042869
0000f0 86 40 8d 3e 88 35 f2 3e e1 7d de 3e f5 a7 62 3e
       0.2758829 0.47306466 0.43455413 0.22134383
000100 b6 53 19 3e 0e b5 ee 3e 48 5a e9 3e ec 71 79 3e
       0.1497334 0.4662251 0.45576692 0.24359864
000110 74 de 81 3e a3 2b f2 3e e7 5f e2 3e f1 59 60 3e
       0.2536503 0.47298917 0.44213793 0.2190931
000120 25 80 fd 3d 4b 52 f2 3e 65 0e ef 3e 91 ee 7b 3e
       0.12377957 0.4732841 0.4669067 0.24602725
000130 16 7d 67 3e 53 31 f2 3e 33 90 e6 3e a1 57 5f 3e
       0.2260631 0.47303256 0.4503189 0.21810772
000140 39 ae e9 3d f9 6a fb 3e e4 d4 f9 3e 42 7d 81 3e
       0.114101835 0.4910505 0.48795235 0.25290877
000150 a6 a4 53 3e 28 78 f6 3e 20 8b ee 3e 4c 31 62 3e
       0.20668277 0.48138547 0.4659052 0.22089118
000160 02 4c 92 3e 43 ec ec 3e df 32 d4 3e ff c5 6a 3e
       0.28573614 0.46274003 0.41445062 0.22927092
000170 36 be 86 3e af b5 eb 3e ad 64 d7 3e ec 6f 6e 3e
       0.26316994 0.4603705 0.42068997 0.23284882
000180 15 12 93 3e a2 20 f0 3e 68 65 d9 3e 9e fd 64 3e
       0.28724733 0.46899897 0.4246018 0.22362372
000190 cf 73 52 3e a9 c5 ec 3e 25 1a e2 3e 0b aa 74 3e
       0.2055199 0.46244553 0.44160572 0.23892991
0001a0 80 7f 8d 3e 79 0c f2 3e a2 d4 de 3e 0d 3d 61 3e
       0.27636337 0.4727514 0.435216 0.21995945
0001b0 c1 9f 19 3e c3 94 ee 3e fc 87 e9 3e 48 0e 78 3e
       0.15002348 0.4659787 0.4561156 0.24224198
0001c0 0a 06 82 3e 7e 06 f2 3e d3 8a e2 3e f6 e8 5e 3e
       0.25395232 0.47270578 0.4424654 0.21768555
0001d0 13 f6 fd 3d 46 26 f2 3e e9 61 ef 3e 5a 56 7a 3e
       0.124004506 0.47294825 0.46754387 0.24447003
0001e0 42 cb 67 3e c7 17 f2 3e df fb e6 3e e4 cd 5d 3e
       0.2263613 0.47283766 0.45114037 0.21660572
0001f0 a8 f9 e9 3d af 5e fb 3e 37 f3 f9 3e 8f ae 80 3e
       0.11424571 0.49095675 0.4881837 0.25133178
000200 2c e4 53 3e e4 66 f6 3e 50 ae ee 3e 58 5b 60 3e
       0.2069251 0.48125374 0.46617365 0.21909845

68 f4 [2]
000000 26 cd 7f 3e 26 ae a2 3e
       0.24980602 0.3177349

action_model._continuous_distribution.log_sigma f4 [1, 2]
000000 a6 c1 8d bd 5d 93 2c 3b
       -0.06921701 0.0026332953

action_model._continuous_distribution.mu.bias f4 [2]
000000 9d 36 1b ba 11 1d 4e bb
       -0.0005920919 -0.003145043

action_model._continuous_distribution.mu.weight f4 [2, 256]
000000 20 6b d2 bc 4f 44 2c 3c 91 8f a7 bc 3c e2 09 3c
       -0.025685847 0.010514333 -0.0204542 0.008415755
000010 22 ff fd bc 3c c2 dd 3c 6e dc 87 3c 42 e5 a3 3c
       -0.031005446 0.027070157 0.016584601 0.02000678
000020 fc 1a b0 3b 49 98 7b 3b a4 bf cc 3c d3 8f 96 bc
       0.0053743105 0.003839033 0.024993725 -0.018379128
000030 4f b3 3a 3d d8 4a 1d bd ab 30 5d bc f5 db 15 bb
       0.04558116 -0.038401455 -0.013500373 -0.00228667
000040 4e 02 16 bc 54 b6 c9 3c 8b 36 c2 3c 06 ea f9 bc
       -0.009155823 0.024623074 0.023707649 -0.030507099
000050 ee ef 6b bc d6 2d 35 3c 0e c2 65 3c bc 9b 50 bc
       -0.014400465 0.011058291 0.014023317 -0.0127324425
000060 b4 83 3d bc 82 d7 b3 bc 58 dd f2 3c 52 7d ca 3b
       -0.011567045 -0.021953348 0.02964656 0.00617949
000070 15 92 e3 bc 15 03 81 bc b8 fc eb 3c a7 b5 e5 bc
       -0.027779618 -0.01574854 0.02880703 -0.02804072
000080 4a 9e 50 bc 2b 29 75 bc e2 ba 5c bc bc ad 9d bc
       -0.012733052 -0.0149634285 -0.013472291 -0.019247882
000090 c1 c0 4c 3c c5 02 97 3b de b0 cc bc ae b5 20 bc
       0.012497128 0.0046084845 -0.02498668 -0.009808941
0000a0 d7 e4 8e bc af c4 65 bc 97 d5 67 3c 18 9c 26 bd
       -0.017443104 -0.014023944 0.014150045 -0.040676206
0000b0 b8 24 91 bc d1 cc 02 ba 82 b8 3c 3c a4 03 14 3d
       -0.017717704 -0.00049896265 0.011518599 0.036136284
0000c0 26 71 a5 bc a3 60 b7 3b 63 df 17 bd 2b 35 03 bd
       -0.020195555 0.005596237 -0.037078273 -0.032033127
0000d0 e3 0e 55 3d fc 46 13 bd 7c 8a e3 39 67 1f 07 bd
       0.05201615 -0.035956368 0.00043399993 -0.032988932
0000e0 96 cc 50 bc ae 07 d4 bb 9a 9e 85 3c 5d 44 58 bc
       -0.01274409 -0.006470642 0.016310979 -0.013199893
0000f0 d5 10 13 3d 4a 79 86 bc db c0 4f 3c 91 3d 30 bd
       0.035904724 -0.016415257 0.012680258 -0.043027464
000100 80 cb b5 bc fd 51 85 bc ad cd 00 bc d5 44 86 bc
       -0.022191763 -0.016274447 -0.007861537 -0.016390244
000110 f6 29 e2 3c ce 5b 67 bc 14 c9 8a 3b 7e da 35 3c
       0.0276079 -0.014121009 0.004235396 0.011099456
000120 2f 73 72 3d f7 46 89 bb 04 05 0c 3c df 04 91 3c
       0.05919188 -0.004189368 0.008546118 0.017702518
000130 50 ae 92 3c 33 b0 be 3b 03 e2 a9 3c 03 4a 0b 3c
       0.017905384 0.0058193444 0.020737654 0.0085015325
000140 70 1e df 3c 9d 70 97 bb 3f 41 ef bc 42 f1 22 3d
       0.027236193 -0.004621579 -0.029205916 0.039780863
000150 8d 78 c1 bc d5 fc 88 3c 7d 54 b3 bb 9a 9b de 3c
       -0.023617053 0.016722122 -0.0054727183 0.027173806
000160 ef f3 34 3c c4 1e 34 ba 49 3c d5 bc 6f 3d 54 bc
       0.011044486 -0.00068710395 -0.026029723 -0.0129541
000170 af 59 63 ba cf 39 7a 3b 6d 50 6c bc 75 bc 1e 3c
       -0.00086727267 0.003818143 -0.014423472 0.009688486
000180 80 e6 36 3b bd ff 5f bc 15 cb bc 3b 39 dd 57 3c
       0.0027908385 -0.013671813 0.005761514 0.013175302
000190 18 95 19 3c af d8 26 bc 2e 98 06 bc 56 f4 d7 3c
       0.009373926 -0.010183497 -0.008214993 0.026361626
0001a0 17 56 33 bc 32 73 66 3c 40 3c 9d 3b f4 57 84 3b
       -0.010945818 0.014065551 0.004798442 0.004038805
0001b0 c6 0e 37 bb 37 11 3e 3d 04 f8 86 3c a7 fd c9 bb
       -0.002793239 0.046403136 0.016475685 -0.006164271
0001c0 d9 87 ad bc cd a1 14 3c dd 1e 5f bd 5d e6 0a 3c
       -0.021182941 0.009071779 -0.054472793 0.008477774
0001d0 7d 68 2b 3b d2 65 29 3d 8a 30 13 3c 05 60 d6 bc
       0.002615481 0.04135687 0.008983741 -0.026168833
0001e0 d5 b7 1b bd 2f 11 c1 bc 4a ce 7d bc 66 f2 21 3b
       -0.038017113 -0.023567764 -0.015491078 0.002471113
0001f0 56 7c 91 3c a8 f7 71 3c bb 43 b1 3b 16 8b 17 3c
       0.017759483 0.0147685185 0.0054096854 0.009249469
000200 c9 d2 98 3c b8 61 79 3d 02 65 c7 3c 2e ee 28 3c
       0.018655198 0.060884207 0.024340156 0.010310693
000210 a2 dc 36 bb c8 5a 9f bc 33 3c 72 bc 8d 1c ab bc
       -0.0027902503 -0.019452468 -0.01478486 -0.020887638
000220 27 ad 35 bb 4e 48 71 bc 7f e8 5c bb bc 9f 79 bc
       -0.0027721615 -0.014726711 -0.0033707914 -0.015235838
000230 88 ac 51 bc f1 09 5b bc 29 87 ab 3c 36 13 53 bc
       -0.012797482 -0.013369069 0.020938473 -0.012882998
000240 9c 7b d7 bb b9 bb 82 3c a4 bc 22 bc 4d b7 65 3c
       -0.0065760147 0.015958654 -0.009932671 0.014020753
000250 8c fb c8 3c 91 10 80 3c 68 f4 e8 3c 6e c9 b0 3c
       0.02453401 0.0156329 0.028436854 0.021580424
000260 fe 8d 1c 3d 7d 68 ea 39 67 a0 d7 3b e0 c0 d0 bb
       0.03822135 0.00044709808 0.0065804007 -0.0063706487
000270 f5 8a 5b 3c b9 64 e4 bb ca 0d 2f 3d d3 07 3e bc
       0.013399829 -0.006970015 0.04273776 -0.011598545
000280 43 22 8b bb 35 b7 28 3c 3c fa 11 bb 4a 83 bc 3b
       -0.0042460277 0.010297586 -0.0022274395 0.0057529556
000290 ef d1 0a bd 3a 4e e1 3b 8a 0d d9 bc 41 04 9b 3c
       -0.033891615 0.0068757804 -0.026495714 0.018922927
0002a0 17 b1 e5 bc ed b3 d8 bb b3 8e 95 bb 59 66 75 bb
       -0.028038545 -0.0066132457 -0.00456413 -0.0037445037
0002b0 77 6e e0 3c 63 c8 b7 bc 9f 6e b2 ba 73 43 45 3c
       0.027396424 -0.022434419 -0.001361329 0.012040007
0002c0 4c 30 12 bd bf 99 e4 3c 73 f7 a7 3c d1 e3 dd bc
       -0.03569059 0.027905343 0.020503735 -0.02708617
0002d0 23 91 ed bc b5 77 72 bc 65 b1 24 bc 43 8c 5c bc
       -0.02899987 -0.014799048 -0.01005206 -0.013461175
0002e0 13 da bf bb b1 1b e1 bb 58 85 93 3c 3d 42 d8 3b
       -0.005854854 -0.006869756 0.01800792 0.006599693
0002f0 bc 1b f7 3c b3 ca c3 bc b7 33 db 3b 37 db 24 3d
       0.030164592 -0.023900365 0.0066895145 0.040248122
000300 30 0e 97 3c 52 cd 98 3c 9b f3 ec 3c 99 2b 82 bc
       0.018439382 0.018652592 0.028924754 -0.01588993
000310 b3 88 a2 3c 99 4b 8d 3c ad bb bf 3c 4e 85 1f bc
       0.019840574 0.017247962 0.02340492 -0.009736372
000320 e5 67 5d 3a 92 9d 56 3b 1b ce 89 bc b1 1f d6 3c
       0.00084459624 0.0032747728 -0.016821912 0.026138159
000330 0f 51 30 3c 49 ed dc 3c 36 f1 e6 bc 2a eb 4a 3c
       0.010761513 0.026968615 -0.02819119 0.012385169
000340 3c 44 95 bb f1 ac b4 bc e0 56 35 3b 57 7a c3 bc
       -0.0045552533 -0.022055121 0.002767019 -0.023862047
000350 3d f4 ec bc 05 c7 a4 3a e0 cc 8f bc b8 2a 18 bc
       -0.028925056 0.001257152 -0.017553747 -0.009287529
000360 8f bf 32 bc dd e7 95 bb 17 a6 c3 ba 31 96 ab 3c
       -0.010909929 -0.0045747594 -0.0014926818 0.02094564
000370 08 a3 cc 3c 0a 01 3b bd c2 1b d9 bc 12 b9 0d bd
       0.024980083 -0.045655288 -0.026502494 -0.034600325
000380 5d d5 36 bc 45 a2 6a 3b 54 bf 98 3c cb 92 23 3c
       -0.011159268 0.0035802287 0.01864592 0.009983729
000390 19 91 a2 3c 46 ff 51 3d 32 68 0e 3c 31 25 cf bc
       0.019844579 0.05126884 0.008691834 -0.025286289
0003a0 fb be c6 3c 99 ce bb bb b5 d3 be 3b 8c 6a b5 bc
       0.024260988 -0.0057314155 0.0058235773 -0.022145532
0003b0 6a 00 cf 3a 81 61 ab bc bc 67 51 3c 21 2e 3c bc
       0.001579297 -0.020920517 0.01278108 -0.011485607
0003c0 e0 a9 06 bc 36 df 6b 3c 06 f0 d7 bb 98 b2 a6 3c
       -0.008219212 0.014396479 -0.0065898923 0.020348832
0003d0 07 09 5c 3c 74 ed 12 3d 92 46 89 3b a8 6a 9b 3c
       0.013429887 0.035870984 0.004189321 0.018971756
0003e0 d9 42 42 3c 9c cc fc 3c 2f 53 13 bb ae 16 26 3c
       0.011856758 0.030859284 -0.0022480001 0.010137243
0003f0 e0 cb bc bc 99 87 37 bc f2 10 a4 bc e2 30 7c 38
       -0.023046434 -0.011201763 -0.020027611 6.0127008e-05

network_body._body_endoder.seq_layers.0.bias f4 [256]
000000 aa 6e 92 3c 9e e3 64 bb 69 c2 35 3b fe d6 62 3c
       0.017875034 -0.003492571 0.0027734286 0.013845203
000010 4a a8 90 3c 0c cc cd ba f1 98 44 3c 8c 23 bc 3b
       0.017658371 -0.001570107 0.011999355 0.005741542
000020 b3 f6 bb b9 b2 75 b3 3b 7f e1 0f 3c 87 7c 0b bc
       -0.00035851225 0.005476677 0.00878179 -0.008513576
000030 c9 6c 6f 3b 16 c4 5c 3c 7f 22 12 3c 13 34 6a 3c
       0.0036533347 0.013474485 0.008919357 0.014294642
000040 89 9b 7d 3a e4 4b 82 3c 6d d2 fa 3c c4 de ea 3b
       0.00096743606 0.015905328 0.030617917 0.007167669
000050 58 30 9c 3b ef 9e b7 3c 71 a1 86 bb 77 b4 a9 ba
       0.004766505 0.022414653 -0.004108601 -0.001294746
000060 69 cc 2a 3c 32 b0 43 3b 00 49 2f 3b 5d fb 61 3b
       0.010424712 0.002985966 0.0026746392 0.00344821
000070 d8 fd 0c bc ea 01 3d 3c cb ce 25 3c 95 01 f4 3b
       -0.008605443 0.011536101 0.010120104 0.0074464777
000080 62 78 4c 3b 57 13 8c 3a 6a 64 df bb 76 38 bf b9
       0.0031199683 0.0010686916 -0.00681739 -0.00036472426
000090 e6 7c d8 39 0c 40 18 3c 6a 2c 11 3c d7 97 91 3c
       0.00041291787 0.009292614 0.008860687 0.017772598
0000a0 b6 36 12 bb b8 31 d5 3b 10 fe ab ba c9 4c 28 3b
       -0.0022310442 0.006506171 -0.0013121981 0.0025680533
0000b0 c8 00 75 3c 6c 6a 82 3a 77 2b 81 3c 8d c5 80 3c
       0.0149538 0.0009949929 0.015767796 0.0157192
0000c0 1b e7 62 3b 24 98 1a 3c ea 2b 84 3c 1c 61 f9 3b
       0.0034622613 0.009435687 0.016134221 0.0076104533
0000d0 ba ab 17 3c 40 bb ab 3c 72 4a a7 bb 24 f0 94 bb
       0.009257251 0.020963311 -0.00510531 -0.0045452286
0000e0 c1 7d 0a 3c 31 19 e5 3b a6 6a 47 bb 45 7a 4e 3a
       0.008452834 0.0069915284 -0.0030428558 0.0007876496
0000f0 5b 77 0f 3c 65 5c 12 3c 2f 03 d2 ba ef 65 6b 3c
       0.008756484 0.008933161 -0.0016022677 0.014367565
000100 f6 06 05 3c e7 3f 10 3c 79 aa 4d 3c be 70 c2 3b
       0.008119335 0.008804298 0.012552851 0.00593385
000110 fb 93 ef bb 74 31 0f bc 7c ef 0f 3c 17 3c 9e 3b
       -0.007311342 -0.008739818 0.008785125 0.0048289406
000120 ed a0 ca bb c5 d8 35 3b 32 09 1c bc ef d4 94 3a
       -0.0061837346 0.0027747613 -0.009523677 0.0011354963
000130 f7 cf 0e 3c 89 c3 e3 3a 57 f1 2a 3b f5 d5 11 ba
       0.008716575 0.0017377 0.002608379 -0.0005563193
000140 57 eb b0 3b 13 fe 50 bb 1d c4 bb 3b 9b 31 0b 3a
       0.0053991484 -0.0031889721 0.0057301656 0.0005309821
000150 54 34 d4 3a b4 af 1b ba 77 5f 30 ba 6a e5 76 3c
       0.0016189911 -0.00059389626 -0.00067280926 0.015069345
000160 b4 f0 81 3a af 74 fd 39 c2 42 19 3c e9 52 17 3c
       0.0009913654 0.00048342856 0.009354295 0.009236076
000170 e7 8c 06 3c da 27 76 3c de a2 40 3b b3 9e bc bb
       0.008212305 0.01502415 0.0029393951 -0.005756223
000180 28 52 c5 bb 60 aa 03 3c 65 62 0b 3c 9b 21 a5 3b
       -0.0060217567 0.008036226 0.008507346 0.0050394065
000190 24 98 81 ba 18 5b 25 3c 5f 74 0d bc 0d fd 56 3c
       -0.000988726 0.010092519 -0.008633702 0.013121855
0001a0 df 58 2f 3c d8 e6 26 3c 03 8c 11 3c 8d ac 99 3c
       0.010702341 0.010186873 0.008883479 0.018759036
0001b0 17 fb 0e 3c 6a 57 e6 3b 07 d4 29 3b e7 90 46 3b
       0.008726857 0.0070294635 0.0025913732 0.003029877
0001c0 ea fb 03 3a ca c4 06 3a e1 6f 7f ba 24 46 36 3b
       0.00050347915 0.0005141018 -0.0009744149 0.0027812803
0001d0 2d 83 4e 3c 91 0f 94 bb 61 ab b9 3b d1 2b a5 3b
       0.012604517 -0.004518457 0.005666182 0.0050406237
0001e0 b0 cd 3c 3b 27 b5 89 bb 33 41 c1 3b e0 2b 46 3c
       0.0028809123 -0.0042025032 0.005897665 0.012095422
0001f0 02 22 2f 3b 10 5e 3c 3c 38 3e 88 bb 43 1a 36 bb
       0.002672315 0.011497036 -0.0041578077 -0.002778665
000200 7c 60 24 3c ea 3a 34 3c 9c fe 58 3c 10 6f fc 3b
       0.010032769 0.011000374 0.013244297 0.0077036694
000210 e6 27 d5 3a 14 24 42 bb cf 9f 44 3c 12 b4 74 39
       0.0016262501 -0.0029623555 0.012000992 0.00023336735
000220 bb a0 76 3c 26 26 8c 3b c6 21 39 3b 29 ed a0 ba
       0.01505297 0.0042770086 0.002824889 -0.001227771
000230 8d 7b 26 3c 95 01 09 3b b9 1a d9 3b 63 7c 3b 3c
       0.010161293 0.0020905484 0.0066255 0.01144323
000240 d7 15 fb 3b ee f3 23 3c 38 59 ee bb 1c dc 9a 3b
       0.0076625156 0.010006888 -0.0072738193 0.004725946
000250 09 02 11 3c 13 f7 9e 3b ce 22 c9 3b 5d 79 25 3c
       0.008850583 0.004851231 0.0061381822 0.010099736
000260 b9 e4 aa 3b 6a ea 06 3c 63 5d b1 3b 07 9b 63 3b
       0.005215254 0.0082346 0.005412744 0.0034729855
000270 9f 6f 04 3b ad 01 a0 3b 9e bb 9c 3b d0 9c 3a bc
       0.0020208133 0.0048830123 0.004783108 -0.011389926
000280 15 43 43 3c 7e a7 5c 3c 45 05 be 3b d9 65 7a 3b
       0.011917849 0.013467668 0.005798968 0.0038207679
000290 f6 37 63 3c 3a d6 42 3c 0f 84 f4 3b e0 29 26 3b
       0.013868323 0.011891896 0.0074620317 0.002535455
0002a0 62 a9 5e bc 49 fc 76 ba 08 9e 83 3c 5b c7 a7 3c
       -0.013590189 -0.00094217487 0.016066566 0.020480802
0002b0 d0 0b 94 3a c2 a2 e7 bb c0 b8 4c 3c ef a2 8e 3b
       0.0011295024 -0.007068963 0.01249522 0.0043529193
0002c0 14 03 5a b9 cc a7 32 3c 96 dd 6d 3b b5 03 0e 3c
       -0.00020791247 0.010904264 0.0036295406 0.008667876
0002d0 b6 15 64 3b 0b c9 42 3c e7 78 b5 ba 5b 90 8b 3b
       0.003480298 0.011888753 -0.0013845236 0.004259152
0002e0 65 9d 46 3c a2 bc 05 3c 0a dd 22 3c 2c 99 fb 3b
       0.012122487 0.008162649 0.009940395 0.0076781716
0002f0 44 d1 90 3c 33 3c fd 3b 5a aa f8 bb 8c da 52 3c
       0.01767791 0.0077281236 -0.007588667 0.012869488
000300 1a 03 4f 3a 58 d1 d7 bb 95 56 7b 3b c8 e8 2e bc
       0.00078968855 -0.006586235 0.0038351167 -0.010675617
000310 26 52 09 bb ca 62 9b bb 31 5f b5 3c e1 7c 50 3b
       -0.0020953505 -0.004742001 0.022140117 0.0031812715
000320 c7 f3 4e 3a 6e 00 24 3c 0b bb 3e 3c e0 39 be bb
       0.0007894602 0.010009868 0.011641274 -0.005805239
000330 f2 a5 a5 ba c6 36 c3 b8 af 41 f0 bb f4 61 cc 3b
       -0.0012637957 -9.308527e-05 -0.007332049 0.006237263
000340 fe 39 0b 3b 2c 53 03 3c fb b2 ff 3a e0 5a 5d 3c
       0.0021244283 0.008015435 0.0019508296 0.013510436
000350 37 48 42 bc e6 1d 44 3c c9 b4 3c 3b 76 e6 07 3c
       -0.011858038 0.011970019 0.002879428 0.008294692
000360 8d 3b 18 3c 12 67 61 bb 09 46 bb 3b 91 67 2f bc
       0.009291542 -0.003439371 0.005715136 -0.0107058445
000370 fa 3a 3f 3c 6a ea ea 3b 6f f4 d5 39 12 d8 93 3c
       0.011671776 0.0071690576 0.00040808643 0.018047366
000380 75 5b 4d bb 05 ac 0c 3c 17 be 06 3c 8c 49 b2 3a
       -0.003133503 0.0085859345 0.008224032 0.0013602241
000390 8f 5e be 3b d4 cc d0 ba d7 7f 84 3c a0 e8 76 3a
       0.005809612 -0.0015930184 0.01617424 0.0009418819
0003a0 7f cb 62 3c e1 59 9b 3c 98 e8 5a 3c a9 9c 35 3a
       0.013842463 0.018963756 0.013361119 0.0006927946
0003b0 56 62 49 bc 24 6a 49 3b af 6d 48 3c 6f 5b 1d 3b
       -0.0122915115 0.003073343 0.012233182 0.0024010797
0003c0 ce ab 4a 3c 2f 4a 82 3c fc 2e c9 3a 8b 66 c8 3b
       0.012370063 0.015904514 0.0015349085 0.0061157397
0003d0 4a 3e 45 3c d5 77 23 3a 0d a1 cf ba 67 23 b9 bb
       0.012038777 0.0006235813 -0.0015840844 -0.0056499722
0003e0 03 c4 ec 3b 7b d0 b4 3b 72 ab 9d 3a 01 19 22 3c
       0.007225515 0.005518017 0.0012029244 0.009893657
0003f0 74 6a 72 3b 70 de 3a 3c 9f 07 ad 3b 4b 92 0f 3c
       0.003698972 0.011405572 0.0052804495 0.008762906

network_body._body_endoder.seq_layers.0.weight f4 [256, 134]
000000 d0 79 48 bd a1 66 26 3d 7b 7d c5 bd 67 46 fe bc
       -0.048944294 0.04062522 -0.09643074 -0.03103943
000010 ad 11 9d bd c2 ea c4 3d 09 be 87 3d 12 26 35 be
       -0.07669387 0.09615089 0.06628043 -0.17690304
000020 97 d1 58 bd b6 59 08 be 04 83 74 3a ea 09 d9 bd
       -0.052934255 -0.13315472 0.0009327384 -0.10597594
000030 51 c7 4a be c7 90 84 3c 7c 60 40 bb bb b0 28 be
       -0.19802596 0.016182316 -0.0029354384 -0.16473667
000040 9d d2 35 3e 3a 3f 32 bd 88 b6 9f 3d b8 4b 07 3d
       0.17756124 -0.04351733 0.07798487 0.033031195
000050 1b 8d c1 bc 19 c4 20 3e a9 86 8c 3d 71 ea 91 3d
       -0.023626855 0.15699805 0.06861622 0.07124794
000060 b7 b1 96 bd fd b1 49 3d 99 d3 80 bd 77 e8 d8 3c
       -0.07358115 0.04924201 -0.06290359 0.026478035
000070 bd 69 95 bd 00 da a4 3d fe f8 06 3e c2 1e 00 3e
       -0.072955586 0.08049393 0.1318092 0.12511733
000080 6d 1f d5 bd fe e5 86 3c d5 99 a8 bc 81 18 cd 3d
       -0.104063846 0.01646709 -0.020581165 0.100144394
000090 51 fc c1 3d bf b4 83 3c 8a 32 b4 bd a3 8b 08 3e
       0.09471954 0.016077397 -0.08798702 0.13334517
0000a0 d3 35 1f be 80 9a 3b 3c da eb 9d 3c 14 23 da bd
       -0.15547876 0.01145041 0.019277502 -0.10651222
0000b0 e0 7c 25 bd e1 2c 9f 3d 33 7a 07 be a4 74 a5 bd
       -0.040402293 0.07772232 -0.13230209 -0.08078888
0000c0 25 2a ed bd 7f d5 c1 bc f4 13 6f 3d bb 03 32 be
       -0.11580304 -0.023661373 0.05836864 -0.17384236
0000d0 9b 48 81 3b dd af 8d bd 84 2f 28 bc 2d 53 18 3c
       0.003945423 -0.06918309 -0.010265235 0.009297174
0000e0 ad b8 65 3d f7 9b 6b bd 42 fd 28 3d d1 9b 0d be
       0.056084324 -0.057521787 0.04125715 -0.1382897
0000f0 a6 a1 ee bd 92 31 0a be c0 d3 ea bc f4 99 eb 3c
       -0.11651926 -0.13495472 -0.028665423 0.028759934
000100 ee 36 c4 bd 12 9a fd bd 58 6d 2d bd 5d a3 04 bd
       -0.095807895 -0.12382902 -0.042340606 -0.032382358
000110 17 fa ce 3b f1 e3 9a 3d f8 a8 f5 bc 1b 3c f8 bd
       0.006316434 0.075630076 -0.029987797 -0.12120839
000120 c5 5a 29 be a4 b9 6f 3d 09 74 03 3e 9f e4 b5 bd
       -0.16538532 0.05852665 0.12837233 -0.08881497
000130 a1 65 23 be 2c b2 01 3d d9 5f cf 3d fb 51 1b bd
       -0.15956737 0.03166406 0.10125703 -0.03791998
000140 d1 1a 6a bc 42 f4 7c bd 48 1b 86 bc b1 73 0e bd
       -0.01428862 -0.06175638 -0.01637043 -0.0347783
000150 8b 68 52 3d cf 24 32 3d ff 86 dd 3d 04 23 2b bd
       0.05136923 0.043492135 0.10816764 -0.04178144
000160 13 74 ea bd ab 7c 85 3d 68 32 50 be 64 af 97 bd
       -0.11447921 0.06517919 -0.20331728 -0.074065
000170 fc 1d 68 bd cc 86 d0 bd 0d 22 8f 3d 1a 6f e9 3a
       -0.05666922 -0.101819605 0.069889165 0.00178096
000180 81 1e 07 3d d3 5b 86 3d b5 57 8b 3d 39 75 f6 3c
       0.032988075 0.06560483 0.06803838 0.030085193
000190 a5 f6 a5 bd 97 02 48 be 39 c9 71 bd 93 34 d0 bc
       -0.08103684 -0.19532238 -0.05902979 -0.025415694
0001a0 f9 98 18 3e aa 50 6a bd 68 68 fa 3d 7f a2 ee 3d
       0.14902104 -0.057205833 0.12226945 0.116520874
0001b0 f1 fd 30 ba 96 e1 7f 3d 51 99 4c 3e 4e 2f 42 3e
       -0.00067517074 0.062470995 0.1998036 0.18963358
0001c0 56 6f a3 3d 23 cf a0 bc 77 c4 cb 3c 3b 17 12 3d
       0.0798022 -0.01963002 0.024873955 0.035666686
0001d0 b7 c4 55 bd b9 e9 25 39 dd 4d 68 3d c8 70 05 3d
       -0.052189555 0.00015822695 0.05671488 0.03257826
0001e0 73 43 68 3b 7b 02 4d bd 5d 36 97 bd a2 12 90 3d
       0.0035440593 -0.050051194 -0.07383416 0.07034804
0001f0 8f b4 b0 3c ec 68 06 3b 43 81 2e 3d d9 9d 62 3d
       0.021570472 0.0020509316 0.042603742 0.055326317
000200 a7 9c df bc eb c4 af 3b 7f 51 48 3d b8 38 85 3b
       -0.027296377 0.0053640506 0.048905846 0.0040655993
000210 0b 5e 2b 3e 2b f7 ee bd 6d 70 1a 3e f0 30 45 3c
       0.16735093 -0.11668237 0.1508195 0.012035593
000220 c3 35 ff 3d 9c 5c 9d 3d 81 4a ad 3d ff 1e b9 3c
       0.12461426 0.076836795 0.08461476 0.022597788
000230 77 13 51 bb f7 6f 0d bd 0c 09 9a 3d d0 81 4e bd
       -0.003190247 -0.034530606 0.07521257 -0.050416768
000240 7e f4 d8 3c 61 0e 33 3e 5a a2 09 bd 0d 9c 0f be
       0.02648377 0.17485954 -0.033602096 -0.14024372
000250 d7 49 dc 3c e9 bd 01 bd c3 38 7a 3b 0b 9b 41 3d
       0.026890678 -0.031675253 0.0038180805 0.047267
000260 fc 59 d3 bd ae 0d 0c 3e fa 88 d3 bb af 2e b0 bc
       -0.103198975 0.13677093 -0.006455538 -0.021506635
000270 b6 62 51 bc ba 70 91 bd 84 d6 86 bc 8c 82 3d bd
       -0.012779882 -0.07101579 -0.01645971 -0.046267077
000280 d6 5c 66 bd eb 41 bd 3b 6e e3 e4 3c 3d 64 d1 bc
       -0.05624088 0.0057756803 0.027940478 -0.025560493
000290 de 25 cd bd f6 ca 33 3e 8e 26 f7 bd c3 b5 f6 3c
       -0.10016988 0.17557892 -0.120679006 0.030115968
0002a0 6a 07 a0 bd 57 2d 18 3e fc 39 19 3e de 36 db 3c
       -0.07813914 0.14861046 0.14963526 0.026759561
0002b0 73 bd 5b bd bc 15 0d 3d 9d 72 84 3b 38 3f 07 3d
       -0.05364747 0.034444556 0.0040419833 0.033019274
0002c0 e3 01 d5 bc f5 5b 11 bc 1e e2 f9 bd 51 f2 02 bc
       -0.026001876 -0.008872022 -0.122013316 -0.007992343
0002d0 b4 49 f2 3b 62 34 73 bd 63 73 36 3e f9 c1 4d be
       0.00739404 -0.059376128 0.17817454 -0.20093526
0002e0 99 b3 31 3d 19 b8 57 bb bd d5 65 3c ee 87 c1 bd
       0.04338417 -0.0032916127 0.01402801 -0.09449755
0002f0 2a 9e 84 bd c5 41 13 be c0 88 43 bd d9 7a 26 3c
       -0.0647548 -0.14380558 -0.047737837 0.010161125
000300 c5 23 25 bd ba ad a7 bd ce ba 87 3d e7 89 78 3d
       -0.040317316 -0.081874326 0.06627427 0.06067839
000310 62 bb 04 be 0f 46 26 3d 22 6e 44 bd 38 9b 58 3e
       -0.12962106 0.040594157 -0.047956593 0.21152961
000320 64 59 bb bc 89 e4 97 bc 95 69 18 bd cd 0c ed bc
       -0.022869773 -0.018541591 -0.037210066 -0.028936768
000330 ce 9b 26 bc f7 8c d6 bd 2a b8 8c 3d 17 d3 f3 bc
       -0.010168983 -0.10476106 0.06871064 -0.029763741
000340 04 73 ee 3c 63 fa 8b bd e5 31 92 bd 99 73 15 bc
       0.029107578 -0.06834867 -0.07138423 -0.009121799
000350 93 a4 10 bd 0c 30 7f bb 2c 02 df 3a 88 7b 86 bd
       -0.0353132 -0.003893855 0.0017014197 -0.065665305
000360 83 77 6c 3d 9d b0 35 3c 3e b8 b6 bd 84 c7 b0 bb
       0.057731163 0.011089471 -0.0892186 -0.005394878
000370 bd de a7 bd b9 4c e6 bc e6 39 c9 bd bc 4e a4 bd
       -0.08196781 -0.028112756 -0.098254964 -0.0802283
000380 dc d8 cd bd 26 99 0a 3e be cb ea bc 26 b3 e2 bd
       -0.10051128 0.13534984 -0.028661605 -0.11069326
000390 b0 3d b7 bd c4 54 e6 bd 19 7e b7 bc cf 82 77 bd
       -0.08947313 -0.112466365 -0.022398995 -0.060427483
0003a0 92 69 4d 3c fa ef ca 3c 12 28 2a bd 27 0e 9e bd
       0.012537377 0.024772633 -0.04154212 -0.07717543
0003b0 98 d4 78 3d 20 19 5f 3d e2 9b 00 3e 5f 40 aa bd
       0.06074962 0.05446732 0.12559465 -0.08313059
0003c0 87 32 1a 3d c1 da 06 be 06 58 21 3d e6 70 4e 3d
       0.037645843 -0.13169385 0.039390586 0.050400637
0003d0 6e 71 b3 3d 0d 53 a4 bb af 77 cc bb 86 b1 32 be
       0.08761869 -0.0050147832 -0.0062398533 -0.17450532
0003e0 fb 6b 53 3d e7 1a ec 3c 53 de 14 3e 07 34 32 3d
       0.05161665 0.028821422 0.14537935 0.04350665
0003f0 0d e3 0f 3e dc 3f 6b bc 6e 6d c4 bd ff 22 94 3d
       0.14051457 -0.014358487 -0.095911846 0.072332375

network_body._body_endoder.seq_layers.2.bias f4 [256]
000000 5c 27 43 3c 2c 79 f3 3b 9e 0f ba ba 52 f5 74 bb
       0.0119112395 0.0074302163 -0.0014195328 -0.0037377668
000010 91 0b 4e 3c b8 ec 83 3b c4 5e 5e 3b 2a ca 8c bb
       0.012576 0.004026022 0.0033930996 -0.004296561
000020 f9 23 02 3c 54 fe d0 3b 10 9f 6c 3a 1d 84 46 3b
       0.007943147 0.0063779745 0.00090263877 0.0030291148
000030 b0 30 63 bb a7 06 62 3a 2d c4 b6 bb b3 c0 1b 3c
       -0.0034666471 0.0008622207 -0.005577585 0.009506392
000040 c6 3e d8 3a 7f bd 0e 3c 3b 34 9a 3b d2 48 27 3c
       0.00164982 0.008712172 0.0047059334 0.010210233
000050 a4 5e e4 bb 24 64 6e 3b 66 4b 60 3c bf 38 98 3b
       -0.00696929 0.0036375606 0.013689851 0.0046454365
000060 08 52 69 3c 9d 8c 0a 3c 09 5e 5d 3b ee c4 b7 3b
       0.014240749 0.008456376 0.0033777973 0.0056081926
000070 06 19 ec ba 22 1d 00 39 9c ac ca b7 8c d4 fc 3a
       -0.0018012829 0.00012217884 -2.4160654e-05 0.0019289418
000080 de c9 26 3c 41 07 06 3c 82 f8 79 3a a8 fe d2 bb
       0.010179965 0.00818044 0.0009535627 -0.006439049
000090 6c 9b fc ba 3c 27 85 3b 50 91 d8 ba c9 23 60 3b
       -0.0019272394 0.004063515 -0.0016522799 0.0034201017
0000a0 49 22 b3 b8 1c cc 1c 3c 6c 59 83 3a 38 d6 96 bb
       -8.541771e-05 0.009570148 0.0010021157 -0.0046031736
0000b0 7b 87 91 bb 57 86 64 3c c6 ab 62 3c ce d4 8b ba
       -0.0044411994 0.013948045 0.013834899 -0.0010668279
0000c0 54 b2 61 3b 2f d8 61 3c 45 cb 9b 3b 4d ac d4 3b
       0.0034438567 0.013784452 0.004754456 0.0064902664
0000d0 37 d9 93 3b 8d 28 2d 3a 9a d4 a6 3b ad d2 c6 3b
       0.004511978 0.0006605469 0.005091262 0.006067595
0000e0 5f 47 cb 3b 20 aa e6 bb 86 11 a3 3b 00 35 83 3c
       0.0062035765 -0.0070393234 0.004976454 0.016016483
0000f0 ac 21 ee 3b 0c 74 8c bb f1 24 97 ba 96 49 e0 ba
       0.0072671976 -0.004286295 -0.0011531395 -0.0017111774
000100 ae c6 8c bb a0 c9 32 38 11 09 a8 3b 3f 1d a1 3b
       -0.0042961454 4.2626285e-05 0.005128034 0.0049168165
000110 de 23 f9 3a eb 94 d9 ba 39 b2 7a 3a 7a ce bd 3c
       0.0019007882 -0.0016600167 0.00095633004 0.023169745
000120 c5 5a 57 3a 1c 5e 08 3c 75 4b f0 3a 81 a9 0b bc
       0.0008215125 0.008323219 0.0018333035 -0.0085243
000130 aa df 65 bb 3b 08 b8 3a a4 21 87 bb 29 93 35 bc
       -0.003507594 0.0014040539 -0.0041238833 -0.011082449
000140 be c2 e4 3b 1d cd c9 3b f7 44 ca 3a 2b 5c 7f 3b
       0.006981223 0.0061584846 0.001543193 0.0038964848
000150 fb 0a b2 3a 01 13 4c 3b d8 84 10 3c bd 06 9b 3a
       0.0013583595 0.0031139257 0.008820735 0.001182757
000160 24 67 91 3b 5d e6 32 bb a1 47 77 ba 56 a6 de 3a
       0.004437344 -0.0027297952 -0.0009432976 0.0016986828
000170 83 e6 0f 3b a2 d7 93 bb eb 43 70 3b b8 59 88 3b
       0.0021957464 -0.0045117894 0.0036661576 0.004161086
000180 21 1b b8 ba 04 2c 5e 3b 62 e0 92 3b d9 07 36 bb
       -0.0014046171 0.0033900747 0.004482315 -0.0027775674
000190 00 5d a5 39 18 44 28 3c 7b 86 8e bb f6 bc e4 3a
       0.00031540543 0.010270141 -0.0043495274 0.0017451334
0001a0 59 98 15 3c 88 da 27 3c 47 b5 7f bb 94 d5 28 3c
       0.009130561 0.010244973 -0.0039017962 0.010304827
0001b0 08 46 f4 3b 24 0a d5 3b ea b8 ab bb bf d8 8c 3b
       0.0074546374 0.006501453 -0.0052405493 0.004298299
0001c0 ea 3a b7 ba d6 24 01 ba d7 df e2 bb e9 e1 07 3c
       -0.001397935 -0.00049264485 -0.0069236564 0.008293607
0001d0 43 17 73 3a 45 bf de bb 06 83 56 bb 08 b9 20 3b
       0.00092731806 -0.0067977034 -0.0032731905 0.002452435
0001e0 e0 4f 10 bb 01 14 7d 3a 29 4b 1a 3c 53 16 0d 3c
       -0.0022020265 0.0009654165 0.009417334 0.00861128
0001f0 cc 93 d7 3b 76 a9 5c 3b 90 12 89 bb 1c 3b 33 3c
       0.006578898 0.0033670343 -0.004183121 0.010939386
000200 3e 91 0f 3b ea f4 82 bb 0b 50 84 3c a8 f1 99 bb
       0.002190664 -0.003996481 0.016151449 -0.004697997
000210 72 b5 2a 3b a9 d0 28 3b 85 76 a0 3b 92 b7 25 3b
       0.0026048091 0.0025759137 0.004896941 0.0025286418
000220 21 b0 00 bc 1e 7f 64 3c 27 90 e6 bb fc f7 00 bb
       -0.007854492 0.013946323 -0.0070362273 -0.001967906
000230 d8 95 73 b8 ca 91 60 3b 61 18 a8 3a 34 7a a4 3b
       -5.8075268e-05 0.0034266585 0.0012824648 0.0050194506
000240 8f 72 df 3b c2 01 8d 3b 01 8a b8 bb a5 e0 e3 3b
       0.0068190764 0.004303188 -0.0056316857 0.00695427
000250 f8 2a ec 3b 43 49 11 bc c7 d9 20 3c 41 7d 68 3b
       0.0072072707 -0.008867565 0.009817547 0.0035475048
000260 9f d5 b2 3b 21 2b 02 38 87 ff f3 bb 9f 61 43 3b
       0.0054575945 3.1034582e-05 -0.0074462327 0.0029812825
000270 8d 4e 8d 3a 36 3f 49 3b d2 87 b6 3b 44 32 03 bb
       0.0010780856 0.0030707843 0.0055703903 -0.0020018974
000280 4d 98 fe 3b cc 2d d9 ba a0 f9 6c 3c 5a aa 0b bb
       0.0077696205 -0.0016569435 0.014463812 -0.0021311254
000290 a9 99 80 3b 86 7b d5 3b e1 fc 8b bb d9 56 e8 3b
       0.0039245677 0.0065149693 -0.004272089 0.007090431
0002a0 fc 64 9b ba ad bf 46 3c 85 84 37 3a c9 d5 70 bb
       -0.0011855657 0.01213066 0.0007000643 -0.003674852
0002b0 2e c1 2f 3b 0d 75 32 3a 9a fc bd 3b 74 30 ea 3b
       0.0026818025 0.0006807603 0.0057979347 0.0071468893
0002c0 3e 73 14 3c c9 02 54 bb 1a cc 67 bb 26 b7 f5 3b
       0.009060679 -0.0032350293 -0.0035369457 0.0074986396
0002d0 ef 01 63 3b 58 d1 ee 3a 37 68 11 bb 17 a6 db bb
       0.0034638604 0.0018220348 -0.002218736 -0.006703149
0002e0 1a 7b 7b bb 64 97 63 3a bf b1 be 3b 4e a2 de 3b
       -0.0038372935 0.0008681922 0.005819529 0.0067942506
0002f0 b0 7c 8f 3c bd 8e 99 ba c0 f9 53 bb 13 0e 14 bb
       0.01751551 -0.0011715513 -0.0032344908 -0.0022591397
000300 b3 f0 3d bb 93 2d 19 bc 9e 2a 26 3c de d2 05 3c
       -0.002898258 -0.009349245 0.010141997 0.00816795
000310 a6 2f 87 3b 3e 94 9b 3b 8a 5f d7 3b e2 fa 12 3c
       0.004125553 0.0047478965 0.0065726684 0.008970948
000320 e0 6b 05 bc 7b f2 0d 3c 4c 92 2d bb 82 dd 94 3a
       -0.008143395 0.008663769 -0.0026484905 0.0011357518
000330 df f8 13 3c 34 9f 19 3c 41 a5 06 3c 94 26 67 bb
       0.009031503 0.009376336 0.008218111 -0.0035270797
000340 58 d7 f1 ba 1f 7c 1a 3b c4 f6 aa 3b 63 b9 33 3b
       -0.0018451018 0.0023572517 0.005217405 0.0027423732
000350 ad 90 d0 bb fa f9 fd bb 24 ff 43 bb 7b 64 c5 3b
       -0.006364903 -0.007750747 -0.0029906714 0.006023941
000360 ec b5 94 bb f0 cc 98 3b 77 c7 3d 3c 56 ff 3f 3b
       -0.0045382883 0.0046631023 0.011583201 0.002929648
000370 17 6d 0b bc 6c af 85 bb 56 16 45 3b 40 0f 5d 3b
       -0.008509896 -0.00407975 0.0030073128 0.0033731014
000380 8c 5f d5 bb c7 3a 0d ba 6d 02 25 3c 72 af 21 3b
       -0.006511634 -0.00053874817 0.010071379 0.0024671224
000390 9d e3 1d bc 8c 5d 06 3b 20 b4 0c 3c 12 35 e7 3b
       -0.009636787 0.0020502536 0.008587867 0.007055887
0003a0 e3 eb 39 3c a1 a5 1a 3c 51 1f 3b bb 85 47 7a bb
       0.011347744 0.009438903 -0.0028552602 -0.0038189602
0003b0 6c 3d 42 bb 41 a1 a8 bb 51 df 4e bb 48 3e 6a bb
       -0.002963866 -0.005146176 -0.0031566212 -0.003574269
0003c0 94 4d 30 bb 32 59 32 3c c0 d5 05 bb da 29 f0 3b
       -0.002690171 0.010885524 -0.0020421594 0.007329208
0003d0 56 47 b8 3b 2d 84 fe 3b 2f de 2d 3c 13 b7 86 3b
       0.0056237383 0.0077672214 0.010612055 0.0041111796
0003e0 6a 8c 20 3b 86 6a ac bb 83 2d 04 bc 4d cb 76 3b
       0.0024497756 -0.005261722 -0.008067491 0.0037657798
0003f0 8e 38 88 3b 79 09 81 3b 2e 21 88 bb 08 9b 0c 3c
       0.0041571325 0.003937897 -0.004154346 0.008581884

network_body._body_endoder.seq_layers.2.weight f4 [256, 256]
000000 7a c8 0b be bf 65 1a bd 37 39 1c 3b d1 2e bb 3d
       -0.13650694 -0.03769469 0.0023837814 0.09139789
000010 b6 7d 90 3c 9f 7a 9c 3d b7 ad 3c 3d 7d ca a5 bc
       0.017638069 0.076405756 0.046064105 -0.020238155
000020 bc 0d a8 3c b3 4a 26 bd 79 64 14 bb 5b 8e 03 bd
       0.020514362 -0.040598582 -0.0022642894 -0.032118183
000030 9e 2c 8b 3d ac 75 ad 3c ce 91 fc 3d d3 62 bf bc
       0.067956194 0.021174274 0.123324975 -0.023362553
000040 24 4f 8c 3d 80 97 e5 bb 5d fa 7f bd 44 42 4d 3d
       0.068510324 -0.0070065856 -0.062494624 0.050112024
000050 26 7f 0c be 2d 19 16 bd ae 6f 9a 3c cc 64 f7 3b
       -0.13720378 -0.036645103 0.018852081 0.0075498577
000060 50 e1 b0 3b 89 fd 8b bd b3 51 29 bd 02 52 ef bc
       0.005397953 -0.06835467 -0.04133768 -0.029213909
000070 b0 a6 4b 3d 47 94 87 bd ca 0a 61 bd 74 46 ee 3a
       0.049719512 -0.066200785 -0.05494193 0.0018178956
000080 d6 9f da bd a2 d8 6e bd a7 5c 3e bc bf 96 0d bb
       -0.106750175 -0.058312066 -0.01161877 -0.0021604744
000090 bf 23 5d bd 9c 9c 30 3d 82 7b 5e bc 48 00 89 bd
       -0.05398917 0.043118104 -0.013579251 -0.06689507
0000a0 a8 f6 9b 3d a0 e5 f7 3c 46 ac d2 bd 23 aa 6f bc
       0.07615405 0.03026086 -0.10286765 -0.014627966
0000b0 d6 9d 41 3d 05 89 ca 3b 08 de 60 bd ca dd 90 bc
       0.047269665 0.006180885 -0.054899246 -0.017683882
0000c0 17 e4 81 3c 6d b6 15 bc 4f 2f 3e bd 36 b6 b9 bd
       0.015855832 -0.009137732 -0.046431836 -0.09067957
0000d0 f2 50 1c 3c 6f 53 05 3d 64 df 1b be 43 87 71 bb
       0.009540783 0.03255027 -0.15221936 -0.0036854304
0000e0 7f 05 1f be 1c 90 00 3e d7 b9 d5 bd 0f 51 9c 3c
       -0.1552944 0.12554973 -0.10435837 0.01908162
0000f0 85 62 8a 3d e5 1e 2c 3c e3 22 9d 3d e2 14 81 bb
       0.06757072 0.010505413 0.0767267 -0.003939257
000100 c0 ae 07 be 39 c1 10 3d 38 63 7a 3d 1d f9 9c 3d
       -0.13250256 0.03534052 0.06112978 0.07664702
000110 e8 0f fb 3c f5 c6 2d 3c b7 2f 56 bd 04 c6 65 ba
       0.030647233 0.010606517 -0.0522916 -0.00087651634
000120 c2 b4 9f bd 68 44 97 3b b2 87 ea 3d 0f 0d df bd
       -0.07798149 0.004616309 0.11451663 -0.108911626
000130 bd 0d 32 3d f0 bf 5f bd 30 54 b8 bd 6a ac c5 3c
       0.043470133 -0.054626405 -0.090004325 0.024130065
000140 cc f3 ed 3c 94 ee b1 bd 4e 74 71 bd 4d e3 1a 3d
       0.029046915 -0.08688083 -0.058948807 0.037814427
000150 ba 4a c7 ba 8c 3c 74 bd ee 07 00 bd 52 b0 ab 3d
       -0.0015204765 -0.059628054 -0.031257562 0.0838324
000160 05 65 48 3d ee 5c c4 bc d4 19 ac bc f4 b7 95 ba
       0.048924465 -0.023970094 -0.02100841 -0.001142262
000170 97 bc ee 3d d3 38 da 3c 2e 2a 03 3d b5 f1 2a 3d
       0.116570644 0.026638424 0.032022648 0.041734416
000180 ce fa df 3b fe ee 0d 3c 4c 6a 2a 3d 71 23 e0 3d
       0.006835318 0.008662937 0.04160528 0.1094426
000190 97 e9 c7 bc 28 c5 a2 bc 1e 01 89 3d 9c 55 3d be
       -0.024403377 -0.019869402 0.06689666 -0.18489689
0001a0 ed dc 77 3d fe 3a 2c bc 16 f4 a4 3c fe b2 c7 3c
       0.060513426 -0.010512112 0.02013592 0.024377342
0001b0 e0 30 30 3d f1 fd ea bb 62 e7 b1 bd 9e 0f 8a bd
       0.04301536 -0.0071713855 -0.08686711 -0.0674126
0001c0 83 13 60 bb f8 6b d6 bd e6 db c8 3d bb 74 26 bd
       -0.0034191317 -0.10469812 0.09807567 -0.040638667
0001d0 1d a5 c9 3d 46 66 8f 3d 1c 7a d7 bd 78 76 1a 3c
       0.09845946 0.07001929 -0.105213374 0.009427659
0001e0 4c b7 46 bd a0 d5 96 bc 83 8b 99 3d 56 d2 8d bd
       -0.04851465 -0.018412411 0.07497313 -0.06924884
0001f0 ea 87 84 bd d3 31 49 3d 9c 42 8d 3b 3d a4 18 3d
       -0.06471236 0.04911978 0.004310919 0.037266005
000200 f6 6d 5e bc 9a bb 12 be bf db 06 3d b9 00 c1 3d
       -0.013576021 -0.14329377 0.03292441 0.09423966
000210 fe c8 20 bd 96 12 1f bd af 17 d2 3c b0 79 90 3d
       -0.03925418 -0.038836084 0.025646059 0.0705446
000220 88 0d b3 3c 25 9f 2f bc 3f dc d2 3d 98 63 aa 3d
       0.021857038 -0.010719095 0.10295915 0.08319777
000230 b5 93 01 bb 8c 22 1d 3d 4d 28 e5 bd 80 c9 ad 3d
       -0.0019771878 0.038363025 -0.111893274 0.08485699
000240 54 23 23 bd f8 2f f0 bd 5e 44 21 bd e0 0e 0f 3c
       -0.039828613 -0.11727899 -0.03937184 0.008731574
000250 c3 32 86 3c 84 39 56 3d 7b f1 35 bd b2 7f de 3c
       0.016381627 0.052300945 -0.044419747 0.0271605
000260 46 af 3e 3b 1f bc 85 3d 44 3b 1c bd c3 e5 95 3c
       0.002909617 0.06530022 -0.038142458 0.018298035
000270 c5 fb b2 bc 73 96 c8 3d 59 b5 80 3d 21 29 54 3d
       -0.021848569 0.09794321 0.06284589 0.051797036
000280 61 c6 39 3d 1b a9 39 bc 5b dd 6e bd 61 61 ae 3c
       0.045355204 -0.011331822 -0.05831657 0.021286668
000290 f9 4a 09 3d fc e1 a6 3d 3a f0 58 bd d5 33 ca bc
       0.033518765 0.08148572 -0.052963473 -0.024682919
0002a0 e2 40 0f 3d 8a 0b 2d bd dc 45 26 bd fb e5 9d 3d
       0.034973986 -0.042247333 -0.040593967 0.07709881
0002b0 b4 8c fa 3c 96 86 42 bd 09 d4 3f bc e7 82 06 bd
       0.03058467 -0.047491632 -0.011708268 -0.032839682
0002c0 1a d4 85 3d 69 7f 6e bd b8 30 26 bd 21 20 b8 bd
       0.06534596 -0.058226977 -0.040573806 -0.08990503
0002d0 a5 9a 27 3c 2b d5 cf bd bf 79 b7 3c 47 60 5b 3c
       0.010229741 -0.101480804 0.02239692 0.0133896535
0002e0 55 63 9c bd 72 d6 d8 bb da 32 46 bd 95 04 59 bd
       -0.076361336 -0.0066173607 -0.04838834 -0.052982885
0002f0 e3 8c 26 3d 11 8c e9 bc c6 6c 7c 3d 66 24 f3 3d
       0.040661704 -0.028509172 0.061627172 0.11872177
000300 5e a5 be 3b f6 98 f2 3d 76 11 d4 3c 47 cb 8c bd
       0.005818053 0.11845581 0.025887232 -0.068747096
000310 12 ff 13 bd b5 2c 26 bd 7b 39 34 3d af 60 be 3c
       -0.036131926 -0.04056998 0.04400013 0.023239462
000320 83 ff e7 3d 9b f2 42 bd a5 22 e1 bc 88 3d 23 3d
       0.11328032 -0.047594648 -0.02748234 0.039853603
000330 c7 1c 3d 3d f6 3a ae bb f5 3a 0a 3d c9 85 18 3e
       0.046170022 -0.0053170873 0.033747632 0.14894785
000340 c0 6c 33 3d ac 3e 1f 3e bc 43 5f 3d 8c d6 b6 3c
       0.043804884 0.15551251 0.054507956 0.0223191
000350 e6 a3 85 3d 9a 4f af bd 7c cf e1 3d ec 90 89 bd
       0.06525402 -0.08560105 0.11025903 -0.06717095
000360 f6 c0 23 bc eb a0 98 3c 8f c5 b9 bd cb a6 d4 bd
       -0.009994736 0.01863142 -0.090708844 -0.10383376
000370 78 46 a3 bd 3a 63 9d 3a b2 af ce 3b 0e df f3 bc
       -0.07972425 0.0012007721 0.0063075656 -0.029769447
000380 f1 c5 ba bd 18 d8 c4 3d 63 64 c1 bc 56 ba cc bb
       -0.091197856 0.09611529 -0.023607438 -0.006247799
000390 67 00 85 3b b2 df 6b bd ce f3 0b 3e c1 4b ac bc
       0.004058886 -0.05758638 0.13667223 -0.021032216
0003a0 13 2d 94 3d e2 6f cf bd e8 96 61 bd 43 2b 1c 3d
       0.0723516 -0.10128762 -0.055075556 0.038127195
0003b0 b3 c1 e5 bd e8 f9 73 bc 8c 42 50 3d 72 16 96 bc
       -0.11218586 -0.014891125 0.050844714 -0.01832125
0003c0 4d bb ab 3d e3 82 48 3d 6b 57 b4 3d f8 52 30 3d
       0.08385334 0.04895295 0.08805736 0.043047875
0003d0 1f a4 a0 3c 04 23 d2 3c de 89 aa 3d 57 a2 28 bd
       0.019609509 0.025651462 0.08327077 -0.041170444
0003e0 b1 73 ec bd c7 f0 19 bd e7 de 66 bd af 30 0a 3d
       -0.11545504 -0.03758314 -0.05636492 0.033737835
0003f0 91 ee 26 3d 1d 70 bd bc 5f cd 0b 3d 81 8b 81 b9
       0.04075486 -0.023124749 0.034131404 -0.00024708736

network_body._body_endoder.seq_layers.4.bias f4 [256]
000000 f1 e0 03 ba dc e2 db 3a e7 fa 28 3b a3 4c b7 3a
       -0.00050307723 0.0016775983 0.0025784315 0.0013984632
000010 4b f8 ec 3b 0c f3 7c 3b d3 e6 0c 3b cf ad f5 3b
       0.0072317473 0.0038597016 0.0021499887 0.0074975262
000020 7e 3c 76 3b 34 bc 46 3b a4 8e 90 3b d9 c0 d8 3b
       0.0037572677 0.003032458 0.0044115353 0.006614786
000030 a5 14 11 ba 46 f9 ab 3b 2e 2a 6f bb e5 7e 7a 3b
       -0.00055343873 0.0052482216 -0.0036493647 0.0038222608
000040 60 27 90 bb 38 58 03 3c 09 c8 3a 3b 2f 79 16 3b
       -0.004399225 0.008016638 0.0028500578 0.0022960415
000050 4c 42 e2 3b d8 66 26 3b ce 17 ab 3a f2 f6 a1 3a
       0.006904876 0.002539089 0.0013053359 0.0012356921
000060 b2 5c 41 3b 50 df 52 3c fd bb 7c 3b cb 88 54 bb
       0.0029504714 0.012870625 0.0038564198 -0.0032430168
000070 bf 9e ec 3b 92 39 84 3c 2d 10 eb 3b 39 57 be 3b
       0.0072210724 0.016140733 0.007173559 0.0058087376
000080 84 56 ca 3a 7b a6 6b 3a 73 fb bc 3b ef ed 33 b9
       0.0015437161 0.0008989346 0.00576728 -0.00017159407
000090 51 8b 39 3b ca 30 0c 3c 33 6d e9 3b 8d af fa 3a
       0.0028311799 0.008556554 0.0071236133 0.0019125805
0000a0 db 45 82 3b ba b9 ef 3b a4 eb e4 ba 25 0c a0 39
       0.0039756126 0.0073158415 -0.0017465246 0.00030526627
0000b0 3f 29 90 3b 56 e0 3c 3b 8b 76 17 bb 6e 01 ad 3b
       0.004399448 0.0028820238 -0.0023111429 0.0052797114
0000c0 3e e9 0d 3c 65 34 29 3b 7f 5b 32 3c 26 49 a5 3b
       0.008661566 0.0025818583 0.010886072 0.0050441204
0000d0 29 61 15 3c fd 7d f7 3b f9 43 29 3b 1e 15 7e 3b
       0.009117403 0.007552861 0.0025827868 0.003876991
0000e0 ce d3 45 bb f1 ae 40 bb 6f 1b 47 bb 1f a9 c4 ba
       -0.003018606 -0.0029401148 -0.0030381342 -0.0015004015
0000f0 f4 a5 31 3c 36 2f fe 39 2d 3a ca 3a c0 b9 fa 3b
       0.010842789 0.0004848183 0.0015428715 0.0076515377
000100 ff 85 fe 3b e8 5c c1 3b b4 08 8d 3b ec 5b cf 3b
       0.0077674384 0.005900968 0.004304016 0.0063280966
000110 ed e6 a3 3b 7b dc 2c ba 80 92 09 3a 28 83 a3 3b
       0.0050018937 -0.00065941334 0.00052479655 0.0049900003
000120 a6 51 ba 3b 0f 4d 23 3b 7f 18 aa 3b 20 9c 89 3a
       0.005686003 0.0024917757 0.0051909084 0.0010498799
000130 1d 56 12 3c d4 38 b3 3a 5f ee 53 ba fd 93 d9 3a
       0.008931664 0.0013673552 -0.00080845313 0.001659989
000140 38 c1 00 3a 18 de 41 3b 45 c8 de 3b 73 18 10 3c
       0.00049116043 0.002958184 0.0067987763 0.008794892
000150 39 5b f8 3b 26 c0 ed 3b 4b d8 4f 39 cf 73 81 3a
       0.007579234 0.007255572 0.00019821634 0.0009876433
000160 d5 d5 b4 3b 00 06 0c 3c 5c 63 19 3c 61 30 5f 3b
       0.005518655 0.008546352 0.009362068 0.0034055936
000170 79 af 87 3b 5e 4d df b9 a2 d5 e9 3b 8a ab 38 3b
       0.004140791 -0.00042591518 0.0071360627 0.0028178417
000180 b1 d2 99 3a f9 0a 7a 3a 2b da 3a 3b 67 43 01 ba
       0.0011735765 0.0009538378 0.0028511386 -0.0004931003
000190 46 f8 e8 39 1e ee 72 bb f2 cb c1 ba 36 47 64 3a
       0.00044435466 -0.0037068198 -0.0014785512 0.0008708121
0001a0 6f 0f 9f 3b 8e b6 a0 3b ef 88 33 bb 53 d6 54 3b
       0.0048541347 0.0049045747 -0.0027394851 0.003247638
0001b0 e0 31 43 3a 2c a3 17 3c 45 30 85 39 09 38 94 3b
       0.00074460916 0.009255212 0.000254037 0.0045232815
0001c0 e9 da 00 bb 1e 58 13 bb 02 0e 2b 3c 49 33 24 3c
       -0.001966173 -0.0022482942 0.010440351 0.010021993
0001d0 16 99 9e 3b 3d 4c 97 3b c9 bf 30 3c 4c c1 b0 3b
       0.0048400266 0.0046172426 0.010787913 0.0053941365
0001e0 39 87 ed 3b 04 89 e9 3b 4c 04 f0 3b c3 34 d5 ba
       0.007248786 0.0071269292 0.007324731 -0.0016266335
0001f0 40 4c b3 3b 30 40 c8 ba 92 e4 ae 3b 1b f4 9b 3b
       0.005471736 -0.0015277918 0.0053373063 0.0047593242
000200 f8 b6 90 3b 4f 3c 87 3b 25 f3 c0 39 86 fe bb b9
       0.004416343 0.0041270624 0.0003680225 -0.00035857054
000210 2b ff 06 3b 79 cd 50 3a 77 af fd 3a ec bc 57 3b
       0.002059887 0.0007965188 0.0019354661 0.0032919003
000220 d3 bc f6 3b 4b 0d 26 bb 59 55 39 3a 1b 48 45 bb
       0.007529834 -0.0025337513 0.0007069908 -0.0030102793
000230 e6 c9 6a b9 80 db 57 3a 07 55 e9 3a 23 67 ec 3b
       -0.00022391192 0.0008234307 0.0017801829 0.0072144433
000240 09 56 e8 3b 75 36 d9 3a ba be 7b bb b1 51 af 39
       0.0070903343 0.0016572016 -0.0038413242 0.00033439466
000250 4b 6f d8 3b 08 94 0c 3a 33 6b 15 3c 5d 89 5b 3b
       0.006605064 0.00053626345 0.009119797 0.0033498623
000260 e6 0f 4a 3b 91 4e a2 3b 95 55 62 b9 af 81 c2 3b
       0.003083223 0.0049532135 -0.00021584921 0.0059358696
000270 e0 94 b8 3b 46 f9 ae b9 47 f2 06 3c d6 dc 06 3c
       0.0056329817 -0.0003337359 0.008236474 0.008231362
000280 52 ed cd ba ed 12 b5 3a 1d 4c bd 3b 10 bc 11 3b
       -0.0015710986 0.0013814844 0.0057768957 0.0022237338
000290 c9 82 0d 3c 31 7c e0 3b 6d fb 12 3c 31 c8 eb 3a
       0.008637139 0.0068507423 0.008971077 0.0017988739
0002a0 ca ee fc 3a 58 a4 54 3a e0 4a 15 3b 50 c6 c3 3a
       0.0019297239 0.00081116473 0.0022780225 0.0014936421
0002b0 6a 4c 53 ba f2 42 03 3c ec 8a de 3a b3 c9 6b 3a
       -0.0008060398 0.0080115665 0.0016978658 0.0008994594
0002c0 a7 4f 2f 3c 84 cd 9b 3b 77 ea 86 ba f9 ac e7 ba
       0.010700143 0.004754724 -0.0010293265 -0.0017675451
0002d0 6b 9e f8 3b 2f f2 10 3c c8 fc 2d bb 31 99 f3 3b
       0.0075872443 0.008846804 -0.0026548374 0.0074340333
0002e0 86 cd 19 bb 5e 29 17 3b f8 69 db 3b 40 47 75 3b
       -0.0023468449 0.0023065428 0.006695982 0.0037426502
0002f0 66 b6 e1 3b f4 41 88 3b 31 fc 1b 3b 88 98 02 3c
       0.0068881987 0.004158253 0.002380144 0.007970937
000300 d8 ec f1 3a 7f e2 ac 3a c6 1c fd 3b 8e e9 a2 3b
       0.0018457426 0.001319006 0.0077243773 0.0049716895
000310 8c f0 80 ba 1a 1a be 3b cd 18 a9 3b df a2 c4 3b
       -0.0009837314 0.0058014514 0.005160427 0.006000861
000320 75 57 b2 bb 97 6b e3 3a 55 39 09 3c 2b 5c cc 3a
       -0.0054425546 0.001735079 0.008375485 0.0015591433
000330 64 ad dc 3b 80 c8 b1 3b 9d 45 87 3b 5d 2c 4f bb
       0.006734537 0.005425513 0.0041281716 -0.0031612136
000340 f7 80 6b 3b 05 3a 20 3c 32 e1 8c 3b b4 90 41 3b
       0.0035935023 0.009779458 0.0042993063 0.0029535713
000350 81 7f 51 3c d7 8b 49 bb 20 c3 c1 3a 84 2d bc 39
       0.012786747 -0.0030753517 0.0014782883 0.00035892066
000360 d1 06 af 3b 86 19 02 3b cf b4 0f bb 8e 03 b0 3b
       0.0053413888 0.001985164 -0.0021927839 0.0053715175
000370 1a a7 84 3a 17 2e d0 3b 5a b7 6b 3b a7 8f 06 3c
       0.0010120601 0.0063531506 0.003596744 0.00821296
000380 27 03 c9 3b bc b2 1d 3b 17 b6 c3 3b 65 0b 2d bb
       0.006134409 0.0024062833 0.0059726345 -0.0026404497
000390 de b6 06 3c 38 9b e1 3b 16 0d 83 bb 7b 76 00 3c
       0.00822231 0.0068849586 -0.0039993627 0.007840748
0003a0 50 f8 ba 3b 5a 64 a1 bb 47 e2 96 ba 66 44 e7 3b
       0.0057058707 -0.004925293 -0.0011511528 0.0070577143
0003b0 c0 d8 65 3a 22 e8 9f 3b 9d 4b 2f 3b 3e 48 64 b9
       0.0008767955 0.0048799673 0.002674795 -0.00021770687
0003c0 d3 93 20 bb a9 23 71 3b 94 48 4c 3b 54 f1 80 3b
       -0.0024502173 0.0036794937 0.003117119 0.0039350186
0003d0 cd be 38 3c 63 1b 67 ba 4b c2 ac 38 9c 80 47 3c
       0.011275959 -0.00088160316 8.237789e-05 0.012176659
0003e0 9d 59 88 3b d0 4f 51 3b 3a c8 e1 ba 16 ec 3f ba
       0.0041610734 0.003193844 -0.001722581 -0.00073212513
0003f0 22 73 08 3c e1 89 ab b8 20 a3 c2 3b 2f 4f 4b bb
       0.008328231 -8.179597e-05 0.005939856 -0.003102254
