Assets/Training/results/RUN3/SzitakotoBehavior/SzitakotoBehavior-8999988.onnx (onnx, 670607 bytes, 13 tensors)

65 f4 [132]
0.28468475 0.46282345 0.41272792 0.23237504 0.26107058 0.4598214 0.4184811 0.23660405
0.2862264 0.4698456 0.42393187 0.22648358 0.20010406 0.4612231 0.43989846 0.24269722
0.2755627 0.47342917 0.4345012 0.22231242 0.14395708 0.4649566 0.45439622 0.24637197
0.2529773 0.47310618 0.44203907 0.22036345 0.11950681 0.47247812 0.46562222 0.2489606
0.22522846 0.47360244 0.44974545 0.21937376 0.11189955 0.4910115 0.48766482 0.25650752
0.20565628 0.4811147 0.46521428 0.2219587 0.28501529 0.46266055 0.41329715 0.23099509
0.26139125 0.45964795 0.4189055 0.23521356 0.28663582 0.46945727 0.42447898 0.22501539
0.2004744 0.46102986 0.4403283 0.24161659 0.2759947 0.47314814 0.43489227 0.22088474
0.14423163 0.46470568 0.45474643 0.24489404 0.2532564 0.47300953 0.44234905 0.21865097
0.119708456 0.47205746 0.46596026 0.2474825 0.22549956 0.47293976 0.45056903 0.2177436
0.11203134 0.49092397 0.48796225 0.2548679 0.20589621 0.4809568 0.4654702 0.22036025
0.285343 0.4624607 0.41387814 0.22993828 0.2617038 0.45940426 0.419739 0.23380207
0.28702947 0.469059 0.42481002 0.22347067 0.20080537 0.46087503 0.44077456 0.24021511
0.27643338 0.4728663 0.43567744 0.21946982 0.144503 0.46443373 0.45506343 0.24355467
0.25353572 0.47277567 0.4426144 0.217259 0.11991801 0.4717434 0.4665864 0.24594885
0.22578272 0.47275028 0.45130628 0.21621753 0.11216667 0.49085313 0.48816377 0.25331002
0.20613478 0.4808493 0.46572056 0.21855716
00000000: 33c2 913e 32f7 ec3e 1351 d33e b9f3 6d3e
00000010: 0bab 853e b66d eb3e 2843 d63e 5548 723e
00000020: 448c 923e 9a8f f03e 990d d93e 50eb 673e
00000030: 14e8 4c3e 6f25 ec3e 5f3a e13e 9f85 783e
00000040: 8e16 8d3e 4f65 f23e f176 de3e dea5 633e
00000050: 7c69 133e cb0e ee3e 9fa6 e83e ef48 7c3e
00000060: 3e86 813e f93a f23e f252 e23e f5a6 613e
00000070: fdbf f43d a7e8 f13e 0966 ee3e 87ef 7e3e
00000080: 4aa2 663e 057c f23e 0945 e63e 84a3 603e
00000090: 972b e53d dc65 fb3e 34af f93e f454 833e
000000a0: 8f97 523e aa54 f63e 9130 ee3e 2449 633e
000000b0: 86ed 913e d8e1 ec3e af9b d33e fa89 6c3e
000000c0: 13d5 853e fa56 eb3e c87a d63e d3db 703e
000000d0: eec1 923e b45c f03e 4f55 d93e 6f6a 663e
000000e0: 2949 4d3e 1b0c ec3e b672 e13e 576a 773e
000000f0: 2d4f 8d3e 7940 f23e 33aa de3e 9c2f 623e
00000100: 75b1 133e e7ed ed3e 86d4 e83e 81c5 7a3e
00000110: d3aa 813e 4e2e f23e 937b e23e 0ae6 5f3e
00000120: b529 f53d 84b1 f13e 5892 ee3e 0d6c 7d3e
00000130: 5be9 663e 2925 f23e fcb0 e63e 2ef8 5e3e
00000140: b070 e53d 635a fb3e 30d6 f93e 0c7e 823e
00000150: 75d6 523e f83f f63e 1c52 ee3e 1ea6 613e
00000160: 7a18 923e a6c7 ec3e d6e7 d33e f174 6b3e
00000170: 0afe 853e 0937 eb3e 08e8 d63e cf69 6f3e
00000180: 87f5 923e 8028 f03e b380 d93e 7fd5 643e
00000190: ec9f 4d3e d0f7 eb3e 34ad e13e f3fa 753e
000001a0: ad88 8d3e 881b f23e 1d11 df3e b2bc 603e
000001b0: 98f8 133e 42ca ed3e 13fe e83e 6566 793e
000001c0: 6fcf 813e a70f f23e 5b9e e23e 2579 5e3e
000001d0: 9397 f53d 5a88 f13e 6ae4 ee3e 04da 7b3e
000001e0: 9633 673e 530c f23e 9e11 e73e 2168 5d3e
000001f0: a4b7 e53d 1a51 fb3e 9af0 f93e dab1 813e
00000200: ff14 533e e131 f63e ed72 ee3e 73cd 5f3e

68 f4 [2]
0.24761094 0.3146448
00000000: b98d 7d3e 2019 a13e

action_model._continuous_distribution.log_sigma f4 [1, 2]
-0.07316988 0.00080990035
00000000: 17da 95bd 7e4f 543a

action_model._continuous_distribution.mu.bias f4 [2]
-0.00076322106 -0.0035171057
00000000: e612 48ba 3e7f 66bb

action_model._continuous_distribution.mu.weight f4 [2, 256]
-0.026424412 0.010755439 -0.019417848 0.008310301 -0.031876657 0.027052058 0.016666709 0.019757109
0.005498524 0.00362624 0.02511256 -0.019573202 0.046247147 -0.03890691 -0.013232156 -0.002681759
-0.009751941 0.024840735 0.023218434 -0.030504784 -0.015547896 0.010866748 0.014061883 -0.014200852
-0.012319823 -0.022261936 0.030032024 0.0075214203 -0.027517809 -0.017149635 0.028267173 -0.02946462
-0.012245108 -0.015616621 -0.014522806 -0.018857481 0.012582627 0.0045681694 -0.025400855 -0.009886777
-0.017719937 -0.014890576 0.013753992 -0.040483046 -0.018689498 -0.0008086811 0.011363731 0.035561025
-0.021235557 0.0059605176 -0.03649296 -0.032792434 0.052140802 -0.036597252 0.00010943676 -0.033712618
-0.012221691 -0.0056060147 0.015952272 -0.012961019 0.035780884 -0.016845057 0.012941572 -0.044371914
-0.023464173 -0.01765146 -0.009387332 -0.01570743 0.028110864 -0.014107928 0.0045033274 0.010514204
0.05917474 -0.005105324 0.008593218 0.018977249 0.018393079 0.005274655 0.020947054 0.007804585
0.026863862 -0.0045067244 -0.029955927 0.040046815 -0.024738748 0.016733322 -0.005100577 0.027834686
0.011372021 -0.0010028121 -0.02691862 -0.012804361 -0.0014886387 0.0036802182 -0.015266101 0.010288015
0.0024152072 -0.014888611 0.006408167 0.01350571 0.009953705 -0.009688909 -0.008434302 0.025993045
-0.011417637 0.014536042 0.005545501 0.0033512062 -0.0015669914 0.04608799 0.016825542 -0.0062586935
-0.020990899 0.009603194 -0.05568666 0.008549867 0.001871049 0.04146061 0.008192454 -0.026507206
-0.03856798 -0.024115566 -0.01623437 0.003139791 0.018264262 0.014573536 0.0057133124 0.009229935
0.01957509 0.06111397 0.02438628 0.010103183 -0.002187121 -0.018638387 -0.0146426875 -0.021569703
-0.0039941515 -0.014432105 -0.0048722946 -0.016031465 -0.0129451975 -0.01493182 0.020669546 -0.012790721
-0.00803794 0.015844578 -0.009898332 0.01479711 0.024834637 0.015885778 0.028845293 0.02131649
0.038926832 0.0006171712 0.0066654943 -0.0069011566 0.013320463 -0.00707138 0.042919673 -0.0119226985
-0.0037897376 0.01050256 -0.0034783024 0.0061517097 -0.03461494 0.0068830773 -0.027194373 0.01909675
-0.027641945 -0.0062005497 -0.0047731614 -0.0031372895 0.027771086 -0.02310847 -0.0018376997 0.012261084
-0.036870785 0.028027756 0.020735009 -0.026682813 -0.029159078 -0.016186746 -0.010013843 -0.014471072
-0.005847798 -0.007301183 0.017870901 0.0061178403 0.030050945 -0.02455762 0.0070871715 0.04035174
0.018324653 0.019096285 0.028548263 -0.017086267 0.019933464 0.017674053 0.02386475 -0.009462085
0.0008873318 0.0034740511 -0.018339235 0.026019078 0.010896698 0.027135048 -0.029239591 0.012984588
-0.0048579145 -0.022686636 0.0031680432 -0.024877097 -0.030198446 0.0010229859 -0.018534096 -0.008815966
-0.011316435 -0.0037743135 -0.00045478065 0.020858428 0.024853729 -0.04663999 -0.026855726 -0.03607854
-0.011978772 0.004453888 0.018931517 0.010568277 0.020207964 0.051329482 0.008713543 -0.02615891
0.025127657 -0.0063403645 0.0073113507 -0.02355205 0.0016881778 -0.021448895 0.0125251375 -0.011240061
-0.007613907 0.015399898 -0.007196795 0.020363403 0.014182195 0.035759125 0.0044082017 0.019044759
0.012300714 0.031091169 -0.0024613615 0.010255505 -0.023873946 -0.011213412 -0.020444382 0.000660445
00000000: 0278 d8bc 9537 303c 2e12 9fbc ee27 083c
00000010: 1991 02bd 479c dd3c 9f88 883c a9d9 a13c
00000020: f62c b43b 36a6 6d3b dbb8 cd3c fb57 a0bc
00000030: a66d 3d3d da5c 1fbd afcb 58bc 73c0 2fbb
00000040: 9bc6 1fbc cc7e cb3c 9634 be3c 2be5 f9bc
00000050: 9abc 7ebc 720a 323c d063 663c b1aa 68bc
00000060: 15d9 49bc aa5e b6bc b805 f63c 3f76 f63b
00000070: 076d e1bc 647d 8cbc 8f90 e73c c95f f1bc
00000080: b59f 48bc dbdc 7fbc 10f1 6dbc 017b 9abc
00000090: 5d27 4e3c 95b0 953b 7415 d0bc 26fc 21bc
000000a0: 6729 91bc 9af7 73bc 6c58 613c 8dd1 25bd
000000b0: b81a 99bc acfd 53ba f12e 3a3c 70a8 113d
000000c0: 31f6 adbc 7250 c33b a479 15bd 5c51 06bd
000000d0: 9891 553d 00e7 15bd 6a81 e538 3e16 0abd
000000e0: 7d3d 48bc a9b2 b7bb 57ae 823c 745a 54bc
000000f0: fa8e 123d a5fe 89bc e308 543c 53bf 35bd
00000100: f037 c0bc cb99 90bc 53cd 19bc deac 80bc
00000110: c148 e63c f024 67bc a690 933b c543 2c3c
00000120: 3661 723d 904a a7bb 92ca 0c3c 2d76 9b3c
00000130: 15ad 963c 03d7 ac3b 2899 ab3c 9bbd ff3b
00000140: 9a11 dc3c 25ad 93bb 2266 f5bc 2108 243d
00000150: eaa8 cabc 5214 893c be22 a7bb 9105 e43c
00000160: b751 3a3c ca70 83ba 7084 dcbc 62c9 51bc
00000170: 6d1e c3ba d12f 713b ab1e 7abc 108f 283c
00000180: 7448 1e3b 5cef 73bc 9afb d13b 0e47 5d3c
00000190: dd14 233c 3bbe 1ebc 0730 0abc 5eef d43c
000001a0: 0a11 3bbc 9428 6e3c 09b7 b53b e99f 5b3b
000001b0: 8263 cdba c3c6 3c3d b8d5 893c ba15 cdbb
000001c0: 1bf5 abbc b756 1d3c b217 64bd be14 0c3c
000001d0: fd3d f53a 9ad2 293d a539 063c a425 d9bc
000001e0: 75f9 1dbd 028e c5bc f1fd 84bc f4c4 4d3b
000001f0: ef9e 953c d7c5 6e3c bd36 bb3b 2739 173c
00000200: f05b a03c a452 7a3d bcc5 c73c d287 253c
00000210: cd55 0fbb 88af 98bc e2e7 6fbc f2b2 b0bc
00000220: 5fe1 82bb a374 6cbc c5a7 9fbb 6b54 83bc
00000230: 1818 54bc 98a4 74bc 2e53 a93c 2c90 51bc
00000240: 90b1 03bc 7dcc 813c 9d2c 22bc 946f 723c
00000250: 0272 cb3c e422 823c f74c ec3c eb9f ae3c
00000260: be71 1f3d a8c9 213a 386a da3b 1923 e2bb
00000270: 123e 5a3c 09b7 e7bb 8acc 2f3d 6c57 43bc
00000280: 3f5d 78bb ee12 2c3c 3bf4 63bb 4894 c93b
00000290: 65c8 0dbd 708b e13b bcc6 debc ca70 9c3c
000002a0: 5c71 e2bc fb2d cbbb 2e68 9cbb fc9a 4dbb
000002b0: 3080 e33c f94d bdbc f8de f0ba b7e2 483c
000002c0: d205 17bd 779a e53c 77dc a93c ea95 dabc
000002d0: 05df eebc 119a 84bc 1a11 24bc 1318 6dbc
000002e0: e39e bfbb c33e efbb ff65 923c 2a78 c83b
000002f0: 662d f63c 102d c9bc 813b e83b de47 253d
00000300: 951d 963c d06f 9c3c 0cde e93c 80f8 8bbc
00000310: 814b a33c 2dc9 903c 0280 c33c dc06 1bbc
00000320: d49b 683a e8ac 633b 2a3c 96bc f625 d53c
00000330: 1088 323c 524a de3c de87 efbc 4fbd 543c
00000340: 242f 9fbb 53d9 b9bc f29e 4f3b 0ecb cbbc
00000350: bb62 f7bc b615 863a d1d4 97bc d770 10bc
00000360: 9268 39bc 795a 77bb a06f eeb9 4bdf aa3c
00000370: 0c9a cb3c 9309 3fbd 8a00 dcbc 17c7 13bd
00000380: 9c42 44bc ecf1 913b 4516 9b3c 9126 2d3c
00000390: 2c8b a53c dd3e 523d 40c3 0e3c 364b d6bc
000003a0: 84d8 cd3c d5c2 cfbb 0e94 ef3b 3bf0 c0bc
000003b0: d945 dd3a 98b5 afbc 3c36 4d3c 3c28 38bc
000003c0: 157e f9bb db4f 7c3c 18d3 ebbb 27d1 a63c
000003d0: 705c 683c 2978 123d ad72 903b c103 9c3c
000003e0: ef88 493c e8b2 fe3c cb4e 21bb b506 283c
000003f0: 4b93 c3bc 75b8 37bc fa7a a7bc b721 2d3a

network_body._body_endoder.seq_layers.0.bias f4 [256]
0.01836526 -0.0022917215 0.0030618785 0.013739117 0.01826361 -0.0014664811 0.012289061 0.005241705
0.00059982494 0.005393971 0.009637756 -0.008315909 0.003608611 0.013453051 0.008950892 0.014980582
0.0010015256 0.016542457 0.030169636 0.007120834 0.0045363754 0.022505622 -0.0032114345 -0.0016085193
0.0105140945 0.002872525 0.002388686 0.0034094122 -0.009263698 0.01192964 0.009851907 0.008655818
0.003607598 0.0015420937 -0.0062368405 -0.0001960906 0.0012250032 0.009922893 0.008726319 0.018941613
-0.0025261738 0.005827306 -0.0012788377 0.002031332 0.015753072 0.00094809936 0.017398883 0.015756128
0.0030927574 0.010258913 0.016078673 0.00785149 0.009301844 0.021027023 -0.0052318913 -0.004787559
0.008391115 0.0073793572 -0.0029169675 0.0014448967 0.009063321 0.008961688 -0.0012482182 0.01438346
0.00845053 0.00969104 0.012397704 0.005873183 -0.007899309 -0.008586262 0.008746165 0.005085942
-0.005633062 0.0034401289 -0.009424849 0.0014114622 0.009467954 0.003147448 0.0023031745 -0.00017749821
0.005354013 -0.0026888102 0.0059828763 0.0014415206 0.001764921 -0.0011528677 -0.0008375312 0.0151582435
0.0009310677 0.00067407044 0.009441197 0.009161566 0.008445372 0.015194378 0.0029247385 -0.0055002486
-0.006145517 0.008132359 0.008925494 0.004818647 -0.0019999843 0.010333543 -0.0084134685 0.012791092
0.011818392 0.009749759 0.009596842 0.018524176 0.008864987 0.0069839144 0.0028143113 0.0035076493
0.0010387421 0.0010134461 -0.00052385504 0.0029578113 0.013364327 -0.0032687057 0.005413775 0.0049583768
0.0032177423 -0.0040704124 0.0067125335 0.011799959 0.002892692 0.0110808 -0.00332028 -0.0037386417
0.010442698 0.010911683 0.013915514 0.0074283667 0.0019654916 -0.0023035249 0.012248138 -0.00014215955
0.015043909 0.004461775 0.003736511 -0.0010960724 0.010522743 0.0022257182 0.007447267 0.01237633
0.0068448116 0.010031818 -0.007740524 0.0042198543 0.009305222 0.0049245367 0.0064093163 0.010954014
0.004682542 0.008059536 0.005701196 0.0030844463 0.0022932845 0.0052169585 0.0044893147 -0.0113056265
0.01096938 0.014351289 0.0059542796 0.0036665872 0.014376095 0.012692308 0.007223963 0.0025188422
-0.014041789 -0.0019797327 0.0168936 0.020834526 0.0021881966 -0.0060699806 0.012555309 0.0047011063
-0.0003384922 0.010828187 0.0030994304 0.008216467 0.0034517413 0.012542974 -0.0021118394 0.005049801
0.012954791 0.008521022 0.010640816 0.008645021 0.017432192 0.0077193175 -0.008085826 0.014169371
0.00088190776 -0.0071263914 0.0043446873 -0.010854551 -0.0022659227 -0.0044057206 0.022756198 0.0034349766
0.0011078472 0.009633266 0.01261715 -0.0048590694 -0.0016001273 0.00021042288 -0.008005638 0.0056948327
0.0033569846 0.008163887 0.001665258 0.014124601 -0.011769491 0.012779818 0.0033551515 0.0085771
0.008904548 -0.0037523152 0.0073469984 -0.010241761 0.012620131 0.006788989 0.001004366 0.018776186
-0.0028038016 0.009007241 0.0086182635 0.00052237854 0.0066054985 -0.0022407472 0.016240487 0.00117131
0.013828563 0.020279318 0.013368016 0.0007900701 -0.011530701 0.003720616 0.012728853 0.0022341113
0.012589941 0.016434126 0.0015288849 0.0061091087 0.012978679 0.00041521003 -0.0015582398 -0.0059235916
0.007472328 0.0050335214 0.0018178028 0.010863021 0.0036309713 0.010874728 0.0058782618 0.008793285
00000000: be72 963c b530 16bb cca9 483b 091a 613c
00000010: 919d 953c f136 c0ba 0f58 493c 9cc2 ab3b
00000020: 923d 1d3a e9bf b03b aee7 1d3c 733f 08bc
00000030: 727e 6c3b 306a 5c3c c3a6 123c 1d71 753c
00000040: 9f45 833a 0c84 873c 5026 f73c e355 e93b
00000050: e0a5 943b b65d b83c ee76 52bb f4d4 d2ba
00000060: 4f43 2c3c f940 3c3b 808b 1c3b 7270 5f3b
00000070: c4c6 17bc 8974 433c e569 213c 22d1 0d3c
00000080: 736d 6c3b 1420 ca3a 695e ccbb ab9d 4db9
00000090: 4990 a03a a193 223c d6f8 0e3c 712b 9b3c
000000a0: 2a8e 25bb fcf2 be3b ac9e a7ba 1920 053b
000000b0: 960c 813c df89 783a 1a88 8e3c ff12 813c
000000c0: dcaf 4a3b 0015 283c 6cb7 833c 89a3 003c
000000d0: c366 183c dd40 ac3c 4970 abbb f5e0 9cbb
000000e0: e37a 093c 89ce f13b 982a 3fbb b062 bd3a
000000f0: 537e 143c 0bd4 123c 419b a3ba 9ba8 6b3c
00000100: 1774 0a3c 2bc7 1e3c bd1f 4b3c d473 c03b
00000110: 1a6c 01bc 65ad 0cbc 134c 0f3c f9a7 a63b
00000120: 8d95 b8bb c973 613b af6a 1abc d000 b93a
00000130: 7a1f 1b3c 6a45 4e3b dbf0 163b d01e 3ab9
00000140: b770 af3b c036 30bb 010c c43b 68f1 bc3a
00000150: ec54 e73a d21b 97ba c48d 5bba 485a 783c
00000160: e512 743a 1ab4 303a 40af 1a3c 651a 163c
00000170: 755e 0a3c d7f1 783c f8ac 3f3b 6e3b b4bb
00000180: 5560 c9bb 963d 053c 3c3c 123c bee5 9d3b
00000190: 2b12 03bb 054e 293c a5d8 09bc ba91 513c
000001a0: eea1 413c 74bd 1f3c 133c 1d3c 03c0 973c
000001b0: 733e 113c 52d9 e43b 4f70 383b 97e0 653b
000001c0: 6726 883a 9cd5 843a 5153 09ba d7d7 413b
000001d0: 0df6 5a3c c837 56bb 0966 b13b e179 a23b
000001e0: c2e0 523b 1861 85bb d0f4 db3b 9d54 413c
000001f0: 5293 3d3b 3e8c 353c 0e99 59bb 0004 75bb
00000200: da17 2b3c eac6 323c e5fd 633c a869 f33b
00000210: 7acf 003b bcf6 16bb 6aac 483c aa10 15b9
00000220: ba7a 763c 1534 923b 41e0 743b 16aa 8fba
00000230: 9567 2c3c 5bdd 113b 3408 f43b 17c6 4a3c
00000240: 714a e03b 7f5c 243c 39a4 fdbb b446 8a3b
00000250: ee74 183c 025e a13b 3e05 d23b 7778 333c
00000260: 0270 993b 250c 043c 19d1 ba3b 6c24 4a3b
00000270: ee4a 163b 05f3 aa3b 1a1b 933b 3c3b 39bc
00000280: eab8 333c ab21 6b3c 1e1c c33b 204b 703b
00000290: b689 6b3c 66f3 4f3c feb6 ec3b 2913 253b
000002a0: 880f 66bc 67be 01bb 7264 8a3c 2bad aa3c
000002b0: d967 0f3b b0e6 c6bb c8b4 4d3c bd0b 9a3b
000002c0: a777 b1b9 b568 313c d01f 4b3b 5c9e 063c
000002d0: 9c36 623b 0c81 4d3c c966 0abb cd78 a53b
000002e0: 5540 543c c29b 0b3c d156 2e3c d9a3 0d3c
000002f0: f5cd 8e3c 54f2 fc3b 6a7a 04bc a626 683c
00000300: d42f 673a 8184 e9bb e15d 8e3b 49d7 31bc
00000310: e07f 14bb dd5d 90bb 356b ba3c 581d 613b
00000320: 2f35 913a d9d4 1d3c 2ab8 4e3c d438 9fbb
00000330: 5dbb d1ba f6a4 5c39 142a 03bc b89b ba3b
00000340: db00 5c3b d3c1 053c c944 da3a df6a 673c
00000350: d3d4 40bc 7162 513c 1ae2 5b3b f786 0c3c
00000360: 62e4 113c 67e9 75bb 17bf f03b 0fcd 27bc
00000370: aac4 4e3c 2b76 de3b eea4 833a 84d0 993c
00000380: fcbf 37bb 1b93 133c 9e33 0d3c 3bf0 083a
00000390: f072 d83b 80d9 12bb c50a 853c a486 993a
000003a0: 3291 623c d020 a63c 8605 5b3c b51c 4f3a
000003b0: 44eb 3cbc 94d5 733b ae8c 503c 2b6a 123b
000003c0: 0a46 4e3c dca0 863c dd64 c83a eb2e c83b
000003d0: 86a4 543c 8cb0 d939 da3d ccba b01a c2bb
000003e0: 6eda f43b 3df0 a43b 5743 ee3a d0fa 313c
000003f0: 97f5 6d3b ea2b 323c 6f9e c03b b611 103c

network_body._body_endoder.seq_layers.0.weight f4 [256, 134]
-0.048631117 0.040489454 -0.096780956 -0.03131217 -0.07580202 0.095615916 0.06611744 -0.17764792
-0.0529373 -0.13318719 0.0006933025 -0.1068027 -0.19649172 0.015228392 -0.0026998136 -0.1649686
0.17834343 -0.043436646 0.0771944 0.032340188 -0.022387236 0.1566296 0.06858557 0.07105855
-0.074002825 0.04968909 -0.06337042 0.025495626 -0.07263602 0.08051966 0.13151006 0.12416613
-0.10416368 0.01703716 -0.021348882 0.09900328 0.09454601 0.017126545 -0.08925485 0.13136488
-0.15541112 0.0109944865 0.019460328 -0.10697265 -0.040181614 0.077181816 -0.13210467 -0.08020443
-0.115126975 -0.02472424 0.05892316 -0.17313932 0.0043154457 -0.06997318 -0.009902028 0.009654663
0.0567692 -0.05863859 0.041947555 -0.13736592 -0.11632466 -0.13569263 -0.028245691 0.02845341
-0.09598794 -0.1251727 -0.041191578 -0.03116967 0.0056665475 0.076723374 -0.030925227 -0.122262105
-0.16552703 0.057395987 0.12931566 -0.08810214 -0.16008829 0.032695264 0.10025966 -0.039117187
-0.014743093 -0.06194433 -0.016302913 -0.034604415 0.0505004 0.04334406 0.10845043 -0.04219464
-0.11411931 0.065824255 -0.2042629 -0.0747699 -0.055720657 -0.102117576 0.06967847 0.0017980621
0.033083484 0.06588585 0.06768694 0.029455293 -0.080819346 -0.19532202 -0.059105065 -0.025467651
0.14947028 -0.05737131 0.12218044 0.11602407 0.00056627067 0.06206219 0.20000559 0.18998227
0.0794261 -0.019113582 0.024562253 0.035083786 -0.05200678 -0.0005220661 0.057355043 0.032807592
0.0024970258 -0.04905607 -0.074398436 0.06965542 0.02180154 0.00209098 0.04251204 0.05521331
-0.02810806 0.0050671156 0.049487244 0.003947712 0.1684099 -0.116138674 0.15161279 0.011182631
0.12487641 0.077588126 0.0845894 0.021735335 -0.0023325363 -0.033595156 0.07561709 -0.051325403
0.027099457 0.17568195 -0.03373402 -0.14125623 0.02789999 -0.030832604 0.004087173 0.046606544
-0.102741964 0.1376628 -0.0060962727 -0.022631768 -0.0118031 -0.0701335 -0.0172004 -0.046693
-0.05535707 0.0068945666 0.028875144 -0.026351549 -0.09958305 0.17621398 -0.12210172 0.029771198
-0.07696711 0.14926463 0.1514011 0.02570216 -0.052996174 0.035006255 0.0031628376 0.033580806
-0.026095012 -0.009123074 -0.12106729 -0.009070781 0.007787173 -0.05893857 0.17890531 -0.2018428
0.043814458 -0.0028846532 0.014898252 -0.09533156 -0.06457878 -0.14352286 -0.047717586 0.008993473
-0.039225996 -0.081232496 0.06634309 0.060062986 -0.12909508 0.04083422 -0.046556238 0.21092781
-0.022585493 -0.018945886 -0.03744856 -0.029500179 -0.009516941 -0.104111336 0.07002755 -0.030591803
0.029651284 -0.068293735 -0.07180494 -0.009444173 -0.034795832 -0.0034306198 0.0038296094 -0.06629612
0.05789759 0.01120198 -0.0896849 -0.0049841604 -0.08218522 -0.028737513 -0.09763841 -0.081231244
-0.09990512 0.13672264 -0.028068582 -0.11202719 -0.08850215 -0.11071043 -0.022048786 -0.061431993
0.013315961 0.025852455 -0.04239436 -0.07803707 0.061876997 0.05571123 0.12512222 -0.08353818
0.038428843 -0.13104661 0.04082727 0.049329955 0.08838429 -0.0042952276 -0.006750945 -0.17486577
0.052304745 0.029395018 0.14734405 0.04246293 0.14121251 -0.013397577 -0.0972721 0.07330622
00000000: 6c31 47bd 45d8 253d 1835 c6bd 3141 00bd
00000010: 173e 9bbd 47d2 c33d 9568 873d 56e9 35be
00000020: c8d4 58bd 3962 08be bebe 353a 60bb dabd
00000030: 2035 49be 8180 793c 5bef 30bb 87ed 28be
00000040: a99f 363e a0ea 31bd 1918 9e3d 2577 043d
00000050: 7065 b7bc 8363 203e 9776 8c3d 2587 913d
00000060: cb8e 97bd ca86 4b3d 5ac8 81bd 34dc d03c
00000070: 32c2 94bd 7ee7 a43d 93aa 063e d04a fe3d
00000080: c453 d5bd 8491 8b3c dae3 aebc 3bc2 ca3d
00000090: 57a1 c13d f84c 8c3c 3fcb b6bd 8484 063e
000000a0: 1824 1fbe 3822 343c 446b 9f3c 7a14 dbbd
000000b0: 7a95 24bd 8011 9e3d 7246 07be 3842 a4bd
000000c0: b1c7 ebbd 7d8a cabc 6959 713d 6f4b 31be
000000d0: 9568 8d3b 194e 8fbd 1e3c 22bc 972e 1e3c
000000e0: d286 683d 052f 70bd 33d1 2b3d a7a9 0cbe
000000f0: a03b eebd 02f3 0abe 8263 e7bc 2017 e93c
00000100: 5395 c4bd 462d 00be 80b8 28bd 8957 ffbc
00000110: 72ae b93b 2521 9d3d e756 fdbc 8e64 fabd
00000120: eb7f 29be 0e18 6b3d 536b 043e e56e b4bd
00000130: 2fee 23be 78eb 053d f054 cd3d 5839 20bd
00000140: 048d 71bc 56b9 7dbd b08d 85bc 5cbd 0dbd
00000150: 82d9 4e3d 8b89 313d 421b de3d 49d4 2cbd
00000160: 63b7 e9bd dece 863d 4b2a 51be f620 99bd
00000170: 583b 64bd 0523 d1bd 96b3 8e3d f4ac eb3a
00000180: 8c82 073d 29ef 863d 739f 8a3d 3a4c f13c
00000190: 9d84 a5bd 7f02 48be 2718 72bd 89a1 d0bc
000001a0: bd0e 193e 2efe 6abd bd39 fa3d 079e ed3d
000001b0: c871 143a ec34 7e3d 44ce 4c3e b68a 423e
000001c0: 27aa a23d 1694 9cbc c736 c93c 04b4 0f3d
000001d0: 1005 55bd 43db 08ba 1fed 6a3d 4161 063d
000001e0: 24a5 233b 05ef 48bd 355e 98bd 80a7 8e3d
000001f0: 2599 b23c d308 093b 1b21 2e3d 5a27 623d
00000200: e042 e6bc 0c0a a63b 23b3 4a3d cf5b 813b
00000210: a573 2c3e 1dda edbd 6240 1b3e 5b37 373c
00000220: 34bf ff3d 86e6 9e3d 353d ad3d 4d0e b23c
00000230: 77dd 18bb 139b 09bd 22dd 9a3d 963a 52bd
00000240: aeff dd3c f8e5 333e af2c 0abd 79a5 10be
00000250: 858e e43c a894 fcbc b1ed 853b 81e6 3e3d
00000260: 616a d2bd 7af7 0c3e 3ec3 c7bb 4266 b9bc
00000270: ca61 41bc 27a2 8fbd dae7 8cbc 2941 3fbd
00000280: 18be 62bd d1eb e13b 918b ec3c 34df d7bc
00000290: 33f2 cbbd 7071 343e 7710 fabd bae2 f33c
000002a0: efa0 9dbd d4d8 183e e408 1b3e 568d d23c
000002b0: 8412 59bd b862 0f3d 9c47 4f3b 078c 093d
000002c0: 35c5 d5bc f278 15bc 21f2 f7bd 9d9d 14bc
000002d0: 8b2b ff3b 9269 71bd f432 373e e1af 4ebe
000002e0: ca76 333d 730c 3dbb cc17 743c 313d c3bd
000002f0: e141 84bd a8f7 12be 8473 43bd 5c59 133c
00000300: 70ab 20bd 395d a6bd e3de 873d 9b04 763d
00000310: 8031 04be c841 273d c1b1 3ebd 76fd 573e
00000320: 3605 b9bc 6734 9bbc a963 19bd 5caa f1bc
00000330: f2ec 1bbc 5338 d5bd 9b6a 8f3d a99b fabc
00000340: 40e7 f23c 96dd 8bbd 780e 93bd bcbb 1abc
00000350: 1386 0ebd 40d4 60bb 2ffa 7a3b 43c6 87bd
00000360: 0626 6d3d 8288 373c b8ac b7bd 2b52 a3bb
00000370: ba50 a8bd ef6a ebbc a6f6 c7bd 915c a6bd
00000380: 0e9b ccbd 0501 0c3e 15f0 e5bc 836e e5bd
00000390: 9d40 b5bd 26bc e2bd a89f b4bc 1da0 7bbd
000003a0: 302b 5a3c 87c8 d33c b5a5 2dbd e6d1 9fbd
000003b0: bc72 7d3d 7531 643d 0a20 003e 1116 abbd
000003c0: 9067 1d3d 1531 06be 7f3a 273d 350e 4a3d
000003d0: d302 b53d fbbe 8cbb 0837 ddbb 0310 33be
000003e0: 803d 563d d2cd f03c 5ce1 163e 9ced 2d3d
000003f0: 039a 103e 8381 5bbc 9836 c7bd 9221 963d

network_body._body_endoder.seq_layers.2.bias f4 [256]
0.01179348 0.008060509 -0.0009020293 -0.0035560983 0.01265101 0.0038383033 0.0033123114 -0.0042364304
0.008235056 0.0060721147 0.0012386587 0.0035437087 -0.0041180304 0.0009924824 -0.0057467218 0.009886507
0.0017825806 0.008336656 0.0051774387 0.010703639 -0.0072745066 0.0028344695 0.014244114 0.0047793738
0.014661346 0.008700083 0.0026202158 0.0052441587 -0.0017350154 -1.6244414e-05 0.00038627101 0.0017451352
0.010806211 0.008849555 0.0010770708 -0.0067007025 -0.0015015773 0.004090534 -0.0016191974 0.003625474
-0.00043748927 0.009890451 0.000776985 -0.004613584 -0.0043183155 0.014259809 0.014459198 -0.00076031004
0.003773899 0.0137062585 0.0050126794 0.006335576 0.005419083 0.00077046966 0.0062300176 0.0071049607
0.006487949 -0.0058561885 0.0054329657 0.0160137 0.007989526 -0.0047016144 -0.0009006793 -0.00238775
-0.003820015 -0.0007878394 0.0052206735 0.00524967 0.0018004982 -0.0011482819 0.0011570712 0.02333089
0.0013468286 0.008386333 0.0011634184 -0.008558274 -0.0028546664 0.0016272083 -0.0044290693 -0.009909813
0.0071488745 0.0059926584 0.0013445197 0.003925742 0.0012982333 0.003090901 0.008706315 0.0012332748
0.004791416 -0.0028507144 -0.0011974983 0.0017605036 0.001997376 -0.0045517255 0.0045444667 0.004025884
-0.0009497022 0.0031328606 0.0044775936 -0.0025658866 0.00063305564 0.010408544 -0.004492829 0.00038103477
0.009670575 0.010447064 -0.004499228 0.01089411 0.0071887523 0.005977349 -0.005246411 0.004945084
-0.0008419417 -0.0010405368 -0.007656154 0.008186702 0.0007887744 -0.0070067407 -0.0031720675 0.0029284037
-0.0018593268 0.0011197024 0.009489714 0.008930718 0.0069917785 0.0034571192 -0.0036971339 0.011198296
0.0023741904 -0.003577225 0.016893152 -0.0043521896 0.0030860014 0.002486297 0.006036258 0.0019171976
-0.0075715417 0.014246562 -0.0075812917 -0.0013681393 -0.0009101588 0.003129609 0.0012070676 0.0059296484
0.0066385376 0.0053896923 -0.005135866 0.0072631417 0.0075436947 -0.009537733 0.01011875 0.0030499299
0.0056476695 0.00017972701 -0.008019305 0.0025980044 0.0008436835 0.0034453159 0.00578174 -0.0026073945
0.007339199 -0.0007515418 0.014381513 -0.002619084 0.0043455358 0.0064214 -0.004730333 0.0076385327
-0.001523671 0.01256414 0.00065760297 -0.0033821461 0.0026086865 0.001242621 0.0059574326 0.008526463
0.009074945 -0.0031108605 -0.003886443 0.008902358 0.003306601 0.0018579331 -0.0018174913 -0.006947334
-0.003649151 0.00090084434 0.0058749863 0.00703378 0.017871756 -0.0009400663 -0.00268448 -0.003080361
-0.0029673637 -0.009133911 0.010627771 0.008654271 0.004340383 0.0044070887 0.005348969 0.009714231
-0.009051276 0.009139385 -0.0028201782 0.0013330358 0.009523419 0.010010193 0.007948705 -0.0038063184
-0.0022597609 0.0022339358 0.0057237735 0.0027606688 -0.006769801 -0.007365037 -0.0034614375 0.006581437
-0.0046214885 0.0040251557 0.0116602555 0.002976033 -0.00867161 -0.004700849 0.002891522 0.003069554
-0.0074809757 -0.0003494213 0.010248101 0.0026860905 -0.010018479 0.001761077 0.009311605 0.0071966434
0.011652196 0.009522082 -0.0021897228 -0.0042644935 -0.0032312975 -0.0055090715 -0.0030180996 -0.0034687854
-0.0019592377 0.0117300255 -0.0013329015 0.0073808623 0.0056451783 0.00810708 0.010559645 0.0040072794
0.0032594807 -0.005212563 -0.007961522 0.0043900628 0.004507864 0.004403142 -0.0041634226 0.0081414245
00000000: 7139 413c 3a10 043c 2976 6cba 6e0d 69bb
00000010: 2f46 4f3c 0b8c 7b3b 5d13 593b c1d1 8abb
00000020: 54ec 063c 97f8 c63b 7d5a a23a 913d 683b
00000030: 8bf0 86bb 2f16 823a ff4e bcbb 04fb 213c
00000040: 7ba5 e93a 7896 083c 81a7 a93b 515e 2f3c
00000050: fc5e eebb 82c2 393b 2560 693c 4b9c 9c3b
00000060: 2436 703c cb8a 0e3c edb7 2b3b 31d7 ab3b
00000070: 7569 e3ba 9d44 88b7 6b84 ca39 05bd e43a
00000080: 890c 313c b9fd 103c 802c 8d3a 9191 dbbb
00000090: 93d0 c4ba e309 863b 403b d4ba 5c99 6d3b
000000a0: d15e e5b9 8f0b 223c 95ae 4b3a 8c2d 97bb
000000b0: a880 8dbb f9a1 693c 46e6 6c3c 8b4f 47ba
000000c0: 8553 773b 3790 603c 6741 a43b aa9a cf3b
000000d0: 9092 b13b 58f9 493a 2d25 cc3b bbd0 e83b
000000e0: dc98 d43b 45e5 bfbb 0507 b23b 2a2f 833c
000000f0: 80e6 023c 0010 9abb 911b 6cba cc7b 1cbb
00000100: 3759 7abb 0287 4eba 2f12 ab3b 6c05 ac3b
00000110: b2fe eb3a f281 96ba dea8 973a 6c20 bf3c
00000120: 1288 b03a d466 093c d87d 983a 0138 0cbc
00000130: 5b15 3bbb 0d48 d53a ba21 91bb c55c 22bc
00000140: 1b41 ea3b 105e c43b 983a b03a 83a3 803b
00000150: 7b29 aa3a b790 4a3b efa4 0e3c d6a5 a13a
00000160: 5001 9d3b 0dd3 3abb 60f5 9cba b3c0 e63a
00000170: 69e6 023b a426 95bb c0e9 943b 90eb 833b
00000180: 70f5 78ba ae50 4d3b c7b8 923b 6f28 28bb
00000190: a5f3 253a 9988 2a3c 9538 93bb 9fc5 c739
000001a0: 5571 1e3c 2a2a 2b3c 436e 93bb 367d 323c
000001b0: a08f eb3b a3dd c33b 16ea abbb 5f0a a23b
000001c0: c0b5 5cba 9f62 88ba 7ae0 fabb 8421 063c
000001d0: c1c5 4e3a cd98 e5bb 76e2 4fbb 76ea 3f3b
000001e0: a8b4 f3ba fac2 923a bf7a 1b3c 2552 123c
000001f0: 4a1b e53b d690 623b 9d4b 72bb 0f79 373c
00000200: 4e98 1b3b e06f 6abb 8263 8a3c d09c 8ebb
00000210: 833e 4a3b 24f1 223b cdcb c53b 7a4a fb3a
00000220: b21a f8bb 696a 693c 7c6c f8bb 2353 b3ba
00000230: b997 6eba 201a 4d3b 7836 9e3a 7f4d c23b
00000240: 1788 d93b 049c b03b c44a a8bb a6ff ed3b
00000250: 1931 f73b 2744 1cbc 1dc9 253c 55e1 473b
00000260: 1610 b93b 1a75 3c39 6763 03bc 4843 2a3b
00000270: a42a 5d3a cfca 613b c074 bd3b d2e0 2abb
00000280: aa7d f03b 1e03 45ba 70a0 6b3c f0a4 2bbb
00000290: ff64 8e3b 9b6a d23b e900 9bbb a84c fa3b
000002a0: eab5 c7ba d3d9 4d3c fd62 2c3a ffa6 5dbb
000002b0: 7ff6 2a3b 71df a23a 9136 c33b 94b2 0b3c
000002c0: 14af 143c 94df 4bbb b2b3 7ebb 32db 113c
000002d0: 8fb3 583b e485 f33a e338 eeba 76a6 e3bb
000002e0: 9826 6fbb a426 6c3a f582 c03b a07b e63b
000002f0: ca67 923c c86e 76ba 1aee 2fbb e2df 49bb
00000300: 1a78 42bb 66a6 15bc 1a20 2e3c a5ca 0d3c
00000310: c639 8e3b 5769 903b 6746 af3b 7028 1f3c
00000320: ce4b 14bc 5cbd 153c bdd2 38bb 42b9 ae3a
00000330: 1d08 1c3c cb01 243c 493b 023c 6d73 79bb
00000340: 7f18 14bb 3967 123b 7e8e bb3b 56ec 343b
00000350: 35d5 ddbb 6956 f1bb 49d9 62bb 18a9 d73b
00000360: db6f 97bb 74e5 833b a80a 3f3c 8c09 433b
00000370: 5e13 0ebc 9409 9abb b07f 3d3b 922a 493b
00000380: f922 f5bb 8832 b7b9 a7e7 273c 1f09 303b
00000390: 8c24 24bc f0d3 e63a b48f 183c d2d1 eb3b
000003a0: dae8 3e3c 8202 1c3c 7481 0fbb 2abd 8bbb
000003b0: 2dc4 53bb 7185 b4bb 4fcb 45bb 9054 63bb
000003c0: 8e66 00bb 4b2f 403c c1b4 aeba 29db f13b
000003d0: 30fb b83b 8fd3 043c 5c02 2d3c 7f4f 833b
000003e0: 039d 553b 26ce aabb 0b71 02bc 84da 8f3b
000003f0: b4b6 933b 3b48 903b 526d 88bb 9c63 053c

network_body._body_endoder.seq_layers.2.weight f4 [256, 256]
-0.13620636 -0.039148707 0.0016406574 0.09195689 0.018459775 0.07585799 0.045653325 -0.020953348
0.020220557 -0.040479653 -0.0020574993 -0.03292954 0.06809021 0.021046447 0.123118155 -0.022742547
0.06831559 -0.0075979494 -0.061808974 0.050235268 -0.13735905 -0.036587268 0.018339904 0.007004344
0.00519453 -0.067875154 -0.041119203 -0.028335627 0.048737727 -0.06623458 -0.05517915 0.0010264682
-0.107240714 -0.058999922 -0.011746264 -0.0022983018 -0.05364392 0.043461796 -0.014067628 -0.0662276
0.07626834 0.030959968 -0.10199843 -0.013919 0.04827696 0.005260022 -0.055483658 -0.017291201
0.017077394 -0.008686052 -0.045666873 -0.09078079 0.009676121 0.032360904 -0.15247512 -0.0033152145
-0.154671 0.12633155 -0.10440136 0.019499138 0.06736281 0.009513594 0.07608221 -0.003639711
-0.13305002 0.03502589 0.061697546 0.07669379 0.03013054 0.010690831 -0.052330773 -0.0015286414
-0.07831118 0.005055011 0.11469981 -0.109563895 0.043837573 -0.054911505 -0.08974198 0.024624351
0.028131243 -0.08773756 -0.059601698 0.037245285 -0.0011946292 -0.06036741 -0.03191689 0.08451736
0.048948754 -0.024418345 -0.02114945 -0.0019871758 0.11666635 0.026349368 0.0315658 0.042689458
0.0072779492 0.009216541 0.04124475 0.1092923 -0.024839653 -0.019809324 0.065992124 -0.18540251
0.06058159 -0.010565338 0.020044344 0.02425791 0.043008734 -0.005907913 -0.086766265 -0.06758793
-0.004352563 -0.10566483 0.09776355 -0.04054662 0.09861572 0.06912555 -0.103885174 0.009280229
-0.0483177 -0.01749379 0.07472807 -0.07028868 -0.06559855 0.049146708 0.0034257374 0.037348364
-0.012968972 -0.143259 0.033324394 0.09350714 -0.03901413 -0.039623413 0.025817387 0.07034446
0.022110738 -0.010675119 0.10250088 0.0831751 -0.0023987219 0.03825373 -0.112054355 0.08515245
-0.039053857 -0.11705022 -0.039068297 0.008034154 0.017457264 0.0521125 -0.045096874 0.026391571
0.0025937695 0.06537059 -0.038435318 0.017743386 -0.0214004 0.09814632 0.062393412 0.050768845
0.044807974 -0.010697725 -0.05812823 0.021976568 0.033040818 0.08178585 -0.05297902 -0.024306668
0.034673735 -0.0424919 -0.0404923 0.07702865 0.030786825 -0.0485605 -0.01105748 -0.031380057
0.065533035 -0.058837857 -0.04039896 -0.0897505 0.009618315 -0.101406105 0.021187153 0.013789685
-0.076289214 -0.0072052944 -0.047815107 -0.05342066 0.041098606 -0.029398644 0.061860457 0.11840427
0.006464732 0.11828426 0.02616887 -0.06901595 -0.03637174 -0.0403315 0.04398042 0.024518229
0.11302698 -0.048289943 -0.02717234 0.03984279 0.045940913 -0.006220213 0.033543404 0.14842263
0.04393863 0.15502727 0.05431399 0.022273768 0.06474475 -0.086818 0.11002468 -0.067291014
-0.009543178 0.018407458 -0.09116223 -0.10423047 -0.079953216 0.0020543772 0.0068859826 -0.029876655
-0.092247695 0.09550303 -0.023626609 -0.006590928 0.0042374087 -0.05741347 0.13613617 -0.020775976
0.07158037 -0.1024425 -0.05551415 0.038552575 -0.11138966 -0.014534499 0.05064527 -0.018675758
0.08389715 0.048446245 0.087783046 0.043525945 0.01841866 0.025304362 0.08303572 -0.04176992
-0.11546766 -0.03771582 -0.055582967 0.03367093 0.040284455 -0.02217062 0.034284946 0.0005907759
00000000: ae79 0bbe 655a 20bd 540b d73a e553 bc3d
00000010: f438 973c 6f5b 9b3d fbfe 3a3d 5ba6 abbc
00000020: 95a5 a53c fecd 25bd 1cd7 06bb 20e1 06bd
00000030: e172 8b3d 9969 ac3c 5f25 fc3d 944e babc
00000040: 0be9 8b3d 38f8 f8bb 682b 7dbd 7fc3 4d3d
00000050: daa7 0cbe 88dc 15bd 913d 963c b284 e53b
00000060: e036 aa3b 2102 8bbd 9c6c 28bd 1e20 e8bc
00000070: 36a1 473d ffa5 87bd 8803 62bd 8f8a 863a
00000080: 05a1 dbbd e7a9 71bd 6773 40bc 1b9f 16bb
00000090: bab9 5bbd ff04 323d e97b 66bc 56a2 87bd
000000a0: 9332 9c3d c29f fd3c 8ee4 d0bd 840c 64bc
000000b0: 10be 453d 435c ac3b d542 63bd 47a6 8dbc
000000c0: e4e5 8b3c f14f 0ebc 300d 3bbd 47eb b9bd
000000d0: 9888 1e3c de8c 043d 7022 1cbe 1244 59bb
000000e0: 1362 1ebe 0f5d 013e 61d0 d5bd a8bc 9f3c
000000f0: 83f5 893d e8de 1b3c fdd0 9b3d 3888 6ebb
00000100: 443e 08be 4f77 0f3d 91b6 7c3d a211 9d3d
00000110: 52d4 f63c 9828 2f3c cb58 56bd b25c c8ba
00000120: 9d61 a0bd 81a4 a53b bce7 ea3d 0963 e0bd
00000130: 078f 333d e3ea 60bd a5ca b7bd 02b9 c93c
00000140: 7e73 e63c c0af b3bd e920 74bd 838e 183d
00000150: 1b95 9cba d143 77bd 49bb 02bd 7017 ad3d
00000160: 7d7e 483d fb08 c8bc 9d41 adbc 473b 02bb
00000170: c4ee ee3d a1da d73c 244b 013d 24db 2e3d
00000180: dd7b ee3b fa00 173c 41f0 283d a4d4 df3d
00000190: 877c cbbc 2a47 a2bc e126 873d 28da 3dbe
000001a0: 6724 783d 3d1a 2dbc 0934 a43c 86b8 c63c
000001b0: ed29 303d 2b97 c1bb 83b2 b1bd 8a6b 8abd
000001c0: f29f 8ebb cd66 d8bd 4238 c83d 3614 26bd
000001d0: 0af7 c93d b291 8d3d c0c1 d4bd 1a0c 183c
000001e0: c8e8 45bd 234f 8fbc 080b 993d 83f3 8fbd
000001f0: 8858 86bd 0f4e 493d 5682 603b 99fa 183d
00000200: d07b 54bc 7db2 12be 297f 083d ac80 bf3d
00000210: 48cd 1fbd 294c 22bd fc7e d33c c210 903d
00000220: 9421 b53c b2e6 2ebc fbeb d13d b557 aa3d
00000230: e033 1dbb f1af 1c3d c17c e5bd 6864 ae3d
00000240: f0f6 1fbd 07b8 efbd 1406 20bd afa1 033c
00000250: 8902 8f3c eb73 553d 80b7 38bd 2333 d83c
00000260: 3bfc 293b 04e1 853d 5a6e 1dbd 945a 913c
00000270: e44f afbc f000 c93d 3c90 7f3d fef2 4f3d
00000280: 9188 373d 8345 2fbc de17 6ebd 3408 b43c
00000290: cf55 073d 577f a73d 8700 59bd c71e c7bc
000002a0: 0c06 0e3d fd0b 2ebd 41db 25bd 32c1 9d3d
000002b0: a734 fc3c 60e7 46bd 6f2a 35bc 6088 00bd
000002c0: 2f36 863d f7ff 70bd 6179 25bd 1ccf b7bd
000002d0: 2396 1d3c 01ae cfbd ae90 ad3c 22ee 613c
000002e0: 853d 9cbd 641a ecbb c6d9 43bd 9fcf 5abd
000002f0: 0357 283d 6dd5 f0bc 6461 7d3d f07d f23d
00000300: 1ad6 d33b 053f f23d 1960 d63c 3c58 8dbd
00000310: 89fa 14bd a532 25bd d024 343d 74da c83c
00000320: b07a e73d adcb 45bd 8798 debc 3232 233d
00000330: 8a2c 3c3d eed2 cbbb cf64 093d 1afc 173e
00000340: fef8 333d 78bf 1e3e 5978 5e3d 7a77 b63c
00000350: e598 843d a3cd b1bd 9f54 e13d dfcf 89bd
00000360: fd5a 1cbc 3dcb 963c 43b3 babd c976 d5bd
00000370: 83be a3bd bba2 063b cfa3 e13b e3bf f4bc
00000380: 5cec bcbd 1897 c33d 978c c1bc b6f8 d7bb
00000390: f6d9 8a3b 632a 6bbd 4867 0b3e 6132 aabc
000003a0: bb98 923d 60cd d1bd ce62 63bd 4ee9 1d3d
000003b0: 4320 e4bd 1b22 6ebc 6a71 4f3d e7fd 98bc
000003c0: 45d2 ab3d 926f 463d 99c7 b33d 4348 323d
000003d0: bbe2 963c 184b cf3c a20e aa3d f016 2bbd
000003e0: 4f7a ecbd e77b 1abd f7aa 63bd 87ea 093d
000003f0: 5001 253d 299f b5bc 5f6e 0c3d 4dde 1a3a

network_body._body_endoder.seq_layers.4.bias f4 [256]
-0.00029434927 0.0018428073 0.0019183657 0.0016612783 0.0075227055 0.003919423 0.002438889 0.0074845105
0.004169301 0.00347012 0.0046882946 0.007105612 -0.0005075855 0.005434039 -0.0034838375 0.0036536485
-0.004274444 0.008192848 0.002886441 0.002618516 0.0075403764 0.0027207641 0.001419288 0.0015164549
0.0033728727 0.012873599 0.0041516093 -0.0030870559 0.0073790583 0.017067056 0.0068255505 0.007000655
0.0009716911 0.0012641905 0.006461119 -0.0007210965 0.002991314 0.009042303 0.007574745 0.0025256404
0.0038996737 0.007836014 -0.0021388351 0.00035256188 0.005060745 0.0033525135 -0.0024351408 0.005141299
0.009440521 0.0034766118 0.010883835 0.0054225344 0.009462382 0.008052929 0.0030015742 0.0041903686
-0.0031198433 -0.0034366664 -0.003244869 -0.0016689117 0.011002388 0.0009767092 0.0019716443 0.008101533
0.008306601 0.0067400043 0.004919892 0.0061080777 0.0052757817 -0.00088482857 0.000623579 0.0051374976
0.005694961 0.0029414156 0.005840951 0.001406687 0.009245215 0.0009357965 -0.0009201931 0.001837642
0.00032651142 0.0031824722 0.0072536333 0.009123965 0.008171296 0.0073918784 4.6570774e-05 0.001353619
0.006061772 0.009262251 0.009968932 0.0038673014 0.004809046 -0.00055441767 0.0078031565 0.0032635003
0.0015081805 0.001507204 0.0022559855 -0.0005279571 0.0005015717 -0.0038786882 -0.0012498817 0.00066153484
0.0053870627 0.005450912 -0.002541028 0.0035574841 0.00026950723 0.009285648 0.00013670212 0.0047553345
-0.0016962754 -0.0021174466 0.011020389 0.010975296 0.005702977 0.004658361 0.01132093 0.005704591
0.0075811977 0.007475247 0.007743653 -0.0017889733 0.0056918063 -0.0014410189 0.0058715884 0.0046679154
0.0045139054 0.004162771 0.0005712861 -0.00036953826 0.002674919 0.00042862262 0.0019016153 0.0037340194
0.008134715 -0.0029726843 0.0014782402 -0.0025764573 -0.00013978039 0.0014053263 0.001879786 0.007315814
0.007860572 0.0018990736 -0.0037915092 0.00055859855 0.0070807873 0.00054803817 0.00981581 0.0029511638
0.0033158865 0.0059103 -0.00017275788 0.0063378625 0.005204717 -0.00020833175 0.008595407 0.009177192
-0.0018243392 0.0015814637 0.006677084 0.0022517054 0.009237568 0.0073299073 0.009492726 0.0018837443
0.0017772816 0.00042056284 0.0023341158 0.001066396 -0.00078941975 0.00835118 0.0020858354 0.0011415293
0.011373989 0.004869244 -0.00093608565 -0.0014880192 0.0075962055 0.009563679 -0.0028256373 0.007946787
-0.0025615268 0.0033270326 0.0068448675 0.004211363 0.006872869 0.004573271 0.0028320886 0.008386687
0.0015560978 0.0014243413 0.0077661276 0.005606407 -0.0008963925 0.0061696875 0.005547146 0.0058260066
-0.0060643456 0.0015180558 0.009225267 0.0013948084 0.007035494 0.0058033164 0.004570101 -0.0030702588
0.0041096983 0.010329833 0.004280829 0.0037768201 0.013519646 -0.0032210161 0.002037464 0.00013092595
0.0059365556 0.0016329952 -0.0020223772 0.0054687243 0.0012527698 0.0069944006 0.003910603 0.009190404
0.006629766 0.0019965689 0.006542996 -0.0022337276 0.0084306365 0.006821043 -0.0036870106 0.008572423
0.0061856615 -0.0044692587 -0.0011270832 0.008174642 0.0012490936 0.0052816635 0.002923864 -0.00056702056
-0.002629752 0.004205385 0.003598502 0.0039778105 0.011579462 -0.0009497305 -3.51894e-05 0.012158614
0.004738171 0.003644515 -0.001875067 -0.00070649036 0.008768692 -8.390505e-05 0.006915425 -0.0032421027
00000000: e452 9ab9 5a8a f13a ac71 fb3a 40bf d93a
00000010: 0781 f63b 816e 803b c4d5 1f3b a040 f53b
00000020: a29e 883b f46a 633b 44a0 993b 32d6 e83b
00000030: 7c0f 05ba 0610 b23b 1851 64bb 0d72 6f3b
00000040: a310 8cbb 4c3b 063c 722a 3d3b 699b 2b3b
00000050: 4315 f73b d94e 323b 6707 ba3a c8c3 c63a
00000060: 6a0b 5d3b caeb 523c 390a 883b 3450 4abb
00000070: 07cc f13b 36d0 8b3c dea8 df3b c065 e53b
00000080: 16b9 7e3a 32b3 a53a cbb7 d33b f807 3dba
00000090: ec09 443b 2b26 143c 9135 f83b 3785 253b
000000a0: ab91 7f3b a062 003c b32b 0cbb 0ed8 b839
000000b0: 9bd4 a53b d8b5 5b3b e296 1fbb 5878 a83b
000000c0: 6aac 1a3c ded7 633b 1d52 323c 84af b13b
000000d0: 1b08 1b3c 6ff0 033c 0fb6 443b 5c4f 893b
000000e0: 4976 4cbb b239 61bb dea7 54bb 62bf daba
000000f0: 5c43 343c ec04 803a b436 013b 4bbc 043c
00000100: 6918 083c 41db dc3b 0c37 a13b 4526 c83b
00000110: 77e0 ac3b d7f3 67ba ae77 233a 7458 a83b
00000120: cc9c ba3b c4c4 403b 7365 bf3b 9560 b83a
00000130: 3e79 173c 3d50 753a 1d39 71ba 09dd f03a
00000140: 9f2f ab39 0691 503b e3af ed3b af7c 153c
00000150: e6e0 053c 9237 f23b fd54 4338 eb6b b13a
00000160: d4a1 c63b b2c0 173c bb54 233c 8d72 7d3b
00000170: 3495 9d3b 5756 11ba 9fb1 ff3b 73e0 553b
00000180: 24ae c53a 608d c53a 28d9 133b 9a66 0aba
00000190: e87b 033a 9731 7ebb 12d3 a3ba da6a 2d3a
000001a0: f585 b03b 909d b23b 6087 26bb ae24 693b
000001b0: a64c 8d39 d522 183c b257 0f39 a3d2 9b3b
000001c0: 8f55 deba dcc4 0abb dd8e 343c bad1 333c
000001d0: 0ae0 ba3b 2aa5 983b 6c7b 393c 94ed ba3b
000001e0: b26b f83b ebf2 f43b 78be fd3b fc7b eaba
000001f0: 5582 ba3b 92e0 bcba 7466 c03b 50f5 983b
00000200: 62e9 933b db67 883b 5cc2 153a 96be c1b9
00000210: b24d 2f3b c1b8 e039 9f3f f93a 73b6 743b
00000220: 7847 053c 5ed1 42bb 83c1 c13a c8d9 28bb
00000230: 0392 12b9 ed32 b83a 2763 f63a 7fb9 ef3b
00000240: a1c9 003c 56ea f83a f87a 78bb ea6e 123a
00000250: f305 e83b 38aa 0f3a 7ed2 203c 5068 413b
00000260: 584f 593b 31ab c13b 5726 35b9 d8ad cf3b
00000270: 558c aa3b a173 5ab9 c0d3 0c3c ef5b 163c
00000280: aa1e efba 1e49 cf3a 71cb da3b 5991 133b
00000290: 2b59 173c b82f f03b 6187 1b3c f8e7 f63a
000002a0: adf3 e83a fd7e dc39 f7f7 183b 50c6 8b3a
000002b0: 10f1 4eba 63d3 083c 83b2 083b 5e9f 953a
000002c0: f859 3a3c 2e8e 9f3b a563 75ba a409 c3ba
000002d0: 97e9 f83b fab0 1c3c 542e 39bb 3e33 023c
000002e0: 4adf 27bb 580a 5a3b e94a e03b 79ff 893b
000002f0: ce35 e13b 61db 953b 909a 393b 5168 093c
00000300: faf5 cb3a f7b0 ba3a 007b fe3b f3b5 b73b
00000310: e2fb 6aba 172b ca3b d5c4 b53b 16e8 be3b
00000320: 6bb7 c6bb 80f9 c63a 9325 173c 01d2 b63a
00000330: 008a e63b bf29 be3b c9c0 953b 6536 49bb
00000340: a6aa 863b 763e 293c 3246 8c3b 8784 773b
00000350: 8181 5d3c af17 53bb f986 053b 2b49 0939
00000360: 7087 c23b 3a0a d63a dc89 04bb fc32 b33b
00000370: fb33 a43a 4931 e53b 8424 803b 5993 163c
00000380: 823e d93b ded8 023b a166 d63b bb63 12bb
00000390: a720 0a3c 0e83 df3b c6a1 71bb 5973 0c3c
000003a0: 17b1 ca3b dc72 92bb a3ba 93ba efee 053c
000003b0: a0b8 a33a ce11 ad3b 4c9e 3f3b 1ba4 14ba
000003c0: eb57 2cbb 54cd 893b d8d4 6b3b 4b58 823b
000003d0: c9b7 3d3c 56f7 78ba 5598 13b8 ec34 473c
000003e0: a942 9b3b d1d8 6e3b cfc4 f5ba c433 39ba
000003f0: 8faa 0f3c 2ef6 afb8 ca9a e23b 7579 54bb

network_body._body_endoder.seq_layers.4.weight f4 [256, 256]
-0.044556152 -0.072357625 -0.09606801 0.0034232608 -0.027417812 -0.004043022 0.054194745 0.0038602334
-0.016677879 -0.06733018 -0.005370913 0.05252712 0.03773976 -0.07529828 0.115651004 0.083279096
-0.0699543 -0.043081008 0.13817412 -0.06107664 0.016673073 -0.08753639 0.036603436 -0.06972879
0.09262472 -0.024996463 -0.06319433 0.07059017 -0.06487919 0.06623289 0.12064338 -0.0056710145
-0.018784743 0.020824073 -0.0023711782 -0.051834486 -0.082083955 -0.0004055425 0.0067875627 -0.017045585
-0.12998578 0.029277176 -0.012481872 -0.027029764 -0.043409728 -0.034878045 0.007261274 -0.025040733
0.08766836 0.10180653 0.057129864 -0.10110763 0.035878286 -0.09222918 0.05231381 0.07249631
-0.012992735 0.15288739 -0.024157615 -0.021351693 0.09909097 0.027257022 0.085755005 -0.007928979
0.1402206 0.04032554 -0.04663661 -0.073875055 -0.065066524 0.020799244 -0.089529976 -0.03322983
-0.11501253 0.0026060645 0.07567171 -0.04948291 -0.016665656 0.10553182 -0.040871486 -0.021490632
0.019067924 -0.03678666 -0.03978377 -0.03242338 -0.082748294 0.023648046 -0.06502917 0.078935444
0.06415793 -0.021143228 -0.05981637 -0.044347852 -0.10607112 0.0012089707 -0.1353093 -0.07462301
-0.08797124 0.16057076 0.039611004 -0.054746293 0.010623811 -0.15519346 -0.058183525 -0.046499234
0.014164358 -0.08089196 0.012763968 0.023166057 0.008476718 0.0022140513 -0.015986811 0.009066856
-0.01094507 0.014094494 -0.0034508656 0.08665419 -0.008394548 0.05319117 0.0216824 -0.056392252
0.045018166 0.028128227 -0.035407826 0.10858542 0.13464883 0.09049458 -0.10550439 -0.0120484615
0.11531061 -0.005909736 0.019726034 -0.06890293 0.019104356 -0.02082634 -0.022654457 0.0888012
0.014518897 -0.0054539344 0.11103497 0.03571478 0.11857491 0.06689183 -0.018070394 -0.092058524
0.032341566 -0.06633701 0.09128512 0.0122379325 0.011136371 0.116373405 0.0917843 -0.041474786
-0.010849366 -0.030989952 -0.046549726 0.028008137 -0.014558127 0.061226685 0.028794136 0.08453588
-0.029568354 -0.024339002 0.04857208 0.124425806 -0.10106646 0.043526616 -0.028003516 0.045400668
0.05468217 -0.036774382 -0.040628545 0.10557178 -0.019532662 0.050013237 0.13105804 0.08525377
0.0146354465 -0.01243048 -0.089094855 0.03018415 0.13099122 -0.07421534 0.054522954 -0.036672577
-0.052763112 -0.030093804 0.14898244 -0.042378027 0.07025779 -0.10181424 -0.041997753 -0.0869197
0.06483693 0.007941435 0.014956851 0.01613575 -0.019173667 0.07764067 0.0068510524 0.051517688
0.0473823 0.061740942 -0.044931043 -0.112424806 -0.06589576 0.10764016 0.04878134 0.027771298
-0.018839417 0.020236466 0.036336616 -0.066168055 -0.03932211 0.019783419 -0.061624028 0.03276184
0.014063477 -0.14716329 -0.0129225645 0.070313975 -0.08578193 -0.009232614 0.018666914 -0.08462205
0.036606316 -0.046317484 0.04633737 0.046829097 0.13818432 0.08037868 -0.05233178 -0.02955197
0.04225102 -0.0063511236 0.06407067 -0.04387578 -0.1631419 -0.067231506 -0.09319621 -0.07133493
0.016045198 -0.035063226 0.012788063 0.069512114 -0.007704602 -0.1515135 0.011897956 -0.0023818691
-0.01616592 0.05619856 -0.010718143 0.013114461 0.0038356602 -0.021721406 0.09996366 0.040693365
00000000: 8380 36bd 3c30 94bd 4ebf c4bd c958 603b
00000010: 529b e0bc 547b 84bb 4ffb 5d3d f8fb 7c3b
00000020: 0ca0 88bc 68e4 89bd 7cfe afbb ad26 573d
00000030: 0295 1a3d fc35 9abd 6fda ec3d 3b8e aa3d
00000040: 3344 8fbd b675 30bd 847d 0d3e 802b 7abd
00000050: f895 883c 4746 b3bd 7ced 153d f8cd 8ebd
00000060: 07b2 bd3d 62c5 ccbc 076c 81bd 9491 903d
00000070: 61df 84bd 1ca5 873d e013 f73d ebd3 b9bb
00000080: 76e2 99bc 3f97 aa3c c565 1bbb 6650 54bd
00000090: a21b a8bd fe9e d4b9 346a de3b 2fa3 8bbc
000000a0: fe1a 05be b0d6 ef3c c480 4cbc 866d ddbc
000000b0: 66ce 31bd 48dc 0ebd fbef ed3b 3922 cdbc
000000c0: 788b b33d f17f d03d 0101 6a3d 8411 cfbd
000000d0: 1cf5 123d a7e2 bcbd 0147 563d f278 943d
000000e0: 7bdf 54bc 838e 1c3e 31e6 c5bc bfe9 aebc
000000f0: 35f0 ca3d 1e4a df3c 52a0 af3d 8ce8 01bc
00000100: fd95 0f3e 652c 253d 0806 3fbd ce4b 97bd
00000110: 9941 85bd 2d63 aa3c 7e5b b7bd 011c 08bd
00000120: b08b ebbd 82ca 2a3b c5f9 9a3d 98ae 4abd
00000130: 6a86 88bc 1121 d83d dc68 27bd 1f0d b0bc
00000140: 5634 9c3c 9cad 16bd 4ef4 22bd 61ce 04bd
00000150: f077 a9bd 8cb9 c13c 032e 85bd e8a8 a13d
00000160: 3c65 833d 9034 adbc 0302 75bd 18a6 35bd
00000170: d13b d9bd 5376 9e3a 858e 0abe f3d3 98bd
00000180: 442a b4bd a96c 243e 263f 223d a63d 60bd
00000190: 7e0f 2e3c 09eb 1ebe d951 6ebd fb75 3ebd
000001a0: a011 683c afaa a5bd f61f 513c bec6 bd3c
000001b0: efe1 0a3c 9e19 113b c6f6 82bc 268d 143c
000001c0: f352 33bc 98ec 663c eb27 62bb c177 b13d
000001d0: 4989 09bc fcde 593d 4a9f b13c 90fb 66bd
000001e0: f864 383d 2b6d e63c cc07 11bd 0862 de3d
000001f0: 62e1 093e 3955 b93d b012 d8bd e966 45bc
00000200: f827 ec3d 75a6 c1bb 7e98 a13c fb1c 8dbd
00000210: bd80 9c3c 009c aabc d795 b9bc 67dd b53d
00000220: abe0 6d3c ebb6 b2bb 4d66 e33d a949 123d
00000230: 67d7 f23d 95fe 883d 5d08 94bc 2e89 bcbd
00000240: 9778 043d b3db 87bd b1f3 ba3d 9c81 483c
00000250: 5375 363c 2e55 ee3d 68f9 bb3d 77e1 29bd
00000260: 8ac1 31bc a4de fdbc edaa 3ebd 5271 e53c
00000270: 3685 6ebc d5c8 7a3d aee1 eb3c 2621 ad3d
00000280: 5539 f2bc 9662 c7bc 84f3 463d f5d2 fe3d
00000290: effb cebd f748 323d a167 e5bc 0df6 393d
000002a0: 69fa 5f3d bca0 16bd 1e6a 26bd 0436 d83d
000002b0: f602 a0bc aeda 4c3d 1434 063e 8799 ae3d
000002c0: 83c9 6f3c 36a9 4bbc 5d77 b6bd c044 f73c
000002d0: 9022 063e 36fe 97bd 7653 5f3d fc35 16bd
000002e0: 221e 58bd 4887 f6bc da8e 183e 9594 2dbd
000002f0: 51e3 8f3d fc83 d0bd d605 2cbd f502 b2bd
00000300: 39c9 843d cb1c 023c 940d 753c 1f2f 843c
00000310: 1812 9dbc 1202 9f3d cb7e e03b 3604 533d
00000320: f113 423d 12e4 7c3d 9d09 38bd fa3e e6bd
00000330: 5bf4 86bd 7272 dc3d f1ce 473d a280 e33c
00000340: 1f55 9abc f2c6 a53c b4d5 143d 1e83 87bd
00000350: 3910 21bd d610 a23c 7a69 7cbd 4731 063d
00000360: 7f6a 663c f9b1 16be 2ab9 53bc c600 903d
00000370: 70ae afbd 6444 17bc 5beb 983c 534e adbd
00000380: 81f0 153d 67b7 3dbd 41cc 3d3d decf 3f3d
00000390: 3180 0d3e 949d a43d d959 56bd f916 f2bc
000003a0: 680f 2d3d 161d d0bb 7c37 833d 17b7 33bd
000003b0: ac0e 27be acb0 89bd a8dd bebd 0c18 92bd
000003c0: 3871 833c 759e 0fbd 0685 513c 5e5c 8e3d
000003d0: e376 fcbb 5b26 1bbe a5ef 423c 2219 1cbb
000003e0: 646e 84bc 7630 663d 269b 2fbc 09de 563c
000003f0: b35f 7b3b 17f1 b1bc bfb9 cc3d 16ae 263d
