Assets/Training/results/RUN3/SzitakotoBehavior/SzitakotoBehavior-9499992.onnx (onnx, 670607 bytes, 13 tensors)

65 f4 [132]
00000000: cfc7 913e 77c4 ec3e 7bf1 d23e 64ea 6d3e
00000010: 2f56 853e d707 eb3e e7d0 d53e 1e61 723e
00000020: cc98 923e bb79 f03e 16d8 d83e de9e 673e
00000030: e096 4a3e afa0 eb3e 7fd0 e03e 7ebc 783e
00000040: ee1b 8d3e d646 f23e f344 de3e fd3d 633e
00000050: a7f8 103e 9d88 ed3e 543f e83e a882 7c3e
00000060: 6155 813e 8b16 f23e 8628 e23e 184b 613e
00000070: c13c f13d 5381 f13e 380c ee3e b131 7f3e
00000080: 776f 663e 014e f23e fb0a e63e af4c 603e
00000090: 0ed2 e33d 8051 fb3e cb98 f93e 91a5 833e
000000a0: 46ac 523e 4c1d f63e bdd5 ed3e 5ce4 623e
000000b0: c8f1 913e f5a7 ec3e f238 d33e 1382 6c3e
000000c0: ff7e 853e 16ed ea3e 2707 d63e 30f7 703e
000000d0: 93cc 923e 073b f03e 591d d93e e91d 663e
000000e0: 38f5 4a3e 0888 eb3e 5214 e13e 929e 773e
000000f0: 8852 8d3e 4823 f23e cd77 de3e efd5 613e
00000100: 1b3e 113e 7c66 ed3e 426e e83e 4d00 7b3e
00000110: 3079 813e 760c f23e 9650 e23e 5593 5f3e
00000120: 2aa0 f13d c148 f13e 4336 ee3e 3dc7 7d3e
00000130: 1cb5 663e b7f9 f13e b673 e63e 12a1 5e3e
00000140: 9214 e43d f846 fb3e 33cb f93e e2d1 823e
00000150: c4ea 523e 6c09 f63e 2d05 ee3e ce46 613e
00000160: 401b 923e 9385 ec3e dd82 d33e 3b6a 6b3e
00000170: aea6 853e a0cd ea3e 9670 d63e 1c88 6f3e
00000180: 64fe 923e 1907 f03e da46 d93e 4e91 643e
00000190: 7049 4b3e 2e74 eb3e bc4c e13e 9b34 763e
000001a0: ea89 8d3e f5ff f13e 98e5 de3e 835f 603e
000001b0: 9482 113e 0d44 ed3e c595 e83e daa2 793e
000001c0: f19c 813e 4fe8 f13e d66f e23e 6429 5e3e
000001d0: f003 f23d de1d f13e 0e85 ee3e 6839 7c3e
000001e0: e9fd 663e 25e2 f13e 06e2 e63e b51b 5d3e
000001f0: d758 e43d e13c fb3e 0fe4 f93e 7306 823e
00000200: c028 533e 12fb f53e 9621 ee3e be72 5f3e
0.28472754 0.4624364 0.4119986 0.23233944 0.26042315 0.4590442 0.41760942 0.2366986
0.286322 0.46967873 0.4235236 0.22619197 0.19784117 0.4602103 0.4390907 0.24290654
0.2756037 0.4731967 0.4341198 0.22191615 0.14157353 0.4639329 0.45360816 0.24659216
0.2526045 0.47282824 0.44171542 0.22001302 0.11779166 0.4716898 0.46493697 0.249213
0.22503458 0.47325137 0.44930252 0.21904252 0.11124049 0.49085617 0.48749384 0.25712255
0.2057353 0.48069227 0.46452132 0.22157425 0.28504777 0.4622189 0.41254383 0.23096494
0.26073453 0.45884007 0.41802332 0.23531795 0.28671703 0.46920034 0.42405203 0.22472347
0.19820106 0.4600222 0.43960816 0.24181584 0.2760203 0.47292542 0.43450776 0.22054265
0.14183848 0.46367252 0.4539662 0.24511833 0.2528777 0.47275132 0.44202107 0.21833546
0.11798127 0.4712582 0.46525773 0.24783035 0.22530025 0.4726083 0.45010155 0.21741131
0.11136736 0.49077582 0.4878784 0.25550753 0.20597368 0.48054063 0.46488324 0.21999666
0.28536415 0.4619566 0.41310778 0.22989742 0.2610373 0.45860004 0.4188277 0.23391765
0.2870971 0.46880415 0.42436868 0.22321054 0.19852233 0.45987076 0.44003856 0.24043505
0.27644283 0.47265592 0.4353454 0.21911435 0.14209968 0.4634098 0.45426765 0.24378529
0.2531505 0.4724755 0.4422595 0.21695477 0.11817157 0.470931 0.46585888 0.24631274
0.22557797 0.47242847 0.45094317 0.215926 0.11149757 0.49069884 0.48806807 0.25395545
0.20621014 0.48043114 0.4651 0.21821114

68 f4 [2]
00000000: b7da 7c3e fa66 a03e
0.24692808 0.31328565

action_model._continuous_distribution.log_sigma f4 [1, 2]
00000000: 21f1 97bd cf84 e539
-0.074190386 0.00043777234

action_model._continuous_distribution.mu.bias f4 [2]
00000000: b599 05ba 7b87 67bb
-0.00050964515 -0.0035328555

action_model._continuous_distribution.mu.weight f4 [2, 256]
00000000: 318b d6bc fc2a 303c c508 a1bc e46d 0a3c
00000010: 7b9d 04bd 22b1 de3c ca2c 883c 900a a33c
00000020: 0068 b13b 540f 6b3b 4d54 cf3c bd16 a1bc
00000030: 6eb1 403d a7ca 20bd 9f0f 5cbc c6f5 20bb
00000040: 5f52 1cbc 8998 cb3c 667d c03c 9e9a fcbc
00000050: 8194 7cbc 9e1e 393c 8516 633c 0e4a 6dbc
00000060: 7607 4ebc 0ded b7bc 1951 f73c 95ae ee3b
00000070: 2628 e2bc 0d14 8fbc 9ca7 e83c 37ae f3bc
00000080: 7077 51bc 545a 80bc 9fe2 6bbc 333a 9fbc
00000090: 37d5 4f3c 343b 973b 6e17 d1bc b99e 27bc
000000a0: a559 92bc efc1 73bc f679 613c bf56 27bd
000000b0: 4ac8 9cbc 8217 87ba 93b0 3c3c 5890 113d
000000c0: 7196 adbc 88dc d33b aec6 16bd 5945 06bd
000000d0: bf11 573d 478d 15bd 131a 9739 fa78 08bd
000000e0: d778 4cbc 1b40 c2bb 03d5 823c 0cba 5bbc
000000f0: 316c 133d d432 8abc 1e2d 563c ea91 36bd
00000100: 62e0 c0bc 2807 91bc d6cc 17bc 085b 83bc
00000110: 56ff e53c 5232 6cbc bf6d 9b3b fc71 333c
00000120: 2be1 733d 9f74 a2bb 0d4d 0f3c 2fb2 983c
00000130: ea6f 983c 643b aa3b d1cb ac3c 3e6e 043c
00000140: 1e76 df3c ac23 8dbb 0e16 f5bc aeca 233d
00000150: 51df cabc 3301 8b3c 969b abbb 94e2 e53c
00000160: 2ed1 353c 9cc6 6bba 5df7 dbbc defe 54bc
00000170: 020f 97ba 54dc 6d3b 3753 7dbc 043d 343c
00000180: f7dd 203b f2db 75bc c359 c33b 6ac4 653c
00000190: 94aa 243c 9dc0 21bc 2e02 0abc c096 d53c
000001a0: 1bc9 34bc 47f0 763c c5f3 c53b c46e 673b
000001b0: c2c2 f1ba 661c 3d3d 5932 8b3c 7fce d0bb
000001c0: 5f30 abbc 251e 1f3c c3bd 63bd 4e36 0b3c
000001d0: 86d9 d73a 06bb 2b3d 3806 033c bed6 d8bc
000001e0: e0b3 1dbd 6df8 c5bc 5158 85bc 185d 433b
000001f0: 2432 953c 2c1b 733c 9a70 b23b 2e20 153c
00000200: d554 a23c aeba 7b3d 1603 c93c 4111 2b3c
00000210: 09c2 08bb 53ea 99bc 09f2 73bc d7a6 aebc
00000220: 334c 85bb 7546 72bc b276 9abb 6fca 87bc
00000230: 755b 59bc 0e94 79bc 6d05 ac3c b3b9 57bc
00000240: 0219 02bc 0f51 823c a6b2 23bc 1a21 773c
00000250: 05c0 ce3c d86a 823c beef ed3c f00d b03c
00000260: 5bc6 213d 83e8 123a be75 d43b d519 e4bb
00000270: 49d4 503c c41e e8bb 0952 313d 443e 41bc
00000280: f18e 8dbb c095 283c 3a95 6dbb 6700 c13b
00000290: 838e 0ebd b428 ee3b 7777 ddbc b5c2 9e3c
000002a0: 4c8e e3bc 433a d1bb 904c 95bb 0722 64bb
000002b0: 6eb1 e23c a99b bcbc fb56 dcba 17cd 493c
000002c0: 3d43 17bd 7ff9 e63c a5b9 a83c 0130 dcbc
000002d0: 468e eebc d39d 84bc b849 2abc 62ad 6fbc
000002e0: d662 cabb 31f8 e3bb 57a9 953c fddc ce3b
000002f0: 1f86 f63c 45aa ccbc 49f1 f23b 0e59 263d
00000300: 3af6 993c 714d 9c3c a6cf e83c b8d5 8bbc
00000310: 6896 a53c 2f94 933c f53b c33c 5e45 20bc
00000320: e99a 633a 4ad1 533b 43c4 96bc 0422 d73c
00000330: 510c 2e3c 860b df3c b507 f0bc 8133 573c
00000340: 6ec2 9cbb df14 bcbc 266c 503b cd1c cfbc
00000350: aede f7bc fa8f 843a 49d7 97bc cab8 13bc
00000360: 87a8 37bc ee1e 76bb 6b2b 30b9 3c13 ad3c
00000370: adbe ce3c 21c0 40bd e5e3 dcbc 8350 15bd
00000380: 3a0a 43bc e948 763b 4d00 993c 5845 2e3c
00000390: 78fd a33c f9d8 523d 401f 0c3c 47f3 d4bc
000003a0: 73f3 cd3c 9447 d6bb c6f6 eb3b 11c7 c2bc
000003b0: fac7 b33a 306a afbc aeed 4f3c af79 3fbc
000003c0: 30e9 00bc dd05 783c 9d27 ebbb f47c aa3c
000003d0: 79ca 6d3c 4a6c 133d e13e 903b a29c 9e3c
000003e0: f4c9 4a3c d25c 003d 749c 24bb 8ed3 2d3c
000003f0: 7d1b c3bc bf44 37bc 3af6 a8bc 1a63 163a
-0.026189419 0.010752436 -0.019657502 0.0084490515 -0.032376748 0.027184073 0.01662292 0.019902498
0.005414009 0.003586729 0.025308752 -0.019664163 0.04704421 -0.039255764 -0.013431459 -0.0024560555
-0.009541123 0.024853008 0.023497295 -0.030835446 -0.015416265 0.011298804 0.01386035 -0.014482988
-0.012575021 -0.022451902 0.030190038 0.0072839954 -0.027607035 -0.017465616 0.028400235 -0.029746158
-0.012784824 -0.015668072 -0.014397292 -0.019436931 0.012685112 0.004615212 -0.025523867 -0.0102307135
-0.017865011 -0.01487778 0.013761988 -0.040854212 -0.019138474 -0.0010306688 0.011516708 0.035538048
-0.0211899 0.0064654984 -0.03681057 -0.03278098 0.05250716 -0.036511686 0.0002882039 -0.033318497
-0.012479982 -0.005928052 0.015970713 -0.013411056 0.03599185 -0.01686994 0.01307228 -0.04457275
-0.023544494 -0.017703608 -0.009265145 -0.016034618 0.028075855 -0.014416294 0.0047433074 0.010952469
0.05954091 -0.00495775 0.008746398 0.018639652 0.018608052 0.005195068 0.021093281 0.008082924
0.027278002 -0.004307231 -0.029917743 0.039988212 -0.024764689 0.016968345 -0.005237053 0.028062142
0.011097236 -0.00089941337 -0.02685135 -0.013000218 -0.0011524858 0.0036294656 -0.0154617345 0.011000875
0.0024546364 -0.015006052 0.005961628 0.01402388 0.010050435 -0.009872583 -0.008423371 0.02607286
-0.011034275 0.015071935 0.0060410225 0.0035313824 -0.0018444883 0.04616966 0.016991781 -0.0063722725
-0.020897089 0.009711777 -0.055600893 0.008496834 0.0016468025 0.041926406 0.007997088 -0.026469585
-0.03850162 -0.02416631 -0.016277464 0.0029810127 0.018212385 0.014838021 0.005445552 0.0091019105
0.019815842 0.06145733 0.024537604 0.010441125 -0.0020867607 -0.018788492 -0.014889249 -0.02131979
-0.0040679215 -0.014787306 -0.0047138566 -0.01657602 -0.013266434 -0.015233053 0.020998681 -0.013166833
-0.007940533 0.015907792 -0.009991324 0.015083576 0.025238046 0.015920088 0.029044982 0.02149102
0.039495807 0.0005604105 0.0064837625 -0.006961087 0.012745925 -0.0070837457 0.043291125 -0.01179463
-0.0043200185 0.010289609 -0.0036252276 0.0058899405 -0.03480388 0.007268036 -0.027034504 0.019379953
-0.027777813 -0.006385119 -0.004556246 -0.003481032 0.027672496 -0.023023443 -0.001681059 0.012316964
-0.036929358 0.02819514 0.020596335 -0.026878359 -0.029120576 -0.016188538 -0.0103935525 -0.01462874
-0.006176333 -0.006957077 0.018269224 0.006312965 0.03009325 -0.024983535 0.0074140173 0.040612273
0.018794168 0.019079896 0.028419327 -0.017069682 0.02021332 0.018014995 0.0238323 -0.009782163
0.0008682446 0.003232079 -0.018404132 0.026261337 0.010623054 0.027227174 -0.02930055 0.013134838
-0.00478392 -0.02295917 0.0031802743 -0.025282288 -0.03025755 0.0010113709 -0.018535273 -0.009016225
-0.011209614 -0.0037555057 -0.00016800842 0.021127336 0.025237406 -0.04705823 -0.026964137 -0.036453735
-0.011904294 0.003758008 0.018676901 0.01063665 0.020018324 0.051476452 0.008552372 -0.02599491
0.0251405 -0.0065392945 0.0072010485 -0.023776563 0.0013716214 -0.021412939 0.012690945 -0.0116867265
-0.007868096 0.015138117 -0.007176353 0.020811535 0.014513605 0.035991944 0.004402027 0.019361798
0.012377251 0.03133852 -0.0025117667 0.010609521 -0.023816818 -0.011185824 -0.020625222 0.0005736813

network_body._body_endoder.seq_layers.0.bias f4 [256]
00000000: 34e9 993c 071d 28bb 0a68 573b 641c 673c
00000010: 66f0 9a3c 61e8 f4ba c184 4c3c add0 b73b
00000020: f039 f939 dc11 bc3b 6d7d 1c3c 498d 0bbc
00000030: c978 623b baeb 5a3c 2796 153c 42ae 783c
00000040: 3208 a03a 16c2 863c 9e53 f53c c696 f93b
00000050: fed2 9e3b 01f9 b93c 16cc 52bb f68a f4ba
00000060: 3b43 2b3c 65b7 443b 31fa 413b af11 5e3b
00000070: 39b1 1abc bdb7 413c a85d 2a3c b774 0c3c
00000080: 7ff4 613b 3d4b ab3a 404a cdbb 9266 61b9
00000090: 8376 cb3a 67f3 233c a2f7 083c 8147 a03c
000000a0: 3858 06bb 35e9 c53b 77d6 8bba f316 df3a
000000b0: c7e0 7e3c e8ed 6d3a d6b3 8d3c ff86 7a3c
000000c0: dc3e 513b da8a 2d3c 326e 863c e561 f93b
000000d0: cc8e 1f3c 3066 ae3c 1fe4 afbb 1a99 8dbb
000000e0: 3b67 023c 066b fc3b eff1 34bb cdf9 de3a
000000f0: f1bc 1a3c 1b9a 0d3c b74f 6eba 6534 663c
00000100: 9cbb 103c 6a49 1f3c 4753 493c 70da c73b
00000110: f99d 02bc 71c2 10bc 41a2 173c 93d6 ab3b
00000120: 4778 b6bb 8a82 513b 4100 1fbc d2f0 c33a
00000130: 34f6 213c 366e 343b 5cbc 183b 4b25 2739
00000140: 595f bc3b dbc0 3fbb 8d7e c33b e7d0 8b3a
00000150: 1386 e93a cb24 abba 6330 86ba d793 7e3c
00000160: e0d5 7a3a 62f1 8e3a 821e 193c c4d1 1f3c
00000170: fb57 0b3c 100b 813c 0259 593b a04b adbb
00000180: 28a5 bdbb 23c2 093c 8db9 103c 5846 a53b
00000190: 12d8 07bb c7dd 2e3c d87f 0cbc be6f 4f3c
000001a0: a5b4 433c a9f0 213c 5076 1a3c c272 993c
000001b0: e8f8 133c 1a8f de3b 19e4 393b 1eaf 623b
000001c0: 9bbf 1b3a 2a32 1d3a 30f7 edb9 05e0 3b3b
000001d0: c424 5f3c 7787 42bb 7f73 a83b 3d40 a63b
000001e0: 0e3c 4b3b 65e6 86bb 4206 d43b 13f4 453c
000001f0: 5a14 1e3b 9ae8 3c3c 7633 66bb 9c50 59bb
00000200: 8705 273c 7117 323c 601b 693c 0d89 fc3b
00000210: 627f 033b 62b6 eaba e0fb 473c 9e6e a7b9
00000220: bb64 783c c0ed 9e3b 2f48 643b 2ada a1ba
00000230: 6309 313c 2606 0d3b 134d ea3b 8d95 4f3c
00000240: efff dc3b 92ca 223c 6aee edbb 1145 893b
00000250: 72e0 173c 74da a73b bab9 c23b 37ed 313c
00000260: 3b7e a93b dc3a 0b3c afe9 bd3b 4451 453b
00000270: 84a9 0a3b 1e64 b83b 78a1 983b 381e 36bc
00000280: 8f26 333c 5e5b 693c ba4a ba3b 2205 5b3b
00000290: 6483 693c 6902 583c 16fe de3b 5737 433b
000002a0: ff6f 64bc e384 08bb 2f3b 8a3c 6d3c ae3c
000002b0: 3d08 1f3b 4a30 cbbb e981 493c cf58 a13b
000002c0: 1900 8a38 2ae5 3c3c 2849 5d3b 1901 053c
000002d0: 3451 403b 59cb 4f3c 2c99 d4ba 05cb b53b
000002e0: 4e40 553c bdbc 0c3c 9d2f 323c cd08 063c
000002f0: fb67 8b3c 1b7d fb3b 9043 02bc a187 683c
00000300: 8996 6d3a b745 debb 6ac6 9c3b 2c46 36bc
00000310: 5e45 f9ba 6fe1 7bbb 6a57 bb3c ab73 603b
00000320: 73c4 c13a 5eac 2a3c 2bf2 4f3c 0351 b0bb
00000330: c128 bfba 2c06 9e38 5e5c f9bb 4572 cc3b
00000340: e3f9 513b 9312 0d3c d8e3 ea3a 20e4 703c
00000350: 919e 3fbc 1ff9 4b3c 28c6 773b f047 133c
00000360: 60ad 0c3c 3113 57bb 9326 003c c983 22bc
00000370: b685 4b3c 3dc8 e33b ca4f 5a3a 4aea 9e3c
00000380: 12ef 36bb 6e89 1b3c 1feb 133c 8970 cf39
00000390: e26a e53b 5304 09bb ac79 823c e950 b33a
000003a0: b510 6b3c 1e01 a53c f2b6 573c 1d9a b93a
000003b0: 9baf 45bc 8ac1 8c3b 2f65 4b3c ef46 1d3b
000003c0: f1b0 543c 80f4 893c 4f16 0a3b bd22 d43b
000003d0: d993 4d3c 8ffb 153a cc06 f8ba 22b9 b7bb
000003e0: 3a83 e63b ff92 aa3b 054c 133b 1a8c 303c
000003f0: c33d 843b 861b 303c f297 c93b cab4 0a3c
0.018787958 -0.0025652067 0.0032868409 0.01410589 0.018913459 -0.0018684977 0.012482823 0.005609593
0.00047536148 0.0057394337 0.009551388 -0.008517572 0.0034556857 0.013361866 0.009130037 0.015178265
0.0012209474 0.01644997 0.029947098 0.0076168505 0.0048469296 0.022701742 -0.0032165102 -0.0018657136
0.010453041 0.0030016538 0.0029598589 0.0033885052 -0.009441667 0.011823592 0.010398306 0.008572749
0.0034478006 0.0013068687 -0.006264955 -0.00021495883 0.001552299 0.010006762 0.0083598215 0.019565346
-0.002049936 0.0060397633 -0.0010668774 0.0017020389 0.015556521 0.00090762833 0.017297667 0.015290975
0.0031928336 0.010592187 0.016409967 0.007610547 0.009738635 0.021288961 -0.0053677703 -0.0043212296
0.007959182 0.007703188 -0.0027610024 0.0017011702 0.009444461 0.008642699 -0.0009090858 0.014050578
0.008833792 0.009722093 0.012287921 0.006099038 -0.007972234 -0.008835421 0.009254993 0.005244085
-0.0055685374 0.0031968676 -0.00970465 0.0014949089 0.00988536 0.002753151 0.002330563 0.00015940254
0.005748671 -0.0029259238 0.0059660138 0.0010667116 0.0017816446 -0.001305723 -0.0010237809 0.015538177
0.0009568613 0.0010905678 0.009345653 0.009754602 0.008504863 0.015752345 0.0033164625 -0.005288556
-0.0057875104 0.008408102 0.008833301 0.005043786 -0.0020728153 0.010672993 -0.008575402 0.012660919
0.0119449245 0.009884038 0.009427622 0.018731479 0.009031512 0.0067919614 0.0028364717 0.0034589241
0.0005941332 0.000599655 -0.00045388332 0.0028667462 0.013619605 -0.0029682794 0.0051407213 0.005073576
0.0031011137 -0.0041168206 0.0064704726 0.012082118 0.0024121017 0.011530066 -0.0035125888 -0.003315962
0.010194189 0.010869847 0.014227718 0.0077067674 0.002006494 -0.0017907138 0.012206048 -0.00031935138
0.015160735 0.0048501194 0.0034833064 -0.0012348343 0.010805461 0.0021518557 0.0071503012 0.012669933
0.006744377 0.009935992 -0.007261087 0.0041891416 0.0092698205 0.005122477 0.0059425505 0.010859779
0.0051725185 0.00849792 0.0057956795 0.0030108253 0.0021158168 0.0056271693 0.0046579204 -0.011115603
0.010934486 0.014242975 0.0056851776 0.0033419807 0.014252517 0.013184168 0.0068051917 0.0029787624
-0.013942718 -0.002083116 0.016873924 0.021269048 0.0024266385 -0.006200825 0.012299039 0.004923917
6.580371e-05 0.011529246 0.0033765528 0.0081179375 0.0029345276 0.012682759 -0.0016219965 0.0055478835
0.01301582 0.008589921 0.01087561 0.008180809 0.017017355 0.007674826 -0.0079506785 0.014192493
0.0009063264 -0.006783213 0.004784395 -0.011125129 -0.0019017865 -0.003843393 0.02286883 0.003424863
0.0014783278 0.010417072 0.012692015 -0.005380751 -0.0014584289 7.535177e-05 -0.007609888 0.006239208
0.0032039813 0.0086103855 0.0017920686 0.014702827 -0.01169552 0.012449532 0.003780732 0.008989319
0.008586258 -0.0032817835 0.007821697 -0.009919115 0.012422016 0.0069513605 0.00083279295 0.019398827
-0.0027913493 0.009493215 0.009028225 0.00039565962 0.007001267 -0.0020907118 0.015927158 0.0013680729
0.014347245 0.020142134 0.013166176 0.0014160309 -0.012065793 0.0042955326 0.012414261 0.0023998579
0.012981639 0.01684022 0.0021070426 0.0064738677 0.012547457 0.0005721384 -0.0018922924 -0.0056067863
0.0070346864 0.0052055116 0.002247573 0.01077559 0.004035683 0.01074875 0.0061521465 0.008465955

network_body._body_endoder.seq_layers.0.weight f4 [256, 134]
00000000: 7d7d 46bd ac34 253d a74b c6bd bd31 00bd
00000010: 895d 9bbd a0d4 c33d 4b3f 873d c126 36be
00000020: 059c 57bd f6a3 08be fc3e 323a d49c dabd
00000030: 6c61 49be 826c 733c e41f 1cbb 2cd2 28be
00000040: 95c1 363e 78fd 32bd 4e51 9e3d 77d9 043d
00000050: ca64 b8bc 870d 203e d5f5 8c3d 0fa9 913d
00000060: 70bc 97bd 0380 4a3d d45d 81bd 0207 d23c
00000070: 944b 95bd 7a6d a43d 83d4 063e fd4e fe3d
00000080: cd55 d6bd 4c7c 893c c73c acbc 2bd2 ca3d
00000090: 8576 c13d 4818 8a3c 1669 b6bd 7a99 063e
000000a0: 5733 1fbe 5ba0 303c eb99 a03c c305 dbbd
000000b0: cadf 24bd cc35 9e3d 465c 07be fe59 a4bd
000000c0: 5c3c ecbd 1c2d c6bc 6c50 6f3d 18ae 31be
000000d0: a558 8a3b dc9a 8fbd 359b 1fbc dcab 223c
000000e0: 8699 673d 75d9 6fbd ef91 2b3d d4a8 0cbe
000000f0: 0cc5 eebd 4e14 0bbe 7471 e5bc b8b8 ea3c
00000100: 299f c4bd 526d 00be b4eb 27bd 7df4 fdbc
00000110: 0356 ab3b 30d3 9c3d 1eda fabc 8c0a fabd
00000120: 847f 29be 0bd7 693d 08ae 043e 0809 b4bd
00000130: f47e 24be 35f2 043d 790a ce3d c481 1fbd
00000140: f607 76bc 8dca 7ebd ad82 83bc 738a 0cbd
00000150: 21c2 4e3d b59e 303d 1c7d de3d 713e 2cbd
00000160: 06a7 e9bd 7c94 863d 5e10 51be 45f3 98bd
00000170: d3a0 64bd f53d d1bd f2e8 8e3d 3815 f43a
00000180: 6ecd 083d 797e 863d f6ac 8a3d 508b f33c
00000190: e36f a5bd 794f 48be 94ea 70bd 5cfe cdbc
000001a0: 2123 193e aad0 6bbd bf8e fa3d 2446 ee3d
000001b0: d67f 073a fdfe 7d3d f6db 4c3e 679d 423e
000001c0: 5599 a23d a777 9dbc d43e ca3c af01 113d
000001d0: c505 56bd c988 81ba 4de0 6c3d c94d 083d
000001e0: 7dde 0d3b 27c2 49bd 74be 97bd 7040 8f3d
000001f0: c5c4 af3c 6e07 f43a 903b 2f3d b64f 633d
00000200: edf4 e4bc dc07 9b3b dbd3 4b3d 5754 8a3b
00000210: c78b 2c3e 78f0 edbd 752f 1b3e 91ed 3a3c
00000220: 1271 ff3d 8a08 9f3d 6028 ad3d b4d8 b33c
00000230: d393 23bb eb7c 09bd 057a 9a3d 7f1f 51bd
00000240: db38 dd3c dded 333e 131d 09bd 4178 10be
00000250: 099f e23c 7b25 fdbc 47b8 803b 7a4a 3f3d
00000260: 9745 d2bd e61d 0d3e cb74 bdbb 0c4d babc
00000270: 46ec 3fbc 1be6 8ebd dcd9 8dbc 2590 3ebd
00000280: 84fd 62bd 7f36 e93b e3d8 f03c eb6b d7bc
00000290: 8127 ccbd ee7d 343e 3254 fabd dd9d f53c
000002a0: 9fd3 9dbd c903 193e d739 1b3e 3f1d d33c
000002b0: 874a 59bd 99be 0f3d 2d8b 4a3b 0197 0a3d
000002c0: 632e d7bc 9210 14bc 0162 f8bd 4cde 0ebc
000002d0: 7196 f93b d1ec 71bd b40f 373e b652 4ebe
000002e0: 2480 323d a553 48bb 03b7 713c 9b8c c2bd
000002f0: 87ab 84bd 2105 13be fd4d 42bd 04e9 163c
00000300: 0ed2 21bd b9a3 a6bd 928a 873d fadf 763d
00000310: f23e 04be c130 273d 77f4 3cbd 360b 583e
00000320: a7a9 b9bc 53d8 9abc 2fbc 1abd d396 f0bc
00000330: 0416 1abc 4ce3 d4bd f566 903d ca0a f9bc
00000340: f917 f13c 303a 8cbd cdba 93bd 08b5 18bc
00000350: 4c0f 0ebd f6e4 4ebb abb0 843b 583e 87bd
00000360: 4b28 6c3d 6b32 343c 5a24 b8bd ea0f 9abb
00000370: a988 a8bd cb4a eabc f5e4 c7bd 98f0 a5bd
00000380: ed17 cdbd f8e4 0b3e ea58 e7bc 3bf6 e4bd
00000390: d582 b5bd a2e9 e2bd c5fb b6bc c153 7abd
000003a0: a26c 583c afcf d33c a59b 2dbd d504 a0bd
000003b0: c7d1 7d3d 4a4d 643d 2f19 003e 2fa8 aabd
000003c0: 908e 1c3d a53a 06be 19e6 283d bfe5 493d
000003d0: 68ed b43d dd20 8bbb 222b e2bb 3807 33be
000003e0: ca80 563d 0e98 f23c 1f85 173e 729a 2e3d
000003f0: b656 103e d71f 5fbc cfff c7bd bc51 963d
-0.04845952 0.040333435 -0.09682398 -0.031297434 -0.075862 0.095620394 0.06603869 -0.17788221
-0.052639026 -0.13343796 0.00067995465 -0.10674444 -0.1966607 0.014857413 -0.002382272 -0.16486424
0.17847283 -0.043698758 0.077303514 0.032433953 -0.022508997 0.1563016 0.06882826 0.071123235
-0.074089885 0.049438488 -0.063167244 0.025638107 -0.07289806 0.080286935 0.13167004 0.124174096
-0.10465584 0.016782902 -0.021025075 0.099033676 0.09446434 0.016857281 -0.08906762 0.13144484
-0.15546928 0.010780419 0.019604644 -0.10694458 -0.040252484 0.07725105 -0.13218793 -0.08024977
-0.1153495 -0.024191432 0.058426306 -0.17351568 0.004221993 -0.07011959 -0.009741594 0.00992867
0.056542896 -0.058556993 0.04188722 -0.13736278 -0.116586775 -0.13581964 -0.0280082 0.028652534
-0.0960067 -0.12541702 -0.04099627 -0.03100037 0.0052287593 0.07657468 -0.030621585 -0.12209043
-0.1655255 0.057089847 0.12957013 -0.08790785 -0.16064054 0.03245755 0.10060591 -0.038942114
-0.0150165465 -0.062204886 -0.016053522 -0.034311723 0.050478105 0.043120105 0.108637065 -0.042051736
-0.1140881 0.0657129 -0.204164 -0.07468275 -0.055817436 -0.102168955 0.069780245 0.0018622046
0.033399038 0.065670915 0.06771271 0.029729515 -0.08077981 -0.19561566 -0.05881746 -0.025145702
0.14954807 -0.057572044 0.12234258 0.11634472 0.00051688903 0.062010754 0.20005783 0.19005357
0.07939402 -0.019222094 0.024688162 0.035401996 -0.052251596 -0.0009882684 0.057831097 0.033277307
0.0021647506 -0.049257424 -0.07409373 0.06994712 0.021456132 0.0018617937 0.042781413 0.05549594
-0.027948821 0.0047311615 0.049762588 0.00422148 0.16850196 -0.116181314 0.15154822 0.011409179
0.12472738 0.077653006 0.084549665 0.021953918 -0.0024959936 -0.033566397 0.07542805 -0.051055428
0.02700465 0.17571206 -0.033474993 -0.14108373 0.027663724 -0.030901661 0.0039282176 0.046701886
-0.102671795 0.13780937 -0.005781745 -0.022741817 -0.011714047 -0.06977483 -0.017315798 -0.046524186
-0.055417553 0.007117092 0.029400295 -0.026296576 -0.09968472 0.17626163 -0.1222309 0.029982502
-0.07706379 0.1494285 0.15158783 0.025770782 -0.05304959 0.035093877 0.003090571 0.033835415
-0.026267236 -0.009037154 -0.12128068 -0.008719992 0.007616811 -0.059063736 0.17877084 -0.20148739
0.043579236 -0.0030567434 0.014753106 -0.094994746 -0.06478029 -0.14357425 -0.047437657 0.009210829
-0.039506964 -0.08136696 0.06618227 0.060272194 -0.12914637 0.04081798 -0.046131577 0.21098027
-0.022663904 -0.01890198 -0.037777122 -0.029368794 -0.009404663 -0.10394916 0.070508875 -0.030400652
0.029430376 -0.06847036 -0.07213364 -0.009320505 -0.034682557 -0.0031569577 0.004049381 -0.06603688
0.057655614 0.010998349 -0.089913085 -0.004701604 -0.08229191 -0.028600117 -0.09760467 -0.0810253
-0.10014329 0.13661563 -0.02824064 -0.11179777 -0.08862845 -0.11079718 -0.02233685 -0.06111503
0.013209494 0.025855867 -0.042384762 -0.07813422 0.061967637 0.05573777 0.12509607 -0.0833286
0.038221896 -0.13108309 0.041235063 0.04929137 0.08834344 -0.004245861 -0.0069021145 -0.17483222
0.052368917 0.029613521 0.14796875 0.04262776 0.14095578 -0.013618431 -0.097655885 0.07339808

network_body._body_endoder.seq_layers.2.bias f4 [256]
00000000: 23e2 433c 5401 033c 0334 73ba f640 6bbb
00000010: a3a5 513c 05d6 803b 0938 583b 40ce 68bb
00000020: ff50 073c 4552 da3b 43c4 8c3a c2b8 693b
00000030: f47e 7cbb be6e 563a 8fe6 c0bb d78a 1b3c
00000040: 88fc fb3a 5677 063c 2f07 a73b e72d 2c3c
00000050: 0add fcbb a252 393b 1088 663c 0eda ab3b
00000060: 654e 6e3c 986a 113c f661 383b b6ae b03b
00000070: 68d9 c5ba 975d 8c37 dd9d bc38 c088 093b
00000080: fa9e 2f3c 3f12 183c aaa2 c13a fe4c e4bb
00000090: 4851 d4ba 5b53 933b 8b14 bfba dc1a 613b
000000a0: f48f 16b9 0fc0 2b3c 7d48 673a 9192 99bb
000000b0: 0490 8cbb 2ab6 6e3c 9151 683c 0fa5 95b9
000000c0: b3b2 8c3b 30d8 683c 6045 aa3b e5dc e03b
000000d0: 0069 ad3b b979 e539 c577 c33b 337c f23b
000000e0: 1cb8 d83b 4aa6 cabb 9428 ac3b a291 823c
000000f0: 27b0 083c caa1 99bb f386 63ba 378e 0bbb
00000100: 333a 88bb d0f4 64ba e748 a93b a55a b53b
00000110: ae2a e73a 216a 56ba f161 a83a 6e59 c33c
00000120: a82a 933a cb26 0f3c 009a a73a 36ba 0abc
00000130: b24f 42bb 9534 f63a 0c68 8dbb da2a 24bc
00000140: 6832 de3b ab13 c83b c691 d53a 5e1d 793b
00000150: a39a 993a bf47 4c3b 6cb4 153c 0c11 e63a
00000160: d4cd 933b 1ec4 1ebb b11e b0ba 31a9 d93a
00000170: 27a6 0a3b 0a51 97bb 4836 933b 2ea0 9b3b
00000180: 4b02 9aba 5820 693b 8446 8c3b 3a38 2abb
00000190: f19c 903a a54d 323c 2cfc 96bb ed4f 263a
000001a0: e72c 203c 82ff 333c 5f7f 9ebb 6894 363c
000001b0: 275e f33b 5d16 c73b dd25 a5bb 7efb 9c3b
000001c0: de25 86b9 684a 21ba 41e0 ffbb 5d37 0a3c
000001d0: 0e29 983a 95d2 efbb 044b 43bb f97d 363b
000001e0: 65c8 07bb e3c9 383a 840a 243c 0f61 1b3c
000001f0: f761 ee3b b57b 543b d087 80bb 71af 373c
00000200: b4a4 363b 8a8d 71bb e0a4 883c 7cc4 88bb
00000210: 08f6 3f3b b6a2 2d3b fb84 c13b f9a7 fa3a
00000220: 78f9 00bc 7f19 6c3c 6c9e fabb 90a4 84ba
00000230: 198d 4aba b2d0 3f3b 87d6 a33a 71b5 c33b
00000240: 7f33 e03b f614 a73b 83a5 abbb 1250 e73b
00000250: 6916 053c f1e7 1abc 6059 2b3c 95d1 483b
00000260: a29c b13b 18a0 3db9 0390 02bc fd7a 323b
00000270: b959 8a3a 9381 6a3b c795 cd3b 8d7d 34bb
00000280: 1b11 e83b e97c 4dba 43d1 693c 99ea 41bb
00000290: f544 a13b a084 df3b 41f6 9abb cd49 f43b
000002a0: 3c29 acba f77d 4d3c e795 543a 9195 6bbb
000002b0: 992f 463b 12d2 cf3a bc56 cf3b 4a4e 0d3c
000002c0: c949 1e3c 1cb7 57bb 1a02 7cbb f130 0c3c
000002d0: 9960 733b 7bfd 063b d834 fdba db74 d9bb
000002e0: ade1 7fbb a8e2 8e3a d67c d13b d16d e43b
000002f0: e450 943c 0bfe feb9 8dce 3bbb ab51 3fbb
00000300: 180b 58bb 3197 12bc 4925 293c ec0b 0f3c
00000310: a9b1 923b c741 893b cb41 b43b 43c5 203c
00000320: c0e9 18bc 4c03 143c 5533 18bb 98af e13a
00000330: f970 1a3c 2988 243c f85d 093c 4923 6ebb
00000340: b343 fbba 9868 1e3b b0cf bf3b 3779 223b
00000350: 22d7 d4bb 39ef fcbb 12e1 5cbb cd7c cf3b
00000360: 8af1 8dbb 5c10 7f3b c46e 473c 1ffa 2e3b
00000370: 6eca 09bc c88c 9dbb 04a7 4e3b 1585 4a3b
00000380: 16c3 05bc 48a7 f2b9 07a8 283c db9b 523b
00000390: 8fc6 1cbc e4a6 043b 1ba3 193c 8806 013c
000003a0: e610 483c 25bc 253c 7579 22bb afcc 85bb
000003b0: 2e52 46bb 6561 b5bb d9dd 41bb 5bf9 70bb
000003c0: e9fc 03bb f8b8 403c d73c daba c5c8 013c
000003d0: 2582 bc3b bbe0 0e3c ddc1 273c 3619 883b
000003e0: 44b6 473b 881f 9ebb 9030 00bc b0fa 993b
000003f0: 0f39 943b 3f69 8b3b a6b5 8cbb 1443 043c
0.011955771 0.007995922 -0.00092774647 -0.0035896874 0.0127958385 0.003931763 0.0032992384 -0.0035523325
0.008259057 0.0066626393 0.0010739643 0.0035663103 -0.0038527818 0.0008179954 -0.0058868597 0.009493551
0.001922504 0.008207163 0.005097292 0.010508991 -0.0077167796 0.0028278013 0.014070526 0.0052445
0.014545058 0.008875512 0.002813456 0.005391921 -0.0015094699 1.6732882e-05 8.993943e-05 0.002098605
0.010719055 0.009281694 0.0014773209 -0.006967186 -0.001619854 0.0044960207 -0.0014578266 0.0034348285
-0.00014358741 0.010482802 0.0008822752 -0.0046866615 -0.004289629 0.0145697985 0.014179603 -0.00028542473
0.0042937635 0.014211699 0.0051962584 0.00686227 0.005292058 0.00043768974 0.0059652054 0.0074000596
0.0066137444 -0.006184374 0.0052538607 0.015938584 0.008342779 -0.004688476 -0.0008679472 -0.0021294483
-0.0041573285 -0.00087339897 0.0051661613 0.0055344873 0.0017636621 -0.00081792666 0.0012846572 0.023846354
0.0011227923 0.008737276 0.0012786984 -0.008467248 -0.0029649553 0.0018783981 -0.004315382 -0.010019982
0.0067809112 0.00610586 0.0016294054 0.003801189 0.0011719059 0.0031170694 0.009137254 0.0017552688
0.0045106206 -0.0024225782 -0.0013436881 0.0016606209 0.0021156163 -0.004617815 0.004492555 0.0047493195
-0.0011749951 0.0035572257 0.004280867 -0.0025973455 0.00110331 0.01088277 -0.004607698 0.00063443073
0.009776331 0.010986211 -0.004836961 0.011143781 0.0074269953 0.006075664 -0.005039914 0.0047907224
-0.00025586685 -0.000615275 -0.0078087156 0.008436051 0.0011608915 -0.0073188045 -0.0029799351 0.0027846082
-0.002071881 0.00070491264 0.010012273 0.00948359 0.007274862 0.0032422368 -0.00392244 0.011211262
0.0027869167 -0.0036858045 0.016680181 -0.0041738134 0.0029290933 0.0026494688 0.005905745 0.0019123546
-0.007871978 0.014410376 -0.00764828 -0.0010119844 -0.00077267137 0.002926868 0.0012499847 0.0059725572
0.0068420763 0.0050989343 -0.0052382364 0.0070591057 0.008123019 -0.009454713 0.01045832 0.0030642499
0.0054202834 -0.00018084084 -0.007968905 0.0027233951 0.0010555304 0.0035782799 0.0062739584 -0.0027540654
0.0070821173 -0.00078387425 0.014271083 -0.0029589294 0.0049215504 0.00682123 -0.004729063 0.007455087
-0.0013134847 0.012542239 0.00081094954 -0.0035947303 0.0030240773 0.0015855453 0.006327478 0.008624623
0.009661146 -0.0032915538 -0.00384534 0.00855659 0.0037136434 0.0020597863 -0.0019318117 -0.0066362447
-0.0039044425 0.0010901289 0.0063930554 0.006971099 0.018104978 -0.00048635932 -0.002865705 -0.0029192965
-0.0032965597 -0.00894718 0.010323831 0.00873087 0.004476745 0.0041887495 0.005501007 0.009812656
-0.009333074 0.009033989 -0.0023223956 0.0017218469 0.009426349 0.010042229 0.00838422 -0.003633695
-0.0019169956 0.002417123 0.0058536157 0.0024791488 -0.0064953724 -0.0077189473 -0.0033703488 0.006332016
-0.004331772 0.0038919663 0.012172405 0.0026699377 -0.008410079 -0.004808042 0.0031532655 0.0030902077
-0.008164188 -0.0004628247 0.010293967 0.0032136354 -0.009568824 0.0020241076 0.009377266 0.007875092
0.01221106 0.010115658 -0.0024791632 -0.004083238 -0.0030261385 -0.005535292 -0.0029581694 -0.0036769721
-0.002013976 0.01176285 -0.0016650212 0.007921402 0.005752819 0.008720572 0.010239092 0.004153396
0.003047363 -0.004825536 -0.007824078 0.0046990737 0.0045234035 0.0042544897 -0.004294115 0.008072633

network_body._body_endoder.seq_layers.2.weight f4 [256, 256]
00000000: 4178 0bbe 69e0 21bd 413d ca3a 14bf bc3d
00000010: 9add 993c 198f 9a3d f520 3b3d feec a8bc
00000020: 989c a43c 8e4d 25bd e3e7 03bb af70 06bd
00000030: 7b2c 8b3d 0b7e a93c ab08 fc3d 6711 bbbc
00000040: 7264 8b3d 8b1f fabb 13cd 7dbd ad60 4e3d
00000050: f7d1 0cbe 52fd 14bd 94b4 973c 67b8 de3b
00000060: b09c a73b a664 8bbd 5d04 28bd 5522 e8bc
00000070: ae63 463d 1260 87bd 9355 61bd 33a9 2e3a
00000080: 261d dbbd d1a1 6fbd 5748 3ebc 7114 17bb
00000090: 9716 5cbd 8a65 323d db83 6cbc 639a 86bd
000000a0: 4932 9c3d 8628 fa3c 7d67 d0bd 19e8 64bc
000000b0: 7568 463d 3485 ae3b f4d5 64bd 9d86 89bc
000000c0: f11e 8a3c 416d 12bc e5c2 3bbd 4890 b9bd
000000d0: 6520 1f3c 4705 053d 5eeb 1bbe 3411 50bb
000000e0: b80d 1ebe 1f6e 013e e8e4 d6bd c423 a13c
000000f0: 554f 8a3d bf1c 153c fd22 9c3d aa60 4dbb
00000100: 070c 08be b1db 0d3d a265 7a3d abfc 9c3d
00000110: 7370 f33c 01ed 303c 1a75 55bd 1231 e3ba
00000120: cc35 a0bd fa5d b43b ae36 eb3d 2a05 e1bd
00000130: 2aa0 333d e7b0 60bd 5d9b b8bd 0eba c93c
00000140: 7f48 e53c 5149 b4bd 5136 74bd f3e8 173d
00000150: a029 cdba 80c0 77bd 164e 02bd 616b ad3d
00000160: a82e 483d e968 c8bc eb8c afbc 7acf deba
00000170: 40d9 ee3d 9269 da3c 172a 013d 1e59 2f3d
00000180: 4c3d e93b 5607 1c3c 88d0 263d 8f70 df3d
00000190: b7ae cebc a7e7 9fbc d618 873d cd58 3ebe
000001a0: d9f3 783d 1fbe 31bc c74c a73c 915b c73c
000001b0: ca43 303d 1497 bdbb 550c b2bd 5508 8abd
000001c0: 2174 8ebb 2a5f d8bd 3151 c83d 46b0 27bd
000001d0: 4be2 c93d a5fd 8c3d 018e d4bd a6aa 143c
000001e0: 1f7b 44bd 5bf5 8dbc 4623 9a3d ead3 8fbd
000001f0: a477 86bd 48d9 4a3d 409c 3d3b 09ba 183d
00000200: 8220 52bc a4dd 12be 42b0 093d 3028 c03d
00000210: 38df 1fbd e9c7 21bd 9760 d23c 9da3 903d
00000220: c9e0 b33c ffd5 2abc e6cb d23d 0033 aa3d
00000230: 0ad0 21bb 9697 1b3d f2e9 e4bd 3855 ae3d
00000240: 39b7 1ebd edb9 efbd 805e 1fbd 1e88 f73b
00000250: 7fcd 8c3c 50aa 543d a11b 39bd 213d d63c
00000260: b1b4 1d3b 67fd 853d a749 1dbd f8e1 8c3c
00000270: 05d9 b1bc d131 c93d d77c 7e3d 5dac 503d
00000280: 2390 373d 8119 36bc e6ba 6ebd 9eab b33c
00000290: a8dd 073d ca72 a83d 1be2 57bd 30f2 c5bc
000002a0: 444a 0d3d 0d57 2fbd 952f 26bd a73f 9e3d
000002b0: 90c3 fa3c 33e1 46bd 0cb6 35bc 7860 00bd
000002c0: f20e 873d e661 71bd 9c22 26bd 00c0 b8bd
000002d0: 26e3 153c 7289 cfbd d11f ac3c bbd9 643c
000002e0: 1862 9cbd 4db2 f1bb 351b 44bd b5e1 5cbd
000002f0: c42c 293d eb00 f0bc fbf9 7b3d b95b f23d
00000300: 982b c83b eef2 f13d 4c9d d83c cb44 8ebd
00000310: deff 16bd 6cbd 23bd 8c06 353d 34e5 ca3c
00000320: 1759 e83d 2490 44bd b937 e2bc 0c53 213d
00000330: 63a3 3a3d 259b bfbb ecf2 083d 9e57 183e
00000340: 4271 323d 49e3 1e3e bc81 5d3d 7b8e b63c
00000350: 43b3 833d 0391 b1bd b4f6 e03d 330d 8abd
00000360: 580d 1abc fa89 963c be77 babd b0cd d4bd
00000370: cef8 a3bd d325 093b 419b e63b 0473 f3bc
00000380: e9ed bdbd d45c c43d 88e4 bfbc a8ed debb
00000390: 86e4 863b 818a 6cbd 7018 0b3e c629 abbc
000003a0: 1239 933d 8af3 d1bd f407 63bd 30cf 1e3d
000003b0: 3ae9 e4bd cafb 6bbc 0359 503d a5ae 97bc
000003c0: 1990 ab3d d38c 463d a20d b43d 587b 323d
000003d0: a99a 973c bd69 cb3c 3ffd a93d 2bbb 29bd
000003e0: 3532 ecbd 3b09 1cbd 152d 63bd 0770 0a3d
000003f0: 6446 253d 6ffc b4bc ed47 0c3d f008 833a
-0.13620092 -0.039520655 0.0015429632 0.09216133 0.018782426 0.07546825 0.045685727 -0.02062082
0.020094201 -0.040357165 -0.002012723 -0.032822307 0.06795593 0.020689985 0.12306341 -0.022835447
0.06806268 -0.0076331547 -0.061963152 0.050385166 -0.1375197 -0.036374398 0.018518724 0.006796885
0.005115114 -0.068063065 -0.041019786 -0.028336683 0.048434906 -0.06610121 -0.05501325 0.0006662786
-0.10698919 -0.05850393 -0.011613927 -0.0023052956 -0.05373248 0.043553866 -0.014435734 -0.06572416
0.07626779 0.030536901 -0.10175989 -0.013971352 0.04843946 0.0053259376 -0.055868104 -0.016787821
0.016860457 -0.008937181 -0.045840163 -0.090607226 0.009712313 0.032475736 -0.15226504 -0.0031748535
-0.15434921 0.12639664 -0.10492879 0.019670375 0.06753413 0.009101092 0.07623861 -0.0031338134
-0.13285838 0.034633342 0.06113208 0.0766538 0.029716706 0.010798694 -0.05211363 -0.001733335
-0.07822761 0.005504367 0.11485039 -0.10987313 0.043853916 -0.054856207 -0.09014008 0.02462485
0.02798867 -0.088030465 -0.059622113 0.037087392 -0.0015652664 -0.060486317 -0.03181275 0.084677465
0.04887262 -0.024464088 -0.0214295 -0.0016999089 0.11662531 0.026661668 0.03153428 0.0428096
0.007117903 0.009523233 0.040726215 0.10910141 -0.025229795 -0.01951964 0.06596534 -0.18588562
0.060779426 -0.010848551 0.020422352 0.024335654 0.0430334 -0.005785832 -0.086937584 -0.067398705
-0.0043473397 -0.10565026 0.09781111 -0.04093959 0.09857615 0.06884316 -0.103786476 0.009073889
-0.04796898 -0.017328909 0.07526259 -0.07022841 -0.065657884 0.04952362 0.0028932244 0.037286792
-0.012825133 -0.14342362 0.03361536 0.09382665 -0.039031237 -0.03949729 0.025680823 0.07062457
0.021957772 -0.010426997 0.10292797 0.08310509 -0.0024690651 0.03798636 -0.11177434 0.08512348
-0.038748953 -0.117053844 -0.03890848 0.007554068 0.017187832 0.051920235 -0.045192365 0.026152195
0.0024064 0.06542473 -0.03840032 0.017197594 -0.021709928 0.09823955 0.062130775 0.05094563
0.044815194 -0.011114479 -0.05828371 0.02193242 0.033170372 0.08225019 -0.052705865 -0.024163336
0.034494653 -0.042807627 -0.04057272 0.077269845 0.03061083 -0.04855461 -0.011090767 -0.031342
0.065946475 -0.058931254 -0.04056035 -0.09020996 0.009148395 -0.101336375 0.021011265 0.013967927
-0.076358974 -0.0073759914 -0.04787751 -0.05392619 0.041302457 -0.029297313 0.061517697 0.11833901
0.0061087124 0.11813913 0.026442192 -0.06946715 -0.036865108 -0.03997557 0.044195697 0.024767496
0.113451175 -0.047989026 -0.027614461 0.03938584 0.045565974 -0.005847352 0.033434793 0.14877173
0.043565042 0.1551639 0.054078802 0.022284737 0.06430676 -0.08670237 0.10984555 -0.06740799
-0.009402595 0.01837634 -0.0910487 -0.10390794 -0.0800644 0.0020927086 0.0070375507 -0.02971793
-0.092738934 0.09588018 -0.023424402 -0.006803233 0.0041165976 -0.057749275 0.13583541 -0.020893943
0.0718862 -0.102515295 -0.055427507 0.03877181 -0.11177297 -0.014403293 0.05086614 -0.018515894
0.08377094 0.048474144 0.08791663 0.04357466 0.018506365 0.024830693 0.08300256 -0.041438263
-0.11533014 -0.03809474 -0.055462915 0.033798244 0.040350333 -0.022093026 0.03424828 0.000999717

network_body._body_endoder.seq_layers.4.bias f4 [256]
00000000: 8045 12ba 5123 0c3b 4300 ea3a f6c6 023b
00000010: c0da f53b e683 883b a620 343b 0bdb 023c
00000020: 10b4 883b 98e5 6d3b 0327 a53b 6deb e23b
00000030: ded5 fb38 b544 b13b e2d6 5cbb 71b0 6f3b
00000040: 9476 97bb af85 0c3c a87f 4f3b 4e0f 2b3b
00000050: e4b2 f53b 98eb 423b 76ce cf3a b4c8 b63a
00000060: 8775 553b c653 4f3c 20eb 943b 9518 4bbb
00000070: a55b ea3b 132e 8a3c da2b e83b 3c07 e23b
00000080: d431 733a e094 863a 26d4 cd3b 8166 54ba
00000090: e7f2 513b 05d9 163c a47a f43b 7fad 1c3b
000000a0: 8ebd 7e3b 3dea fc3b f22f e2ba c8f5 af39
000000b0: 6e69 a43b 050d 563b 3a64 0dbb 50de b13b
000000c0: 34e7 183c df5b 6d3b 6baa 343c 97fb ac3b
000000d0: bad0 233c 7dcb 013c 1b42 473b c108 783b
000000e0: 93e0 4fbb 9a37 5ebb d63b 49bb 7710 c9ba
000000f0: 0aca 3a3c 38ae 353a be84 1d3b b58c 013c
00000100: 4cda 053c e383 d93b ac64 a03b ebff c53b
00000110: 81e5 b43b e624 7cba 0774 833a 499f b63b
00000120: 31bc ca3b 59d3 3c3b 5df9 c83b d4dc cf3a
00000130: a166 1d3c acbf 903a 5c13 21ba f394 053b
00000140: ca98 343a e82e 483b 5f6d e63b 63e0 173c
00000150: 6bf9 033c 0cd6 ff3b 6bc6 1ab9 72dc eb3a
00000160: 78a0 cd3b b543 193c 82c5 203c b939 823b
00000170: 47b5 9e3b c560 00ba 1064 fd3b c715 823b
00000180: 153a cd3a 7820 af3a a3d2 1b3b e50e 79b9
00000190: f620 253a eb87 85bb 2cd8 beba c8b7 703a
000001a0: bb9e ad3b 2a42 c03b de97 0ebb de3e 6f3b
000001b0: 7f57 e339 ab79 1c3c a3da e439 8d21 9c3b
000001c0: f213 00bb 8049 ffba e99d 313c 6865 363c
000001d0: ed2d bd3b a8ee ab3b fd47 3c3c 83e5 b43b
000001e0: b120 f23b ae63 f03b df57 f43b 87e5 e5ba
000001f0: 7078 bf3b 4c26 8cba 2e31 c53b 9937 9d3b
00000200: 605e 9c3b fcb7 993b d0b2 6b3a c4ce 0a38
00000210: 1ea8 253b 1262 c939 257a e83a 4ea8 673b
00000220: 109f 063c 3578 39bb 7500 b53a ad70 29bb
00000230: fdd2 1db9 b201 ac3a 1af2 173b 75c4 ed3b
00000240: 542c 003c a659 0a3b 6ca4 7dbb 247d 543a
00000250: 0858 fd3b 0702 533a 0898 273c fede 5d3b
00000260: 9ec1 793b 3487 c03b bf59 1ab9 1c36 cc3b
00000270: 594e a33b ed7d 92b9 e7c4 153c e1d0 153c
00000280: e0ac ecba c223 db3a e958 d83b b36c 123b
00000290: c6d1 153c 3a78 f73b a706 1a3c 20c0 173b
000002a0: d1d4 cf3a 40e7 c139 81e0 133b 647e 753a
000002b0: fea3 1eba aa2d 063c 1c53 083b 1f3e b33a
000002c0: 299c 373c c1c4 a73b 7a69 4aba fb54 d6ba
000002d0: dab6 f23b c9e5 183c 82fd 3fbb f069 003c
000002e0: d4be 23bb e731 593b 6aeb ec3b 2178 903b
000002f0: 77f8 ea3b cfc1 953b 151f 453b f32c 113c
00000300: e3a4 fc3a 0dd4 d93a 4377 003c a7fe b23b
00000310: 9848 07ba 3094 d63b 1c4f bf3b 9b42 bc3b
00000320: 59fc cdbb 7156 b93a 82d1 133c c705 e43a
00000330: 94b3 ea3b b462 c83b 711e 923b 06f9 30bb
00000340: c854 883b ea38 263c f182 8f3b ac83 673b
00000350: 93cc 5a3c 8bc3 4bbb 07f1 e53a 4d8f f138
00000360: a772 be3b 172f ce3a 1776 03bb ff5e c43b
00000370: f602 d13a 472b e33b 9120 7b3b 604c 153c
00000380: 9e07 d43b fab0 063b 44e7 d73b 5e67 02bb
00000390: b666 0a3c ee6f ed3b 1330 5fbb aac1 0a3c
000003a0: 488f d93b 8f6f 97bb 5a9f 64ba 4644 063c
000003b0: f0b1 bd3a 9705 aa3b 2aeb 5c3b e540 21ba
000003c0: f1c4 2fbb d487 8c3b 03cd 643b afb3 953b
000003d0: b049 463c 9864 41ba 90aa 1739 7e3f 4c3c
000003e0: 6688 a43b 612f 823b dc26 efba b3e5 62b9
000003f0: 7849 0d3c 8b60 0ab9 3559 df3b 58f0 46bb
-0.00055798143 0.0021383355 0.0017852861 0.0019955016 0.0075028837 0.004166114 0.002748528 0.007986794
0.0041718557 0.0036300179 0.005040051 0.0069250376 0.000120084485 0.005409802 -0.0033697416 0.0036573673
-0.00462229 0.0085767945 0.0031661782 0.0026101652 0.007498132 0.0029742476 0.0015854377 0.0013945312
0.0032571272 0.0126542505 0.0045446306 -0.0030989994 0.007152038 0.016867673 0.0070853056 0.006897835
0.00092771393 0.0010267757 0.0062813936 -0.00081024325 0.003203565 0.009207015 0.007460909 0.0023907123
0.0038870308 0.007718353 -0.001725672 0.00033561722 0.005017451 0.003266157 -0.0021574632 0.005428113
0.009332467 0.003621809 0.011026959 0.0052790153 0.009998495 0.007922051 0.0030404392 0.0037847015
-0.003171955 -0.0033907653 -0.003070583 -0.001533999 0.011400709 0.00069305627 0.002403542 0.007907082
0.008169722 0.0066380366 0.0048948135 0.0060424707 0.005520523 -0.00096185354 0.0010029086 0.0055731875
0.006186985 0.0028812496 0.006133242 0.0015858659 0.009606988 0.0011043451 -0.00061445474 0.002038297
0.00068892224 0.0030545536 0.007032081 0.009269807 0.008055071 0.007807499 -0.00014760501 0.0017994775
0.006275233 0.0093545215 0.0098127145 0.0039741662 0.0048433873 -0.0004897232 0.0077328756 0.003969881
0.0015657569 0.0013361117 0.0023776672 -0.00023752039 0.0006299162 -0.0040750406 -0.0014560274 0.0009182659
0.005298463 0.0058672624 -0.0021758 0.0036505978 0.00043362004 0.009550492 0.00043650446 0.0047647418
-0.0019543138 -0.0019476861 0.010840871 0.011132576 0.005773297 0.005246956 0.011491773 0.005520524
0.007389151 0.0073361015 0.007456764 -0.0017539718 0.0058432147 -0.0010692566 0.0060178256 0.0047978875
0.0047719926 0.004691122 0.0008991184 3.309433e-05 0.0025277208 0.00038410776 0.0017736597 0.003534812
0.008216634 -0.0028300409 0.001380934 -0.0025854514 -0.00015051286 0.0013123064 0.0023185075 0.0072560855
0.007823069 0.0021110564 -0.003870274 0.00081058056 0.0077314414 0.00080493133 0.010229118 0.0033854838
0.003810979 0.0058754925 -0.00014720017 0.0062320363 0.004983705 -0.00027941112 0.009141183 0.009144039
-0.0018056892 0.0016719031 0.006602396 0.0022342622 0.009144252 0.007552174 0.009401 0.0023155287
0.0015856271 0.00036984123 0.0022564235 0.0009364842 -0.00060516584 0.008189598 0.002080149 0.001367513
0.011206665 0.0051198904 -0.0007721406 -0.001635223 0.0074070515 0.009332129 -0.002929539 0.0078377575
-0.0024985569 0.0033141316 0.007230212 0.0044088517 0.0071707326 0.004570223 0.003007834 0.008860814
0.0019275214 0.0016618982 0.007840934 0.005462486 -0.00051606586 0.006548427 0.005838288 0.0057452447
-0.0062861857 0.0014140141 0.0090221185 0.0017396741 0.0071625207 0.006115282 0.0044591953 -0.0027003898
0.0041604973 0.010145405 0.004379623 0.0035326285 0.013354438 -0.0031091894 0.0017543145 0.00011518467
0.0058120075 0.0015730587 -0.00200594 0.0059927697 0.0015946317 0.0069326493 0.0038318972 0.0091124475
0.0064706346 0.0020552264 0.0065888483 -0.0019898037 0.00844734 0.007246009 -0.0034055754 0.008469025
0.006639395 -0.004621453 -0.0008721255 0.008194989 0.0014472585 0.0051886546 0.0033709505 -0.00061513326
-0.0026820267 0.004288653 0.0034912236 0.004568539 0.012102529 -0.00073773554 0.00014464022 0.01246631
0.005021143 0.003972933 -0.0018245834 -0.00021638609 0.008623473 -0.0001319667 0.006816054 -0.0030355658

network_body._body_endoder.seq_layers.4.weight f4 [256, 256]
00000000: 0e65 36bd 98c3 94bd 797b c5bd 6f93 773b
00000010: bcc0 e1bc 66d1 74bb 6e8c 5e3d f86c 683b
00000020: 0e98 89bc 62a8 8bbd f8ee adbb e763 573d
00000030: 60bd 1b3d 8705 9abd bd8e ed3d 9bd4 a93d
00000040: 348a 8fbd f05d 2fbd 73c2 0d3e 923c 7abd
00000050: 952c 863c 925a b2bd 2fa4 153d 86b6 8fbd
00000060: 834f bd3d 26e9 cebc 0a85 81bd 49ab 903d
00000070: b600 84bd 8b45 883d a02c f73d 44d7 c3bb
00000080: 721c 99bc b6c3 a73c 73b3 13bb 6f15 54bd
00000090: 7fe5 a7bd c903 69ba e014 e33b 1fca 8cbc
000000a0: ae48 05be 7882 ee3c b063 4bbc 1f90 d9bc
000000b0: 58b1 31bd b85b 0fbd aeb0 e93b 6e5b d4bc
000000c0: 78e0 b33d edf6 cf3d 8d28 6c3d 0119 d0bd
000000d0: 2f57 123d 84ca bcbd b3aa 553d 5a35 943d
000000e0: 2cb6 55bc 493d 1c3e 8e83 c8bc b907 aabc
000000f0: 7a12 ca3d 2ac9 e23c c938 af3d 0301 04bc
00000100: f171 0f3e 177f 273d 555c 3ebd d69a 97bd
00000110: 0123 86bd 377b a63c 57fd b5bd 9916 0abd
00000120: 6212 ebbd cced 1e3b 77f3 993d 7ece 48bd
00000130: 9135 87bc 444a d73d 277e 25bd 3a9a b2bc
00000140: bd87 9e3c bd7d 15bd ecc1 23bd 4575 04bd
00000150: 9eaa a9bd 29a7 c33c 9595 85bd b54d a13d
00000160: 5915 833d 7bf5 b0bc 6d17 74bd 1637 35bd
00000170: b447 d8bd 6420 d73a 9c3b 0abe b6e9 99bd
00000180: 9069 b4bd 5f5a 243e 9afd 223d bc3e 5fbd
00000190: d324 273c 78ef 1ebe 6121 6dbd 1b1c 3fbd
000001a0: 40a7 693c 8450 a6bd 69f9 553c db0f bd3c
000001b0: d9b6 0f3c f436 2a3b 8191 83bc 8c1c 133c
000001c0: 5792 3abc 49d6 643c 2544 6bbb d8fd b13d
000001d0: 800d 0ebc b9fb 5a3d 7df5 af3c 25dd 67bd
000001e0: b277 383d 3a3d e63c d366 13bd dbbd dd3d
000001f0: 4d7c 093e 6a15 b93d a0ae d7bd d757 41bc
00000200: 9583 eb3d f3a0 c3bb 5c93 9e3c 4b17 8dbd
00000210: 5ee3 9d3c bff0 aebc b6fe babc 002f b63d
00000220: b4cb 6d3c a7a4 b0bb ed94 e33d a91b 113d
00000230: a6bc f23d 3fa0 893d f8aa 92bc 61db bcbd
00000240: ea76 033d 8c1e 88bd a1ff ba3d 870c 493c
00000250: d75d 303c eaab ee3d 09d6 bb3d 30e7 28bd
00000260: 6abb 32bc 89da fcbc bd76 3cbd 59a6 e93c
00000270: 3a8e 6abc d5ce 793d 4a11 ec3c 4db0 ad3d
00000280: 2eb1 f0bc d13b c5bc b59d 483d 7787 ff3d
00000290: caf5 cfbd aa1b 313d 9c49 e7bc 851c 3a3d
000002a0: 388f 5f3d 5116 17bd 834b 26bd bf02 d83d
000002b0: 47ea a1bc cfc4 4b3d 8b0c 063e a17c af3d
000002c0: 779b 6c3c 0e2f 4fbc c38b b5bd 4dad f43c
000002d0: 76f1 053e 2fb7 97bd f2ce 5f3d b61b 18bd
000002e0: 7c9a 56bd d6ad f6bc 3bf8 173e c874 2dbd
000002f0: e253 903d 2b66 d1bd f073 2bbd 722b b1bd
00000300: 8d66 843d 19fe 043c ddbc 713c 2bdd 843c
00000310: d1af 9dbc 9dbe 9e3d 558b e23b fb61 523d
00000320: bc8a 433d 1761 7c3d 5087 38bd 6433 e7bd
00000330: 932b 87bd 5ba8 dc3d 9ea5 463d 69fb e73c
00000340: 19ed 96bc c6e6 a63c 19d3 153d 2140 87bd
00000350: 3c54 21bd 36af a23c 3096 7abd 8229 053d
00000360: 9373 613c 9d20 16be ae67 5bbc c4ae 903d
00000370: 8682 afbd 311c 19bc 5c00 993c 7175 acbd
00000380: ecfa 163d 388d 3ebd 6e9e 3e3d 7530 3d3d
00000390: c4b4 0d3e 6440 a53d 4ce5 56bd df2a f6bc
000003a0: 7c6a 2b3d 96b2 dfbb 3a0e 833d 1b77 33bd
000003b0: 99f4 26be ecab 88bd 7a71 bfbd d5e7 91bd
000003c0: 0b18 823c 3107 0fbd 45b8 503c d9d7 8d3d
000003d0: 1888 f3bb bb7c 1bbe c46f 483c 22c7 22bb
000003e0: 4d3c 84bc a6ac 673d 95f5 2ebc 6875 503c
000003f0: 801f 713b a555 b1bc 646b cd3d dfb4 273d
-0.044529967 -0.07263869 -0.09642691 0.0037777086 -0.027557723 -0.0037356257 0.054333143 0.003546534
-0.016796138 -0.06819226 -0.0053080283 0.05258551 0.0380224 -0.075205855 0.11599491 0.082925044
-0.07008782 -0.042814195 0.13843708 -0.06109292 0.01637868 -0.08708681 0.03653353 -0.070172355
0.09243681 -0.025257658 -0.06324203 0.0706392 -0.06445448 0.06653889 0.120690584 -0.0059765894
-0.018690322 0.020479064 -0.002253738 -0.051778253 -0.0819807 -0.00088888087 0.0069299787 -0.017186223
-0.13016006 0.029114947 -0.012413904 -0.02655798 -0.04338202 -0.03499958 0.0071316576 -0.025922503
0.087830484 0.10154519 0.05765586 -0.10161019 0.035727676 -0.09218314 0.052164745 0.072367385
-0.013043921 0.15257753 -0.024476793 -0.020755636 0.098668054 0.027683813 0.08555753 -0.008056882
0.14008309 0.040892687 -0.046474773 -0.074025795 -0.06549645 0.020322425 -0.08886211 -0.033712957
-0.114781156 0.0024250625 0.0751714 -0.04902505 -0.016505035 0.10512212 -0.04040351 -0.021802057
0.019351834 -0.036496866 -0.03997986 -0.0323384 -0.08284496 0.02388342 -0.06522671 0.078761496
0.06400556 -0.02160143 -0.059592653 -0.044241987 -0.10560551 0.0016412851 -0.13499302 -0.0751528
-0.08809197 0.16050099 0.039792635 -0.054503188 0.010201651 -0.15521038 -0.05789316 -0.046657663
0.014261067 -0.08120826 0.013059952 0.02307885 0.008771622 0.0025972696 -0.016060593 0.008978974
-0.011387429 0.013967105 -0.0035898772 0.08690995 -0.008670211 0.053462718 0.021479363 -0.056607384
0.045036025 0.028105367 -0.035986733 0.10827228 0.13426323 0.090372875 -0.10531354 -0.011800728
0.11499707 -0.0059701144 0.019357376 -0.068892084 0.019273456 -0.021355031 -0.022826534 0.08895683
0.014513899 -0.005390722 0.1111239 0.03542677 0.11852388 0.06720018 -0.01790379 -0.09221531
0.032095827 -0.06646451 0.091307886 0.012271053 0.010764561 0.11653884 0.09171683 -0.041236103
-0.010908941 -0.030865924 -0.046011675 0.028521704 -0.014316136 0.060988266 0.028816838 0.08480892
-0.02938136 -0.024076374 0.048978526 0.1247701 -0.101543024 0.043239273 -0.028233342 0.045437355
0.054579943 -0.036886517 -0.040599357 0.10547399 -0.019765032 0.04974824 0.13090722 0.08568693
0.014441363 -0.012645496 -0.08864548 0.029867793 0.13080391 -0.074079864 0.054640718 -0.037135802
-0.05239342 -0.030112188 0.14840786 -0.0423477 0.070472494 -0.10224565 -0.041858613 -0.08650865
0.064648725 0.008117222 0.014754501 0.016218742 -0.019248875 0.077512 0.0069135823 0.051362973
0.04773973 0.06161603 -0.04505092 -0.11289099 -0.06600108 0.10774299 0.04849779 0.028318124
-0.018423604 0.020373713 0.03657827 -0.066040285 -0.039386973 0.019858938 -0.061178386 0.032510288
0.013760465 -0.14660878 -0.013391418 0.07064584 -0.08569817 -0.0093451 0.01867693 -0.08420838
0.03686039 -0.046521395 0.04653781 0.04618879 0.13838488 0.08068922 -0.05246477 -0.03004974
0.0418496 -0.006826709 0.06399198 -0.04381476 -0.16304244 -0.066734165 -0.09347816 -0.071242966
0.015880605 -0.034918968 0.012739246 0.06925935 -0.007431995 -0.151843 0.012233678 -0.002483793
-0.016142035 0.056561135 -0.0106786685 0.012723304 0.0036792457 -0.021647284 0.10030249 0.040943976
