Assets/Training/results/RUN4/SzitakotoBehavior/SzitakotoBehavior-3999997.onnx (onnx, 729012 bytes, 17 tensors)

85 f4 [14]
0	0x3a031271	0.00050000014
1	0x3e28c1c8	0.16480172
2	0x3a031271	0.00050000014
3	0x3e27ef4b	0.16399877
4	0x3a031271	0.00050000014
5	0x3e2b315c	0.16718048
6	0x3a031271	0.00050000014
7	0x3e2a48d7	0.16629349
8	0x3a031271	0.00050000014
9	0x3e2d86e9	0.16945995
10	0x3a031271	0.00050000014
11	0x3e2c682f	0.16836618
12	0x3a031271	0.00050000014
13	0x3e2c682f	0.16836618

88 f4 [42]
0	0x3ac49b92	0.0014999977
1	0x3e97a8c7	0.29620954
2	0x3b071af5	0.0020615433
3	0x3e9865be	0.29765123
4	0x3b0b0555	0.0021212895
5	0x3e96875c	0.29400146
6	0x3b0ed4ec	0.0021794392
7	0x3e98b161	0.2982283
8	0x3b0b0555	0.0021212895
9	0x3e95214a	0.2912696
10	0x3b0b05b0	0.0021213107
11	0x3e9875ee	0.29777473
12	0x3b0ed495	0.002179419
13	0x3e93d77b	0.28875336
14	0x3ac49b92	0.0014999977
15	0x3e96c459	0.29446676
16	0x3b071af5	0.0020615433
17	0x3e977ef1	0.29589036
18	0x3b0b0555	0.0021212895
19	0x3e95a325	0.29226032
20	0x3b0ed4ec	0.0021794392
21	0x3e97c641	0.29643443
22	0x3b0b0555	0.0021212895
23	0x3e943bef	0.28951976
24	0x3b0b05b0	0.0021213107
25	0x3e978852	0.29596192
26	0x3b0ed495	0.002179419
27	0x3e92eaf5	0.28694883
28	0x3ac49b92	0.0014999977
29	0x3e95da8f	0.2926831
30	0x3b071af5	0.0020615433
31	0x3e969265	0.29408565
32	0x3b0b0555	0.0021212895
33	0x3e94b7e7	0.29046556
34	0x3b0ed4ec	0.0021794392
35	0x3e96d61d	0.2946023
36	0x3b0b0555	0.0021212895
37	0x3e934cd2	0.28769547
38	0x3b0b05b0	0.0021213107
39	0x3e969363	0.29409322
40	0x3b0ed495	0.002179419
41	0x3e91f674	0.2850834

91 f4 [132]
0	0x3ebe3ab4	0.37154162
1	0x3eff8864	0.49908745
2	0x3ee92a85	0.45540252
3	0x3e814276	0.25246018
4	0x3ec33e4b	0.38133463
5	0x3effda10	0.49971056
6	0x3ee98d4d	0.45615616
7	0x3e808a34	0.2510544
8	0x3eb22b54	0.34798682
9	0x3eff0b55	0.49813333
10	0x3eebaea6	0.46031684
11	0x3e821b15	0.25411287
12	0x3ebbe4f4	0.36698115
13	0x3eff73db	0.49893078
14	0x3ee9b879	0.45648554
15	0x3e7ea435	0.24867328
16	0x3ea71982	0.32636648
17	0x3eff2bc0	0.49838066
18	0x3ef0514c	0.46937025
19	0x3e82ce25	0.255479
20	0x3ea95936	0.33075875
21	0x3efcc0ab	0.49365744
22	0x3ee70863	0.45123586
23	0x3e788ff5	0.24273665
24	0x3e9cd229	0.3062909
25	0x3eff558e	0.4986996
26	0x3ef3f937	0.47651073
27	0x3e827e18	0.25486827
28	0x3e9157d0	0.28387308
29	0x3ef79303	0.4835435
30	0x3ee44132	0.4458099
31	0x3e721f1f	0.23644684
32	0x3e8e837a	0.27834684
33	0x3eff61a4	0.4987918
34	0x3ef72645	0.48271385
35	0x3e81b10c	0.2533039
36	0x3e6c5716	0.23080096
37	0x3ef73cbd	0.48288527
38	0x3eeb4d98	0.45957637
39	0x3e741a79	0.23838224
40	0x3e7a8579	0.24464978
41	0x3eff8124	0.49903214
42	0x3efa28eb	0.48859343
43	0x3e80f85f	0.25189492
44	0x3ebe8bd1	0.37216046
45	0x3eff7010	0.49890184
46	0x3ee98c06	0.45614642
47	0x3e7e2f66	0.24822769
48	0x3ec39bb7	0.38204738
49	0x3effcc3d	0.4996051
50	0x3ee9f601	0.456955
51	0x3e7ca3b4	0.24671823
52	0x3eb28683	0.3486825
53	0x3efee831	0.49786523
54	0x3eec1d4b	0.461161
55	0x3e7fc887	0.24978839
56	0x3ebc4217	0.36769173
57	0x3eff59fc	0.4987334
58	0x3eea1c76	0.4572484
59	0x3e7a3ba3	0.24436812
60	0x3ea76364	0.32693017
61	0x3eff0dec	0.4981531
62	0x3ef0ad28	0.47007108
63	0x3e807f22	0.25096995
64	0x3ea9c271	0.3315616
65	0x3efc7ce4	0.49314034
66	0x3ee77014	0.45202696
67	0x3e7405a6	0.2383028
68	0x3e9d1941	0.3068333
69	0x3eff4022	0.49853617
70	0x3ef44bcd	0.4771408
71	0x3e801664	0.25017083
72	0x3e91c3b3	0.2846962
73	0x3ef71f83	0.4826623
74	0x3ee4a1a6	0.44654578
75	0x3e6d577b	0.23177902
76	0x3e8ec28b	0.278828
77	0x3eff462f	0.49858233
78	0x3ef77360	0.48330212
79	0x3e7e53d7	0.2483667
80	0x3e6d31d2	0.23163536
81	0x3ef6c598	0.48197627
82	0x3eebabb1	0.46029428
83	0x3e6f2b0f	0.2335627
84	0x3e7afca7	0.24510442
85	0x3eff63a1	0.49880698
86	0x3efa6970	0.48908567
87	0x3e7ca36a	0.24671713
88	0x3ebeea4a	0.37288123
89	0x3eff561e	0.4987039
90	0x3ee9f835	0.4569718
91	0x3e79ad5e	0.2438254
92	0x3ec3fd9b	0.38279423
93	0x3effbc25	0.4994823
94	0x3eea5c7c	0.45773685
95	0x3e78242b	0.24232547
96	0x3eb2e54f	0.34940574
97	0x3efec17f	0.49757
98	0x3eec78ee	0.46186012
99	0x3e7b2c36	0.24528584
100	0x3ebcaf9d	0.36852732
101	0x3eff3ce9	0.49851158
102	0x3eea7e63	0.4579955
103	0x3e75aa84	0.23990828
104	0x3ea7b2db	0.32753643
105	0x3efee9f7	0.49787876
106	0x3ef10a0b	0.47077975
107	0x3e7c35a0	0.24629831
108	0x3eaa26ff	0.33232877
109	0x3efc38aa	0.4926198
110	0x3ee7da4a	0.4528373
111	0x3e6f4152	0.23364761
112	0x3e9d6cb0	0.30746984
113	0x3eff196b	0.4982408
114	0x3ef49c27	0.47775385
115	0x3e7b2a55	0.24527867
116	0x3e92347e	0.28555673
117	0x3ef6adcf	0.4817948
118	0x3ee518e7	0.4474556
119	0x3e68742d	0.22700568
120	0x3e8f05e0	0.2793417
121	0x3eff26b2	0.4983421
122	0x3ef7bca7	0.48386118
123	0x3e791ef4	0.24328214
124	0x3e6e0f5b	0.23248045
125	0x3ef65237	0.481096
126	0x3eec0de1	0.4610434
127	0x3e6a06e4	0.22854191
128	0x3e7b7749	0.24557222
129	0x3eff48a6	0.49860114
130	0x3efaa271	0.48952058
131	0x3e772a3b	0.24137203

94 f4 [2]
0	0x3e7e30bc	0.24823278
1	0x3ea4e7b3	0.32208022

action_model._continuous_distribution.log_sigma f4 [1, 2]
0	0xbea060d5	-0.31323877
1	0xbe2039fe	-0.15647122

action_model._continuous_distribution.mu.bias f4 [2]
0	0xbc18a84c	-0.009317469
1	0xbc96d7d9	-0.018413471

action_model._continuous_distribution.mu.weight f4 [2, 256]
0	0x3d617354	0.055041626
1	0x3cb3d322	0.021951262
2	0xbc08aa77	-0.008341423
3	0xbb4254d7	-0.002965262
4	0x3b83105b	0.0039997525
5	0x3c5f0161	0.013611169
6	0xbd14a75a	-0.03629241
7	0x3c08da7a	0.00835287
8	0xba26313d	-0.00063397345
9	0xbd9fac3e	-0.077965245
10	0x3b819ea1	0.0039556776
11	0x3bd6d672	0.0065563256
12	0xbc554e83	-0.013019207
13	0x3c685a92	0.01418175
14	0xbcc29e87	-0.023757232
15	0x3c0c032a	0.008545676
16	0x3c26a45f	0.010171025
17	0x39e4e3cb	0.00043657268
18	0x3b48bb6e	0.0030629295
19	0x3bc2f9e1	0.005950198
20	0x3c0a3825	0.008436237
21	0x3bc140a4	0.0058975983
22	0x3b8f6c88	0.0043769516
23	0x3c2ac406	0.010422712
24	0xbc14e304	-0.009087328
25	0x3c1d2779	0.009591931
26	0xbb2abdb6	-0.0026053018
27	0x397ee148	0.00024307251
28	0x3a54adfe	0.0008113085
29	0xbb2ab730	-0.002604913
30	0x3c1ad9d6	0.00945135
31	0x3b7f4b63	0.0038954846
32	0x3b521f28	0.0032062028
33	0x3b5e7412	0.0033943695
34	0xbc83994a	-0.016064305
35	0x3ab0cac9	0.0013488169
36	0xbd8fabc1	-0.07015181
37	0xbb1e1bb3	-0.0024125397
38	0xbaa7becb	-0.001279795
39	0xbbed501c	-0.007242216
40	0x3ba1e33b	0.004940418
41	0x3d432d98	0.047650903
42	0x3cfa9c33	0.03059206
43	0x3cb5da63	0.022198861
44	0xbc02a4f4	-0.007973898
45	0x3bcfae2e	0.0063379025
46	0xbaec57d4	-0.0018031546
47	0x3c4ddbd1	0.012564615
48	0x3bbea454	0.0058179293
49	0xbc1e536e	-0.009663446
50	0x3ca27fd5	0.019836346
51	0xbb7a5fac	-0.0038203998
52	0x3cd126fb	0.025531283
53	0x3c289a70	0.010290727
54	0xbb99e3ea	-0.004696359
55	0x3be25785	0.006907406
56	0x3bb0623c	0.005382804
57	0x3b1e3bcc	0.0024144528
58	0x3bf196a7	0.0073726955
59	0x3bfe213e	0.0077554276
60	0x3c693b9e	0.014235405
61	0x3a4e7610	0.0007875869
62	0xba3a2479	-0.0007100772
63	0xbb67584f	-0.0035300439
64	0x3b198fa0	0.0023431554
65	0x3c864805	0.016391763
66	0x3b16b98d	0.002299878
67	0x3cb25164	0.021767326
68	0xbb1a49fe	-0.0023542638
69	0x3b04e4ef	0.0020278057
70	0x3baa6990	0.0052005723
71	0x399d241e	0.00029972283
72	0x3c2be76d	0.010492188
73	0x3bfb2099	0.007663798
74	0x3c1b7c88	0.00949014
75	0xba08071d	-0.0005189048
76	0xbb02ccdd	-0.0019958534
77	0x3bda8411	0.0066685756
78	0x3c6d9f34	0.014503289
79	0x3b4819f0	0.0030533038
80	0x3bbd5ddf	0.0057790126
81	0xbd077a82	-0.033075817
82	0x3c7e4378	0.0155190155
83	0xba3a6b4c	-0.00071113254
84	0xbbc15c63	-0.005900906
85	0xbbadc253	-0.0053027063
86	0xbc69655d	-0.014245358
87	0xbb98bc3f	-0.0046611126
88	0x3c8344bc	0.016023986
89	0x3b2b696f	0.0026155373
90	0xbc710724	-0.014711175
91	0x3c4653be	0.012104927
92	0xba22d90a	-0.0006212151
93	0x3c7353f6	0.014851561
94	0xbae641de	-0.0017567237
95	0x3be9fdfb	0.0071408725
96	0x3d006a53	0.0313514
97	0x3b6dfb17	0.0036312991
98	0xbbe5fd38	-0.0070187114
99	0x3b2fbd8a	0.0026815855
100	0xb9d4d37b	-0.00040593356
101	0x3cc3a03e	0.02388012
102	0x3c86bb92	0.016446862
103	0xbc967b0b	-0.018369218
104	0x3d6a07a7	0.057136204
105	0x3cada05c	0.02119463
106	0xbc17ec71	-0.009272681
107	0xbbf6c56f	-0.00753086
108	0xbc9a71bf	-0.018853066
109	0x3c0e67ab	0.008691709
110	0xbad3c599	-0.0016156911
111	0x3b664709	0.0035137555
112	0x3b5f5727	0.0034079046
113	0xbbbe35a2	-0.0058047334
114	0xbba26ecb	-0.004957055
115	0xbb416032	-0.00295068
116	0x3b0b07fc	0.0021214476
117	0x3ca64fc0	0.0203017
118	0x3b6f8363	0.0036546818
119	0x3ccbe2b6	0.024888378
120	0x3c38a16a	0.011268953
121	0xb87077f4	-5.7332174e-05
122	0x3aae1141	0.0013280289
123	0xba88cefd	-0.0010437664
124	0xbbab6a76	-0.005231197
125	0x3cb80d22	0.0224672
126	0xbbe99ad5	-0.007129053
127	0x3c217fce	0.009857131
128	0xbceabf47	-0.028655661
129	0xbc84b9a8	-0.016201809
130	0x3c83c9d9	0.01608746
131	0x3ad25591	0.0016047229
132	0x3c905fb7	0.017623765
133	0xbb3a5027	-0.0028429122
134	0x3aeefc98	0.0018233238
135	0xba437862	-0.0007456598
136	0xbc41b361	-0.011822552
137	0x3a721d10	0.0009235898
138	0xbaa74cc6	-0.0012763969
139	0xbc2ea980	-0.010660529
140	0xba8f3405	-0.0010925537
141	0x3bbcc04c	0.0057602283
142	0xbc871820	-0.016490996
143	0x3d22d903	0.03975774
144	0xbb78a892	-0.0037942273
145	0x3d13db8d	0.03609805
146	0x3bda921d	0.00667025
147	0x39472f02	0.0001899563
148	0xbbe2e8db	-0.006924731
149	0xbad9cdc4	-0.0016617109
150	0xbb941957	-0.0045196223
151	0x3bf68a75	0.0075238296
152	0x3b28f280	0.0025779307
153	0x3c8d4ff2	0.017250035
154	0x3b87e85e	0.0041475734
155	0x3bd7be02	0.00658393
156	0x3a6c7cc8	0.00090212794
157	0x3c86423c	0.016389005
158	0x3c371026	0.011173284
159	0x3b515760	0.0031942949
160	0x3b7a3e88	0.0038184244
161	0xbb83ed58	-0.0040260963
162	0xbc9a721e	-0.018853243
163	0x3af43f70	0.0018634629
164	0x3d8bfc1e	0.06835197
165	0xbb763a6a	-0.0037571439
166	0xbd4090d6	-0.047013126
167	0xbc191503	-0.0093433885
168	0x3b9143e9	0.0044331443
169	0x3c4923f8	0.012276642
170	0xbb792d8b	-0.003802153
171	0x39b0c4a6	0.0003371585
172	0x3b59b34f	0.0033218449
173	0x3b8590ce	0.0040761
174	0xbb984326	-0.0046466766
175	0x3bbcbe54	0.0057599936
176	0xbb9154f7	-0.0044351774
177	0xba5adb42	-0.0008348712
178	0xbb908c74	-0.0044112746
179	0xbb9dc814	-0.004815111
180	0x3c303a9c	0.010756161
181	0x3b9995f0	0.0046870634
182	0x3c492e6f	0.012279137
183	0xbb81bb67	-0.0039591077
184	0xbc20c903	-0.00981355
185	0xbb4da3df	-0.0031378192
186	0xbc695046	-0.01424033
187	0x3af54888	0.0018713633
188	0xbb1c151d	-0.0023816295
189	0x3bea825b	0.007156653
190	0x3b55d1de	0.0032626311
191	0x3b04fee3	0.0020293526
192	0xbbd19a1e	-0.006396546
193	0xbc783f83	-0.015151861
194	0x3b6940f0	0.0035591684
195	0x3d1e3185	0.038621444
196	0xbcbdbc0e	-0.02316096
197	0x3c389c0b	0.011267672
198	0x3c8c40e3	0.017120784
199	0x3bacd5eb	0.0052745244
200	0x3c12e726	0.008966243
201	0xbb14b8d1	-0.0022693167
202	0x3a532c1b	0.00080555835
203	0x3b75e9b4	0.003752333
204	0x3c829213	0.015938794
205	0xbb9cabb9	-0.004781213
206	0x3ba0799f	0.004897311
207	0xbc0830a5	-0.008312379
208	0x3b08a0e8	0.002084786
209	0x3ca4b395	0.020105163
210	0x394b6918	0.00019398739
211	0xbb76dada	-0.0037667067
212	0xbccd5efd	-0.025069708
213	0xbc8a057c	-0.016848318
214	0xbb215e10	-0.0024622716
215	0x3a3b5d8d	0.0007147424
216	0x3c885fdf	0.016647277
217	0x3c51ed24	0.012812886
218	0x3c1d1eab	0.009589831
219	0x3a22d207	0.0006211106
220	0xbc34d61e	-0.011037378
221	0xbc8f4a65	-0.017491529
222	0x3b609269	0.0034266955
223	0x3c0d426c	0.008621793
224	0x3c24ab52	0.010050612
225	0xbc0f9b2b	-0.008765022
226	0xbc3b1396	-0.011418244
227	0x3c36caaf	0.011156722
228	0x3cebfdc6	0.028807532
229	0xbc92a34e	-0.017900135
230	0x3b031834	0.002000344
231	0xbb0b81a2	-0.0021286984
232	0xbb978126	-0.00462355
233	0x3c7de2c7	0.015495962
234	0xbb7d91c1	-0.0038691612
235	0xb9b3c29a	-0.0003428653
236	0xbd083e2f	-0.033262428
237	0xbbdd7811	-0.006758698
238	0xbc76af91	-0.015056507
239	0x3c669583	0.014073732
240	0xba8ae2c7	-0.0010596149
241	0xbc9d3629	-0.019190865
242	0xbb8d6711	-0.004315265
243	0x3c9187c4	0.017764933
244	0x3b147ca0	0.002265729
245	0x3d2ad6c3	0.04170872
246	0x3b8b8f43	0.0042590215
247	0xbbb14c33	-0.005410695
248	0x3aa8fe21	0.0012893119
249	0x3c429ab2	0.011877703
250	0x3b8f45df	0.004372343
251	0xbb1e03a5	-0.002411106
252	0xbad88c9b	-0.0016521396
253	0x3bdc353e	0.006720214
254	0xbd8fba2e	-0.07017933
255	0x3c9db11a	0.019249488

network_body._body_endoder.seq_layers.0.bias f4 [256]
0	0xbd83ce4a	-0.06435831
1	0xbd529bf3	-0.051418256
2	0x3c7723dc	0.015084233
3	0xbc043c50	-0.00807102
4	0x3c47475e	0.012163011
5	0xbd224943	-0.03962065
6	0xbcc7ad72	-0.024374697
7	0xbbe5b216	-0.007009755
8	0xbb82ad54	-0.0039879475
9	0xbda05e30	-0.07830465
10	0x3c56ea07	0.01311732
11	0xbdf2cc95	-0.11855427
12	0xbdc1d69f	-0.09464764
13	0xbd4e20f4	-0.050324395
14	0xbda26195	-0.079287685
15	0xbb955bf9	-0.004558083
16	0xbce5480f	-0.027988462
17	0xbcff073a	-0.031131376
18	0xbd8884de	-0.066659674
19	0xbc4932cd	-0.012280178
20	0x3cfa9a25	0.03059108
21	0xbc53c499	-0.0129252905
22	0xbd71c7c6	-0.05902841
23	0xbcac849f	-0.021059332
24	0xbd9b91f6	-0.07596199
25	0x3d0b72e7	0.034045126
26	0x3c15f05c	0.009151544
27	0x3d25c939	0.040475104
28	0x3aebba4a	0.0017984596
29	0xbdb49fea	-0.08819564
30	0xbd318771	-0.043342058
31	0xbd83d060	-0.06436229
32	0xbccf259d	-0.02528649
33	0xbd1d0883	-0.038338196
34	0xbd0f1ad3	-0.03493769
35	0x3cec04f6	0.02881096
36	0xbd5f5158	-0.054520935
37	0xbd24bff0	-0.04022211
38	0xbbec6fb8	-0.0072154664
39	0xbcfdae02	-0.030966762
40	0xbcd24243	-0.025666362
41	0xbc46e3d2	-0.0121392775
42	0xbd437f17	-0.047728624
43	0x3da31ee0	0.07964873
44	0x3c06071d	0.008180407
45	0xbcbb0e1b	-0.022833874
46	0xbc8fef07	-0.017570032
47	0xbcc84da9	-0.024451094
48	0xbcf7dfe8	-0.030258134
49	0xbd196837	-0.037452903
50	0xbdcaabe2	-0.09896065
51	0x3b874fdc	0.004129393
52	0x3b889341	0.0041679447
53	0x3c19fc8b	0.00939859
54	0x3c9724d5	0.01845018
55	0x3a5b5609	0.0008367007
56	0xbd974723	-0.07386615
57	0xbd63fd03	-0.055661213
58	0xbc9b37e4	-0.01894755
59	0xbd5027c1	-0.050819162
60	0xbd90e3b3	-0.0707468
61	0xbdc3b266	-0.09555511
62	0xbd80e850	-0.0629431
63	0xbe0150ba	-0.12628451
64	0xb9a383f9	-0.0003118811
65	0xbd8f1cbd	-0.06987903
66	0xbd77dc14	-0.060512617
67	0xbd01eb17	-0.03171834
68	0xbcf27c03	-0.029600149
69	0xbe08c9b0	-0.13358188
70	0xbd85ad56	-0.06527202
71	0xbd5125c6	-0.051061414
72	0xbd3fc2cb	-0.04681663
73	0xbc8e273b	-0.01735269
74	0xbd343a70	-0.044001043
75	0xbd424456	-0.04742845
76	0xbd405a28	-0.04696098
77	0xbd3deacf	-0.04636651
78	0xbd090daa	-0.033460297
79	0x3a7a9dde	0.0009560267
80	0xbda30569	-0.07960016
81	0xbd0036dc	-0.031302318
82	0xbd688e19	-0.05677614
83	0x39b0e79e	0.00033741904
84	0xbce93d17	-0.028471513
85	0xbd665965	-0.056237597
86	0xbd2244d8	-0.039616436
87	0x3cdc574a	0.026897091
88	0xbbb03694	-0.0053776
89	0xbd967248	-0.07346016
90	0xbd9193cf	-0.071082704
91	0xbd4d9ba0	-0.050197244
92	0xbdaa3c5f	-0.08312296
93	0xbd91b6ff	-0.07114982
94	0xbc396bd9	-0.011317217
95	0xbd997135	-0.07492296
96	0xbd9e6b67	-0.07735329
97	0xbd8107ff	-0.06300353
98	0xbdaa9291	-0.083287366
99	0xbd6c0f51	-0.057631794
100	0x3ca36f29	0.019950466
101	0xbdc6adda	-0.09701128
102	0xbd977ba2	-0.07396628
103	0xbcd62581	-0.02614093
104	0xbcbeb133	-0.023277855
105	0xbc628bf4	-0.013827313
106	0xbcb32191	-0.021866592
107	0xbcaf8055	-0.021423498
108	0xbd280e0f	-0.041029032
109	0xbc7c67b9	-0.015405589
110	0x3ce724dd	0.02821582
111	0xbd2c9b1c	-0.04214011
112	0x3c5c8e29	0.013461628
113	0xbcf67cd0	-0.030088812
114	0xbb7caa45	-0.0038553637
115	0xbd17924e	-0.03700476
116	0xbda63cf2	-0.08117093
117	0xbd653c75	-0.05596586
118	0xbd906011	-0.07049573
119	0xbc4ba55f	-0.012429564
120	0xbd1d449b	-0.038395505
121	0xbd98f0c1	-0.07467795
122	0xbdd7acbb	-0.105309926
123	0x3d404801	0.04694367
124	0xbd511122	-0.05104173
125	0xbd7d9ed9	-0.061919067
126	0xbc14d0e7	-0.009083009
127	0xbcdddab9	-0.027081834
128	0x3cc208aa	0.023685772
129	0xbd16c270	-0.036806524
130	0xbd82c8b8	-0.0638594
131	0xbb93e55b	-0.0045134253
132	0xbd5badab	-0.05363242
133	0xbc10e235	-0.008842994
134	0x3d1390db	0.036026817
135	0xbbc6c4c5	-0.006065937
136	0xbd0b2fdb	-0.033981185
137	0xbbc5635c	-0.0060238075
138	0x3b77dd03	0.0037820942
139	0xbd44528d	-0.04793029
140	0xbdc1d697	-0.09464758
141	0xbd0bbb51	-0.034114186
142	0xbd6ecb5b	-0.058299404
143	0xbcfdb562	-0.03097028
144	0xbdb51010	-0.08840954
145	0xbd8504c3	-0.06495049
146	0xbc2de264	-0.010613058
147	0xbcdd5926	-0.027020048
148	0xbdb684cc	-0.08912048
149	0x3bf76624	0.007550018
150	0xbd9cf789	-0.07664401
151	0x3cd1cf70	0.02561161
152	0xbbdb2224	-0.0066874195
153	0xbd88d36e	-0.06680952
154	0x3c239367	0.009983874
155	0xbd803a91	-0.06261171
156	0xbc0b1fdc	-0.008491483
157	0xbc55e471	-0.013054953
158	0xbca7c8e1	-0.020481529
159	0xbd4dbfb4	-0.05023165
160	0xbd79c5a0	-0.060979486
161	0xbdc63570	-0.09678161
162	0xbd6c38fe	-0.05767154
163	0xbc969582	-0.018381838
164	0xbdd03704	-0.101667434
165	0x3a0b37c7	0.00053107407
166	0xbd8d54f7	-0.069009714
167	0xbda329ed	-0.07966981
168	0xbd0f740a	-0.035022773
169	0xbd56f0df	-0.052475806
170	0xbd31f607	-0.04344752
171	0xbd2cbd57	-0.042172756
172	0xbdda5068	-0.106598675
173	0xbdcbde12	-0.09954466
174	0xbc97bc31	-0.018522354
175	0xbdd7a1d8	-0.10528916
176	0xbccd0359	-0.02502601
177	0xbd9bfa74	-0.076161295
178	0xbd553417	-0.05205163
179	0xbc2d547b	-0.010579224
180	0xbc29488f	-0.010332241
181	0x3ca3a80a	0.019977588
182	0xbc565914	-0.013082761
183	0xbdab3768	-0.08360177
184	0xbc0499e2	-0.008093329
185	0xbd2acad1	-0.041697327
186	0xbcdaf3c1	-0.026727559
187	0xbd8c3f84	-0.06848052
188	0xbda7bdba	-0.08190484
189	0xbd82e384	-0.063910514
190	0xbda6ca33	-0.08144035
191	0x3c563c0b	0.013075839
192	0x3ca39102	0.019966606
193	0x3d038852	0.032112427
194	0xbd811a67	-0.06303864
195	0xbd8d87c1	-0.06910659
196	0xbcac7503	-0.02105189
197	0xbc6c0ad8	-0.014406882
198	0xbdc08a26	-0.0940135
199	0xbc13ac85	-0.0090133
200	0xbdda4faf	-0.1065973
201	0xbd6470a5	-0.05577149
202	0x3cc7a282	0.024369482
203	0x3b9a6f56	0.0047129793
204	0xbc88429b	-0.016633322
205	0x3d1d00f4	0.038330987
206	0xbddd1343	-0.107946895
207	0xbc6b2808	-0.014352806
208	0xbccf1f6c	-0.025283538
209	0xbd889518	-0.066690624
210	0xbb9b2d75	-0.0047356435
211	0xbd11d0fd	-0.035599697
212	0xbd9bfec9	-0.07616956
213	0xbc9e2ace	-0.01930752
214	0xbd2a98c7	-0.041649606
215	0xbdb7cb29	-0.089742966
216	0xbc66d3d8	-0.014088593
217	0xbd600278	-0.054689854
218	0xbd721f2c	-0.05911176
219	0xbd254d65	-0.040357012
220	0x3d3a3a91	0.04546601
221	0xbd9ec33a	-0.0775208
222	0xbc955687	-0.018229736
223	0xbc947542	-0.01812232
224	0xbd7defa7	-0.06199613
225	0xbc3591a1	-0.011082084
226	0xbcba58c4	-0.022747405
227	0xbd78ab29	-0.060710106
228	0xbdaef57b	-0.085429154
229	0xbd340b99	-0.043956373
230	0xbd12e834	-0.035865977
231	0xbdd112ff	-0.10208701
232	0xbcf20e0c	-0.029547714
233	0xbd7602ac	-0.06006114
234	0x39d27f18	0.00040149014
235	0xbdcba2b5	-0.09943143
236	0xbcec2a29	-0.028828697
237	0xbd598282	-0.053102978
238	0xbe26cf18	-0.16289937
239	0xbbb71576	-0.005587275
240	0xbc66537b	-0.014057989
241	0xbcaf6842	-0.021412019
242	0xbd428f24	-0.04749979
243	0xbbfc6cab	-0.007703384
244	0xbd308574	-0.04309602
245	0x3d037a3d	0.032098997
246	0xbc0952e0	-0.008381575
247	0xbc3846e8	-0.011247374
248	0xbce24c6d	-0.027624333
249	0xbdb00ebf	-0.085965626
250	0xbda61852	-0.081101075
251	0xbce01000	-0.02735138
252	0xbc8da3ad	-0.01728996
253	0xbca1c6f1	-0.019748183
254	0xbd0d1cd7	-0.034451332
255	0xbca24ca7	-0.019811941

network_body._body_endoder.seq_layers.0.weight f4 [256, 190]
0	0xbc473fbb	-0.012161191
1	0xbd9ba144	-0.07599118
2	0x3d9e5ea3	0.07732894
3	0x3d8f1a11	0.06987394
4	0x3da1288f	0.07869064
5	0x3d24a7c2	0.04019905
6	0xbdc62f09	-0.0967694
7	0x3e573e26	0.21019801
8	0xbd46cde7	-0.048536208
9	0x3d85203b	0.06500288
10	0xbd8e9665	-0.06962279
11	0x3dec9dd7	0.11553543
12	0xbb7a048d	-0.0038149685
13	0x3db17776	0.086653635
14	0xbdf9876f	-0.12184035
15	0x3c6303ed	0.013855916
16	0x3d9b18f1	0.075731166
17	0x3d9a2dc0	0.07528257
18	0x3d2e66e1	0.04257858
19	0xbd99186d	-0.07475362
20	0x3c88ff05	0.016723165
21	0x3cc3d73a	0.023906339
22	0xbdaa4e7c	-0.08315751
23	0x3d17eaef	0.037089285
24	0x3d9279b6	0.07152121
25	0xbdb18a8a	-0.08669002
26	0xbda51149	-0.080599375
27	0xbb84a8cb	-0.004048442
28	0x3d9917c2	0.074752346
29	0xbda622ce	-0.08112107
30	0x3e3d3ced	0.18480273
31	0x3d9b4b8f	0.07582771
32	0x3d156605	0.036474247
33	0xbd7a56c1	-0.06111789
34	0xbc0ad9a1	-0.008474738
35	0xbd45dc80	-0.04830599
36	0x3d2947b0	0.041328132
37	0x3d2c5de0	0.042081714
38	0x3ddb1692	0.10697664
39	0xbde76d39	-0.113001294
40	0x3d3ecbac	0.046580955
41	0xbcbc7cb4	-0.023008682
42	0xbbad2267	-0.005283642
43	0x3cf87919	0.030331181
44	0xbca8ccdd	-0.020605499
45	0xbdf415f0	-0.11918247
46	0x3da59a1e	0.08086036
47	0x3d943f67	0.072386555
48	0xbcc12f77	-0.023582203
49	0xbcc99b1c	-0.024610095
50	0x3df63393	0.12021556
51	0x3dce60a2	0.10077025
52	0xbd699bad	-0.05703323
53	0xbdbdd41e	-0.09268974
54	0x3e23b239	0.15985955
55	0xbda6c384	-0.081427604
56	0xbe499122	-0.1968427
57	0x3e2e15c9	0.17000498
58	0xbd2d23dc	-0.042270526
59	0xbd393a3b	-0.04522155
60	0xbdadda62	-0.08488919
61	0x3db135f9	0.086528726
62	0x3e2cab19	0.16862144
63	0xbe1985ef	-0.14992498
64	0xbe903bb7	-0.2817056
65	0x3dea6df0	0.1144675
66	0x3d3c55ad	0.045980144
67	0xbde83c49	-0.113396235
68	0xbe254187	-0.16138278
69	0x3d70b975	0.058770616
70	0xbaa6f946	-0.0012739084
71	0xbd65e33c	-0.05612491
72	0xbcf1732c	-0.029473864
73	0x3d1134e8	0.035450846
74	0xbe1278d4	-0.14303905
75	0x3c9bc7ff	0.019016264
76	0xbd850235	-0.064945616
77	0x3cbfc811	0.023410829
78	0x3cff4898	0.031162545
79	0xbd181606	-0.03713038
80	0xbe82465d	-0.25444308
81	0xbcf5d52e	-0.030008879
82	0x3dd0cef2	0.10195722
83	0xbda14320	-0.07874131
84	0xbe24ddd3	-0.16100244
85	0x3de48a6e	0.11159216
86	0xbd361436	-0.04445287
87	0xbddbf98e	-0.10740958
88	0x3b90c04a	0.004417454
89	0x3d9e4a04	0.07728961
90	0x3ce4a0e8	0.027908757
91	0x3dbfc727	0.09364157
92	0x3ceec41f	0.029146252
93	0xbb432c13	-0.002978091
94	0xbc36b579	-0.011151665
95	0x3a76a11a	0.0009408161
96	0x3e1e85ae	0.15480682
97	0xbd98bdfd	-0.074581124
98	0x3db92c6e	0.090416774
99	0xbe7fe1a4	-0.24988419
100	0xbdf26dc7	-0.118373446
101	0x3dcfbbd8	0.1014325
102	0x3e34556d	0.17610712
103	0xbd3939cc	-0.045221135
104	0xbd895ed8	-0.06707543
105	0x3e147b5e	0.14500186
106	0xbceb2efe	-0.028708931
107	0xbd38ebc2	-0.04514671
108	0xbd3112e4	-0.043230906
109	0x3ce58e0d	0.028021837
110	0x3cbdcdb6	0.02316938
111	0xbe208d3d	-0.15678878
112	0x3d444633	0.04791851
113	0x3db8e930	0.09028852
114	0xbc8682b0	-0.016419739
115	0xbdd0ba6b	-0.101918064
116	0xbdb545ac	-0.088511795
117	0x3d1379ee	0.036004953
118	0x3c074027	0.008255041
119	0xbd710c2b	-0.058849495
120	0x3e128613	0.14308958
121	0x3b5b8e4d	0.0033501566
122	0xbce6afe4	-0.028160043
123	0x3d3e6301	0.046481136
124	0x3d84f536	0.06492083
125	0x3dac22d4	0.084050804
126	0x3d9952be	0.07486485
127	0x3c08b180	0.008343101
128	0xbcdfabb7	-0.02730356
129	0x3da0f735	0.07859651
130	0xbda0a3c4	-0.07843736
131	0x3da1bb5f	0.07897066
132	0xbd96bc5e	-0.07360147
133	0x3c0e8be1	0.008700342
134	0x3c1570e4	0.0091211535
135	0xbdd49274	-0.10379496
136	0xbd158aa9	-0.03650919
137	0x3e1fa910	0.15591836
138	0xbc95e172	-0.018295977
139	0xbd0526ab	-0.03250758
140	0x3dadc56f	0.08484923
141	0x3c2ec188	0.010666259
142	0xbd8af770	-0.06785476
143	0x3d253d1f	0.040341493
144	0xbd9f5de9	-0.07781584
145	0x3e5964e9	0.212299
146	0x3e1cb3de	0.15302989
147	0xbe011181	-0.12604333
148	0xbdd2082b	-0.10255464
149	0x3dd81c04	0.105522186
150	0xbd59b441	-0.05315042
151	0xbddd855c	-0.10816452
152	0xbd98d48b	-0.07462414
153	0x3b2862c6	0.002569364
154	0x3d61b8ea	0.05510799
155	0xbcc80af2	-0.024419282
156	0xbd9278f9	-0.0715198
157	0xbcaf4231	-0.021393867
158	0x3e1630c2	0.14667037
159	0xbc214628	-0.009843387
160	0xbc97f991	-0.01855162
161	0x3dbc2da9	0.091883965
162	0x3cea69fc	0.02861499
163	0x3d7371c4	0.059434667
164	0xbcb6c187	-0.022309078
165	0x3d28a937	0.041177
166	0x3db2f736	0.08738558
167	0xbc02ca81	-0.007982851
168	0xbcdbd0c0	-0.026832938
169	0xbe029c97	-0.12755047
170	0x3ddde173	0.10834017
171	0x3cb269bf	0.02177894
172	0x3d75763c	0.05992721
173	0xbe05aab5	-0.13053401
174	0x3ddf8e6e	0.10915838
175	0xbd354f99	-0.044265363
176	0x3d31d2fd	0.043414105
177	0x3b68d23e	0.0035525705
178	0x3c202a72	0.009775745
179	0xbd88e4eb	-0.06684288
180	0x3e4d8df0	0.20073676
181	0x3d5243b2	0.05133409
182	0x3c95e66a	0.018298347
183	0xbddbb36b	-0.10727581
184	0x3c54f9ef	0.012999042
185	0xbe38f7a9	-0.18063225
186	0x3dd33cfb	0.103143655
187	0x3e21c3ec	0.15797395
188	0x3d7e6548	0.062108308
189	0xbde118d5	-0.109910645
190	0xbc734c31	-0.014849708
191	0x3d02317a	0.031785466
192	0xbe060338	-0.13087165
193	0xbca3608a	-0.019943494
194	0xbd8c0416	-0.06836717
195	0x3e2bbf8d	0.1677229
196	0x3dd7d5a9	0.10538799
197	0xbd6f310e	-0.05839639
198	0x3d600472	0.05469174
199	0xbdaeb7c5	-0.08531145
200	0x3d854663	0.06507566
201	0x3d95aa24	0.073078424
202	0xbdec3e7c	-0.115353554
203	0x3e27b56f	0.16377805
204	0xbd933b06	-0.07188992
205	0xbc8f3deb	-0.01748558
206	0x3e63471d	0.22195096
207	0x3dbf34e7	0.09336262
208	0xbd0ecc84	-0.03486301
209	0xbcf20f0c	-0.02954819
210	0x3ddd6afd	0.10811422
211	0x3daa7049	0.08322198
212	0xbd323c4d	-0.04351454
213	0xbdf1ca72	-0.118061915
214	0x3c188e97	0.00931134
215	0x3cfe5d31	0.031050297
216	0x3d4d2101	0.050080303
217	0xbc99717e	-0.018730875
218	0x3e020969	0.12698902
219	0x3c648e96	0.013950011
220	0x3e0ebefe	0.13940045
221	0x3e4cc7bf	0.19998072
222	0xbd4926c8	-0.04910925
223	0x3d35c5f7	0.044378247
224	0x3e2698ef	0.16269277
225	0x3caf5e91	0.021407397
226	0x3d2be0e7	0.04196253
227	0x3d656011	0.05599982
228	0x3e68903b	0.2271127
229	0x3c3a1f3d	0.011359987
230	0x3dfead3e	0.12435387
231	0xbd657df8	-0.056028336
232	0x3e6f192e	0.23349449
233	0x3c997fef	0.018737761
234	0x3b06bc35	0.0020558957
235	0x3d64109d	0.055679906
236	0xbd11fce3	-0.035641562
237	0x3e04ac24	0.12956291
238	0xbddb5384	-0.10709289
239	0xbe0e8cc7	-0.1392089
240	0x3d0bed14	0.034161642
241	0x3dc80548	0.09766632
242	0xbd013c10	-0.03155142
243	0xbd29d6d8	-0.041464657
244	0x3e327711	0.17428233
245	0xbc75f32e	-0.015011592
246	0xbe81112f	-0.25208423
247	0xbc099dcd	-0.008399439
248	0x3e1a5e72	0.1507509
249	0x3dbbd975	0.09172336
250	0xbdca4114	-0.09875694
251	0x3d8fe2bd	0.07025669
252	0x3d927411	0.07151044
253	0xbc9d53fe	-0.01920509
254	0x3d931dc5	0.071834125
255	0xbbcd59e6	-0.0062668202

network_body._body_endoder.seq_layers.2.bias f4 [256]
0	0xbd08dd2d	-0.033414055
1	0xbd0be96c	-0.034158155
2	0xbc9cb0a0	-0.01912719
3	0xbd2fb639	-0.04289839
4	0xbd486d61	-0.048932437
5	0xbb7b0bf4	-0.0038306685
6	0xbd8d374a	-0.06895311
7	0xbd5ec9b6	-0.054391585
8	0xbd195e61	-0.037443522
9	0xbd3f3d7e	-0.046689503
10	0xbd560300	-0.052248955
11	0xbcf65570	-0.030070037
12	0xbcdef55f	-0.027216611
13	0xbd845aeb	-0.06462654
14	0xbcf76e3d	-0.030203933
15	0xbd85fc8a	-0.06542309
16	0xbd2b534a	-0.041827478
17	0xbd81ed17	-0.063440494
18	0xbc7718a6	-0.01508156
19	0xbc52d6b9	-0.012868577
20	0xbca232eb	-0.01979967
21	0xbd02ae46	-0.03190448
22	0xbc7ecc02	-0.015551569
23	0xbd30d624	-0.04317297
24	0xbcec7efd	-0.028869146
25	0xbcd9b1ce	-0.026574042
26	0xbd0ce683	-0.03439952
27	0xbd22bb6c	-0.03972952
28	0xbd25d37f	-0.0404849
29	0xbcc63115	-0.024193326
30	0xbc53e962	-0.012934061
31	0xbcad8551	-0.021181734
32	0xbd1fe36e	-0.039035253
33	0xbc42c42c	-0.011887591
34	0xbd0b296e	-0.033975057
35	0xbdac97b7	-0.08427375
36	0xbcdec5c8	-0.027193919
37	0xbd46a81d	-0.04850017
38	0xbccbd2ab	-0.024880728
39	0xbcce473e	-0.025180455
40	0xbd71aa43	-0.059000265
41	0xbd88c8dd	-0.06678937
42	0xbd9b652d	-0.07587657
43	0xbcd66d83	-0.026175266
44	0xbd1bcdc4	-0.03803803
45	0xbd42ca9c	-0.047556505
46	0xbd2f3bc3	-0.042781603
47	0xbceffba0	-0.029294789
48	0xbbd8759d	-0.0066058175
49	0xbd4f44ac	-0.0506026
50	0xbc26bfa4	-0.010177527
51	0xbd808cad	-0.06276832
52	0xbd50a3b2	-0.050937362
53	0xbd2e4a70	-0.042551458
54	0xbd1838bd	-0.037163485
55	0xbd9c1812	-0.076217785
56	0xbc8cdedb	-0.01719611
57	0xbd9e52a4	-0.07730606
58	0xbd1f5eb2	-0.038908668
59	0xbc6c66f1	-0.01442884
60	0xbd70b192	-0.058763094
61	0xbd858f8c	-0.0652152
62	0xbd54916c	-0.051896498
63	0xbd878605	-0.06617359
64	0xbd824f86	-0.06362824
65	0xbd8e02ea	-0.069341496
66	0xbd24d249	-0.040239606
67	0xbd963f7c	-0.073363274
68	0xbd780e50	-0.060560524
69	0xbd3eca09	-0.046579394
70	0xbc97da35	-0.018536666
71	0xbd6d034b	-0.05786447
72	0xbd004bfe	-0.03132247
73	0xbd40c8a5	-0.04706635
74	0xbc9e9417	-0.019357724
75	0xbd1ac445	-0.037784833
76	0xbd2c2fe8	-0.042037874
77	0xbd3fca2a	-0.046823658
78	0xbc0c5230	-0.008564517
79	0xbd8e666c	-0.06953129
80	0x3bb9c516	0.0056692464
81	0xbd91c4ce	-0.07117616
82	0xbcefc11d	-0.029266888
83	0xbd45cbcc	-0.04829006
84	0xbdb3bc9d	-0.087762095
85	0xbcb327ca	-0.021869559
86	0xbd409213	-0.047014307
87	0xbd22887d	-0.039680947
88	0xbc1e44fb	-0.009660001
89	0xbda364b3	-0.07978191
90	0xbcc7278f	-0.024310855
91	0xbdd88f9f	-0.105742685
92	0xbd460962	-0.048348792
93	0xbd3d4b3e	-0.046214335
94	0xbd71891f	-0.05896866
95	0xbcf762ca	-0.030198473
96	0xbd64d46f	-0.055866655
97	0xbca4e83b	-0.020130267
98	0xbd24caf9	-0.040232632
99	0xbd1c7f85	-0.03820755
100	0xbd7903b0	-0.060794532
101	0xbd39654d	-0.045262624
102	0xbcfc1cb1	-0.0307754
103	0xbd47d295	-0.04878481
104	0xbd527341	-0.051379446
105	0xbd8a2b14	-0.06746498
106	0xbd8eb46b	-0.06968006
107	0xbd80a613	-0.06281676
108	0xbd19cf1c	-0.03755103
109	0xbd9ac7a6	-0.07557611
110	0xbc80f9d4	-0.015744127
111	0xbd949a96	-0.072560474
112	0xbd538e52	-0.0516494
113	0xbd521808	-0.05129245
114	0xbd2d3326	-0.042285107
115	0xbd031997	-0.032006826
116	0xbc8b4927	-0.017002655
117	0xbcf39525	-0.029734204
118	0xbd124d12	-0.03571803
119	0xbd9dd805	-0.07707218
120	0xbcc151a4	-0.0235985
121	0xbd4ad784	-0.049521938
122	0xbd0e452d	-0.03473394
123	0xbb4713d3	-0.0030376806
124	0xbdb8f53e	-0.09031151
125	0xbd30f5f8	-0.043203324
126	0x3bc91b40	0.0061372817
127	0xbd205a31	-0.039148513
128	0xbd8cdbc0	-0.068778515
129	0xbcda5aba	-0.02665459
130	0xbd32b488	-0.0436292
131	0xbd01f620	-0.031728864
132	0xbd35f935	-0.044427115
133	0xbd2c7634	-0.042104915
134	0xbdab0051	-0.0834967
135	0xbcbd3cbe	-0.023100253
136	0xbd783b44	-0.060603395
137	0xbd206d8f	-0.039166983
138	0xbd61a998	-0.055093378
139	0xbb98dd13	-0.004665026
140	0xbd10cde3	-0.0353526
141	0xbc23a003	-0.00998688
142	0xbcee8f98	-0.029121205
143	0xbd4950d0	-0.049149334
144	0xbcb96378	-0.022630438
145	0xbd5f943a	-0.05458472
146	0xbd772b60	-0.0603441
147	0xbc70328d	-0.01466049
148	0xbd25f1d7	-0.04051384
149	0xbdb36593	-0.08759608
150	0xbd9b6eac	-0.07589468
151	0xbd060610	-0.032720625
152	0xbcfe2f68	-0.031028464
153	0x3cc59cae	0.024122562
154	0xbd05ed96	-0.032697283
155	0xbd5ba99f	-0.05362856
156	0xbc7d0da7	-0.0154451495
157	0xbd96ca8f	-0.07362854
158	0xbd4d6208	-0.050142318
159	0xbdc3a59f	-0.09553074
160	0xbd6f398b	-0.058404487
161	0xbd57f929	-0.052727852
162	0xbd4dd24b	-0.05024938
163	0xbd80408a	-0.0626231
164	0xbd7b9945	-0.061425466
165	0xbc71536d	-0.014729363
166	0x3b6df881	0.003631145
167	0xbd7d11e2	-0.061784633
168	0xbd316cfe	-0.043316834
169	0xbd4c8b3d	-0.049937475
170	0xbd9b4749	-0.07581956
171	0xbb832ea2	-0.004003362
172	0xbd169af2	-0.03676886
173	0xbd024647	-0.031805303
174	0xbc0a520b	-0.008442412
175	0xbca07ae3	-0.019589847
176	0xbd51a60d	-0.05118375
177	0xbcbe9143	-0.023262626
178	0xbca1275f	-0.019672094
179	0xbd3b09ab	-0.045663517
180	0xbd91fca3	-0.07128265
181	0xbd1283b0	-0.03577012
182	0xbd3c6026	-0.04599013
183	0xbc85ed07	-0.016348375
184	0xbda06218	-0.0783121
185	0xbd6a7bc5	-0.057246942
186	0xbd9fb0cc	-0.07797393
187	0xbce93881	-0.028469326
188	0xbd2ca75c	-0.042151794
189	0xbcc80e2f	-0.024420826
190	0xbce3eccd	-0.027822876
191	0xbd8a2336	-0.06744997
192	0xbced5f7b	-0.028976193
193	0xbd771ca9	-0.060330067
194	0xbd516c0c	-0.051128432
195	0xbd354a68	-0.044260412
196	0xbce1f498	-0.027582452
197	0x3c00edb4	0.007869173
198	0xbca1b7ac	-0.019740902
199	0xbd2474ab	-0.040150326
200	0xbd15368d	-0.036428977
201	0xbd3a4fa9	-0.045486126
202	0xbda95600	-0.08268356
203	0xbdb42e70	-0.0879792
204	0xbd070395	-0.0329624
205	0xbd330330	-0.04370421
206	0xbd294b3e	-0.041331522
207	0xbd613a9d	-0.05498754
208	0xbd1550c2	-0.03645397
209	0xbd1c0fea	-0.038101114
210	0xbd09ca8e	-0.033640437
211	0xbd20e901	-0.03928471
212	0xbd4076d4	-0.046988323
213	0xbd13a60c	-0.036047027
214	0xbd07a838	-0.03311941
215	0xbd5dfc02	-0.05419541
216	0xbd55abb4	-0.052165702
217	0xbd35ed1f	-0.04441559
218	0xbcd057c1	-0.02543247
219	0xbd83b455	-0.0643088
220	0xbd4f22ff	-0.050570484
221	0xbd075893	-0.033043455
222	0xbd7ee225	-0.062227387
223	0xbd97df3b	-0.07415625
224	0xbd06a87a	-0.032875516
225	0xbd2deffe	-0.042465203
226	0xbd1cefbb	-0.038314562
227	0xbd31bf9b	-0.04339562
228	0xbc7b7011	-0.015346543
229	0xbcde5727	-0.027141167
230	0xbd1454ac	-0.036213562
231	0xbd09a3b8	-0.0336034
232	0xbcf51eb0	-0.02992186
233	0xbd24f5ec	-0.040273592
234	0xbd961b19	-0.07329387
235	0xbd54ba5f	-0.05193555
236	0xbb64442e	-0.0034830677
237	0xbd81164e	-0.063030824
238	0xbcb53af0	-0.02212283
239	0xbd1803f5	-0.03711315
240	0xbd2784f4	-0.04089828
241	0xbd2ec53b	-0.042668562
242	0xbc6da425	-0.014504467
243	0xbd8f7b8e	-0.07005988
244	0xbd42469b	-0.047430616
245	0xbd0ed4c6	-0.034870885
246	0xbd82dcaf	-0.06389748
247	0xbd30a4fb	-0.043126088
248	0xbd6de449	-0.058079038
249	0xbd470333	-0.048587035
250	0xbc655a8c	-0.013998639
251	0xbce8e315	-0.028428594
252	0xbd7361ca	-0.05941943
253	0xbd030246	-0.03198459
254	0x3b4fb935	0.0031696085
255	0xbccc99e0	-0.024975717

network_body._body_endoder.seq_layers.2.weight f4 [256, 256]
0	0x3d8ed192	0.06973566
1	0x3d6fff43	0.058593046
2	0xbd6c498f	-0.05768734
3	0xbc8fb4f8	-0.017542347
4	0xbe06eb00	-0.13175583
5	0xbd4546a2	-0.048163064
6	0xbe19de9d	-0.15026326
7	0x3d949859	0.072556205
8	0xbd9ea8cc	-0.07747039
9	0xbd6d0e62	-0.057875045
10	0xbd403554	-0.046925858
11	0xbd7fae08	-0.06242183
12	0x3c7411cf	0.014896824
13	0x3de1815a	0.11011
14	0xbe1b9a40	-0.1519556
15	0x3c628fc2	0.01382822
16	0x3ce7a537	0.028277023
17	0x3d1d05c6	0.038335584
18	0xbd2ec254	-0.042665794
19	0xbd82c7ef	-0.063857906
20	0x3d840335	0.06445924
21	0xbb6836dd	-0.0035433092
22	0xbd9acd5d	-0.07558701
23	0xbe1d9571	-0.15389039
24	0xbd9a64d8	-0.07538766
25	0xbbadea43	-0.005307467
26	0xbceab6f2	-0.028651688
27	0x3e45de8a	0.19323173
28	0x3d927875	0.071518816
29	0x3cceb58e	0.025233056
30	0xbd24bf8b	-0.040221732
31	0x3d34810a	0.044068374
32	0xbd0e0c00	-0.034679413
33	0xbd858569	-0.065195866
34	0x3e32cbcd	0.17460556
35	0x3d9d64fd	0.076852776
36	0x3db6612c	0.08905253
37	0x3d08fc56	0.03344377
38	0x3b8a7073	0.004224831
39	0xbd184deb	-0.037183683
40	0x3ce70372	0.028199885
41	0xbd275051	-0.04084808
42	0x3d99d5b8	0.07511467
43	0xbc3fa540	-0.0116971135
44	0x3bfe740a	0.007765298
45	0x3cbc1189	0.02295758
46	0xbdf59767	-0.11991768
47	0xbd61f701	-0.055167202
48	0xbd5e04fa	-0.054203965
49	0x3d9e9c90	0.07744706
50	0x3d91a994	0.071124226
51	0xbd3a9e15	-0.045560915
52	0xbdd4696a	-0.10371669
53	0x3d81a1a8	0.063296616
54	0x3d1a3fd2	0.03765852
55	0x3c531ffc	0.012886044
56	0xbd892fcc	-0.0669857
57	0xbca307a3	-0.019901102
58	0xbcd70168	-0.026245788
59	0xbc282027	-0.010261572
60	0xbd068d95	-0.032849867
61	0xbddcb703	-0.10777094
62	0x3e024c79	0.12724485
63	0x3d479333	0.048724364
64	0x3cc75c23	0.024335926
65	0xbd8904b8	-0.06690353
66	0x3e7ccc5b	0.2468733
67	0xbd202182	-0.039094456
68	0xbc25cda7	-0.010119832
69	0xbd722ee2	-0.059126742
70	0x3c13a0ba	0.009010488
71	0x3d3b7bca	0.04577235
72	0xbe10c92e	-0.14139244
73	0xbd22741c	-0.03966151
74	0xbde45dab	-0.11150678
75	0x3d95e9b1	0.07319964
76	0x3d3baf2f	0.045821365
77	0x3d0a8305	0.033816356
78	0xbd832733	-0.06403961
79	0xbd0fa590	-0.035070002
80	0x3d8b6cb2	0.06807841
81	0x3ca2982b	0.01984795
82	0xbda7f58a	-0.0820113
83	0x3d967cea	0.07348044
84	0x3b81e7bf	0.003964394
85	0xbd21d2f3	-0.039507817
86	0xbd0a66c4	-0.03378941
87	0x3dbc6a9b	0.09200021
88	0x3d9fa76f	0.07795607
89	0x3cdce5b2	0.026964996
90	0x3d39c7ef	0.045356687
91	0x3ce3cad0	0.02780667
92	0xbd86a8ba	-0.06575151
93	0xbda79d1b	-0.08184262
94	0x3d6bf411	0.057605807
95	0xbd92a1ee	-0.07159792
96	0xbdaec842	-0.0853429
97	0xbca00c39	-0.019537078
98	0xbbe1082f	-0.0068674306
99	0xbc05d91d	-0.00816944
100	0xbd951369	-0.07279093
101	0x3c6261dc	0.013817277
102	0x3cddc2b7	0.027070386
103	0xbd9dfefe	-0.077146515
104	0xbe04713b	-0.12933819
105	0xbd82effd	-0.063934304
106	0xbcbcb30c	-0.023034595
107	0x3d3bb11c	0.0458232
108	0xbbdfd0cd	-0.006830311
109	0x3e179b47	0.14805327
110	0x3d979a56	0.07402484
111	0xbda1fe1e	-0.07909797
112	0xbca4c0bc	-0.020111434
113	0xbbde6f5a	-0.0067881765
114	0xbda28118	-0.07934779
115	0xbdb67e51	-0.08910812
116	0x3d2aedb7	0.04173061
117	0x3da0e1a7	0.0785554
118	0x3dcffa85	0.10155205
119	0xbe1221a0	-0.1427064
120	0xbdd72d0a	-0.105066374
121	0xbc1e9bc4	-0.009680692
122	0xbe3d4560	-0.18483496
123	0xbe0ec5de	-0.13942668
124	0xbd6cd84e	-0.05782347
125	0x3e02a0f3	0.1275671
126	0x3cd3a9fd	0.025837893
127	0xbbc621f2	-0.006046527
128	0xbe015580	-0.12630272
129	0xbe039765	-0.12850721
130	0x3b9bcdf1	0.0047547747
131	0x3d44be16	0.048032843
132	0xbe0060f2	-0.12536982
133	0xbd9d35c5	-0.07676271
134	0xbd48aa6d	-0.048990656
135	0xbbe905f1	-0.007111304
136	0x3dd521cd	0.104068376
137	0xbda7d5c5	-0.0819507
138	0x3e052e1b	0.13005869
139	0x3cef904c	0.02924361
140	0xbdb29353	-0.08719506
141	0xbc2f162b	-0.010686438
142	0xbe479f5c	-0.19494385
143	0x3da1caab	0.07899984
144	0xbd2a83df	-0.04162967
145	0xbbaa6fa2	-0.005201296
146	0x3cfb3d3b	0.030668845
147	0x3c15b84b	0.009138177
148	0x3d61d37a	0.05513332
149	0xbe1e6600	-0.15468597
150	0xbd4bdd1f	-0.049771424
151	0xbdbb9008	-0.09158331
152	0x3c758953	0.014986354
153	0x3d2f93ab	0.042865437
154	0xbd1ee002	-0.03878785
155	0xbd952e5d	-0.07284234
156	0xbceb08e1	-0.028690757
157	0xbd30095b	-0.042977672
158	0xbd91cd4e	-0.07119237
159	0xbd0030ed	-0.03129666
160	0x3daff091	0.08590806
161	0xbd9fa7a7	-0.07795649
162	0xbe32fcd3	-0.17479257
163	0xbd205406	-0.03914263
164	0xbd86d1f5	-0.06583015
165	0x3e17b4e6	0.14815101
166	0x3daea031	0.08526648
167	0xbd60a41f	-0.054844018
168	0xbdd19851	-0.1023413
169	0xbdcc6024	-0.09979275
170	0xbe17ac7d	-0.14811893
171	0xbd67e7ac	-0.056617424
172	0xbc85eca2	-0.016348187
173	0x3ce1365e	0.027491745
174	0xbd4cb3e3	-0.04997624
175	0x3d4a9d42	0.04946638
176	0xbd8014de	-0.0625398
177	0x3dd5201b	0.10406514
178	0x3c0db9ba	0.008650238
179	0x3e4ea44f	0.20179866
180	0xbda6ea04	-0.08150104
181	0xbda1ecce	-0.07906495
182	0x3dbe9991	0.09306634
183	0x3de70277	0.11279767
184	0xbddfa264	-0.109196454
185	0x3dde06bc	0.10841128
186	0xbbfe6bf0	-0.007764332
187	0xbbbd04d3	-0.0057683974
188	0x3d041433	0.032245826
189	0x3dc46694	0.09589878
190	0xbd9c1bcd	-0.0762249
191	0x3d3d6420	0.046238065
192	0x3e0758ad	0.13217421
193	0x3d5038f9	0.050835583
194	0xbb1a07af	-0.0023503115
195	0xbd44e3ba	-0.04806874
196	0xbc082973	-0.0083106635
197	0x3c6de823	0.014520678
198	0x3e25ae9d	0.16179891
199	0xbd392030	-0.045196712
200	0xba99c33f	-0.0011731162
201	0xbe303f06	-0.17211542
202	0xbe565a33	-0.20932846
203	0x3b707fda	0.00366973
204	0x3c8febae	0.017568436
205	0x3df1043e	0.11768387
206	0x3d900819	0.070327945
207	0xbb8d5068	-0.0043125637
208	0xbcdfbaec	-0.027310811
209	0xbdf4f255	-0.11960284
210	0x3e0e035e	0.13868472
211	0xbcaca75e	-0.0210759
212	0x3cc76847	0.024341715
213	0x3c594194	0.013260264
214	0xbd431211	-0.04762465
215	0xbc424597	-0.011857412
216	0x3cc89d8b	0.024489185
217	0xbd0d9f0d	-0.03457551
218	0x3e02c651	0.12770964
219	0xbbfed124	-0.0077763963
220	0x3ceb44c8	0.02871932
221	0xbdc4e930	-0.096147895
222	0xbd93e90b	-0.07222184
223	0x3d8ee107	0.06976514
224	0x3ccec894	0.025242127
225	0x3daa9aee	0.08330332
226	0xbd51cdd7	-0.051221695
227	0xbda473d3	-0.08029904
228	0xbd7b4288	-0.061342746
229	0xbd0d7c68	-0.03454247
230	0xbd838ccf	-0.064233415
231	0x3d8abf90	0.06774819
232	0xbd62fe23	-0.055418145
233	0xbe481d40	-0.19542408
234	0xbdaa9c5a	-0.08330603
235	0x3daaf774	0.08347979
236	0x3d3b2c6d	0.045696665
237	0xbe0f86ad	-0.14016218
238	0x3e009d2c	0.12559956
239	0xbe0ef1c1	-0.1395941
240	0xbdab2b06	-0.083578154
241	0x3d47fe96	0.048826776
242	0xbd351326	-0.044207714
243	0xbd8c08e5	-0.06837634
244	0x3d7dbaf9	0.06194589
245	0xbc8637be	-0.016384002
246	0xbcf15d3c	-0.029463403
247	0x3d4ae45e	0.049534194
248	0x3dff0584	0.12452224
249	0xbd41ee79	-0.047346566
250	0xbd4ca437	-0.049961295
251	0x3d703d65	0.0586523
252	0xbba38994	-0.004990766
253	0x3c53f3fe	0.01293659
254	0xbd027eb2	-0.031859107
255	0x3d38f679	0.04515693

network_body._body_endoder.seq_layers.4.bias f4 [256]
0	0xbce27658	-0.027644321
1	0xbcee1c6f	-0.029066293
2	0xbd5b410c	-0.05352883
3	0xbd14d4a9	-0.03633562
4	0xbd59bb0e	-0.053156905
5	0xbd112ec5	-0.035444994
6	0xbc6109fc	-0.013735291
7	0xbd61c7f5	-0.055122335
8	0xbc20aa1c	-0.009806182
9	0xbc1372f4	-0.008999575
10	0xbc72122a	-0.014774838
11	0xbd30b4a5	-0.043141026
12	0xbd33922e	-0.04384058
13	0xbcb5f6c7	-0.0222124
14	0xbd0a70fb	-0.033799153
15	0xbbbaffab	-0.0057067475
16	0xbd10ed04	-0.035382286
17	0xbd71e539	-0.059056494
18	0xbd8a046b	-0.06739124
19	0xbcc900f2	-0.024536584
20	0xbd4dfc0c	-0.0502892
21	0xbd02039b	-0.03174172
22	0xbd0df45d	-0.03465687
23	0xbca2597a	-0.019818056
24	0xbd582a8c	-0.05277495
25	0xbd35afa4	-0.044356957
26	0xbd047d48	-0.03234604
27	0xbd4cf87f	-0.05004167
28	0xbd1fd12d	-0.039017845
29	0xbd85f586	-0.065409705
30	0xbd18cc33	-0.037304115
31	0xbd08ebe6	-0.033428095
32	0xbc86df5c	-0.016463928
33	0xbc40ba7e	-0.011763213
34	0xbd5e2554	-0.054234818
35	0xbcb5c02c	-0.022186361
36	0xbd1f6c95	-0.03892191
37	0xbd3468fc	-0.044045433
38	0xbd820079	-0.063477464
39	0xbcd72984	-0.026264913
40	0xbd29b06f	-0.041428026
41	0xbc247ad9	-0.010039055
42	0xbc615e73	-0.013755429
43	0xbd396d03	-0.045269977
44	0xbd2c58cb	-0.042076867
45	0xbd377899	-0.044792745
46	0xbc9b86a4	-0.0189851
47	0xbcc9f285	-0.024651775
48	0xbd0e3a5d	-0.03472363
49	0xbd36f7c3	-0.044669878
50	0xbbf52365	-0.007481026
51	0xbcf891d6	-0.030342977
52	0xbd438025	-0.04772963
53	0xbd4e4bbe	-0.050365202
54	0xbd71867b	-0.05896614
55	0xbcb8dffe	-0.022567745
56	0xbd2e43bc	-0.042545065
57	0xbd52f565	-0.051503558
58	0xbd407d9b	-0.046994787
59	0xbae88954	-0.0017741122
60	0xbcc2aefd	-0.023765082
61	0xbc871664	-0.016490169
62	0xbd5b7090	-0.053574145
63	0xbd1bb5a8	-0.038015038
64	0xbcfc9131	-0.030830951
65	0xbd52064c	-0.051275536
66	0xbc9db30b	-0.019250413
67	0xbd6ab700	-0.05730343
68	0xbd253db9	-0.040342066
69	0x3b609777	0.0034269968
70	0xbce962c4	-0.028489478
71	0xbd3bc011	-0.045837466
72	0xbd43726f	-0.047716554
73	0xbcb54af2	-0.022130463
74	0xbd1973a9	-0.037463818
75	0xbce99ba1	-0.028516592
76	0xbceca34f	-0.028886465
77	0xbd5c3182	-0.05375815
78	0xbc96da6e	-0.018414702
79	0xbc0a6497	-0.008446834
80	0xbd325d11	-0.043545786
81	0xbd058a54	-0.032602623
82	0xbd8cfbf2	-0.06883992
83	0xbcb940c8	-0.022613898
84	0xbd5d8bed	-0.05408852
85	0xbd292232	-0.041292377
86	0xbd01b7c1	-0.031669382
87	0xbcd7834e	-0.026307728
88	0xbd36e45a	-0.044651367
89	0xbd7efcb8	-0.06225273
90	0xbcc522e1	-0.024064483
91	0xbd2de2e3	-0.042452704
92	0xbd1277ff	-0.03575897
93	0xbcb07fa9	-0.021545248
94	0xbd2dbb9f	-0.042415258
95	0xbd2b714a	-0.041856088
96	0xbc4abf49	-0.0123747075
97	0xbd8b0021	-0.06787134
98	0xbd7499c6	-0.059716962
99	0xbd30df51	-0.04318172
100	0xbcadf09d	-0.021232897
101	0xbd918446	-0.07105307
102	0xbd5cc661	-0.053900126
103	0xbc5f84f9	-0.013642543
104	0xbbdbf27b	-0.0067122555
105	0xbc43fa0c	-0.011961471
106	0xbd746e20	-0.059675336
107	0xbcf534ca	-0.029932398
108	0xbd3c5bb2	-0.045985885
109	0xbcd7e94d	-0.026356364
110	0xbd5faa5d	-0.05460583
111	0xbd61ab81	-0.0550952
112	0xbd4e27e3	-0.050331008
113	0xbd514915	-0.051095087
114	0xbcfaea91	-0.030629428
115	0xbcf911bb	-0.030403962
116	0xbd24adf2	-0.04020495
117	0xbd1bd7e5	-0.03804769
118	0xbd4cfb7a	-0.050044514
119	0xbd240004	-0.040039077
120	0xbd319b1b	-0.04336081
121	0xbd306ef2	-0.043074556
122	0xbd541256	-0.0517753
123	0xbd399191	-0.04530484
124	0xbcb7d927	-0.022442413
125	0xbcf93dbe	-0.030424949
126	0xbd1f279e	-0.03885614
127	0xbcdf59b0	-0.027264446
128	0xbce73886	-0.028225195
129	0xbd77aed7	-0.060469475
130	0xbcd672c2	-0.026177768
131	0xbce5c3c9	-0.02804746
132	0xbd2779dc	-0.0408877
133	0xbc5566b2	-0.013024973
134	0xbd0f12d7	-0.034930076
135	0xbc8d57ff	-0.017253874
136	0xbd0d98aa	-0.03456942
137	0xbcbba99f	-0.02290803
138	0xbd6ffb4a	-0.058589257
139	0xbd414974	-0.04718919
140	0xbcd3b390	-0.025842458
141	0xbd5f9b04	-0.054591194
142	0xbd347e0e	-0.044065528
143	0xbcac0e85	-0.021003017
144	0xbcfc9a32	-0.030835245
145	0xbc7c97d0	-0.015417054
146	0xbd514093	-0.051086973
147	0xbb70850b	-0.0036700394
148	0xbd481a1b	-0.04885302
149	0xbcba2477	-0.022722466
150	0xbd74c954	-0.059762314
151	0xbd69a292	-0.057039805
152	0xbced64e7	-0.028978778
153	0xbd336050	-0.043793023
154	0xbd549e6d	-0.0519089
155	0xbd21c7cf	-0.039497193
156	0xbd331c35	-0.043728072
157	0xbd368d69	-0.044568453
158	0xbcea3c17	-0.028593106
159	0xbd221e58	-0.03957972
160	0xbd65c6c4	-0.05609776
161	0xbd15cbf4	-0.036571458
162	0xbd1a1095	-0.03761347
163	0xbd7b9264	-0.061418906
164	0xbc188959	-0.00931009
165	0xbd80ba1e	-0.06285499
166	0xbc155d78	-0.009116523
167	0xbd230d50	-0.039807618
168	0xbced90b1	-0.028999658
169	0x3a41e57c	0.00073965616
170	0xbccc8b55	-0.024968782
171	0xbd2fe80a	-0.0429459
172	0xbac9c24f	-0.0015392991
173	0xbd165b65	-0.036708254
174	0xbcf0aa97	-0.029378219
175	0xbdacae69	-0.084317036
176	0xbd3bf1a7	-0.045884755
177	0xbcfb4817	-0.030674024
178	0xbc80dd8a	-0.015730638
179	0xbd51d0b4	-0.051224425
180	0xbd58a910	-0.052895606
181	0xbd011223	-0.031511437
182	0xbd1acd8a	-0.037793674
183	0xbc359aa0	-0.011084229
184	0xbd7db355	-0.061938602
185	0xbcaf05ac	-0.02136501
186	0xbd39c40f	-0.04535299
187	0xbd05f8e6	-0.03270807
188	0xbd889e81	-0.06670857
189	0xbcdc15a0	-0.02686578
190	0xbd58e80e	-0.05295568
191	0xbd0ea306	-0.03482344
192	0xbd3e0bf6	-0.046398126
193	0x3c2f508e	0.010700358
194	0xbcf8b315	-0.03035883
195	0xbb6ade90	-0.0035838224
196	0xbd21b628	-0.03948036
197	0xbcd42534	-0.025896646
198	0xbcdc3520	-0.0268808
199	0xbc81d7f3	-0.015850043
200	0xbd0ac3f7	-0.033878293
201	0xbcc7495e	-0.024326976
202	0xbc8374bb	-0.016046872
203	0xbd03cc4b	-0.03217725
204	0xbcbb4c77	-0.02286361
205	0xbd0a9462	-0.033832915
206	0xbd599e4a	-0.05312947
207	0xbc6a4f5f	-0.01430115
208	0xbd3ceaee	-0.046122484
209	0xbd6b9137	-0.057511535
210	0xbd0a81d5	-0.033815224
211	0xbd27fea5	-0.041014332
212	0xbcef367f	-0.02920079
213	0xbd1d3bd0	-0.03838712
214	0xbce6458c	-0.028109334
215	0xbce0adda	-0.027426649
216	0xbd1cd137	-0.03828546
217	0xbd492a2f	-0.049112495
218	0xbcdefe7a	-0.027220953
219	0xbd07d2cb	-0.033160012
220	0xbd33f79f	-0.04393732
221	0xbd1f0239	-0.03882048
222	0xbd3776be	-0.044790976
223	0xbd169787	-0.0367656
224	0xbcd0523d	-0.02542984
225	0xbd3fbdf8	-0.046812028
226	0xbd2597e5	-0.04042806
227	0xbd2d27d0	-0.042274296
228	0xbd0415e3	-0.032247435
229	0xbd270f1a	-0.040785886
230	0xbd1d796b	-0.03844587
231	0xbcee32da	-0.029076982
232	0xbd406eda	-0.046980716
233	0xbd4b5aaa	-0.04964701
234	0xbd2896ca	-0.04115943
235	0xbd315a9c	-0.043299302
236	0xbcb42e5e	-0.021994766
237	0xbd03b064	-0.03215064
238	0xbd544bfe	-0.051830284
239	0xbc79072f	-0.015199467
240	0xbd5c5eb5	-0.053801257
241	0xbcce7c68	-0.025205806
242	0xbd5a2345	-0.053256292
243	0xbd197ee2	-0.03747452
244	0xbd49d51a	-0.049275495
245	0xbbf1478a	-0.0073632644
246	0xbcaf1022	-0.021369997
247	0xbd2134f5	-0.039357144
248	0xbcfd9050	-0.030952603
249	0xbcd3f9c6	-0.025875937
250	0xbcd8491e	-0.026402052
251	0xbd39f093	-0.045395445
252	0xbca0de4a	-0.019637246
253	0xbca5afe9	-0.020225482
254	0xba80b7d6	-0.0009820412
255	0xbc958946	-0.018253934
