Assets/Training/results/RUN4/SzitakotoBehavior/SzitakotoBehavior-4999991.onnx (onnx, 729012 bytes, 17 tensors)

85 f4 [14]
0	0x39ea780a	0.00044721394
1	0x3e21bfa5	0.15795763
2	0x39ea780a	0.00044721394
3	0x3e20d501	0.15706255
4	0x39ea780a	0.00044721394
5	0x3e24c86e	0.16092083
6	0x39ea780a	0.00044721394
7	0x3e233956	0.1593984
8	0x39ea780a	0.00044721394
9	0x3e27cdfa	0.16387168
10	0x39ea780a	0.00044721394
11	0x3e25d671	0.16195084
12	0x39ea780a	0.00044721394
13	0x3e25d670	0.16195083

88 f4 [42]
0	0x3ac26937	0.0014832382
1	0x3e9949f7	0.29939243
2	0x3b064eee	0.0020493823
3	0x3e997089	0.2996867
4	0x3b064ea2	0.0020493646
5	0x3e988315	0.29787508
6	0x3b0c8ef8	0.002144752
7	0x3e99211b	0.2990807
8	0x3b064ea2	0.0020493646
9	0x3e971fbe	0.29516405
10	0x3b09780d	0.0020976097
11	0x3e987185	0.2977411
12	0x3b0977c2	0.0020975922
13	0x3e9591c1	0.29212764
14	0x3ac26937	0.0014832382
15	0x3e985ce1	0.2975836
16	0x3b064eee	0.0020493823
17	0x3e9885a7	0.2978947
18	0x3b064ea2	0.0020493646
19	0x3e9793c5	0.29604927
20	0x3b0c8ef8	0.002144752
21	0x3e98359b	0.29728398
22	0x3b064ea2	0.0020493646
23	0x3e962ced	0.2933115
24	0x3b09780d	0.0020976097
25	0x3e9786c5	0.29595008
26	0x3b0977c2	0.0020975922
27	0x3e94988d	0.29022637
28	0x3ac26937	0.0014832382
29	0x3e976af7	0.29573795
30	0x3b064eee	0.0020493823
31	0x3e9794cf	0.2960572
32	0x3b064ea2	0.0020493646
33	0x3e969c67	0.294162
34	0x3b0c8ef8	0.002144752
35	0x3e974489	0.29544476
36	0x3b064ea2	0.0020493646
37	0x3e95316f	0.29139277
38	0x3b09780d	0.0020976097
39	0x3e9694cc	0.29410398
40	0x3b0977c2	0.0020975922
41	0x3e9396c8	0.28825974

91 f4 [132]
0	0x3ec01f4f	0.37523887
1	0x3effcf08	0.4996264
2	0x3eea75f9	0.4579313
3	0x3e820310	0.25392962
4	0x3ec4f20b	0.38465914
5	0x3effefbe	0.49987596
6	0x3ee9af1c	0.4564141
7	0x3e814d60	0.25254345
8	0x3eb20b2a	0.34774143
9	0x3eff63a3	0.49880704
10	0x3eed7e75	0.46385542
11	0x3e8293f1	0.25503495
12	0x3ebd90d5	0.3702456
13	0x3eff7dcc	0.49900663
14	0x3ee91105	0.45520797
15	0x3e800311	0.2500234
16	0x3ea46719	0.32109907
17	0x3eff537a	0.49868375
18	0x3ef1bc01	0.47213748
19	0x3e82cb39	0.25545672
20	0x3eaaa0c5	0.33325782
21	0x3efcb36b	0.49355635
22	0x3ee62dff	0.44956967
23	0x3e79d9ac	0.24399441
24	0x3e9a17d9	0.3009632
25	0x3eff7691	0.49895146
26	0x3ef53cc5	0.47897926
27	0x3e824bce	0.2544846
28	0x3e91acfc	0.2845229
29	0x3ef71633	0.48259124
30	0x3ee312a4	0.4435016
31	0x3e730ebd	0.23736091
32	0x3e8d72af	0.2762656
33	0x3effc219	0.49952772
34	0x3ef8fef0	0.48632002
35	0x3e81afb8	0.25329375
36	0x3e6e378c	0.23263377
37	0x3ef6b35f	0.48183724
38	0x3eea27be	0.45733446
39	0x3e752fe0	0.23944044
40	0x3e7bfddb	0.24608557
41	0x3effef14	0.4998709
42	0x3efc0781	0.49224475
43	0x3e80ec48	0.25180268
44	0x3ec07fe1	0.37597564
45	0x3effb9c0	0.49946404
46	0x3eead11d	0.45862666
47	0x3e7f9df2	0.24962595
48	0x3ec55df8	0.38548255
49	0x3effe0e9	0.4997628
50	0x3eea0d4d	0.45713273
51	0x3e7e28c3	0.24820237
52	0x3eb26bce	0.34847873
53	0x3eff4180	0.4985466
54	0x3eede56d	0.464641
55	0x3e804b26	0.25057334
56	0x3ebdfd86	0.37107486
57	0x3eff66c2	0.49883085
58	0x3ee9719b	0.45594487
59	0x3e7b9aa5	0.24570711
60	0x3ea4b5fb	0.3217009
61	0x3eff338b	0.49844012
62	0x3ef214a9	0.47281387
63	0x3e8064a2	0.25076777
64	0x3eab248c	0.3342632
65	0x3efc69f3	0.49299583
66	0x3ee69759	0.45037344
67	0x3e7547ec	0.23953217
68	0x3e9a6647	0.30156156
69	0x3eff671c	0.49883354
70	0x3ef596ac	0.47966516
71	0x3e7f8b95	0.2495559
72	0x3e922b3f	0.2854862
73	0x3ef69450	0.48160028
74	0x3ee3787b	0.44427857
75	0x3e6e4101	0.23266985
76	0x3e8db8c2	0.27680022
77	0x3effb6e0	0.4994421
78	0x3ef949b8	0.48689055
79	0x3e7e0fce	0.24810717
80	0x3e6f5b05	0.23374565
81	0x3ef63ae7	0.48091814
82	0x3eea8cf1	0.45810655
83	0x3e703122	0.23456243
84	0x3e7c8630	0.24660563
85	0x3effe206	0.4997713
86	0x3efc3a87	0.49263403
87	0x3e7c3800	0.24630737
88	0x3ec0efbf	0.37682912
89	0x3effa78e	0.49932522
90	0x3eeb4012	0.4594732
91	0x3e7b00e1	0.24512054
92	0x3ec5d27c	0.3863715
93	0x3effd2d8	0.4996555
94	0x3eea78f9	0.4579542
95	0x3e799bcd	0.2437584
96	0x3eb2cebf	0.3492336
97	0x3eff2a8a	0.49837142
98	0x3eee4256	0.46534985
99	0x3e7bcaa5	0.24589022
100	0x3ebe7bdf	0.3720388
101	0x3eff4086	0.49853915
102	0x3ee9d7b8	0.45672393
103	0x3e7700b1	0.24121358
104	0x3ea509e6	0.32234114
105	0x3eff100a	0.49816924
106	0x3ef26ac3	0.47347078
107	0x3e7bcbfd	0.24589534
108	0x3eab9a83	0.3351632
109	0x3efc1b83	0.4923974
110	0x3ee6fed6	0.451163
111	0x3e707bd7	0.23484741
112	0x3e9aba6c	0.30220354
113	0x3eff4ae4	0.49861825
114	0x3ef5db6e	0.48018974
115	0x3e7a4e1c	0.24443859
116	0x3e92add1	0.28648236
117	0x3ef62371	0.48073915
118	0x3ee3eec4	0.445181
119	0x3e694fce	0.2278435
120	0x3e8e0355	0.27736917
121	0x3eff9e63	0.49925527
122	0x3ef9846e	0.48733848
123	0x3e788cc4	0.24272448
124	0x3e706393	0.23475485
125	0x3ef5b83a	0.47992116
126	0x3eeaec5d	0.45883456
127	0x3e6af5e8	0.22945368
128	0x3e7d1b4e	0.24717447
129	0x3effd476	0.49966782
130	0x3efc6f03	0.49303445
131	0x3e766ace	0.2406418

94 f4 [2]
0	0x3e76f9b5	0.24118693
1	0x3ea0e589	0.3142512

action_model._continuous_distribution.log_sigma f4 [1, 2]
0	0xbec94595	-0.393109
1	0xbe542b29	-0.2071959

action_model._continuous_distribution.mu.bias f4 [2]
0	0xbb9944b9	-0.004677382
1	0xbcb02310	-0.021501094

action_model._continuous_distribution.mu.weight f4 [2, 256]
0	0x3d5e9b2d	0.054347206
1	0x3c54456e	0.012956006
2	0xbc139a39	-0.0090089375
3	0x3b54c836	0.0032467968
4	0x3b500ca6	0.003174582
5	0x3c647e5c	0.013946142
6	0xbd17349b	-0.036915403
7	0x3b58236e	0.0032980102
8	0xb960db9b	-0.00021444114
9	0xbda46fae	-0.08029114
10	0x3c220970	0.009889945
11	0x3b513dce	0.0031927708
12	0xbc004575	-0.00782906
13	0x3c29d55e	0.010365812
14	0xbce7e4a0	-0.02830726
15	0x3d037363	0.032092463
16	0x3b16da6e	0.0023018378
17	0xba7c131f	-0.00096158864
18	0x3c09eedb	0.008418764
19	0x3b26e12f	0.002546381
20	0x3baddb51	0.0053056856
21	0x38859c1c	6.371012e-05
22	0x3b92ff83	0.004486026
23	0x3bb913ea	0.005648126
24	0xbc251f99	-0.010078334
25	0x3c133e71	0.008987055
26	0x3b37e504	0.0028060088
27	0x3c0f6d35	0.008754064
28	0x3b23763f	0.0024942306
29	0xbb9ead90	-0.0048424676
30	0xbb079f15	-0.0020694186
31	0x3ac8bcfa	0.0015315108
32	0x3ba8745c	0.0051408242
33	0xbbd60fb0	-0.006532632
34	0xbc3e71f3	-0.011623847
35	0x3bd886b4	0.0066078547
36	0xbd8a9482	-0.06766607
37	0xb9ad53f4	-0.0003305968
38	0x3aec378a	0.0018021923
39	0x3b44a935	0.0030008082
40	0x3a4fbb88	0.00079243677
41	0x3d329197	0.043595877
42	0x3cfe1139	0.031014072
43	0x3cab79f7	0.02093218
44	0xbbc90e33	-0.006135726
45	0x3c83fe87	0.016112579
46	0x3abebade	0.001455154
47	0x3be0792f	0.0068503837
48	0x3c52b5ce	0.012860728
49	0xbbfe44e2	-0.0077596763
50	0x3c9d68bd	0.019214982
51	0xbb28410d	-0.002567354
52	0x3cab92c4	0.020944007
53	0x3b1f502c	0.002430926
54	0xb9467fda	-0.0001893038
55	0x3b8f691f	0.004376545
56	0x3b8c348b	0.0042787245
57	0x3b8d0010	0.004302986
58	0x3b8ee74b	0.0043610684
59	0x3a5d1672	0.00084338256
60	0xbb0848fc	-0.0020795455
61	0x3a0c32bd	0.0005348137
62	0x3b500db8	0.0031746458
63	0xbbced277	-0.0063117105
64	0xbb3a1938	-0.002839638
65	0x3c45ef57	0.012080989
66	0xb9cbd77a	-0.0003887972
67	0x3cacaea9	0.021079378
68	0xbba7b780	-0.0051183105
69	0xbadbbc18	-0.001676443
70	0x3c5d17c0	0.013494432
71	0x3c2f3e23	0.010695967
72	0x3c22e9d1	0.0099434415
73	0x3c083081	0.0083123455
74	0xb9ff52dd	-0.00048699128
75	0x3b33bfb3	0.0027427494
76	0xbb5dc8bb	-0.0033841569
77	0x3c355dc6	0.011069721
78	0x3bfe8268	0.0077670105
79	0x3b307fae	0.0026931572
80	0x3ba36055	0.004985849
81	0xbd1686cf	-0.036749657
82	0x3c8cea55	0.017201582
83	0x3ba051c2	0.004892559
84	0xbb60b268	-0.0034286026
85	0x3b2f3d66	0.0026739477
86	0xbc3f9af4	-0.011694659
87	0xbad977c9	-0.0016591485
88	0x3c549914	0.01297595
89	0xbba71fdf	-0.005100235
90	0xbc4fab30	-0.012675092
91	0x3bd5218c	0.0065042432
92	0x3ad0e594	0.001593756
93	0x3c839d37	0.016066177
94	0xbc042f36	-0.008067897
95	0x3bed1da3	0.007236199
96	0x3cfe236e	0.031022754
97	0xbbb637d5	-0.005560855
98	0xbc6233d8	-0.013806306
99	0x3be95f25	0.007121938
100	0x3b92ebfe	0.004483699
101	0x3cc8de03	0.024519926
102	0x3c0ab57a	0.008466119
103	0xbc8f78b2	-0.017513607
104	0x3d69120c	0.056901976
105	0x3c23aea2	0.009990366
106	0x3a337bf9	0.00068467815
107	0x3b544b7d	0.0032393627
108	0xbc4f9bda	-0.012671435
109	0x3c63bed1	0.013900475
110	0xbbb3db9d	-0.0054888264
111	0x3a0ed6ac	0.0005448859
112	0x39be2a23	0.00036271018
113	0x3b524eac	0.003209035
114	0xbbbf1d26	-0.005832332
115	0xbbc3b20c	-0.0059721526
116	0x3a53d359	0.00080805045
117	0x3bfb5877	0.007670458
118	0x3badf21e	0.0053084036
119	0x3cd24953	0.02566973
120	0x3c5223e5	0.012825941
121	0xbb54ce17	-0.0032471472
122	0x3a58abf1	0.00082653674
123	0x3975fc43	0.00023458996
124	0x3acccf03	0.0015625659
125	0x3cc5c448	0.024141446
126	0x3a00cb42	0.00049131
127	0x3b8d2e91	0.0043085297
128	0xbc5c5073	-0.013446915
129	0xbc9626c4	-0.018329032
130	0x3c8b65d4	0.017016329
131	0xb96610f3	-0.00021940823
132	0x3bd17b19	0.006392848
133	0xba94a7e1	-0.0011341536
134	0xbbe072e6	-0.0068496345
135	0xbacd37a8	-0.0015656846
136	0xbbcab743	-0.0061863973
137	0x3b9ab7a0	0.004721597
138	0xbbadff1a	-0.0053099515
139	0xbbcb93c1	-0.006212682
140	0xbab976cd	-0.0014149785
141	0x3bc11a87	0.005893055
142	0xbc787957	-0.015165648
143	0x3d239470	0.039936483
144	0xbb767a62	-0.0037609567
145	0x3d1735b4	0.03691645
146	0x3c3573d4	0.011074979
147	0x3a5dd757	0.0008462569
148	0xbc116603	-0.008874419
149	0x3a9c4d6e	0.0011924931
150	0xbab9e2e1	-0.0014181995
151	0x3c339b84	0.010962371
152	0x3bb5150d	0.005526191
153	0x3c973ca4	0.018461533
154	0x3bf12e4f	0.0073602567
155	0x399725d0	0.00028829137
156	0x3bb16ace	0.0054143434
157	0x3bdba3bb	0.006702868
158	0x3b83df88	0.0040244497
159	0xbb65fbb8	-0.0035092663
160	0x391a3ab6	0.00014708456
161	0xbb198886	-0.0023427322
162	0xbc939074	-0.018013217
163	0xbb2af32d	-0.0026084885
164	0x3d8cd388	0.06876284
165	0xbc42d2c1	-0.011891068
166	0xbd2a0cd0	-0.041516125
167	0xbbce88e1	-0.0063029383
168	0xbb2914cd	-0.0025799752
169	0x3b072fa5	0.0020627764
170	0xbb198b5d	-0.0023429014
171	0x3bad3534	0.0052858833
172	0x3b87eddc	0.004148228
173	0x3bb929e7	0.005650747
174	0xba97e610	-0.001158895
175	0x3b216fcd	0.002463329
176	0xbb539365	-0.00322839
177	0x3baf13b4	0.005342925
178	0xbb356d12	-0.002768342
179	0x3bf248b3	0.0073939203
180	0x3c7586db	0.014985765
181	0x3bf88d25	0.007585185
182	0x3bee40a5	0.00727089
183	0xbb3318cb	-0.002732801
184	0xbc3583fc	-0.011078831
185	0xbbb5d208	-0.0055487193
186	0xbc71bb09	-0.014754065
187	0x3aa98937	0.001293457
188	0xbbaf7ca0	-0.0053554326
189	0x3a89eba3	0.0010522496
190	0x3b8c7ce9	0.0042873514
191	0x3ab3d894	0.0013721162
192	0xbb32f8e6	-0.0027309
193	0xbc1898f0	-0.009313807
194	0x3bb14f40	0.0054110587
195	0x3d212c10	0.039348662
196	0xbca8bd4a	-0.020598073
197	0x3ba39d85	0.004993143
198	0x3c93f71a	0.018062163
199	0xbb7ceea9	-0.00385944
200	0x3b0b1b15	0.002122586
201	0x3b53aa10	0.003229741
202	0xbc2eff44	-0.010680977
203	0xba405331	-0.0007336615
204	0x3cc0d8cf	0.023540882
205	0x38f3cd8d	0.0001162543
206	0x3a0d50bd	0.0005390754
207	0xbc12c1e9	-0.008957365
208	0xbc046bb2	-0.008082317
209	0x3ce1a05f	0.027542291
210	0xbba7730b	-0.0051101497
211	0xba89ba05	-0.0010507709
212	0xbca4ef01	-0.020133497
213	0xbc695d36	-0.014243415
214	0x3c212f98	0.009838007
215	0x3c0e4be7	0.008685089
216	0x3c31d5ab	0.010854165
217	0x3bb4f6ab	0.005522569
218	0x3c0d1037	0.008609823
219	0xba82ebf2	-0.000998853
220	0xbc1ce7cc	-0.009576749
221	0xbcabf00d	-0.020988489
222	0x3b7289ca	0.0037008398
223	0x3bd1418d	0.006385988
224	0x3c0e5a12	0.008688467
225	0xbc3a1477	-0.011357418
226	0xbbf8d1f7	-0.007593389
227	0x3c350b2c	0.011050027
228	0x3cd57112	0.026054893
229	0xbc8b73f5	-0.017023066
230	0xba1d95ae	-0.0006011379
231	0x3b0e3f44	0.002170519
232	0xba0217e0	-0.0004962664
233	0x3c4ddd25	0.012564932
234	0xb965e5ed	-0.00021924796
235	0xbb9026c1	-0.004399151
236	0xbd29cbf7	-0.04145428
237	0x3c424451	0.011857108
238	0xbc73980e	-0.014867796
239	0x3adbd2dc	0.0016771215
240	0xbb29097b	-0.0025793004
241	0xbc82e196	-0.015976708
242	0xbb17d5af	-0.0023168137
243	0x3c3d3ab2	0.011549639
244	0x3b8079c7	0.003920767
245	0x3d2f18ed	0.04274838
246	0x389708a3	7.20185e-05
247	0x3b3ecb97	0.0029113048
248	0x3c0af767	0.008481837
249	0x3c4d0815	0.012514134
250	0x3b0e1806	0.00216818
251	0x3aa1963e	0.0012328101
252	0x3b2fc764	0.0026821727
253	0xb9d15337	-0.00039925586
254	0xbd8b620e	-0.06805812
255	0x3caf6221	0.021409096

network_body._body_endoder.seq_layers.0.bias f4 [256]
0	0xbd8bef0e	-0.068327054
1	0xbd8d5f85	-0.069029845
2	0x3c8d1fe8	0.017227128
3	0xbb887bdf	-0.004165157
4	0x3c6ff27a	0.014645213
5	0xbd0c222a	-0.03421227
6	0xbcb8f852	-0.022579346
7	0xbc7fbac1	-0.01560849
8	0xbbe0919e	-0.0068532964
9	0xbd9bf910	-0.07615864
10	0x3c663552	0.0140507985
11	0xbdfac91b	-0.12245389
12	0xbde22030	-0.110412955
13	0xbd4797e6	-0.048728846
14	0xbd9fed88	-0.07808977
15	0xbc389a80	-0.011267304
16	0xbd183bec	-0.03716652
17	0xbd13810b	-0.036011737
18	0xbd835807	-0.06413274
19	0xbc444ba9	-0.011980929
20	0x3d07341a	0.033008672
21	0xbc14a54d	-0.009072614
22	0xbd7a890f	-0.061165866
23	0xbcc3240b	-0.023820898
24	0xbd9cb034	-0.076507956
25	0x3d3971d4	0.04527457
26	0x3c532dfb	0.012889381
27	0x3d2cf968	0.04223004
28	0x3c22c85a	0.009935463
29	0xbdbc0936	-0.09181444
30	0xbd04fcd8	-0.032467693
31	0xbd928d72	-0.07155885
32	0xbc8cf9bb	-0.017208925
33	0xbd353d1d	-0.044247735
34	0xbcf2c7ee	-0.02963635
35	0x3cdaef2f	0.02672538
36	0xbd6854fc	-0.056721672
37	0xbc93c29e	-0.018037137
38	0xbc323e91	-0.010879175
39	0xbcf53761	-0.029933633
40	0xbd11ff29	-0.03564373
41	0xbc17829d	-0.009247449
42	0xbd59be3c	-0.053159937
43	0x3d903adc	0.070424765
44	0x3c79703c	0.015224513
45	0xbccee9bd	-0.02525794
46	0xbca8713b	-0.020561805
47	0xbce454a8	-0.027872398
48	0xbd09e4e5	-0.033665556
49	0xbcec6848	-0.028858319
50	0xbdd53777	-0.1041097
51	0x3be878a2	0.0070944587
52	0x38ba1d44	8.874622e-05
53	0x3c29101e	0.010318784
54	0x3c8be2d1	0.017075928
55	0x3a8f7690	0.0010945369
56	0xbd9445ce	-0.07239877
57	0xbd6c55fb	-0.057699185
58	0xbcb73981	-0.022366287
59	0xbd5f8194	-0.054566935
60	0xbda09e64	-0.078427106
61	0xbdcfc4f1	-0.101449855
62	0xbd25fecf	-0.040526208
63	0xbe121d8d	-0.14269085
64	0x3b9e326a	0.004827787
65	0xbd9b8b47	-0.075949244
66	0xbd66afd0	-0.05632001
67	0xbd26e5cb	-0.04074649
68	0xbcc135eb	-0.02358528
69	0xbe1049c2	-0.14090636
70	0xbd8a7c56	-0.067619964
71	0xbd6027e7	-0.054725554
72	0xbd5c0654	-0.053716972
73	0xbca98ee0	-0.02069801
74	0xbd30a307	-0.043124225
75	0xbd569176	-0.052384816
76	0xbd51cd7d	-0.05122136
77	0xbd4566f9	-0.048193906
78	0xbd1710aa	-0.036881126
79	0xb9d941d8	-0.00041438523
80	0xbda1d670	-0.07902229
81	0xbcdec31b	-0.027192643
82	0xbd6d663e	-0.057958834
83	0xbbe98806	-0.007126811
84	0xbd0dfc6c	-0.034664556
85	0xbd75b244	-0.05998446
86	0xbd244a83	-0.040110122
87	0x3cfff640	0.03124535
88	0xbb878378	-0.0041355453
89	0xbda55031	-0.08071936
90	0xbd926ae7	-0.07149296
91	0xbd4a9de1	-0.04946697
92	0xbdc1f6d3	-0.09470906
93	0xbd8a967a	-0.067669824
94	0xbc50f644	-0.012754027
95	0xbd91077f	-0.07081508
96	0xbda8856d	-0.08228574
97	0xbd886bbd	-0.066611744
98	0xbdcf2189	-0.10113818
99	0xbd6da177	-0.058015313
100	0x3ca0ee23	0.019644802
101	0xbdc1b571	-0.09458435
102	0xbd97dbba	-0.074149564
103	0xbcc97fa3	-0.024596995
104	0xbcf3de74	-0.02976916
105	0xbc622fb6	-0.0138053205
106	0xbc74066b	-0.014894108
107	0xbd258c1e	-0.04041683
108	0xbd2b8f54	-0.041884735
109	0xbc9203d0	-0.017824084
110	0x3cd238f0	0.025661916
111	0xbd2b1607	-0.041769054
112	0x3cb58a96	0.02216081
113	0xbd1e467f	-0.03864145
114	0xbbfab0ea	-0.0076504843
115	0xbd1db6d2	-0.03850443
116	0xbdbe693a	-0.09297414
117	0xbd6428e3	-0.055703055
118	0xbd8d514a	-0.0690027
119	0x3a10d927	0.0005525522
120	0xbd3d5173	-0.046220254
121	0xbd9fb0a7	-0.07797366
122	0xbdd98160	-0.106203794
123	0x3d444763	0.047919642
124	0xbd3c61db	-0.04599176
125	0xbd9717b7	-0.0737757
126	0xbbe8d420	-0.0071053654
127	0xbd17cd6f	-0.03706115
128	0x3c8bd48f	0.01706913
129	0xbcaae183	-0.020859485
130	0xbd803776	-0.06260578
131	0xbc27aa92	-0.010233538
132	0xbd4f52ec	-0.05061619
133	0xbc8be17f	-0.017075298
134	0x3d2bc63a	0.04193709
135	0xbc64de9d	-0.013969091
136	0xbcf3062e	-0.029666033
137	0xbc4ab5c1	-0.012372435
138	0xbb16e7d1	-0.0023026357
139	0xbd573d4f	-0.052548703
140	0xbdddbb91	-0.10826791
141	0xbd15a730	-0.036536396
142	0xbd50b587	-0.050954368
143	0xbd11a39f	-0.03555643
144	0xbdd38579	-0.10328192
145	0xbdb16ea0	-0.08663678
146	0xbc10f059	-0.008846366
147	0xbd19723f	-0.03746247
148	0xbdaa01d0	-0.08301127
149	0xbb8e31b3	-0.0043394207
150	0xbd8b7569	-0.068095036
151	0x3ca29630	0.019847006
152	0xbc336c56	-0.010951122
153	0xbd8e0baf	-0.06935822
154	0x3c5f3619	0.013623738
155	0xbd814e20	-0.06313729
156	0xbbab3d6f	-0.0052258293
157	0xbc97aec0	-0.018515944
158	0xbd0cab28	-0.034342915
159	0xbd95cd3b	-0.07314535
160	0xbd85024e	-0.0649458
161	0xbdcf2af4	-0.101156145
162	0xbd795544	-0.06087233
163	0xbcc3d597	-0.023905559
164	0xbdd65f9f	-0.10467457
165	0x3b94f4aa	0.004545768
166	0xbd97f6d2	-0.07420124
167	0xbdb23ec8	-0.08703381
168	0xbd2d7742	-0.04235006
169	0xbd7ae8b2	-0.06125707
170	0xbd676d1a	-0.05650053
171	0xbd307da5	-0.043088574
172	0xbe0170a6	-0.12640628
173	0xbdc78a1c	-0.09743139
174	0xbcdec3b3	-0.027192926
175	0xbde39803	-0.11112978
176	0xbd0523de	-0.03250491
177	0xbd9c8e2d	-0.076443054
178	0xbd4b4fa2	-0.04963649
179	0xbc3ac14e	-0.0113986265
180	0xbcb595bc	-0.022166125
181	0x3cbf4a64	0.023350902
182	0xbccff3ce	-0.02538481
183	0xbdb092a2	-0.08621718
184	0xbc28969b	-0.010289813
185	0xbd269559	-0.040669773
186	0xbcf2f37f	-0.029657124
187	0xbd91e7e2	-0.07124306
188	0xbdb6c855	-0.08924929
189	0xbd9a4b2a	-0.07533868
190	0xbdad95b1	-0.08475817
191	0x3c00db17	0.007864735
192	0x3c54248a	0.012948165
193	0x3d1f5882	0.038902767
194	0xbd923b0f	-0.07140171
195	0xbd9251e8	-0.071445286
196	0xbce07d71	-0.027403565
197	0xbc281d6a	-0.010260919
198	0xbdad51da	-0.084628776
199	0xbc1a9d3a	-0.0094369
200	0xbdf1399a	-0.11778565
201	0xbd727514	-0.059193686
202	0x3cd65a65	0.02616615
203	0x3c029d49	0.00797207
204	0xbcc2a4d7	-0.023760242
205	0x3d3c2b20	0.045939565
206	0xbde42315	-0.11139504
207	0xbccb0cfc	-0.024786465
208	0xbcfc6d53	-0.030813849
209	0xbd8b4074	-0.06799403
210	0x3abad085	0.0014252817
211	0xbd17f894	-0.037102297
212	0xbd9cb469	-0.07651598
213	0xbca3cb6e	-0.019994464
214	0xbd43f402	-0.047840126
215	0xbdb90324	-0.09033802
216	0xbbbf7ae4	-0.005843507
217	0xbd6ad980	-0.05733633
218	0xbd82ec78	-0.06392759
219	0xbd32f099	-0.043686483
220	0x3d38ee99	0.04514942
221	0xbdc6866e	-0.09693609
222	0xbcb7f924	-0.022457667
223	0xbc7e4117	-0.015518448
224	0xbd984b2a	-0.074362114
225	0xbc7dcbd4	-0.015490491
226	0xbcf1ab90	-0.029500753
227	0xbd847c19	-0.06468982
228	0xbd9960c5	-0.074891604
229	0xbd4b7e1e	-0.04968082
230	0xbd1bb0cf	-0.038010415
231	0xbdd02eaa	-0.101651505
232	0xbcf8e31f	-0.030381737
233	0xbd75634c	-0.05990915
234	0xbb155bf4	-0.0022790404
235	0xbdee1871	-0.116257556
236	0xbd195345	-0.037432928
237	0xbd60ff06	-0.05493071
238	0xbe29ee45	-0.16594799
239	0xbb6c25cb	-0.0036033269
240	0xbcd568c2	-0.026050929
241	0xbcc88dbb	-0.024481645
242	0xbd33f6b8	-0.04393646
243	0xbc8463e3	-0.016160911
244	0xbd1e0488	-0.03857854
245	0x3d0f0243	0.034914266
246	0xbc1bb4fe	-0.009503601
247	0xbc58838b	-0.013214956
248	0xbcd152bc	-0.025552146
249	0xbdb3d87e	-0.08781527
250	0xbd982877	-0.07429593
251	0xbca267ea	-0.01982494
252	0xbcdbd1bc	-0.026833408
253	0xbcabeb64	-0.020986266
254	0xbd249c80	-0.040188313
255	0xbc823b92	-0.015897546

network_body._body_endoder.seq_layers.0.weight f4 [256, 190]
0	0xbc473fbb	-0.012161191
1	0xbd8f0c20	-0.069847345
2	0x3d9e5ea3	0.07732894
3	0x3d887262	0.06662442
4	0x3da1288f	0.07869064
5	0x3cc6ccd1	0.024267586
6	0xbdc62f09	-0.0967694
7	0x3e51cb3c	0.20487684
8	0xbd46cde7	-0.048536208
9	0x3d682224	0.056673184
10	0xbd8e9665	-0.06962279
11	0x3dea67dc	0.11445591
12	0xbb7a048d	-0.0038149685
13	0x3daf417a	0.085574105
14	0xbdf94fa7	-0.121733956
15	0x3cb000ea	0.02148481
16	0x3d83f231	0.06442679
17	0x3da01fbb	0.07818552
18	0x3d291c15	0.041286547
19	0xbd972109	-0.07379348
20	0xbb494203	-0.0030709512
21	0x3cbca1fe	0.023026463
22	0xbdacf3d0	-0.08444941
23	0x3d1df2cc	0.038561627
24	0x3d53d02c	0.0517122
25	0xbdb7f599	-0.08982391
26	0xbda77560	-0.081766844
27	0xbbc1be01	-0.005912543
28	0x3d8854da	0.06656809
29	0xbda59757	-0.080855064
30	0x3e351bcb	0.17686383
31	0x3db9b36b	0.090674244
32	0x3d206057	0.039154377
33	0xbd77cc44	-0.060497537
34	0xbc9d5922	-0.01920754
35	0xbd1dd1df	-0.038530227
36	0x3d344202	0.044008262
37	0x3d203bd8	0.03911957
38	0x3dc50345	0.09619764
39	0xbddfdd87	-0.10930925
40	0x3d498ab1	0.049204532
41	0xbca6ead9	-0.020375656
42	0xbc83dd82	-0.016096834
43	0x3d1a50f5	0.037674863
44	0xbd385411	-0.045002047
45	0xbde26d58	-0.11056012
46	0x3d6d9c34	0.058010295
47	0x3d857fd7	0.06518524
48	0xbd0dd51b	-0.03462706
49	0xbcab6599	-0.020922469
50	0x3dc7678e	0.09736548
51	0x3dc40cdb	0.095727645
52	0xbd8b7423	-0.06809261
53	0xbdb38be5	-0.08766917
54	0x3e0cfb39	0.13767709
55	0xbdb8cd29	-0.09023506
56	0xbe4c14d4	-0.1992982
57	0x3e33578f	0.1751387
58	0xbd42c6aa	-0.047552742
59	0xbd2f4f5b	-0.04280029
60	0xbdae1368	-0.08499795
61	0x3daab4be	0.08335255
62	0x3e302104	0.17200094
63	0xbe175b64	-0.14780957
64	0xbe9a18fd	-0.3009719
65	0x3dfe7394	0.124243885
66	0x3d3a1b0e	0.045435958
67	0xbdeb75f2	-0.11497106
68	0xbe259200	-0.16168976
69	0x3d5ee77a	0.054419972
70	0x3b574536	0.003284765
71	0xbd588f46	-0.05287101
72	0xbd1bbf9d	-0.038024534
73	0x3d182bcb	0.03715114
74	0xbe0fd92e	-0.14047691
75	0x3c6c3b21	0.014418394
76	0xbd7a904b	-0.061172765
77	0x3c852c56	0.016256493
78	0x3d1340ed	0.03595059
79	0xbd0083e8	-0.031375796
80	0xbe7d5970	-0.24741149
81	0xbcb26182	-0.021775011
82	0x3db81274	0.08987895
83	0xbdad5a52	-0.08464493
84	0xbe25c473	-0.1618822
85	0x3ddf0179	0.10888953
86	0xbd28ea78	-0.04123923
87	0xbdcfa48e	-0.10138808
88	0x3c194737	0.009355358
89	0x3dad4600	0.08460617
90	0x3c94187e	0.018078085
91	0x3da94a65	0.08266143
92	0x3ca6d1a8	0.020363644
93	0xbaceede3	-0.0015787449
94	0xbc01d48a	-0.007924208
95	0x3b887c41	0.004165203
96	0x3e229a6d	0.15879221
97	0xbd6ab237	-0.057298865
98	0x3d901580	0.07035351
99	0xbe866736	-0.2625062
100	0xbe008546	-0.1255084
101	0x3dcb6f82	0.09933378
102	0x3e3cce1a	0.18437997
103	0xbd27a7da	-0.04093156
104	0xbda81aca	-0.082082346
105	0x3e1d49f6	0.15360245
106	0xbce74c37	-0.028234584
107	0xbd34e626	-0.0441648
108	0xbd7594d7	-0.059956398
109	0x3d2406e4	0.040045634
110	0x3c972ef3	0.018455004
111	0xbe1ff304	-0.15620047
112	0x3d1843a2	0.037173875
113	0x3dc52417	0.09626024
114	0xbc840569	-0.016115861
115	0xbdd076bf	-0.10178899
116	0xbdcf82d0	-0.101323724
117	0x3d295c5f	0.041347858
118	0x3c05502a	0.008136788
119	0xbd798e52	-0.060926743
120	0x3e081605	0.1328965
121	0x3bbad8e3	0.0057021244
122	0xbcc9736b	-0.024591168
123	0x3d4bc988	0.049752742
124	0x3d6da96d	0.058022905
125	0x3dc0a99d	0.09407351
126	0x3d86bac9	0.06578595
127	0x3af9d6ec	0.0019061244
128	0xbd11977d	-0.03554486
129	0x3da4895f	0.08034014
130	0xbd9c4154	-0.07629648
131	0x3da014a5	0.07816438
132	0xbda8544a	-0.08219202
133	0x3c9dabe8	0.01924701
134	0x398d6ec9	0.00026976157
135	0xbde55536	-0.11197893
136	0xbd263c16	-0.040584646
137	0x3e23b93d	0.15988632
138	0xbca6d3fd	-0.020364756
139	0xbd04faf2	-0.032465883
140	0x3d9daae3	0.0769861
141	0x3cd7b0f5	0.026329497
142	0xbda7a4eb	-0.081857525
143	0x3d03bdd6	0.032163464
144	0xbdb017f7	-0.08598321
145	0x3e5dac9d	0.21647878
146	0x3e1ed5d2	0.15511253
147	0xbdfdf6fb	-0.124006234
148	0xbdcee2d4	-0.10101858
149	0x3dd681b5	0.104739584
150	0xbd581ce0	-0.052761912
151	0xbddee98a	-0.10884388
152	0xbd898960	-0.06715655
153	0x3c4e74de	0.0126011055
154	0x3d250673	0.040289354
155	0xbcf2e938	-0.029652223
156	0xbd8691e6	-0.06570797
157	0xbca5e68b	-0.020251533
158	0x3e11fac7	0.1425582
159	0xbc469009	-0.012119302
160	0xbcdad5fc	-0.026713364
161	0x3db92712	0.09040655
162	0x3d0bd7a3	0.034141194
163	0x3d6195d9	0.055074546
164	0xbcafbd3f	-0.021452544
165	0x3d3e2540	0.046422243
166	0x3da81314	0.08206764
167	0xbc501d11	-0.0127022425
168	0xbc683ba8	-0.014174379
169	0xbdf95fe0	-0.1217649
170	0x3dc55d8a	0.09636982
171	0x3c513afe	0.0127704125
172	0x3d6b02b0	0.05737561
173	0xbdf8c5a4	-0.12147072
174	0x3dd0bf88	0.10192782
175	0xbd525b24	-0.05135645
176	0x3d8e1c54	0.06938997
177	0x3bb9f02a	0.0056743817
178	0xbb6787cf	-0.003532875
179	0xbd99757a	-0.0749311
180	0x3e4ebc91	0.2018912
181	0x3d3c779d	0.04601251
182	0x3cbe3cc3	0.023222333
183	0xbdce7dd1	-0.10082591
184	0x3ca97f6d	0.020690644
185	0xbe2bb02c	-0.16766423
186	0x3daff7ad	0.08592162
187	0x3e1876a1	0.14889003
188	0x3d883eb9	0.066525884
189	0xbde28ebd	-0.110623814
190	0xbc734c31	-0.014849708
191	0x3cb6a6f6	0.02229641
192	0xbe060338	-0.13087165
193	0xbca3da08	-0.020001426
194	0xbd8c0416	-0.06836717
195	0x3e122620	0.14272356
196	0x3dd7d5a9	0.10538799
197	0xbd80e705	-0.062940635
198	0x3d600472	0.05469174
199	0xbdf8604e	-0.12127744
200	0x3d854663	0.06507566
201	0x3d813e3e	0.063107
202	0xbdec3e7c	-0.115353554
203	0x3e1d7f83	0.15380673
204	0xbd8191ea	-0.06326659
205	0xbbd28a53	-0.006425181
206	0x3e567ea0	0.20946741
207	0x3dde2ad4	0.108480126
208	0xbc66a0d9	-0.014076435
209	0xbcb2f5f8	-0.021845803
210	0x3daa0d91	0.08303369
211	0x3dc8f19c	0.09811708
212	0xbcba300f	-0.022727994
213	0xbded53b7	-0.11588233
214	0xbc8169aa	-0.015797455
215	0x3d4c8f14	0.049941137
216	0x3d6bf097	0.05760249
217	0xbcd408a6	-0.02588303
218	0x3debd541	0.11515284
219	0x3bfaa1c9	0.007648681
220	0x3e06ed8b	0.13176553
221	0x3e5e0d70	0.21684813
222	0xbd67ea99	-0.056620214
223	0x3d1bbfd0	0.038024724
224	0x3e1968c2	0.14981368
225	0x3d2b121a	0.04176531
226	0x3d0d1d16	0.034451567
227	0x3d2f91fb	0.042863827
228	0x3e5b4b70	0.21415496
229	0x3cd8471d	0.026401097
230	0x3df12159	0.11773939
231	0xbd8586c0	-0.06519842
232	0x3e637fc4	0.22216707
233	0x3cf69139	0.030098544
234	0xbcaf6502	-0.021410469
235	0x3daf64d9	0.08564157
236	0xbd4ba8ab	-0.0497214
237	0x3de57ba3	0.112052225
238	0xbddb96ba	-0.10722108
239	0xbdfd9425	-0.12381772
240	0x3ca482a6	0.02008183
241	0x3daa31f4	0.08310309
242	0xbd01db12	-0.031703062
243	0xbcdbdd89	-0.026839035
244	0x3e256df6	0.16155228
245	0xbd058fd0	-0.032607853
246	0xbe7e1d2d	-0.24815817
247	0x3b0802c6	0.0020753606
248	0x3e191e39	0.14952935
249	0x3dd08bf1	0.10182942
250	0xbdc0c932	-0.09413375
251	0x3d9295dc	0.0715749
252	0x3da154c9	0.078774996
253	0xbc5525d1	-0.013009504
254	0x3d633202	0.055467613
255	0x3c9fb610	0.019495994

network_body._body_endoder.seq_layers.2.bias f4 [256]
0	0xbcf1f620	-0.029536307
1	0xbd383cda	-0.044979908
2	0xbc68c567	-0.014207221
3	0xbd69edd0	-0.05711156
4	0xbd121553	-0.035664868
5	0xbc2a8523	-0.010407719
6	0xbd95e2fc	-0.073186845
7	0xbd57fdeb	-0.05273239
8	0xbd15e5ba	-0.036596037
9	0xbd50572d	-0.050864387
10	0xbd8cb2b7	-0.06870025
11	0xbd082883	-0.03324176
12	0xbd0a759b	-0.033803564
13	0xbd7451b4	-0.05964823
14	0xbd04835a	-0.03235183
15	0xbd9c9021	-0.07644678
16	0xbd698b5e	-0.057017677
17	0xbd896220	-0.06708169
18	0xbc3fd6e0	-0.011708945
19	0xbc8ed6e9	-0.017436462
20	0xbcf0a565	-0.029375741
21	0xbcdb4e7b	-0.02677082
22	0xbc53c1d8	-0.012924634
23	0xbd3aace5	-0.04557504
24	0xbd0d9bf0	-0.03457254
25	0xbcc74542	-0.024325017
26	0xbd007605	-0.031362552
27	0xbd152b27	-0.036418106
28	0xbd35eb94	-0.044414118
29	0xbd04b099	-0.03239498
30	0xbc553f33	-0.013015556
31	0xbcda26a4	-0.026629753
32	0xbd3bbc4a	-0.045833863
33	0xbc7ed421	-0.015553505
34	0xbccd7e5d	-0.025084669
35	0xbda816ba	-0.0820746
36	0xbc1d8d2e	-0.009616179
37	0xbd5b7691	-0.05357987
38	0xbcd2b82d	-0.025722587
39	0xbccdf2d9	-0.025140213
40	0xbd531fc5	-0.05154397
41	0xbd759d13	-0.05996425
42	0xbda14916	-0.07875268
43	0xbd03c5ab	-0.032170933
44	0xbd11fec5	-0.035643358
45	0xbd1d88d5	-0.03846057
46	0xbd33ef23	-0.04392923
47	0xbce1fa0b	-0.02758505
48	0xbc29af17	-0.010356686
49	0xbd141b14	-0.036158636
50	0xbc00655e	-0.007836668
51	0xbd8630e5	-0.06552295
52	0xbd540d8b	-0.051770728
53	0xbcdcbd3d	-0.026945705
54	0xbd170393	-0.036868643
55	0xbd9ac8f9	-0.07557864
56	0xbc0a00a2	-0.008423002
57	0xbd9fd02b	-0.07803377
58	0xbd485f64	-0.048919097
59	0xbc8967bb	-0.016773095
60	0xbd93b4f2	-0.07212247
61	0xbd949640	-0.072552204
62	0xbd60fa50	-0.054926217
63	0xbd6e999b	-0.05825196
64	0xbd99a9c6	-0.07503085
65	0xbd81302e	-0.06308018
66	0xbd204296	-0.039126
67	0xbd9f143b	-0.077675305
68	0xbd6e27c3	-0.05814339
69	0xbd0aaf0a	-0.033858337
70	0xbc2d50a6	-0.01057831
71	0xbd5bbf69	-0.05364934
72	0xbcdba7c3	-0.026813393
73	0xbd300d88	-0.042981654
74	0xbcc2ebd5	-0.023794094
75	0xbd5d5e31	-0.054044906
76	0xbd4ac337	-0.049502578
77	0xbd5cbc74	-0.05389066
78	0xbc985ada	-0.018598009
79	0xbdc0c0b2	-0.09411754
80	0x3b928eda	0.0044725956
81	0xbd95a5bc	-0.07307002
82	0xbd025145	-0.031815786
83	0xbd195560	-0.037434936
84	0xbdb7c541	-0.0897317
85	0xbcea8490	-0.028627664
86	0xbd40be9a	-0.04705677
87	0xbd3512d7	-0.04420742
88	0xbbf5a8d9	-0.007496935
89	0xbdad1e83	-0.08453085
90	0xbd141e84	-0.036161914
91	0xbdd84b96	-0.10561292
92	0xbd473142	-0.04863096
93	0xbd5aab19	-0.053385828
94	0xbd5d4e42	-0.05402971
95	0xbcfe6a7e	-0.031056639
96	0xbd74ded4	-0.059782818
97	0xbc98dbd2	-0.018659506
98	0xbccd0296	-0.025025647
99	0xbd294aec	-0.041331217
100	0xbd729c21	-0.059230927
101	0xbd5518a6	-0.05202546
102	0xbd0e7ba3	-0.034785878
103	0xbd84835c	-0.06470367
104	0xbd39ff58	-0.04540953
105	0xbd9dd3cf	-0.07706415
106	0xbd8bb338	-0.06821293
107	0xbd5c5724	-0.05379404
108	0xbd55d284	-0.052202716
109	0xbd8e0322	-0.06934191
110	0xbbfda92a	-0.007741113
111	0xbdadb8aa	-0.084824875
112	0xbd6a26e1	-0.057165984
113	0xbd769c10	-0.060207427
114	0xbd19e417	-0.03757104
115	0xbd2185cd	-0.039434243
116	0xbcbd453d	-0.023104304
117	0xbca44686	-0.02005316
118	0xbd24a8c9	-0.04020003
119	0xbd8edc4a	-0.069756106
120	0xbcdf7b04	-0.027280338
121	0xbd4e8e97	-0.050428953
122	0xbd14f6eb	-0.03636829
123	0xbbd29e71	-0.006427579
124	0xbdc2eb65	-0.09517554
125	0xbd20fd04	-0.039303795
126	0xbacc3ccd	-0.0015582085
127	0xbd32a0d8	-0.043610424
128	0xbd8cc445	-0.06873373
129	0xbcb63bc6	-0.0222453
130	0xbcc2ff6a	-0.023803432
131	0xbc79d500	-0.015248537
132	0xbd58753a	-0.05284617
133	0xbd576d8a	-0.0525947
134	0xbdb537e9	-0.08848555
135	0xbcbc9aab	-0.02302297
136	0xbd95c67e	-0.0731325
137	0xbd366815	-0.044532854
138	0xbd3354aa	-0.043781914
139	0xbb76ff54	-0.0037688809
140	0xbd1b24a1	-0.03787673
141	0xbc19a862	-0.0093785245
142	0xbd259e03	-0.040433895
143	0xbd2578d0	-0.04039842
144	0xbd06fee7	-0.032957938
145	0xbd687116	-0.056748472
146	0xbd69f8c7	-0.05712202
147	0xbca8643d	-0.02055561
148	0xbd39073e	-0.045172922
149	0xbdc3f7fe	-0.09568785
150	0xbd9fa58d	-0.07795248
151	0xbd2739b2	-0.040826507
152	0xbd6843f4	-0.05670543
153	0x3c8f7cad	0.017515505
154	0xbcae8fef	-0.021308867
155	0xbd510968	-0.05103436
156	0xbc958eb3	-0.01825652
157	0xbd88df0e	-0.06683169
158	0xbd2cfb98	-0.042232126
159	0xbdafa4eb	-0.085763775
160	0xbd1fa747	-0.038977887
161	0xbd8bf21f	-0.0683329
162	0xbd69e893	-0.057106566
163	0xbd7ef3b1	-0.06224412
164	0xbd8727d5	-0.06599394
165	0xbcaedb47	-0.021344794
166	0x39aea588	0.00033311197
167	0xbd815a89	-0.06316096
168	0xbd09a5df	-0.033605453
169	0xbd3756f2	-0.044760652
170	0xbd961004	-0.073272735
171	0xbbade8bf	-0.0053072865
172	0xbcffb913	-0.03121618
173	0xbd17ddeb	-0.03707687
174	0xbc39dfab	-0.0113448305
175	0xbca5080a	-0.020145435
176	0xbd505f64	-0.05087222
177	0xbc96df17	-0.018416924
178	0xbceaa314	-0.028642215
179	0xbd473ccf	-0.048641976
180	0xbd8c01b3	-0.068362616
181	0xbd2f51bc	-0.042802557
182	0xbcd83b08	-0.026395336
183	0xbd09be2f	-0.03362864
184	0xbd9ad772	-0.07560624
185	0xbd43530a	-0.047686614
186	0xbdc1ef1a	-0.09469433
187	0xbceaae04	-0.02864743
188	0xbd4b54f0	-0.04964155
189	0xbc7fb39b	-0.015606786
190	0xbcf3a7b5	-0.029743055
191	0xbd83c1d3	-0.064334534
192	0xbd15bbb1	-0.03655595
193	0xbd800d86	-0.062525794
194	0xbd3a6c87	-0.045513656
195	0xbd64ad70	-0.055829465
196	0xbcbb5d49	-0.02287163
197	0x3c790f3a	0.015201384
198	0xbcd7be3b	-0.026335826
199	0xbd4acea4	-0.049513474
200	0xbd318fc7	-0.043350007
201	0xbd4b29a4	-0.04960026
202	0xbdb882c5	-0.09009317
203	0xbdc7f1ae	-0.097628936
204	0xbd190de9	-0.03736678
205	0xbd247265	-0.040148158
206	0xbd2ef70d	-0.042716075
207	0xbd6b37bd	-0.057426203
208	0xbd40aa43	-0.047037374
209	0xbd26373d	-0.040580023
210	0xbcfb9f92	-0.030715737
211	0xbd414057	-0.0471805
212	0xbd4d341a	-0.050098516
213	0xbcd7d3a7	-0.02634604
214	0xbcf9ebac	-0.030507885
215	0xbd827a41	-0.06370974
216	0xbd5ccb0d	-0.05390458
217	0xbd57c918	-0.052682012
218	0xbcb6eee0	-0.022330701
219	0xbd8e99b8	-0.06962913
220	0xbd46ec4d	-0.048565198
221	0xbd1c5f9d	-0.03817712
222	0xbd7f55a0	-0.062337518
223	0xbda117b4	-0.07865849
224	0xbd29e816	-0.0414811
225	0xbd1dc148	-0.038514405
226	0xbd36236b	-0.04446737
227	0xbd4a3e4b	-0.049375813
228	0xbc769dd7	-0.01505228
229	0xbcb97ebc	-0.02264344
230	0xbcc42cc1	-0.023947122
231	0xbd1a02b5	-0.037600238
232	0xbcd7c840	-0.026340604
233	0xbd06d7d0	-0.03292066
234	0xbd9401de	-0.07226919
235	0xbd6cdc1c	-0.0578271
236	0xbb7a74f2	-0.0038216677
237	0xbd8ca7b3	-0.068679236
238	0xbcd144a0	-0.025545418
239	0xbd1b65bd	-0.037938822
240	0xbd59080b	-0.052986186
241	0xbd413f5f	-0.047179576
242	0xbcc47485	-0.023981342
243	0xbd985c08	-0.074394286
244	0xbd475a0c	-0.04866986
245	0xbcdf602e	-0.027267542
246	0xbd894a11	-0.0670358
247	0xbd305773	-0.043052148
248	0xbd4d1ca9	-0.05007616
249	0xbd7b4a82	-0.061350353
250	0xbcb791ee	-0.022408452
251	0xbd12bfce	-0.03582745
252	0xbd840223	-0.0644572
253	0xbd0a933a	-0.033831812
254	0x3b7ba6a1	0.003839888
255	0xbcbd5079	-0.023109661

network_body._body_endoder.seq_layers.2.weight f4 [256, 256]
0	0x3d8d815b	0.06909438
1	0x3d595142	0.05305601
2	0xbc7be62f	-0.015374704
3	0xbcc6441c	-0.024202399
4	0xbdfe9474	-0.12430659
5	0xbc13f755	-0.0090311365
6	0xbdfed877	-0.12443631
7	0x3db46998	0.08809203
8	0xbdae5613	-0.08512511
9	0xbd56fb22	-0.052485593
10	0xbd29f4cb	-0.04149322
11	0xbd61ba7b	-0.055109482
12	0x3c82b229	0.015954094
13	0x3e1c8ec8	0.15288842
14	0xbe1e085c	-0.15432876
15	0x3c894229	0.01675518
16	0x3d29bbc2	0.041438825
17	0x3d589209	0.052873645
18	0xbd59b7a7	-0.05315366
19	0xbdb94cb0	-0.0904783
20	0x3d81ef72	0.06344499
21	0xbc5083ff	-0.012726783
22	0xbd4ba6ff	-0.049719807
23	0xbe11ccfb	-0.1423835
24	0xbd86a76a	-0.065749004
25	0xbccfc169	-0.02536078
26	0xbc0fbef5	-0.008773555
27	0x3e577320	0.2104001
28	0x3dc28b6c	0.09499249
29	0xb83fe5c6	-4.575194e-05
30	0xbd4a6d40	-0.049420595
31	0x3d2ec01c	0.04266368
32	0xbd437416	-0.04771813
33	0xbcfe8d3c	-0.031073205
34	0x3e2ce756	0.16885123
35	0x3d78c23d	0.060732115
36	0x3dc62074	0.09674159
37	0x3d6072ee	0.054797105
38	0x3ad46eda	0.0016207353
39	0xbd5303f5	-0.051517446
40	0x3d2ea5e5	0.042638678
41	0xbd053ccd	-0.032528687
42	0x3da02471	0.07819451
43	0x3cb8cefb	0.022559633
44	0x3cb40ba4	0.021978207
45	0x3d3e3ec4	0.046446577
46	0xbdfd6f07	-0.123746924
47	0xbd822335	-0.063543715
48	0xbd8ac082	-0.06774999
49	0x3dac760f	0.084209554
50	0x3da4e5b7	0.08051627
51	0xbd2c69ba	-0.042093016
52	0xbdb3a92e	-0.08772503
53	0x3dc5fd3f	0.096674435
54	0x3d07502f	0.033035453
55	0x3c82797a	0.015927065
56	0xbd7cdec4	-0.061735883
57	0x3c45a2a5	0.012062703
58	0xbba92d45	-0.0051628673
59	0x3c9fc5c5	0.019503484
60	0xbc207d9e	-0.0097955745
61	0xbdf45f26	-0.119322106
62	0x3e392df4	0.18083936
63	0x3d55eeb0	0.052229583
64	0x3cf10951	0.029423388
65	0xbd9a03c4	-0.075202495
66	0x3e7a9657	0.24471413
67	0xbd106405	-0.035251636
68	0x3b4ddd40	0.0031412393
69	0xbd83b056	-0.06430118
70	0x3bc30ba8	0.0059523173
71	0x3d2fdbf3	0.04293437
72	0xbe0c08ee	-0.13675281
73	0xbd506237	-0.050874915
74	0xbde9a5c1	-0.11408568
75	0x3d89647f	0.06708621
76	0x3d13a568	0.036046416
77	0x3d71cd31	0.059033576
78	0xbd8ebea0	-0.069699526
79	0xbd39eaf1	-0.045390073
80	0x3d77e9ad	0.060525585
81	0x3d319d6f	0.04336303
82	0xbded4d84	-0.115870506
83	0x3db19331	0.08670653
84	0x3931b595	0.0001694768
85	0xbd1bfe22	-0.038084157
86	0xbcfb3441	-0.030664565
87	0x3db5d65f	0.08878779
88	0x3de6b1d7	0.11264389
89	0x3ce881cb	0.028382203
90	0x3d81a15e	0.063296065
91	0x3c711e72	0.014716731
92	0xbcfa008f	-0.030517844
93	0xbe09c6c2	-0.13454726
94	0x3d257dd2	0.040403195
95	0xbd861089	-0.065461226
96	0xbdb6d572	-0.0892743
97	0xbc9709c5	-0.018437276
98	0xbb28e83f	-0.0025773195
99	0xbbf25ffc	-0.007396696
100	0xbd801aa3	-0.062550806
101	0x3ae7c447	0.0017682397
102	0x3d0ae602	0.03391076
103	0xbd9c93a5	-0.076453485
104	0xbde98b90	-0.114035726
105	0xbd8f76ee	-0.07005106
106	0xbca8b5ff	-0.020594595
107	0x3da5b394	0.080908924
108	0xbca7e232	-0.0204936
109	0x3e176575	0.14784797
110	0x3dd75868	0.10514909
111	0xbd4ed3bc	-0.050494894
112	0xbccc4cd5	-0.02493898
113	0xbce55292	-0.027993474
114	0xbd9c80d1	-0.07641757
115	0xbdd77faf	-0.105224006
116	0x3d95b841	0.07310534
117	0x3d69b248	0.057054788
118	0x3de64798	0.11244124
119	0xbe236d87	-0.1595975
120	0xbd5b015f	-0.053468104
121	0xbb0a6d9f	-0.0021122468
122	0xbe569abf	-0.20957468
123	0xbe099810	-0.13436913
124	0xbd2b439c	-0.041812524
125	0x3e12c458	0.14332712
126	0x3d5be446	0.053684495
127	0x3a6edd5e	0.0009111966
128	0xbe05a988	-0.13052952
129	0xbdced239	-0.100986905
130	0x3c59d09b	0.013294364
131	0x3d608a3f	0.05481934
132	0xbe183b35	-0.14866336
133	0xbd621d64	-0.05520381
134	0xbd8d501c	-0.06900045
135	0xbc0efd43	-0.0087273745
136	0x3d92e511	0.07172597
137	0xbd795edf	-0.06088149
138	0x3e180f77	0.1484965
139	0x3cafe46c	0.021471225
140	0xbda6e68c	-0.08149442
141	0xbce7f88b	-0.028316757
142	0xbe41060b	-0.18849961
143	0x3d9c3d17	0.076288395
144	0xbcc07ee0	-0.023497999
145	0xbb85da65	-0.0040848725
146	0x3d250fa0	0.040298104
147	0xbac92aae	-0.0015347803
148	0x3d99e53e	0.075144276
149	0xbe40a718	-0.18813741
150	0xbcd527ed	-0.026020015
151	0xbdb91027	-0.09036284
152	0x3cae6c39	0.021291839
153	0x3d34415d	0.044007648
154	0xbd471d0d	-0.04861169
155	0xbd888514	-0.06666008
156	0xbd43a972	-0.047769018
157	0xbd942516	-0.07233636
158	0xbd85386f	-0.065049045
159	0xbd49e32c	-0.049288914
160	0x3d92c0b4	0.071656615
161	0xbd87826b	-0.06616672
162	0xbe275a3c	-0.16343015
163	0xbd0b6d29	-0.03403965
164	0xbd8075aa	-0.06272443
165	0x3e0bae1a	0.13640633
166	0x3db1a58e	0.08674155
167	0xbd7a2f00	-0.06107998
168	0xbdb84145	-0.08996824
169	0xbdcc87cb	-0.09986838
170	0xbe12c309	-0.14332213
171	0xbdb1eb99	-0.08687515
172	0xbcab8a98	-0.02094011
173	0x3d66521b	0.056230646
174	0xbd453f25	-0.048155922
175	0x3d56a2fc	0.052401528
176	0xbd4af433	-0.049549293
177	0x3dcdbde3	0.10045984
178	0x3b856468	0.0040708072
179	0x3e4af4c5	0.19819935
180	0xbdc5993f	-0.0964837
181	0xbd59adb4	-0.05314417
182	0x3d8adf12	0.067808285
183	0x3dd60231	0.10449637
184	0xbdc2578c	-0.094893545
185	0x3de4f9c1	0.11180449
186	0xbcb2056e	-0.021731105
187	0xbbc3a72b	-0.0059708557
188	0x3d367720	0.0445472
189	0x3ddcc598	0.107798755
190	0xbd9c7346	-0.07639174
191	0x3d9a4999	0.07533569
192	0x3df9b269	0.12192232
193	0x3d840400	0.064460754
194	0x3cfc683f	0.030811427
195	0xbd3e5d5d	-0.046475757
196	0x3cfd54f5	0.0309243
197	0xbc11da37	-0.008902124
198	0x3e30f079	0.17279233
199	0xbd800a2b	-0.062519394
200	0x3b3e8c37	0.0029075274
201	0xbe3a2fde	-0.18182322
202	0xbe515538	-0.20442665
203	0xbbb43501	-0.0054994826
204	0x3ccfbc1d	0.025358254
205	0x3df483b0	0.1193918
206	0x3d47c937	0.048775878
207	0xbc1d877d	-0.009614822
208	0xbd17efbd	-0.037093867
209	0xbdf5f23c	-0.12009093
210	0x3e15ec22	0.14640859
211	0xbc873cf5	-0.016508559
212	0x3d0e1ccb	0.034695428
213	0x3ca950a8	0.020668343
214	0xbd937455	-0.07199923
215	0xbc145752	-0.009054022
216	0x3d38b5e2	0.045095332
217	0xbd27cdeb	-0.040967863
218	0x3e08a4b7	0.13344084
219	0x3d1446bf	0.03620028
220	0x3d936b2b	0.07198175
221	0xbd9d69ff	-0.07686233
222	0xbd7b36ce	-0.061331563
223	0x3d560f50	0.052260697
224	0x3d5ea5e3	0.05435742
225	0x3d8ae875	0.06782619
226	0xbd263179	-0.040574525
227	0xbdb9c8f9	-0.090715356
228	0xbd8e98c4	-0.069627315
229	0xbb3bd18d	-0.0028658838
230	0xbdb23eaa	-0.087033585
231	0x3d7da3b7	0.06192371
232	0xbd5e06d7	-0.05420574
233	0xbe3c06de	-0.18361995
234	0xbd9b0dcd	-0.07570992
235	0x3dbd1adc	0.09233639
236	0x3d3f8d3d	0.046765555
237	0xbe026c23	-0.12736563
238	0x3dcd179e	0.1001427
239	0xbe0c7af8	-0.13718784
240	0xbdde6b0e	-0.10860263
241	0x3d093851	0.033500973
242	0xbd58a5b2	-0.052892394
243	0xbd726fb6	-0.059188567
244	0x3d852763	0.06501653
245	0xbcae4271	-0.021271916
246	0xbd38f220	-0.045152783
247	0x3d944ef9	0.07241625
248	0x3e0424f5	0.12904723
249	0xbd167c0e	-0.0367394
250	0xbd6f4fc1	-0.05842567
251	0x3dc4d00a	0.09609993
252	0x3cb913a2	0.02259237
253	0x3cb5d7a3	0.02219755
254	0xbc91e27b	-0.01780819
255	0x3d6093f5	0.054828603

network_body._body_endoder.seq_layers.4.bias f4 [256]
0	0xbd012bd8	-0.031535953
1	0xbd0d0eb6	-0.034437858
2	0xbd4664e3	-0.048436057
3	0xbd139526	-0.03603091
4	0xbd5bba75	-0.053644616
5	0xbcef6b58	-0.02922599
6	0xbc9e7da6	-0.019347023
7	0xbd61bda6	-0.055112503
8	0xbc254c74	-0.010089029
9	0xbc2fec7d	-0.010737536
10	0xbc2c7614	-0.010526199
11	0xbd363520	-0.044484258
12	0xbd4a3092	-0.049362727
13	0xbccec990	-0.025242597
14	0xbd225ae7	-0.039637472
15	0x3b998e05	0.0046861195
16	0xbd20d6f6	-0.039267503
17	0xbd649f7a	-0.05581615
18	0xbd977938	-0.073961675
19	0xbcb44b08	-0.022008434
20	0xbd5d23a5	-0.05398907
21	0xbcf899d0	-0.030346781
22	0xbd13356e	-0.035939626
23	0xbcbc7074	-0.02300284
24	0xbd85e4fe	-0.065378174
25	0xbd15c072	-0.036560483
26	0xbd20bc55	-0.039242107
27	0xbd51d237	-0.051225867
28	0xbd2f6d41	-0.042828802
29	0xbd826960	-0.06367755
30	0xbd306954	-0.0430692
31	0xbcf6ecd2	-0.030142222
32	0xbcaa5d87	-0.02079655
33	0xbcc2cb5c	-0.02377861
34	0xbd8d1fff	-0.068908684
35	0xbcc094b3	-0.023508405
36	0xbd093f66	-0.033507727
37	0xbd5c6d0a	-0.053814925
38	0xbd8d3e54	-0.06896654
39	0xbcc4d577	-0.02402757
40	0xbd2b3a23	-0.04180349
41	0xbc688298	-0.014191292
42	0xbc67f03f	-0.0141564
43	0xbd2cfbcb	-0.042232316
44	0xbd55c65a	-0.052191116
45	0xbd51e42d	-0.051242996
46	0xbc52b5ed	-0.012860757
47	0xbcefa1f1	-0.029252024
48	0xbce7190e	-0.02821019
49	0xbd4b4013	-0.049621653
50	0xbb1d3ccb	-0.0023992534
51	0xbd1961ca	-0.037446775
52	0xbd2e6f36	-0.042586528
53	0xbd5c0335	-0.053713996
54	0xbd85e594	-0.06537929
55	0xbcd9e17c	-0.026596777
56	0xbd535dfa	-0.051603295
57	0xbd5a1d3d	-0.05325054
58	0xbd50c604	-0.050970092
59	0xbbdb87fc	-0.00669956
60	0xbd0aa508	-0.033848792
61	0xbce7e196	-0.02830581
62	0xbd598e28	-0.053114086
63	0xbd498894	-0.049202517
64	0xbd179ddc	-0.03701578
65	0xbd5b7116	-0.053574644
66	0xbce0a3f7	-0.027421935
67	0xbd70cf87	-0.058791663
68	0xbd26e6d6	-0.040747486
69	0xbaeb8833	-0.0017969668
70	0xbd14f11f	-0.036362763
71	0xbd262903	-0.040566456
72	0xbd3eed2c	-0.046612903
73	0xbcc63be9	-0.02419849
74	0xbd344692	-0.044012614
75	0xbd06d804	-0.032920852
76	0xbd208124	-0.039185658
77	0xbd681e01	-0.05666924
78	0xbca2f4e9	-0.019892173
79	0xbc7d6cd2	-0.015467839
80	0xbd51296b	-0.05106489
81	0xbd261a89	-0.04055265
82	0xbd86a6b7	-0.06574767
83	0xbcc4e8af	-0.024036733
84	0xbd731018	-0.05934152
85	0xbd456a4c	-0.048197076
86	0xbd1c86c9	-0.03821448
87	0xbd0000a4	-0.03125061
88	0xbd2b7f97	-0.041869726
89	0xbd74aa23	-0.059732568
90	0xbcfaab78	-0.03059934
91	0xbd349d21	-0.044095162
92	0xbd1b27d8	-0.037879795
93	0xbc924e1a	-0.017859507
94	0xbd652b75	-0.055949647
95	0xbd2286a9	-0.039679203
96	0xbc4892ca	-0.0122420285
97	0xbd851202	-0.06497575
98	0xbd8a0548	-0.067392886
99	0xbd370b56	-0.044688545
100	0xbc809d91	-0.015700134
101	0xbd8ed5b0	-0.069743514
102	0xbd5ba4e5	-0.053624053
103	0xbc9f837f	-0.019471882
104	0xbb9c9424	-0.004778402
105	0xbc41b79c	-0.011823561
106	0xbd8cb686	-0.06870751
107	0xbd055826	-0.032554768
108	0xbd5ee51c	-0.054417714
109	0xbcf41717	-0.029796166
110	0xbd886172	-0.06659211
111	0xbd50345d	-0.050831188
112	0xbd577a43	-0.052606832
113	0xbd7599a2	-0.05996097
114	0xbce7f509	-0.028315084
115	0xbd5b1976	-0.05349108
116	0xbd313feb	-0.043273848
117	0xbd3eaa6b	-0.046549242
118	0xbd3c0242	-0.04590059
119	0xbd257dba	-0.040403105
120	0xbd43bd18	-0.047787756
121	0xbd3cb3ac	-0.046069786
122	0xbd5570cf	-0.052109536
123	0xbd4aa784	-0.04947616
124	0xbcbfc3ff	-0.023408888
125	0xbcb4886e	-0.022037711
126	0xbd1ffe1d	-0.0390607
127	0xbd06a64e	-0.032873444
128	0xbd0c2492	-0.034214564
129	0xbd950b6c	-0.07277569
130	0xbcbb41d5	-0.02285854
131	0xbcddf32c	-0.027093492
132	0xbd2f324c	-0.042772576
133	0xbcb6ddd8	-0.02232258
134	0xbd3dd1e6	-0.046342753
135	0xbca83cab	-0.020536741
136	0xbd0351a7	-0.03206029
137	0xbcadd0af	-0.021217672
138	0xbd85630e	-0.06513034
139	0xbd66c45b	-0.056339603
140	0xbcb245de	-0.02176183
141	0xbd628c67	-0.05530968
142	0xbd843b59	-0.06456632
143	0xbc8e7ee0	-0.017394483
144	0xbd1213d8	-0.035663456
145	0xbc479238	-0.012180857
146	0xbd66541f	-0.056232568
147	0xbc232b82	-0.009959104
148	0xbd5712d0	-0.052508175
149	0xbcd3fe2b	-0.025878033
150	0xbd710303	-0.058840763
151	0xbd4cb8e0	-0.049980998
152	0xbd004f77	-0.031325784
153	0xbd1bc0d7	-0.038025703
154	0xbd5e4c8c	-0.05427222
155	0xbd247029	-0.040146027
156	0xbd48b7df	-0.04900348
157	0xbd3cd408	-0.046100646
158	0xbce2be05	-0.027678499
159	0xbd2fcbe3	-0.04291905
160	0xbd606df0	-0.054792345
161	0xbd3f49be	-0.046701185
162	0xbd4694b9	-0.048481677
163	0xbd8c89a7	-0.068621926
164	0xbc0b2039	-0.008491569
165	0xbd79ec07	-0.06101611
166	0xbc9153f0	-0.01774022
167	0xbd340c9c	-0.043957338
168	0xbcdb3d63	-0.02676267
169	0xbadb6591	-0.0016738643
170	0xbceca49a	-0.028887082
171	0xbd3d7d70	-0.046262205
172	0xbc5f268f	-0.013620033
173	0xbd1fe99b	-0.039041143
174	0xbd0e7a4e	-0.034784608
175	0xbdb46180	-0.08807659
176	0xbd47dcfd	-0.048794735
177	0xbd1c3bda	-0.038143016
178	0xbcd48d31	-0.025946232
179	0xbd728200	-0.05920601
180	0xbd32e803	-0.043678295
181	0xbd2e4b77	-0.042552438
182	0xbd0b0803	-0.033943187
183	0xbcb0d411	-0.021585496
184	0xbd8937d7	-0.06700104
185	0xbcb39233	-0.0219203
186	0xbd628cc3	-0.055310022
187	0xbce29c5e	-0.027662452
188	0xbd968e3d	-0.073513485
189	0xbcda0afd	-0.026616568
190	0xbd544171	-0.051820222
191	0xbcf6a0b1	-0.03010592
192	0xbd506bbd	-0.050883997
193	0x3c4e82ef	0.012604459
194	0xbd2638b8	-0.040581435
195	0xbb7238c6	-0.003696011
196	0xbd31fa88	-0.043451816
197	0xbcd18554	-0.025576271
198	0xbcc0ba01	-0.023526194
199	0xbcb732ed	-0.02236315
200	0xbd0d1e47	-0.034452703
201	0xbc86e519	-0.016466664
202	0xbcb55d7b	-0.022139302
203	0xbd22db29	-0.03975979
204	0xbca510b7	-0.020149572
205	0xbd140940	-0.036141634
206	0xbd5f2716	-0.054480635
207	0xbca46e81	-0.020072224
208	0xbd62cbf2	-0.05537028
209	0xbd4394a3	-0.047749173
210	0xbd19568d	-0.037436057
211	0xbd368c94	-0.04456766
212	0xbd0795da	-0.033101894
213	0xbd607fb5	-0.05480929
214	0xbce4650e	-0.027880218
215	0xbcdeb2bd	-0.027184838
216	0xbd30a007	-0.043121364
217	0xbd497320	-0.049182057
218	0xbd07d4c4	-0.033161893
219	0xbcc750e5	-0.024330566
220	0xbd54ef46	-0.051986
221	0xbd4265c9	-0.04746035
222	0xbd1dc449	-0.03851727
223	0xbd20fa2a	-0.039301075
224	0xbcff1052	-0.031135712
225	0xbd5704d3	-0.052494835
226	0xbd1ca5fa	-0.038244225
227	0xbd2084df	-0.039189216
228	0xbcd972ba	-0.026543964
229	0xbd42bb08	-0.04754165
230	0xbd3a7746	-0.045523904
231	0xbd081347	-0.03322151
232	0xbd3707cd	-0.044685174
233	0xbd43fff3	-0.047851514
234	0xbd3cb70b	-0.046073
235	0xbd2cf51b	-0.04222594
236	0xbcc653a5	-0.024209807
237	0xbd00819c	-0.031373605
238	0xbd44ed6d	-0.04807799
239	0xbcc78f00	-0.02436018
240	0xbd610058	-0.05493197
241	0xbd00a0d9	-0.031403396
242	0xbd7bc221	-0.061464433
243	0xbcfdf523	-0.03100068
244	0xbd35c10f	-0.04437357
245	0xbaa6cbb0	-0.0012725499
246	0xbd0f42de	-0.03497588
247	0xbd099386	-0.033587955
248	0xbd12ee74	-0.035871938
249	0xbccd217c	-0.02504038
250	0xbcb5e8be	-0.022205707
251	0xbd3e0460	-0.04639089
252	0xbc8d8b3a	-0.017278302
253	0xbcb50a37	-0.022099597
254	0xbb91f7de	-0.004454597
255	0xbc2395d9	-0.009984457
