Assets/Training/results/RUN4/SzitakotoBehavior/SzitakotoBehavior-4499984.onnx (onnx, 729012 bytes, 17 tensors)

85 f4 [14]
00000000: f326 f739 0ae6 243e f326 f739 ed09 243e
00000010: f326 f739 4eba 273e f326 f739 996f 263e
00000020: f326 f739 e357 2a3e f326 f739 28c7 283e
00000030: f326 f739 27c7 283e
0.0004714053 0.16103378 0.0004714053 0.16019411 0.0004714053 0.16379663 0.0004714053 0.16253509
0.0004714053 0.16635089 0.0004714053 0.16482222 0.0004714053 0.1648222

88 f4 [42]
00000000: fd63 c33a 4611 983e cba9 063b 597e 983e
00000010: 78a9 063b fe2d 973e cf92 0d3b 6c7d 983e
00000020: 78a9 063b d0e5 953e 5f29 0a3b 0a0b 983e
00000030: 0c29 0a3b 279f 943e fd63 c33a 552b 973e
00000040: cba9 063b 7198 973e 78a9 063b 9347 963e
00000050: cf92 0d3b 6b94 973e 78a9 063b a2fc 943e
00000060: 5f29 0a3b 5120 973e 0c29 0a3b afaf 933e
00000070: fd63 c33a be40 963e cba9 063b 88ac 963e
00000080: 78a9 063b f658 953e cf92 0d3b 8da5 963e
00000090: 78a9 063b 7d0a 943e 5f29 0a3b 872e 963e
000000a0: 0c29 0a3b 42b7 923e
0.0014907118 0.2970068 0.0020547982 0.29783896 0.0020547789 0.29527277 0.0021602397 0.2978319
0.0020547789 0.29276896 0.0021081788 0.29695922 0.0021081595 0.29027674 0.0014907118 0.29525247
0.0020547982 0.2960849 0.0020547789 0.29351482 0.0021602397 0.2960542 0.0020547789 0.29098994
0.0021081788 0.29516843 0.0021081595 0.28844973 0.0014907118 0.2934627 0.0020547982 0.29428506
0.0020547789 0.29169434 0.0021602397 0.2942318 0.0020547789 0.28914252 0.0021081788 0.29332373
0.0021081595 0.2865544

91 f4 [132]
00000000: 48fa be3e 43a7 ff3e 58c0 e93e 7266 813e
00000010: 7791 c33e d6dd ff3e b384 e93e 818b 803e
00000020: 5925 b23e 7138 ff3e aa92 ec3e 6e43 823e
00000030: 348d bb3e e15d ff3e 6c5a e93e 8692 7e3e
00000040: 3c3a a63e 4a44 ff3e a202 f13e eada 823e
00000050: 4df3 a73e 4c70 fc3e 2da2 e63e 85ab 783e
00000060: 2d68 9c3e 3a79 ff3e 23a1 f43e de8c 823e
00000070: abb8 8f3e ee06 f73e a2b8 e33e e461 723e
00000080: 116d 8f3e cea9 ff3e f829 f83e 89eb 813e
00000090: f21f 6b3e ffc9 f63e d8af ea3e a083 743e
000000a0: eef8 7e3e 07d2 ff3e 0039 fb3e e22b 813e
000000b0: ed4f bf3e 9793 ff3e f527 ea3e 3375 7e3e
000000c0: eaf1 c33e b9ce ff3e 3deb e93e 05a8 7c3e
000000d0: 5187 b23e 341a ff3e 2f05 ed3e 0506 803e
000000e0: 5fef bb3e a147 ff3e 1dbe e93e 392a 7a3e
000000f0: ec87 a63e 642b ff3e 4a64 f13e 8e84 803e
00000100: e86b a83e e028 fc3e fe11 e73e 9f1d 743e
00000110: 85b2 9c3e 0563 ff3e 79f7 f43e 3219 803e
00000120: 9930 903e 3e93 f63e f825 e43e 8799 6d3e
00000130: a5b0 8f3e 2d97 ff3e 937a f83e 4bb1 7e3e
00000140: 8b32 6c3e 2b53 f63e 7116 eb3e d691 6f3e
00000150: 777b 7f3e 04c2 ff3e 5a75 fb3e 2ce4 7c3e
00000160: 87b5 bf3e 9680 ff3e 5b9c ea3e dee4 793e
00000170: 2e57 c43e e4bd ff3e d05c ea3e 3926 783e
00000180: afec b23e f9fb fe3e 3f63 ed3e e85d 7b3e
00000190: 0861 bc3e a328 ff3e 752b ea3e 0793 753e
000001a0: 96da a63e 0408 ff3e 37c8 f13e 072d 7c3e
000001b0: b2d9 a83e 42e0 fb3e 5a7f e73e 7f5c 6f3e
000001c0: 1d08 9d3e 4940 ff3e eb45 f53e 2917 7b3e
000001d0: 34ad 903e d820 f63e 969f e43e 3ab8 683e
000001e0: 3dfa 8f3e f97c ff3e 7bc1 f83e 8d5a 793e
000001f0: 9c2f 6d3e 3ce0 f53e d27d eb3e 306a 6a3e
00000200: 7d03 803e 7eb2 ff3e a3af fb3e 9743 773e
0.37300324 0.49932298 0.4565456 0.25273472 0.38196918 0.49973935 0.45609054 0.25106433
0.3479412 0.4984775 0.46205646 0.2544207 0.36631167 0.4987631 0.455768 0.24860582
0.32466304 0.49856788 0.4707232 0.25557643 0.3280281 0.49304426 0.45045605 0.2428418
0.3054823 0.49897176 0.47779188 0.25498098 0.28070578 0.48247474 0.444768 0.23670155
0.280129 0.49934238 0.4846952 0.25375012 0.22961405 0.48200986 0.45837283 0.23878336
0.24899647 0.49964926 0.49066925 0.25228792 0.37365666 0.4991729 0.4573361 0.24849395
0.38270503 0.49962404 0.45687285 0.2467347 0.34868863 0.4982468 0.46293017 0.25004593
0.36706063 0.49859336 0.45652857 0.24430169 0.32525575 0.49837792 0.47146827 0.2510113
0.32894826 0.49249935 0.45130914 0.23839425 0.3060495 0.49880233 0.47845057 0.25019222
0.28162077 0.48159212 0.44560218 0.23203097 0.28064457 0.49920025 0.48531017 0.2487232
0.23066156 0.48110327 0.4591556 0.23395476 0.24949442 0.4995271 0.4911297 0.24696416
0.37443182 0.4990279 0.45822415 0.24403712 0.38347763 0.49949563 0.45773935 0.24233331
0.349462 0.49801615 0.4636478 0.24547541 0.3679278 0.4983569 0.4573628 0.23981868
0.32588643 0.49810803 0.47223064 0.24626552 0.32978588 0.49194533 0.4521435 0.23375128
0.30670252 0.49853733 0.47904906 0.24520554 0.28257143 0.48071933 0.44653004 0.22726527
0.28120604 0.49900034 0.48585114 0.24350949 0.23162693 0.4802264 0.4599443 0.2289207
0.2500266 0.49940866 0.49157438 0.24146877

94 f4 [2]
00000000: af87 7a3e adac a23e
0.24465822 0.31772366

action_model._continuous_distribution.log_sigma f4 [1, 2]
00000000: 7c24 babe 4660 45be
-0.3635596 -0.19275007

action_model._continuous_distribution.mu.bias f4 [2]
00000000: 20c5 a3bb 4b3a babc
-0.0049978644 -0.022732874

action_model._continuous_distribution.mu.weight f4 [2, 256]
00000000: 69ba 603d 2e0d 803c d147 a0bb 0546 53bb
00000010: 98ee 4c3b abe8 5e3c d1c0 12bd c368 eeba
00000020: 7e0d 323a fdde 9fbd eea7 0a3b 98dc 983b
00000030: e497 24bc e12f ca3b fc0e dfbc 4454 c83c
00000040: a618 323b c1ee 173c 5668 f43b fc32 f43b
00000050: b8bf 583b ba49 07bb d8e4 a23b b24d 823b
00000060: 1a57 c7bb 4fc8 433c 1269 73bb c577 293b
00000070: 142e 8f3b ee2c 3c39 868d d93a 7f02 2b3b
00000080: ccd5 06bb 8700 febb aacf 66bc ea30 8b3a
00000090: 29ca 8fbd efc1 22bb fb3a 65bb 8199 faba
000000a0: c70f 063b d225 3b3d cbb2 e43c 3992 b13c
000000b0: 7fff 0dbc 7f1b 853a 992b af3b 52ab 9c3b
000000c0: 593a 073c e408 1abc 58de a93c 2d39 3e3b
000000d0: cc9b d23c d402 ea3b 2ece bb3b fd47 e0ba
000000e0: 8554 913b 154a 37ba a1cc 09ba 69e6 883a
000000f0: 7d7b f83a 480f 1ebc 9317 31ba fd69 9cbb
00000100: ed52 73bb 7469 7c3c b8e9 b6ba 0b0b 733c
00000110: 1835 2638 9004 f13a 21d9 673c fbae f83a
00000120: 8b34 473c 92b9 0e3c 03a1 8eba c466 b6b9
00000130: 38d1 9ebb f33a c43b 5035 4b3c 1a32 58bb
00000140: 8ad1 dc39 fe55 08bd aae1 693c 3f84 913b
00000150: 6721 0dbb 00e4 e9ba 6072 81bc 7c68 abbb
00000160: 5d75 843c af1b c9ba 1a11 95bc d474 533c
00000170: 7b15 a2ba 4547 613c c966 2ebb 7d5a 0d3c
00000180: 9476 013d 12b9 21bb 22dd 07bc aed7 91bb
00000190: 4030 14ba 47ad c33c 2679 983a 8c6b 80bc
000001a0: 2430 693d 5fa3 4f3c 2d52 48bb 16c5 89bb
000001b0: 2f6d 79bc d2f5 1c3c d260 90bb 3ead 7a3b
000001c0: 9725 a3ba 5157 fabb eb91 b33a 2e2c 1abc
000001d0: 38cc f53a 1798 ce3b 62f1 793b 6fef d13c
000001e0: 28b8 4d3c 1ac0 053b 93d3 c23a f659 8dbb
000001f0: 73db 4e3a 1680 c03c 14ae e83b 8031 a23b
00000200: f169 a2bc 4ddf 97bc 5ab2 9c3c 3900 0a3a
00000210: d56e 8a3c 9bf0 053b c720 933a fa8a c73b
00000220: dd60 e5bb f535 da3a 001f 93bb 5f24 0abc
00000230: 82fc cdba 5490 e63b db1a 5fbc 4104 1e3d
00000240: 9cb5 dbbb 2e5e 183d 8062 973b 3592 7eba
00000250: c567 21bc 0111 29bb d536 033b f73d 033c
00000260: c006 113b f7ca 863c d4ab a73b 29af 49ba
00000270: 0f64 493b 2dbc 833b f220 cb3a 313f f2bb
00000280: 0acd 023b ed0e 80bb 2175 61bc 9db5 8437
00000290: 5b15 8c3d 62c7 0bbb d685 2ebd ffc9 9d39
000002a0: f6c9 61b9 8b5e 823b 451b c23a 4bc7 643a
000002b0: 66b9 f33a 0281 3e3b 3427 13bc f168 313a
000002c0: 5544 03bb f141 68bb d031 45bb cb10 213b
000002d0: 614e 6a3c 9f18 413c 89ff 803b b927 48bb
000002e0: 0c32 2cbc 648b 2938 1d82 68bc b25a 2c3b
000002f0: 8f7e bcbb c665 c139 58b8 8d3b ac2b 923b
00000300: 2510 a2bb 861a 42bc 9e48 f1ba 7908 0d3d
00000310: a3f5 b4bc f4bd 773b dad2 323c bd02 813b
00000320: b0b3 263c 1747 753b 1110 9cbb 2c18 8039
00000330: 0072 8e3c 844d a1ba 514f 45bb 6367 04bc
00000340: 7026 b9bb ae05 bf3c e723 e3ba e3d4 e1bb
00000350: b18c bbbc 2588 82bc 7131 d43b b53e f03b
00000360: 0472 443c d0e3 3c3c c837 213c 650f f039
00000370: a709 6e3a b71b 8abc ba05 783b 4204 0d3c
00000380: 11df c73b 17b2 25bc 49ca 52bb d747 6e3c
00000390: 92c8 b43c bf78 80bc cccd 94ba 6128 01bb
000003a0: 422d 54ba 5e24 6f3c 5292 a3bb 458c 86ba
000003b0: 9e0c 1fbd 66ee ba3a bba4 08bc d8f8 fe3a
000003c0: 53e5 05bb 95e4 abbc f85c 4dbb 15c3 543c
000003d0: 927a 20bb 5ade 2c3d 7aed e9bb b81c 0b3b
000003e0: ccd9 da3b 296a 423c 8bd8 55ba ee9d f73a
000003f0: 08b9 07bb 4a01 d33b 8c31 8bbd 849d ba3c
0.054865275 0.015631285 -0.0048913737 -0.003223778 0.0031270143 0.013605277 -0.035828415 -0.001818918
0.00067921716 -0.078062035 0.0021157223 0.0046649687 -0.010045979 0.0061702584 -0.027228825 0.024454243
0.0027175336 0.009273232 0.007458727 0.007452367 0.0033073258 -0.002064331 0.004971128 0.003976547
-0.0060833814 0.011949613 -0.0037141484 0.0025858742 0.0043695066 0.00017945815 0.0016597963 0.0026094017
-0.002057421 -0.0077515277 -0.014087597 0.0010619436 -0.07020981 -0.0024834832 -0.0034977782 -0.0019119234
0.0020456181 0.045690365 0.027917286 0.02167617 -0.008666872 0.0010155289 0.0053457734 0.004781165
0.008253657 -0.009401534 0.020735905 0.0029025779 0.025709055 0.0071414504 0.0057313656 -0.0017111298
0.0044351243 -0.0006991935 -0.00052566273 0.0010444644 0.0018957701 -0.009647198 -0.0006755527 -0.004773377
-0.0037128285 0.015406001 -0.0013955152 0.014834176 3.962693e-05 0.00183882 0.014150889 0.0018973047
0.012158523 0.008711236 -0.0010881725 -0.00034790311 -0.004846718 0.0059884726 0.012402847 -0.0032988847
0.0004211779 -0.033285134 0.014274994 0.004440814 -0.0021534802 -0.0017844439 -0.015801609 -0.0052309614
0.016169244 -0.0015343333 -0.018196631 0.012906272 -0.0012366021 0.013749902 -0.0026611558 0.008627531
0.031607226 -0.002467696 -0.008292468 -0.00445076 -0.0005652942 0.023886336 0.0011632785 -0.015676282
0.056930676 0.012673228 -0.0030566559 -0.0042044027 -0.015223785 0.0095800925 -0.004406073 0.0038250233
-0.0012447116 -0.0076398035 0.0013700103 -0.009409947 0.0018752879 0.0063047516 0.003813826 0.025626866
0.012556113 0.002040869 0.001486408 -0.0043137027 0.0007890977 0.023498576 0.00710083 0.0049497485
-0.019825907 -0.018539095 0.019128013 0.00052643154 0.016898552 0.0020437601 0.0011224978 0.0060895653
-0.0070000724 0.001664816 -0.0044897795 -0.008431523 -0.0015715512 0.007036248 -0.013617243 0.038578276
-0.006704999 0.03719919 0.0046198964 -0.00097111176 -0.009851401 -0.0025797489 0.0020021696 0.008010379
0.0022129267 0.016454203 0.005116919 -0.00076936424 0.0030729806 0.004020235 0.0015497489 -0.007392787
0.0019958639 -0.0039080293 -0.013760836 1.5820196e-05 0.06840011 -0.0021328558 -0.042608105 0.00030095872
-0.00021532908 0.0039785556 0.0014809152 0.0008727207 0.0018594682 0.0029068594 -0.008981515 0.00067676516
-0.0020029743 -0.0035439695 -0.0030089505 0.002457666 0.014300914 0.011785655 0.003936712 -0.0030541255
-0.010509979 4.0422558e-05 -0.014191178 0.0026299176 -0.0057523916 0.00036887656 0.004324954 0.0044607725
-0.0049457722 -0.011847144 -0.0018408482 0.03443191 -0.022089785 0.003780243 0.010914529 0.003937094
0.010174677 0.0037426406 -0.0047626575 0.00024432072 0.017388344 -0.0012306427 -0.003010709 -0.00808129
-0.005650334 0.023318138 -0.0017329425 -0.006891833 -0.022894235 -0.01593406 0.0064756204 0.007331694
0.011990074 0.011528924 0.009839959 0.00045787837 0.0009080418 -0.016858919 0.003784521 0.008606972
0.0060995896 -0.010113261 -0.0032164028 0.014543495 0.022068296 -0.015682576 -0.0011352836 -0.0019707906
-0.0008093902 0.014596073 -0.004991808 -0.0010265192 -0.038830392 0.0014261722 -0.008340056 0.0019452823
-0.0020430877 -0.02098302 -0.0031335931 0.012985964 -0.002448712 0.04220424 -0.007138905 0.0021226835
0.0066787954 0.011866131 -0.00081575726 0.0018891671 -0.0020709652 0.0064393627 -0.0679656 0.022780187

network_body._body_endoder.seq_layers.0.bias f4 [256]
00000000: 27ec 88bd 9b81 7ebd 7ebe f93b 2ae4 0ebc
00000010: d9ac 4c3c 68e3 11bd a976 babc 8483 26bc
00000020: dc0b ccbb bab5 9ebd 265f 7d3c 587e f3bd
00000030: 21f2 d4bd 3086 39bd 9d5d 9abd 63d1 44bc
00000040: db72 eebc a111 e5bc 9473 54bd 6001 46bc
00000050: 1ffd 003d a1db 08bc d34d 82bd 883a c9bc
00000060: c47a 9cbd 64b8 1f3d 95a1 283c 7b04 333d
00000070: d57c 183c 1f7a b7bd e80a 39bd f082 85bd
00000080: 000e b9bc bd4c 1ebd 73a5 e9bc 9bd0 e13c
00000090: 6555 6fbd c3bc 04bd 76f5 5cbc 3b7f d5bc
000000a0: 4de9 0abd 811c 49bc cad9 41bd af91 9e3d
000000b0: 271b 4b3c 2954 dfbc d282 adbc f415 c9bc
000000c0: 5bf2 e3bc 5cb5 08bd 27fc c7bd 4842 e13b
000000d0: 4c04 61ba 0c77 533c 8587 a13c 5604 9cb9
000000e0: f04a 9fbd 226c 5dbd e2da b0bc 11d4 48bd
000000f0: f804 a2bd 8c60 cfbd 2e0c 38bd 9612 0dbe
00000100: 2bcf a53b 8570 98bd db20 5bbd 93e4 0abd
00000110: 0062 c4bc 9c1b 0fbe 2899 91bd 2f87 57bd
00000120: efa4 4dbd 036f 8dbc 9292 32bd ebcc 5bbd
00000130: d488 55bd 9e27 4bbd 2452 24bd 5848 87b8
00000140: f738 a9bd 7338 d0bc 3c1b 80bd 78be 29bc
00000150: 2b7d 07bd a552 6dbd ee8e 1ebd f0c4 f53c
00000160: e177 68bb afc7 99bd e7ac 91bd 9d10 48bd
00000170: ea52 acbd e5e8 82bd b740 58bc cdfb 93bd
00000180: 3722 a4bd a96e 89bd 8756 c7bd b931 62bd
00000190: 0905 b13c 1009 b5bd 2f92 90bd 5f1d dfbc
000001a0: a1f8 e2bc 478c 8bbc 8136 cebc b055 01bd
000001b0: 751a 25bd a88d 49bc 274e ec3c 63a8 2fbd
000001c0: 1d65 6a3c 8b11 0dbd d09e bcbb 6e7d 1cbd
000001d0: c319 b3bd 96cf 58bd 92a8 97bd 0070 dabb
000001e0: 9d4e 2cbd 039b a7bd f3a5 d5bd c82b 4f3d
000001f0: ddb1 38bd a1b2 81bd 3d1c eebb 34dd f9bc
00000200: 7060 6b3c 3b88 e0bc 3902 82bd d71e e7bb
00000210: de02 4bbd 10b2 29bc 832f 2b3d 14e7 f7bb
00000220: da12 0ebd 5e76 fcbb 94fa 033b 3129 44bd
00000230: b6ca d5bd 1d79 07bd a8b4 47bd 0cfd 11bd
00000240: 96db d3bd eb7e a8bd a02e edbb 934e 22bd
00000250: ffc6 a4bd c7d0 9b3b 09ed 88bd 98d8 c53c
00000260: b28d f2bb 91bd 8cbd 36a8 0a3c b186 7ebd
00000270: 5c4c abbb 916f 7fbc 9da5 dcbc db2a 8fbd
00000280: 848b 7abd a7aa d2bd 27c5 77bd 7f10 a9bc
00000290: 10a9 c5bd e0b9 1dbb d99c 92bd 294b a1bd
000002a0: aa27 10bd ce6e 6fbd da32 51bd fba6 40bd
000002b0: e79c fabd ec04 d5bd f427 c0bc a59c e1bd
000002c0: 06ab fcbc 9337 9abd d27b 4ebd 8c14 27bc
000002d0: 7bac 94bc 8c1a 7c3c d5bb b3bc 8db0 a7bd
000002e0: 4ed1 2abc ae37 1bbd 4789 edbc cd5a 8abd
000002f0: 6927 abbd a010 8bbd 0ffd afbd e36e 423c
00000300: c6d1 923c 587d 083d 7782 80bd 26be 96bd
00000310: a21c acbc f2d4 78bc 4d3d b4bd afc9 26bc
00000320: 56f3 ecbd de12 78bd ebcb b33c 62a3 ac3a
00000330: a93d c5bc 87f1 333d 44f6 e5bd f114 9abc
00000340: 31b6 d4bc aedb 8abd b37f 213b 33be 0bbd
00000350: c99e 9ebd 7d31 92bc 5343 44bd f962 c3bd
00000360: 0066 34bc 312e 55bd 3d86 6ebd cdc3 24bd
00000370: 641e 343d d1ca a8bd c6c2 b3bc 968e 35bc
00000380: 2310 88bd 51cf 96bc 6038 d0bc 2b42 87bd
00000390: 43c5 afbd 9003 3cbd 62c8 1ebd 04a3 ccbd
000003a0: 46b4 f0bc 3ce5 8dbd e456 e139 f432 d9bd
000003b0: b3bb 00bd 8f95 4cbd acf5 23be f98a 97bb
000003c0: ba67 a3bc e237 d8bc f248 3ebd 2013 86bb
000003d0: 1274 29bd 976b f43c 6032 25bc 7f0b 55bc
000003e0: d4c1 d0bc 9679 b7bd c143 a5bd c423 c8bc
000003f0: 78cd 99bc 0399 c4bc 0eb6 29bd 1053 96bc
-0.066856675 -0.06213532 0.0076215854 -0.008721391 0.012492382 -0.035617262 -0.02276166 -0.010163192
-0.0062269997 -0.07749505 0.01546458 -0.118893325 -0.10397745 -0.045293987 -0.075373866 -0.012012812
-0.029107502 -0.027962508 -0.051868036 -0.012085289 0.031491395 -0.008353145 -0.063625 -0.024564043
-0.07640603 0.038994208 0.01029243 0.043705445 0.009307106 -0.089588396 -0.045176417 -0.06519115
-0.022589684 -0.038647402 -0.028521275 0.027565291 -0.058431048 -0.03240658 -0.013486257 -0.026061645
-0.0339139 -0.012274862 -0.04732684 0.07742631 0.01239661 -0.02726181 -0.021180544 -0.0245466
-0.027825525 -0.033376083 -0.09764891 0.0068743564 -0.0008583709 0.012906801 0.019717941 -0.0002975787
-0.07777965 -0.0540582 -0.021588746 -0.049030367 -0.07911104 -0.10125837 -0.04493349 -0.13776621
0.0050600967 -0.074433364 -0.05349813 -0.03390939 -0.023972511 -0.13975376 -0.0710929 -0.052619155
-0.05020612 -0.017264849 -0.04359681 -0.053662222 -0.052132443 -0.04959833 -0.040117398 -6.450777e-05
-0.08262818 -0.025417542 -0.062551945 -0.010360353 -0.033078354 -0.057940144 -0.038710527 0.030001134
-0.0035471844 -0.0750879 -0.07113057 -0.04884397 -0.08414252 -0.06392077 -0.013199023 -0.072257616
-0.080143385 -0.0671056 -0.09733301 -0.0552232 0.021608846 -0.08839619 -0.07059132 -0.027235685
-0.027706446 -0.017034663 -0.025172474 -0.03157586 -0.040308435 -0.01230184 0.02884586 -0.042885195
0.014306334 -0.03444056 -0.0057562366 -0.038205557 -0.08745148 -0.052932344 -0.07405199 -0.0066661835
-0.04206716 -0.08183863 -0.10432043 0.050578862 -0.0450915 -0.06332899 -0.00726655 -0.030500986
0.014366254 -0.02740871 -0.0634808 -0.007053237 -0.04956328 -0.010357395 0.041793358 -0.0075653885
-0.034685947 -0.00770454 0.002013837 -0.047890846 -0.10439055 -0.033074487 -0.04875627 -0.035641715
-0.10344617 -0.08227333 -0.007238224 -0.039625715 -0.08045768 0.004755113 -0.06685836 0.024151132
-0.0074021453 -0.068720944 0.008462956 -0.06214017 -0.0052276086 -0.015590564 -0.02693444 -0.06990596
-0.06116821 -0.102864556 -0.060490754 -0.020637749 -0.09651387 -0.002406709 -0.071588226 -0.07875664
-0.035194077 -0.05845528 -0.051073886 -0.047034245 -0.12236958 -0.104013294 -0.023456551 -0.11016206
-0.03084327 -0.07530131 -0.050411053 -0.01019777 -0.018148651 0.015387189 -0.021940151 -0.08187971
-0.010425879 -0.037894897 -0.028996123 -0.067556 -0.08357126 -0.0679028 -0.08593189 0.011867258
0.017922293 0.033322662 -0.06274884 -0.07360487 -0.021009747 -0.015187489 -0.08800755 -0.010179921
-0.1156985 -0.06056487 0.021947822 0.001317125 -0.024077253 0.04393151 -0.11228612 -0.018808814
-0.025965782 -0.06780182 0.0024642765 -0.034116935 -0.077451296 -0.017845863 -0.047915768 -0.09540362
-0.011010647 -0.052046005 -0.05823349 -0.040225793 0.043974295 -0.08241809 -0.021943461 -0.011081358
-0.06643703 -0.018409403 -0.025417507 -0.066044174 -0.085825466 -0.045901835 -0.03876532 -0.0999203
-0.029382836 -0.069284886 0.00042980083 -0.10605422 -0.031429004 -0.049947318 -0.16011685 -0.004624721
-0.019946922 -0.026393835 -0.046456285 -0.0040916353 -0.04137046 0.02983646 -0.010082811 -0.013003229
-0.02548305 -0.089587376 -0.08069564 -0.024431117 -0.018774733 -0.023998743 -0.041433387 -0.018350154

network_body._body_endoder.seq_layers.0.weight f4 [256, 190]
00000000: bb3f 47bc b91c 9abd a35e 9e3d cd8c 8d3d
00000010: 8f28 a13d 1609 003d 092f c6bd 516c 563e
00000020: e7cd 46bd 518f 783d 6596 8ebd 769d ef3d
00000030: 8d04 7abb 1477 b43d b79e fabd 32c1 783c
00000040: 602f 833d 9096 953d 5686 2c3d 5f06 a6bd
00000050: a827 60bb 7220 a13c c23e abbd e5e3 003d
00000060: b763 523d d7a1 b7bd d2e8 a5bd 47ba 2abc
00000070: 1abe 923d b795 a9bd 996f 393e 137b a13d
00000080: 23e8 083d 086c 87bd 9410 76bc 4a45 52bd
00000090: cec9 1c3d 3762 013d 5ea0 cd3d ef3b e9bd
000000a0: 7c2a 333d 0fb8 c8bc c78c 46bc f65d f43c
000000b0: e0e7 2abd 4dbb f3bd 0209 983d 5c57 803d
000000c0: b104 02bd 3cb7 dabc 77a2 e83d f9f5 b63d
000000d0: 9c89 85bd 4ec5 c2bd 9b2a 1d3e d54d b9bd
000000e0: c46e 42be 2712 333e dce2 58bd df2e 3ebd
000000f0: bc5a 97bd b629 a73d b14f 2c3e 5e33 19be
00000100: fbf7 90be a927 fd3d 9a5b 173d 7d6a f1bd
00000110: 8bcf 1cbe 7281 623d c68b c3ba f5a7 6ebd
00000120: ae75 d4bc 94e0 1a3d 8944 15be c961 763c
00000130: 2d52 5fbd a8dc 903c 23ee 013d 6a87 15bd
00000140: f66a 7abe 1ca5 c2bc 1dcf bd3d 5ae1 acbd
00000150: 5fe7 20be e18e e43d c19b 3abd 09cd d6bd
00000160: 394a 703c 05fb a43d 1bcc b43c 4171 b33d
00000170: f117 de3c bd5b 7bbb dbaa 09bc f470 d43b
00000180: 7a72 193e 1a19 87bd 9ad7 ad3d 2a58 82be
00000190: 0d06 ebbd 6932 cc3d 3295 313e b159 34bd
000001a0: 4014 98bd 3434 1b3e f0fd 01bd 4325 3bbd
000001b0: 50d8 54bd 0def 233d d164 3d3c b33a 26be
000001c0: db05 2a3d 92cd c23d e7d4 96bc 15a7 d3bd
000001d0: a093 bdbd 335f 2a3d 9949 f93a 9aa9 82bd
000001e0: cbaf 103e 5c79 243b 1ef2 e1bc a4cf 3d3d
000001f0: 5eee 763d 441d bf3d 4a4d 853d 8e43 073b
00000200: 9136 0abd 8ce1 a83d d7e9 a3bd 2c89 9b3d
00000210: ca60 abbd c7b8 763c cf8a 9d3b 71fb ddbd
00000220: c133 14bd c6e7 1e3e 4b98 9bbc 8814 f0bc
00000230: b816 9a3d 7629 843c fa79 91bd 20a0 173d
00000240: 66fa 90bd 03af 5a3e 5be3 143e 4a10 05be
00000250: c832 c1bd ae39 d63d aa31 68bd 307e e0bd
00000260: 83dc 63bd f40c 163c 5830 143d ef6a f9bc
00000270: a3af 7bbd 40cd bcbc 16ec 113e f018 59bc
00000280: d3f5 c6bc e1ed bd3d b5dd f73c c57f 653d
00000290: df6e 8ebc 9df2 303d 28f0 a83d 5cfe 53bc
000002a0: f5a1 8dbc 188e fabd f7cb c93d 4fdd 733c
000002b0: d5be 7d3d 08d6 00be 47b3 d33d 729e 4dbd
000002c0: b2f4 703d 0fb1 733b 2cb6 6a3b a403 8fbd
000002d0: e6c8 4f3e 1c89 593d b3b7 793c 5953 d5bd
000002e0: 2a84 db3b 04c2 30be 1893 c73d 864d 1d3e
000002f0: fd7c 813d ca40 e1bd 314c 73bc 4648 f53c
00000300: 3803 06be 8bf3 90bc 1604 8cbd f9a3 193e
00000310: a9d5 d73d 13f0 68bd 7204 603d 0dfe d6bd
00000320: 6346 853d b953 8d3d 7c3e ecbd 398a 233e
00000330: a572 86bd 6f0e 31bc a420 563e de0b cb3d
00000340: 7bb6 e4bc 669d f4bc 167a a93d cae9 b33d
00000350: 09cb 15bd 4d16 ecbd 94ab 83bc 257e 173d
00000360: 8b23 513d d1c1 d1bc 331f f73d ea83 423c
00000370: 3115 0b3e 0ece 553e da85 62bd 40b0 253d
00000380: ac73 1d3e a8ad f93c d581 123d c083 2b3d
00000390: b65c 5f3e d480 ac3c 4594 f33d c5f3 88bd
000003a0: ea09 693e a298 703c 7580 8fbc a30c 803d
000003b0: c838 28bd 385e e43d 19a4 d5bd cb7b 0dbe
000003c0: 5b62 eb3c 3cf1 983d cccf ebbc d10a 29bd
000003d0: 5481 2d3e 130c 0fbd 3b39 7abe 1cf5 0f3b
000003e0: 8c56 163e 0ee3 c23d f439 c0bd 6f87 993d
000003f0: 707c 973d 336a 8cbc 9838 933d 5b2a 163c
-0.012161191 -0.0752501 0.07732894 0.06911621 0.07869064 0.031258665 -0.0967694 0.20939757
-0.048536208 0.060683552 -0.06962279 0.11699955 -0.0038149685 0.08811775 -0.12237304 0.01518278
0.064055204 0.07304108 0.0421203 -0.08106684 -0.0034203324 0.019668791 -0.083615795 0.031467337
0.051364627 -0.089664154 -0.081010476 -0.010420389 0.07165165 -0.08280509 0.18108977 0.07884803
0.033424508 -0.06612402 -0.015018601 -0.05133561 0.038278393 0.031587806 0.10040353 -0.113883846
0.043741688 -0.024501828 -0.012118525 0.02982996 -0.04172504 -0.11900959 0.07423593 0.062666625
-0.031742755 -0.026698701 0.11359113 0.08933634 -0.065203875 -0.09510289 0.15348284 -0.090480484
-0.18987566 0.17487393 -0.052950725 -0.04643142 -0.07390353 0.081622526 0.16827275 -0.14961001
-0.28314194 0.1236108 0.036952592 -0.11787889 -0.15313546 0.05529923 -0.0014918975 -0.058265645
-0.02593502 0.03781183 -0.14576925 0.015037962 -0.05452173 0.017683342 0.031721245 -0.036506094
-0.24454865 -0.02376037 0.09268019 -0.0844142 -0.15713261 0.111600645 -0.045558695 -0.10488326
0.014666134 0.08055691 0.022069981 0.08761836 0.027111026 -0.003835424 -0.0084025515 0.0064831916
0.14985076 -0.065965846 0.08488388 -0.2545789 -0.114757635 0.099705525 0.1734207 -0.04403085
-0.074257374 0.15156633 -0.031736314 -0.045689832 -0.051964104 0.0400229 0.011559681 -0.1623333
0.04150949 0.09511866 -0.018412067 -0.10334603 -0.09256673 0.041594695 0.0019019126 -0.06380005
0.1412956 0.002509675 -0.02758127 0.0463406 0.06028592 0.09331754 0.06508882 0.002063963
-0.033743445 0.08246145 -0.08003586 0.07594523 -0.083680704 0.015058703 0.004807807 -0.10838974
-0.03618217 0.15518102 -0.018993517 -0.029306665 0.075238645 0.016133051 -0.07103343 0.03701794
-0.0707901 0.21355824 0.14539854 -0.12994495 -0.09433514 0.1046022 -0.05668799 -0.10961568
-0.05563022 0.009158362 0.036178917 -0.030446498 -0.061446797 -0.02304709 0.14250216 -0.0132505745
-0.02428714 0.092738874 0.030257085 0.056030054 -0.017386852 0.043200124 0.08248931 -0.012939062
-0.017289141 -0.122341335 0.09853356 0.014884307 0.06194957 -0.12581646 0.10336929 -0.050199933
0.05882711 0.0037184393 0.003581415 -0.06983116 0.2029148 0.053109273 0.015241551 -0.10416288
0.006699105 -0.17261511 0.09744853 0.15361604 0.06322668 -0.10998686 -0.014849708 0.02994169
-0.13087165 -0.017694255 -0.06836717 0.15003957 0.10538799 -0.056869578 0.05469174 -0.10497675
0.06507566 0.069007345 -0.115353554 0.15970697 -0.065648355 -0.010806664 0.20910889 0.09914373
-0.027919045 -0.02986021 0.08275239 0.08784826 -0.036570583 -0.11527691 -0.016073026 0.036985535
0.051059287 -0.025605114 0.12066498 0.011872271 0.13582303 0.20879385 -0.055303432 0.04045129
0.15376157 0.030478314 0.03576835 0.041873693 0.2181271 0.021057524 0.118935145 -0.0668712
0.22757688 0.014684828 -0.017517308 0.0625241 -0.041069776 0.11150783 -0.1043169 -0.13816755
0.028733423 0.07467887 -0.028785609 -0.04127008 0.16943866 -0.034923624 -0.24435894 0.0021966165
0.14681453 0.095159635 -0.09386054 0.07496535 0.073967814 -0.017140483 0.07188529 0.009165372

network_body._body_endoder.seq_layers.2.bias f4 [256]
00000000: dc2d d0bc 99a1 17bd 007d a6bc 758d 4dbd
00000010: 2c9d 3ebd 740f 0cbc ad27 95bd c92d 5cbd
00000020: 890a 22bd c8e8 4cbd 740c 7dbd ef93 02bd
00000030: 27cf dabc 3a09 77bd 1516 10bd d8e7 8ebd
00000040: 5b9f 51bd 6dc1 8bbd f9c9 7dbc 5322 4dbc
00000050: 4533 d9bc 8be9 0cbd 179d 96bc 83fa 3bbd
00000060: b841 d2bc a716 abbc 95d6 eebc 5d92 22bd
00000070: d793 3abd c5ca c9bc ef27 84bc d9f7 bbbc
00000080: 5445 2bbd 4e99 87bc a8ff debc ee6a 95bd
00000090: db83 48bc 5ccf 55bd bf0a efbc f33d f2bc
000000a0: ea48 78bd 03ed 7ebd 9568 a4bd 6c51 f7bc
000000b0: 1ebd 25bd 1173 2abd 88b0 31bd 9953 f1bc
000000c0: cb2e 71bc 6419 22bd 7e08 10bc 2af2 7dbd
000000d0: 2c33 4ebd 184b 1cbd 956f 10bd 622d 9ebd
000000e0: bf04 bcbc 876f a5bd 7e73 47bd d352 8bbc
000000f0: c103 8ebd 941c 8bbd 3f20 4ebd e6a1 80bd
00000100: ca73 93bd d368 7bbd 325f 15bd 9ac8 a6bd
00000110: c26e 6bbd 645e 3ebd 28f8 61bc ed1f 72bd
00000120: d493 eebc db06 43bd c070 a5bc f7ac 3cbd
00000130: f1be 3ebd 08a9 55bd 80d2 2ebc b0ee 9dbd
00000140: 1e22 aa3b 086b 91bd 448d d3bc 9787 54bd
00000150: 29ad c3bd 70c8 b0bc 1d77 40bd 114b 31bd
00000160: 4aa7 f6bb adf8 9dbd 51e0 06bd 1bcf d0bd
00000170: db76 4dbd 2d61 4fbd c848 3dbd c1cc 11bd
00000180: eda5 63bd 7072 c7bc 1de2 f2bc 42d5 17bd
00000190: 0d17 69bd 44fb 4dbd 1c1c eabc dd82 60bd
000001a0: 3678 41bd 8585 86bd ae29 91bd ec54 74bd
000001b0: a506 46bd 992a 91bd 6320 8cbc 0f8f 95bd
000001c0: 16a6 58bd 48ab 5dbd acd2 31bd 85ef 1dbd
000001d0: e448 adbc 797d ccbc a77d 31bd 87ec a0bd
000001e0: 8ec8 cfbc 1124 45bd 1647 12bd e024 23bc
000001f0: a0b8 bfbd 9044 1dbd bfbe 653b 33a2 21bd
00000200: 06e8 8ebd 3cfc adbc 7251 b7bc 639c debc
00000210: bf99 59bd 1599 1dbd a59f a8bd 3a73 a9bc
00000220: ad98 85bd 9cd5 1bbd 06cb 1fbd eb22 24bb
00000230: 9626 19bd 7b90 26bc 5a0c 33bd 2f08 35bd
00000240: 9120 01bd 7595 7dbd 472a 71bd 9cd7 1ebc
00000250: 14a4 38bd 9459 bbbd f4a7 a8bd 5fe2 1cbd
00000260: 547e 46bd 3540 763c 7cdf 0ebd 96df 48bd
00000270: 1adc 68bc 6064 83bd 9fa3 44bd fd81 adbd
00000280: fb07 4bbd 629d 7dbd f0c1 5dbd 9cea 80bd
00000290: 045a 8bbd 5565 b9bc 82e2 273b 874a 87bd
000002a0: 42a2 2ebd 868c 3abd fe55 a7bd 5a58 0abc
000002b0: f397 0abd f0dc 0fbd d203 43bc ccf6 a8bc
000002c0: dca5 5ebd b77c babc efa5 dcbc 574a 30bd
000002d0: d4a8 92bd d1c8 22bd 7582 1ebd fff0 e6bc
000002e0: b215 b4bd fe22 41bd d5e7 b4bd eaba 01bd
000002f0: 393a 55bd 20d1 7bbc 0e42 cebc b627 86bd
00000300: f6ad 17bd 4138 6bbd 5c6e 45bd 0639 51bd
00000310: 62f4 89bc c622 463c 73b0 cfbc 0def 55bd
00000320: 8ac8 28bd 49dd 43bd 02d1 b2bd 8757 afbd
00000330: 336f 1dbd 2fda 2abd d1b4 40bd 4da0 67bd
00000340: 0ec9 2cbd e4f0 27bd 4885 e3bc f645 2bbd
00000350: 28bf 29bd 5473 a3bc ae9b f1bc f815 6bbd
00000360: 3427 58bd 0363 36bd a50e b2bc 15c2 8cbd
00000370: 3fb6 54bd 03be c3bc c2fd 80bd bfce 98bd
00000380: d273 1dbd 56b1 11bd 93f6 3bbd ea5c 34bd
00000390: 8f04 90bc 16cb f3bc cba3 e8bc 09f4 12bd
000003a0: 996c e1bc 17c1 20bd 5efd 9dbd 790d 6bbd
000003b0: 842b 2e3b e0df 8ebd eeb0 c6bc 2676 41bd
000003c0: 266d 48bd f5a6 2cbd e106 91bc c0c2 91bd
000003d0: 4195 45bd 4890 00bd 8b41 82bd ee23 46bd
000003e0: 3249 40bd 9135 78bd 2a23 c8bc 1755 11bd
000003f0: ebd8 6dbd 80e5 0cbd 2494 af3b 4d3a 94bc
-0.025412492 -0.037019346 -0.020323277 -0.050183732 -0.04653661 -0.008548606 -0.07282958 -0.0537546
-0.03956083 -0.050026685 -0.061779454 -0.03187936 -0.026710106 -0.060311534 -0.03517731 -0.069778144
-0.051177364 -0.068240024 -0.015490049 -0.012520391 -0.026513705 -0.03440241 -0.018385453 -0.045893203
-0.025666103 -0.020884825 -0.029155055 -0.039690364 -0.045551147 -0.02463282 -0.016132323 -0.022945331
-0.041814163 -0.016552594 -0.027221516 -0.07295786 -0.012238468 -0.052199706 -0.029179929 -0.029570555
-0.06061641 -0.06223775 -0.0802776 -0.030190192 -0.04046356 -0.041613642 -0.043381244 -0.029458808
-0.014720629 -0.039574996 -0.008791087 -0.061998524 -0.05034177 -0.038157552 -0.035262663 -0.077235
-0.022951482 -0.08077913 -0.048694126 -0.017007267 -0.0693431 -0.0679256 -0.05032372 -0.0628088
-0.071998194 -0.061379265 -0.03646774 -0.081437305 -0.057478674 -0.046476737 -0.013792075 -0.059112478
-0.029123224 -0.04761396 -0.020195365 -0.04606339 -0.046568815 -0.052163154 -0.010670304 -0.07711542
0.0051920554 -0.07100493 -0.025824197 -0.05188712 -0.09554512 -0.021579951 -0.046988595 -0.04328448
-0.0075272666 -0.07713447 -0.03292877 -0.10195752 -0.050162178 -0.050629783 -0.046211988 -0.03559566
-0.05557816 -0.02434656 -0.029648835 -0.037068613 -0.05690675 -0.050288454 -0.028577857 -0.0548123
-0.047233783 -0.065684356 -0.07088028 -0.0596513 -0.04834618 -0.07088203 -0.017105287 -0.07302677
-0.052892767 -0.054118425 -0.043413803 -0.0385585 -0.021152921 -0.024962174 -0.043332722 -0.07857614
-0.025364187 -0.0481301 -0.035712324 -0.009957522 -0.09361386 -0.038395464 0.003505632 -0.039461326
-0.06977849 -0.021238439 -0.022377703 -0.02717418 -0.05312514 -0.03847607 -0.08233575 -0.020684827
-0.06523261 -0.03804551 -0.039011978 -0.0025045227 -0.037390314 -0.010166283 -0.04371295 -0.044197258
-0.0315252 -0.06191011 -0.05887821 -0.00969496 -0.045078352 -0.09147945 -0.082351595 -0.03830182
-0.04846032 0.015029957 -0.0348811 -0.049041353 -0.014212633 -0.064156294 -0.048007604 -0.08472059
-0.049568158 -0.06191767 -0.05414003 -0.06294748 -0.068042785 -0.022631327 0.0025617187 -0.06606012
-0.04263521 -0.04554417 -0.081706986 -0.008443916 -0.033836316 -0.03512281 -0.011902766 -0.020625494
-0.054357395 -0.022764547 -0.026934592 -0.043039646 -0.07161108 -0.039742295 -0.038698632 -0.028191088
-0.087932006 -0.04715251 -0.08833281 -0.031672396 -0.05205748 -0.0153696835 -0.025177982 -0.06550543
-0.037031136 -0.057426695 -0.04820095 -0.051079772 -0.016840164 0.012093252 -0.025352692 -0.05222993
-0.041206874 -0.047818456 -0.08731271 -0.085616164 -0.038436126 -0.041711982 -0.04704744 -0.05654936
-0.04218393 -0.041001216 -0.027773514 -0.041814767 -0.041442066 -0.019952454 -0.02949318 -0.057393998
-0.052771762 -0.04452802 -0.021735499 -0.06872956 -0.051931616 -0.023894316 -0.062984005 -0.07461309
-0.038440533 -0.03556951 -0.04588945 -0.044033922 -0.017580299 -0.029759925 -0.028398415 -0.03587726
-0.027517604 -0.039246645 -0.077143416 -0.057385895 0.002657623 -0.069762945 -0.024254289 -0.047231816
-0.048932217 -0.04215141 -0.017703475 -0.07117224 -0.048238043 -0.031387597 -0.063601576 -0.04837411
-0.046944804 -0.06059796 -0.02443083 -0.03548154 -0.058068197 -0.034398556 0.005358236 -0.018094206

network_body._body_endoder.seq_layers.2.weight f4 [256, 256]
00000000: 17e8 4e3d 99be 5a3d 34a6 6fbd 5c7c 70bc
00000010: 84a8 0dbe 8b47 f6bb e4b4 13be 9029 9f3d
00000020: 1a2f a8bd 1d01 69bd d90d 1fbd afa9 63bd
00000030: 12b9 8a3c ce35 ec3d a6c2 2cbe 831b c43c
00000040: 0bd0 c53c 9729 8a3d f67c 20bd ab51 a6bd
00000050: e854 9d3d 2558 1fbc 51bd 83bd 932f 18be
00000060: c070 a2bd 34ac 743c 4e89 0fbc 68cf 513e
00000070: 52e2 ad3d 8f6c ee3c 69cb 64bd 3895 0d3d
00000080: f580 60bd be8b 5ebd 6d42 2a3e 6b73 613d
00000090: cdf3 d83d 4f49 e33c 97c4 d5bb 1ea3 35bd
000000a0: 57de 043d 25fa 07bd 0085 583d f699 6bbc
000000b0: 34a9 913c af18 373d a95b fcbd ffd4 75bd
000000c0: 82ba 6dbd 6cd9 d23d 8050 a03d cf98 1ebd
000000d0: c50a d1bd c262 bb3d a3cf 213d 6215 ec3b
000000e0: e5a3 80bd a616 98ba 4607 e3bb ecf0 61ba
000000f0: 4e41 ffbc 9b08 d6bd fbab 313e dc3d 2a3d
00000100: 3acc 0f3d fe36 97bd 7216 8a3e b3d8 dfbc
00000110: 1842 17bc def2 81bd 08c0 433c 3510 3d3d
00000120: cb19 14be d121 33bd 208a ccbd 912f 9a3d
00000130: 8b32 043d 7fcd 3c3d 79dc 82bd 51dc 3fbd
00000140: f437 6d3d 5c76 a93c 42b2 b7bd ffb0 a23d
00000150: 0a69 41bc 2560 cdbc 62f4 f7bc a880 aa3d
00000160: d514 a73d 7560 de3c c9f7 563d f711 283c
00000170: 13d9 12bd 7b79 efbd d9b9 693d e78d b7bd
00000180: 18f6 e5bd b4b5 99bc 9254 1b3c f1a9 e3bc
00000190: f11c 82bd 5b06 b33b aa10 f23c 24d1 a3bd
000001a0: 8a1a f2bd 281b 4dbd c9e4 cebb 11f7 b63d
000001b0: f2d0 a2bc 5c1c 013e 1026 b23d bcc6 5abd
000001c0: 2ff0 aabc 4664 4fbc 6550 a0bd 1d2b b4bd
000001d0: 5afe 5f3d ade6 a93d baa6 e23d 5a89 1ebe
000001e0: 6ee9 88bd 0417 88bc 19d5 49be 74ab 07be
000001f0: d3d8 68bd f292 073e d301 df3c 5cd1 67bb
00000200: 8299 0fbe 7ff8 0ebe 4691 94bb baac 623d
00000210: 8cfd 09be ab10 94bd 880c 8cbd 8d7e 87bb
00000220: fe6b d43d a974 85bd f24b 0e3e 324f af3c
00000230: 3602 b1bd 8811 b5bc 1ab2 55be e843 a33d
00000240: 3f93 3fbd 86c5 afbb 6c47 403d b2d7 c0ba
00000250: 316a 7a3d 2069 1fbe 9a22 2ebd 5c53 9abd
00000260: 6d26 aa3c 072a 563d a5d9 0dbd 068b 7dbd
00000270: f0f6 f6bc 32c7 94bd 2aa8 98bd 5ed8 24bd
00000280: f799 953d 9b10 8bbd 848c 2bbe bf2b a7bc
00000290: 366c 8dbd f161 0e3e e67d 9e3d fbf2 47bd
000002a0: 0446 a6bd da5f e0bd f697 1dbe 8571 6bbd
000002b0: d265 afbc 5350 273d 3a68 53bd f854 4b3d
000002c0: fc7f 84bd d30e ea3d ce5c 7a3c 28b0 483e
000002d0: b58c a3bd c711 97bd d010 ae3d b30b ed3d
000002e0: 56a0 d5bd ac82 e33d d3c8 3cbc 1d46 c7bc
000002f0: 14e4 e23c a56b d83d 434c 89bd 8614 053d
00000300: fd07 0b3e 2410 593d 26b7 c83c 74dc 2fbd
00000310: 38de 843c 515f 803b e104 2b3e 3ff9 0dbd
00000320: 90c0 993b 718c 39be cf9d 6cbe 2d38 18bb
00000330: 9990 a53c ec58 d93d bc96 683d 4236 87bc
00000340: 0e7a bfbc a51b f1bd c6b6 123e 4cae fabc
00000350: 807b 043d 6673 253c d50e 89bd f108 98bc
00000360: a5ad 293d 1344 2abd 0f86 053e 2d0f 083d
00000370: fbe0 bd3c f4a6 c4bd 2171 a4bd 2820 853d
00000380: b36b 3c3d e86e 9e3d cfff 5fbd 7582 b9bd
00000390: 8104 72bd dcc2 9fbc e776 97bd 3f6b 723d
000003a0: cff3 8abd 13a6 43be 9c77 9fbd 2239 993d
000003b0: 88b6 843d d84b 02be 86aa e53d 64e1 0ebe
000003c0: 1775 bbbd 5326 233d 4219 69bd c624 69bd
000003d0: b9e8 8a3d 1eba b5bc 0527 33bd 8b96 6b3d
000003e0: bec5 fe3d b6b2 68bd fcff 75bd b353 703d
000003f0: c9e2 8d3c 9ad8 d33c c4a8 e2bc 2d21 473d
0.050514307 0.053404424 -0.058508113 -0.014678087 -0.13833815 -0.007515853 -0.14424473 0.07771599
-0.08212109 -0.056885827 -0.038831566 -0.055581745 0.016933952 0.115337 -0.16871127 0.0239389
0.024147054 0.06746214 -0.039181672 -0.08121046 0.0768221 -0.009725605 -0.064325936 -0.14861898
-0.079316616 0.014933635 -0.008760763 0.20489275 0.08490433 0.0291045 -0.05585805 0.034566134
-0.054810483 -0.054332487 0.16626902 0.05504171 0.10593376 0.027744917 -0.0065236795 -0.044345014
0.032438602 -0.03319754 0.052861214 -0.014379969 0.017780878 0.044701274 -0.1232217 -0.060017582
-0.058039196 0.10295376 0.07827854 -0.03871995 -0.10207132 0.09149696 0.03950466 0.0072046975
-0.062812604 -0.001160343 -0.0069283573 -0.0008618969 -0.03115907 -0.1045086 0.17350762 0.0415629
0.035106875 -0.07383536 0.2697025 -0.02732501 -0.009232067 -0.06345151 0.011947639 0.046158034
-0.14462964 -0.04373342 -0.09987283 0.07528604 0.032274764 0.046094414 -0.06389708 -0.04684097
0.05791469 0.020686321 -0.08969547 0.079439156 -0.011804828 -0.02507026 -0.030267898 0.083253205
0.0815827 0.027145604 0.0524824 0.010258189 -0.03585155 -0.116930924 0.057062004 -0.089626126
-0.11228579 -0.0187634 0.009480612 -0.027790995 -0.063531764 0.005463404 0.029548962 -0.07998875
-0.11821468 -0.050074726 -0.0063138944 0.08933843 -0.019875024 0.12608474 0.08698666 -0.053412184
-0.020866482 -0.012658184 -0.07827834 -0.08797286 0.054685928 0.08295951 0.11066957 -0.15482083
-0.06685148 -0.016612537 -0.19710197 -0.13248998 -0.056847405 0.13239649 0.02722255 -0.003537259
-0.14023402 -0.13961981 -0.0045339195 0.055340506 -0.13475627 -0.07229742 -0.06838328 -0.004134959
0.103721604 -0.06516392 0.13896158 0.021400068 -0.08643 -0.022103086 -0.20868722 0.079719365
-0.046771284 -0.005364123 0.046943113 -0.001471272 0.06113643 -0.15567446 -0.042513467 -0.07535431
0.020770276 0.052286174 -0.03463139 -0.06190016 -0.030147046 -0.07264556 -0.0745395 -0.040245406
0.07304757 -0.067902766 -0.16752821 -0.020406602 -0.06905405 0.13904549 0.07738857 -0.04881571
-0.08118823 -0.10955782 -0.1539 -0.057481308 -0.021410856 0.040848088 -0.05161307 0.04964158
-0.064697236 0.11428609 0.015280915 0.19598448 -0.07985822 -0.07376438 0.084993005 0.11574497
-0.10430972 0.11108908 -0.01152249 -0.024325425 0.027696647 0.105674066 -0.06703999 0.032490276
0.13577266 0.05299391 0.024501394 -0.04293485 0.016219243 0.0039176126 0.1670108 -0.034661528
0.0046921447 -0.1811998 -0.23107074 -0.0023226843 0.020210551 0.106126636 0.056784377 -0.016505364
-0.02337363 -0.11772851 0.14327535 -0.03060069 0.03234434 0.010098314 -0.06692282 -0.018558951
0.041425366 -0.041568827 0.1303942 0.033217598 0.023178568 -0.09602156 -0.0802939 0.06500274
0.046001147 0.077359974 -0.054687317 -0.09058086 -0.059086327 -0.019502096 -0.07395726 0.05918431
-0.06784784 -0.19106321 -0.077864856 0.074816 0.064801276 -0.12724245 0.112141654 -0.13953167
-0.091531925 0.03983147 -0.056908853 -0.056919836 0.067826696 -0.022183474 -0.043738384 0.057516616
0.1244006 -0.056811057 -0.06005858 0.05867357 0.017320054 0.02586012 -0.027668364 0.048615623

network_body._body_endoder.seq_layers.4.bias f4 [256]
00000000: c7ef eabc 6555 fdbc fcc4 5bbd 5aae 16bd
00000010: b4b8 58bd c550 03bd 1fb0 8fbc 1c98 64bd
00000020: 8c3b cebb 1cb6 2abc 4ad6 16bc 1a71 31bd
00000030: 6877 4cbd be62 d2bc a1e3 39bd a96a 7738
00000040: 8b00 1dbd 6aa4 66bd 9bf2 89bd f345 a1bc
00000050: 1482 5ebd 6025 f8bc 3a32 0ebd bac0 b2bc
00000060: b9e8 81bd b8f5 00bd 697b 19bd b41e 6cbd
00000070: 239b 23bd 7265 7ebd 599f 23bd 480e fcbc
00000080: 83d2 a4bc 3fd5 ccbc 9335 80bd c26a d6bc
00000090: fb8e 11bd 1c9c 5cbd d01c 8dbd dbac cabc
000000a0: 69d7 27bd ac80 34bc fcbc 4dbc aa7b 2abd
000000b0: e958 5bbd 6c15 59bd 0cd0 47bc 0b12 e7bc
000000c0: cf6d 0dbd 736a 49bd 31b0 51ba 5674 23bd
000000d0: bca4 2fbd 9bc1 52bd 1329 6dbd 52a5 cebc
000000e0: f186 4dbd 5d99 59bd 05b2 48bd 7770 b7bb
000000f0: 1331 fbbc 35cb c0bc 8d53 50bd 2810 2ebd
00000100: ed9a 09bd 6281 5abd a4f4 b8bc c1cc 7cbd
00000110: 3dbb 2fbd ecf1 9f3a 48d8 ebbc aaa1 37bd
00000120: 9d99 3bbd e696 a6bc 2bde 2cbd d180 02bd
00000130: 552f 16bd 80ec 6bbd 71e4 aabc da42 7ebc
00000140: da1d 59bd d37a 12bd 0309 88bd 951a a8bc
00000150: 9bfb 66bd 11b3 37bd d93f fcbc c5ce f4bc
00000160: c6f1 2ebd 3b21 7bbd 7d59 e5bc a310 21bd
00000170: bbab 0cbd 620d 99bc dc80 45bd 6d5b 18bd
00000180: 0287 39bc 2fa8 89bd 37c4 89bd 2fdb 36bd
00000190: 2436 90bc 6887 8fbd 5bed 5bbd 3df0 82bc
000001a0: 0d63 2abb 5a7d 06bc 3150 8bbd 9e64 0abd
000001b0: 36bc 60bd a864 e3bc 7526 8fbd 2767 57bd
000001c0: ad5b 53bd c810 60bd 2b59 07bd 0c66 4bbd
000001d0: 8566 28bd 5a62 2ebd 82e0 3fbd d80b 27bd
000001e0: b606 3bbd eb71 35bd 2457 53bd cd8a 47bd
000001f0: 744f 9dbc ddfb afbc f23e 0cbd 1c3a 00bd
00000200: 69de 07bd 4815 85bd eb87 c8bc 8e56 dabc
00000210: 1523 26bd ac19 8abc b2ca 35bd 4203 96bc
00000220: e7f6 09bd 43ab b5bc 4702 7abd b728 60bd
00000230: 56b8 c4bc 4323 5fbd 468e 88bd a3c5 77bc
00000240: f84a ddbc bdf2 51bc 54e7 5abd 07b8 d5bb
00000250: 8888 52bd f3cf febc f6fb 7bbd 4934 53bd
00000260: 2fe7 debc d05f 20bd 6d3c 57bd e6ef 27bd
00000270: cb97 45bd 204f 31bd 5e83 d4bc 8b47 32bd
00000280: 0c86 67bd 71ba 3ebd 7093 3cbd fc17 89bd
00000290: 7c50 11bc e9a5 83bd 30a0 98bc cac4 34bd
000002a0: 185f d8bc 55e4 1cbb db1b debc 126f 2bbd
000002b0: 2f85 39bc 4331 24bd 113d d3bc fe6a b1bd
000002c0: b013 40bd f466 09bd b749 b9bc 8502 82bd
000002d0: 4146 40bd 89f4 fdbc 2a53 27bd 397c 8ebc
000002e0: a642 95bd 47f5 bbbc 42ad 59bd af80 edbc
000002f0: 6151 8fbd 4952 c0bc f4e1 52bd 169d c8bc
00000300: 62ee 4cbd 5dd8 6f3c 0610 00bd 9dac 66bb
00000310: 0da7 34bd 46f0 c0bc d5e6 cfbc 350a 97bc
00000320: 7e0c efbc 0c6f 94bc 92a1 aebc 9f2b 19bd
00000330: db88 a4bc 604a 1dbd 0e2e 68bd 6581 7ebc
00000340: f1b7 50bd 6c60 53bd d2b5 15bd c225 2abd
00000350: c081 e4bc 3a8c 5dbd db7a 09bd 9ae0 f4bc
00000360: 9334 29bd 91d5 46bd dab0 edbc 6151 c9bc
00000370: 00c0 36bd 8b51 2bbd 971f 1fbd 3761 17bd
00000380: 5bec e4bc e2e5 63bd 7725 28bd 7596 31bd
00000390: 067a fabc af15 3cbd 6421 38bd eac2 02bd
000003a0: d44c 45bd c70f 40bd f0ec 4abd 1c4b 27bd
000003b0: 61df a3bc 6302 1cbd 4a49 57bd 2ef8 c0bc
000003c0: 70e5 65bd 9e2a e2bc 6315 7dbd 268b 0dbd
000003d0: 7c2a 33bd 532b 49ba 0dd0 07bd 68db 14bd
000003e0: 11f7 ffbc c5f8 c3bc 6eec dabc 3c2f 3fbd
000003f0: 4600 a0bc e704 8ebc 7242 0fbb 0f3c 5dbc
-0.028678788 -0.030924508 -0.053654656 -0.03678737 -0.05291052 -0.03205945 -0.017540036 -0.055809125
-0.0062937196 -0.010419395 -0.009206364 -0.043320753 -0.049918562 -0.02568185 -0.0453831 5.8988724e-05
-0.038330596 -0.05630914 -0.067357264 -0.019686675 -0.05432327 -0.03029126 -0.03471587 -0.021820415
-0.063432164 -0.031484336 -0.03747121 -0.05764647 -0.03994287 -0.062108465 -0.039946888 -0.030768529
-0.020119911 -0.025004027 -0.062602185 -0.026173953 -0.035536747 -0.053859815 -0.06890261 -0.024740627
-0.040976916 -0.011017006 -0.012557264 -0.04162184 -0.05355159 -0.052998945 -0.012195598 -0.028206846
-0.03452855 -0.049173784 -0.0007998972 -0.03990587 -0.042881712 -0.051454168 -0.0579005 -0.025225315
-0.05017752 -0.053124774 -0.048997898 -0.0055981237 -0.030663049 -0.023534397 -0.05086093 -0.042495877
-0.033595014 -0.053346045 -0.022577591 -0.061718706 -0.042903174 0.0012202836 -0.028789654 -0.04483191
-0.045800794 -0.020335626 -0.042204063 -0.03186113 -0.036666233 -0.05759859 -0.020860882 -0.015518868
-0.053006984 -0.035761666 -0.06642344 -0.020520488 -0.056392293 -0.044848505 -0.030792164 -0.029883752
-0.042711042 -0.061310988 -0.027996773 -0.039322507 -0.034343462 -0.01868314 -0.048218593 -0.037196565
-0.011323692 -0.067215316 -0.06726878 -0.044642624 -0.017603941 -0.070082486 -0.053693157 -0.015983695
-0.002599898 -0.008208597 -0.06802405 -0.033787362 -0.054866992 -0.027757958 -0.06989757 -0.052588608
-0.0516011 -0.054703504 -0.03304402 -0.049657866 -0.041113395 -0.042574264 -0.046844967 -0.04078278
-0.045660697 -0.044298094 -0.051596776 -0.048716355 -0.019202925 -0.021482402 -0.034239717 -0.031305417
-0.03317109 -0.064982 -0.024478873 -0.0266526 -0.0405608 -0.016857944 -0.04438276 -0.0183121
-0.03368273 -0.02217639 -0.061037328 -0.05472633 -0.02401368 -0.054476988 -0.066677615 -0.015122804
-0.027013287 -0.012814221 -0.053443268 -0.006522182 -0.051399738 -0.031105017 -0.061519586 -0.051563535
-0.027209846 -0.039153874 -0.05254786 -0.04100027 -0.048240464 -0.04328835 -0.025941547 -0.04352526
-0.05652432 -0.046564523 -0.046039045 -0.06694028 -0.008869287 -0.06428129 -0.01863107 -0.044132985
-0.026412532 -0.0023939807 -0.027112892 -0.04185397 -0.011323257 -0.040086042 -0.025785955 -0.08662985
-0.046893775 -0.03354545 -0.022618158 -0.06348137 -0.046942 -0.031000393 -0.040850796 -0.017393218
-0.07288103 -0.022944106 -0.053143747 -0.028992025 -0.06997944 -0.023476737 -0.051485017 -0.024488967
-0.050032027 0.014638987 -0.03126528 -0.00351981 -0.044104625 -0.023552071 -0.025378624 -0.018437484
-0.029180761 -0.018119358 -0.021317277 -0.037395116 -0.020084789 -0.038401008 -0.056684546 -0.01553378
-0.05095667 -0.051605627 -0.03655035 -0.041539915 -0.0278939 -0.05408881 -0.03356443 -0.029892255
-0.041309904 -0.048543517 -0.029014993 -0.024574937 -0.0446167 -0.041825812 -0.038848486 -0.036957946
-0.027944734 -0.055639155 -0.041051354 -0.043356378 -0.030575763 -0.045919117 -0.04495372 -0.031924166
-0.048168972 -0.046890046 -0.049542367 -0.040843114 -0.020003976 -0.038088214 -0.05256013 -0.023555841
-0.05612701 -0.027608212 -0.061787974 -0.03455653 -0.043741688 -0.00076739973 -0.033157397 -0.036342055
-0.03124574 -0.023922333 -0.026724067 -0.046675906 -0.01953138 -0.017336322 -0.0021859673 -0.013503089

network_body._body_endoder.seq_layers.4.weight f4 [256, 256]
00000000: f638 acbc 41fa babc 1de1 41bd 150a 023e
00000010: 7b61 563d a67a efbd 9a1b 95bc 1699 843d
00000020: 82b4 a1bd c7d6 c13d 992d bb3d 4ab3 1abe
00000030: eaa5 19be 83fe cb3d 98c1 5c3d d7f6 58bd
00000040: c504 703c 98a3 06bc ed31 e8bd 1eee b6bd
00000050: f1fa c03d fe32 d7bd e136 0dbe a89e 20bb
00000060: 19f8 183d 84a2 383e 6afc be3d 9dbc c23c
00000070: 4405 e63c 44ce 853b 9952 75bd 41c6 96bd
00000080: 98bc 623c 463b 073d 1452 11bd 19c9 15bc
00000090: 1ef0 c2bd 5615 4fbd 353c 013d c7f2 833d
000000a0: cc1b b3bc 7f9f 57bd 2cb5 a4bd a8ab e2bd
000000b0: 8fa6 d93c 48e2 25bd c1cc b0bd 632c 823d
000000c0: b349 043c c8ef c2bd 5642 303d e641 b03c
000000d0: 3304 083d 0ac6 aa3a 766b 10bd 5de8 89bb
000000e0: a03b 76bd 0d06 1e3c 7365 3ebd 62be 11be
000000f0: cf6d 1c3d 39f0 e3bd 012c 0ebd db84 0abd
00000100: 86f8 063d eea5 023b da4d f5bd 5a40 d93c
00000110: 0f36 723c 9468 78bd 35b8 39bc 3002 09bd
00000120: 88d0 8c3d cbed ecbb 4689 473d 26ec 91bd
00000130: f49a b43d 8da3 38bd b98a abbd 80e3 ac3d
00000140: 290d 26bd 4731 093e b46d 5a3d 1232 983d
00000150: 4aa8 15bd 74aa 9c3c 39f1 21be f1fe 413e
00000160: 5473 0cbd c932 90bd ee15 bb3d 909c bbbd
00000170: b92c 8b3d ca8d 8c3d d7b4 e43d 5354 823e
00000180: 00c4 a8bd fc96 00bb ac71 553d f108 ec39
00000190: 40c3 aa3c 0243 553c 1919 bdbd 2d64 bf3d
000001a0: 7db1 6a3d e57d 3f3e 08e9 d93d 13ac be3c
000001b0: 9764 f03d 7563 a03d a995 833d 843b ab3d
000001c0: 1b32 d2bd be57 63be a63e 9cbd 5cf4 833d
000001d0: 5b80 a5bd 596e fc3d 4583 58bd d0b3 aabd
000001e0: 89c3 2f3e 69fd d8bc f03d d4bc 63cd 033d
000001f0: f47f 6d3d 9f73 af3d 0add 58be 0231 b53c
00000200: 36c3 febb f6d3 a03d e5ce 36be d5e4 aabd
00000210: fe33 863d 0a5e 53bd 5bcc e6bc 9b0d f0bd
00000220: 6521 6bbd 6553 233d a43f e53c 3681 353e
00000230: 233b 45bd 0c01 143d cbf6 a73d 11a5 a8bd
00000240: 8257 763d 740e a5bd 9117 0d3e 8aaa b13d
00000250: 4849 46bd c1b3 95bd 9fea 953c 9a2d 81bd
00000260: 73f2 06bd 150e 7cbd 144d d43d d508 b3bd
00000270: cbbf 253e d90e 0f3e e31f 1c3d d102 603c
00000280: fc79 3abc 4c34 82bb 9210 5a3d e71b 33bc
00000290: e814 b5bd 9f2a 603d fbc1 f5bc 604f 66bd
000002a0: 77b2 a33d 5735 8dbd ebf7 88bc 284f 44be
000002b0: 8c9b dcbc b7ba fbbd d368 24bd dcda 0e3d
000002c0: 8b85 883d 4c7b 3ebc 5c6e 0dbd 3ed2 cc3d
000002d0: 9129 a23c 8174 e139 7709 99bd acf5 c1bd
000002e0: 405e 55bd a465 7b3c 3f97 5c3c 033d 0f3e
000002f0: c85e acbc 30c6 6a3d 8d85 6abe a1b5 033d
00000300: 5b52 09be f3e6 073e b9ea a6bd 68a0 99bc
00000310: 3de1 02be 3f83 f4bc 928f 9bbd baa8 2d3e
00000320: 9168 3fbd 32bf 133e e80b f83d a939 a73b
00000330: 9536 633d 26ff 06bc a035 143d 45fa 963d
00000340: 8905 803d 7f0f 5dbd 83b6 6fbd ee7b 97bd
00000350: fe7e 5a3d 6b8f 07bd 979c d13d ef1a ef3d
00000360: 9e19 223c b790 05be 83ee af3d 8637 fbbb
00000370: c0bf b4bd ba3c b7bd fbb3 0c3d 652d a73c
00000380: 7dce 29bd ff49 a6bb d156 363d af56 aeba
00000390: f745 2dbd 65bc 143e 8eb9 db3c 06b4 0b3d
000003a0: 1e7f 643d 378e 04bd 9c20 2d3d 9b55 543e
000003b0: 8afa 833d da07 283b 605d e73c fcad 363d
000003c0: e2d8 6ebc 5a4c e9bd 40df 3ebe 501d a4bb
000003d0: ee92 a7bd 0de9 14be b5a8 a03d d945 a4bd
000003e0: 7329 ebbc b2e2 b33b 8d23 893d f489 7e3d
000003f0: 67d3 af3a 4839 f73d 0813 fa3d de1f dabb
-0.021023255 -0.022824408 -0.047333825 0.12699158 0.05233906 -0.11693315 -0.018201638 0.06474511
-0.07895757 0.09464794 0.091395564 -0.15107456 -0.15004697 0.09960654 0.053895563 -0.05296978
0.014649575 -0.008217715 -0.113376476 -0.08932136 0.09422863 -0.10507773 -0.13790466 -0.002450863
0.03734598 0.18030745 0.09325488 0.023771578 0.028078683 0.0040834267 -0.059893224 -0.07362033
0.01383891 0.033015512 -0.035478666 -0.009142184 -0.09518455 -0.050557457 0.03155156 0.064427905
-0.02186384 -0.05264234 -0.08042368 -0.11067897 0.02656868 -0.040499 -0.08632804 0.06356122
0.008074212 -0.09518391 0.043032013 0.021515798 0.03320713 0.0013028991 -0.035258733 -0.004208608
-0.060115457 0.009644997 -0.04648347 -0.14232782 0.03819066 -0.11129803 -0.034709934 -0.033818107
0.032951854 0.0019935328 -0.1197774 0.026519943 0.014783396 -0.06064661 -0.011335422 -0.03344935
0.06875712 -0.0072304956 0.0487149 -0.0712512 0.088186175 -0.04507785 -0.083760686 0.0844183
-0.040539894 0.13397704 0.053327277 0.07431425 -0.036537446 0.019124247 -0.15814675 0.18944909
-0.034289673 -0.070409365 0.09135042 -0.09160721 0.067956395 0.068629816 0.11167305 0.2545496
-0.08240509 -0.0019621244 0.05211036 0.0004502009 0.020845056 0.013016464 -0.092333026 0.09345279
0.057298172 0.18700369 0.1064015 0.02327541 0.11737936 0.0783147 0.0642503 0.08360961
-0.10263463 -0.2220144 -0.07629137 0.06443092 -0.080811225 0.12325735 -0.052859563 -0.08335078
0.17164434 -0.026488023 -0.02590844 0.032178294 0.057983354 0.08566975 -0.2117807 0.022118095
-0.007774736 0.07852928 -0.17852362 -0.083444275 0.065528855 -0.051603355 -0.028173616 -0.11721345
-0.057404894 0.039874453 0.027984448 0.17725071 -0.0481521 0.03613381 0.08201369 -0.08234609
0.060142048 -0.08059397 0.13778521 0.08675106 -0.04840973 -0.07309676 0.018300353 -0.06307526
-0.03294606 -0.061536867 0.10366264 -0.08741919 0.16186444 0.13970508 0.038116347 0.0136725465
-0.011381622 -0.0039735194 0.05323846 -0.010931945 -0.08841878 0.054728147 -0.029999724 -0.05622804
0.07993024 -0.068949394 -0.016719779 -0.1917082 -0.02692964 -0.122914724 -0.04013903 0.03487669
0.06666096 -0.011626076 -0.034529075 0.10001038 0.019795211 0.00043002146 -0.074725084 -0.09470686
-0.052091837 0.015344057 0.013463794 0.13988118 -0.021041289 0.057317913 -0.22902508 0.032155637
-0.13410322 0.13271694 -0.081502385 -0.018753245 -0.12781234 -0.02984774 -0.07595743 0.16958895
-0.04673058 0.14428404 0.12111646 0.005103309 0.055471975 -0.008239543 0.036183953 0.07371954
0.06251056 -0.053969856 -0.058523666 -0.073966846 0.053343765 -0.03309576 0.10234945 0.11675059
0.009893803 -0.13043486 0.085904144 -0.007666531 -0.08825636 -0.089471295 0.03435133 0.020407388
-0.04145669 -0.005074739 0.04451639 -0.001330098 -0.04230305 0.14524992 0.026821878 0.03410723
0.05578529 -0.03236219 0.042267427 0.20735781 0.06444271 0.0025639446 0.028242767 0.04459952
-0.014578076 -0.11391516 -0.1863985 -0.005008377 -0.081823215 -0.14542027 0.07844678 -0.08021135
-0.028706288 0.0054896707 0.06696234 0.06214328 0.0013414443 0.120714724 0.12210661 -0.006656631

network_body.observation_encoder.processors.0.normalizer.running_mean f4 [14]
00000000: 0000 0000 8333 cd3e 0000 0000 8dab cc3e
00000010: 0000 0000 015e cf3e 0000 0000 609c ce3e
00000020: 0000 0000 dc5f d13e 0000 0000 3bb2 d03e
00000030: 0000 0000 3ab2 d03e
0.0 0.40078363 0.0 0.39974633 0.0 0.40501407 0.0 0.4035368
0.0 0.40893447 0.0 0.4076098 0.0 0.40760976
