Assets/Training/results/RUN4/SzitakotoBehavior/SzitakotoBehavior-5450226.onnx (onnx, 729012 bytes, 17 tensors)

85 f4 [14]
0	0x3b26134e	0.0025341096
1	0x3e1fd771	0.15609528
2	0x3b2142b9	0.002460642
3	0x3e1f0349	0.15528597
4	0x3b3c4fc6	0.0028734072
5	0x3e22d770	0.15902495
6	0x3bf1e288	0.007381741
7	0x3e2190d3	0.15777902
8	0x3b8dc14d	0.0043260218
9	0x3e25e9ff	0.16202544
10	0x3c10553d	0.008809385
11	0x3e2444aa	0.16041818
12	0x3c10553d	0.008809385
13	0x3e2444a9	0.16041817

88 f4 [42]
0	0x3c172a60	0.009226412
1	0x3e9a07ff	0.30084226
2	0x3c1c72bc	0.009548839
3	0x3e99d335	0.3004395
4	0x3c0e71ab	0.008694093
5	0x3e9982e4	0.29982674
6	0x3c1c9b00	0.009558439
7	0x3e993966	0.29926604
8	0x3c06fd2c	0.008239072
9	0x3e982acd	0.29720154
10	0x3c1b57b6	0.009481361
11	0x3e986126	0.29761618
12	0x3c04f7a4	0.008115683
13	0x3e9671f3	0.2938381
14	0x3c177dad	0.009246272
15	0x3e9914bd	0.29898635
16	0x3c1cc33b	0.009568031
17	0x3e98e44a	0.2986167
18	0x3c0e9de5	0.008704637
19	0x3e988bb9	0.297941
20	0x3c1ceb6b	0.009577612
21	0x3e984b58	0.29744983
22	0x3c072bd5	0.008250196
23	0x3e972f55	0.295283
24	0x3c1bd140	0.009510338
25	0x3e97761d	0.295823
26	0x3c052704	0.008126978
27	0x3e9570f1	0.2918773
28	0x3c17d0ce	0.0092660915
29	0x3e981c7f	0.2970924
30	0x3c1d3bad	0.009596747
31	0x3e97ef6e	0.29674858
32	0x3c0ef62f	0.008725687
33	0x3e978c8d	0.2959942
34	0x3c1d63bd	0.009606299
35	0x3e9758e0	0.29559994
36	0x3c075a6f	0.008261307
37	0x3e962b93	0.2933012
38	0x3c1c9b00	0.009558439
39	0x3e96839f	0.29397294
40	0x3c055652	0.008138256
41	0x3e946709	0.2898486

91 f4 [132]
0	0x3ebffe6d	0.374988
1	0x3effe3df	0.4997854
2	0x3eeb4221	0.4594889
3	0x3e82b175	0.25526014
4	0x3ec4b3fa	0.3841856
5	0x3efff4fe	0.49991602
6	0x3eea613e	0.45777315
7	0x3e821ac2	0.2541104
8	0x3eb1c894	0.3472334
9	0x3eff7dae	0.49900573
10	0x3eee1306	0.4649889
11	0x3e82f6d9	0.25578955
12	0x3ebdc0d8	0.3706119
13	0x3eff94db	0.49918255
14	0x3ee98cf4	0.4561535
15	0x3e80d499	0.251622
16	0x3ea2fd00	0.3183365
17	0x3eff4cbb	0.49863228
18	0x3ef1fad7	0.47261688
19	0x3e82d7cd	0.25555268
20	0x3eabadc4	0.3353101
21	0x3efd0761	0.49419692
22	0x3ee6a434	0.45047152
23	0x3e7b51f8	0.24542987
24	0x3e97ea1d	0.29670802
25	0x3eff6453	0.4988123
26	0x3ef576f8	0.47942328
27	0x3e823594	0.25431502
28	0x3e92660a	0.28593475
29	0x3ef7681a	0.4832161
30	0x3ee36e00	0.4441986
31	0x3e740190	0.23828721
32	0x3e8b8c19	0.27255324
33	0x3effd0d7	0.4996402
34	0x3ef9a94d	0.4876198
35	0x3e81c81f	0.25347993
36	0x3e6e43ee	0.232681
37	0x3ef6df9f	0.48217484
38	0x3eea63de	0.45779318
39	0x3e75e450	0.24012876
40	0x3e7a2ba1	0.24430706
41	0x3f00001b	0.5000016
42	0x3efd0e7c	0.49425113
43	0x3e813de3	0.25242528
44	0x3ec05b33	0.3756958
45	0x3effcb5f	0.49959847
46	0x3eeb9e1d	0.46019068
47	0x3e80793c	0.25092494
48	0x3ec51cbe	0.3849849
49	0x3effeceb	0.49985442
50	0x3eeabb36	0.45845956
51	0x3e7fc51f	0.2497754
52	0x3eb224e4	0.3479377
53	0x3eff5525	0.49869648
54	0x3eee8078	0.4658239
55	0x3e80a778	0.2512777
56	0x3ebe2c2d	0.37143078
57	0x3eff800e	0.49902385
58	0x3ee9eaf1	0.4568706
59	0x3e7d3c55	0.24730046
60	0x3ea34a1d	0.3189248
61	0x3eff25d2	0.49833542
62	0x3ef24792	0.4732023
63	0x3e806631	0.25077966
64	0x3eac39b8	0.33637786
65	0x3efcbc4c	0.4936241
66	0x3ee71663	0.45134267
67	0x3e76add7	0.24089752
68	0x3e9836d6	0.29729337
69	0x3eff551d	0.49869624
70	0x3ef5c676	0.48002976
71	0x3e7f44b6	0.24928555
72	0x3e92e01b	0.28686604
73	0x3ef6ef13	0.48229274
74	0x3ee3d7b6	0.44500512
75	0x3e6f30d0	0.23358464
76	0x3e8bd034	0.27307284
77	0x3effce16	0.4996192
78	0x3ef9ecb3	0.488134
79	0x3e7e2370	0.24818206
80	0x3e6f5d84	0.23375517
81	0x3ef662ba	0.48122197
82	0x3eeac098	0.45850062
83	0x3e70d50b	0.2351877
84	0x3e7aae6c	0.24480599
85	0x3efffd3b	0.49997887
86	0x3efd3905	0.49457565
87	0x3e7cb59c	0.24678653
88	0x3ec0c63e	0.37651247
89	0x3effbbfe	0.49948114
90	0x3eec0f2a	0.4610532
91	0x3e7c5180	0.24640465
92	0x3ec58d66	0.3858444
93	0x3effdc84	0.49972928
94	0x3eeb1d4e	0.45920795
95	0x3e7b2086	0.24524125
96	0x3eb2841d	0.3486642
97	0x3eff42c6	0.49855632
98	0x3eeed9b7	0.46650478
99	0x3e7c78cb	0.24655454
100	0x3ebea759	0.3723705
101	0x3eff5690	0.4987073
102	0x3eea595a	0.45771295
103	0x3e7892c4	0.24274737
104	0x3ea39ba4	0.31954682
105	0x3eff046e	0.49808067
106	0x3ef2ab44	0.4739629
107	0x3e7bbd80	0.24584007
108	0x3eacb1de	0.33729452
109	0x3efc6f6a	0.49303752
110	0x3ee778c6	0.4520933
111	0x3e71dea7	0.23620091
112	0x3e988aa8	0.29793286
113	0x3eff399b	0.49848637
114	0x3ef612ab	0.48061118
115	0x3e79f557	0.24409996
116	0x3e9367a8	0.2879002
117	0x3ef67b17	0.48140785
118	0x3ee44686	0.44585055
119	0x3e6a348c	0.22871608
120	0x3e8c186a	0.27362376
121	0x3effb825	0.4994518
122	0x3efa2488	0.48855996
123	0x3e78806c	0.24267739
124	0x3e708148	0.23486817
125	0x3ef5d7a6	0.4801609
126	0x3eeb1bd3	0.45919666
127	0x3e6b8ac6	0.23002157
128	0x3e7b3d54	0.24535114
129	0x3efff89e	0.49994367
130	0x3efd684c	0.49493635
131	0x3e76beac	0.24096173

94 f4 [2]
0	0x3e74e8e1	0.23916961
1	0x3ea00bb7	0.31258938

action_model._continuous_distribution.log_sigma f4 [1, 2]
0	0xbed73e57	-0.4203975
1	0xbe57591b	-0.21030085

action_model._continuous_distribution.mu.bias f4 [2]
0	0xbb57f8b7	-0.0032954642
1	0xbcbb1a5f	-0.022839723

action_model._continuous_distribution.mu.weight f4 [2, 256]
0	0x3d555121	0.052079324
1	0x3c70b692	0.014691966
2	0xbc1ff836	-0.009763768
3	0x3b91e16e	0.004451922
4	0x3b092d4b	0.0020931538
5	0x3c8b37bc	0.01699435
6	0xbd1259fa	-0.03573034
7	0xb9ea5ad6	-0.00044699636
8	0x3b1cc7b8	0.0023922753
9	0xbda73c95	-0.08165852
10	0x3ba9f186	0.0051862625
11	0x3c0b456f	0.008500441
12	0xbbbed417	-0.005823623
13	0x3bd10310	0.006378539
14	0xbd13f332	-0.0361206
15	0x3cd0bca8	0.025480583
16	0x3aba8b2e	0.0014232153
17	0x3b64f8a8	0.003493825
18	0x3bc098df	0.0058775987
19	0x3bcaddea	0.006191005
20	0x3c9a4476	0.018831473
21	0x3b53e413	0.0032331988
22	0x3bebd3bb	0.007196871
23	0x3a9af3da	0.0011821941
24	0xbc5070a0	-0.012722164
25	0x3af97359	0.0019031569
26	0x3b088467	0.002083087
27	0x3c42852b	0.01187257
28	0x3bf3fad9	0.007445675
29	0xbc274d32	-0.010211276
30	0xbbca204c	-0.006168401
31	0xbb16ed66	-0.0023029684
32	0x38ff8eef	0.00012185971
33	0xbaa2c25d	-0.0012417544
34	0xbc35fb5d	-0.011107293
35	0x3a5b76d9	0.00083718967
36	0xbd8e7ba2	-0.06957175
37	0xbbe8ae35	-0.007100845
38	0x3a5f9be5	0.0008530005
39	0x3b6a5cfc	0.003576099
40	0x3a50f8de	0.00079716544
41	0x3d25735e	0.040393226
42	0x3cf06db7	0.029349191
43	0x3ca1b082	0.019737486
44	0xbb029bb5	-0.0019929234
45	0x3c98a9fd	0.018635744
46	0x3b07366b	0.00206318
47	0x3b5c1a3b	0.003358497
48	0xbc0edc2d	-0.008719486
49	0xbb474f5d	-0.0030412294
50	0x3c9e1f04	0.019301899
51	0xbc082a94	-0.008310933
52	0x3c98d7c4	0.018657573
53	0x3c39f494	0.011349816
54	0x3b341861	0.0027480351
55	0xbb603ace	-0.0034214738
56	0x3bb8dcd4	0.005641559
57	0x3ba5c245	0.005058559
58	0x3b33d66e	0.0027441042
59	0xbaca6adc	-0.0015443224
60	0x3abeafe7	0.0014548273
61	0x3ad79ecf	0.0016450527
62	0xbb016515	-0.0019744087
63	0xbc7a1aa9	-0.015265145
64	0x3b51c034	0.003200543
65	0x3c1a68ea	0.0094244275
66	0xbb3e4f64	-0.002903902
67	0x3c97f38a	0.018548746
68	0xbc0d11d7	-0.00861021
69	0xba7ff896	-0.000976452
70	0x3c4ddfc1	0.012565554
71	0x3bfeda58	0.0077774934
72	0x3c252bae	0.010081215
73	0x3c164e94	0.009174008
74	0xbbc1674f	-0.005902208
75	0x3afd0acc	0.0019305586
76	0xbc00b46f	-0.007855519
77	0x3b556b73	0.0032565265
78	0x3bb43a99	0.0055001494
79	0x39b9ae47	0.00035415796
80	0x3c0eae9d	0.008708623
81	0xbd0c4247	-0.034242895
82	0x3c33d98d	0.010977161
83	0x3bded465	0.0068002217
84	0xbb40c715	-0.0029415537
85	0xbb00e2c2	-0.0019666408
86	0xbc25c7fe	-0.010118483
87	0xbb8f86b8	-0.0043800734
88	0x3c4d6fe7	0.012538887
89	0xbb168782	-0.0022968953
90	0xbc16eb62	-0.009211393
91	0x3bf2d373	0.0074104606
92	0xbb553d29	-0.0032537675
93	0x3c45ab99	0.012064838
94	0xbc0c2da8	-0.008555807
95	0x3c30e856	0.010797581
96	0x3cf0638b	0.02934434
97	0xb924608e	-0.00015676228
98	0xbc8b45b9	-0.01700102
99	0x3c0fed5b	0.008784617
100	0xba2bfd41	-0.000656087
101	0x3cae6d91	0.02129248
102	0x3beac567	0.0071646455
103	0xbc824d70	-0.015906066
104	0x3d67c948	0.05658844
105	0x3c2ce115	0.010551711
106	0xbbc966a8	-0.006146271
107	0xb9c64543	-0.00037817107
108	0xbc8f5c24	-0.01749999
109	0x3c33cef4	0.010974634
110	0xbaecb253	-0.0018058516
111	0x3bb9dae7	0.005671847
112	0xbaa9536d	-0.001291854
113	0xbae294d1	-0.0017286782
114	0xba7a974c	-0.0009559288
115	0xbbbd5fcf	-0.0057792435
116	0x3a2cc30a	0.00065903424
117	0xbabbdd4e	-0.0014332922
118	0x3b7a5234	0.003819597
119	0x3cdbb22d	0.02681836
120	0x3c11729d	0.008877424
121	0xbb408102	-0.002937377
122	0xbab6d209	-0.0013948093
123	0xbbe78575	-0.00706547
124	0x3a63df5c	0.0008692646
125	0x3cb37d7f	0.021910427
126	0x3a073769	0.0005158098
127	0x3bb9bb01	0.0056680446
128	0xbc657716	-0.014005443
129	0xbc5d1a37	-0.01349502
130	0x3bf87633	0.00758245
131	0x3b58415d	0.0032997944
132	0x3bbbf98e	0.0057365363
133	0xba90d3fa	-0.0011049502
134	0xbc0ec17b	-0.0087131215
135	0xba5e5482	-0.00084812206
136	0xbb9b2154	-0.0047341976
137	0x3af6d2af	0.0018831099
138	0xbc2c906e	-0.010532482
139	0xbbc514ab	-0.0060144267
140	0xbaed6813	-0.0018112682
141	0x3ad0b753	0.0015923775
142	0xbc94de62	-0.018172447
143	0x3d2450e4	0.040116206
144	0xbbc8a967	-0.00612371
145	0x3d0e4625	0.034734864
146	0x3c31aae2	0.010843964
147	0xba587a70	-0.00082579907
148	0xbbc468ab	-0.0059939227
149	0xbbd4174f	-0.006472505
150	0x3aa66bc2	0.0012696909
151	0x3bb7cdc1	0.0056092446
152	0x3bf19858	0.007372897
153	0x3c799d6d	0.015235287
154	0x3c77faa3	0.01513544
155	0x3a23f698	0.0006254702
156	0xba68c810	-0.00088799093
157	0x3b8e7ccd	0.0043483735
158	0xba2a56f5	-0.0006497943
159	0x3a3ba1ea	0.0007157611
160	0xbb806db2	-0.0039193267
161	0xbba4e4ca	-0.0050321566
162	0xbc847ac3	-0.016171819
163	0xbbef8a6d	-0.007310203
164	0x3d89d412	0.06729902
165	0xbc45b488	-0.012066968
166	0xbd442507	-0.047886875
167	0xbba02231	-0.0048868884
168	0xbb83de88	-0.0040243305
169	0xba974a15	-0.0011542464
170	0xbb5a7182	-0.0033331816
171	0x3b9ee246	0.0048487512
172	0xbb05f3f9	-0.0020439608
173	0xbb1898b9	-0.002328439
174	0x3a4a415a	0.00077154266
175	0x3b261b83	0.0025345988
176	0xbbb40b38	-0.0054945014
177	0x3ba77647	0.0051105353
178	0xba8e136f	-0.0010839532
179	0x3b8b0717	0.0042427885
180	0x3c7ec5bc	0.015550073
181	0x3c3b5ae9	0.011435249
182	0xbb5d78d1	-0.0033793936
183	0x3b1485a9	0.0022662675
184	0xbbc9f288	-0.006162945
185	0xbc7ca363	-0.015419814
186	0xbc969099	-0.018379496
187	0x3b95cc78	0.0045714937
188	0x3ac4143a	0.0014959641
189	0xba0a53ec	-0.00052767876
190	0x3b19bca8	0.0023458395
191	0xb9d2a8c7	-0.0004018007
192	0xbc04796d	-0.008085591
193	0xbb12145d	-0.002228997
194	0x3a13f86c	0.0005644623
195	0x3d118dee	0.035535745
196	0xbcaa780f	-0.020809202
197	0x3b8f473f	0.004372507
198	0x3c0638d8	0.008192264
199	0xbb9bcfcb	-0.0047549955
200	0x3c59b633	0.013288069
201	0xbaca79db	-0.0015447693
202	0xbc888c27	-0.016668392
203	0xbb14c426	-0.0022699921
204	0x3cbdf30d	0.023187185
205	0xbbd7d915	-0.0065871575
206	0x3b93fc1e	0.0045161387
207	0xbc205003	-0.009784701
208	0xbc284108	-0.010269411
209	0x3bcc9136	0.0062428964
210	0xbc018ba4	-0.007906828
211	0xbaeae710	-0.0017921645
212	0xbc8e6aff	-0.017385004
213	0xbc76209d	-0.015022424
214	0x3bf4fe3d	0.0074765966
215	0x3ba2d124	0.004968779
216	0x3bfe1fe3	0.007755266
217	0x3aa4dc9f	0.0012577957
218	0x3c3032d2	0.010754304
219	0xbada0537	-0.0016633634
220	0x3a11dab1	0.00055638986
221	0xbc9b46c6	-0.018954646
222	0x398d53fe	0.00026956195
223	0x3ac0b40d	0.0014702097
224	0x3b9c991e	0.004778995
225	0xbc8b94f7	-0.017038805
226	0xbb3d08c8	-0.0028844345
227	0x3c3f9494	0.011693139
228	0x3cc1cefa	0.023658264
229	0xbc9cb604	-0.01912976
230	0xbac5350a	-0.0015045714
231	0xbb2ddfef	-0.002653118
232	0x3b42f7b0	0.0029749684
233	0x3c48005c	0.012207117
234	0xbb8cb95b	-0.004294557
235	0xbb6ae980	-0.0035844743
236	0xbd0a6e74	-0.033796743
237	0xbb1d5ccd	-0.0024011612
238	0xbc90661c	-0.017626815
239	0x3b636916	0.0034700087
240	0x3a436d58	0.0007454953
241	0xbc8a9c6a	-0.016920287
242	0xbc1f8607	-0.009736544
243	0x3c0b2e80	0.008494973
244	0x3b8dfc47	0.0043330523
245	0x3d25dee4	0.04049577
246	0x3ad03b5d	0.0015886832
247	0xb97e9a41	-0.00024280792
248	0x3bb99952	0.005664029
249	0x3c53cd69	0.012927392
250	0x3ba9d727	0.005183119
251	0x3a4b4081	0.0007753447
252	0x3b22c748	0.002483802
253	0xbaa68d73	-0.001270695
254	0xbd9219ae	-0.07133804
255	0x3c5e61f2	0.013573157

network_body._body_endoder.seq_layers.0.bias f4 [256]
0	0xbd962669	-0.07331545
1	0xbd922dfa	-0.071376756
2	0x3c80dada	0.015729357
3	0xbc113f06	-0.008865124
4	0x3bb31a3a	0.005465773
5	0xbd1c377e	-0.03813886
6	0xbcc580e7	-0.024109317
7	0xbbcee286	-0.006313625
8	0xbbd37b8e	-0.006453938
9	0xbda7deeb	-0.08196815
10	0x3cbec5c9	0.02328767
11	0xbe01db61	-0.12681343
12	0xbde2af40	-0.110685825
13	0xbd2f44d0	-0.042790234
14	0xbd9ed77f	-0.07755946
15	0xbc4de392	-0.012566464
16	0xbd30b0c5	-0.04313733
17	0xbd0a9804	-0.03383638
18	0xbd84116b	-0.06448635
19	0xbbe6ce4d	-0.007043636
20	0x3d04747a	0.032337643
21	0xbc494fbb	-0.012287076
22	0xbd8f9007	-0.07009893
23	0xbcdfcad5	-0.027318398
24	0xbd985475	-0.07437984
25	0x3d430d81	0.0476203
26	0x3c802665	0.015643308
27	0x3d2a9635	0.041647155
28	0x3babe82f	0.0052461843
29	0xbdc26e35	-0.094936766
30	0xbd1508b5	-0.036385257
31	0xbd863e1b	-0.065548144
32	0xbca42ac7	-0.02003993
33	0xbd2c2c96	-0.042034708
34	0xbd001de8	-0.03127852
35	0x3d09a9b7	0.03360912
36	0xbd582199	-0.052766416
37	0xbcac7a9a	-0.021054555
38	0xbbf8beab	-0.007591089
39	0xbcc87917	-0.024471803
40	0xbd1acc2d	-0.037792373
41	0xbc5e8080	-0.0135804415
42	0xbd5c401d	-0.05377208
43	0x3d93b0eb	0.07211479
44	0x3c411840	0.011785567
45	0xbcb13e69	-0.021636205
46	0xbc9bb565	-0.019007394
47	0xbcd33c0b	-0.025785467
48	0xbd233f3b	-0.039855223
49	0xbd01003b	-0.03149436
50	0xbddcf15e	-0.10788225
51	0x3bb42434	0.00549748
52	0xba24a504	-0.0006280693
53	0x3c0ced21	0.008601458
54	0x3cc536ba	0.024073947
55	0xbb3da1f1	-0.0028935636
56	0xbd91b7ed	-0.07115159
57	0xbd7792e4	-0.06044282
58	0xbcb2ff1f	-0.021850167
59	0xbd6456ea	-0.05574695
60	0xbda5a271	-0.08087624
61	0xbdc0a225	-0.094059266
62	0xbd22453e	-0.039616816
63	0xbe147c4b	-0.14500539
64	0x3c18af48	0.009319134
65	0xbd9e18f4	-0.07719603
66	0xbd3510ee	-0.0442056
67	0xbd22416d	-0.039613176
68	0xbcaa8c1f	-0.020818768
69	0xbe0ea4f1	-0.13930108
70	0xbd8340a3	-0.06408813
71	0xbd677ef2	-0.05651755
72	0xbd6bc5d3	-0.057561707
73	0xbcabd819	-0.020977067
74	0xbd332bb4	-0.04374285
75	0xbd800abe	-0.06252049
76	0xbd45af57	-0.04826292
77	0xbd639610	-0.055563033
78	0xbd0ec544	-0.034856096
79	0xbb5bb7fe	-0.0033526416
80	0xbdab16d6	-0.08353965
81	0xbd0f91be	-0.0350511
82	0xbd860bae	-0.065451965
83	0xbbc4c33b	-0.0060047186
84	0xbcefbf60	-0.02926606
85	0xbd714dc0	-0.05891204
86	0xbd2de452	-0.04245407
87	0x3cd24111	0.025665792
88	0xbb985425	-0.0046487027
89	0xbd9c9308	-0.076452315
90	0xbd9fcf48	-0.07803208
91	0xbd69e0b1	-0.057099048
92	0xbdcdb729	-0.10044701
93	0xbd9096d6	-0.0706002
94	0xbc4edea3	-0.012626323
95	0xbd9998d7	-0.07499855
96	0xbdbccada	-0.09218378
97	0xbd895ea0	-0.067075014
98	0xbdd54310	-0.10413182
99	0xbd79ec83	-0.06101657
100	0x3cae81b8	0.02130209
101	0xbdd21a7d	-0.102589585
102	0xbd99c0d5	-0.07507483
103	0xbcdf4e81	-0.027259113
104	0xbcc985c9	-0.024599927
105	0xbc8c20f4	-0.017105557
106	0xbc218b5f	-0.009859889
107	0xbd2ecbdb	-0.04267488
108	0xbd1ebf2a	-0.038756527
109	0xbc4351ee	-0.011921389
110	0x3ce04232	0.027375314
111	0xbd37ba6d	-0.044855524
112	0x3c701722	0.014653953
113	0xbd22ba93	-0.039728712
114	0xbbfd81b8	-0.007736411
115	0xbd09e202	-0.033662803
116	0xbdc3f36a	-0.09567912
117	0xbd540933	-0.051766586
118	0xbd9027a5	-0.070388116
119	0xbb4b7ed4	-0.0031050937
120	0xbd4d003e	-0.05004906
121	0xbd985d87	-0.07439714
122	0xbddee83a	-0.108841375
123	0x3d2bab06	0.041911148
124	0xbd439fc9	-0.047759805
125	0xbd8ea521	-0.069650896
126	0xbc659d86	-0.014014607
127	0xbd0e6aab	-0.034769695
128	0x3c90f5a8	0.017695263
129	0xbcf4b0bf	-0.029869435
130	0xbd6be22a	-0.057588734
131	0xbc44c14c	-0.012008976
132	0xbd432a33	-0.047647666
133	0xbcbd51a1	-0.023110213
134	0x3d2f836b	0.04284994
135	0xbca23232	-0.019799326
136	0xbd0db267	-0.034593966
137	0xbc367e2e	-0.011138482
138	0xbb15d725	-0.0022863832
139	0xbd58b9f8	-0.05291173
140	0xbde28bd0	-0.11061823
141	0xbd10c2d7	-0.035342064
142	0xbd6d7689	-0.057974372
143	0xbd1f6431	-0.03891391
144	0xbdeb861f	-0.11500191
145	0xbdb3bc48	-0.08776146
146	0xbbe67526	-0.007033008
147	0xbd0cb12b	-0.034348648
148	0xbda9918d	-0.08279715
149	0xbb000834	-0.001953614
150	0xbd95a0d8	-0.07306069
151	0x3cb0381e	0.021511134
152	0xbc2b27fd	-0.010446546
153	0xbd9628e0	-0.07332015
154	0x3c828c92	0.01593617
155	0xbd76e280	-0.0602746
156	0xbb81319b	-0.003942681
157	0xbcb28c63	-0.021795457
158	0xbd15d1cd	-0.036577035
159	0xbd9546ef	-0.0728892
160	0xbd9121c2	-0.07086517
161	0xbdd4b7ae	-0.103865966
162	0xbd7779a2	-0.060418732
163	0xbcae382f	-0.021267025
164	0xbdd06936	-0.101763174
165	0xbb179e24	-0.002313503
166	0xbd98176f	-0.074263446
167	0xbdb89540	-0.09012842
168	0xbd2190f4	-0.03944488
169	0xbd816e3d	-0.063198544
170	0xbd6454d4	-0.05574496
171	0xbd21972e	-0.039450817
172	0xbe08f50e	-0.13374731
173	0xbdb38e5f	-0.087673895
174	0xbccdd5f6	-0.025126439
175	0xbde0de0f	-0.10979854
176	0xbce513ab	-0.02796348
177	0xbd9f9ba4	-0.07793358
178	0xbd4bf754	-0.049796417
179	0xbc52fd87	-0.012877828
180	0xbc5da4cf	-0.013528063
181	0x3ce605a6	0.028078865
182	0xbcb5b038	-0.022178754
183	0xbdadda65	-0.08488921
184	0xba3df43e	-0.0007246173
185	0xbd1b00c8	-0.037842542
186	0xbc9f6f92	-0.01946238
187	0xbd829759	-0.063765235
188	0xbdc4a781	-0.09602261
189	0xbd9eac0c	-0.07747659
190	0xbdb4ad2e	-0.08822094
191	0xb9e3ac32	-0.0004342511
192	0x3c709296	0.014683386
193	0x3d165918	0.03670606
194	0xbd89cb28	-0.06728202
195	0xbda1ca95	-0.078999676
196	0xbca80c37	-0.020513637
197	0xbc1c3555	-0.0095342
198	0xbdafd852	-0.08586182
199	0xbbee17b6	-0.00726601
200	0xbe036eec	-0.12835282
201	0xbd6d56be	-0.057944052
202	0x3ce15ae2	0.027509157
203	0x3c6b9711	0.014379279
204	0xbcb1ce6f	-0.02170488
205	0x3d4dd053	0.0502475
206	0xbdf24252	-0.11829056
207	0xbcc38bf6	-0.02387045
208	0xbd0e586d	-0.0347523
209	0xbd8c50e6	-0.06851368
210	0x3a0304cf	0.000499797
211	0xbd128bb6	-0.03577777
212	0xbda87297	-0.08224981
213	0xbc30d5cc	-0.010793161
214	0xbd36fb19	-0.04467306
215	0xbdc77e3e	-0.09740876
216	0xbbe1dec0	-0.006893009
217	0xbd6b075a	-0.057380058
218	0xbd87c93a	-0.06630178
219	0xbd1c604b	-0.03817777
220	0x3d3ad9fa	0.045618035
221	0xbdd1a5ee	-0.10236727
222	0xbcdc1bfd	-0.026868815
223	0xbc4dfc8e	-0.012572421
224	0xbd93804b	-0.07202204
225	0xbc7ada6f	-0.015310868
226	0xbce20620	-0.027590811
227	0xbd7c7972	-0.061639257
228	0xbdaeb5f9	-0.08530802
229	0xbd3c6681	-0.045996193
230	0xbd2419ca	-0.040063657
231	0xbdd2917e	-0.10281657
232	0xbcf2fefd	-0.029662604
233	0xbd821608	-0.063518584
234	0xba5d7bda	-0.0008448936
235	0xbde82073	-0.11334314
236	0xbd196184	-0.037446514
237	0xbd64b062	-0.055832274
238	0xbe288b48	-0.16459382
239	0xbb90f477	-0.0044236737
240	0xbcbed50d	-0.02329495
241	0xbcaaa9e3	-0.020832961
242	0xbd3ba1b6	-0.045808516
243	0xbc2c8e42	-0.010531964
244	0xbd349677	-0.044088807
245	0x3d0bb954	0.03411229
246	0xbc5f0484	-0.013611916
247	0xbc36244c	-0.011117052
248	0xbcf665a6	-0.030077767
249	0xbdc3f214	-0.09567657
250	0xbda4109b	-0.0801098
251	0xbcbf2767	-0.023334218
252	0xbcd6ad2a	-0.026205618
253	0xbcc23f68	-0.023711875
254	0xbd2991f9	-0.041398976
255	0xbc9a1fe2	-0.018814031

network_body._body_endoder.seq_layers.0.weight f4 [256, 190]
0	0xbbf03c1d	-0.007331385
1	0xbd90ba34	-0.070667654
2	0x3dc0cd59	0.09414167
3	0x3d961c93	0.07329669
4	0x3da2588c	0.07927045
5	0x3cd96cdc	0.026541166
6	0xbdc43466	-0.09580307
7	0x3e57dff4	0.21081525
8	0xbd35e8d6	-0.044411503
9	0x3d70ea32	0.058817096
10	0xbd94c5ed	-0.07264314
11	0x3de3b17d	0.111178376
12	0xbbdffab5	-0.0068353065
13	0x3da88b1d	0.08229659
14	0xbde2b47c	-0.11069581
15	0x3cd26760	0.025684059
16	0x3d4b0b19	0.04957113
17	0x3da266b2	0.07929744
18	0x3d780318	0.060549825
19	0xbd93914e	-0.07205449
20	0x3ae46a59	0.0017426714
21	0x3cc95bd8	0.024579927
22	0xbdb91df4	-0.09038916
23	0x3d17c95f	0.037057277
24	0x3d7f0e4f	0.062269505
25	0xbdb60d19	-0.08889217
26	0xbdeaff5b	-0.114744864
27	0xbbbd7271	-0.0057814647
28	0x3d057a74	0.032587484
29	0xbda2703f	-0.079315655
30	0x3e158035	0.14599688
31	0x3dc69a64	0.096974164
32	0x3c748682	0.014924647
33	0xbd6789e7	-0.056528
34	0xbcf88f48	-0.03034176
35	0xbcff0b58	-0.031133339
36	0x3d2bbf75	0.041930635
37	0x3d326947	0.04355743
38	0x3d9bbc0f	0.07604229
39	0xbdd2e59c	-0.10297701
40	0x3d976c72	0.07393731
41	0xbc891999	-0.016735839
42	0x3baeb3ca	0.005331491
43	0x3d2447d9	0.04010758
44	0xbd86fc7a	-0.06591125
45	0xbde19e34	-0.11016503
46	0x3d4a7c0a	0.0494347
47	0x3d876827	0.06611662
48	0xbd41d98f	-0.04732662
49	0xbc98e23d	-0.018662566
50	0x3de94ccd	0.11391602
51	0x3dc6f98f	0.09715568
52	0xbdaaac0a	-0.08333595
53	0xbdb6c64e	-0.08924542
54	0x3e42b400	0.19013977
55	0xbdb1aeec	-0.08675942
56	0xbe52b564	-0.20577008
57	0x3e37b8be	0.17941567
58	0xbd2de877	-0.042458024
59	0xbd2845ce	-0.041082196
60	0xbdb340b0	-0.087525725
61	0x3db1578c	0.08659276
62	0x3e326262	0.17420343
63	0xbe1273d4	-0.14301997
64	0xbe9ae55b	-0.3025311
65	0x3e028103	0.12744527
66	0x3d421d2c	0.0473911
67	0xbde7bb8c	-0.113150686
68	0xbe291c0e	-0.16514608
69	0x3d63bb99	0.05559883
70	0x3c04bc5f	0.008101552
71	0xbd3decaf	-0.046368297
72	0xbd2bcf4e	-0.041945748
73	0x3d28b1b4	0.041185096
74	0xbe0da40d	-0.13832112
75	0x3c8bbe4b	0.017058512
76	0xbd7e395c	-0.06206642
77	0x3cbcd973	0.023052907
78	0x3d08674d	0.03330164
79	0xbd03864e	-0.032110505
80	0xbe809794	-0.25115645
81	0xbcd640e9	-0.026153998
82	0x3dcda169	0.10040552
83	0xbd9f174f	-0.07768118
84	0xbe277a2b	-0.16355197
85	0x3deb0f7a	0.11477561
86	0xbd2efa5f	-0.04271924
87	0xbdc49ba0	-0.095999956
88	0xbb68c848	-0.0035519768
89	0x3db5d759	0.08878965
90	0x3cc518fe	0.024059769
91	0x3db06275	0.08612529
92	0x3c804475	0.015657643
93	0x3bb7ed32	0.0056129927
94	0xbc0ded43	-0.008662525
95	0x3c260f64	0.010135505
96	0x3e10dda1	0.14147045
97	0xbd46970a	-0.048483886
98	0x3d96d6d8	0.07365197
99	0xbe854358	-0.26027942
100	0xbe123036	-0.14276204
101	0x3de1be32	0.11022605
102	0x3e40744d	0.18794365
103	0xbd16265b	-0.036657672
104	0xbdaf0fb7	-0.08547919
105	0x3e1d32c6	0.153514
106	0xbcc03793	-0.023464
107	0xbd0a3480	-0.033741474
108	0xbd8c7904	-0.068590194
109	0x3d1741c9	0.036927972
110	0x3cfd7ff3	0.0309448
111	0xbe187fef	-0.14892553
112	0x3d1845cd	0.037175942
113	0x3dbbcf12	0.09170355
114	0xbc1baae7	-0.0095011955
115	0xbdbde6c9	-0.092725344
116	0xbdeceb0e	-0.115682706
117	0x3d4e0228	0.050295025
118	0x3c186036	0.009300282
119	0xbd63ac40	-0.055584192
120	0x3e034c10	0.12821984
121	0x3c4ea443	0.012612405
122	0xbcd4d887	-0.025982155
123	0x3d508c5e	0.050915115
124	0x3d295fa7	0.041350987
125	0x3dd452e1	0.103673704
126	0x3d87d2b6	0.06631987
127	0x3b6c0990	0.0036016442
128	0xbd04376d	-0.03227942
129	0x3db37984	0.08763412
130	0xbdac0294	-0.08398929
131	0x3d98a76a	0.07453807
132	0xbdb1bde3	-0.08678796
133	0x3cc06a09	0.023488062
134	0x3a174aab	0.0005771319
135	0xbddba6a6	-0.10725145
136	0xbd49a21c	-0.049226865
137	0x3e2d1b9d	0.16905065
138	0xbcb331dd	-0.021874363
139	0xbcef3297	-0.029198928
140	0x3daef0b9	0.08542008
141	0x3ce99d04	0.028517254
142	0xbdaff5b2	-0.085917845
143	0x3d096a50	0.033548653
144	0xbdc7418c	-0.09729299
145	0x3e65fa5b	0.22458784
146	0x3e1e1e24	0.15441185
147	0xbdfe00ff	-0.12402534
148	0xbdcbef9e	-0.09957813
149	0x3dc5ae23	0.096523546
150	0xbd3ae6f5	-0.045630414
151	0xbdd7aee0	-0.10531402
152	0xbd9e58c7	-0.07731777
153	0x3c3a9027	0.011386908
154	0x3d47eb70	0.048808515
155	0xbce72fd5	-0.02822105
156	0xbd84c7e6	-0.0648344
157	0xbce97453	-0.02849785
158	0x3e19917d	0.14996906
159	0xbbc839b3	-0.006110394
160	0xbcfa9091	-0.030586513
161	0x3dbd22a6	0.09235124
162	0x3d0c0c14	0.034191206
163	0x3d65cc97	0.056103315
164	0xbca02925	-0.01955087
165	0x3d38ed57	0.04514822
166	0x3da7e996	0.0819885
167	0xbc594a48	-0.013262339
168	0xbcb32143	-0.021866446
169	0xbdf43a31	-0.11925162
170	0x3dc7df53	0.097593926
171	0x3c270f98	0.010196589
172	0x3d8b2519	0.06794185
173	0xbdf6e1a1	-0.12054754
174	0x3dbf6aec	0.093465656
175	0xbd684686	-0.05670788
176	0x3d80b302	0.06284143
177	0x3c319e9f	0.010841041
178	0xbbad4a2f	-0.0052883844
179	0xbd9331d5	-0.07187239
180	0x3e4edc93	0.2020133
181	0x3d58f8a1	0.052971486
182	0x3c81e347	0.015855445
183	0xbdd4aa04	-0.103839904
184	0x3cb3ed42	0.02196372
185	0xbe28009b	-0.16406481
186	0x3da765ae	0.08173691
187	0x3e1aa530	0.15102077
188	0x3d9a295d	0.07527421
189	0xbde53b35	-0.111929335
190	0xbb3f465c	-0.0029186225
191	0x3cba7db1	0.022765012
192	0xbde36f87	-0.111052565
193	0xbc92b336	-0.01790772
194	0xbd838cc3	-0.064233325
195	0x3e16aaeb	0.14713638
196	0x3de7a1e7	0.11310177
197	0xbd855395	-0.06510083
198	0x3d423383	0.047412407
199	0xbdfc6cda	-0.12325449
200	0x3d862705	0.06550411
201	0x3d91450c	0.07093248
202	0xbdeb5dd6	-0.11492507
203	0x3e2582e4	0.16163212
204	0xbd41851d	-0.047246087
205	0xbb9f6559	-0.0048643765
206	0x3e61ff59	0.22070064
207	0x3ddc0517	0.10743158
208	0x3d171330	0.036883533
209	0xbce650df	-0.028114734
210	0x3da9cb26	0.082907006
211	0x3dcc666d	0.09980474
212	0xbd239a49	-0.03994206
213	0xbdfd71d5	-0.12375227
214	0xbbd2e40f	-0.006435878
215	0x3d5a9688	0.053366214
216	0x3d1d444f	0.038395222
217	0xbcd43a1e	-0.025906619
218	0x3dd14dab	0.10219892
219	0xbb27caad	-0.0025602982
220	0x3de96892	0.11396898
221	0x3e5e432b	0.2170531
222	0xbd71d1be	-0.059037916
223	0x3cf2554e	0.029581692
224	0x3e14ef1e	0.14544341
225	0x3d2fba70	0.04290241
226	0x3d62d1e4	0.05537595
227	0x3d058f65	0.032607455
228	0x3e38b9cb	0.18039624
229	0x3cc446b8	0.023959503
230	0x3dfc382b	0.12315401
231	0xbd9b8c9b	-0.07595178
232	0x3e827cd4	0.2548586
233	0x3cdf09da	0.027226377
234	0xbc6cb18a	-0.0144466255
235	0x3da583e1	0.080817945
236	0xbd4386ea	-0.047736086
237	0x3ddc270b	0.10749634
238	0xbddcc40b	-0.1077958
239	0xbe0468db	-0.12930624
240	0x3d0a8d12	0.03382594
241	0x3da1f2fe	0.07907675
242	0xbd0b0b7a	-0.03394649
243	0xbcfcea79	-0.030873524
244	0x3e56fd7d	0.20995136
245	0xbd17befc	-0.03704737
246	0xbe7ebe78	-0.24877346
247	0x3b82219b	0.0039712912
248	0x3e197916	0.14987597
249	0x3dd7c5ea	0.10535796
250	0xbdb65d77	-0.08904546
251	0x3d86476a	0.0655659
252	0x3dabbcd4	0.083856255
253	0xbc157397	-0.009121797
254	0x3d84b87a	0.064804986
255	0x3c819587	0.01581837

network_body._body_endoder.seq_layers.2.bias f4 [256]
0	0xbcf41ef7	-0.029799921
1	0xbd2a1ea1	-0.041533116
2	0xbc4fd3ef	-0.012684806
3	0xbd807398	-0.06272048
4	0xbd2a3aaf	-0.04155987
5	0xbc87730f	-0.016534356
6	0xbda06c5b	-0.07833167
7	0xbd7c801f	-0.061645623
8	0xbd160203	-0.036623012
9	0xbd515547	-0.051106717
10	0xbd89c84d	-0.067276575
11	0xbd1edd0e	-0.038785033
12	0xbcdae49c	-0.026720338
13	0xbd77e52f	-0.0605213
14	0xbd02f8df	-0.031975623
15	0xbd8e9a60	-0.069630384
16	0xbd8c7e14	-0.06859985
17	0xbd7c2249	-0.061556134
18	0xbc012501	-0.007882358
19	0xbc86ecfb	-0.016470423
20	0xbd030e19	-0.031995866
21	0xbce96e03	-0.02849484
22	0xbc8b059a	-0.016970444
23	0xbd4b4453	-0.049625706
24	0xbd03a581	-0.03214026
25	0xbce0293b	-0.02736341
26	0xbcfde2ee	-0.030991998
27	0xbd1539be	-0.03643202
28	0xbd381f3a	-0.044951655
29	0xbcea154a	-0.028574605
30	0xbc45698a	-0.012049088
31	0xbcb20555	-0.021731058
32	0xbd40a6ae	-0.047033958
33	0xbcaa6d9d	-0.02080422
34	0xbcace5b5	-0.021105627
35	0xbdc0577f	-0.093916886
36	0xbbe3c0d1	-0.0069504757
37	0xbd67e3d9	-0.056613777
38	0xbce38a7a	-0.027775992
39	0xbcf3e07c	-0.029770128
40	0xbd6bda81	-0.05758143
41	0xbd791430	-0.060810268
42	0xbda2456d	-0.07923398
43	0xbd05a329	-0.032626305
44	0xbd37be10	-0.044858992
45	0xbd3fdf3e	-0.04684376
46	0xbd3543b3	-0.044254016
47	0xbd0ca7bf	-0.034339663
48	0xbc174f1b	-0.009235169
49	0xbd1fa961	-0.03897989
50	0xbc0c8404	-0.008576397
51	0xbd6f0506	-0.0583544
52	0xbd57d225	-0.052690644
53	0xbcfcf9c3	-0.030880814
54	0xbd1a094c	-0.037606522
55	0xbd8c9976	-0.06865208
56	0x3be9c85c	0.0071344804
57	0xbdb16a5d	-0.08662865
58	0xbd493446	-0.049122117
59	0xbc670fb1	-0.014102862
60	0xbd8b6cfe	-0.06807898
61	0xbd934a31	-0.07191885
62	0xbd81ec1c	-0.063438624
63	0xbd7f8eed	-0.062392164
64	0xbd9f0eb2	-0.07766475
65	0xbd80ae96	-0.062832996
66	0xbd2943a8	-0.041324288
67	0xbda5a482	-0.08088018
68	0xbd82815f	-0.06372332
69	0xbd1f1342	-0.038836725
70	0xbc9bd2d0	-0.019021422
71	0xbd57a6f5	-0.052649457
72	0xbcf6068f	-0.030032424
73	0xbd303b65	-0.043025393
74	0xbc46c1fe	-0.012131212
75	0xbd2853ab	-0.041095417
76	0xbd352c67	-0.0442318
77	0xbd505d55	-0.05087026
78	0xbc86f497	-0.016474051
79	0xbdbea6aa	-0.093091324
80	0x3b9cc44c	0.0047841426
81	0xbd99b227	-0.07504683
82	0xbd05ff5e	-0.03271424
83	0xbd53339a	-0.051562883
84	0xbdbba43e	-0.09162186
85	0xbd04adff	-0.032392498
86	0xbd41593e	-0.04720425
87	0xbd40ea59	-0.04709849
88	0xbc035da6	-0.008017933
89	0xbdb68ff7	-0.08914178
90	0xbd3b9874	-0.045799688
91	0xbdd42d30	-0.10360181
92	0xbd456527	-0.04819217
93	0xbd5283b7	-0.051395144
94	0xbd569d5e	-0.05239617
95	0xbd095df1	-0.033536855
96	0xbd78ed91	-0.060773436
97	0xbc24c168	-0.010055877
98	0xbcffa510	-0.031206638
99	0xbcf78189	-0.030213134
100	0xbd789752	-0.060691185
101	0xbd52902a	-0.051407017
102	0xbd1a94d8	-0.037739605
103	0xbd863c80	-0.06554508
104	0xbd202640	-0.039098978
105	0xbd94b3d8	-0.07260865
106	0xbd9abbd2	-0.07555355
107	0xbd590d6a	-0.05299131
108	0xbd42ab93	-0.047526907
109	0xbd97ca5b	-0.07411643
110	0xbc390bfc	-0.011294361
111	0xbd9e042f	-0.07715642
112	0xbd7226ae	-0.05911892
113	0xbd7c3dd6	-0.06158241
114	0xbd22f2de	-0.039782397
115	0xbd3bdac0	-0.045862913
116	0xbccb10e8	-0.024788335
117	0xbcedf4d3	-0.029047405
118	0xbd2aab45	-0.04166724
119	0xbd96bf5f	-0.0736072
120	0xbcee9b48	-0.029126778
121	0xbd476521	-0.04868043
122	0xbd295700	-0.041342735
123	0xbc329a1a	-0.0109009985
124	0xbdc650a6	-0.09683351
125	0xbd2805ed	-0.041021276
126	0xbab85096	-0.0014062102
127	0xbd4a57c6	-0.049400114
128	0xbd91e64b	-0.07124003
129	0xbcf89beb	-0.030347785
130	0xbcb1fd29	-0.021727161
131	0xbb5b4318	-0.003345674
132	0xbd52959e	-0.051412217
133	0xbd497f37	-0.049193587
134	0xbdb6173a	-0.08891149
135	0xbcc7a601	-0.024371149
136	0xbd96ba6d	-0.07359777
137	0xbd35201f	-0.044220086
138	0xbd181cdf	-0.03713691
139	0xbbb6c257	-0.0055773663
140	0xbd1fe714	-0.039038733
141	0xbc02fc61	-0.007994742
142	0xbd0d9964	-0.034570113
143	0xbd27a67d	-0.04093026
144	0xbd16f464	-0.036854163
145	0xbd83f60b	-0.06443413
146	0xbd755e9e	-0.059904687
147	0xbcb1f427	-0.021722866
148	0xbd4f74e9	-0.050648604
149	0xbdc52103	-0.09625437
150	0xbd8bcca2	-0.0682614
151	0xbd1d1596	-0.038350664
152	0xbd804d39	-0.06264729
153	0x3cbc2db9	0.022971021
154	0xbca48b1b	-0.020085862
155	0xbd568860	-0.05237615
156	0xbcb0e839	-0.021595107
157	0xbd8fdc6d	-0.07024465
158	0xbd49573d	-0.049155463
159	0xbda6dcad	-0.08147559
160	0xbd1c9dbe	-0.038236372
161	0xbd8dfa70	-0.06932533
162	0xbd629646	-0.055319093
163	0xbd6e49a2	-0.05817569
164	0xbd9d0e50	-0.076687455
165	0xbcab2f7f	-0.020896671
166	0xbc076525	-0.008263861
167	0xbd7978d3	-0.060906243
168	0xbd0c315e	-0.034226768
169	0xbd3e72ec	-0.046496317
170	0xbd96ab7c	-0.07356927
171	0x39e747bf	0.00044113208
172	0xbcd44a6a	-0.02591439
173	0xbd165f8a	-0.036712207
174	0xbc7f0634	-0.015565444
175	0xbcb7839f	-0.022401629
176	0xbd47b36b	-0.04875509
177	0xbca72533	-0.02040348
178	0xbce1b23d	-0.027550811
179	0xbd52a2d6	-0.051424824
180	0xbd96ba54	-0.07359758
181	0xbd34f31c	-0.04417716
182	0xbcf7279c	-0.030170254
183	0xbccac2d1	-0.024751099
184	0xbd9c8860	-0.07643199
185	0xbd3cce14	-0.04609497
186	0xbdc08e03	-0.094020866
187	0xbd0f7fbb	-0.035033923
188	0xbd3a1b94	-0.045436457
189	0xbca0155b	-0.019541433
190	0xbd0236a5	-0.031790394
191	0xbd7b00ce	-0.061280064
192	0xbcebe65c	-0.028796367
193	0xbd826af6	-0.063680574
194	0xbd404696	-0.046942316
195	0xbd7f5bb0	-0.0623433
196	0xbc9b1a77	-0.018933518
197	0x3c966a2f	0.01836118
198	0xbc55a7f4	-0.013040531
199	0xbd454fd0	-0.04817182
200	0xbd2670c8	-0.0406349
201	0xbd5cc448	-0.053898126
202	0xbdb5ff53	-0.0888659
203	0xbdb956c5	-0.09049753
204	0xbd2b4e55	-0.04182275
205	0xbd22b968	-0.0397276
206	0xbd284cd8	-0.04108891
207	0xbd670102	-0.056397445
208	0xbd42b236	-0.047533236
209	0xbd2bd4e0	-0.04195106
210	0xbc5e1b42	-0.013556303
211	0xbd2f368b	-0.042776626
212	0xbd3e5700	-0.04646969
213	0xbcfc426e	-0.030793395
214	0xbceb137d	-0.028695816
215	0xbd8c09f4	-0.06837836
216	0xbd81508f	-0.063141935
217	0xbd71b0e7	-0.059006598
218	0xbcc34e29	-0.02384098
219	0xbd8ebcdf	-0.06969618
220	0xbd4be8e9	-0.049782667
221	0xbd2059d9	-0.039148185
222	0xbd929b4e	-0.07158528
223	0xbd9896d8	-0.07450646
224	0xbd2e51a9	-0.042558346
225	0xbd3382ad	-0.043825794
226	0xbd418715	-0.047247965
227	0xbd5564db	-0.052098136
228	0xbc8487f0	-0.016178101
229	0xbcef5081	-0.029213192
230	0xbccd6aa2	-0.02507526
231	0xbd10cbad	-0.03535049
232	0xbcf9a141	-0.0304724
233	0xbd239f7f	-0.03994703
234	0xbd98333d	-0.07431648
235	0xbd7c4e23	-0.061597954
236	0xb9106b4c	-0.00013772881
237	0xbd8d7316	-0.069067165
238	0xbcdd32d6	-0.02700178
239	0xbd1010be	-0.035172217
240	0xbd480fca	-0.048843183
241	0xbd3ec2a4	-0.046572343
242	0xbce91a76	-0.028455
243	0xbda128b8	-0.078690946
244	0xbd39270a	-0.045203246
245	0xbce3d8f1	-0.027813407
246	0xbd83d457	-0.06436985
247	0xbd22a365	-0.039706606
248	0xbd57a9d8	-0.05265221
249	0xbd888b21	-0.06667162
250	0xbc8e1149	-0.017342227
251	0xbd216f82	-0.039412983
252	0xbd6e2c38	-0.05814764
253	0xbd0e3fa1	-0.03472865
254	0x3bf3a908	0.0074359216
255	0xbcc03261	-0.023461523

network_body._body_endoder.seq_layers.2.weight f4 [256, 256]
0	0x3d4f626d	0.050630976
1	0x3d729ba3	0.059230458
2	0xbc682d8a	-0.014171014
3	0xbcef6edb	-0.029227665
4	0xbe04809f	-0.1293969
5	0xbb918249	-0.00444058
6	0xbe0018fa	-0.12509528
7	0x3da80457	0.08203953
8	0xbdbf2979	-0.09334082
9	0xbd78f3f5	-0.06077953
10	0xbd299f52	-0.041411705
11	0xbd74a1d8	-0.05972466
12	0x3c8d0890	0.017215997
13	0x3e0fda89	0.14048208
14	0xbe1cfaa0	-0.15329981
15	0x3b184633	0.0023235201
16	0x3d3c7583	0.046010505
17	0x3d6fcb0d	0.058543254
18	0xbd890df7	-0.06692117
19	0xbdb3353b	-0.08750387
20	0x3d5b237d	0.05350064
21	0xbcc6baec	-0.024259053
22	0xbd54bd58	-0.051938385
23	0xbe100e64	-0.1406799
24	0xbd8573ff	-0.06516265
25	0xbce8af9d	-0.028404051
26	0x3bf13371	0.0073608686
27	0x3e5104c8	0.2041198
28	0x3dc3909f	0.09549069
29	0xbc5c94c6	-0.013463205
30	0xbd1872f4	-0.037219003
31	0x3d0efa5b	0.034906726
32	0xbd652bc4	-0.05594994
33	0xbd4000ea	-0.04687587
34	0x3e282d6e	0.1642358
35	0x3d606bf1	0.05479044
36	0x3dbfaddd	0.09359334
37	0x3d6062a8	0.054781586
38	0x3a820625	0.0009920044
39	0xbd0e68be	-0.03476786
40	0x3d2623ab	0.04056136
41	0xbd2e58a7	-0.042565014
42	0x3d94551d	0.072427966
43	0x3c7639a9	0.015028396
44	0x3cb9c11d	0.022675091
45	0x3d38b586	0.04509499
46	0xbdf193cd	-0.11795769
47	0xbd97e11a	-0.074159816
48	0xbdb620ce	-0.08892976
49	0x3d984b55	0.074362434
50	0x3d99af8c	0.07504186
51	0xbd367ab6	-0.04455062
52	0xbdd17809	-0.10227973
53	0x3dc9d591	0.09855188
54	0x3d1541b5	0.036439616
55	0x3c304542	0.0107587
56	0xbd8a1ba1	-0.06743551
57	0x3c22ebec	0.0099439435
58	0xb9a6ea0e	-0.00031836372
59	0x3c3b2f48	0.011424847
60	0xbc596564	-0.013268802
61	0xbe061e50	-0.13097501
62	0x3e33235d	0.17493959
63	0x3d20a5e4	0.039220706
64	0x3cda8271	0.026673527
65	0xbda69a62	-0.08134915
66	0x3e7249e1	0.23660995
67	0xbd1b66a9	-0.0379397
68	0x3c099113	0.008396405
69	0xbda7c39f	-0.08191609
70	0x3b394264	0.0028268332
71	0x3cf8db63	0.03037805
72	0xbe0ad699	-0.13558425
73	0xbd46f7aa	-0.048576035
74	0xbdeb5d80	-0.11492443
75	0x3d8fdfb2	0.07025088
76	0x3cce4012	0.025177035
77	0x3d671f7f	0.05642652
78	0xbd8e49b2	-0.0694765
79	0xbd4d8070	-0.050171316
80	0x3d8f279f	0.06989979
81	0x3d0301a1	0.031983975
82	0xbdec101c	-0.1152651
83	0x3d964463	0.073372625
84	0xbc1a6e00	-0.00942564
85	0xbd48a405	-0.048984546
86	0xbcf5319c	-0.029930882
87	0x3db66d2c	0.08907542
88	0x3db891b3	0.09012165
89	0x3cc82d29	0.024435597
90	0x3d6c5e1e	0.057706945
91	0x3c8cfd3a	0.017210592
92	0xbce752a2	-0.028237645
93	0xbe278275	-0.16358359
94	0x3d275d29	0.04086033
95	0xbd9bb78c	-0.07603368
96	0xbdba4f8d	-0.09097204
97	0xbc7740c2	-0.015091123
98	0xbb2a46fa	-0.0025982247
99	0xbc20f153	-0.009823161
100	0xbd769d51	-0.060208622
101	0xbc3dab59	-0.011576497
102	0x3cdb8d0b	0.026800653
103	0xbdbef9ac	-0.09324965
104	0xbdee9af8	-0.11650652
105	0xbd87774c	-0.06614551
106	0xbcc0eb16	-0.023549598
107	0x3d985db7	0.0743975
108	0xbc315525	-0.010823523
109	0x3e0da153	0.13831072
110	0x3dc85ce5	0.09783343
111	0xbd496e88	-0.049177676
112	0xbd15d7c3	-0.03658272
113	0xbd4a5837	-0.049400534
114	0xbda20413	-0.07910933
115	0xbdcff2b2	-0.10153712
116	0x3d9358d8	0.0719468
117	0x3d7cf6fa	0.061758973
118	0x3ded120b	0.11575707
119	0xbe27da8e	-0.16391966
120	0xbd6eb0c7	-0.058274057
121	0xbc2eac0e	-0.010661138
122	0xbe649f76	-0.22326455
123	0xbe00c8cf	-0.12576602
124	0xbd2db028	-0.042404324
125	0x3e126f73	0.14300327
126	0x3d6e6613	0.058202814
127	0xbb7cbaaa	-0.003856341
128	0xbe06167e	-0.13094518
129	0xbdcfbad2	-0.10143055
130	0x3bed99a9	0.0072509837
131	0x3d58f8bf	0.052971598
132	0xbe275539	-0.16341104
133	0xbd3781af	-0.04480141
134	0xbd9e9182	-0.07742597
135	0xbca1ff4e	-0.01977506
136	0x3d952bc6	0.0728374
137	0xbd75f9ea	-0.06005279
138	0x3e12b1f3	0.14325695
139	0x3c61bf22	0.01377848
140	0xbdbe5ea7	-0.09295397
141	0xbd098380	-0.033572674
142	0xbe4d3850	-0.20041013
143	0x3d81ccc7	0.06337886
144	0xbcbb2aa3	-0.02284748
145	0xbc054d96	-0.008136174
146	0x3d0e7f37	0.03478929
147	0x3adda095	0.0016908819
148	0x3d8e736b	0.06955608
149	0xbe443b8e	-0.19163343
150	0xbd16cf73	-0.036818933
151	0xbdc068cc	-0.093949884
152	0x3ca23526	0.019800734
153	0x3d139c5e	0.036037795
154	0xbd508db0	-0.050916374
155	0xbda0382a	-0.078232124
156	0xbd274f2e	-0.040846996
157	0xbdb5951e	-0.088663325
158	0xbd666b4c	-0.05625467
159	0xbd603471	-0.054737512
160	0x3d91edd4	0.0712544
161	0xbd8a0a52	-0.0674025
162	0xbe2327c0	-0.15933132
163	0xbcfeab1c	-0.03108745
164	0xbd7a397e	-0.061089985
165	0x3e0ada9a	0.13559952
166	0x3d9b4675	0.07581798
167	0xbd508943	-0.050912153
168	0xbdb2093e	-0.08693169
169	0xbdcf9b2a	-0.10137017
170	0xbe175bcc	-0.14781111
171	0xbdbb822c	-0.09155688
172	0xbd04e4e2	-0.032444842
173	0x3d6fbbd2	0.05852873
174	0xbd4f7b62	-0.050654776
175	0x3d4f318e	0.05058437
176	0xbd527ea1	-0.051390294
177	0x3db03ac7	0.08604961
178	0x3c9a10c6	0.018806826
179	0x3e4443ed	0.19166537
180	0xbdd6daa9	-0.10490925
181	0xbd49ed96	-0.049298845
182	0x3d903bd2	0.0704266
183	0x3dc46670	0.09589851
184	0xbdbde6f8	-0.092725694
185	0x3de0e9d4	0.10982099
186	0xbd0c69b7	-0.034280505
187	0xbc4a3284	-0.012341145
188	0x3d0b61bb	0.03402875
189	0x3dd9c9f2	0.10634221
190	0xbd977db1	-0.073970206
191	0x3d89309a	0.06698723
192	0x3df2f789	0.1186362
193	0x3d81ac6b	0.06331714
194	0x3cd665c6	0.026171576
195	0xbd662d77	-0.056195702
196	0x3cc70907	0.024296297
197	0xbc4ffe05	-0.01269484
198	0x3e388477	0.18019281
199	0xbd86c959	-0.06581373
200	0x39bcf07b	0.00036037326
201	0xbe4220b4	-0.18957788
202	0xbe5d8413	-0.21632414
203	0x39982830	0.0002902164
204	0x3ca1ad1c	0.019735865
205	0x3df4d11c	0.11953947
206	0x3d3e4a67	0.046457674
207	0xbcaddd74	-0.021223761
208	0xbd2db5b7	-0.042409625
209	0xbdf75b6e	-0.12077986
210	0x3e10ca6f	0.14139722
211	0xbc550e90	-0.01300396
212	0x3c9dc6f3	0.019259905
213	0x3c540718	0.012941144
214	0xbd87366f	-0.06602179
215	0xbc1ce246	-0.009575432
216	0x3d479514	0.048726156
217	0xbd2d6843	-0.04233576
218	0x3e111e73	0.14171772
219	0x3d06e6d8	0.032934994
220	0x3d861fb1	0.065490134
221	0xbda35808	-0.07975775
222	0xbd80cc98	-0.06289023
223	0x3d628f0b	0.055312198
224	0x3d8b2740	0.06794596
225	0x3d82428c	0.06360349
226	0xbd139656	-0.036032043
227	0xbdb77e22	-0.08959605
228	0xbda556a6	-0.080731675
229	0xbbbe8490	-0.0058141425
230	0xbdbede0f	-0.09319698
231	0x3d627f2b	0.055297058
232	0xbd6a6d68	-0.057233244
233	0xbe322c2e	-0.17399666
234	0xbd99ccfc	-0.07509801
235	0x3dc87cb3	0.097894095
236	0x3d211a67	0.03933182
237	0xbe06061f	-0.13088273
238	0x3dd12723	0.10212543
239	0xbe111622	-0.14168599
240	0xbddf3d6c	-0.10900387
241	0x3cf2350f	0.029566316
242	0xbd7b5be8	-0.061366946
243	0xbd858688	-0.065198004
244	0x3d8a8554	0.067637116
245	0xbc91b649	-0.017787116
246	0xbd3e7f15	-0.046507914
247	0x3d874f4c	0.066069216
248	0x3e025749	0.12728609
249	0xbd3af5a0	-0.045644403
250	0xbd3d8da3	-0.046277653
251	0x3dbfb9f6	0.09361641
252	0x3ca4b775	0.02010701
253	0x3d0da84c	0.03458433
254	0xbd2fb729	-0.042899285
255	0x3d69e83e	0.05710625

network_body._body_endoder.seq_layers.4.bias f4 [256]
0	0xbd106827	-0.035255577
1	0xbd18c65c	-0.037298545
2	0xbd4f7b25	-0.05065455
3	0xbd0465b7	-0.032323565
4	0xbd62b258	-0.055345863
5	0xbd01167b	-0.03151558
6	0xbc9a4068	-0.01882954
7	0xbd78da03	-0.060754787
8	0xbc63c2a2	-0.013901385
9	0xbc218c0f	-0.009860053
10	0xbc83fe03	-0.016112333
11	0xbd4816cc	-0.048849866
12	0xbd54a3c5	-0.051913995
13	0xbcdaf039	-0.026725875
14	0xbd21ce49	-0.03950337
15	0x3b986793	0.004651019
16	0xbd13d7f1	-0.03609461
17	0xbd6258ba	-0.055260397
18	0xbd98f197	-0.074679546
19	0xbca891ff	-0.020577429
20	0xbd524549	-0.051335607
21	0xbd17aaa0	-0.037027955
22	0xbd064b4d	-0.032786656
23	0xbcc92b2a	-0.024556715
24	0xbd862cf6	-0.06551544
25	0xbd2187cf	-0.039436158
26	0xbd1a27ca	-0.037635602
27	0xbd56e490	-0.052464068
28	0xbd27a8cb	-0.040932458
29	0xbd830fff	-0.063995354
30	0xbd55c3e9	-0.052188788
31	0xbd07a356	-0.033114754
32	0xbcdd6443	-0.027025348
33	0xbcd7942b	-0.02631577
34	0xbd93a771	-0.07209671
35	0xbce79343	-0.028268462
36	0xbd03c932	-0.032174297
37	0xbd733337	-0.059375014
38	0xbd8932fc	-0.066991776
39	0xbcc12994	-0.023579396
40	0xbd392082	-0.045197017
41	0xbc816f15	-0.015800038
42	0xbc7a8187	-0.015289671
43	0xbd2cd883	-0.04219867
44	0xbd629a57	-0.05532297
45	0xbd49d665	-0.04927673
46	0xbc335a7f	-0.010946869
47	0xbd002e13	-0.03129394
48	0xbcefd81a	-0.02927785
49	0xbd523a59	-0.051325176
50	0xbb43c2b4	-0.002987069
51	0xbd18dd35	-0.037320334
52	0xbd36ccaa	-0.044628777
53	0xbd55cd82	-0.05219794
54	0xbd872816	-0.06599443
55	0xbcd9a5a3	-0.02656824
56	0xbd4e305f	-0.0503391
57	0xbd655d46	-0.055997156
58	0xbd5944ec	-0.053044245
59	0xbc2b4b98	-0.010455035
60	0xbd18981f	-0.03725445
61	0xbd0984c1	-0.03357387
62	0xbd643ac4	-0.055720106
63	0xbd5376c8	-0.05162695
64	0xbd2474c0	-0.040150404
65	0xbd678c2a	-0.056530155
66	0xbcdd90b7	-0.027046544
67	0xbd7727a1	-0.060340527
68	0xbd329fb9	-0.043609355
69	0xbb89cbb5	-0.004205192
70	0xbd168bc3	-0.03675438
71	0xbd318337	-0.043338027
72	0xbd407a41	-0.04699159
73	0xbca978e6	-0.020687532
74	0xbd3df9b5	-0.046380717
75	0xbd025f89	-0.03182939
76	0xbd1bb4b9	-0.038014147
77	0xbd6f5a91	-0.05843598
78	0xbc91543a	-0.017740358
79	0xbc98a6cb	-0.01863422
80	0xbd55d12e	-0.052201442
81	0xbd3b1541	-0.045674566
82	0xbd90009f	-0.070313685
83	0xbce74fd4	-0.028236307
84	0xbd87d457	-0.066322975
85	0xbd4c853f	-0.04993176
86	0xbd1f6f24	-0.03892435
87	0xbd1cff14	-0.0383292
88	0xbd38621f	-0.04501545
89	0xbd7ae567	-0.06125393
90	0xbcd55942	-0.026043538
91	0xbd3cf1c0	-0.04612899
92	0xbd1fb157	-0.038987484
93	0xbcb43d12	-0.022001777
94	0xbd6f1b62	-0.058375724
95	0xbd2ae14c	-0.041718766
96	0xbc176099	-0.009239339
97	0xbd8c10d9	-0.06839151
98	0xbd90732b	-0.070532165
99	0xbd14a0fd	-0.036286343
100	0xbc732f0b	-0.014842759
101	0xbd8cc45a	-0.068733886
102	0xbd4f01ef	-0.050538953
103	0xbca4cd55	-0.020117441
104	0xbb5f24b0	-0.0034048967
105	0xbc4db328	-0.012554921
106	0xbd95e2ed	-0.07318673
107	0xbd10c751	-0.035346333
108	0xbd54b216	-0.05192765
109	0xbd0cd66b	-0.034384172
110	0xbd912f64	-0.07089117
111	0xbd4d604c	-0.050140664
112	0xbd64cb53	-0.055857968
113	0xbd7bbd9a	-0.061460115
114	0xbcfab6c8	-0.030604735
115	0xbd6c78b4	-0.0577323
116	0xbd426a15	-0.04746445
117	0xbd4870b2	-0.0489356
118	0xbd430384	-0.047610775
119	0xbd24bcd3	-0.04021914
120	0xbd589a91	-0.05288178
121	0xbd2fe892	-0.042946406
122	0xbd4f1c95	-0.050564367
123	0xbd527ff6	-0.051391564
124	0xbcd366cf	-0.025805859
125	0xbc99eaa0	-0.018788636
126	0xbd17f8cd	-0.03710251
127	0xbd0f0069	-0.0349125
128	0xbd1bf650	-0.0380767
129	0xbd90df3d	-0.07073829
130	0xbcdd37e1	-0.027004184
131	0xbcd190bf	-0.025581716
132	0xbd3b46b1	-0.045721713
133	0xbcd2885e	-0.02569979
134	0xbd44cf6f	-0.048049387
135	0xbcb9999d	-0.022656256
136	0xbd07da9c	-0.033167467
137	0xbccfce4f	-0.02536693
138	0xbd81dcb8	-0.06340927
139	0xbd6615a1	-0.05617297
140	0xbcc4d295	-0.024026195
141	0xbd685f18	-0.056731313
142	0xbd64bbb7	-0.05584308
143	0xbc730e80	-0.014835
144	0xbd1e6235	-0.038667876
145	0xbc38cb8f	-0.011279001
146	0xbd6ae94b	-0.05735139
147	0xbc4da2b0	-0.012550995
148	0xbd583867	-0.052788164
149	0xbcefd07b	-0.029274216
150	0xbd80de85	-0.06292442
151	0xbd5b0575	-0.053472
152	0xbcda37e5	-0.02663798
153	0xbd2af5b8	-0.041738242
154	0xbd48f467	-0.049061205
155	0xbd36dbd5	-0.044643242
156	0xbd5d2a8f	-0.053995665
157	0xbd400d8b	-0.046887916
158	0xbcfe49a3	-0.031040972
159	0xbd48acfe	-0.048993103
160	0xbd8233ba	-0.06357522
161	0xbd41bb4d	-0.047297765
162	0xbd42f52e	-0.047597103
163	0xbd8682ef	-0.06567942
164	0xbbe49194	-0.006975362
165	0xbd8dfc93	-0.0693294
166	0xbc7b2317	-0.01532819
167	0xbd41f642	-0.04735399
168	0xbce3263d	-0.027728194
169	0xbb56b95d	-0.0032764294
170	0xbd07df6e	-0.033172064
171	0xbd3dd5aa	-0.046346344
172	0xbca44ff2	-0.020057652
173	0xbd375900	-0.04476261
174	0xbd0c95e5	-0.034322638
175	0xbdb170d9	-0.08664102
176	0xbd5f3ac4	-0.054499403
177	0xbd26701a	-0.040634252
178	0xbcdb4c79	-0.026769863
179	0xbd874fce	-0.066070184
180	0xbd28aa70	-0.041178167
181	0xbd296760	-0.04135835
182	0xbd182655	-0.03714593
183	0xbcc00370	-0.02343914
184	0xbd977eac	-0.073972076
185	0xbcb23c2a	-0.021757204
186	0xbd62e738	-0.05539629
187	0xbce3366b	-0.02773591
188	0xbd9be35b	-0.07611724
189	0xbcfed847	-0.031108988
190	0xbd5cf728	-0.053946644
191	0xbd0fd8f7	-0.035119023
192	0xbd4d366a	-0.05010072
193	0x3c627148	0.013820954
194	0xbd2a1c11	-0.041530672
195	0xbbcc3ceb	-0.006232848
196	0xbd196552	-0.037450142
197	0xbcd7c475	-0.026338795
198	0xbcf894af	-0.030344335
199	0xbd09c55c	-0.033635482
200	0xbd0cb16e	-0.034348898
201	0xbc9c364e	-0.019068863
202	0xbcbb04ca	-0.022829432
203	0xbd297ada	-0.041376926
204	0xbccdd95f	-0.025128065
205	0xbd284455	-0.04108079
206	0xbd4e04f5	-0.050297696
207	0xbc965b07	-0.018353952
208	0xbd7c4350	-0.06158763
209	0xbd4ec15c	-0.05047737
210	0xbd24802c	-0.040161297
211	0xbd378c69	-0.04481164
212	0xbd142cf0	-0.03617567
213	0xbd60b786	-0.05486252
214	0xbd035a76	-0.032068692
215	0xbcbcfa57	-0.02306859
216	0xbd409baf	-0.04702347
217	0xbd51f159	-0.051255558
218	0xbd005c35	-0.031337935
219	0xbccb0005	-0.024780283
220	0xbd54d21e	-0.051958196
221	0xbd4d3b27	-0.05010524
222	0xbd1cfb32	-0.038325496
223	0xbd3e23ae	-0.046420746
224	0xbd046d3a	-0.03233073
225	0xbd479dd3	-0.048734497
226	0xbd298442	-0.041385897
227	0xbd264ce1	-0.04060066
228	0xbd01768f	-0.031607207
229	0xbd455ed2	-0.04818613
230	0xbd41cdbc	-0.047315344
231	0xbcf807c7	-0.030277146
232	0xbd3f81ae	-0.04675453
233	0xbd4855be	-0.048909895
234	0xbd4fdc9f	-0.05074751
235	0xbd2d2808	-0.042274505
236	0xbcd98249	-0.026551383
237	0xbd1f6ac4	-0.03892018
238	0xbd440adf	-0.04786193
239	0xbceb7b4f	-0.028745322
240	0xbd619b02	-0.055079468
241	0xbd134583	-0.035954963
242	0xbd7a6f22	-0.06114114
243	0xbd0c48d0	-0.034249127
244	0xbd3bc426	-0.04584136
245	0xbb71dc9d	-0.0036905177
246	0xbd071a88	-0.032984287
247	0xbd1ac5ca	-0.037786283
248	0xbd1eb233	-0.038744163
249	0xbcce5438	-0.025186643
250	0xbcb45569	-0.022013383
251	0xbd4366ca	-0.04770545
252	0xbc8b2c42	-0.016988877
253	0xbcc6b894	-0.024257936
254	0xbbe61ced	-0.007022491
255	0xbc2923ea	-0.010323504
