Assets/Training/results/RUN4/SzitakotoBehavior/SzitakotoBehavior-3499980.onnx (onnx, 729012 bytes, 17 tensors)

85 f4 [14]
00000000: 4b1f 0c3a 0822 2d3e 4b1f 0c3a 8954 2c3e
00000010: 4b1f 0c3a 6371 2f3e 4b1f 0c3a fa82 2e3e
00000020: 4b1f 0c3a d570 313e 4b1f 0c3a f383 303e
00000030: 4b1f 0c3a f383 303e
0.0005345239 0.16907513 0.0005345239 0.16829123 0.0005345239 0.17133097 0.0005345239 0.17042151
0.0005345239 0.17328198 0.0005345239 0.17237835 0.0005345239 0.17237835

88 f4 [42]
00000000: 2d5d b93a 9221 983e 5a12 033b cf4b 993e
00000010: b71e 0c3b 1575 963e 0dac 073b 66d0 993e
00000020: b71e 0c3b a693 943e 5b12 033b c6ab 993e
00000030: b71e 0c3b 78f1 923e 2d5d b93a 9f35 973e
00000040: 5a12 033b 2d5c 983e b71e 0c3b ab8b 953e
00000050: 0dac 073b eedb 983e b71e 0c3b c1a9 933e
00000060: 5b12 033b d4b4 983e b71e 0c3b 1802 923e
00000070: 2d5d b93a 1e44 963e 5a12 033b b766 973e
00000080: b71e 0c3b f29a 943e 0dac 073b d4e1 973e
00000090: b71e 0c3b 06b8 923e 5b12 033b 5eb7 973e
000000a0: b71e 0c3b 080c 913e
0.0014142148 0.29713112 0.0019999952 0.2994065 0.0021380612 0.29386202 0.0020701915 0.30041808
0.0021380612 0.29018897 0.0019999954 0.30013865 0.0021380612 0.2869985 0.0014142148 0.29533097
0.0019999952 0.29757825 0.0021380612 0.2920812 0.0020701915 0.29855293 0.0021380612 0.2884045
0.0019999954 0.2982546 0.0021380612 0.28517222 0.0014142148 0.29348844 0.0019999952 0.29570553
0.0021380612 0.29024464 0.0020701915 0.2966448 0.0021380612 0.28656024 0.0019999954 0.29632086
0.0021380612 0.28329492

91 f4 [132]
00000000: 3ddf bc3e ea86 ff3e f4c2 e93e a7bb 813e
00000010: 913a c23e bfdd ff3e 433c ea3e 83ff 803e
00000020: 1b9c b13e 7922 ff3e 7057 ec3e 59ab 823e
00000030: 9b54 bc3e 6590 ff3e 7a45 ea3e 6882 7f3e
00000040: 4013 a73e b15d ff3e d430 f13e 7a6d 833e
00000050: 48ce ab3e 3e3c fd3e f676 e73e c338 793e
00000060: 2acb 9b3e f478 ff3e 51cf f43e 7408 833e
00000070: acbd 933e 9c4f f83e 1ccf e43e b186 723e
00000080: ded2 8b3e 754a ff3e 7e46 f73e edec 813e
00000090: 054c 6f3e 0eb6 f73e 0bae eb3e 8318 743e
000000a0: 18b2 723e 2306 ff3e e733 f93e 41d9 803e
000000b0: 6831 bd3e ea6d ff3e a727 ea3e 8a12 7f3e
000000c0: 589e c23e 1ad0 ff3e e3a1 ea3e 5f82 7d3e
000000d0: 45f4 b13e 7300 ff3e 7ac2 ec3e 086e 803e
000000e0: f1b8 bc3e 3777 ff3e a9a7 ea3e df08 7b3e
000000f0: 8d5f a73e 6840 ff3e 958a f13e 0116 813e
00000100: 5c3b ac3e 2efd fc3e e4e0 e73e fe9e 743e
00000110: 1911 9c3e 2c60 ff3e ca1c f53e ca97 803e
00000120: b32a 943e 68dd f73e 4e2e e53e 03af 6d3e
00000130: 4712 8c3e 182d ff3e 9393 f73e e5bd 7e3e
00000140: d62a 703e 863c f73e 210a ec3e c616 6f3e
00000150: 2d27 733e ecde fe3e 0179 f93e 7c66 7c3e
00000160: 2a93 bd3e 8654 ff3e f28f ea3e 5084 7a3e
00000170: 2a08 c33e e3bf ff3e ed08 eb3e e8f0 783e
00000180: fe56 b23e 73dc fe3e bb1f ed3e 7232 7c3e
00000190: 3e23 bd3e 445e ff3e 5b0a eb3e 516b 763e
000001a0: 11ae a73e 7d1f ff3e 53e8 f13e 5552 7d3e
000001b0: e7a1 ac3e 00c1 fc3e ab44 e83e 8ad0 6f3e
000001c0: b15f 9c3e ed43 ff3e b26c f53e 0c19 7c3e
000001d0: b59b 943e f66f f73e 4fa3 e53e 04bf 683e
000001e0: 9255 8c3e 7a09 ff3e 81de f73e 3f7a 793e
000001f0: 670c 713e cbc7 f63e 6069 ec3e 68e1 693e
00000200: b69b 733e 4eb7 fe3e 5ab4 f93e 38e9 763e
0.36889067 0.4990762 0.4565655 0.2533848 0.37935308 0.49973866 0.457491 0.2519494
0.34689412 0.49830988 0.4616046 0.25521353 0.367833 0.49914852 0.4575613 0.2495209
0.32631874 0.49876168 0.47107565 0.2566946 0.33555818 0.49460024 0.45207947 0.24338059
0.3042844 0.49896967 0.4781442 0.25592387 0.28855646 0.48498237 0.44689262 0.23684193
0.27309316 0.49861494 0.4829597 0.25376073 0.23368843 0.48381084 0.46031222 0.23837475
0.2370075 0.4980937 0.4867241 0.25165752 0.36951756 0.49888545 0.45733377 0.24909416
0.38011432 0.49963456 0.45826635 0.24756764 0.34756675 0.4980503 0.46242124 0.25083947
0.3685985 0.4989564 0.4583104 0.24515103 0.32690087 0.49853826 0.47176042 0.252121
0.33639038 0.4941191 0.45288765 0.23888776 0.30481794 0.4987806 0.47873527 0.25115806
0.28938827 0.48411107 0.4476189 0.23211293 0.27357695 0.4983909 0.48354778 0.24877127
0.2345384 0.48288363 0.46101478 0.23348531 0.23745413 0.4977945 0.4872513 0.2464847
0.3702634 0.49869174 0.45812947 0.24464536 0.38092166 0.49951085 0.45905247 0.24310648
0.34831995 0.49777564 0.4631327 0.24628618 0.3694095 0.49876606 0.45906338 0.24064375
0.3274999 0.4982871 0.47247562 0.24738438 0.33717272 0.49365997 0.4536489 0.23419395
0.30541757 0.4985651 0.4793449 0.2461893 0.29025045 0.48327607 0.44851157 0.22729117
0.27409035 0.49811918 0.48411945 0.2436304 0.23539887 0.48199305 0.46174145 0.22839892
0.23789868 0.49749225 0.4877041 0.24112403

94 f4 [2]
00000000: d6bf 813e 8460 a73e
0.25341672 0.32690823

action_model._continuous_distribution.log_sigma f4 [1, 2]
00000000: e2b7 94be 4c59 0dbe
-0.2904654 -0.13803595

action_model._continuous_distribution.mu.bias f4 [2]
00000000: 0600 26bc 286d 80bc
-0.0101318415 -0.01567705

action_model._continuous_distribution.mu.weight f4 [2, 256]
00000000: 8f6e 583d 4ba4 b73c b9d1 39bc ab21 cdbb
00000010: 38e7 2c3b 622a 903c 4cda 2fbd 4789 013c
00000020: 1653 38bb f392 a4bd 54a5 283b fe46 013c
00000030: e6d0 acbc 0f71 2e3c 90e1 c4bc 33da 253c
00000040: 4d1a 063c e311 09bc 7129 023a 383c 953b
00000050: c64d 193c 8a4a d13b 01ec f83b e910 1b3c
00000060: 180c 18bc 904b 353c 1c14 94b7 fa69 51bb
00000070: 4852 f5bb 1f6b 91bb 45ca 8c3b 9fad 3bbc
00000080: d8c6 243c 2998 6d3b 004b 89bc 42a7 1a3b
00000090: 021b 90bd 40ab 76bb c6e0 93ba 60cf c43b
000000a0: 47ee 9f3b 7084 3b3d 22a6 f33c 8f5f 9f3c
000000b0: 0c64 bbba 45ed 323b 18e4 e9b9 ccce 263c
000000c0: 5eaf 1a3b 1a70 12bc e20a 963c 5fbd ac3b
000000d0: ff56 9c3c 782a 003c 6225 7ebb 769d 843c
000000e0: 43c6 203c 03aa d2ba af3c 133a c717 ca3b
000000f0: c3eb 5b3c 972b 4b3a 326e 22ba 1f2a 88bc
00000100: 4fb4 48bb 7f81 5e3c fd27 6a3a de28 193c
00000110: 02ae 7c39 863c 2e3c afe3 933b d50d ad3b
00000120: 34ae 173c 30cc 313c ee5e 173c cb81 b03b
00000130: a865 97b9 4574 693c ea05 803c 72c6 2a3c
00000140: d6ad d93b 6ba1 14bd 0eda 233c ecfd 513b
00000150: 8b5b 5fbc b9d6 cf38 5d5f e6bb 78d4 4b3b
00000160: 14fe 743c 90f8 393b 43eb 66bc 142b de3a
00000170: 82b9 273b 483b a03c 0873 40ba 7824 f43b
00000180: 5d1e fb3c f7af a5ba 4ef4 b83b bfa9 263c
00000190: b452 4d3a 384f af3c b2f2 323c a5ff 4ebc
000001a0: 9bf8 643d a8cc b53c 70e5 42bc 1bd0 b6bb
000001b0: 2115 a3bc 0999 faba 607c 72bb 4ae9 00bb
000001c0: 3be1 98ba 73b5 2d3b e0df ab3a f935 ec3b
000001d0: e304 a63b 09c7 613c e584 883b 75fe d23c
000001e0: e663 0e3c e745 c1ba 4e2f 2b3b 9569 6b3b
000001f0: 3d69 453b 2b32 c23c 4fd2 b7bb c384 bd3b
00000200: 1230 b3bc b861 86bc d2f9 6c3c 6b97 e83a
00000210: 483e a43c 2929 b4b9 a8bd 343c 852a 2ab8
00000220: 05c5 5fbc 872a 763b 6091 50bc 6a69 5dbc
00000230: 3dd3 063c ec2e 813b d7c4 7dbc 82ff 1a3d
00000240: 15be 463b 247a 0e3d a6c6 a53b 56b6 a33b
00000250: 3f80 b6bb 7b30 73ba 3faf 49b9 5531 203c
00000260: 8a07 173c dc76 863c 5adc 6e3b ac34 123c
00000270: 8e33 e63b 57fb 893c a410 463b 0a46 173b
00000280: 0ab9 443b 8548 9aba e6e5 8bbc a0f5 e8b8
00000290: 73f4 873d 8b6f 6439 43f4 26bd 2957 bb3b
000002a0: 0225 433b 83ac a23c 8771 b73b 74a8 a23b
000002b0: 560d 1d3b 1391 3b3c 1f46 f4b7 1fb1 68bb
000002c0: 491f c83a 2736 f83a f616 c93b c2f0 56bb
000002d0: 7d5b 573c 8078 3c3b ee73 0c3c c5dd c53b
000002e0: 0612 46bc 22c3 22bb d451 69bc 39c6 3d3b
000002f0: 2e32 a6bb ca73 4f3c a12d c23a 6ce1 b83b
00000300: 3f7d b2bb 2738 2bbc 5e31 903a 748c 113d
00000310: a150 d8bc 9b23 3a3c 198b b63c eb65 da3b
00000320: e8a6 463c 9a18 76ba a1c7 c03b c024 c83b
00000330: 5385 753c 3995 06bc d791 ac3b 320b 92bb
00000340: 0aaa 9d3b b079 9f3c c07d 303c 673b 0ebb
00000350: 3421 dcbc dff6 81bc 1043 ff3b 9c0e db3b
00000360: de6d 753c 524e 5c3b 0ed7 dc3b bbd2 e8ba
00000370: 2eaa 49bc d2da 7dbc 8b9a 1f3a ff7c 103c
00000380: 17d5 613c 4cc2 fbbb 43a4 73bc 51c1 013c
00000390: 8037 083d bcf6 84bc 5168 51bb 81d6 743b
000003a0: 4516 a73b a15e 913c c343 86bb 12c6 e4bb
000003b0: e545 0abd 6b7f a5bb d552 7abc 284f d43b
000003c0: 35b8 2939 688a 99bc 4916 3bbc 62e3 183c
000003d0: 64e5 b93a 7fa9 2a3d 25da f83b 50dc 53bc
000003e0: 716c ca3b 5210 313c a159 473b b5a3 5fbb
000003f0: c438 ed3a e54b 3d3b c80b 90bd ffbc 8d3c
0.052839812 0.022417208 -0.011341506 -0.006260117 0.0026382934 0.017598335 -0.042932793 0.007906265
-0.0028125695 -0.08035841 0.002573331 0.007890461 -0.021095704 0.010647072 -0.024033338 0.0101228235
0.0081849815 -0.008366081 0.00049652817 0.004554298 0.009356922 0.0063870596 0.0075964932 0.009464481
-0.009280227 0.011065379 -1.7652339e-05 -0.0031954036 -0.0074866153 -0.0044378187 0.0042965733 -0.011454969
0.010057174 0.0036254025 -0.016759396 0.0023598229 -0.07036401 -0.0037638694 -0.0011282198 0.0060061663
0.0048807 0.0457806 0.029742304 0.019454746 -0.0014296784 0.0027302068 -0.00044611166 0.01018114
0.0023603062 -0.00893786 0.018315736 0.005271598 0.019084452 0.007822625 -0.0038779606 0.016188364
0.009812894 -0.0016072396 0.00056166475 0.0061673853 0.013422909 0.0007750331 -0.000619623 -0.016621647
-0.003062505 0.013580679 0.00089323503 0.009348122 0.00024097416 0.010634547 0.004513226 0.00528119
0.009257842 0.010851905 0.009238942 0.0053865663 -0.00028876704 0.014248912 0.01562782 0.01042329
0.0066430373 -0.036286753 0.010000719 0.0032042218 -0.013632665 9.9105244e-05 -0.007030411 0.0031101983
0.014953155 0.0028376915 -0.014094177 0.0016950094 0.002559275 0.019559518 -0.000734136 0.0074506365
0.030654127 -0.0012640943 0.0056443578 0.010172307 0.0007832453 0.02140008 0.010922121 -0.012634193
0.05590115 0.022192314 -0.0118955225 -0.0055790073 -0.019907536 -0.0019119094 -0.0037000403 -0.00196703
-0.0011663804 0.0026505857 0.0013112985 0.0072085825 0.0050665005 0.013780364 0.004166233 0.0257561
0.00869081 -0.0014745564 0.0026120725 0.0035921086 0.0030122541 0.023705563 -0.0056097875 0.0057836487
-0.021873508 -0.016404018 0.014463859 0.0017745321 0.02004923 -0.00034362942 0.011031546 -4.0570758e-05
-0.013657813 0.003756197 -0.012729973 -0.013513902 0.008229074 0.003942361 -0.015488825 0.037841327
0.00303257 0.03478445 0.005059081 0.0049961014 -0.0055694873 -0.00092769385 -0.00019234138 0.009777387
0.009218106 0.016414098 0.0036447258 0.008923691 0.0070251888 0.016843481 0.003022232 0.0023082518
0.0030017518 -0.001177088 -0.017077398 -0.00011108373 0.06638422 0.00021785327 -0.04076029 0.0057171774
0.0029776697 0.01985765 0.0055982503 0.004963929 0.0023964248 0.011448163 -2.911972e-05 -0.0035505963
0.0015268113 0.0018937037 0.0061367704 -0.0032797311 0.013144371 0.0028758347 0.008572562 0.0060384
-0.012089258 -0.0024835547 -0.014240701 0.0028957261 -0.0050719 0.012661884 0.0014814624 0.0056421068
-0.0054470594 -0.0104503995 0.0011001041 0.035534337 -0.026405634 0.011361028 0.022283124 0.0066649816
0.0121247545 -0.0009387821 0.0058831726 0.0061078966 0.0149854 -0.008214288 0.005266409 -0.004456901
0.00481153 0.019467205 0.010772169 -0.0021702887 -0.026871301 -0.015864788 0.007789977 0.006685091
0.014979808 0.0033616018 0.0067395037 -0.0017762998 -0.01230864 -0.015494065 0.00060883973 0.008818864
0.013783715 -0.007683074 -0.014870706 0.007919625 0.033256054 -0.016230933 -0.0031953047 0.00373593
0.0050990903 0.017745318 -0.0040974333 -0.0069816196 -0.033758063 -0.00505059 -0.015278538 0.0064791627
0.00016185718 -0.018742755 -0.011418887 0.009331556 0.0014182744 0.04166555 0.007594364 -0.012930945
0.006177478 0.010807114 0.0030418413 -0.0034124677 0.0018098583 0.0028884348 -0.07033497 0.017302034

network_body._body_endoder.seq_layers.0.bias f4 [256]
00000000: 5574 85bd 87d6 66bd 0b5f 863c a292 d7bb
00000010: acd4 3d3c 5fac 25bd c86e f1bc 6e85 bbbb
00000020: cd6a 99bb 6ebc 9fbd f3d9 4d3c a776 f7bd
00000030: b841 b3bd 8202 53bd cb1a 9fbd 6505 63bb
00000040: 0424 d2bc d12a 06bd ca15 75bd 26c7 07bc
00000050: 53d7 e93c 02e1 31bc a978 6abd bdf8 e7bc
00000060: 5831 9cbd e9ec e03c bf49 db3b 0cdd 293d
00000070: 21b8 6a3a c82e b4bd b45e 23bd 9ced 9abd
00000080: 850a 91bc 3f36 02bd 3ec6 07bd 2235 963c
00000090: 61bd 7cbd 6ecc 23bd 205b 5cbc 60b0 d4bc
000000a0: 11cc e0bc d01f 48bc 1f41 36bd df08 813d
000000b0: 70d1 eb3b 2eda 90bc 69f4 51bc 9ed9 89bc
000000c0: c3aa f1bc 7937 e6bc 0502 babd 1b77 17bc
000000d0: a2ca a8ba 07d2 913a 228e 873c a75e 0abb
000000e0: dcfb 9ebd ce57 90bd 3fd7 40bc c2a0 3fbd
000000f0: f00d 90bd 9fcf cdbd 02d3 6fbd 072e 02be
00000100: 726c 983a 0290 a3bd a1de 5cbd 1c8b fbbc
00000110: ae87 03bd 99e1 07be 21da 86bd c167 66bd
00000120: 3f12 41bd ad8f 83bc eac5 29bd a046 56bd
00000130: 7468 40bd 253b 47bd 10d9 09bd a367 9d3a
00000140: f440 9fbd 3255 f4bc 11ea 59bd 1a04 263a
00000150: 530f c7bc 2959 4fbd 9082 1ebd 2098 f53c
00000160: 5051 1c3a 8ff0 8cbd 6f4c 87bd 3637 4abd
00000170: 5992 acbd ee6e 87bd 298f 47bc 0f19 9abd
00000180: b8dc a7bd 7258 8dbd 23a3 b0bd 33e4 7cbd
00000190: 7812 d33c 6d66 b5bd 8d7c 95bd f008 e5bc
000001a0: 45e9 b5bc e185 99bc 76f8 06bd 3307 bdbc
000001b0: a586 19bd da68 73bc a1a4 d93c 2f86 27bd
000001c0: 2f43 593c 7884 09bd 05ed 1fbc fb42 edbc
000001d0: 19bc 98bd d44c 6cbd b982 86bd 06f9 61bc
000001e0: 7b00 1ebd 0e31 96bd 2514 d4bd bb3b 583d
000001f0: 9def 34bd 198a 88bd 62b2 2abc b555 c6bc
00000200: a8f5 103d a18c 47bd 94d5 6ebd 6491 13bc
00000210: 0d1b 5ebd 4f54 64bc 7c30 fb3c de14 04bc
00000220: ed89 17bd 0d19 41bc 9b29 d7ba 4bb1 40bd
00000230: 55e0 c5bd 6b44 57bd 84e2 59bd 0b3c 0ebd
00000240: 0d8a adbd a3c0 96bd 50bf 2fbc 2de1 acbc
00000250: 4b5c a2bd e1ac 4cba 13ae 8dbd c8e1 d83c
00000260: bdd2 09bc 6324 83bd fd4b a33b 31b5 78bd
00000270: ad65 45bc 868f 13bc 61c1 d0bc 7948 73bd
00000280: 250f 87bd a84b cbbd 6aa1 62bd ba93 8abc
00000290: 03e6 debd d39b 5139 66ca 91bd d31f 85bd
000002a0: 4294 00bd 8c48 5ebd 9749 34bd fb0f 29bd
000002b0: 474a c7bd d24a bcbd b911 95bc d498 dbbd
000002c0: 1884 d3bc 812d 93bd 82c8 60bd b418 12bc
000002d0: 8198 31bc 38d8 623c deae 71bc 2a79 aabd
000002e0: f978 83bb 3f64 02bd 7a40 cebc c475 82bd
000002f0: f7d4 a5bd 1b58 7dbd 0a14 a1bd 2d7d 093c
00000300: 9bf7 c73c 6944 053d 8b4c 86bd 8f10 89bd
00000310: 0db4 a8bc 10ad 9cbb 76ad cabd 008c 5abc
00000320: 7202 cfbd 946c 74bd 8e12 cc3c 6fc5 3b3b
00000330: bd02 acbc 5ec7 193d 6d2f d1bd 4567 9cbc
00000340: 8c86 d8bc 6a14 8abd 4a1c 62ba 1e09 06bd
00000350: 4dd7 99bd b751 adbc a92f 03bd cecb bfbd
00000360: 7fe8 14bc 34ab 63bd d4d9 61bd ab7b 09bd
00000370: ec36 3b3d 824a acbd e41e ebbb 81f4 b0bc
00000380: 0c41 82bd 170d a3bb bb82 90bc 9d65 77bd
00000390: 9bbb b9bd f75a 36bd f878 28bd 7b3f cdbd
000003a0: 6912 ebbc 1cb2 50bd 3289 82bb dc56 c2bd
000003b0: 3b0f f0bc 1968 51bd 849f 26be ef2e 63bb
000003c0: 14f8 85bc 7604 9cbc 4f51 30bd d5f1 1ebb
000003d0: 1c0f 2abd f91d d23c 1fee 30bc 9c74 85bb
000003e0: d2a3 b3bc 2f50 a4bd b874 a7bd f987 e3bc
000003f0: 7426 ebbc c7c2 64bc b878 09bd a173 82bc
-0.06516329 -0.056356933 0.016402742 -0.0065787593 0.011586349 -0.04044759 -0.02947177 -0.005722693
-0.004681921 -0.07799612 0.01256417 -0.12083178 -0.08752769 -0.051516064 -0.07768782 -0.0034640667
-0.02565194 -0.032755677 -0.059835233 -0.008287227 0.028545057 -0.010856869 -0.057243977 -0.02831685
-0.07626599 0.027456718 0.006692141 0.041470572 0.0008953829 -0.08797985 -0.039885238 -0.07564852
-0.017705211 -0.031790014 -0.033148043 0.018335883 -0.061704043 -0.03998988 -0.01344946 -0.025963008
-0.027441056 -0.012214616 -0.044495698 0.0630052 0.0071965978 -0.017682161 -0.01281462 -0.0168274
-0.02950037 -0.028102623 -0.090824164 -0.009244706 -0.0012877772 0.0011125215 0.016547266 -0.0021113546
-0.07762882 -0.070479974 -0.011770069 -0.04678417 -0.07033908 -0.10049366 -0.058550842 -0.1271287
0.0011628999 -0.07986452 -0.053923253 -0.030705981 -0.032111816 -0.13269652 -0.065845735 -0.05625129
-0.04713654 -0.01605972 -0.04144851 -0.052313447 -0.046974614 -0.04864039 -0.033654273 0.0012009036
-0.07776061 -0.02982578 -0.05320174 0.00063330086 -0.0242993 -0.05062214 -0.038698733 0.029979765
0.0005963044 -0.068818204 -0.066063754 -0.04936906 -0.08426351 -0.06612955 -0.012180128 -0.07524311
-0.08196396 -0.06901635 -0.08624866 -0.061741065 0.025765643 -0.08857427 -0.07299147 -0.027958363
-0.022205958 -0.018740596 -0.032951795 -0.023074722 -0.037481923 -0.0148565415 0.026567759 -0.04089945
0.013260647 -0.033573598 -0.0097611 -0.028962603 -0.07457752 -0.057690457 -0.06567902 -0.013792282
-0.038574677 -0.07333575 -0.10355405 0.05279134 -0.044173826 -0.06666965 -0.010418506 -0.02421079
0.035390526 -0.0487181 -0.058309153 -0.009006832 -0.054225016 -0.013936116 0.030662768 -0.008061616
-0.03699677 -0.011785758 -0.0016415598 -0.04704408 -0.096619286 -0.052555483 -0.053194538 -0.03472523
-0.08473597 -0.07360961 -0.010726765 -0.021103466 -0.0792776 -0.00078077434 -0.06917968 0.026474848
-0.00841206 -0.064034246 0.0049834237 -0.060719673 -0.012048167 -0.009006387 -0.025482835 -0.059395287
-0.065946855 -0.0992654 -0.055329718 -0.016916145 -0.10883715 0.00019989842 -0.071186826 -0.065002106
-0.03139139 -0.054268405 -0.044015493 -0.041275006 -0.09730964 -0.09193958 -0.018196927 -0.10722509
-0.025819823 -0.071864136 -0.05487872 -0.0089170225 -0.010839582 0.013845496 -0.014751164 -0.083238915
-0.004012224 -0.031833883 -0.02517723 -0.06370118 -0.080972604 -0.061851602 -0.0786515 0.008391661
0.02441006 0.032535944 -0.06557568 -0.066926114 -0.020593667 -0.004781373 -0.09896366 -0.013339043
-0.10107888 -0.05967386 0.024911191 0.0028651615 -0.0209974 0.037543647 -0.10214124 -0.019092211
-0.026431344 -0.06742175 -0.0008625431 -0.03272354 -0.075117685 -0.021157129 -0.032027874 -0.093650445
-0.0090886345 -0.055583194 -0.055139378 -0.033565205 0.045706674 -0.08412649 -0.0071753133 -0.021600964
-0.06360063 -0.0049759257 -0.017640462 -0.06039964 -0.09068986 -0.044520345 -0.04113099 -0.100218736
-0.028695302 -0.05095111 -0.00398364 -0.09489223 -0.029304137 -0.051124666 -0.16271788 -0.0034665426
-0.016353644 -0.019045096 -0.043046292 -0.002425303 -0.041518316 0.025649058 -0.01079896 -0.004072739
-0.021928702 -0.08023106 -0.08176559 -0.027774798 -0.02870486 -0.013962454 -0.033562392 -0.015924277

network_body._body_endoder.seq_layers.0.weight f4 [256, 190]
00000000: bb3f 47bc 99f1 a0bd a35e 9e3d beee 7e3d
00000010: 8f28 a13d 6c83 333d 092f c6bd 317e 593e
00000020: e7cd 46bd 0483 8c3d 6596 8ebd 1a49 e33d
00000030: 8d04 7abb bc22 a83d da89 dbbd be40 723c
00000040: c6ad bd3d 8fcc 9c3d 1071 6a3d ecee 95bd
00000050: 49cd 083d 4fbb c53c 6149 8cbd d044 253d
00000060: 5daa b43d a290 b3bd 3db1 aebd d9e7 f338
00000070: dfd8 b93d ac27 a7bd e75e 3c3e 2606 9d3d
00000080: fbcf 553d d1b2 88bd eba4 18bc b4b5 3dbd
00000090: a6b1 693d f07c 163d 902a d93d adf2 e2bd
000000a0: 3edf 3d3d 5b05 c4bc 1879 6d3a c802 ca3c
000000b0: b555 09bc 3819 f8bd f396 b13d 3c0c 873d
000000c0: dd02 3cbc 011f bebc 3f18 013e 235e c63d
000000d0: b1b6 37bd a4c3 b8bd d941 143e ad28 b1bd
000000e0: 1ebc 3fbe 8e72 283e 5916 1cbd 07a6 3fbd
000000f0: f5b9 9fbd 9177 b43d 3c64 293e 1b8a 1cbe
00000100: f929 8dbe 7b66 eb3d b09e 363d f440 eabd
00000110: b63c 1fbe b6e6 743d d730 67bb c847 7cbd
00000120: 5adc bebc 6fcb 1a3d 2ae7 15be 6d6f 8d3c
00000130: c5fe 59bd dcbf af3c f939 ef3c 5d5e 2bbd
00000140: dfb8 7cbe 1999 fcbc 8824 d13d 6c9e 9ebd
00000150: ba4e 1ebe 132e e33d 603b 38bd 3b7c e0bd
00000160: 3bc5 e03b 51a1 a43d ad23 d13c 7e76 bc3d
00000170: 1b03 143d 4e7b 1fbb 9a71 54bc 87f3 f5ba
00000180: 9d3f 223e 8781 89bd d1e7 a93d e668 7fbe
00000190: 89ab c7bd 2e9d b63d a865 363e 8388 46bd
000001a0: b441 4abd 83a1 0f3e 533f 06bd 0471 3dbd
000001b0: e083 0bbd 9114 cd3c e406 b43c 37e9 21be
000001c0: 583f 7d3d 7a52 af3d 637d 9abc 9525 dcbd
000001d0: 4ee7 a6bd 0424 0b3d a2f5 fa3b afbf 77bd
000001e0: de19 163e f398 4d3b e255 f0bc 66ff 2b3d
000001f0: e86e 913d aad5 9f3d 93a5 a23d 7fb9 193c
00000200: 3bdc 55bc b4f8 8e3d e374 9bbd 76eb a63d
00000210: e81f 8dbd f3f6 3f3c 91d8 873b 7470 d8bd
00000220: 0289 f8bc 8446 1f3e b409 a6bc 3a4a 0bbd
00000230: e963 c23d 86a6 1a3c b0eb 8fbd be06 2c3d
00000240: f242 7dbd 0859 563e fe15 143e 110c 04be
00000250: 429a b2bd a301 c83d a0b2 5bbd a5ad e5bd
00000260: 3f66 91bd a70d 383c 019e 2b3d 5524 febc
00000270: fd8f 6cbd 3c2b d1bc e860 133e 5cf6 81bc
00000280: 9fcf 33bc 6468 c23d f5b5 af3c 4246 603d
00000290: 09b1 8abc 6578 273d 2e10 af3d a3af 74bc
000002a0: 25de d2bc 6c28 03be 9fe3 dd3d 567a 9c3c
000002b0: 908a 8a3d ae7c 05be f2d6 d83d 9af1 46bd
000002c0: 3d30 4e3d 74e0 a03b e1bc ba3b 25c1 87bd
000002d0: 901c 4f3e 0c4f 4b3d 9036 9f3c 1396 dcbd
000002e0: d660 583c 1d95 34be 82c2 c93d f063 203e
000002f0: a552 843d c562 dbbd 314c 73bc 359c 293d
00000300: 3803 06be a344 c9bc 1604 8cbd 47e3 2e3e
00000310: a9d5 d73d 4279 6fbd 7204 603d 2ab5 a7bd
00000320: 6346 853d aee7 593d 7c3e ecbd 3e5a 133e
00000330: 8934 a2bd 82f2 e9bb 3ad4 663e 280f e03d
00000340: e41a 2abd 8e56 98bc 05d3 e33d 35bf c03d
00000350: ad8a 4dbd 1971 ecbd 7bec 4b3c 2ada fc3c
00000360: 7de3 d23c d11b 79bc b8d5 0d3e 5ad0 903c
00000370: 1808 073e 056a 5b3e 652c 19bd c16f 2d3d
00000380: 3be4 1e3e d986 f33c 4adb 5b3d 5420 243d
00000390: 55b9 603e 8fde a83c 9bf4 ef3d f769 46bd
000003a0: 74fd 733e 2419 503c d7cf 6e3c eb7f 873d
000003b0: f443 febc 7d06 013e 45d0 c1bd 6dd7 05be
000003c0: fec7 1e3d c9fb c23d 94b8 9bbc 7362 12bd
000003d0: 0761 1d3e c876 cbbc 8655 76be 0a8c b0bc
000003e0: c528 283e 5fac c33d 5398 b6bd 9446 843d
000003f0: 7aad 9e3d dc63 8abc 1e33 983d dff7 deba
-0.012161191 -0.07858581 0.07732894 0.0622394 0.07869064 0.043826506 -0.0967694 0.21239544
-0.048536208 0.06860927 -0.06962279 0.110979274 -0.0038149685 0.0820975 -0.107196525 0.014785944
0.0926166 0.07656204 0.05723673 -0.07320961 0.0333989 0.024137167 -0.068499334 0.040348828
0.08821557 -0.08767821 -0.08529899 0.00011630328 0.09074568 -0.08161864 0.18395577 0.07667188
0.0522003 -0.066747315 -0.009316663 -0.046315864 0.057054184 0.036740243 0.10603821 -0.11081443
0.04635548 -0.023928335 0.0009058877 0.02465953 -0.008382251 -0.12114185 0.086713694 0.065941304
-0.011475292 -0.023208143 0.12606905 0.09685924 -0.044851962 -0.090216905 0.14478244 -0.086503364
-0.18724105 0.16449949 -0.03810725 -0.046789195 -0.0779914 0.08811868 0.16542143 -0.15287058
-0.27571085 0.11494156 0.04458493 -0.1143817 -0.15550503 0.059790336 -0.0035276914 -0.061591893
-0.023298431 0.037791666 -0.14638963 0.017265046 -0.053221483 0.02145379 0.029202448 -0.04183804
-0.24679898 -0.030834721 0.10212046 -0.0774506 -0.1545972 0.11092772 -0.0449785 -0.10961195
0.006859449 0.08038581 0.025529707 0.09202288 0.036135774 -0.002433497 -0.012966538 -0.0018764593
0.15844579 -0.067141585 0.082961686 -0.2494236 -0.097495146 0.089166984 0.17812216 -0.04847003
-0.049379066 0.14026456 -0.032775234 -0.04625036 -0.034061313 0.02503422 0.021975942 -0.1581162
0.061827987 0.08560653 -0.018858617 -0.10749356 -0.081495866 0.033969894 0.0076586762 -0.060485538
0.14658305 0.0031371682 -0.029337827 0.041991614 0.07101232 0.07804425 0.07941737 0.009382605
-0.013052995 0.0698103 -0.07590654 0.08150379 -0.06890851 0.011716592 0.00414569 -0.10568324
-0.030338768 0.15554243 -0.020268299 -0.034006335 0.094917126 0.009439116 -0.07027376 0.041998617
-0.061831422 0.209324 0.14461514 -0.12895228 -0.087208286 0.09765937 -0.053637147 -0.11214761
-0.0709958 0.011233724 0.04189873 -0.031023184 -0.057754505 -0.025533311 0.14392436 -0.015864544
-0.010974794 0.09492567 0.021449069 0.054754503 -0.01693012 0.0408863 0.08548008 -0.014934453
-0.025740692 -0.12808388 0.10834431 0.019101303 0.0676471 -0.13035843 0.105878726 -0.048570253
0.050338972 0.0049095694 0.0056987857 -0.06628636 0.2022574 0.04963593 0.019435197 -0.10770812
0.013206681 -0.17635007 0.098515525 0.15663123 0.06461076 -0.10712198 -0.014849708 0.041408736
-0.13087165 -0.024568861 -0.06836717 0.17078887 0.10538799 -0.05846525 0.05469174 -0.08188851
0.06507566 0.053199463 -0.115353554 0.14389893 -0.079201765 -0.007139505 0.22541896 0.10940391
-0.04152955 -0.01859596 0.11124233 0.0941147 -0.05018108 -0.11545009 0.012446518 0.030865747
0.02574324 -0.015204386 0.13851058 0.017677475 0.13186681 0.21427162 -0.037395854 0.042342905
0.1551675 0.029727386 0.053675927 0.040069893 0.21945699 0.020613937 0.11716577 -0.0484409
0.23827153 0.0127013065 0.01457592 0.06616195 -0.031038262 0.12600131 -0.094635524 -0.1307046
0.038764946 0.095206805 -0.019008912 -0.03573842 0.15369044 -0.024836913 -0.24056062 -0.02155115
0.16421802 0.095543616 -0.08915772 0.06458774 0.07747932 -0.01689332 0.07431625 -0.0017011127

network_body._body_endoder.seq_layers.2.bias f4 [256]
00000000: ad99 16bd 8324 ffbc 1c91 94bc f4dc 2cbd
00000010: d8a7 58bd 01fe 23bb 7aba 7fbd 2dd9 55bd
00000020: 4500 1dbd 9e3f 47bd 256d 4bbd 8c8e a1bc
00000030: b8d1 a0bc f013 86bd f198 c3bc b76c 85bd
00000040: 9617 0cbd 52a2 80bd 8234 86bc aa24 58bc
00000050: 81aa e4bc 489b cabc 8980 acbc 362a 2cbd
00000060: a29f e2bc 9893 cdbc 7a7f f2bc 6a56 ffbc
00000070: bf06 36bd ad3b cebc 0f82 2bbc 0177 61bc
00000080: 1628 12bd 0e02 71bc 317d bdbc b57d 99bd
00000090: 0677 2abd ed2f 52bd 1d3c 01bd 67d4 e4bc
000000a0: 4552 68bd 42bf 7bbd beec 8cbd ec84 aabc
000000b0: 39db 00bd 6822 4bbd 409c 38bd acdc f7bc
000000c0: bf46 893a ba78 4dbd 6b1a 03bc 195e 50bd
000000d0: a22a 5cbd de4b 24bd 43fa 25bd 3c37 9bbd
000000e0: 575e 58bc 1b8f 8bbd 1b4d 12bd 9fdc 6fbc
000000f0: 358a 6abd ea66 9abd 6c48 49bd 23ac 8fbd
00000100: 2717 6bbd 374c 9dbd 4633 f5bc 8b29 95bd
00000110: 6d60 60bd cb96 34bd 6f4c cabc 689e 82bd
00000120: 5c5f 08bd cf74 41bd 7c21 3abc 7e18 16bd
00000130: 4cd1 42bd ec67 1fbd 1580 1bbc 56be 9bbd
00000140: 95cb 80ba 9f9b 95bd 2b40 f1bc 0772 2abd
00000150: 5dc4 b3bd 9b63 a1bc 2510 1fbd 05b8 31bd
00000160: c30e 56bc 5910 90bd a795 96bc e794 d9bd
00000170: 2c17 3dbd a1aa 01bd 94d4 40bd 4477 0bbd
00000180: 0278 5ebd 7004 1cbc a2bb 2dbd 6bca 1bbd
00000190: 3ea6 70bd 9633 6bbd 3031 06bd 5836 1cbd
000001a0: bd63 35bd d0ca 6cbd ed5a 80bd 467f 8cbd
000001b0: 1e99 1bbd 2c64 87bd ed4d 06bc f062 8fbd
000001c0: ac9d 84bd 398c 48bd f42e 29bd f009 03bd
000001d0: 416d 68bc 99de d5bc 7f1f 06bd 66e5 83bd
000001e0: d25c ebbc 4617 45bd 2fc3 03bd 13d8 abba
000001f0: 6333 a6bd ecb2 16bd 4793 1b3c 1ff2 0cbd
00000200: c2cc 8bbd dfb7 9bbc 2ae6 2dbd 0653 a3bc
00000210: b578 2abd 56e5 19bd bed6 b7bd e017 b1bc
00000220: 9b4a 7abd e07d 1dbd c319 45bd 3e34 9cbb
00000230: c9d6 09bd ce34 09bc 8766 a4bc 3e21 2dbd
00000240: 1bd2 96bc 80a1 65bd 67c3 6cbd 7c78 6abb
00000250: 267d 12bd 3e36 a2bd e42a 90bd abe4 04bd
00000260: 9838 e0bc 0866 493c fbf8 ddbc 1ee2 3abd
00000270: 0ac3 00bc 59bb 94bd 0c34 3ebd e53f b1bd
00000280: 1a99 6cbd c9eb 39bd 289a 3bbd 3d21 6dbd
00000290: 255b 62bd 90b7 84bb dec8 3dbc 74f7 55bd
000002a0: 4f2e 17bd 705b 3bbd 26cc 9abd d819 c9bb
000002b0: 876c 52bd 6dd6 ffbc 202d 54bc 8fd2 c3bc
000002c0: 7141 3dbd 02c6 d9bc 4b57 a6bc 5b2a 46bd
000002d0: 1ce2 8bbd 2137 10bd bb75 3bbd ec3f c6bc
000002e0: fb52 8abd b468 3ebd d7d9 8cbd 8e01 06bd
000002f0: 69f6 19bd ca7b c1bc 11a2 a4bc e737 61bd
00000300: 0568 eebc aab9 54bd ae6f 46bd e922 24bd
00000310: f3d2 e9bc b23e 363c 877b 9bbc c6bd 14bd
00000320: 08ba 23bd 8235 40bd 11db 9abd 8e61 babd
00000330: 9ad4 33bd 100d 39bd 4d2f 31bd 6962 6abd
00000340: 9a61 02bd 4c86 1fbd 9eb1 16bd 940a 21bd
00000350: b3d9 7fbd 1eb9 0abd d9dd 00bd e2e6 55bd
00000360: d5b5 40bd 42e9 4abd 3fde 06bd 0e43 79bd
00000370: 3468 1dbd b6d0 fcbc 3278 6ebd 5aee 7bbd
00000380: 01d0 0fbd 6c42 1fbd bde5 0cbd 244d 1ebd
00000390: bd9c 3abc 0ffe dcbc a266 aebc 8acb 02bd
000003a0: 150a acbc 938e 4bbd 1363 a1bd 482e 5ebd
000003b0: cd06 74bc ffc9 6abd a22d a4bc ba08 23bd
000003c0: 79f1 11bd 3090 22bd c5df 79bc 8e25 89bd
000003d0: 2043 40bd 0227 0abd cf15 7fbd fb55 2dbd
000003e0: 10ae 7cbd 6cb1 4ebd 81a6 b8bc 8717 8bbc
000003f0: 23d3 5fbd 3b22 cabc e25d 95b9 084b ddbc
-0.03676765 -0.03114534 -0.0181356 -0.042202905 -0.052894443 -0.0025023224 -0.062433697 -0.052209068
-0.038330335 -0.048644654 -0.049664635 -0.019721292 -0.019631252 -0.065467715 -0.02387664 -0.06514876
-0.03420218 -0.0628096 -0.01638246 -0.013192335 -0.027913334 -0.024732247 -0.021057384 -0.042032443
-0.02766401 -0.025094792 -0.029601801 -0.031169135 -0.044440027 -0.02517494 -0.01046802 -0.013761283
-0.03568276 -0.0147099625 -0.023130985 -0.0749468 -0.041617416 -0.051315237 -0.03155147 -0.027933313
-0.056719083 -0.061461695 -0.068810925 -0.020815335 -0.031459067 -0.04959336 -0.045070887 -0.030256592
0.0010473354 -0.050163962 -0.008001904 -0.05087099 -0.053751595 -0.040111415 -0.04052187 -0.075788945
-0.013206086 -0.068144046 -0.035718065 -0.0146400025 -0.05726071 -0.075391605 -0.049141333 -0.07015254
-0.057395127 -0.076805525 -0.029931676 -0.07283314 -0.05477946 -0.04408912 -0.02469465 -0.0637787
-0.033294067 -0.047230538 -0.011360522 -0.03664445 -0.047562882 -0.038917467 -0.009490986 -0.07604663
-0.0009826297 -0.07305073 -0.029449543 -0.04161265 -0.08777688 -0.019700816 -0.038833756 -0.043388385
-0.013065043 -0.07034368 -0.018381907 -0.10624104 -0.046164677 -0.031656865 -0.04707773 -0.034049287
-0.054313667 -0.009522542 -0.04241527 -0.038034838 -0.05875229 -0.057422243 -0.032761753 -0.038137764
-0.04428457 -0.057810605 -0.06267343 -0.06860213 -0.03798782 -0.06610903 -0.00819729 -0.07001293
-0.06475386 -0.04896185 -0.041304544 -0.0319919 -0.014186204 -0.02610712 -0.03274488 -0.06440239
-0.028730784 -0.0481179 -0.032168563 -0.001311066 -0.0811527 -0.036791727 0.009495563 -0.034410592
-0.06826164 -0.019008575 -0.04245583 -0.01993705 -0.04161902 -0.037572227 -0.08976506 -0.02161783
-0.061106306 -0.038450122 -0.04812027 -0.00476697 -0.0336521 -0.008374406 -0.02006842 -0.04226803
-0.018410733 -0.05606222 -0.057803538 -0.003577738 -0.035763882 -0.07920502 -0.07039431 -0.032444637
-0.027370736 0.012292393 -0.027096262 -0.0456258 -0.007859001 -0.07262296 -0.046436355 -0.08654765
-0.057763197 -0.045390878 -0.04580131 -0.057893027 -0.055262703 -0.0040502027 -0.011583535 -0.052237943
-0.036909398 -0.0457415 -0.075584695 -0.006137114 -0.05137303 -0.031230176 -0.012950212 -0.023904113
-0.046204988 -0.026583675 -0.020305296 -0.048380237 -0.06830236 -0.035208825 -0.045766573 -0.024200402
-0.067541085 -0.04648657 -0.06877487 -0.032716326 -0.03758851 -0.023618598 -0.02009681 -0.054984953
-0.029102335 -0.051934876 -0.04844635 -0.040072355 -0.028542971 0.011123346 -0.0189798 -0.036313795
-0.039972335 -0.04692603 -0.07561315 -0.09100638 -0.043903925 -0.045178473 -0.043258 -0.057222757
-0.03183136 -0.038946435 -0.036790483 -0.03931673 -0.062463474 -0.033867948 -0.03146157 -0.05222214
-0.04704841 -0.04953886 -0.032926794 -0.060854964 -0.038429454 -0.03086124 -0.058220096 -0.061506607
-0.035110477 -0.038881704 -0.034398783 -0.038647786 -0.011389908 -0.026976613 -0.021289174 -0.03193239
-0.021000901 -0.049696516 -0.07880225 -0.054243356 -0.0148942 -0.057321545 -0.02004129 -0.039803244
-0.035630677 -0.03968829 -0.015251105 -0.06696616 -0.046939015 -0.033728607 -0.062276658 -0.042318325
-0.061689436 -0.05046217 -0.022540333 -0.016978992 -0.054644715 -0.024674525 -0.00028489443 -0.027013317

network_body._body_endoder.seq_layers.2.weight f4 [256, 256]
00000000: 9fb4 3e3d 4141 803d 6bce 82bd 5c04 4bbb
00000010: 58e7 38be 517a 60bd 9747 1abe a79e 823d
00000020: 7eb3 a4bd 0ddc 0bbd fb2e 83bd d5a2 6abd
00000030: b3f6 b93c 30ea c63d 9c08 18be 16c5 4cbb
00000040: 90b3 ca3c be0c 253d 523f 3dbd ddec 78bd
00000050: 78ae 833d 6ff0 f7bb 0914 99bd 3ee0 20be
00000060: f27a 92bd e251 983b f6f4 a8bc 42dc 403e
00000070: 6ea2 993d edd6 693c ca4c 3abd ce90 b23c
00000080: c73f 7dbd 542d 94bd e011 053e 523b 6c3d
00000090: fab0 9c3d 16a1 393b f808 313c c1c2 c6bc
000000a0: ff6f db3b 974d 87bd 480e 853d 8059 5bbd
000000b0: 696b 293c 2860 cc3c 4d67 d2bd 959e f4bc
000000c0: d8bd 7abd f882 b73d 2e77 763d 8386 c3bc
000000d0: 9a05 d9bd 2750 913d 1a1b 443d 5f78 cc3b
000000e0: 6ef4 6dbd 7ce6 50bd 2534 bdbc 658b 1ebc
000000f0: b111 cabc c3fb d8bd 352e e43d f560 193d
00000100: 4846 0f3d 56ef afbd a24d 853e a2e2 febc
00000110: e9e8 b8bc 2372 76bd fa6e c63c 4d1f fa3c
00000120: 5f03 0dbe 3adf f1bc ef03 d9bd fc81 8d3d
00000130: bb67 543d 98af 1c3d 82ec afbd d74d 82bd
00000140: 9b5a 4d3d ceab 843b 61a7 77bd eff8 293d
00000150: ef65 97bc 6e71 eebc d510 2ebd 3cfa 303d
00000160: ac66 b03d ef40 a83c 08ab 513d 1ff5 5e3b
00000170: 2d04 a7bd 0bdb a7bd 3511 5a3d 5835 d7bd
00000180: 5ab2 e2bd f3b4 9bbc ca63 bbbb 8b8a b1bc
00000190: 5be8 81bd cbfc 543c 06b7 343c 5568 b5bd
000001a0: 0cde 09be 7911 30bd ea9b 80bc ec92 523d
000001b0: 0cd5 4a3a b064 0a3e 7b70 8d3d 9ac6 7dbd
000001c0: d32f afbc d0f7 b3bc 28c4 8abd 17cd b2bd
000001d0: 4a98 563d 957c d03d 999f aa3d 4519 2bbe
000001e0: 0587 afbd d570 e4bc 76a8 36be 063a efbd
000001f0: 9c1b 53bd 1dd7 043e 9069 5f3c c9b4 e8bc
00000200: 8535 03be b231 13be fc3f b9b9 914b 4d3d
00000210: 2c19 02be 1ae4 9abd ae82 90bd e47f afbc
00000220: 37ed c93d d712 aabd 0fe7 d23d ef60 553c
00000230: 77e5 cdbd 19bf 21bd e540 51be 6529 663d
00000240: b065 76bd 1b61 93bb 09e5 e83c dd76 11bd
00000250: 8978 123d 647d 24be 3864 8dbd 0b2a aabd
00000260: 075d 1c3d 309d 693d 0957 31bd 4c6d a3bd
00000270: 337d a1bc c7b1 3abd e828 3bbd a454 c6bc
00000280: 31b4 a13d 6e50 91bd c23b 32be e05b 17bd
00000290: b8df 93bd f64b 233e a9af a93d 1d04 4fbd
000002a0: 170b dbbd c91d ecbd aa8e 14be 3348 6cbd
000002b0: a3a5 c6bc 9651 853c d3fd 74bd 9d4f 723d
000002c0: 8b5c 87bd 265d e93d bb4b 933b 71cb 283e
000002d0: 4a4b 9fbd 26e4 8cbd d09a ba3d b2e9 ec3d
000002e0: ea4a b1bd fb45 e33d 6edb 633c d0fd 45bd
000002f0: 5058 823c 8f12 cc3d 8fcb a4bd b065 9f3c
00000300: 4b9e fc3d d0c1 553d 6378 9e3c c099 2cbd
00000310: f162 acbc a2ce ec3c fa8b 113e 64fe 0fbd
00000320: 628a 30bc aefb 26be 7379 4fbe 80e3 2f3a
00000330: 46d3 913c 0e51 6a3d 9245 c43d b79e 16bd
00000340: 061d dabc 0da2 e1bd f91b 093e 683f cebc
00000350: 9051 d6ba 576e 053c 2399 31bd 6311 b9bc
00000360: 3a3f 343c 8a47 79bd 7737 063e f432 dd3c
00000370: 7249 a73c 5615 a8bd adbb 5dbd 3cb2 ae3d
00000380: 99a7 cc3c 338f ac3d 28ac 3cbd fd78 b7bd
00000390: 7e61 87bd cf70 14bd f412 8dbd 990f 5d3d
000003a0: a4ca 84bd 558b 44be e51c bcbd 4c59 ad3d
000003b0: 65a0 883d 92ec 04be a287 023e 418c 21be
000003c0: 9406 a2bd 1894 2e3d dfb2 3cbd 5b21 83bd
000003d0: 041a 543d eb60 3ebd e3bd 13bd d852 633d
000003e0: 2400 d83d 29ac 6bbd 8946 83bd f7b0 533d
000003f0: 1c66 09bc 1421 8b3c ace9 3abd 7d57 5e3d
0.046558972 0.06262446 -0.06387027 -0.003097794 -0.18057 -0.05480415 -0.15066372 0.06377917
-0.08042048 -0.034145404 -0.06405445 -0.057284195 0.022700643 0.097126365 -0.14847034 -0.0031245402
0.024743825 0.040295355 -0.046202965 -0.060772765 0.06429762 -0.0075665037 -0.074745245 -0.15710542
-0.07152356 0.004648433 -0.020624619 0.18834022 0.07501684 0.014272434 -0.045483388 0.021797564
-0.0618284 -0.07235208 0.129951 0.05767376 0.07650943 0.0028324774 0.010805361 -0.024262788
0.0066967006 -0.06606596 0.064968646 -0.05355215 0.01034055 0.024948195 -0.10273609 -0.029860774
-0.061216205 0.08960527 0.060172252 -0.023867851 -0.105967715 0.07095366 0.04787741 0.0062399353
-0.058094434 -0.051001057 -0.023096154 -0.009676789 -0.024666639 -0.10594895 0.11141626 0.03744598
0.034979135 -0.085905716 0.26035792 -0.031113926 -0.022571998 -0.060167443 0.02422284 0.030532504
-0.13770817 -0.029525388 -0.105964534 0.06909558 0.051856738 0.038253397 -0.08590032 -0.06362503
0.050135236 0.004048801 -0.06046236 0.041497167 -0.018481223 -0.029106822 -0.04249652 0.043207392
0.08613333 0.020538775 0.0511885 0.0034020615 -0.08155093 -0.08196076 0.053239066 -0.105082214
-0.11069174 -0.019007182 -0.005718683 -0.021672508 -0.063431464 0.012999724 0.011029964 -0.088577904
-0.1346361 -0.042985413 -0.015699346 0.051409647 0.0007737435 0.13514972 0.069062196 -0.06195698
-0.021385109 -0.021968752 -0.06775695 -0.08730524 0.052391328 0.10180012 0.08331222 -0.16708858
-0.08570675 -0.027885834 -0.178377 -0.11680989 -0.051540002 0.12972684 0.013636008 -0.028406518
-0.12813385 -0.14374426 -0.00035333622 0.050120894 -0.12704915 -0.07563038 -0.07056175 -0.021423288
0.09859698 -0.08304375 0.10297977 0.013023599 -0.100535326 -0.039488886 -0.20434912 0.05619182
-0.06015557 -0.00449766 0.028429525 -0.035513747 0.035759483 -0.16063458 -0.06903881 -0.083088
0.038174655 0.05703467 -0.043295894 -0.07979831 -0.01971302 -0.045579698 -0.045693308 -0.024210282
0.07895697 -0.07095419 -0.17405608 -0.036952853 -0.07220405 0.15946946 0.08285458 -0.050541032
-0.106954746 -0.115291186 -0.14507547 -0.057686042 -0.024248904 0.016274255 -0.05981238 0.059157956
-0.06609448 0.1139472 0.0044951118 0.16483857 -0.07778032 -0.06879453 0.091115594 0.11568011
-0.08656867 0.11097332 0.013907297 -0.048337758 0.015911251 0.09964477 -0.08046638 0.019457668
0.123348795 0.052186787 0.019344514 -0.042138815 -0.021043273 0.028907124 0.14213553 -0.035154715
-0.0107751805 -0.16306946 -0.20261173 0.00067096204 0.017800938 0.057206206 0.09583582 -0.036772456
-0.026625168 -0.11017237 0.13389577 -0.025176719 -0.0016351212 0.008143983 -0.043358933 -0.022591298
0.0110014025 -0.06085924 0.13107096 0.027001835 0.020420764 -0.082071945 -0.05413406 0.08530089
0.02498226 0.084257506 -0.04606262 -0.089586236 -0.06610392 -0.036240395 -0.06888381 0.053969953
-0.06483963 -0.19193776 -0.09185199 0.08464298 0.06671218 -0.1298087 0.12747052 -0.15776159
-0.07911411 0.042621702 -0.046069022 -0.064028464 0.051782623 -0.046479147 -0.036069762 0.055498928
0.10546902 -0.05753723 -0.06409938 0.05168244 -0.008386161 0.016983546 -0.045633003 0.054282654

network_body._body_endoder.seq_layers.4.bias f4 [256]
00000000: 6b42 e9bc 2160 cdbc ded0 50bd 9d6a 0cbd
00000010: 014c 55bd ad79 fbbc 4f04 14bc ca55 4fbd
00000020: 500e 07bc 78ba 83bb 107d 96bc cec6 04bd
00000030: 6164 10bd 54fb edbc cfaa 23bd 0ee2 85bb
00000040: e071 02bd 1f85 70bd 2047 89bd 6cc7 e4bc
00000050: 5512 3dbd 712b e6bc 02d4 11bd 125b b0bc
00000060: d541 65bd fa58 0fbd d684 0ebd 17ef 2abd
00000070: 7742 15bd 4c3d 89bd afe5 eabc 1d48 04bd
00000080: 8264 23bc 3de3 2fbc 8737 73bd a05a 77bc
00000090: 10bd 20bd 04a5 2dbd 222e 7fbd 87ec 05bd
000000a0: d01f 2cbd 02a7 46bc c41f 64bc e31f 25bd
000000b0: 3d37 4abd 4a71 30bd eafc 71bc 9acc a6bc
000000c0: 718e c6bc 3aea 3dbd 39ce 623a b7c2 f0bc
000000d0: 2f18 3cbd 7264 43bd 4537 5dbd 2fb4 bfbc
000000e0: 861f 05bd 0230 46bd c562 33bd 2058 ed3a
000000f0: 1b27 90bc 7b07 91bc 6e79 59bd 2636 0cbd
00000100: fe2f ccbc 30fd 4cbd 32de 99bc de00 52bd
00000110: 8430 2fbd 1743 293c 40ef 87bc 39f8 25bd
00000120: 2644 39bd 828e 9dbc 0e0f e3bc 0a2f e3bc
00000130: a44b dcbc 8e7c 45bd e92c 8fbc 2cd4 ffba
00000140: 5c19 1abd 51fc 02bd 953d 76bd ecd9 cbbc
00000150: ed66 54bd 958f 1abd efbe 0ebd d68d bbbc
00000160: 5c60 0fbd f8ff 76bd 31a1 e0bc 9c82 06bd
00000170: 255b 14bd 03b4 a2bc 2bbd 32bd 1bde 25bd
00000180: 93a4 38bc 81b4 80bd 9f4e 63bd 46c8 2abd
00000190: af22 b5bc ff59 94bd dd6e 61bd 5b6a 85bc
000001a0: 9657 40bb 4887 b0bc 1485 74bd ec34 e6bc
000001b0: bf4c 2cbd 691f f9bc 99d4 53bd 1e97 53bd
000001c0: e775 49bd 2903 57bd 2714 f5bc f571 f7bc
000001d0: 9a18 0dbd f744 1dbd 238e 49bd 8259 17bd
000001e0: 16f8 2fbd 5fa4 25bd 063b 52bd 14a5 1fbd
000001f0: 29d2 f0bc 4dc8 bebc 8748 34bd b28f c6bc
00000200: 2a2b fcbc 7db4 6fbd 1912 b4bc 65b1 ecbc
00000210: e3b5 1bbd ada4 5cbc 4325 d0bc f660 92bc
00000220: fce8 1fbd c15c 9fbc 30a6 56bd 932b 30bd
00000230: 1f52 d5bc d560 59bd 25a8 43bd ab48 a3bc
00000240: d07e fcbc 52d6 69bc c458 47bd f3ad 6dbb
00000250: 3649 5abd 96bf 7dbc de28 55bd 56fd 4dbd
00000260: d23f ddbc cc46 32bd fe18 3bbd 7450 10bd
00000270: 610e 28bd 2f20 37bd 1997 ecbc 4434 20bd
00000280: 79d6 5ebd a8e4 06bd f63b 11bd 05cb 5dbd
00000290: d1bf 36bc 7b1e 79bd ea31 4abc 147c 0ebd
000002a0: f7d9 05bd 288e 873b 0c51 a6bc 0ef3 36bd
000002b0: fdb6 48bc d59f d9bc 6085 05bd c902 b0bd
000002c0: 19b7 26bd 5c7b ebbc 62bf 68bc beed 44bd
000002d0: c616 56bd 6f72 d0bc 2735 18bd 92ff 95bb
000002e0: 26d3 73bd 5732 b8bc 25a6 4ebd 416d 09bd
000002f0: ff85 7bbd 8795 c0bc 489a 53bd e62f 07bd
00000300: 5cf1 39bd 76bd 0a3c 7303 12bd 40f9 8bbb
00000310: b123 febc b18c debc 2ed1 debc d34a 1fbc
00000320: 0d0e fbbc 0903 9dbc ad2a 9abc d427 f7bc
00000330: ca06 78bc f053 0cbd cf1d 53bd 068d 67bc
00000340: c677 21bd 7055 70bd e0db fabc 43e3 24bd
00000350: 5098 e5bc 69db 20bd 6814 babc cf59 b5bc
00000360: b3c9 f0bc f590 27bd 1c91 c3bc 2fb4 07bd
00000370: def2 43bd 62b1 18bd 309d 2abd b437 13bd
00000380: 296d bdbc 8535 56bd bcca 4fbd 6c5b 18bd
00000390: 4e3a 02bd 484e 24bd 55f8 16bd 1951 02bd
000003a0: 1a4f 28bd cbc4 38bd 6784 38bd e516 19bd
000003b0: 2fe1 b5bc 7d79 d9bc bdf9 5ebd a725 81bc
000003c0: b9dd 4dbd 40da ebbc 09a0 43bd fbfe 0bbd
000003d0: f730 5bbd 7caa a7bb 48ec 8ebc e273 13bd
000003e0: 4a3d d6bc 9083 acbc 70c3 8ebc 0a26 3bbd
000003f0: b7fa 87bc d579 6abc 200d 29ba 26f6 aebc
-0.028474053 -0.025070252 -0.05098044 -0.03428136 -0.052074436 -0.030697668 -0.00903423 -0.050618924
-0.008243158 -0.0040200315 -0.018370181 -0.032416157 -0.03525198 -0.029050507 -0.039957818 -0.0040857857
-0.03184688 -0.058720704 -0.06703019 -0.027927123 -0.04616006 -0.028096886 -0.035602577 -0.0215278
-0.055970985 -0.034996964 -0.03479465 -0.04173192 -0.03644034 -0.067011446 -0.028673975 -0.032295335
-0.009972693 -0.01073533 -0.059379127 -0.01509729 -0.039242804 -0.0423937 -0.062299855 -0.032696273
-0.042022526 -0.012124779 -0.013923589 -0.040313613 -0.049369086 -0.04307679 -0.014769772 -0.020361234
-0.024237843 -0.046365954 0.00086519454 -0.029389722 -0.0459215 -0.047703214 -0.054007787 -0.023401348
-0.032500766 -0.048385628 -0.043795366 0.0018107928 -0.017596772 -0.017703762 -0.05309432 -0.034231327
-0.024925228 -0.050046146 -0.018782709 -0.05127036 -0.042770877 0.010330937 -0.016593575 -0.040519927
-0.045231007 -0.019232992 -0.02771714 -0.02773239 -0.026891537 -0.048214488 -0.01747747 -0.0019518188
-0.03762184 -0.03197891 -0.060117323 -0.024884187 -0.05185597 -0.037734587 -0.034850057 -0.022894781
-0.035004005 -0.060302705 -0.027420612 -0.032839403 -0.036219735 -0.019861227 -0.043637436 -0.04049502
-0.011269706 -0.062844284 -0.0554949 -0.041694902 -0.022111265 -0.07243728 -0.055037368 -0.016286066
-0.002934908 -0.021548882 -0.059697226 -0.028101407 -0.04206538 -0.030410485 -0.05171642 -0.05165779
-0.049184706 -0.052493248 -0.029916836 -0.030205706 -0.03444729 -0.038395848 -0.049207818 -0.036950596
-0.042961203 -0.04043996 -0.05132582 -0.03897579 -0.029397087 -0.02328887 -0.04401448 -0.024238441
-0.030782301 -0.058521736 -0.021981286 -0.028893182 -0.038015258 -0.013466996 -0.025408393 -0.0178685
-0.03904055 -0.019453408 -0.052404583 -0.043010306 -0.026040135 -0.05307086 -0.047767777 -0.019932112
-0.030822188 -0.014272289 -0.048668638 -0.0036267012 -0.053292476 -0.015487572 -0.052040927 -0.050290428
-0.027007971 -0.04352455 -0.04567813 -0.035232976 -0.041029338 -0.044708427 -0.028880643 -0.039112344
-0.054403756 -0.032932907 -0.035457574 -0.054148693 -0.011154131 -0.060820084 -0.012341002 -0.0347863
-0.03267857 0.0041368194 -0.020302318 -0.04466539 -0.012250659 -0.026565472 -0.0325979 -0.08594281
-0.04070196 -0.028745346 -0.0142057855 -0.04807829 -0.052267812 -0.025445191 -0.037160065 -0.0045775855
-0.05952754 -0.022484941 -0.050451417 -0.03355146 -0.061407086 -0.0235088 -0.051660806 -0.033004664
-0.045396194 0.008468023 -0.03564782 -0.0042716563 -0.031022878 -0.027166696 -0.027199354 -0.009722429
-0.030646348 -0.019166486 -0.018819178 -0.030170359 -0.015138337 -0.034259737 -0.0515421 -0.014132744
-0.039420865 -0.05867523 -0.030622423 -0.040255796 -0.02802673 -0.039271746 -0.022714809 -0.02213755
-0.029393053 -0.040909726 -0.023872904 -0.03313082 -0.047839038 -0.03727854 -0.041653812 -0.035941795
-0.02312334 -0.052297134 -0.050730452 -0.03719656 -0.031793885 -0.040113717 -0.03685792 -0.031815622
-0.041091062 -0.04510955 -0.045048144 -0.03737535 -0.022202102 -0.026547188 -0.054437388 -0.015765024
-0.05026028 -0.028790593 -0.047760043 -0.034178715 -0.053513493 -0.005116759 -0.017446652 -0.035999186
-0.026152272 -0.021058828 -0.017427176 -0.045690574 -0.016599042 -0.014311274 -0.0006448794 -0.021357607

network_body._body_endoder.seq_layers.4.weight f4 [256, 256]
00000000: 326c fdbb d520 fcbc 01cd 17bd 8c07 ff3d
00000010: 54e2 3f3d fbf8 e1bd 9a64 e3bc c689 6d3d
00000020: 4470 82bd 26fd bc3d d767 c93d 6ced 1cbe
00000030: ee74 19be ed77 c63d a7da 8d3d b601 5ebd
00000040: 7529 073c 94d3 853b ec18 d6bd 88f3 a5bd
00000050: f921 c13d 9a59 e3bd 0791 1ebe 1355 a5bb
00000060: c089 413d b08e 3f3e c12f ba3d af3f 603c
00000070: cc79 2b3d 17d2 cbbc a516 80bd 7926 8abd
00000080: 9b82 593c e6cd aa3c ba37 2abd 8831 eabb
00000090: 632e c7bd ca2d 66bd fc58 aa3c df05 873d
000000a0: 404e fc3c ae24 5dbd 0c6d a6bd b75b cabd
000000b0: 4fd0 063d 8bf1 5bbd 806d b6bd 8f6c 403d
000000c0: 3528 87bb 0eab a8bd 21ca 223d 0ea8 50ba
000000d0: 67b7 033d 222b 043c 653f 04bd 0261 d8bb
000000e0: 5a1b 81bd 1b3c 4a3c a9eb 5dbd 0a8a 19be
000000f0: e98e 163d fc54 eabd 8efb ccbc 3577 18bd
00000100: 45fc 3e3d 8ac3 1c3b e957 d9bd 8224 e73c
00000110: 8fc6 7d3c 479f 56bd cd2b 92bc 3ab0 1dbd
00000120: cb58 7f3d 3461 42bc fbc9 a83d aa25 85bd
00000130: 7f07 b83d 43b5 d2bc 1a14 afbd 9689 993d
00000140: 6bfb 25bd 9e00 0a3e ffb4 543d 4b8e a63d
00000150: a4f7 07bd 109c 443c bea8 21be 5670 3f3e
00000160: d968 4ebc f762 6dbd 644d ba3d 1f00 bcbd
00000170: 9ef3 883d 0910 873d 01fe e93d d6ce 813e
00000180: a9ef a5bd d570 34bc 15bb 943d 78ab e8bb
00000190: 6d8a b43c 7ed9 813a 039a c2bd 6a72 af3d
000001a0: 491e 9e3d fc00 3a3e a314 e43d cd11 393c
000001b0: e239 fc3d 0585 963d c195 553d cdce ae3d
000001c0: 03d4 ecbd 832a 6abe b3f2 83bd b6a4 8f3d
000001d0: 29db d2bd c0f1 f33d 1305 6bbd 18ad 8ebd
000001e0: fc0e 1e3e ed78 ddbc b043 0dbd ec0d d43c
000001f0: f5fe 7e3d cc85 a23d c6de 4dbe 7a38 8f3c
00000200: 27b8 afbc 903c 8e3d 32f7 19be dbe8 bfbd
00000210: 791e b63d 3b6f 82bd 0539 08bd 7af2 cbbd
00000220: 3b31 58bd 3635 1f3d b795 eb3c 0371 333e
00000230: 04ed 7ebd 3d3e fd3c ae6d 9b3d 0a7b 9fbd
00000240: cd72 493d 831d b3bd 6b38 093e 7794 9c3d
00000250: df44 3bbd b7b4 51bd 1996 5b3c f1ee 39bd
00000260: 9e08 ebbc 1887 8bbd 3ce3 cd3d 6748 b1bd
00000270: 1ce1 003e 897e 0a3e de2e 123d b376 563c
00000280: 92aa d23a 87e5 1dbb e097 3f3d 3474 06bc
00000290: d349 b9bd 948e 5c3d 54cd 46bd fde2 83bd
000002a0: 5e38 b83d 50ce 93bd f97c 4ebc f650 31be
000002b0: c411 8bbc 002e 01be 87a1 0ebd c70d f53c
000002c0: beae 963d 4f47 50bc 6a34 b8bc 1155 c63d
000002d0: 18d9 a43c f151 cfb9 70a3 b3bd 1748 eebd
000002e0: c9db 4dbd e733 a83c 0ea0 893c 5c7c 013e
000002f0: f03c c2bc e8f8 693d 48c5 5abe 1534 223d
00000300: 1e52 f7bd f3a9 133e be7b 8cbd 18e5 9dbc
00000310: d4b0 ffbd d66e 04bd fc36 9ebd 09e3 293e
00000320: 5a79 02bd 3d5b 133e 1b2f e93d d578 0b3c
00000330: 9d62 5b3d be00 08bc 0cb5 783c 297c 673d
00000340: 1a1e 8a3d 7b4d 5fbd 037b 72bd 8625 a9bd
00000350: ec06 803d ba24 19bd b781 b33d 9e17 f03d
00000360: 5fa6 7f3b 44e0 08be 84e2 8e3d 6ed2 81bc
00000370: 1710 c9bd a249 a9bd b3db 153d 66a8 ad3b
00000380: 7ef6 38bd d231 2f3c 0d40 743d 297b 483a
00000390: f83c 14bd 825f 063e 175c 0f3d 8bff 2a3d
000003a0: a92e 6f3d 8296 edbc 491f 4a3d 4726 513e
000003b0: 8914 653d b4a3 493b 82d7 343d 3eab 143d
000003c0: 3468 29bc 9931 c3bd 04b0 34be 1e4a 303c
000003d0: c216 88bd 4448 0abe c6f1 9d3d 5ef2 9bbd
000003e0: 3e79 afbc 573e e33a 5fcb 9f3d 9ce1 813d
000003f0: c252 873b 7189 e83d 7e45 f63d fa86 12bc
-0.007733845 -0.030777374 -0.03706074 0.12452611 0.046846703 -0.110338174 -0.027757932 0.05799272
-0.06369069 0.09227972 0.09834259 -0.15324944 -0.14986011 0.09690843 0.0692647 -0.05420085
0.00824963 0.00408406 -0.10453972 -0.081030905 0.09430308 -0.111010745 -0.15485011 -0.005045542
0.04725051 0.18706775 0.090911396 0.013687058 0.0418642 -0.024880452 -0.06254319 -0.06745619
0.013275768 0.020850133 -0.04155705 -0.007147018 -0.097256444 -0.05619601 0.020794384 0.06592917
0.030799031 -0.05399006 -0.08126268 -0.098807745 0.032913502 -0.05369715 -0.08907604 0.04697853
-0.004124666 -0.08235751 0.039743546 -0.00079596124 0.032157328 0.008066924 -0.03228702 -0.006603361
-0.06304045 0.012343432 -0.05417982 -0.14994064 0.036757383 -0.11441991 -0.025022294 -0.03722306
0.0466273 0.0023920261 -0.10612471 0.02821565 0.015489235 -0.052397992 -0.017843151 -0.03849814
0.06234054 -0.011863995 0.0824165 -0.065013245 0.08985805 -0.025721198 -0.08548756 0.074969456
-0.040522974 0.13476798 0.051930424 0.08132609 -0.033195153 0.012000099 -0.15787026 0.18695197
-0.01259824 -0.05795571 0.09096792 -0.091797106 0.06687091 0.06594855 0.114254005 0.25353116
-0.08102352 -0.011013229 0.072622456 -0.007100519 0.022038663 0.0009906737 -0.09502032 0.085667446
0.0772062 0.18164438 0.11136749 0.011295748 0.12315728 0.0734959 0.05214477 0.08535538
-0.115638755 -0.2286778 -0.064427756 0.07013838 -0.10295708 0.119113445 -0.057377886 -0.06966609
0.15435404 -0.027035201 -0.03448838 0.025885545 0.062254865 0.07935676 -0.20104513 0.017482985
-0.021450115 0.06945145 -0.15035704 -0.093705855 0.08892531 -0.06368872 -0.033257503 -0.09958358
-0.052781325 0.038869105 0.028757913 0.1752358 -0.062237754 0.030913467 0.07589279 -0.0778714
0.04918175 -0.08745863 0.13400428 0.07645505 -0.045719977 -0.051197734 0.013402485 -0.045393888
-0.028690632 -0.068128765 0.10053107 -0.08656388 0.12585872 0.13524832 0.035689227 0.013089824
0.0016072562 -0.0024093108 0.0467757 -0.008206416 -0.09047284 0.05384691 -0.04853566 -0.06439779
0.08995126 -0.07217085 -0.012603038 -0.1731604 -0.016976245 -0.12615204 -0.034822013 0.029913796
0.07357548 -0.012712314 -0.02248593 0.09684194 0.02012305 -0.00039543168 -0.087714076 -0.11634844
-0.05025843 0.020532561 0.016799953 0.12645096 -0.023710698 0.05712214 -0.2136432 0.03960045
-0.120762095 0.14420299 -0.068595394 -0.01927428 -0.12484899 -0.032332264 -0.07725331 0.16590513
-0.03185401 0.14390273 0.11385938 0.008512695 0.05356084 -0.008300958 0.015179884 0.056514893
0.06744023 -0.05451725 -0.059199344 -0.0825911 0.0625132 -0.03738854 0.087649755 0.117232546
0.0039009077 -0.133668 0.06976798 -0.015847411 -0.09817522 -0.082659975 0.036586475 0.0052996157
-0.04515695 0.01069303 0.059631396 0.0007647747 -0.036190957 0.13122371 0.034999933 0.04174761
0.058394108 -0.029002432 0.049346242 0.20424758 0.055927787 0.003076774 0.044150837 0.03629612
-0.010339785 -0.095309444 -0.1764527 0.010759858 -0.06644966 -0.1350413 0.0771213 -0.07614587
-0.021420117 0.0017337304 0.07802462 0.0634186 0.0041297385 0.1135434 0.12024973 -0.008943314

network_body.observation_encoder.processors.0.normalizer.running_mean f4 [14]
00000000: 0000 0000 8ef9 d03e 0000 0000 d6bc d03e
00000010: 0000 0000 fcd3 d23e 0000 0000 c3b7 d23e
00000020: 0000 0000 b9b3 d43e 0000 0000 757d d43e
00000030: 0000 0000 747d d43e
0.0 0.40815395 0.0 0.4076907 0.0 0.41177356 0.0 0.41155824
0.0 0.41543368 0.0 0.41501966 0.0 0.41501963
